weights/Linear_L16_H64_E100_s1.pt (torch, 24414 bytes, 5 tensors)

layer1.weight f4 [64, 80]
00000000: ddc9 363d a7d1 75bd aab0 12bd c9ba 073d
00000010: a1d3 e9bd 1330 553d 1cc1 0dbd 070c 303d
00000020: b5be 50bb 3534 11bd 8d05 463c 20f1 03bc
00000030: cd5c d93c ede9 7ebd 601c 19bd 05ff 03bd
00000040: 6b04 a939 878f 77bc d00d a23d d9b8 a83b
00000050: 6c05 89bd 4470 afbd 6a35 0abd d9b7 88bd
00000060: 665e 86bd 1b57 b8bc f205 3e3d 72c0 393d
00000070: adc5 02be 7ac0 253d cb73 6d3a 15bc aa3d
00000080: 08f0 6b3d 18aa f6bd 78ce 0fbe 86cb b0bd
00000090: 1179 943d c369 13bd 2d34 ed3c d574 bbbd
000000a0: cdc9 963d c08b 9cbd 0355 843d d592 95bc
000000b0: dff1 dabd 9779 943c 83bd bbbd 2ef9 413c
000000c0: 3d72 57bd 3526 6fbd 9a63 1abe 790c b6bd
000000d0: 143a 1a3d b807 46bd 52a0 803d 8fd8 353d
000000e0: 963a 30bd 508d cbbd 60f6 3c3d 77d0 15bc
000000f0: f9a6 f3bd 4a6b 073d 35f7 283d ac5c 9c3d
00000100: 8e7d e0bd 2de0 89bd 76f7 36bd 41b2 53bc
00000110: e2ff debd 42cc 0dbe 41b3 2a3b 9999 99bd
00000120: 5ec9 ac3c facd a3bc dc1a 65bd 6906 63bd
00000130: 1afc abbc 33eb 6b3c 65bc 09be 6756 cfbd
00000140: 62d3 a6bd 3575 bcbd faad c6bb cb49 08bd
00000150: 909b 963d f2cb 6cbd c6cd c6bd 53b7 a03d
00000160: 3769 b0bc 2beb 8d3d b40e 2d3d b976 a4bd
00000170: ff05 a83c 1dda b33c e5d9 90bd 1d9b 40bd
00000180: abca 2d3d cd99 9d3c 7acd 56bd 3092 f9bc
00000190: 5b4e dc3d 3414 81bc 0cb5 813d 1d1f 333d
000001a0: 7c62 8cbd 08ff b9bd 856b e63d db3d e33b
000001b0: 832f 943d bfd2 db3c e957 243d 5565 b63d
000001c0: d177 dc3d e8a7 9fbd 8d10 a33c cae0 b53d
000001d0: 11d4 b13d 30e6 923d 2f78 abbd b309 90bd
000001e0: 3d54 80bd 6b01 a03c 25f9 e83d 1013 95bd
000001f0: af51 793d 7283 64bd a9c0 cbbd d1ba aabc
00000200: 041b 813d beda e73d 3480 81bd 6d94 f13c
00000210: b34f cc3d 662b 963d d848 973d 4a4d b03d
00000220: d9de 9b3d 4410 063d f1cf 9cbd aeb2 afbd
00000230: 332c 3ebd 7e18 02bc 1391 83bd 6523 293d
00000240: 3ef4 113d 59c3 eabc 1b46 333d 7a51 1e3d
00000250: ee33 8b3d 05f3 123d e740 90bd 5693 c43d
00000260: 9268 8cbc f52c 05bc 4e07 78be b020 32be
00000270: 49e9 e7bd e9db 8dbd 9f50 833d 5729 c2be
00000280: a2b4 96bd f2b0 4b3d 2e04 0a3d 8802 843d
00000290: 0001 08bd 4e2b dd3c ba43 23bd 9968 04bd
000002a0: 47e9 d2bd 5772 50bd 23a0 0abd f019 493d
000002b0: efd0 6d3c f3b4 663c ab4c dc3d 6cfe dd3d
000002c0: 488a 9e3d 4830 6bba a865 b9bd e31e aa3d
000002d0: 6043 eebc 4e7a fabb 7f25 cbbd a578 0dbd
000002e0: 3b15 92bd 11c1 d23d 3621 c2bd 3945 b5bd
000002f0: 3ea7 76bc 1b7f 55bd 947b 2e3d 0663 25bd
00000300: 29e0 57bd f8a3 69bb 79ab be3d ce99 92bd
00000310: b74a 663d 0b49 953d 428c cf3d ca75 75bd
00000320: a5c4 173d 56ae 9fbd ebd4 c63d b03b 4cbd
00000330: 1ef5 9e3d b916 973c c6e8 dfba 5e07 b2b9
00000340: 9139 6d3c b729 a23d b883 153d 981b 323d
00000350: db17 c4bd 0180 a13d d110 fc3d 62a6 ec3d
00000360: ab9e c33d c63b 97bd 1cdf 2bbd dac2 083e
00000370: 8f59 7bbd ff55 ef3d 3700 a3bd 1bd4 9ebd
00000380: 753d 9c3d 1134 87bd 15b6 5cbc 6f28 b43d
00000390: 7689 b73d 479e 8c3d e160 42bd 33e5 bbbd
000003a0: 56d6 dd3d 027e e0bc 9808 5cbe 5131 babd
000003b0: b41c 03be 935e 4a3d 9ba8 563d 6eb1 07bf
000003c0: 4492 eebd 3be8 ddbc 54c0 f03c 6e57 c5bc
000003d0: 468d adbd 74fe fdbc 5494 05be 9b5e d2bd
000003e0: da04 d0bd f6fd 613d 0d3e 813d 07fb 85bd
000003f0: 1e92 99bc 8e0d b83c 509d babc 2b14 bcbd
0.044626106 -0.060014393 -0.03581301 0.033137117 -0.11417318 0.0520478 -0.03460799 0.04298022
-0.0031851951 -0.03545018 0.012086284 -0.008053094 0.026533509 -0.062234808 -0.037380576 -0.032225627
0.00032237484 -0.015109903 0.07912791 0.0051489887 -0.06690487 -0.08566335 -0.033742346 -0.06675691
-0.06560974 -0.022502473 0.04639239 0.045349546 -0.1277072 0.040466763 0.0009058087 0.08336655
0.05760196 -0.120441616 -0.14043605 -0.08632569 0.07249654 -0.035989534 0.028955543 -0.09153143
0.07362709 -0.07643843 0.06461527 -0.018258492 -0.106906645 0.018124385 -0.09167006 0.011839194
-0.05259918 -0.058386046 -0.15077057 -0.08889098 0.037653044 -0.048347205 0.06280579 0.04439598
-0.043024622 -0.099390626 0.0461334 -0.00914394 -0.11897082 0.033061303 0.04125138 0.07634863
-0.10961448 -0.06732211 -0.04466959 -0.012920917 -0.108886495 -0.1384745 0.0026046785 -0.074999996
0.021092113 -0.019995678 -0.05593382 -0.055426035 -0.020994235 0.014399338 -0.13450773 -0.10123902
-0.08145787 -0.09202043 -0.00606322 -0.0332735 0.0735389 -0.057811685 -0.09707217 0.07847466
-0.021534545 0.0692962 0.04225035 -0.08030457 0.020510672 0.02195459 -0.0707281 -0.047022928
0.042429607 0.019238377 -0.05244205 -0.030465215 0.107571326 -0.015756704 0.0633336 0.043730844
-0.06854722 -0.090818465 0.112509765 0.006934864 0.07235625 0.02683389 0.0401229 0.08906046
0.10765041 -0.077956975 0.019905353 0.08880766 0.086830266 0.07172811 -0.083725326 -0.070331
-0.06266067 0.019531926 0.113756455 -0.072790265 0.060868915 -0.05578942 -0.099488564 -0.020841034
0.06303981 0.11321019 -0.06323281 0.02948972 0.09976139 0.07332496 0.07386941 0.08608492
0.07610864 0.032730356 -0.07656849 -0.08579002 -0.04642887 -0.00794041 -0.06424155 0.04129352
0.035633318 -0.028657602 0.04376803 0.03865192 0.06797014 0.035876293 -0.07043629 0.095984146
-0.017139707 -0.008128394 -0.24221537 -0.17395282 -0.113237925 -0.0692671 0.06411862 -0.37922165
-0.07358672 0.049729295 0.033695392 0.06445795 -0.03320408 0.026998188 -0.03985951 -0.032326315
-0.102984 -0.050890293 -0.033844125 0.049097 0.014515146 0.014081228 0.10756811 0.10839543
0.07741219 -0.0008971733 -0.090525925 0.083066724 -0.029084861 -0.0076439744 -0.09919261 -0.034538884
-0.07132956 0.10290731 -0.09478991 -0.08851094 -0.015054522 -0.05212317 0.042598322 -0.04037764
-0.05270401 -0.0035650712 0.093100496 -0.07158242 0.056223597 0.072893225 0.10134174 -0.059926786
0.03705277 -0.07796924 0.0970858 -0.04986161 0.07761596 0.018443452 -0.0017082922 -0.00033956295
0.014479057 0.07918113 0.03650257 0.043483347 -0.095748626 0.07885743 0.12307895 0.115551725
0.09551748 -0.07384448 -0.04196082 0.1335558 -0.061364707 0.11686324 -0.07959025 -0.077553
0.076289095 -0.06601728 -0.013471146 0.087967746 0.089617655 0.068661265 -0.047455672 -0.09174576
0.10831897 -0.027403835 -0.21487653 -0.090914376 -0.12803918 0.0494066 0.05240689 -0.5300511
-0.11648992 -0.027088275 0.029388584 -0.024089541 -0.084742114 -0.031005122 -0.13044864 -0.10271951
-0.10157175 0.055173837 0.06310663 -0.0654202 -0.018746432 0.0224674 -0.02278009 -0.09183534

layer1.bias f4 [64]
00000000: 044d 0abe b1c6 2dbe 15df ebbd 7d23 06be
00000010: b7b4 22be 46d6 ecbc 3e6d 443d 44c2 51be
00000020: d58b 0bbe 7ff6 1bbe 179e 08be ad30 9d3d
00000030: 6fe4 86bd 6eec 1f3d 6cfb 1bbe 1857 4cbe
00000040: f204 c5bd 0bb3 28bc 095c 8abd 0b27 67be
00000050: 7f5f 16be 9dd0 71be 0d2f 2e3c 4d1e 19be
00000060: 517d 27bd 4881 17be 46ac 17be 466c 07be
00000070: 091f 0fbe 54af b73f 4108 c3bc 08a6 0bbe
00000080: 80ca 8dbd ae31 dc3d 6be6 c23c a297 42bd
00000090: 8c51 cdbd 1ad6 17be a1c5 19be dd16 18be
000000a0: f8c4 9dbf 8f68 b8bd 2467 9b3c c1c8 0abe
000000b0: 98cd 35bd 743a 22be f318 1cbe 7bb6 7bbf
000000c0: 2fac 823d 61c0 80bd f6f4 c5bd 1924 0dbe
000000d0: ba9d 273d 0966 26be 2659 12be 51c4 c53d
000000e0: 7381 47bf 1554 393f cabd 8a3d ac33 92bc
000000f0: aa62 8f3d 8481 613c 2ec7 f33b 5a1b 8abd
-0.13505942 -0.16970326 -0.11517159 -0.13099475 -0.1588925 -0.028910767 0.047955744 -0.20484263
-0.1362756 -0.1523075 -0.13341556 0.076753 -0.06586539 0.039043836 -0.15232629 -0.19955099
-0.09620084 -0.010296593 -0.067558356 -0.22573487 -0.14684866 -0.23614736 0.010631335 -0.14952965
-0.040890995 -0.1479541 -0.14811811 -0.13224897 -0.13976683 1.4350381 -0.023807647 -0.13637555
-0.069233894 0.10751663 0.023791512 -0.04750789 -0.100253195 -0.14827767 -0.15016796 -0.14852472
-1.2325735 -0.09004318 0.01897008 -0.13553144 -0.044385523 -0.1584261 -0.15243892 -0.9832532
0.06380498 -0.06286693 -0.09665863 -0.13783301 0.040921904 -0.16249861 -0.1429182 0.09656585
-0.779319 0.72393924 0.06774481 -0.017846905 0.070012406 0.013763789 0.0074395156 -0.06743498

ln.weight f4 [64]
00000000: c229 d63e 68e4 263e bac0 343f 3d6f 213f
00000010: 49f7 af3e a2e4 063f 002e 6a3f a2d9 223f
00000020: 33db 7d3f 6246 e03e e4c1 cf3e 02f1 5b3f
00000030: 2a1f 613f eb64 663d 806d eb3e 8f13 d43e
00000040: d6f9 0f3f 6648 6f3f 0e75 8a3e 5a7f 9c3e
00000050: c557 d63e fece fa3e 1ef7 883f 8648 ce3e
00000060: b1f4 003f 8d63 da3e e190 cb3e 9bcb 283f
00000070: 21d5 233f a184 573f 23d5 713f 2633 2c3f
00000080: 86d8 523f a51e 6c3f 8d8f 8a3f 0d6e 6c3f
00000090: a5d9 413f c8b6 723f 66f6 003f f520 da3e
000000a0: 3d9c eeba e22d 6c3f eae4 4c3f 4289 943e
000000b0: b219 6f3f 7706 d93e 0a7f c23e db5f bc3e
000000c0: b2f9 643f 58c3 5e3f 339e 443e 460d e63e
000000d0: 641f 553f deef 7d3f a636 d53e 74d7 513f
000000e0: a3ab fa3c 2267 a33e 23a5 393f da49 743f
000000f0: 9214 f23e 0090 803f a291 7d3f 1a85 323f
0.41828734 0.16298068 0.7060658 0.6306036 0.3436835 0.52692616 0.9147644 0.6361333
0.99162596 0.43803698 0.40577614 0.85914624 0.8793818 0.056248587 0.4598198 0.41421172
0.56240594 0.93469846 0.2704243 0.30565912 0.41863838 0.48986048 1.0700414 0.40289706
0.5037337 0.42654076 0.3975897 0.6593568 0.63997084 0.8418675 0.94465846 0.67265546
0.8236164 0.9223426 1.0825058 0.92355424 0.75722724 0.9481015 0.50375974 0.4260327
-0.0018204522 0.9225751 0.80036795 0.2901097 0.9339858 0.42387745 0.37987548 0.36791882
0.89443505 0.8701682 0.19200973 0.44932002 0.83251023 0.99194133 0.41643256 0.8196938
0.03059942 0.31914622 0.72517604 0.9542519 0.4728132 1.0043945 0.99050343 0.69734347

ln.bias f4 [64]
00000000: 5fc6 223e c006 3f3c 6be3 ce3c 6d52 6c3e
00000010: a17a f43d 052d bfbd 1e11 a53d 3687 b43d
00000020: 6653 4f3d b0f0 2d3e e036 1d3e f66e 97bd
00000030: 9d94 f23c b354 98bb cc2c 333e 5507 3d3d
00000040: 5392 4fbd f943 04bd 16ab ce3d e83d e83d
00000050: 4088 243e 40ce f93d 3e2c 4dbc 4dcb 133e
00000060: 18b9 3a3e 9069 1a3e 56d7 193e daca 763e
00000070: fa8f 6e3e 7aaa 14be 58eb b03c 22ef c23c
00000080: cb8c ce3c 0731 efbb 4eed ebbc c2e2 923d
00000090: d591 af3c f060 e33d 06f9 433e cc35 253e
000000a0: 8346 1f3b 91cc a03d c30a c43c 563c ce3a
000000b0: b5a6 873d 21b4 1a3e aa76 183e e89b 533e
000000c0: 797f 733c cecb 0b3d d16a e2bb 8b0b 2e3e
000000d0: 3b17 293b a8df 6d3d 69c5 173e ed74 23bb
000000e0: a979 863c 0a24 83be 8398 3d3e 53dd 12bd
000000f0: d7c9 04be aa99 0bbc c179 81bc 675f 9ab9
0.15895985 0.011659324 0.025254926 0.23078318 0.11937452 -0.09334759 0.080599055 0.08814852
0.050616644 0.16986346 0.15352964 -0.07394211 0.02961188 -0.004648769 0.17497557 0.04614957
-0.050676655 -0.032291386 0.10091226 0.11339933 0.160676 0.12197542 -0.012522755 0.14433022
0.1823467 0.15079331 0.1502355 0.24100819 0.2329711 -0.14518157 0.021596596 0.023795668
0.02521362 -0.0072995457 -0.02879968 0.07172157 0.021431843 0.11102474 0.19137964 0.16133803
0.0024303503 0.07851518 0.023930913 0.0015734534 0.06623594 0.15107776 0.14889017 0.20664942
0.014861935 0.03412991 -0.006909706 0.16996591 0.00258012 0.058074623 0.148214 -0.002494152
0.016415434 -0.25613433 0.1851521 -0.035855602 -0.12967621 -0.008520523 -0.015805127 -0.0002944425

layer2.weight f4 [1, 64]
00000000: 8b12 4fbb 5ceb a43a 4837 24bc 0bc5 553b
00000010: 91d3 68bb 25eb 9b3b 41ff 603d 17aa 2abb
00000020: 3df9 023e 1d74 83b9 9782 31bb e17c ea39
00000030: 7808 70bc 5dd2 293a 9676 d53a 66c9 04ba
00000040: 18ea 6d3b 8520 af3d 2e13 54bb 1ce9 bc39
00000050: feb7 21bb deff 673a 56f9 34be 3e0f 6dbb
00000060: 3ff7 3cbb f94f 37bb 056f 97b9 93df 983b
00000070: 604c e03b 921b 0b3d 7d09 76bd 0434 943a
00000080: b3e0 39bc 5f1f 95bd 2d36 14be b3fd 843d
00000090: dcb3 1bbb 1caa 623d bfc8 3f39 551d d3ba
000000a0: 1e06 6a3a b6ea 7f3d d738 61bc a0c8 c73b
000000b0: d835 963d 5210 26bb b9af d5ba 213c 203a
000000c0: 3ce5 2fbd f9cd 8bbc 5d99 dd3a 6480 2bbb
000000d0: a8ab 1bbd 7953 df3d 4805 f5ba 15f1 0cbd
000000e0: 495e 3439 7c1f 823c d61e 853c 2605 b33d
000000f0: 3314 c93b e5c4 f2bd 73ed 0a3e 221e 85bc
-0.0031596746 0.001258235 -0.010022946 0.0032618667 -0.0035526494 0.004758256 0.05493093 -0.0026041323
0.1279039 -0.00025072778 -0.0027085894 0.00044725 -0.014650457 0.0006478185 0.0016285952 -0.0005065411
0.003630286 0.085511245 -0.0032360065 0.00036031834 -0.0024676318 0.0008850078 -0.17673239 -0.0036172415
-0.0028833894 -0.0027971251 -0.0002888368 0.004665324 0.006845042 0.03396184 -0.060067642 0.0011307006
-0.011345076 -0.07281374 -0.14473791 0.06493702 -0.0023758328 0.05533801 0.00018289963 -0.0016106764
0.0008927303 0.062479697 -0.013746462 0.0060969144 0.07334489 -0.0025339318 -0.001630298 0.00061124755
-0.042943224 -0.017065989 0.0016906668 -0.0026169056 -0.0380055 0.10904593 -0.001869359 -0.0344096
0.00017201262 0.015884154 0.016250055 0.08741216 0.006136441 -0.11853961 0.13567142 -0.01624972
