weights/Linear_L16_H64_E100_s4.pt (torch, 24414 bytes, 5 tensors)

layer1.weight f4 [64, 80]
-0.025542261 -0.032733515 -0.14815016 -0.12737398 -0.13113225 -0.12695707 0.0788165 0.050406463
-0.021666443 0.083832115 -0.0649876 -0.09368369 0.054917246 -0.05317567 -0.009574512 0.040311057
0.029988183 -0.10266584 -0.08968974 -0.13615614 -0.025281884 -0.06952406 -0.013497528 -0.04073849
0.051347468 -0.026547085 0.02502246 -0.0015683607 0.053663272 -0.097390115 0.050466362 0.046814647
-0.081386164 0.023157438 0.047579944 -0.11168784 -0.08009105 0.0393403 0.045017138 -0.029221274
-0.021981709 0.041760106 0.059232373 -0.11618946 -0.11817563 0.031711154 0.01406777 -0.0929101
-0.08392944 0.03394945 -0.13682353 0.020430112 0.022662727 -0.15357073 -0.18440503 -0.028598826
0.00055682706 0.056240205 -0.032315765 0.025503812 -0.13587731 0.014301665 -0.14889535 0.028406452
-0.00010536446 0.029917097 -0.003543461 -0.115670845 -0.04051495 0.028304394 -0.006080985 -0.14012417
-0.09229996 -0.09173864 -0.05062878 0.0660803 0.015409379 0.006679387 -0.07396658 -0.19940175
0.011648344 0.089612186 0.019326776 -0.12865052 -0.023917243 -0.0064180098 0.05936708 0.021377167
-0.11397975 -0.11955285 0.019061303 0.042923313 0.040410876 0.04239447 0.0779458 -0.06326459
-0.121323004 0.033406787 0.07373311 -0.10540725 -0.07716165 0.081002 0.06764973 -0.044388596
-0.09587062 -0.0045935437 -0.12689787 -0.06253096 -0.0474607 -0.06106523 0.015942639 -0.018193427
-0.10620125 -0.04337836 -0.028889956 0.03398403 -0.01872595 -0.057816204 0.011736139 0.0019047327
-0.023189697 -0.09055468 0.008994866 -0.015968038 -0.003878581 -0.08116481 -0.043026116 0.034760945
-0.047062714 -0.004756534 -0.071917474 0.058655232 -0.026286215 -0.055444565 -0.012364516 -0.05832666
0.0480902 -0.0422366 0.044084907 -0.061757393 -0.0340454 -0.0036184683 -0.13074714 -0.0076249493
0.05519133 0.008719725 -0.037176017 -0.03783781 0.007604713 0.009438426 -0.103667535 -0.0065788925
-0.1282585 -0.025513565 -0.17361838 -0.1762915 -0.18239793 0.03328378 -0.03259838 -0.4428825
-0.0311866 -0.06631085 -0.11338505 -0.010485184 -0.0866369 -0.050233573 0.048250157 0.078421235
-0.055497445 -0.1142889 0.1051727 0.05297019 0.06587552 -0.039502043 -0.037625916 0.0030648338
0.019184707 -0.011686761 -0.076761134 0.07847729 0.03744486 -0.020482192 -0.11012281 -0.073914886
-0.07408095 -0.042882524 0.01712003 -0.0343534 0.01939083 -0.11864848 -0.05933742 0.031903382
0.09273911 -0.114612155 -0.045696873 0.014316425 -0.03649798 0.0070232875 0.048570402 -0.17489004
0.010271287 -0.13184376 -0.0013024326 0.044750314 -0.12822272 -0.06470363 -0.14757486 -0.032349654
0.038036596 -0.02831465 -0.04482773 -0.058655202 -0.07507721 0.0637028 -0.057999454 -0.039034948
-0.0024100863 -0.0640395 -0.037622146 0.027666014 0.02434983 -0.17118399 -0.12933439 -0.06213313
-0.020057688 -0.122370884 -0.0044818847 -0.134369 -0.043248724 0.05395562 -0.07488814 -0.08460429
-0.0089547755 0.05701412 0.02839598 -0.032423567 -0.057611886 -0.12907937 -0.07304182 0.07546979
-0.062687285 0.066688426 -0.0356834 0.043271378 0.020515833 0.0755829 -0.069159076 -0.021740034
-0.08385972 0.0146513 -0.06167211 0.01088492 -0.097757064 -0.03438581 -0.10515477 -0.10396642
00000000: 013e d1bc 9413 06bd adb4 17be 536e 02be
00000010: 8847 06be 0901 02be 8c6a a13d 0277 4e3d
00000020: d37d b1bc 2cb0 ab3d 3818 85bd 3cdd bfbd
00000030: e8f0 603d bbce 59bd 6ade 1cbc 351d 253d
00000040: c7a9 f53c 7842 d2bd 41af b7bd 846c 0bbe
00000050: f41b cfbc a162 8ebd bc24 5dbc 67dd 26bd
00000060: b951 523d 4679 d9bc e7fb cc3c 7491 cdba
00000070: 05ce 5b3d 7874 c7bd d1b5 4e3d b7c0 3f3d
00000080: caad a6bd abb4 bd3c 30e3 423d 98bc e4bd
00000090: c706 a4bd 4b23 213d e463 383d 7461 efbc
000000a0: fc12 b4bc a50c 2b3d a59d 723d bdf4 edbd
000000b0: 1106 f2bd 8ee3 013d 817c 663c a747 bebd
000000c0: 33e3 abbd 940e 0b3d 781b 0cbe 0d5d a73c
000000d0: 2fa7 b93c a541 1dbe acd4 3cbe 1648 eabc
000000e0: 08f8 113a 215c 663d 895d 04bd 5fed d03c
000000f0: 6c23 0bbe 8851 6a3c 0678 18be a6b4 e83c
00000100: 1df7 dcb8 b314 f53c 6939 68bb d6e4 ecbd
00000110: 01f3 25bd 9ede e73c 0043 c7bb b67c 0fbe
00000120: c307 bdbd 78e1 bbbd 2060 4fbd 1c55 873d
00000130: 9f77 7c3c c2de da3b ca7b 97bd f92f 4cbe
00000140: b2d8 3e3c 9886 b73d 3053 9e3c f6bc 03be
00000150: 18ee c3bc 2b4e d2bb e52a 733d 2b1f af3c
00000160: 376e e9bd 20d8 f4bd 7326 9c3c 5bd0 2f3d
00000170: e085 253d d3a5 2d3d 0ca2 9f3d de90 81bd
00000180: 3278 f8bd 8ed5 083d 6301 973d c2df d7bd
00000190: ed06 9ebd 60e4 a53d f18b 8a3d d1d0 35bd
000001a0: d157 c4bd 7085 96bb 84f1 01be 3b10 80bd
000001b0: 2766 42bd 891f 7abd 239a 823c 620a 95bc
000001c0: 0a80 d9bd 82ad 31bd a1aa ecbc d732 0b3d
000001d0: 2a67 99bc afd0 6cbd ef48 403c 39a8 f93a
000001e0: 52f8 bdbc bb74 b9bd 345f 133c 67cf 82bc
000001f0: cb2f 7ebb bc39 a6bd 273c 30bd 7e61 0e3d
00000200: d5c4 40bd b3dc 9bbb 7849 93bd 7840 703d
00000210: 3056 d7bc d719 63bd 8a94 4abc f0e7 6ebd
00000220: 3bfa 443d 4900 2dbd 6092 343d 52f5 7cbd
00000230: 3073 0bbd d323 6dbb 94e2 05be b6da f9bb
00000240: 4e10 623d 2ddd 0e3c e145 18bd d2fb 1abd
00000250: f530 f93b a1a3 1a3c a54f d4bd c093 d7bb
00000260: 3256 03be d301 d1bc 04c9 31be c285 34be
00000270: 86c6 3abe 9354 083d e185 05bd 7fc1 e2be
00000280: 0a7b ffbc fccd 87bd 6c36 e8bd 0dca 2bbc
00000290: b06e b1bd b8c1 4dbd f5a1 453d 509b a03d
000002a0: 4a51 63bd 4c10 eabd c964 d73d 45f7 583d
000002b0: bfe9 863d e5cc 21bd a21d 1abd 61db 483b
000002c0: 3f29 9d3c d479 3fbc f134 9dbd b4b8 a03d
000002d0: c85f 193d 45ca a7bc 1188 e1bd b060 97bd
000002e0: c1b7 97bd 96a5 2fbd 4e3f 8c3c 27b6 0cbd
000002f0: 85d9 9e3c f9fd f2bd cb0b 73bd 1fad 023d
00000300: 01ee bd3d c7b9 eabd a52c 3bbd 708f 6a3c
00000310: e87e 15bd 9b23 e63b c2f1 463d 6016 33be
00000320: e648 283c 0d02 07be 63b6 aaba 1b4c 373d
00000330: d14c 03be 5683 84bd dd1d 17be 1281 04bd
00000340: 43cc 1b3d 20f4 e7bc 489d 37bd 7040 70bd
00000350: 15c2 99bd 9d76 823d d690 6dbd 1ce3 1fbd
00000360: 8af2 1dbb 2427 83bd ae19 1abd d6a3 e23c
00000370: 4b79 c73c db4a 2fbe 3c70 04be 4f7f 7ebd
00000380: 0550 a4bc 969d fabd c6dc 92bb 0798 09be
00000390: 9325 31bd 9100 5d3d f45e 99bd 0445 adbd
000003a0: 0db7 12bc a387 693d b09e e83c 93ce 04bd
000003b0: 71fa 6bbd 622d 04be f396 95bd e88f 9a3d
000003c0: 3162 80bd f193 883d c228 12bd 543d 313d
000003d0: d210 a83c 35cb 9a3d 46a3 8dbd 2818 b2bc
000003e0: a5be abbd 020c 703c e59b 7cbd aa56 323c
000003f0: db34 c8bd 23d8 0cbd 625b d7bd 59ec d4bd

layer1.bias f4 [64]
-0.15352282 -0.14766912 -0.17893465 0.102980435 -0.16750231 -0.16323207 -0.12343437 0.49027997
-0.15288809 -0.17468722 -0.16795509 2.0965261 -0.06889263 -0.06513175 -0.02868679 0.09219731
-0.2816553 -0.015839227 -0.11402874 0.09595779 -0.16127157 -0.063411176 -0.13818374 -0.1388332
-0.16710064 -0.1753387 -0.23914602 -0.12018756 -0.8225143 -0.35634196 -0.16551301 -0.19650467
-0.14746772 1.2209655 -0.15018229 -0.08646041 -0.14280258 -0.25148883 0.050580364 -0.16627839
0.0055448515 -0.16587342 -0.13892837 -0.31304383 -0.14362168 -0.29307234 0.042790454 -0.21638063
-0.16418199 -0.17148598 0.0010819498 0.06612159 -0.14455879 -0.114454426 0.012112294 -0.5183757
-0.14906459 -0.06700926 -0.13350385 -0.10053025 0.08741511 -0.16117278 -0.17326625 -0.1136352
00000000: 1635 1dbe 9336 17be a53a 37be 68e7 d23d
00000010: ba85 2bbe 4f26 27be 29cb fcbd fa05 fb3e
00000020: b28e 1cbe 35e1 32be 6bfc 2bbe 7c2d 0640
00000030: 9417 8dbd cc63 85bd 8f00 ebbc f1d1 bc3d
00000040: 2035 90be 44c1 81bc e687 e9bd 8585 c43d
00000050: 6024 25be b8dd 81bd 0a80 0dbe 4a2a 0ebe
00000060: 6e1c 2bbe fd8b 33be b2e2 74be e524 f6bd
00000070: 4c90 52bf 7472 b6be 3e7c 29be 8538 49be
00000080: c701 17be 9948 9c3f 63c9 19be 2812 b1bd
00000090: d73a 12be 25c3 80be 5b2d 4f3d e244 2abe
000000a0: 96b1 b53b b9da 29be 3d43 0ebe 4847 a0be
000000b0: 9011 13be 940d 96be 0b45 2f3d e292 5dbe
000000c0: 531f 28be 059a 2fbe 36d0 8d3a c26a 873d
000000d0: 3807 14be 1567 eabd a572 463c 45b4 04bf
000000e0: 63a4 18be 273c 89bd 3cb5 08be cee2 cdbd
000000f0: b106 b33d 7a0a 25be b56c 31be 92b9 e8bd

ln.weight f4 [64]
0.41889578 0.4513281 0.5731429 0.9996241 0.45179972 0.49628952 0.38875502 0.50976515
0.8253715 0.49274197 0.5092292 0.116300635 0.81999975 0.8108747 0.7396507 1.0420637
5.6778197e-05 0.9301063 0.27715427 1.0874255 0.50994074 0.93164235 0.44568887 0.44968614
0.4463764 0.52806187 0.51740044 0.8225542 0.45430806 0.0003256709 0.44619828 0.37987012
0.36314902 0.35764062 0.39498535 0.76170397 0.4534247 0.0028862369 0.8444196 0.44483566
0.83168477 0.53271514 0.4558803 0.26090214 0.47971702 0.5633985 0.99234736 0.88644475
0.45648292 0.5438599 0.5077546 0.93951166 0.4269915 0.7026093 0.79796624 0.5391618
0.45254195 0.84966683 0.3706147 0.94081694 0.86620957 0.5646058 -0.005450563 0.929479
00000000: 8279 d63e 7a14 e73e 7eb9 123f 5de7 7f3f
00000010: 4b52 e73e a919 fe3e e60a c73e f87f 023f
00000020: 8c4b 533f ad48 fc3e d85c 023f 072f ee3d
00000030: 81eb 513f 7c95 4f3f c059 3d3f 5862 853f
00000040: 2025 6e38 721b 6e3f 2ae7 8d3e c230 8b3f
00000050: 7a8b 023f 1d80 6e3f 5531 e43e 433d e63e
00000060: 738b e43e 102f 073f 5b74 043f e992 523f
00000070: 119b e83e cfbe aa39 1a74 e43e 567e c23e
00000080: abee b93e ac1c b73e 853b ca3e 08ff 423f
00000090: 4827 e83e 0527 3d3b e22b 583f 80c1 e33e
000000a0: 4be9 543f 0560 083f 2569 e93e f794 853e
000000b0: 789d f53e e23a 103f 7a0a 7e3f 0bee 623f
000000c0: 21b8 e93e 673a 0b3f 35fc 013f d683 703f
000000d0: a19e da3e 34de 333f 8447 4c3f 8206 0a3f
000000e0: 94b3 e73e c483 593f 36c1 bd3e 61d9 703f
000000f0: e9bf 5d3f 018a 103f a39a b2bb 56f2 6d3f

ln.bias f4 [64]
0.1293428 0.13930114 0.17853805 -0.0038691293 0.14010482 0.15375233 0.11852591 -0.3523899
0.25888836 0.15317163 0.1580201 -0.8106444 0.22448094 0.2403249 0.034487575 -0.009210663
0.0005266418 0.1391404 0.083901964 -0.021971792 0.15772825 -0.055240735 0.13683829 0.1380578
0.1384225 0.16448243 0.16690838 0.25179693 -0.06147795 8.834016e-06 0.13851549 0.018431308
0.0014839633 -0.564487 0.12157506 0.22787657 0.13963729 0.0006415622 0.23238918 0.13812566
0.23601422 0.16539726 0.1399745 0.053013634 0.14740124 0.07030931 0.015496448 -0.09773325
0.14185512 0.16925372 -0.011995238 0.006956675 0.13150014 0.21387608 0.22571157 -0.041114736
0.13969506 0.038686603 0.113155834 -0.06330076 0.005664871 0.17427883 0.0003804506 0.12003946
00000000: 7072 043e f5a4 0e3e aed2 363e 3891 7dbb
00000010: a377 0f3e 4071 1d3e b6bd f23d 736c b4be
00000020: 048d 843e 06d9 1c3e 05d0 213e 6486 4fbf
00000030: 55de 653e bb17 763e d842 0d3d 52e8 16bc
00000040: 550e 0a3a d27a 0e3e cbd4 ab3d 30fe b3bc
00000050: 8483 213e 1c44 62bd 561f 0c3e 065f 0d3e
00000060: a1be 0d3e 156e 283e 08ea 2a3e 87eb 803e
00000070: 4ed0 7bbd cf35 1437 01d7 0d3e 41fd 963c
00000080: 8c81 c23a 3882 10bf 58fc f83d 7a58 693e
00000090: 14fd 0e3e 832e 283a 6ef7 6d3e d070 0d3e
000000a0: b6ad 713e e65d 293e 7a55 0f3e d324 593d
000000b0: 5af0 163e 54fe 8f3d d0e4 7d3c 5f28 c8bd
000000c0: 7842 113e d950 2d3e ad87 44bc d2f4 e33b
000000d0: f9a7 063e 5502 5b3e ef20 673e ed67 28bd
000000e0: 390c 0f3e d875 1e3d 3fbe e73d d4a3 81bd
000000f0: 62a0 b93b 2676 323e 3777 c739 40d7 f53d

layer2.weight f4 [1, 64]
0.00097167917 0.00036549263 0.0015462906 -0.105550036 0.0014612023 0.0010162442 0.00086995366 -0.002305882
0.10427492 0.0017344037 0.00096072454 -0.00048440066 0.037951156 0.023474012 -0.008915972 -0.11377232
-0.0005991686 0.07081208 0.0011713841 -0.13236377 0.0008650347 0.102407515 0.00044029864 0.00045204812
0.0013375917 0.0013765212 0.030820793 0.054374397 -0.016119257 3.1769992e-05 0.00093176815 -0.0021988212
-0.0034781697 -0.08098099 0.0010664808 0.0013074093 0.00011859253 5.2774863e-05 0.024255464 0.0009636555
0.02805562 0.0005011593 0.00051854097 -0.0039048414 0.00034316198 -0.004376497 -0.0975515 0.062280726
0.00070819096 0.0013044892 -0.0069673136 -0.054375086 0.00059655146 0.0026789051 0.0073264027 -0.019304298
0.0004403819 -0.037308943 0.0011706912 0.1069673 -0.05456088 0.0001395809 0.00010138722 0.10181606
00000000: 49b8 7e3a 979f bf39 e7ac ca3a 9e2a d8bd
00000010: d085 bf3a 7f33 853a 9a0d 643a 481e 17bb
00000020: 178e d53d ee54 e33a 22d9 7b3a 28f7 fdb9
00000030: ac72 1b3d 924c c03c 4c14 12bc 7601 e9bd
00000040: 8611 1dba ec05 913d 2189 993a 5e8a 07be
00000050: 7fc3 623a 08bb d13d e2d7 e639 df00 ed39
00000060: 2152 af3a 636c b43a e37b fc3c b0b7 5e3d
00000070: 880c 84bc c540 0538 e741 743a 191a 10bb
00000080: 01f2 63bb 5cd9 a5bd 28c9 8b3a 605d ab3a
00000090: e1b4 f838 945a 5d38 65b3 c63c d39d 7c3a
000000a0: e6d4 e53c 3b60 033a b2ee 073a 5ee8 7fbb
000000b0: 6cea b339 b868 8fbb 15c9 c7bd 131a 7f3d
000000c0: e4a5 393a 65fb aa3a 104e e4bb 69b8 5ebd
000000d0: e461 1c3a 9290 2f3b 5212 f03b 0c24 9ebc
000000e0: 0fe3 e639 43d1 18bd e171 993a ac11 db3d
000000f0: 3b7b 5fbd 765c 1239 d99f d438 f084 d03d
