weights/Linear_L16_H64_E100_s3.pt (torch, 24414 bytes, 5 tensors)

layer1.weight f4 [64, 80]
000000 9f 34 0d be cd 64 d6 bd 7a df 44 bd 6b 94 d0 bd
       -0.13789605 -0.10468445 -0.048064686 -0.101845585
000010 61 27 4b bd 74 ff 07 be 3f e5 15 3d 55 0d 46 3d
       -0.0495981 -0.13281041 0.03659558 0.04835256
000020 09 0e 9f 3c 2c f9 48 3d 3c 91 39 bd c6 47 27 3d
       0.019415872 0.049065754 -0.045304522 0.040839933
000030 fd d4 af bd 3a 42 cc bc 25 e3 fa bd 33 80 21 bd
       -0.08585546 -0.024933923 -0.12250356 -0.0394289
000040 ad cf c9 bd 47 52 bc 3d 14 9f 97 3d 36 0a 9a 3d
       -0.09854064 0.09195381 0.074033886 0.07521479
000050 e3 4f 2a 3c b7 f0 b4 bd 56 fe ba 3d 57 bd e7 bd
       0.010395023 -0.08834975 0.09130542 -0.113154106
000060 9d 37 95 bd d2 a6 a5 bd 9a fa 89 bd 79 e4 57 3c
       -0.07285998 -0.08088459 -0.067372516 0.013177031
000070 6c 35 b5 bd 25 42 91 bd 40 8e 57 bd b9 d5 52 3d
       -0.0884808 -0.07092694 -0.052625895 0.051473353
000080 16 15 b7 bd 12 d7 d3 bd 93 b9 99 bd 4e d6 39 bd
       -0.08939569 -0.10343756 -0.075060986 -0.045370393
000090 31 b7 2a bd 96 c7 f4 bd 14 cc 60 bd 21 70 bf 3c
       -0.04167861 -0.119521305 -0.054882124 0.023368897
0000a0 b0 b5 08 3d 67 fc c1 bc 00 70 af bc c4 69 99 bd
       0.033376396 -0.023679925 -0.02141571 -0.07490876
0000b0 fa 06 9a 3d c4 20 1c bc e2 f2 a1 bd 00 cd 12 bd
       0.07520862 -0.009529296 -0.07907654 -0.035840034
0000c0 a1 27 90 bc f8 fc e9 3d 5e 24 8d 3d 4a a5 39 bd
       -0.017597022 0.11425203 0.06891702 -0.045323648
0000d0 dc cf d5 bc 2a c8 c4 3d 9a 85 5a 3d 59 93 b1 3c
       -0.026100092 0.09608491 0.05335007 0.021676706
0000e0 6f 52 2f bd 61 18 a3 3d 7b da 2f 3d 20 80 e5 bd
       -0.042803224 0.07963634 0.04293297 -0.112060785
0000f0 e7 70 2c 3d 8f d4 c1 bb 2a 40 d2 bd 41 9d 72 bd
       0.04209986 -0.0059152315 -0.102661446 -0.059232
000100 61 c1 5e be 10 8d 32 be 9f 9f fc bc 70 25 e1 bd
       -0.21753456 -0.17436624 -0.030837832 -0.10993469
000110 a7 bc 2e 3d 2a 43 1e be 44 00 ee bd 12 85 f9 3c
       0.04266038 -0.15455309 -0.116211444 0.03045896
000120 db 60 c0 bd 3e 2f ce bc 03 f8 59 be ba 21 2d be
       -0.09393474 -0.025169011 -0.21286015 -0.16907397
000130 7e a8 ae bd 9d 9b 08 3d ea c4 62 bc 9c ac 8f be
       -0.08528231 0.03335153 -0.013840893 -0.28061378
000140 9d fc 53 be 91 3c 50 be 1a c0 49 be 70 5e a8 bd
       -0.20701833 -0.20335604 -0.19702187 -0.082211375
000150 a9 46 00 bd ea 52 7f be 7b 9f cf bd 0e d2 70 be
       -0.031317387 -0.24933973 -0.1013784 -0.2351763
000160 7b d6 4f be 5a 51 47 be d0 70 4b be 97 34 ea bd
       -0.20296662 -0.19464627 -0.19867253 -0.11435812
000170 20 0e 6e be 20 64 a0 bc 97 89 0c be ee 18 ee bd
       -0.23247576 -0.019578993 -0.13724361 -0.11625849
000180 e2 0f 66 be 9c 62 a2 bd dc 5f 21 be a0 42 56 be
       -0.22466996 -0.079289645 -0.15759224 -0.20923853
000190 85 b6 0b be 5d e1 d5 bd 43 80 06 be fd 43 30 be
       -0.13643844 -0.10443375 -0.13134865 -0.17213435
0001a0 2c bf 0c be 03 76 4a be ab f3 41 be c7 cc 3e be
       -0.13744801 -0.1977158 -0.18940608 -0.18632804
0001b0 4c c8 8a bd 26 fc 69 be 3d fb d5 bd 8e 6f c1 bd
       -0.06776485 -0.22850093 -0.104483105 -0.094451055
0001c0 48 95 61 be cc b7 61 be 5c 3c 65 be aa f7 7b be
       -0.22029603 -0.22042769 -0.22386307 -0.24606195
0001d0 d7 81 6f bd ec f0 46 bd 44 c9 1b be e5 e1 27 bd
       -0.058473434 -0.048569605 -0.15213495 -0.040986914
0001e0 66 7e ef bd ca ef 85 be 70 90 7f be 16 f4 43 be
       -0.116940305 -0.26159507 -0.24957442 -0.1913608
0001f0 be 67 80 be eb ec 47 be 43 a3 f4 bd 7b e0 18 be
       -0.2507915 -0.19523971 -0.11945202 -0.14929383
000200 ed b6 22 be 69 26 03 be 25 7e 25 bd fe d8 16 be
       -0.15890093 -0.12807621 -0.040403504 -0.14731213
000210 fb 7c b9 bd f2 0a 2a be d1 07 69 be cb 5e ff bd
       -0.09057041 -0.16605738 -0.22756888 -0.12469252
000220 2b 51 c9 bd df a1 a9 bd 2b 17 7c be 2b 36 3c be
       -0.09829935 -0.082828276 -0.24618213 -0.18380038
000230 13 9a 87 be 7d 9c 1c be 6b 6e 15 be eb 5b dc bd
       -0.26484737 -0.1529407 -0.14592902 -0.107597195
000240 5d 99 72 be 57 d1 3d be 16 92 06 be ea 4f 86 be
       -0.23691316 -0.18536888 -0.13141665 -0.26232845
000250 9d 75 bc bd 75 ce b9 bd 85 b1 80 be 0d 3f 48 bd
       -0.092021205 -0.09072582 -0.25135437 -0.048888255
000260 19 cd 0c be e7 c8 19 bd 4f 2b 50 bd 78 29 7a be
       -0.13750114 -0.03754511 -0.050822552 -0.24429882
000270 fe c3 7b bd 2e 41 14 be 81 24 ef bd a6 49 8c bd
       -0.06146621 -0.14477989 -0.116768844 -0.06849985
000280 15 52 bf bd 22 a0 c1 3b 01 c2 b7 3c fc 23 51 3d
       -0.09341828 0.005908982 0.022431375 0.051059708
000290 77 a4 c4 bd d5 bf da bd ec 8b 59 3d 7f a8 d8 bc
       -0.09601682 -0.1068112 0.053111956 -0.026447533
0002a0 09 b8 63 bb 80 9a b1 bc 90 a2 30 3b 69 f4 9f 3c
       -0.0034747145 -0.021680117 0.0026952364 0.019525724
0002b0 fb ce d9 bd ec 81 1f 3d 21 86 86 3c 97 35 62 3d
       -0.106351815 0.038942263 0.01642138 0.05522689
0002c0 75 8e 65 bd 5f 63 a2 3d a3 00 93 3d 6c c4 5a bd
       -0.05604406 0.0792911 0.07177856 -0.05340998
0002d0 5b 1a d0 3d a8 96 84 3c 78 b5 c7 3d 48 bc c9 3d
       0.10161277 0.01618512 0.09751409 0.09850365
0002e0 a8 68 a4 3c 34 fd ac 3c e6 59 15 3d 12 90 91 3d
       0.020069435 0.02111683 0.036462687 0.07107557
0002f0 20 22 d8 bd 73 62 5e ba b1 fd dc 3d 4c 26 9f bd
       -0.10553384 -0.0008483298 0.10790575 -0.077709764
000300 a7 3f 82 bd 8f c7 02 3c 9e d3 1b 3d c5 df 73 3d
       -0.06359797 0.007982149 0.03804361 0.059539575
000310 60 8d ee 3b 2d 2e d3 3c a6 da 5e bd 50 e7 d0 3d
       0.007280037 0.025778854 -0.05440774 0.10200369
000320 1d be 9d bd 73 2a 95 3d 0d 30 74 3d d8 d2 bf 3d
       -0.07702277 0.07283487 0.059616137 0.09366387
000330 f4 dd b3 3d 98 a0 33 bd ec 75 a0 3d 3b 7a aa bd
       0.087825686 -0.043854326 0.07834992 -0.08324095
000340 73 f1 96 3d c6 a2 aa bd 2b e3 ad bd 97 fc a0 bd
       0.073702715 -0.08331828 -0.084905945 -0.07860678
000350 f5 97 da 3d 62 4c eb 3c dc e0 b8 bd d8 75 be bd
       0.10673515 0.028722946 -0.090272635 -0.09299821
000360 15 36 f7 3b 91 6d d6 bc d9 67 cd 3c bb 0f 89 3d
       0.007544289 -0.026175292 0.025073932 0.066924535
000370 a4 7a a5 bd f7 e4 da bd 97 82 19 3c 65 c4 90 3d
       -0.080800325 -0.10688203 0.009369514 0.07068709
000380 0e 79 71 3d 7e 26 a5 bc ab 12 27 bd 42 ee fd 3c
       0.058953337 -0.020159956 -0.040789288 0.0309974
000390 a5 dc 94 3d 08 2f 19 be c5 a6 57 bd 5d 25 76 3d
       0.07268647 -0.14959347 -0.05264928 0.060094226
0003a0 b2 29 99 3d 6f a8 c1 3d 5b f4 b5 bd 84 ab 86 3c
       0.07478656 0.09455954 -0.08884498 0.016439207
0003b0 b4 70 23 be 24 7a 80 bb 01 d0 d7 ba eb 57 47 be
       -0.15960962 -0.0039208103 -0.0016465188 -0.19467132
0003c0 73 6b e6 3c 2c ec 9d 3d d5 77 c6 bd d2 15 cf bb
       0.028127408 0.07711062 -0.09690825 -0.00631974
0003d0 ae d7 46 3d 19 fb ac 3d d7 50 1d 3d 6c a0 a3 3d
       0.048545532 0.084463306 0.038407173 0.079895824
0003e0 52 64 c5 bc a5 99 16 3c 9c b4 f2 3d 9d 7c b3 3d
       -0.024095688 0.009191905 0.11850855 0.087640025
0003f0 f9 aa b2 3d 6c 94 b1 bd 23 20 6d 3c ca 14 a8 bd
       0.08724017 -0.08670887 0.014472994 -0.0820709

layer1.bias f4 [64]
000000 0b 66 69 bc 2e c9 94 be e8 9c 23 be 07 db 17 be
       -0.01424552 -0.29059738 -0.15977824 -0.14829646
000010 22 77 a3 be bd 6b 1c be ad a8 35 be be 89 de bd
       -0.3192683 -0.15275474 -0.17740126 -0.10866116
000020 c7 cc 25 be 67 d5 1b be cb c7 04 bd 28 b9 95 3d
       -0.16191398 -0.15218125 -0.0324171 0.073107064
000030 07 b0 d4 3e cc 26 c2 bd 0b f5 2e 3b c7 72 dd bd
       0.41540548 -0.09480056 0.002669635 -0.10812908
000040 14 10 29 be 26 75 15 be be 9b 7f 3d 10 07 0d be
       -0.1651004 -0.1459547 0.062404387 -0.13772225
000050 15 0b 0c be 70 cd cb 3e 5d 31 7d bd e1 71 cb bd
       -0.13676102 0.39805174 -0.061814655 -0.0993383
000060 3d f6 2a be fc bf 24 be 7d 69 32 be 44 2a fe 3d
       -0.16695495 -0.16088861 -0.17423053 0.12410405
000070 8b 1a 1e be 71 04 c9 bd d3 c8 16 be 3d 8d 2d be
       -0.15439813 -0.098153 -0.14725046 -0.1694841
000080 02 ab 2b be d0 e9 d4 bd 0d 30 a3 3d 3f 7f 18 be
       -0.16764453 -0.10396159 0.07968149 -0.1489229
000090 b8 ce 1f be 83 b1 d5 bb d5 51 04 be 88 c3 3e be
       -0.156062 -0.006521405 -0.12921841 -0.18629277
0000a0 66 95 45 be 31 2b f6 3a de e7 0b be f7 22 20 be
       -0.19295272 0.0018781183 -0.13662669 -0.15638338
0000b0 b9 b8 0a be 26 2a df 3f c7 a6 2a be 49 30 1e be
       -0.13547029 1.7434738 -0.16665183 -0.15448107
0000c0 25 e7 16 be 34 0d 97 3d 1c 5c a8 bd 33 4e ad 3d
       -0.14736612 0.07375565 -0.082206935 0.08462181
0000d0 00 37 ac bd bc d7 1f bd e9 69 55 be 75 d1 59 3f
       -0.08408928 -0.0390241 -0.20841183 0.8508523
0000e0 02 ab 85 3d d8 0f ae bd 0c 0c 08 be 22 08 1b be
       0.06526758 -0.08499116 -0.13285846 -0.15139821
0000f0 32 77 98 bd 47 0c be bd d1 6f 24 ba 65 e0 2e bf
       -0.0744461 -0.092796855 -0.00062727655 -0.6831115

ln.weight f4 [64]
000000 ec 91 60 3f 14 e0 57 3f 09 f8 41 3f 72 37 43 3f
       0.8772266 0.8432629 0.75769097 0.7625648
000010 33 d1 50 3f 60 ff 39 3f 9d 0b 3a 3f 64 34 44 3f
       0.8156921 0.72655296 0.7267397 0.7664244
000020 ed 88 5a 3f 75 ea 42 3f 81 0c 89 3f 43 a0 6b 3f
       0.8536518 0.76139003 1.0706941 0.92041415
000030 ab 32 3a 3f df db 40 3f fe ed 66 3f b1 01 79 3f
       0.72733563 0.75335497 0.902069 0.97268206
000040 ba 2f 3d 3f a6 40 42 3f f3 3b 76 3f 36 4e 3c 3f
       0.7390095 0.75879896 0.96185225 0.7355684
000050 8f 2d 3e 3f 6c 28 1e 3f 21 76 71 3f f5 4b 6d 3f
       0.74288267 0.6178043 0.94320875 0.92694026
000060 1f 74 3c 3f 6c 05 2e 3f c5 61 33 3f 54 4a 6b 3f
       0.73614687 0.67977023 0.7007106 0.9191029
000070 b2 68 38 3f 68 5f 4c 3f 72 da 3a 3f ea 53 2f 3f
       0.7203475 0.7983308 0.7298957 0.6848742
000080 f1 bf 36 3f be b4 4f 3f 7a 70 60 3f 18 94 35 3f
       0.7138663 0.81135166 0.87671626 0.709291
000090 b1 ea 44 3f e1 0a 67 3f e1 0b 44 3f 5c 65 6b 3f
       0.7692061 0.90250975 0.76580626 0.9195154
0000a0 45 c1 70 3f 47 14 70 3f 5c e9 5d 3f 28 b0 31 3f
       0.94044906 0.9378094 0.86684203 0.6940942
0000b0 40 3d 5a 3f b1 02 f7 3e 5f bf 2c 3f 9b 08 39 3f
       0.8524971 0.4824424 0.6747951 0.72278756
0000c0 fe 1e 51 3f d4 00 67 3f e7 3a 71 3f 47 1f 7d 3f
       0.81687915 0.9023564 0.942305 0.9887585
0000d0 57 e4 57 3f 61 c1 5c 3f 0c e4 61 3f d7 48 4c 3f
       0.84332794 0.8623257 0.88238597 0.79798645
0000e0 00 bc 76 3f 79 d1 68 3f 68 02 3b 3f d1 e7 3a 3f
       0.96380615 0.9094463 0.73050547 0.73009974
0000f0 e1 79 81 3f 47 ca 64 3f bb 89 8c 3f 0d a6 0f 3f
       1.011532 0.8937115 1.0979532 0.5611275

ln.bias f4 [64]
000000 3c 07 16 3e 13 0e f5 3d 98 d3 01 3e 15 43 dd 3d
       0.14651197 0.11965575 0.12678373 0.108038105
000010 a6 0b ed 3d 47 30 db 3d 59 74 1b 3e 22 91 25 3d
       0.115744874 0.107025675 0.15181102 0.040421613
000020 44 a9 31 3e fe af e3 3d d5 08 c5 3c d8 2d 19 3c
       0.17349726 0.11117552 0.024052063 0.009349309
000030 a7 9a f4 bd 6e 38 b1 3c 5a 90 5b bd 35 47 7f 3d
       -0.1194356 0.021633353 -0.05360446 0.062323768
000040 0f 3f 06 3e 4e 27 d0 3d 6f 47 b2 3b b5 6c ae 3d
       0.13109992 0.10163747 0.0054406445 0.08516828
000050 16 95 98 3d 0f 88 a8 be 07 1b 94 3c fc eb a3 3d
       0.07450311 -0.32916304 0.018079294 0.08003995
000060 26 f3 04 3e 1d f2 d7 3d d1 1b 03 3e d8 af 1f 3b
       0.12983379 0.10544226 0.1280358 0.0024366286
000070 ff c3 ea 3d 78 f7 56 3d 7b 85 d2 3d b9 c2 e8 3d
       0.114631645 0.0524821 0.10279366 0.113652654
000080 ad 30 01 3e 15 fb 05 3d 92 8e e1 3d d4 d9 cf 3d
       0.12616225 0.032710154 0.11013521 0.10148969
000090 1d f2 04 3e a8 26 02 3d 23 d5 b0 3d 59 85 12 3e
       0.12982984 0.031775147 0.086344026 0.1430868
0000a0 40 6e 24 3e 00 55 ce bc ea f9 c9 3d 0a 40 ca 3d
       0.16057682 -0.025187016 0.098621204 0.09875496
0000b0 af 6b d6 3d 90 b3 f8 be 7e a5 da 3d b3 f9 d4 3d
       0.10469758 -0.48574495 0.106760964 0.10399189
0000c0 8c 30 e2 3d ab d1 85 3c e6 f8 c3 3c bf 98 7d bb
       0.11044416 0.016335329 0.023922395 -0.003869578
0000d0 53 70 43 3d 2a db 97 3d 06 0a 36 3e af bd 30 be
       0.047714543 0.07414849 0.17777261 -0.17259859
0000e0 4b 6e b5 3d 44 6c 2e 3d 36 e5 90 3d 90 9d db 3d
       0.08858927 0.04258372 0.070749685 0.10723412
0000f0 e3 3d 50 bc 34 6c 84 3d 17 61 05 bc 7d 76 b7 3e
       -0.012710067 0.064659506 -0.008140824 0.35832587

layer2.weight f4 [1, 64]
000000 d9 37 06 3d 1b 2d de bc f7 a2 1a bc 52 77 21 bc
       0.032768104 -0.027121117 -0.009438268 -0.009855108
000010 23 43 4d bc 3c 5e 16 bc cd 50 26 bc 98 d8 0f bc
       -0.012528214 -0.009177741 -0.0101511 -0.008779667
000020 50 e2 06 3d 0c ea 13 bc d8 44 6a bd b9 e7 7b bd
       0.032930672 -0.009027969 -0.05719456 -0.061500285
000030 41 21 d2 bc ae 7e 18 bc 37 85 01 3d a0 f3 ce 3d
       -0.025650622 -0.009307547 0.031621184 0.101050615
000040 e1 5a 15 bc 91 02 1c bc ee ed c8 bd 32 24 1a bc
       -0.0091159055 -0.009522096 -0.098110065 -0.009408044
000050 f3 27 16 bc 39 e3 13 bc 5d f1 b5 bd 58 1e 80 3d
       -0.009164798 -0.009026342 -0.08883927 0.062557876
000060 90 9d 18 bc b6 71 27 bc 45 90 29 bc f8 df 88 bd
       -0.00931491 -0.010219982 -0.010349338 -0.06683344
000070 43 7b 25 bc 5c 2f 35 bc 74 3f 1b bc 35 ba 29 bc
       -0.010100189 -0.011058655 -0.009475578 -0.010359337
000080 5c 1f 26 bc 54 ff e1 bb 1f 1d 26 3d 19 94 20 bc
       -0.010139313 -0.0068968926 0.040555116 -0.009800934
000090 3b c6 1c bc f1 b6 4d bd e5 cf 23 bc 91 e8 3a 3d
       -0.009568746 -0.050223295 -0.009998296 0.04563195
0000a0 e4 3b 52 3d 2f a4 bf 3d 4e 36 3e 3d f7 ed 22 bc
       0.051326647 0.093574874 0.046438508 -0.009944431
0000b0 69 63 0a bc a7 b9 4b bc d1 4c 2e bc b0 ae 18 bc
       -0.008446553 -0.0124344 -0.010638432 -0.0093189925
0000c0 8b 87 fa bb 8d 79 25 bd 90 db 9f bd 15 ce a7 bd
       -0.0076455525 -0.040399123 -0.0780555 -0.08193604
0000d0 a0 d9 60 bc d5 74 4b bc fc 20 53 3d 5a fb d3 3c
       -0.013723761 -0.012417992 0.05154513 0.02587669
0000e0 6c aa 88 3d 61 77 2d bd 22 51 0d bc 4e f3 19 bc
       0.066731304 -0.042350177 -0.008625301 -0.009396387
0000f0 2c 89 16 3e 79 14 72 bc 82 38 52 be 3b 06 d5 3b
       0.14700764 -0.014775389 -0.20529369 0.006500987
