weights/Linear_L16_H64_E100_s5.pt (torch, 24414 bytes, 5 tensors)

layer1.weight f4 [64, 80]
0.06529353 -0.09249146 0.087266386 0.061445776 0.06879853 -0.09426005 -0.08265033 0.05300994
-0.111558124 0.09769679 0.011198874 0.00659134 -0.09540331 0.028008375 0.033306282 0.0050387774
0.100172885 0.03443762 -0.10706351 0.08553997 0.027289884 -0.060205948 -0.10144017 0.055997744
0.10381687 -0.099527195 -0.0005328536 0.041145593 -0.05987301 -0.0257079 -0.08031031 -0.059967637
-0.10204 -0.009000838 0.0648487 0.05087737 0.09696822 -0.09993673 -0.019043883 0.10487056
0.017208897 -0.03843137 -0.10394924 0.048127368 0.08847894 0.090990365 0.088935435 0.018047027
0.07712441 -0.018403383 0.09542789 -0.011206424 -0.026724024 -0.056546826 0.07473696 0.053052265
0.07220429 -0.074719004 -0.059206422 0.12031943 -0.047185056 -0.05807445 -0.03100221 -0.03409553
-0.04472141 0.0979861 0.015714008 0.048896823 0.084578715 -0.10496779 0.053576306 -0.0712796
-0.028925285 0.08030456 -0.08402426 -0.04673086 -0.0059461324 0.06533798 -0.06316469 -0.55717486
-0.025101991 0.0041924044 0.0032582718 0.06878602 0.065010235 -0.065594964 -0.045997053 -0.011360394
0.029358149 -0.035016667 -0.059634633 -0.0051701358 -0.031054463 0.017107291 -0.07692875 -0.019000767
-0.025740027 0.008757193 0.10157884 0.08524765 -0.025547389 -0.08666569 -0.05534532 -0.07179092
0.008381766 -0.036666136 -0.062281307 0.049119566 0.021920657 0.003000944 -0.02527005 0.11035891
-0.084659316 0.012832835 0.07165737 0.09660679 -0.08349768 0.0037748506 0.11003442 0.036289126
0.054599676 -0.03453607 0.09726491 -0.023516176 -0.032655034 0.12550256 0.046935935 0.018340535
-0.057907056 0.010707218 -0.057050325 -0.054301444 0.0034433212 0.043550037 -0.04810677 0.14235584
0.106718324 -0.08394951 0.09339559 -0.023029177 -0.04836446 0.13495956 -0.022238944 -0.011344961
0.07709065 0.099115215 0.03694894 -0.00813542 0.03504919 -0.06441542 -0.0878498 0.03784559
0.024014195 0.07482472 -0.21810344 -0.24009831 -0.078236304 -0.1256306 -0.009568483 -0.51705694
-0.015905859 0.04816453 0.0040285797 0.024582054 0.064532585 -0.020598577 -0.0066494974 -0.06762347
0.040227525 0.052754827 -0.11748992 0.08124991 0.012002951 -0.04532149 -0.13670444 -0.14978182
-0.11626943 -0.1144322 -0.10423603 -0.058689475 -0.1275156 -0.12360174 -0.03280101 -0.12353562
-0.036838613 -0.012464019 -0.010520382 0.049785912 0.03206291 -0.09197724 -0.06641927 -0.030451633
0.07365187 0.025988957 -0.08987739 -0.039058257 -0.012684835 0.017742852 -0.06850018 -0.118375145
-0.090844885 -0.026507016 -0.09799422 0.0056609595 0.060619134 -0.015356199 0.034228716 0.057478953
0.04803588 -0.09064271 0.10018694 0.013232188 -0.1298388 0.007390007 -0.041319557 0.11730871
0.08117723 -0.09011779 -0.100202754 0.055365577 -0.0039965305 0.04771436 -0.11787279 0.06835718
0.04874092 0.020992285 -0.07322855 -0.008233858 0.061380684 0.06500281 -0.09854586 -0.06695675
-0.0018549472 0.042599507 -0.30325902 -0.17724857 -0.15700771 0.05281545 -0.07445503 -0.44606885
0.06439928 0.0129352575 0.028930599 0.07268761 -0.03295113 0.0637606 -0.009285452 0.014452358
0.042933747 -0.10137889 -0.052974354 -0.083938174 -0.020836188 -0.0027120064 0.04160041 -0.08971987
00000000: 9db8 853d 2a6c bdbd b8b8 b23d 91ae 7b3d
00000010: 3ee6 8c3d 6a0b c1bd 9444 a9bd f320 593d
00000020: 9678 e4bd 4115 c83d 7b7b 373c 2bfc d73b
00000030: d062 c3bd d271 e53c 2b6c 083d 541c a53b
00000040: 7127 cd3d 760e 0d3d 1d44 dbbd 942f af3d
00000050: 098f df3c 839a 76bd ddbf cfbd e45d 653d
00000060: f09d d43d ead4 cbbd 33af 0bba 4888 283d
00000070: 673d 75bd 6099 d2bc bb79 a4bd a0a0 75bd
00000080: 59fa d0bd 4078 13bc 65cf 843d ca64 503d
00000090: 4697 c63d a1ab ccbd eb01 9cbc 60c6 d63d
000000a0: acf9 8c3c 366a 1dbd 57e3 d4bd 3421 453d
000000b0: 7234 b53d 2859 ba3d c823 b63d 5cd7 933c
000000c0: 67f3 9d3d b1c2 96bc b36f c33d 269b 37bc
000000d0: 57ec dabc a59d 67bd b10f 993d 554d 593d
000000e0: d8df 933d 4706 99bd 6f82 72bd 096a f63d
000000f0: 1e45 41bd 79df 6dbd 59f8 fdbc c1a7 0bbd
00000100: cc2d 37bd f0ac c83d aaba 803c 0948 483d
00000110: 9b37 ad3d 5af9 d6bd d472 5b3d 0afb 91bd
00000120: b8f4 ecbc b876 a43d e914 acbd dc68 3fbd
00000130: c6d7 c2bb ebcf 853d 7d5c 81bd 03a3 0ebf
00000140: b1a2 cdbc 7060 893b bb88 553b afdf 8c3d
00000150: 1624 853d a756 86bd 6867 3cbd f220 3abc
00000160: 8080 f03c a36d 0fbd 7243 74bd 3e6a a9bb
00000170: ee65 febc 9724 8c3c d28c 9dbd 7fa7 9bbc
00000180: c0dc d2bc 547a 0f3c 9108 d03d 5296 ae3d
00000190: c248 d1bc c87d b1bd c6b1 62bd 1e07 93bd
000001a0: ad53 093c 3b2f 16bd af1a 7fbd 9931 493d
000001b0: f392 b33c 7cab 443b 2303 cfbc da03 e23d
000001c0: dd61 adbd d040 523c 19c1 923d c8d9 c53d
000001d0: d500 abbd 7c63 773b ba59 e13d e8a3 143d
000001e0: e9a3 5f3d b275 0dbd d332 c73d ffa4 c0bc
000001f0: 49c1 05bd be83 003e e53f 403d e43e 963c
00000200: f32f 6dbd 546d 2f3c 9aad 69bd 316b 5ebd
00000210: 58a9 613b 8661 323d 9b0b 45bd bbc5 113e
00000220: 238f da3d b8ed abbd 3046 bf3d afa7 bcbc
00000230: d019 46bd d732 0a3e 722e b6bc 37e0 39bc
00000240: b4e1 9d3d ebfc ca3d c657 173d 6d4a 05bc
00000250: bd8f 0f3d 3bec 83bd 99ea b3bd fa03 1b3d
00000260: 6bb9 c43c b43d 993d 8256 5fbe 55dc 75be
00000270: 5b3a a0bd 4fa5 00be 20c5 1cbc d85d 04bf
00000280: 014d 82bc 2c48 453d 2d02 843b 4e60 c93c
00000290: a929 843d 59be a8bc 07e4 d9bb 2d7e 8abd
000002a0: 9ec5 243d 7215 583d 8e9e f0bd 5a66 a63d
000002b0: 07a8 443c 07a3 39bd 40fc 0bbe 6860 19be
000002c0: ab1e eebd 6e5b eabd b379 d5bd 6064 70bd
000002d0: 7393 02be e922 fdbd 5a5a 06bd 3e00 fdbd
000002e0: 16e4 16bd e235 4cbc ae5d 2cbc 50ec 4b3d
000002f0: 6654 033d 905e bcbd d406 88bd b475 f9bc
00000300: cbd6 963d cbe6 d43c a311 b8bd 8dfb 1fbd
00000310: 0ed4 4fbc 7559 913c d349 8cbd ab6e f2bd
00000320: e20c babd 3e25 d9bc 32b1 c8bd 927f b93b
00000330: c54b 783d 9198 7bbc 6933 0c3d 0d6f 6b3d
00000340: 45c1 443d e3a2 b9bd cf2e cd3d d2cb 583c
00000350: 76f4 04be df27 f23b b23e 29bd 8d3f f03d
00000360: 3f40 a63d ad8f b8bd 1a37 cdbd 04c7 623d
00000370: 54f5 82bb 2270 433d 4a67 f1bd d9fe 8b3d
00000380: 8fa4 473d 03f8 ab3c daf8 95bd 4ee7 06bc
00000390: 506a 7b3d 3120 853d 69d2 c9bd 9f20 89bd
000003a0: b321 f3ba d27c 2e3d c444 9bbe a680 35be
000003b0: a1c6 20be 0355 583d e17b 98bd 2363 e4be
000003c0: c5e3 833d 67ee 533c ddff ec3c 3edd 943d
000003d0: c4f7 06bd eb94 823d 0222 18bc 95c9 6c3c
000003e0: 4cdb 2f3d bc9f cfbd a3fb 58bd c7e7 abbd
000003f0: a7b0 aabc ebbb 31bb 3165 2a3d 0dbf b7bd

layer1.bias f4 [64]
-0.2008917 -0.03608887 -0.023799276 -0.19514157 1.7932993 0.008061641 -0.7173804 0.10668402
-0.0864495 -0.036977023 0.09848992 0.69027835 0.053950384 0.038633823 0.012981847 -0.07044236
-0.012439304 -0.21550322 -1.0110643 0.023789236 -0.04537675 -0.039214566 -0.050558135 -0.028801238
-0.07135888 -0.012331134 -0.99413794 -0.027419608 -0.06850897 -0.07097882 -0.014616435 -0.036997214
-0.014239156 -0.23910423 -0.07426712 -0.13168475 -0.060461957 -0.1026678 -0.067282446 -0.077466644
-0.054630533 -0.12597942 -0.117000476 0.06988498 -0.00838736 -0.022782892 -0.010464647 -0.090696685
-0.10206866 -0.014861157 -0.045642316 -0.0691221 -0.044703983 -0.13029991 -0.074633725 -0.019413598
-0.07247384 -0.062266003 -0.3381522 -0.07190495 -0.115426265 -0.045447346 -0.04822228 0.39313048
00000000: 8eb6 4dbe ecd1 13bd b3f6 c2bc 31d3 47be
00000010: d58a e53f f914 043c 3ea6 37bf 277d da3d
00000020: 6f0c b1bd 3875 17bd 15b5 c93d 15b6 303f
00000030: 14fb 5c3d 803e 1e3d d0b1 543c 1644 90bd
00000040: 39ce 4bbc e0ac 5cbe 8e6a 81bf a5e1 c23c
00000050: f9dc 39bd 749f 20bd 0c16 4fbd 93f0 ebbc
00000060: 9b24 92bd 8608 4abc d37f 7ebf 169f e0bc
00000070: 6e4e 8cbd 585d 91bd c679 6fbc 648a 17bd
00000080: 594b 69bc bdd7 74be 5c19 98bd 5ed8 06be
00000090: f5a6 77bd 7f43 d2bd 61cb 89bd d5a6 9ebd
000000a0: 44c4 5fbd c000 01be f29d efbd db1f 8f3d
000000b0: 236b 09bc 30a3 babc e973 2bbc 2fbf b9bd
000000c0: 6009 d1bd 367c 73bc 70f3 3abd e38f 8dbd
000000d0: 861b 37bd 576d 05be 91d9 98bd 4409 9fbc
000000e0: 2a6d 94bd a30a 7fbd 4922 adbe e742 93bd
000000f0: 9b64 ecbd ff26 3abd ba84 45bd 6648 c93e

ln.weight f4 [64]
0.51177007 0.8797268 0.3028296 0.71328443 0.06312994 0.9258403 0.44854513 0.9810426
0.45657805 0.81941503 0.9022536 0.40043056 0.94534326 0.9022997 0.7610878 0.3645599
0.21583521 0.0017875244 0.00055341277 0.8585794 0.35744458 0.29814708 0.50985605 0.15922306
1.0059725 0.1996629 -0.0028416982 0.2035641 0.56210077 0.58880055 0.29232374 0.27123946
0.7361344 0.33879408 0.104874924 0.93274915 0.47204772 0.56484926 0.42357278 0.5267291
0.13672094 0.6547126 0.935555 0.84232455 0.9650799 0.5035893 0.6118796 0.62844276
0.8141255 0.23754476 0.3569197 0.4731096 0.43410948 0.9372634 0.5889016 0.3494289
0.82776994 0.93896633 6.9584225e-05 0.4011394 0.923442 1.2240965 0.33865336 0.78052545
00000000: 5d03 033f c735 613f 7b0c 9b3e cf99 363f
00000010: 454a 813d df03 6d3f b5a7 e53e 9c25 7b3f
00000020: 99c4 e93e 2fc5 513f 18fa 663f 3c05 cd3e
00000030: 0402 723f 1dfd 663f a6d6 423f 98a7 ba3e
00000040: e803 5d3e 5e4b ea3a e712 113a dccb 5b3f
00000050: fa02 b73e bca6 983e ed85 023f 5f0b 233e
00000060: b5c3 803f 6e74 4c3e c93b 3abb 1c73 503e
00000070: d6e5 0f3f a2bb 163f 75ab 953e e6df 8a3e
00000080: 4e73 3c3f 6b76 ad3e aac8 d63d a6c8 6e3f
00000090: 3db0 f13e f699 103f 88de d83e b8d7 063f
000000a0: 9300 0c3e 3f9b 273f 8880 6f3f 95a2 573f
000000b0: 7a0f 773f 3aeb 003f 24a4 1c3f a0e1 203f
000000c0: 876a 503f ef3e 733e 2ebe b63e 6c3b f23e
000000d0: 9943 de3e 7ff0 6f3f 41c2 163f 58e8 b23e
000000e0: bbe8 533f 1960 703f bfed 9138 2562 cd3e
000000f0: b266 6c3f 32af 9c3f f963 ad3e 84d0 473f

ln.bias f4 [64]
0.039111417 0.027888333 0.08711816 0.05964653 -0.46967217 0.11520618 -0.020390144 -0.014285601
0.02174169 0.030077618 -0.012504421 0.051666923 0.117829435 0.012049465 0.21643913 0.10465318
0.06165398 0.0036672046 0.00018827672 0.019756904 0.10298768 0.085271604 0.14877236 0.044988796
0.08339253 0.056853335 -0.005562627 0.05714737 0.16550921 0.02583649 0.084219575 0.077301756
0.21329784 0.058724735 -0.0072045303 -0.041794427 0.13730325 -0.053503983 0.12261429 0.1536007
0.038007542 0.04459851 0.11095125 -0.0055991677 -0.03335881 0.14588915 0.023528965 0.032720555
0.06364708 0.067826614 -0.0018231191 0.13717009 0.12596874 0.14076446 0.17258422 0.100829914
-0.09004968 0.11506162 0.00013457246 0.11612453 -0.034633666 0.0077495216 6.79349e-05 -0.23133981
00000000: 4b33 203d 1376 e43c 026b b23d eb4f 743d
00000010: df78 f0be 38f1 eb3d 3b09 a7bc 270e 6abc
00000020: a11b b23c 5665 f63c 58df 4cbc b2a0 533d
00000030: 8f50 f13d 1f6b 453c 38a2 5d3e 6854 d63d
00000040: e288 7c3d 7c55 703b 266c 4539 3bd9 a13c
00000050: 34eb d23d e1a2 ae3d c857 183e 2c46 383d
00000060: b4c9 aa3d 0bdf 683d b346 b6bb 5c13 6a3d
00000070: 3f7b 293e 0ca7 d33c 507b ac3d 6250 9e3d
00000080: c06a 5a3e 5989 703d fb13 ecbb a230 2bbd
00000090: 3999 0c3e fe26 5bbd 331d fb3d 8049 1d3e
000000a0: ccad 1b3d edac 363d 693a e33d 3979 b7bb
000000b0: 3fa3 08bd f763 153e d1bf c03c fd05 063d
000000c0: 6659 823d aee8 8a3d baf5 eeba 5176 0c3e
000000d0: f3fd 003e 8f24 103e ebb9 303e ea7f ce3d
000000e0: f76b b8bd 6da5 eb3d 051c 0d39 b3d2 ed3d
000000f0: 08dc 0dbd b3ef fd3b 4678 8e38 58e4 6cbe

layer2.weight f4 [1, 64]
-0.0019062334 -0.023977784 0.00097633264 -0.0029395113 -0.0007645966 0.0742806 -0.030420745 -0.12591626
-0.0028510422 -0.015476675 -0.058212917 0.0032191356 0.0766252 -0.044355143 0.0022125829 0.0013617005
0.00094471645 0.0024014045 7.7805664e-05 -0.028486766 0.0004903943 0.00046596295 0.0014215903 0.0011982856
0.13538474 0.0011219229 -0.0008014333 0.00078795035 0.0009931284 -0.0053905826 0.0011528085 0.0010165407
0.002107354 -0.00053924706 -0.0003462118 0.109780475 0.00071376737 -0.0011794444 0.0006512247 0.00012736562
0.0011237114 -0.0047206148 0.08521193 -0.066870324 0.11501465 0.001680308 -0.0072110477 -0.0025845522
-0.04796945 0.0012101841 -0.0033532719 0.0006616734 0.0010884725 0.07649202 0.0010140672 0.0011141791
-0.0026327344 0.081931494 6.924628e-05 0.0008421437 0.10056493 -0.24896024 -0.003203428 -0.1295156
00000000: 94da f9ba 0f6d c4bc 93f0 7f3a d1a4 40bb
00000010: 366f 48ba 6d20 983d ed34 f9bc 31f0 00be
00000020: 8dd8 3abb e191 7dbc ab70 6ebd 22f8 523b
00000030: aced 9c3d bdad 35bd fb00 113b 167b b23a
00000040: d9a6 773a e260 1d3b 992b a338 145d e9bc
00000050: ce8d 003a 7d4c f439 a854 ba3a cb0f 9d3a
00000060: 4ca2 0a3e 7c0d 933a 4717 52ba 748e 4e3a
00000070: dc2b 823a 7ca3 b0bb d619 973a 723d 853a
00000080: 891b 0a3b 425c 0dba c383 b5b9 96d4 e03d
00000090: 1e1c 3b3a 9697 9aba f3b6 2a3a 738d 0539
000000a0: 7f49 933a 63af 9abb 9883 ae3d 4ff3 88bd
000000b0: cd8c eb3d c83d dc3a a74a ecbb 9761 29bb
000000c0: 9d7b 44bd 0a9f 9e3a 91c2 5bbb 2674 2d3a
000000d0: 14ab 8e3a d9a7 9c3d 73ea 843a a609 923a
000000e0: f489 2cbb b3cb a73d 5038 9138 4fc3 5c3a
000000f0: fcf4 cd3d 6fef 7ebe 9af0 51bb bd9f 04be
