weights/Linear_L16_H64_E100_s2.pt (torch, 24414 bytes, 5 tensors)

layer1.weight f4 [64, 80]
0.012149969 -0.039016336 0.02119291 -0.011269866 0.027908776 0.014046622 -0.024632359 -0.09922766
0.020514889 -0.112010166 0.0020790903 -0.0046592825 -0.033928383 0.085789815 -0.004789077 0.03369105
0.035029236 -0.07574585 -0.049209487 0.09470196 -0.12212617 -0.019916106 -0.018999107 0.07255717
-0.022640843 0.017002285 -0.017730262 -0.073044084 -0.07065225 -0.066404596 -0.113196276 -0.084658414
0.015714254 0.06590008 -0.0035052055 -0.061762698 0.03757513 -0.053494714 -0.03274298 -0.06795439
-0.04342652 -0.114084736 0.03738115 0.035388444 0.020345364 0.04905828 0.03817211 -0.004966405
0.0037249655 0.008949919 0.057297613 0.06772065 0.07101614 0.056848448 -0.021958433 -0.0029409602
-0.02750075 0.05677998 0.00494353 0.11645649 0.06427338 -0.0970063 0.025965996 0.10074174
0.12029611 0.0119463075 0.039802402 -0.10962223 -0.04122487 0.083330154 -0.08134551 0.10475349
-0.07595987 0.03110185 0.030206777 0.0449358 0.022271354 -0.10492162 -0.027092488 -0.041557275
0.10463959 -0.005575901 -0.11008231 0.025478102 0.067747645 -0.04066852 -0.001402525 0.051138576
-0.07040125 -0.05112113 -0.002047092 -0.06885491 0.07268443 0.008578681 0.07561765 0.06817652
-0.076597154 -0.06462924 -0.07680236 -0.029414622 -0.033120416 -0.0088784145 -0.10226441 0.047223765
0.06883524 0.0419786 0.07939205 0.09043752 -0.10994884 0.020983456 0.11088773 -0.07275493
-0.04270532 -0.004811371 -0.058410276 -0.013422307 -0.008333532 0.10721827 -0.0051759994 0.07171738
0.089254096 0.057658583 -0.08958523 0.08623974 0.07892143 -0.07276664 -0.032311935 0.083826646
-0.105718665 -0.09259578 -0.06774835 0.042120412 -0.037673265 -0.096078105 0.050667822 0.063905016
0.049137734 -0.08763212 0.11316163 -0.0006838677 -0.10218401 -0.010898816 0.08079999 0.05611098
-0.005727397 0.07447096 -0.100497775 0.08308304 0.11483864 -0.1056253 -0.0030520328 -0.027874252
-0.09478315 -0.00037846537 -0.14544815 -0.17016894 -0.114825256 -0.010141461 0.09673358 -0.19076003
-0.068778485 0.081767984 0.007935542 -0.11185631 0.021173855 0.077945694 -0.059286878 -0.004022726
-0.05669588 -0.084070474 -0.05831341 0.018043095 0.074275024 -0.021751778 -0.09611757 0.0034790286
-0.090807624 0.009401924 0.081887506 0.0494085 -0.06477686 -0.018922418 0.048214328 0.029419132
-0.104027934 -0.062823534 -0.034741066 0.044938494 0.09917454 0.050427467 0.04588681 -0.08996548
0.07682798 0.03984846 -0.025419544 -0.0482261 0.037096955 -0.055402078 0.045943003 0.09874773
-0.06660803 -0.06394238 -0.040878825 -0.09449004 -0.002408203 0.07956471 0.048617803 -0.029819706
-0.011907147 -0.033794038 -0.07604648 -0.022221575 0.015008101 -0.053650036 -0.061762225 0.050521918
0.027239203 -0.026162475 0.03497702 0.13213515 0.02605206 -0.0639329 0.113145724 0.0860506
0.0129882395 -0.03327265 -0.034970228 0.10681053 0.06438281 -0.06062191 0.0045984993 0.027958428
0.03493285 -0.002354394 -0.12904805 -0.04723543 -0.04571906 -0.042596195 -0.0578513 -0.25169984
-0.060622398 0.03724715 -0.094766416 -0.10295972 0.07755301 0.03280596 0.05462241 0.04760516
-0.03954085 -0.07733493 -0.083339356 -0.014990987 0.02538375 -0.102092005 -0.09437782 0.055454955
00000000: aa10 473c 98cf 1fbd c19c ad3c 3ea5 38bc
00000010: f2a0 e43c ce23 663c cdc9 c9bc df37 cbbd
00000020: d70e a83c 9665 e5bd 5941 083b e5ac 98bb
00000030: 7df8 0abd 92b2 af3d b1ed 9cbb a0ff 093d
00000040: d17a 0f3d a420 9bbd e38f 49bd 1af3 c13d
00000050: 491d fabd 1a27 a3bc 04a4 9bbc db98 943d
00000060: 4a79 b9bc 6048 8b3c 0e3f 91bc 2398 95bd
00000070: 20b2 90bd 22ff 87bd 73d3 e7bd 6461 adbd
00000080: 2ebb 803c 9ff6 863d 97b7 65bb e2fa 7cbd
00000090: 61e8 193d 461d 5bbd 811d 06bd ac2b 8bbd
000000a0: 02e0 31bd 42a5 e9bd fa1c 193d 79f3 103d
000000b0: 52ab a63c 56f1 483d 5c5a 1c3d 3abd a2bb
000000c0: 8d1e 743b aea2 123c e7b0 6a3d 20b1 8a3d
000000d0: e970 913d ebd9 683d 2ce2 b3bc 20bd 40bb
000000e0: 4149 e1bc 2092 683d 56fd a13b bd80 ee3d
000000f0: c3a1 833d 3dab c6bd a4b6 d43c af51 ce3d
00000100: cf5d f63d 72ba 433c d807 233d 9f81 e0bd
00000110: 69db 28bd 00a9 aa3d 7a98 a6bd ff88 d63d
00000120: d990 9bbd 4fc9 fe3c 3474 f73c 9a0e 383d
00000130: 6a72 b63c 25e1 d6bd 11f1 ddbc f637 2abd
00000140: 484d d63d 0cb6 b6bb d672 e1bd 74b7 d03c
00000150: 47bf 8a3d 0994 26bd eed4 b7ba af76 513d
00000160: 882e 90bd 6464 51bd 8128 06bb ce03 8dbd
00000170: 93db 943d 998d 0c3c 6ddd 9a3d 22a0 8b3d
00000180: f8de 9cbd 565c 84bd 8e4a 9dbd eff6 f0bc
00000190: 46a9 07bd c576 11bc 0170 d1bd b56d 413d
000001a0: 7ef9 8c3d c1f1 2b3d 4d98 a23d 4e37 b93d
000001b0: dc2c e1bd 7fe5 ab3c 1b19 e33d 8900 95bd
000001c0: c6eb 2ebd b5a8 9dbb 9d3f 6fbd 3ce9 5bbc
000001d0: 5e89 08bc 4195 db3d 6e9b a9bb 90e0 923d
000001e0: daca b63d 682b 6c3d 7678 b7bd 769e b03d
000001f0: 8fa1 a13d ad06 95bd 8559 04bd 4ead ab3d
00000200: 0783 d8bd dba2 bdbd a6bf 8abd 7486 2c3d
00000210: 484f 1abd 99c4 c4bd 1089 4f3d a2e0 823d
00000220: a644 493d 7878 b3bd 49c1 e73d 9645 33ba
00000230: da45 d1bd f390 32bc 777a a53d a1d4 653d
00000240: e3ac bbbb 3b84 983d c7d1 cdbd 7127 aa3d
00000250: 8530 eb3d 1452 d8bd 9d04 48bb 8b58 e4bc
00000260: ab1d c2bd c36c c6b9 5cf0 14be c440 2ebe
00000270: 8129 ebbd 5f28 26bc 411c c63d 9956 43be
00000280: bcdb 8cbd f975 a73d 1304 023c ec14 e5bd
00000290: cb74 ad3c fea1 9f3d ccd6 72bd 12d1 83bb
000002a0: f039 68bd 242d acbd 0bda 6ebd 1dcf 933c
000002b0: 811d 983d c930 b2bc 4ad9 c4bd 6a00 643b
000002c0: 59f9 b9bd 870a 1a3c a3b4 a73d 9160 4a3d
000002d0: bba9 84bd 3003 9bbc 637c 453d 6400 f13c
000002e0: 990c d5bd a0a9 80bd a64c 0ebd 6d11 383d
000002f0: 051c cb3d 088d 4e3d cff3 3b3d d23f b8bd
00000300: fd57 9d3d 2438 233d a63c d0bc bb88 45bd
00000310: faf2 173d 4aed 62bd bb2e 3c3d 403c ca3d
00000320: ca69 88bd 39f4 82bd 8e70 27bd fe83 c1bd
00000330: f1d2 1dbb d3f2 a23d 7623 473d 7548 f4bc
00000340: 3216 43bc 9e6b 0abd 42be 9bbd 050a b6bc
00000350: 8ae4 753c 24c0 5bbd 63fa 7cbd 12f0 4e3d
00000360: c024 df3c b052 d6bc 1044 0f3d 704e 073e
00000370: 216b d53c 41ef 82bd f2b8 e73d 4c3b b03d
00000380: a0cc 543c e748 08bd f13c 0fbd 7bbf da3d
00000390: 22db 833d ae4e 78bd 02af 963b 1309 e53c
000003a0: c015 0f3d 2d4c 1abb 2c25 04be f079 41bd
000003b0: e943 3bbd 5979 2ebd 7cf5 6cbd cdde 80be
000003c0: 314f 78bd 7890 183d e514 c2bd 8cdc d2bd
000003d0: 1dd4 9e3d 8b5f 063d c0bb 5f3d a1fd 423d
000003e0: 96f5 21bd c761 9ebd d3ad aabd c29c 75bc
000003f0: 95f1 cf3c 9d15 d1bd 2949 c1bd bc24 633d

layer1.bias f4 [64]
-0.088613845 0.0042994176 -0.009804606 -0.11312258 -0.07650482 -0.085312225 -0.04958755 -0.109186605
-0.07046049 -0.05690245 -0.04933978 -0.09743182 -0.062073074 -0.10048545 -0.011086256 0.022106828
-0.1056174 0.076124944 -0.0334418 0.9992032 -0.10411996 -0.034378722 0.053141046 -0.06339249
0.049002264 -0.055571433 -0.08812402 -0.08993234 -0.12456632 0.27722353 -0.11980434 -0.0011073208
-0.07837708 0.042488646 -0.062042437 0.09304554 -0.10777971 -0.11131501 0.03940845 0.5267325
-0.13412976 -0.21749136 0.049307175 -0.09933676 -0.017876912 0.08747044 -0.01543042 -0.11125566
-0.028809577 -0.1459334 0.092129424 -0.106069446 -0.10181296 -0.09042694 -0.06966126 0.05245747
-0.05853498 -0.07920035 -0.10971434 -0.073177256 -0.055233967 -0.1023451 -0.054916814 0.41858014
00000000: 2d7b b5bd 21e2 8c3b 80a3 20bc d0ac e7bd
00000010: 8fae 9cbd 2db8 aebd 511c 4bbd 3a9d dfbd
00000020: 974d 90bd 8b12 69bd 8218 4abd 568a c7bd
00000030: 5640 7ebd 51cb cdbd 21a3 35bc 6119 b53c
00000040: ef4d d8bd 65e7 9b3d 45fa 08bd c8cb 7f3f
00000050: d83c d5bd b4d0 0cbd 6daa 593d ecd3 81bd
00000060: 99b6 483d df9e 63bd 5e7a b4bd 722e b8bd
00000070: a01c ffbd 3ef0 8d3e fa5b f5bd 8523 91ba
00000080: 2a84 a0bd 9308 2e3d 3620 7ebd a98e be3d
00000090: 9cbb dcbd 20f9 e3bd c16a 213d f1d7 063f
000000a0: 5059 09be 0eb6 5ebe 52f6 493d 1271 cbbd
000000b0: 9a72 92bc b423 b33d dfcf 7cbc 02da e3bd
000000c0: 1002 ecbc 916f 15be 5aae bc3d f03a d9bd
000000d0: 5083 d0bd c231 b9bd 90aa 8ebd a5dd 563d
000000e0: 60c2 6fbd cb33 a2bd e9b1 e0bd f5dd 95bd
000000f0: 033d 62bd 4f9a d1bd 74f0 60bd 2350 d63e

ln.weight f4 [64]
0.846464 0.85551596 0.9338489 0.9114331 0.9132443 0.9461529 0.87648344 0.67556524
0.8770983 0.95911676 0.9271138 0.7161338 0.8973588 0.8277509 0.86692244 0.93602943
0.87744296 0.93811697 0.9373898 0.21718274 0.8619315 0.9449868 0.9202256 1.0010617
0.91006786 0.93592924 0.89255744 0.7665752 0.8254895 0.81528217 0.8692419 0.9118216
0.9688187 0.9024932 0.9770032 0.8998521 0.84075594 0.8675252 0.9323533 0.79051733
0.927912 0.5916623 0.87503165 0.77610546 0.9460748 0.9455862 1.0086404 0.47898555
0.91264975 0.89419734 0.9351042 0.8494021 0.83436006 0.9108792 0.92253876 1.0212772
0.9277933 0.9043293 0.8611852 0.9999031 0.84995526 0.872365 0.99565804 0.86175746
00000000: ddb1 583f 1803 5b3f b910 6f3f ae53 693f
00000010: 61ca 693f 1437 723f 3861 603f d8f1 2c3f
00000020: 8489 603f ad88 753f 5457 6d3f 8b54 373f
00000030: 4eb9 653f 7ce7 533f a1ee 5d3f a09f 6f3f
00000040: 1aa0 603f 6f28 703f c7f8 6f3f 2765 5e3e
00000050: 8ba7 5c3f a8ea 713f e893 6b3f ca22 803f
00000060: 35fa 683f 0f99 6f3f a57e 643f 463e 443f
00000070: 4853 533f 55b6 503f a386 5e3f 246d 693f
00000080: 8104 783f cb09 673f e21c 7a3f b55c 663f
00000090: c83b 573f 2216 5e3f b5ae 6e3f 585f 4a3f
000000a0: a48b 6d3f 2e77 173f 1302 603f d9ae 463f
000000b0: f531 723f f011 723f 211b 813f 983d f53e
000000c0: 6aa3 693f 1eea 643f fd62 6f3f 6b72 593f
000000d0: 9f98 553f 612f 693f 802b 6c3f 36b9 823f
000000e0: dd83 6d3f 2082 673f a276 5c3f a6f9 7f3f
000000f0: ab96 593f 5053 5f3f 72e3 7e3f 239c 5c3f

ln.bias f4 [64]
-0.00265373 0.006679576 0.03900517 0.05366386 0.0357349 0.01279024 -0.0750515 0.051418506
0.006562382 0.013471793 0.027834026 0.04018652 0.06682323 0.020548502 0.005005766 -0.003772793
0.043453753 -0.017261092 0.040049184 -0.62544346 0.02658018 0.0067791753 0.03208908 -0.003542186
0.018898852 0.015425966 -0.0054746075 0.033402145 0.10123592 -0.18088832 0.05172359 0.08468949
0.03807518 0.06371693 0.03436778 -0.06986451 0.039574873 0.028951641 -0.020691656 -0.22263621
-0.013717531 0.232045 0.0077166855 0.026159335 0.011822115 0.003615116 -0.011396279 0.2687749
-0.027096674 -0.003970942 0.006247615 0.03330131 0.037240945 0.103641205 0.010409006 -0.0012427239
0.09737684 -0.032444876 0.022926994 0.010435004 -0.09444129 0.041944124 -0.0039151297 0.09039546
00000000: 34ea 2dbb 58e0 da3b e3c3 1f3d a3ce 5b3d
00000010: c25e 123d 288e 513c 9ab4 99bd 369c 523d
00000020: 4009 d73b ccb8 5c3c 2f04 e43c 9f9a 243d
00000030: 9eda 883d 5555 a83c 6907 a43b f740 77bb
00000040: 90fc 313d 2267 8dbc 9d0a 243d 101d 20bf
00000050: adbe d93c d823 de3b d76f 033d 0524 68bb
00000060: c4d1 9a3c 31bd 7c3c 5664 b3bb b0d0 083d
00000070: c754 cf3d ca3a 39be 1ddc 533d af71 ad3d
00000080: b8f4 1b3d 067e 823d 3bc5 0c3d 2015 8fbd
00000090: 4319 223d fe2b ed3c 8c81 a9bc bffa 63be
000000a0: 7fbf 60bc 349d 6d3e 40dc fc3b 1a4c d63c
000000b0: 8bb1 413c 95eb 6c3b 75b7 3abc dd9c 893e
000000c0: d8f9 ddbc ad1e 82bb cbb8 cc3b f466 083d
000000d0: f689 183d d741 d43d 898a 2a3c e5e2 a2ba
000000e0: 826d c73d ebe4 04bd 64d1 bb3c 94f7 2a3c
000000f0: 6f6a c1bd 9acd 2b3d 7d4a 80bb 4121 b93d

layer2.weight f4 [1, 64]
-0.014336437 -0.019845959 -0.021342712 -0.012476628 -0.025412805 -0.05641138 -0.014155669 -0.011050028
-0.020039039 -0.06015969 -0.028348139 -0.01142087 0.021201624 -0.019014513 -0.017106691 -0.06668582
-0.015108098 -0.035269603 0.0729281 0.006058633 -0.017919725 -0.071086764 -0.023988679 -0.111864105
-0.028597565 -0.05146365 -0.014340248 -0.012616329 -0.014459344 -0.017805 -0.010564413 0.020835748
0.08604181 -0.019105578 0.109004594 -0.016051613 -0.016744168 -0.01463291 -0.031587355 -0.026625115
-0.015295594 -0.0002859405 -0.028149076 -0.01939237 -0.055771578 -0.07404726 0.09840337 0.00053441955
-0.015676016 -0.0010090795 -0.06757863 -0.018488888 -0.015474239 0.016870726 -0.061905455 0.13811663
0.02509305 -0.01372748 -0.012472165 -0.06456928 -0.016480237 -0.015614596 -0.058376048 -0.015671825
00000000: 60e3 6abc fe93 a2bc e9d6 aebc c56a 4cbc
00000010: 842e d0bc 9f0f 67bd 2eed 67bc 2d0b 35bc
00000020: e928 a4bc 026a 76bd 5b3a e8bc 9a1e 3bbc
00000030: 07af ad3c 53c4 9bbc 5523 8cbc 9392 88bd
00000040: f587 77bc dc76 10bd 545b 953d 7f87 c63b
00000050: 63cc 92bc f095 91bd e883 c4bc 0219 e5bd
00000060: 7145 eabc 8ccb 52bd 5cf3 6abc b8b4 4ebc
00000070: e2e6 6cbc cbdb 91bc 5c16 2dbc bbaf aa3c
00000080: b036 b03d 4d83 9cbc cd3d df3d ac7e 83bc
00000090: 112b 89bc dfbe 6fbc be61 01bd ea1c dabc
000000a0: 5f9a 7abc 49ea 95b9 e498 e6bc bfdc 9ebc
000000b0: bd70 64bd 17a6 97bd b587 c93d 4a18 0c3a
000000c0: fd6a 80bc 1743 84ba aa66 8abd 0276 97bc
000000d0: aa87 7dbc 7a34 8a3c 9390 7dbd 726e 0d3e
000000e0: f18f cd3c 39e9 60bc 0d58 4cbc e63c 84bd
000000f0: 9001 87bc 5dd4 7fbc b91b 6fbd 3362 80bc
