weights/LSTM_L16_H64_E100_s1.pt (torch, 75119 bytes, 5 tensors)

lstm.weight_ih_l0 f4 [256, 5]
0	0x3e290b9d	0.16508336
1	0x3c45d257	0.012074075
2	0xbbc46ca4	-0.0059943963
3	0x3d3f3b92	0.04668767
4	0x3d662f9a	0.05619774
5	0xbebfade7	-0.37437364
6	0xbefa07b8	-0.48834014
7	0xbeda8db4	-0.42686236
8	0xbef7a5a3	-0.48368558
9	0xbeecf5cb	-0.46281275
10	0xbeedb3a6	-0.46426123
11	0xbefb649a	-0.4910019
12	0xbeeae8d8	-0.4588077
13	0xbf0d353b	-0.5515935
14	0xbf097ad2	-0.53703034
15	0xbeb594f8	-0.35465217
16	0xbea70784	-0.3262292
17	0xbeb17efa	-0.34667188
18	0xbe7296dc	-0.23690361
19	0xbe978126	-0.2959072
20	0xbeb1ba7a	-0.34712583
21	0xbebd0915	-0.36920992
22	0xbea6bfd0	-0.32568216
23	0xbeb79dae	-0.35862488
24	0xbeb18d33	-0.3467804
25	0xbdb89533	-0.090128325
26	0xbd42eca0	-0.047588944
27	0xbdb8f924	-0.09031895
28	0xbe99ce5b	-0.3004025
29	0x3d144f3c	0.036208376
30	0x3e969d23	0.2941676
31	0x3eb76f4b	0.35827097
32	0x3e8c486e	0.2739901
33	0x3d5ec7bf	0.05438971
34	0x3e90ef8c	0.2830776
35	0x3e74043a	0.23829737
36	0x3eb7dd9a	0.35911256
37	0x3e29c4e0	0.16579008
38	0x3e4c7970	0.199682
39	0x3eb65ebc	0.35619152
40	0x3e2052db	0.15656607
41	0xbd500ff2	-0.050796457
42	0x3d49dda8	0.049283653
43	0xbd7b7003	-0.06138612
44	0x3c064404	0.008194927
45	0xba64b552	-0.00087245286
46	0xbe23ed00	-0.16008377
47	0xbdcda183	-0.100405715
48	0xbe508135	-0.20361789
49	0xbcb41a77	-0.021985276
50	0xbf1b350d	-0.60627824
51	0xbf09ee02	-0.53878796
52	0xbecd889b	-0.40143284
53	0xbefc1907	-0.49237844
54	0xbebe1abc	-0.37129772
55	0xbe83391f	-0.25629517
56	0xbed8b1e8	-0.42323232
57	0xbf0e51a3	-0.5559332
58	0xbedc6106	-0.43042773
59	0xbe26ec7d	-0.1630115
60	0xbe83f009	-0.2576907
61	0xbdf3aff8	-0.11898798
62	0xbe22c1d3	-0.1589425
63	0xbe1226c3	-0.14272599
64	0xbe4e3d1e	-0.20140502
65	0x3ec0d51d	0.37662593
66	0x3eb27a68	0.34859014
67	0x3ea00d2d	0.31260052
68	0x3e2c904e	0.16851923
69	0x3ebb7eb4	0.36620104
70	0x3df78fef	0.12088
71	0xbcac5105	-0.021034727
72	0x3c3df483	0.011593941
73	0xbda5e25d	-0.08099816
74	0x3e36f8ec	0.17868394
75	0x3d4cad38	0.04996988
76	0x3d3e8955	0.04651769
77	0x3ca53106	0.020164978
78	0xbe35e759	-0.17764033
79	0x3e0253d1	0.12727286
80	0xbd8a4dfb	-0.06753155
81	0xbdf02c01	-0.11727143
82	0xbd959870	-0.07304466
83	0xbe11dd0c	-0.14244479
84	0x3e2094f8	0.15681827
85	0xbeb9e7fc	-0.36309803
86	0xbed82d66	-0.42222136
87	0xbe8a7950	-0.2704568
88	0xbec9c8ed	-0.39411107
89	0xbe8152c5	-0.2525846
90	0x3c901e9b	0.017592719
91	0xbdfe5f14	-0.124204785
92	0xbc51f367	-0.012814379
93	0xbc7f2a87	-0.015574104
94	0xbdd3c986	-0.10341172
95	0x3ea05d06	0.3132097
96	0x3e9c82aa	0.3056844
97	0x3e378210	0.17920709
98	0x3d03b467	0.032154467
99	0x3f5f8883	0.87317675
100	0xbe2a0a96	-0.166056
101	0xbe954650	-0.29155207
102	0xbe3351de	-0.17511699
103	0xbe34590f	-0.17612098
104	0xbeb8b847	-0.36078092
105	0xbe286a46	-0.1644679
106	0x3d48fcf0	0.049069345
107	0xbdceb799	-0.10093612
108	0xbd1fe62e	-0.039037876
109	0x3ccb5535	0.024820903
110	0x3e841833	0.25799713
111	0x3e85796d	0.26069203
112	0x3e6bf255	0.23041661
113	0xbc042f33	-0.008067894
114	0x3ead388c	0.33832204
115	0x3ce36800	0.027759552
116	0xbb115e2c	-0.0022181375
117	0xbd54c061	-0.05194128
118	0xbe7996ec	-0.24373978
119	0xbdcbce43	-0.09951451
120	0xbe19557b	-0.14974014
121	0xbdaa101f	-0.08303856
122	0xbc909a47	-0.01765169
123	0xbe81f0c1	-0.25378993
124	0x3d1dfed3	0.038573097
125	0x3e23b791	0.15987994
126	0x3d965b2c	0.073416084
127	0x3db8452e	0.0899757
128	0x3e19c98c	0.1501829
129	0x3ee37ea7	0.44432566
130	0xbec9edde	-0.3943929
131	0xbea01e16	-0.31272954
132	0xbe8d5687	-0.27605078
133	0xbea5543b	-0.32290825
134	0xbdd15234	-0.10220757
135	0x3ea842da	0.32863504
136	0x3e93a3b5	0.28835836
137	0x3e47c5a6	0.1950899
138	0x3d33249f	0.043736096
139	0x3e3f2a10	0.1866839
140	0xbcd5174f	-0.026012091
141	0xbc79c662	-0.015245052
142	0xbe00f845	-0.12594707
143	0xbd008471	-0.031376306
144	0x3e096e5d	0.13421007
145	0x3e4f8121	0.20264103
146	0x3e686745	0.22695644
147	0x3e11a9d9	0.14224948
148	0x3e05876e	0.13039944
149	0x3ef6ce74	0.48204386
150	0xbe9cc04d	-0.30615464
151	0xbe263e28	-0.16234648
152	0xbeaf9120	-0.3429041
153	0xbeb4d605	-0.35319534
154	0xbeb42bc0	-0.3518963
155	0x3efeee84	0.49791348
156	0x3f02c75b	0.5108544
157	0x3f02a9f1	0.5104056
158	0x3f2131e5	0.6296676
159	0x3f201489	0.62531334
160	0xbd7d993f	-0.061913725
161	0x3d5b427e	0.05353021
162	0x3c9fe917	0.019520326
163	0x3d4a20a0	0.04934752
164	0xbbf415b5	-0.0074488767
165	0xbe83c015	-0.25732484
166	0xbea2f291	-0.31825688
167	0xbe9a1366	-0.30092925
168	0xbebb5d1a	-0.36594468
169	0xbecf98e6	-0.4054634
170	0x3d1a08a7	0.037605908
171	0x3dec221d	0.11529944
172	0x3d1936fe	0.03740596
173	0x3c95ab3e	0.018270131
174	0x3e9891b5	0.29798666
175	0x3d2d226b	0.04226915
176	0xbcacaf5a	-0.021079708
177	0xbe10ae59	-0.14129008
178	0xbe84393f	-0.25824925
179	0x3d787f07	0.060668018
180	0xbeb7a6b2	-0.35869366
181	0xbe9fa8e3	-0.31183538
182	0xbebfc390	-0.3745389
183	0xbe8976c4	-0.26848423
184	0xbee2802c	-0.44238412
185	0xbb7c1aeb	-0.0038468193
186	0xbe77c34e	-0.24195597
187	0xbe8561e7	-0.26051256
188	0xbe4123e4	-0.18861347
189	0xbe2a1d21	-0.16612674
190	0xbe96c4f5	-0.2944714
191	0xbebc02b2	-0.36720806
192	0xbeb5d843	-0.35516557
193	0xbe8b8827	-0.27252313
194	0xbe74bdaf	-0.23900484
195	0xbeac9762	-0.33709246
196	0xbe49ca7f	-0.19706152
197	0xbe4cb250	-0.19989896
198	0xbe260586	-0.16213045
199	0xbe9f7a91	-0.31148198
200	0x3d4bd27b	0.049761277
201	0xbde62ceb	-0.11239036
202	0x3d0c0c1f	0.034191247
203	0xbe1dabfb	-0.15397637
204	0x3e3caf59	0.18426265
205	0xbe28a54d	-0.16469307
206	0xbe4aafd7	-0.1979364
207	0xbe62e05d	-0.221559
208	0xbe5e589f	-0.21713494
209	0xbd92e9d1	-0.07173503
210	0xbd92e973	-0.07173433
211	0xbd4086c9	-0.04700354
212	0xbe3403b5	-0.17579539
213	0x3d295457	0.0413402
214	0x3cf6feec	0.030150853
215	0xbe1c731a	-0.15278283
216	0xbe37c904	-0.17947775
217	0xbec76375	-0.38943067
218	0xbeb81ec8	-0.35960984
219	0xbde0ed46	-0.10982756
220	0xbefc5c51	-0.49289182
221	0xbe9b6efe	-0.30358118
222	0xbf0b29de	-0.5436076
223	0xbf0ba323	-0.545458
224	0xbe9de61a	-0.30839616
225	0xbcbde9e4	-0.023182817
226	0x3dad4121	0.08459688
227	0x3e1b4839	0.1516427
228	0x3e159253	0.146066
229	0x3eb84f5f	0.35998055
230	0xbe8f052d	-0.27933636
231	0xbe9912a6	-0.2989704
232	0xbd8ed615	-0.06974427
233	0xbe522062	-0.20520166
234	0xbe9e13a3	-0.30874357
235	0xba13cc79	-0.0005638074
236	0xbe084675	-0.13308127
237	0x3ba31b11	0.004977592
238	0xbc4c7564	-0.01247916
239	0xbdb18ee5	-0.08669833
240	0xbea967fa	-0.3308714
241	0xbe809cbb	-0.25119576
242	0xbe5dbf8b	-0.21655099
243	0xbe92a03e	-0.2863788
244	0xbe66e854	-0.22549564
245	0x3d6d6864	0.057960883
246	0xbd822886	-0.063553855
247	0xbd58ea9d	-0.05295812
248	0xbd58e6e0	-0.052954555
249	0x3e3bc7ef	0.18337987
250	0xbe5e12a2	-0.21686795
251	0xbec04d1e	-0.37558836
252	0xbea77ab6	-0.3271081
253	0xbe8a5717	-0.2701957
254	0xbe9c90ca	-0.30579215
255	0xbec07c14	-0.37594664

lstm.weight_hh_l0 f4 [256, 64]
0	0xbd87b250	-0.06625807
1	0x3cda58d5	0.026653687
2	0x3cd11c65	0.025526235
3	0x3c7ec08a	0.015548835
4	0x3da35cac	0.0797666
5	0x3d1e5baa	0.038661636
6	0x3daa09a0	0.08302617
7	0x3ddbf580	0.10740185
8	0x3cad855d	0.021181757
9	0x3dad8cb5	0.08474103
10	0x3db92a73	0.090413
11	0x3daec8b4	0.08534375
12	0x3daca577	0.084299974
13	0x3e287969	0.16452564
14	0x3dc1c379	0.094611116
15	0x3dd359f5	0.10319892
16	0xbe503e2e	-0.2033622
17	0xbe0cba0b	-0.13742845
18	0x3d40a7dd	0.047035087
19	0xbde0ddee	-0.1097983
20	0xbd8d7966	-0.069079205
21	0x3c6c68dd	0.014429298
22	0x3c77e634	0.015130568
23	0xbb5fbbc5	-0.003413902
24	0x3dc0dc58	0.09417027
25	0xbd975e9a	-0.07391091
26	0xbc1f41a7	-0.009720243
27	0x3e0005fc	0.12502283
28	0x3c47d839	0.012197548
29	0x3d952b72	0.07283677
30	0x3d96403a	0.07336469
31	0xbe693969	-0.22775806
32	0x3da8e7a4	0.08247307
33	0x3e2e4421	0.17018177
34	0xbcf45c94	-0.029829301
35	0xbcb6b7fd	-0.02230453
36	0x3bc94d7b	0.0061432696
37	0x3e109c0d	0.14122029
38	0xbac57883	-0.0015065823
39	0xbe1e909b	-0.1548485
40	0xbca4eaab	-0.02013143
41	0x3d5c605e	0.05380284
42	0xbce5a4d7	-0.028032703
43	0x3dd10eb3	0.10207882
44	0xbc533b05	-0.012892489
45	0x3dda38bf	0.10655355
46	0xbe362260	-0.1778655
47	0xbe072f57	-0.13201652
48	0xbc5df73d	-0.013547716
49	0xbd51185c	-0.05104862
50	0xbcc6d261	-0.024270238
51	0x3d061ff1	0.032745305
52	0xbdf0c311	-0.11755956
53	0x3daa3bd5	0.08312193
54	0xbdf2b31a	-0.11850567
55	0x3e16fec6	0.14745626
56	0x3d80502c	0.062652916
57	0xbc56d9dd	-0.013113466
58	0x3d0054a4	0.03133072
59	0xbc681b58	-0.0141666755
60	0xbe33b214	-0.175484
61	0x3e40a92f	0.18814538
62	0xbcd705f8	-0.026247963
63	0x3d550042	0.0520022
64	0xbe9875b8	-0.29777312
65	0xbd787ba9	-0.060664807
66	0xbd87a80f	-0.066238515
67	0xbc0e8d21	-0.00870064
68	0x3d0180fb	0.031617146
69	0x3daaee60	0.08346248
70	0x3e148a31	0.14505841
71	0x3f03809b	0.5136811
72	0xbda3e21c	-0.08002111
73	0x3de22530	0.11042249
74	0x3dc1db5a	0.09465666
75	0x3d29f185	0.041490097
76	0xbdcc2eca	-0.09969862
77	0x3f39fc78	0.7265086
78	0x3e925ca3	0.285863
79	0x3d031ba2	0.032008775
80	0xbe01943b	-0.12654202
81	0x3db2b309	0.087255545
82	0xbe04f5e4	-0.12984425
83	0xbeff2bd4	-0.49838126
84	0x3de70522	0.11280276
85	0xbce6b5c5	-0.028162846
86	0xbc95e1ac	-0.018296085
87	0xbcb1625b	-0.021653345
88	0x3e3488c8	0.17630303
89	0xbeaa2bf5	-0.33236662
90	0xbcc62a53	-0.024190104
91	0x3d95fd6b	0.07323726
92	0x3c9a9c46	0.018873345
93	0x3e327b2e	0.17429802
94	0x3e606545	0.21913631
95	0xbed0d12b	-0.40784582
96	0x3d7348fd	0.05939578
97	0x3d43b00d	0.047775317
98	0xbe3a3218	-0.18183172
99	0x3cf95cf1	0.030439826
100	0x3de33eeb	0.11095985
101	0x3c11b0a8	0.008892216
102	0x3caab614	0.020838775
103	0x3d39a1cb	0.045320313
104	0x3e5a8635	0.21340258
105	0xbd853d66	-0.065058514
106	0xbe872675	-0.26396528
107	0x3dc35647	0.095379405
108	0x3df72e62	0.12069394
109	0x3e04ae4a	0.12957111
110	0xbddc4cad	-0.10756812
111	0xbcc28688	-0.02374579
112	0xbd4b7676	-0.04967352
113	0x3e016c92	0.12639073
114	0xbdcc4886	-0.0997477
115	0x3d8177ad	0.063216545
116	0xbdb277e5	-0.08714274
117	0xbd7f1da4	-0.062284127
118	0xbdf7fe4e	-0.12109052
119	0x3de2166b	0.11039432
120	0x3e08ce9d	0.13360067
121	0xbd34ebfc	-0.044170365
122	0xbd00cbef	-0.031444486
123	0xbd712043	-0.058868658
124	0xbef4aab9	-0.477865
125	0xbdabc1d9	-0.08386583
126	0x3e7de733	0.24795227
127	0x3c7ad9a4	0.015310679
128	0xbea38683	-0.31938562
129	0x3da14f96	0.07876508
130	0x3d4fe876	0.0507588
131	0x3d9a2000	0.07525635
132	0xbdd3f7ac	-0.10349974
133	0xbd6e77e6	-0.058219813
134	0x3c8fde90	0.01756218
135	0x3ec5ff6a	0.38671428
136	0xbcb4b095	-0.022056857
137	0x3e374f63	0.17901377
138	0x3d8c5974	0.06852999
139	0xbda2b985	-0.07945541
140	0x3d899e4f	0.06719648
141	0x3f013e6b	0.5048587
142	0x3e8ad45f	0.2711515
143	0x3d877810	0.06614697
144	0xbdf11dbf	-0.11773252
145	0x3d723aa5	0.05913796
146	0xbd971dee	-0.073787555
147	0xbea58bad	-0.32333127
148	0x3cfc62b2	0.03080878
149	0x3db461ac	0.08807692
150	0xbdcff67c	-0.10154435
151	0xbe1d3397	-0.15351711
152	0x3e0aa49a	0.13539353
153	0xbe69cea3	-0.22832732
154	0x3e27361c	0.16329235
155	0x3dcb5741	0.09928752
156	0x3e61f2db	0.22065298
157	0x3e392f19	0.18084373
158	0x3e03a376	0.12855324
159	0xbeee702c	-0.46569955
160	0x3ccd64c8	0.02507247
161	0x3d054a11	0.03254134
162	0xbddc7a23	-0.10765483
163	0xbe26c372	-0.16285494
164	0xbde051ea	-0.10953124
165	0x3dac6a21	0.0841868
166	0xbcbf2c89	-0.023336666
167	0x3d07df43	0.033171903
168	0x3e022ad7	0.12711655
169	0xbc30bf75	-0.010787834
170	0xbe826d17	-0.25473854
171	0x3dbdd16e	0.09268461
172	0x3d7baf10	0.06144625
173	0x3e691559	0.2276205
174	0xbd7dd374	-0.061969236
175	0x3d77698c	0.06040339
176	0x3d11ec96	0.035626017
177	0xbde01c86	-0.109429404
178	0xbcbebafe	-0.023282524
179	0xbdd6cd9a	-0.10488434
180	0x3d6976ed	0.056998182
181	0xbc0a8c47	-0.008456296
182	0xbcc6d526	-0.024271559
183	0x3e36f7b7	0.17867933
184	0x3dd1693d	0.10225151
185	0xbda2839b	-0.07935258
186	0x3b116a02	0.002218843
187	0x3cdee30b	0.027207872
188	0xbeac1e99	-0.33617094
189	0xbdb0aa40	-0.086262226
190	0x3d82b3d7	0.06381958
191	0x3d48b7ed	0.04900353
192	0xbdc64b7e	-0.09682368
193	0xbd268ca0	-0.040661454
194	0x3d9b718b	0.07590016
195	0xbde56283	-0.1120043
196	0x3c9fc152	0.019501362
197	0xbce7717e	-0.02825236
198	0xbd7b91d9	-0.061418388
199	0x3e9076ec	0.2821573
200	0xbda8a8f1	-0.08235348
201	0x3e594e66	0.21221313
202	0x3d5e4489	0.05426458
203	0xbdd95f62	-0.10613896
204	0x3ba7c80d	0.0051202835
205	0x3e932c56	0.28744763
206	0x3e0f4a1c	0.13993114
207	0xbd902973	-0.07039156
208	0xbe480d1b	-0.1953625
209	0x3cba75b4	0.022761203
210	0x3c8ea891	0.017414363
211	0xbecb1f5b	-0.3967236
212	0xbd4f9a14	-0.05068405
213	0x3d488bf5	0.0489616
214	0xbd1cc656	-0.038275085
215	0xbdcfbde6	-0.10143642
216	0x3d07b51d	0.033131707
217	0xbeade9e5	-0.3396751
218	0x3d2acca4	0.041699067
219	0x3ce263ee	0.02763554
220	0x3d97e98c	0.074175924
221	0x3d89182d	0.06694064
222	0x3b54358c	0.003238055
223	0xbe968d9e	-0.2940492
224	0x3c620f0a	0.013797531
225	0x3d364183	0.04449607
226	0xbe58fdd9	-0.21190585
227	0x3d6d1794	0.057883814
228	0x3dcac17c	0.099001855
229	0x3d8367eb	0.06416305
230	0xbc5eb4ee	-0.013592942
231	0x3a873e10	0.0010318179
232	0x3dfcca71	0.123433
233	0x3e070d61	0.13188697
234	0xbd8c2b4c	-0.06844196
235	0x3c068742	0.008210959
236	0x3dc2953b	0.0950112
237	0x3e828e7b	0.2549933
238	0xbd5a9062	-0.05336035
239	0x3b7c0c86	0.0038459613
240	0xbbc8b3cc	-0.006124949
241	0xbcad850e	-0.02118161
242	0xbdd7194a	-0.105028704
243	0xbbaf9d04	-0.005359294
244	0xbd169677	-0.03676459
245	0x3de77fc0	0.11303663
246	0xbda39909	-0.079881735
247	0x3e4165fd	0.18886562
248	0x3e459198	0.19293821
249	0xbda868d5	-0.0822312
250	0x3d465493	0.0484205
251	0x3bcc27be	0.0062303236
252	0xbe6551c1	-0.22394468
253	0xbd85cb4f	-0.06532919
254	0x3df19955	0.11796824
255	0x3dc49a75	0.09599773

lstm.bias_ih_l0 f4 [256]
0	0xbd8fade8	-0.07015592
1	0xbeb2b907	-0.3490679
2	0xbf0e0f87	-0.5549244
3	0xbedaf88b	-0.42767748
4	0xbe879039	-0.2647722
5	0xbe83f036	-0.25769204
6	0x3e8d745e	0.27627844
7	0x3eaf89c1	0.34284785
8	0x3e2a468f	0.16628478
9	0x3bafb6c1	0.005362362
10	0xbf09f4ea	-0.53889334
11	0xbe638c2f	-0.22221445
12	0xbe818c67	-0.2530243
13	0x3f064094	0.5244229
14	0x3d60f95f	0.05492532
15	0x3db6d5ec	0.08927521
16	0x3df127f1	0.11775196
17	0x3e15ac4a	0.14616504
18	0x3e26cab4	0.16288263
19	0x3eb9e32b	0.36306128
20	0xbeadfa5c	-0.33980072
21	0xbdfec652	-0.1244017
22	0x3cb634a5	0.0222419
23	0xbe877810	-0.26458788
24	0xbe158073	-0.1459978
25	0x3d89c6cd	0.06727371
26	0xbedef7b3	-0.43548355
27	0x3e637ab1	0.22214772
28	0xbdd69a95	-0.10478703
29	0x3e3ea626	0.18618068
30	0xbe4dafab	-0.20086543
31	0x3f254435	0.645572
32	0x3d8a5ffb	0.06756588
33	0xbd96e9e3	-0.07368829
34	0xbda17eff	-0.07885551
35	0xbe66a22e	-0.22522804
36	0xbea12c6e	-0.3147921
37	0xbd87c842	-0.06629993
38	0xbeaaceb2	-0.3336082
39	0xbe4c0bc9	-0.1992637
40	0xbe3b66ce	-0.18300936
41	0xbe46bdf7	-0.19408403
42	0xbd0976a3	-0.033560406
43	0xbef289d1	-0.4737077
44	0xbf23bdcf	-0.639615
45	0xbdea19c2	-0.11430694
46	0xbdb2826a	-0.08716281
47	0xbcf31e62	-0.029677574
48	0xbeb474ea	-0.35245448
49	0x3d97a69e	0.074048266
50	0xbe6a54b8	-0.2288388
51	0xbeac83d2	-0.3369432
52	0xbe905c31	-0.28195336
53	0xbe18c074	-0.14917165
54	0xbe4f0d96	-0.20220026
55	0xbe2b2a41	-0.16715337
56	0xbd996b2f	-0.07491147
57	0xbd68fcd8	-0.056881756
58	0x3d95ecb4	0.07320538
59	0xbe175ed5	-0.1478227
60	0x3f005554	0.501302
61	0xbe88ef96	-0.2674529
62	0x3d5703ab	0.052493732
63	0xbea42b3b	-0.32064232
64	0xbde289ba	-0.110614255
65	0xbee933e1	-0.45547393
66	0xbf072ac6	-0.5279964
67	0xbe80549b	-0.2506455
68	0xbf0fe0c6	-0.5620235
69	0xbdc3aacf	-0.095540635
70	0xbe3e6f86	-0.1859723
71	0xbd858b6e	-0.06520735
72	0xbd552dba	-0.05204556
73	0xbca5e5eb	-0.020251235
74	0xbed19ec3	-0.40941438
75	0xbe1e6195	-0.15466912
76	0xbdf3ba22	-0.119007364
77	0x3d861fd9	0.06549043
78	0xbe3f2354	-0.1866582
79	0xbe920476	-0.28519028
80	0xbdc728ad	-0.09724555
81	0xbe8f3972	-0.27973515
82	0x3e7df15f	0.24799107
83	0xbdbe31eb	-0.09286865
84	0xbddd3465	-0.10801009
85	0xbe634dab	-0.22197597
86	0xbd90b453	-0.07065644
87	0xbccbfb6c	-0.02490016
88	0xbd9ad381	-0.075598724
89	0xbdcb0e5d	-0.09914849
90	0xbeb1b2dd	-0.34706774
91	0x3c8a8129	0.016907291
92	0xbd3d7d0e	-0.04626184
93	0xbe2b7dd1	-0.16747214
94	0xbe6f715c	-0.23383087
95	0xbcffc235	-0.031220535
96	0x3d5e30ca	0.054245748
97	0xbed5b662	-0.4174071
98	0xbe5ee5ca	-0.21767345
99	0xbddb9fef	-0.10723864
100	0xbe76b148	-0.24091065
101	0xbd90398e	-0.07042228
102	0xbeac7d20	-0.33689213
103	0xbdcfb38c	-0.10141668
104	0xbe2a2346	-0.16615018
105	0xbddb12d5	-0.10696951
106	0x3d2bd44a	0.0419505
107	0xbebd1ed4	-0.36937582
108	0xbeb5689d	-0.35431376
109	0xbd691d1c	-0.056912526
110	0xbe7e2657	-0.24819313
111	0xbde4c711	-0.111707814
112	0xbe96e8eb	-0.29474577
113	0xbdd8193c	-0.10551688
114	0xbe3a7511	-0.1820872
115	0xbdefc1ae	-0.11706863
116	0xbe32a93f	-0.17447375
117	0xbea4c11c	-0.3217858
118	0xbd5ad886	-0.05342915
119	0xbe9b2e01	-0.30308536
120	0xbd6f4611	-0.05841643
121	0xbe569eb7	-0.20958982
122	0xbea6acf0	-0.32553816
123	0xbd10b6b6	-0.035330497
124	0xbe2c96f8	-0.16854465
125	0xbf000df9	-0.5002132
126	0xbdac9a03	-0.08427813
127	0xbeb0ddc9	-0.3454421
128	0x3d30d42d	0.043171097
129	0x3cbf0687	0.023318542
130	0xbd05b799	-0.032645795
131	0xbacffcb2	-0.0015868156
132	0xbd2a008b	-0.041504424
133	0x3cf4be8a	0.029876012
134	0xbd0ab405	-0.033863086
135	0x3d84a233	0.064762495
136	0x3d6cb5f3	0.057790708
137	0x3d16f160	0.036851287
138	0xbdd37c6b	-0.10326465
139	0xbd029330	-0.03187865
140	0xbd3316e8	-0.043723017
141	0xbddeb2bb	-0.10873934
142	0xbb1e59b9	-0.0024162366
143	0x3da9b02b	0.082855545
144	0x3d6c1232	0.05763454
145	0xbd891355	-0.066931404
146	0xbdabaa03	-0.083820365
147	0x3c896187	0.016770137
148	0x3d5f5f93	0.054534506
149	0xbd723316	-0.05913075
150	0xbca053aa	-0.019571144
151	0xbd22cf5d	-0.03974854
152	0x3d1e9f87	0.038726356
153	0xbe0ce2ea	-0.13758436
154	0x3d426570	0.04746002
155	0x3d2bdf9c	0.041961297
156	0x3d693982	0.05693961
157	0x3dc38eb1	0.095487006
158	0x3c406a31	0.011744068
159	0xbdf5903e	-0.11990403
160	0x3d0d85b1	0.034551326
161	0x3d1cbe4c	0.03826742
162	0x3ce7d166	0.028298091
163	0xbd2715a2	-0.040792115
164	0x3d0dab92	0.03458745
165	0x3be954b4	0.007120693
166	0x3bf5d600	0.0075023174
167	0x3c304bf3	0.010760295
168	0x3c19af64	0.009380195
169	0xbdb89cd4	-0.090142876
170	0x3d1bc712	0.038031645
171	0x3df52a47	0.119709544
172	0x3d3eb456	0.0465587
173	0x3d076b05	0.033061046
174	0xbd44ba03	-0.048028957
175	0xbd8df772	-0.06931962
176	0x3b99681f	0.0046816017
177	0xbceeef10	-0.029166728
178	0xbca35711	-0.019938977
179	0xbcaea761	-0.021320047
180	0xbd380f5a	-0.044936515
181	0x3d909ec8	0.07061535
182	0x3c65d778	0.014028423
183	0xbd49de96	-0.04928454
184	0x3cd9b2f8	0.026574597
185	0xbda87923	-0.0822623
186	0x3ddb7e18	0.1071741
187	0xbd1f9b5a	-0.038966514
188	0xbd206ed1	-0.039168183
189	0x3d0b755c	0.03404747
190	0x3bbed0f3	0.0058232485
191	0xbd2c25a7	-0.042028096
192	0xbd687d46	-0.056760095
193	0xbea15692	-0.3151136
194	0xbf1e9fd7	-0.61962646
195	0xbeb3ef57	-0.3514354
196	0xbdd794ad	-0.105264045
197	0xbd68fb82	-0.05688048
198	0x3ebbab20	0.36653996
199	0x3e2d9207	0.16950236
200	0xbcec7283	-0.028863197
201	0x3d4d9b93	0.050197195
202	0xbf183732	-0.5945922
203	0xbe91405a	-0.2836941
204	0xbe1ad6a2	-0.15120938
205	0x3f1eefe1	0.62084776
206	0xbd80b141	-0.062838085
207	0x3cbf9559	0.023386644
208	0x3dc1bf25	0.09460286
209	0x3e6a4d2a	0.22880998
210	0xbd6c168c	-0.05763869
211	0xbe524c33	-0.2053688
212	0xbea0bef3	-0.31395683
213	0xbe04ad0e	-0.1295664
214	0x3c3716d0	0.0111748725
215	0xbe27a883	-0.16372876
216	0xbe0e5e6b	-0.13903205
217	0x3c9838dc	0.0185818
218	0xbefafc5d	-0.49020663
219	0x3e9a66de	0.30156606
220	0xbccf7f74	-0.02532933
221	0x3d905be5	0.070487775
222	0xbe86f6a5	-0.2636005
223	0x3f0c18d2	0.5472537
224	0x3dc58b71	0.09645737
225	0x3cdb9757	0.026805563
226	0xbe3e5cbe	-0.18590066
227	0xbe8c0775	-0.2734944
228	0xbec6ceab	-0.3882955
229	0xbe7f492d	-0.24930258
230	0xbebd109c	-0.36926734
231	0xbe9b3232	-0.30311733
232	0xbe68509a	-0.22686997
233	0xbe780db9	-0.24223985
234	0xbe04fb03	-0.12986378
235	0xbed23537	-0.41056225
236	0xbedc5582	-0.43033987
237	0xbdc1f6bf	-0.09470891
238	0xbe4b8b68	-0.19877398
239	0xbe294c9d	-0.16533132
240	0xbe1819fb	-0.14853661
241	0x3dfaf0cc	0.122529596
242	0xbea901a4	-0.33009064
243	0xbe9313ed	-0.2872614
244	0xbe86a2d0	-0.2629609
245	0xbdf23328	-0.118261635
246	0xbe4f6664	-0.20253903
247	0xbe9bd354	-0.30434668
248	0xbe00b81a	-0.12570229
249	0xbe2e4c46	-0.17021284
250	0x3e07d3bf	0.13264368
251	0xbca9848f	-0.020693092
252	0x3ee49c8e	0.44650692
253	0xbe4450ed	-0.19171496
254	0xbcdd1075	-0.026985386
255	0xbe09c6ba	-0.13454714

lstm.bias_hh_l0 f4 [256]
0	0xbb581f22	-0.003297754
1	0xbec35918	-0.3815391
2	0xbf0041f2	-0.50100625
3	0xbec6ab08	-0.3880236
4	0xbe7ad4f2	-0.24495295
5	0xbdb16d4a	-0.08663423
6	0x3e9ee0f1	0.31030992
7	0x3e88622c	0.266374
8	0x3e16d2f2	0.14728907
9	0xbdcbf1d6	-0.09958236
10	0xbf2811b9	-0.6565204
11	0xbe7e9a4b	-0.24863546
12	0xbe3428c0	-0.1759367
13	0x3f14bcf7	0.5810084
14	0xbd346c60	-0.044048667
15	0x3b4669b4	0.0030275406
16	0x3dabcd8a	0.08388813
17	0x3dd869ad	0.10567031
18	0x3d6c9778	0.05776164
19	0x3ee88508	0.45413995
20	0xbe499f3e	-0.19689652
21	0xbe7f95ed	-0.24959536
22	0x3cdf736a	0.027276713
23	0xbe0be38b	-0.1366102
24	0xbe063e8a	-0.13109794
25	0x3d9e0b99	0.07717056
26	0xbef7a868	-0.4837067
27	0x3e2efc29	0.17088379
28	0xbdf0f1d3	-0.11764874
29	0x3dde20a2	0.10846068
30	0xbe633b12	-0.22190502
31	0x3f09dbc0	0.53850937
32	0x3ddf97bc	0.10917613
33	0x3dbae829	0.09126312
34	0xbd5ba7b8	-0.053626746
35	0xbe462c24	-0.19352776
36	0xbe89413c	-0.26807582
37	0xbe90f06a	-0.2830842
38	0xbeab4f38	-0.33458877
39	0xbe23cd76	-0.15996346
40	0xbcff5ff9	-0.031173693
41	0xbde29d35	-0.11065141
42	0x3d07dc4a	0.03316907
43	0xbef0dc2d	-0.4704298
44	0xbf1667eb	-0.58752316
45	0xbd76ad6f	-0.060223993
46	0xbd9c4d24	-0.07631901
47	0x3cadf2db	0.021233967
48	0xbebe9bca	-0.37228233
49	0x3d86e6a7	0.06586962
50	0xbe6ee7f3	-0.23330669
51	0xbe60dab2	-0.21958426
52	0xbe970dab	-0.29502615
53	0xbe0a110a	-0.13483062
54	0xbd173767	-0.03691807
55	0xbe28f55e	-0.1649985
56	0xbd77e3ba	-0.06051991
57	0xbe26669a	-0.16250077
58	0x3d47e4be	0.04880213
59	0xbdd8812a	-0.10571511
60	0x3ec18bfd	0.37802115
61	0xbdb5f3f0	-0.08884418
62	0xbce879eb	-0.028378448
63	0xbea17dc1	-0.31541255
64	0xbc30288c	-0.010751855
65	0xbed0166e	-0.40642112
66	0xbf0e020c	-0.55471873
67	0xbe8b07fb	-0.27154526
68	0xbf07285e	-0.5279597
69	0xbe41fc1e	-0.18943831
70	0xbe65260a	-0.22377792
71	0xbe13f0ab	-0.14447276
72	0xbe46409f	-0.19360588
73	0x3c8af545	0.016962657
74	0xbef9050e	-0.4863667
75	0xbc951bf7	-0.018201811
76	0xbe34ff7c	-0.17675585
77	0xbd13bf54	-0.036071137
78	0xbdbc90c3	-0.092072986
79	0xbe79566c	-0.24349374
80	0x3d19bf75	0.037536103
81	0xbdffe0ce	-0.1249405
82	0x3e350b25	0.17680033
83	0xbe0cf29f	-0.13764428
84	0xbe284e7f	-0.16436194
85	0xbdc6a909	-0.0970021
86	0xbe420c2c	-0.18949956
87	0xbe5be456	-0.21473822
88	0xbce09907	-0.02741672
89	0xbe6ea767	-0.23306046
90	0xbef91504	-0.48648846
91	0x3d86828e	0.0656787
92	0xbda4cbb6	-0.08046667
93	0xbe06b62a	-0.13155428
94	0xbe83bf50	-0.25731897
95	0xbc87d2a1	-0.016579928
96	0xbda95f59	-0.08270139
97	0xbed94539	-0.42435625
98	0xbd4f6e51	-0.050642315
99	0x3cf87579	0.030329453
100	0xbeaec51e	-0.34134763
101	0xbe1d9cf1	-0.153919
102	0xbe73e703	-0.23818593
103	0xbd5b9d1a	-0.05361662
104	0xbe1100f9	-0.14160527
105	0xbe2f67c4	-0.17129427
106	0x3da8aaeb	0.08235725
107	0xbec096df	-0.37615106
108	0xbec91c74	-0.3927952
109	0xbdf7123f	-0.12064027
110	0xbe3f650d	-0.18690892
111	0xbe001932	-0.12509611
112	0xbeb05d23	-0.34446058
113	0xbe95e614	-0.29277098
114	0xbec358e1	-0.38153747
115	0xbe5a8de5	-0.21343191
116	0xbe9af20f	-0.302628
117	0xbec2bcd7	-0.38034698
118	0xbe0d0799	-0.1377243
119	0xbed9d348	-0.42544007
120	0xbdf0c454	-0.117561966
121	0xbeb49894	-0.35272658
122	0xbe3629c0	-0.17789364
123	0xbb6f32dc	-0.003649882
124	0xbe0ad59e	-0.13558051
125	0xbf15414b	-0.58302754
126	0xbe5cc743	-0.21560387
127	0xbe95e2b6	-0.2927453
128	0xbde8012c	-0.113283485
129	0x3bb05cbc	0.0053821485
130	0x3df0b558	0.117533386
131	0x3ca39f13	0.019973313
132	0x3dfde11c	0.12396452
133	0xbc64fe64	-0.013976667
134	0x3e3dfe96	0.18554148
135	0xbcdd7905	-0.027035246
136	0xbdc22ae2	-0.094808355
137	0xbd150c5f	-0.03638875
138	0x3e0f2926	0.1398054
139	0x3cb852ca	0.022500414
140	0x3d8d3c86	0.068963096
141	0x3dc82831	0.09773291
142	0xbc807d52	-0.015684757
143	0xbd3bee62	-0.045881636
144	0xbd88f8e6	-0.066880986
145	0xbc502466	-0.012703991
146	0x3cded321	0.027200283
147	0x3dec15fa	0.11527629
148	0xba8af734	-0.0010602237
149	0x3b62a22e	0.003458153
150	0xbdf010e6	-0.11721973
151	0x3c0fb59c	0.008771326
152	0xbcac6488	-0.02104403
153	0x3d814a5e	0.063130125
154	0xbd2315c7	-0.03981569
155	0x3dd1f101	0.10251046
156	0x3ae128f8	0.0017178347
157	0x3dbc1dc9	0.091853686
158	0xbc424bdd	-0.0118589075
159	0xbd2f8c24	-0.042858258
160	0x3c07c378	0.0082863495
161	0x3ced333d	0.028955096
162	0xbd979643	-0.07401707
163	0xbcd3eeaf	-0.02587065
164	0xbddd010f	-0.107912175
165	0x3d9b42ce	0.07581101
166	0xbd2aa51f	-0.041661378
167	0x3ba71804	0.0050992984
168	0xbd1a5963	-0.037682902
169	0x3dd7fd6f	0.105463855
170	0xbd721566	-0.05910244
171	0xbd857065	-0.06515578
172	0xbd1fa32a	-0.038973965
173	0x3e2e3362	0.17011788
174	0xbcfe596e	-0.031048503
175	0x3e1c0ecb	0.15240018
176	0xbcc50f8b	-0.024055263
177	0xbd21e08a	-0.039520778
178	0xbd683232	-0.056688495
179	0xbcb07165	-0.021538446
180	0x3dbb20e2	0.09137131
181	0x3caf5dc0	0.021407008
182	0xbd46a46c	-0.04849665
183	0x3cd229e7	0.025654746
184	0x3dda7cfb	0.106683694
185	0x3d402816	0.04691323
186	0xbda9c08b	-0.08288678
187	0xbd6350b9	-0.055496905
188	0xbde2d06a	-0.11074908
189	0x3d1408c5	0.036141176
190	0xbb92761b	-0.0044696457
191	0x3c9c512a	0.01908167
192	0xbdfbd654	-0.12296739
193	0xbf06d72d	-0.5267208
194	0xbefb259b	-0.49052128
195	0xbf0832c8	-0.53202486
196	0xbe6cd8a6	-0.2312952
197	0xbe108ff1	-0.1411741
198	0x3ed13499	0.4086044
199	0x3daaae12	0.083339825
200	0x3db155ed	0.08658967
201	0x3d2aa695	0.04166277
202	0xbf260969	-0.6485811
203	0xbeb237f8	-0.34808326
204	0xbdf89ffb	-0.12139889
205	0x3f1fbcce	0.6239747
206	0xbdde9b2d	-0.10869441
207	0x3d03eb45	0.032206792
208	0xbdcd9525	-0.10038213
209	0x3d815b43	0.06316235
210	0x3e010795	0.12600549
211	0xbdccefbe	-0.10006665
212	0xbe891c8e	-0.26779598
213	0xbd60fcd9	-0.054928634
214	0x3b1a4d7e	0.0023544724
215	0xbd2fa494	-0.042881563
216	0xbdb987b6	-0.09059088
217	0x3e52abc0	0.2057333
218	0xbeda7f94	-0.4267546
219	0x3e88cb2d	0.2671751
220	0xbe253c85	-0.16136368
221	0x3df801bc	0.12109706
222	0xbea78dda	-0.32725412
223	0x3f1a3af1	0.6024619
224	0x3dbc9ebd	0.092099644
225	0xbc9a8f23	-0.018867081
226	0xbe16f805	-0.1474305
227	0xbe427a73	-0.18992023
228	0xbeabdf49	-0.3356879
229	0xbdf61442	-0.120155826
230	0xbebb35a5	-0.36564365
231	0xbe512b53	-0.20426683
232	0xbe563485	-0.20918472
233	0xbda34be0	-0.079734564
234	0xbda8e188	-0.08246142
235	0xbe976872	-0.29571873
236	0xbf1c51e1	-0.6106244
237	0xbc0317aa	-0.008001247
238	0xbd21376f	-0.039359506
239	0x3c62ee38	0.013850741
240	0xbe41f66f	-0.18941663
241	0x3c1b8f0c	0.009494554
242	0xbe9de830	-0.30841208
243	0xbe5d077a	-0.21584883
244	0xbe70bfe3	-0.23510699
245	0xbe6a8705	-0.22903068
246	0xbdbf1625	-0.093303956
247	0xbe2a8728	-0.1665312
248	0xbcfce1aa	-0.030869324
249	0xbd043315	-0.032275278
250	0x3e43449e	0.19069144
251	0x3dbafdba	0.09130426
252	0x3ed2ff46	0.41210383
253	0xbe49ac8e	-0.1969473
254	0xbd4ff941	-0.050774816
255	0xbe395b9b	-0.18101351

fc.weight f4 [1, 64]
0	0x3e286d48	0.16447937
1	0x3d9cc034	0.07653847
2	0xbdb0b226	-0.08627729
3	0xbb9edd10	-0.00484813
4	0xbe157d75	-0.1459864
5	0xbd90d9a0	-0.07072759
6	0xbe2744a5	-0.1633478
7	0xbe76bd1b	-0.24095576
8	0x3dd2341c	0.10263845
9	0xbddf2d36	-0.10897295
10	0x3cc09e84	0.023513086
11	0xbdaf1a61	-0.08549953
12	0xbd6b330c	-0.05742173
13	0xbe729204	-0.23688513
14	0xbe0adc8e	-0.13560697
15	0xbe0a8662	-0.13527825
16	0x3e262824	0.1622625
17	0x3df68e2d	0.12038837
18	0x3dd03224	0.101658136
19	0x3e40ccb8	0.18828094
20	0x3cf197b2	0.02949128
21	0x3dfc38ef	0.12315547
22	0x3e33f5c3	0.1757422
23	0x3db15ebd	0.08660648
24	0xbdb5a556	-0.08869426
25	0x3e44b77d	0.1921062
26	0xbdc407b9	-0.095717855
27	0xbe999254	-0.29994452
28	0xbe18fcdb	-0.14940207
29	0xbe1c9ff7	-0.15295397
30	0xbe0837e1	-0.13302566
31	0x3e969d78	0.29417014
32	0xbe004b6a	-0.12528768
33	0xbe13f4a0	-0.14448786
34	0x3e1066ce	0.14101717
35	0x3da67386	0.08127503
36	0xbb3f0ae0	-0.002915077
37	0xbd2e79e2	-0.042596705
38	0xbd8f6cfc	-0.07003209
39	0xbc67be7b	-0.014144535
40	0xbe066573	-0.13124637
41	0xbdaae426	-0.08344297
42	0x3e03a648	0.128564
43	0xbd29211c	-0.04129134
44	0x3d51fb8f	0.051265296
45	0xbe2e6859	-0.17031993
46	0x3e1e6b2d	0.15470572
47	0xbde1f71a	-0.11033459
48	0x3da6f5b7	0.08152335
49	0x3e0155da	0.12630406
50	0x3bc87d20	0.0061184317
51	0xbd60ad4f	-0.05485278
52	0xbddcad91	-0.10775293
53	0xbe089774	-0.13339025
54	0x3dc818e8	0.097703755
55	0xbdd9d449	-0.10636193
56	0xbe304287	-0.17212878
57	0x3e06c828	0.13162291
58	0xbe10a3f2	-0.1412504
59	0x3d27ed0d	0.040997554
60	0x3e8e5022	0.2779551
61	0xbdfd4ba2	-0.123679414
62	0xbe08a92b	-0.13345782
63	0xbdcab26c	-0.098973125
