weights/LSTM_L16_H64_E100_s4.pt (torch, 75119 bytes, 5 tensors)

lstm.weight_ih_l0 f4 [256, 5]
-0.6218667 -0.6287467 -0.76849455 -0.74526083 -0.76658463 -0.63505864 -0.41874608 -0.48439205
-0.576752 -0.41341382 -0.39856267 -0.4908391 -0.41036066 -0.56095046 -0.288489 -0.33431754
-0.3309453 -0.484496 -0.4681971 -0.46281534 -0.14876372 -0.15621628 -0.05385698 -0.057376564
0.08208776 -0.2663 -0.22323689 -0.30193678 -0.28564495 -0.22102891 0.26796672 0.25930378
0.044430505 0.11483249 0.43716037 -0.019579286 0.02953636 0.088389404 0.026253074 0.41596898
-0.29968077 -0.2948352 -0.32321188 -0.50699645 -0.35875222 0.13622484 0.08618809 -0.10287002
-0.13632827 0.32684323 -0.08975517 0.042831887 -0.010794629 -0.23045109 -0.04190951 -0.16211295
-0.14634706 -0.1658843 -0.3118654 0.15287781 -0.41916618 -0.24954218 -0.4824459 -0.32760838
-0.32174364 -0.11229689 -0.15423456 -0.3289944 -0.28433567 0.019396769 -0.33179763 -0.48676252
-0.48308322 -0.5160654 -0.39120212 0.54633355 0.4739241 0.37713298 0.22774403 0.44439557
-0.028214453 0.05339907 -0.044441372 -0.21507114 0.040348344 -0.49905437 -0.47973725 -0.5722795
-0.74375206 -0.5430775 -0.6276142 -0.61242723 -0.6085582 -0.59503543 -0.5159119 -0.2265218
-0.28680775 -0.15308698 -0.12991044 -0.16472752 0.25429225 0.37212804 0.27219874 0.09388534
0.3079384 -0.39093348 -0.52324027 -0.42820495 -0.38857841 -0.4246073 -0.31044558 -0.3662831
-0.507281 -0.44839442 -0.28577653 -0.5469439 -0.6141243 -0.66386133 -0.56694096 -0.5737096
-0.29217425 -0.41980433 -0.4046683 -0.45291772 -0.19111419 -0.3829097 -0.40782085 -0.4134984
-0.52259463 -0.27092946 0.013273725 0.15262714 0.019093707 -0.014262823 0.18756144 -0.011437117
0.09084278 -0.074412726 -0.009881728 0.051676143 0.46953365 0.4443002 0.19341968 0.26590687
0.66652673 0.80510885 0.77272445 0.7213947 0.73290944 0.81964916 0.2776997 0.37601256
0.2009009 0.3050297 0.41250765 -0.3560702 -0.35047808 -0.102623455 -0.15301132 -0.27133998
-0.5673479 -0.56921196 -0.59846437 -0.46482953 -0.63303185 -0.4256269 -0.3640671 -0.39745742
-0.56899744 -0.4096736 0.06568654 -0.0173319 -0.07494614 -0.24353217 0.0019452759 -0.33795083
-0.30640528 -0.29491493 -0.33675188 -0.2640766 -0.46159774 -0.45698392 -0.5094827 -0.43958187
-0.5594566 -0.54059726 -0.5185113 -0.6155362 -0.56495774 -0.5937912 0.21364129 0.2366388
0.149721 -0.21610403 0.48264837 -0.2835476 -0.24804747 -0.15528616 -0.07842306 -0.46782416
-0.37578896 -0.5407359 -0.43873575 -0.39594686 -0.49744 -0.44388944 -0.589993 -0.5279796
-0.48142323 -0.33573866 -0.48876885 -0.5599437 -0.6442436 -0.51728404 -0.42443386 -0.3824558
-0.38117018 -0.501734 -0.49059 -0.25560474 -0.0893416 -0.36160386 -0.40149206 -0.37360033
-0.11825781 -0.07845227 -0.008807892 -0.26441547 -0.228667 0.14323199 -0.0105544 -0.08557197
-0.13575844 -0.14699219 0.15522704 -0.40217406 -0.38038242 -0.47891983 -0.40203437 -0.14369717
-0.52995205 -0.4019753 -0.5474575 -0.4747162 -0.38314742 -0.50994617 -0.69420826 -0.6534865
-0.73624915 -0.52302825 -0.4945651 -0.4463997 -0.5892626 -0.5328606 -0.51247066 -0.28869706
00000000: a832 1fbf 8bf5 20bf 0fbc 44bf 6ac9 3ebf
00000010: e43e 44bf 3493 22bf e365 d6be 3c02 f8be
00000020: 05a6 13bf faaa d3be 6810 ccbe 434f fbbe
00000030: cb1a d2be 739a 0fbf d5b4 93be ab2b abbe
00000040: aa71 a9be dc0f f8be 88b7 efbe 22f6 ecbe
00000050: 8455 18be 29f7 1fbe 2399 5cbd b003 6bbd
00000060: a11d a83d 7958 88be 3698 64be 7597 9abe
00000070: 0e40 92be 6755 62be ef32 893e 77c3 843e
00000080: c3fc 353d 4c2d eb3d 7cd3 df3e bd64 a0bc
00000090: 3df6 f13c 8105 b53d b010 d73c e3f9 d43e
000000a0: c26f 99be a4f4 96be 077c a5be 85ca 01bf
000000b0: 5fae b7be 867e 0b3e 6283 b03d 84ad d2bd
000000c0: a399 0bbe ff57 a73e 8fd1 b7bd 7d70 2f3d
000000d0: f5db 30bc 5ffb 6bbe 4ea9 2bbd f000 26be
000000e0: 01dc 15be 93dd 29be d2ac 9fbe 008c 1c3e
000000f0: f39c d6be fc87 7fbe 2603 f7be 49bc a7be
00000100: 95bb a4be e9fb e5bd aaef 1dbe f471 a8be
00000110: 7294 91be f9e5 9e3c 61e1 a9be f038 f9be
00000120: af56 f7be dd1c 04bf a54b c8be 84dc 0b3f
00000130: 2ea6 f23e 9317 c13e bb35 693e d187 e33e
00000140: ff21 e7bc fcb8 5a3d 2808 36bd 9c3b 5cbe
00000150: 4e44 253d 0e84 ffbe 1fa0 f5be e980 12bf
00000160: 8966 3ebf 2107 0bbf 53ab 20bf 08c8 1cbf
00000170: 78ca 1bbf 3e54 18bf cd12 04bf 55f5 67be
00000180: 77d8 92be d5c2 1cbe 3e07 05be 55ae 28be
00000190: 9832 823e 9187 be3e a25d 8b3e f546 c03d
000001a0: 1aaa 9d3e 6f28 c8be 13f3 05bf ae3d dbbe
000001b0: c0f3 c6be 2166 d9be b9f2 9ebe 7589 bbbe
000001c0: 2bdd 01bf f493 e5be 4d51 92be 8404 0cbf
000001d0: 4037 1dbf d1f2 29bf 0b23 11bf a2de 12bf
000001e0: dd97 95be 98f0 d6be af30 cfbe d5e4 e7be
000001f0: 70b3 43be bd0c c4be e5cd d0be 10b6 d3be
00000200: c3c8 05bf 44b7 8abe 0a7a 593c 4a4a 1c3e
00000210: 686a 9c3c 9eae 69bc 1b10 403e bf62 3bbc
00000220: c80b ba3d b365 98bd f9e6 21bc 5daa 533d
00000230: b766 f03e 517b e33e cf0f 463e f224 883e
00000240: 7fa1 2a3f 9d1b 4e3f 45d1 453f 53ad 383f
00000250: f49f 3b3f 87d4 513f a82e 8e3e b884 c03e
00000260: f7b8 4d3e da2c 9c3e 3434 d33e d54e b6be
00000270: dd71 b3be 3f2c d2bd 00af 1cbe 13ed 8abe
00000280: b63d 11bf e0b7 11bf f634 19bf 23fe edbe
00000290: 600e 22bf c5eb d9be 0167 babe 8a7f cbbe
000002a0: d1a9 11bf bdc0 d1be aa86 863d a1fb 8dbc
000002b0: 5d7d 99bd 7f60 79be a1f8 fe3a e407 adbe
000002c0: 27e1 9cbe 17ff 96be be6a acbe 0c35 87be
000002d0: 8a56 ecbe ccf9 e9be 756d 02bf e010 e1be
000002e0: 8c38 0fbf 9564 0abf 28bd 04bf c893 1dbf
000002f0: 12a1 10bf b302 18bf c8c4 5a3e 7151 723e
00000300: 7650 193e 604a 5dbe b01d f73e 272d 91be
00000310: 2800 7ebe 5603 1fbe 459c a0bd a686 efbe
00000320: 6967 c0be ab6d 0abf f9a1 e0be 8cb9 cabe
00000330: 75b0 febe 7a45 e3be c809 17bf ac29 07bf
00000340: 1b7d f6be f0e5 abbe e93f fabe 7858 0fbf
00000350: 26ed 24bf ba6c 04bf 654f d9be 3fd1 c3be
00000360: bd28 c3be a471 00bf 9d2e fbbe a0de 82be
00000370: bbf8 b6bd 2424 b9be 5e90 cdbe 8b48 bfbe
00000380: 2731 f2bd 95ab a0bd fa4e 10bc 7761 87be
00000390: af27 6abe 68ab 123e 5dec 2cbc 5b40 afbd
000003a0: 4304 0bbe 1f85 16be d6f3 1e3e c2e9 cdbe
000003b0: 7cc1 c2be fb34 f5be 73d7 cdbe 5a25 13be
000003c0: f0aa 07bf b5cf cdbe 2d26 0cbf 000e f3be
000003d0: e62b c4be d58b 02bf a2b7 31bf e44a 27bf
000003e0: d37a 3cbf 2ee5 05bf a337 fdbe 808e e4be
000003f0: ead9 16bf 8d69 08bf 4731 03bf 1ad0 93be

lstm.weight_hh_l0 f4 [256, 64]
0.05023007 0.055777766 -0.068018965 -0.121607214 0.44846463 -0.09656711 -0.27347487 -0.46265617
0.12618136 -0.0019723095 -0.063106224 -0.19427413 0.009058038 0.012392497 0.03795485 0.7644282
0.08467778 -0.045270443 0.019798959 0.1409835 -0.28460795 0.08051765 -0.065250345 -0.10228615
0.07232867 0.10595756 0.102908745 -0.041551493 0.6662784 -0.5303064 0.152367 -0.058782227
-0.07769987 0.0439578 0.16562532 -0.17366333 -0.09378586 -0.119062625 0.44805908 -0.11927433
-0.052326053 -0.030705096 -0.096924774 0.091240115 0.0130295595 -0.14305165 -0.47960594 0.1440367
-0.0009265067 0.0364956 0.09192139 -0.08647839 -0.053270094 0.09237549 0.0921297 0.02467276
0.054012835 -0.08611719 0.003320324 -0.030896176 0.02337061 0.08112234 0.08566219 0.078122094
-0.09126288 0.00076850876 0.119987555 -0.06029026 0.47809163 -0.27360517 -0.21884492 -0.35246456
0.027454332 -0.15133063 0.030827379 -0.2784423 -0.026469404 -0.019357247 0.044105973 0.75136197
0.007897688 0.07376284 0.0138920415 0.0099153705 -0.41330814 0.06740068 -0.104553394 -0.04238193
-0.114847586 0.07066782 -0.0031271728 -0.015686683 0.7146144 -0.47993758 0.09667141 -0.05679699
0.023967432 -0.114934966 0.18249735 0.05183341 -0.078680225 -0.028464613 0.46955314 -0.017975604
0.07734169 0.013211179 0.0376508 0.08006671 -0.04789814 -0.21741307 -0.42086372 0.154127
-0.043766193 -0.12399403 -0.13324906 -0.19408698 -0.010441898 0.024280468 -0.02331595 -0.011193758
-0.06706382 0.13756798 0.15426128 -0.117077954 -0.10057828 -0.12610629 -0.0020890378 0.017390464
0.06916227 -0.03863429 0.08468111 -0.10259259 0.23909031 0.08397219 -0.4414533 -0.4284641
-0.117229044 -0.11759265 -0.21546939 -0.21809229 -0.20812227 -0.008536618 0.08182579 0.48368657
-0.23260926 0.001107568 -0.029591795 -0.03255937 -0.14458518 0.00023239169 -0.09027921 -0.064450346
-0.03055499 -0.07013237 -0.081458256 -0.1298209 0.35185727 -0.41709137 0.10185418 0.14517942
0.046051636 0.14419766 0.20505983 0.1444922 0.007004027 -0.04549985 0.059399337 0.016721966
0.14587516 0.020224385 0.005619898 0.055145 -0.0060620825 -0.30594817 -0.24701528 -0.0015012067
-0.025644816 -0.13249712 -0.0839449 -0.09204584 0.09900903 -0.05384578 -0.09871408 0.086117685
0.33441022 -0.053058542 0.0076195938 0.2543134 -0.06679899 -0.006116511 -0.12619491 -0.02891154
-0.023945298 -0.09652864 0.025772754 -0.010625166 0.049441922 -0.1663729 -0.28594288 -0.27956042
0.047154084 0.060853988 -0.07613152 -0.14313291 0.22169495 0.0024322015 0.101647034 0.762279
-0.07357418 -0.07554532 0.09172833 0.058018684 -0.43108973 -0.02035675 -0.1284958 -0.12953313
0.1255958 0.1131031 -0.009173444 0.1621523 0.55326647 -0.45841116 -0.11731806 0.1431242
-0.16602758 0.09922198 0.24487753 0.07425607 -0.06475969 0.015963158 0.33944285 0.43433422
0.121033445 -0.044141658 -0.08401905 -0.028576743 -0.035932668 -0.15330938 -0.49931595 0.1992139
-0.032529686 0.021580284 0.017245147 -0.030844677 -0.021178318 -0.15937553 0.0019147607 -0.08962036
0.23584376 -0.021027246 -0.028021041 0.071948215 0.096621044 0.075065725 0.05183874 -0.07633072
00000000: 0cbe 4d3d 3a77 643d 874d 8bbd 340d f9bd
00000010: 289d e53e fac4 c5bd e604 8cbe 45e1 ecbe
00000020: b035 013e dd41 01bb d63d 81bd ccef 46be
00000030: 2a68 143c e609 4b3c 8b76 1b3d 91b1 433f
00000040: 8b6b ad3d 806d 39bd 6d31 a23c fb5d 103e
00000050: 22b8 91be 70e6 a43d f9a1 85bd 677b d1bd
00000060: 0e21 943d 4700 d93d d2c1 d23d e631 2abd
00000070: 3991 2a3f 29c2 07bf 1806 1c3e a2c5 70bd
00000080: 1c21 9fbd 180d 343d af99 293e cdd4 31be
00000090: cd12 c0bd 1bd7 f3bd 0068 e53e 1a46 f4bd
000000a0: d853 56bd 4189 fbbc 7f80 c6bd 19dc ba3d
000000b0: ef79 553c 227c 12be e98e f5be 5b7e 133e
000000c0: d0e0 72ba 697c 153d 4841 bc3d 951b b1bd
000000d0: be31 5abd 5c2f bd3d 7fae bc3d 871e ca3c
000000e0: 903c 5d3d 365e b0bd cb99 593b fa19 fdbc
000000f0: b973 bf3c 7823 a63d a96f af3d 7afe 9f3d
00000100: 08e8 babd c075 493a 09bc f53d ebf2 76bd
00000110: 6dc8 f43e fa15 8cbe e218 60be 3c76 b4be
00000120: e8e7 e03c 6bf6 1abe b389 fc3c fd8f 8ebe
00000130: 5dd6 d8bc 1793 9ebc 77a8 343d 4259 403f
00000140: 4e65 013c f910 973d 729b 633c 1474 223c
00000150: 209d d3be 5e09 8a3d 1720 d6bd ad98 2dbd
00000160: 3635 ebbd 4aba 903d 41f1 4cbb 5c81 80bc
00000170: f8f0 363f 61ba f5be a9fb c53d f6a3 68bd
00000180: 5957 c43c 0663 ebbd 96e0 3a3e 454f 543d
00000190: 1923 a1bd 9f2e e9bc 4569 f03e 9341 93bc
000001a0: 5265 9e3d b373 583c ba37 1a3d 04fa a33d
000001b0: d730 44bd 88a1 5ebe 737b d7be 78d3 1d3e
000001c0: 2e44 33bd 95f0 fdbd 7172 08be bdbe 46be
000001d0: 7f14 2bbc d5e7 c63c 1701 bfbc 0666 37bc
000001e0: c258 89bd 9fde 0c3e abf6 1d3e 91c6 efbd
000001f0: fcfb cdbd 0222 01be 3de8 08bb 7276 8e3c
00000200: f3a4 8d3d fd3e 1ebd 4a6d ad3d 101c d2bd
00000210: 17d4 743e 9df9 ab3d 2b06 e2be a65f dbbe
00000220: c815 f0bd 6ad4 f0bd 02a4 5cbe 9653 5fbe
00000230: 011e 55be 2cdd 0bbc 4894 a73d c4a5 f73e
00000240: 1f31 6ebe d12b 913a 7e6a f2bc f95c 05bd
00000250: 230e 14be 2bae 7339 4ee4 b8bd 8bfe 83bd
00000260: 754e fabc 8fa1 8fbd 96d3 a6bd c5ef 04be
00000270: a326 b43e 008d d5be ed98 d03d eaa9 143e
00000280: a4a0 3c3d 8da8 133e 34fb 513e c3f5 133e
00000290: 0982 e53b 0d5e 3abd b84c 733d 81fc 883c
000002a0: 4c60 153e 9cad a53c 1f27 b83b b9df 613d
000002b0: 6fa4 c6bb 3da5 9cbe 93f1 7cbe 23c4 c4ba
000002c0: 1415 d2bc 53ad 07be 4eeb abbd 8882 bcbd
000002d0: 3fc5 ca3d 658d 5cbd 9c2a cabd 785e b03d
000002e0: d137 ab3e ea53 59bd c9ad f93b 5e35 823e
000002f0: e9cd 88bd 036d c8bb 3d39 01be e5d7 ecbc
00000300: ee28 c4bc cfb0 c5bd 6221 d33c 2d15 2ebc
00000310: 9d83 4a3d a85d 2abe 1b67 92be 8b22 8fbe
00000320: a424 413d 0842 793d d8ea 9bbd 6f91 12be
00000330: 0004 633e 9265 1f3b 522c d03d b724 433f
00000340: 0fae 96bd 81b7 9abd 10dc bb3d 00a5 6d3d
00000350: cbb7 dcbe 33c3 a6bc 6794 03be 55a4 04be
00000360: 2f9c 003e 99a2 e73d 364c 16bc 410b 263e
00000370: dfa2 0d3f deb4 eabe 7344 f0bd 268f 123e
00000380: 2203 2abe e534 cb3d 2dc1 7a3e 9113 983d
00000390: baa0 84bd 2bc5 823c 74cb ad3e 0e61 de3e
000003a0: 62e0 f73d e2cd 34bd 2e12 acbd c619 eabc
000003b0: 222e 13bd 22fd 1cbe 57a6 ffbe bbfe 4b3e
000003c0: d93d 05bd 23c9 b03c b245 8d3c faad fcbc
000003d0: 277e adbc 5733 23be b5f8 fa3a e18a b7bd
000003e0: 0781 713e 5541 acbc 628c e5bc 9659 933d
000003f0: 41e1 c53d 0fbc 993d dc54 543d 4853 9cbd

lstm.bias_ih_l0 f4 [256]
-0.8725416 -0.82250935 -0.30665985 -0.53801084 -0.0768015 -0.33779258 0.07126969 0.02389903
-0.24133407 -0.28270367 -0.10947355 -0.4684712 0.042733397 -0.40847245 -0.6213365 0.45181012
0.17825823 -0.5495211 -1.0847043 -0.19457208 0.26986974 -0.5577304 -0.44529927 -0.90047395
-0.23567009 -0.3730963 0.24524847 -0.18102257 0.4973098 0.8917767 1.0081557 -0.16908127
-0.7878159 -0.4339306 -0.16509965 -0.24016626 -0.53968513 -0.7650035 0.033749748 0.08509314
0.057507623 -0.46109954 -0.82917744 -0.6470219 -0.22164683 -0.14468153 -0.0083008865 -0.38912317
-0.52305436 -0.9505551 -0.62709796 -0.21107265 -0.66792357 -0.3448614 0.0046112603 -0.52546906
0.19946451 -0.9518826 -0.30507627 -0.10076919 -1.01158 -0.6003752 -0.61885667 -0.4560808
-0.85781264 -0.74759954 -0.52457523 -0.58873147 -0.1424422 -0.03728396 0.008794526 -0.12676702
-0.35982844 -0.3556842 -0.12609354 -0.45205584 0.1062311 -0.35820764 -0.42506066 -0.1333353
-0.0639289 -0.62294585 -0.6277452 -0.4249099 0.01440115 -0.3767315 -0.54980534 -0.6765187
-0.58305424 -0.6137879 -0.17988116 -0.42425823 -0.0693426 -0.1780609 -0.34439948 -0.1366909
-0.79239523 -0.35959822 -0.25465086 -0.12275241 -0.60391366 -0.7319093 0.08043122 -0.07969526
-0.47525832 -0.4982846 -0.7041064 -0.5796503 -0.024087314 -0.14533345 0.042372182 -0.5618151
-0.8128501 -0.5901768 -0.598336 -0.059280306 -0.558394 -0.43749627 -0.18481341 -0.7018048
-0.07370694 -0.6674779 -0.22268851 -0.046523172 -0.61192584 -0.9370138 -0.7746277 -0.6577225
0.027070604 -0.03336694 -0.017722776 -0.1284971 0.041610207 -0.010922204 -0.009573441 -0.08274066
-0.035270035 -0.09445886 0.048252836 -0.009500514 0.07432757 -0.0800394 0.0059920438 -0.0015282014
0.021778218 -0.0050715036 -0.025027538 -0.032955322 0.025268005 0.009554971 -0.015931837 -0.02111663
-0.03914712 0.11441066 0.062421694 -0.07888548 -0.07118319 -0.07068974 0.12486636 -0.04675272
-0.109001964 -0.032679476 0.100273326 0.025218153 -0.06090888 -0.03445406 -0.018647598 0.12161065
-0.12935199 0.019367322 0.055497393 0.046460696 -0.07692448 0.023322461 6.13797e-05 -0.00053989433
0.035563193 -0.059830207 0.0042684586 -0.13888767 -0.017349469 0.022147615 -0.06845425 -0.08150772
0.10880644 -0.039155148 -0.035299588 0.0808482 -0.07593183 0.041452166 0.00027382388 -0.03768094
-0.8568282 -0.7237606 -0.33716 -0.58847624 -0.1614061 -0.21014963 -0.016272979 -4.0998326e-05
-0.2723038 -0.31571385 0.10200648 -0.55818003 -0.049522083 -0.346407 -0.5318255 0.58603156
0.106859565 -0.717543 -1.0152016 -0.34617242 0.31624785 -0.48557067 -0.50976145 -0.9365054
-0.27268672 -0.45252877 0.27187592 -0.20836751 0.5964766 0.7773103 1.1355896 -0.21944228
-0.610926 -0.31149647 -0.32758242 -0.2970235 -0.43857116 -0.6569812 0.1250839 0.027369432
0.088812016 -0.470149 -0.7229968 -0.62810636 -0.38329056 -0.0036351818 0.099301815 -0.5246366
-0.369666 -0.86616606 -0.6618937 -0.1702664 -0.7772702 -0.31481674 0.018027324 -0.5672822
0.07317605 -0.9792002 -0.21701945 -0.09240543 -0.90204847 -0.67980844 -0.60646605 -0.4613047
00000000: e35e 5fbf f98f 52bf 8502 9dbe 14bb 09bf
00000010: 1b4a 9dbd 26f3 acbe d8f5 913d e6c7 c33c
00000020: 4720 77be 89be 90be ab33 e0bd 75db efbe
00000030: 3709 2f3d 4d23 d1be e90f 1fbf a853 e73e
00000040: 5389 363e 6aad 0cbf 97d7 8abf e73d 47be
00000050: 5e2c 8a3e 6bc7 0ebf 44fe e3be 7685 66bf
00000060: 8053 71be 7a06 bfbe 6a22 7b3e fb5d 39be
00000070: 649f fe3e 7a4b 643f 3f0b 813f a423 2dbe
00000080: 4eae 49bf 272c debe e20f 29be 25ee 75be
00000090: ce28 0abf 45d7 43bf 2d3d 0a3d 5045 ae3d
000000a0: 1d8d 6b3d 3d15 ecbe f944 54bf 3aa3 25bf
000000b0: 63f7 62be 6527 14be 7100 08bc 273b c7be
000000c0: e4e6 05bf 9457 73bf 7e89 20bf 6e23 58be
000000d0: 0afd 2abf ac91 b0be 0e1a 973b 2485 06bf
000000e0: 6d40 4c3e 94ae 73bf f532 9cbe 1460 cebd
000000f0: 747b 81bf 30b2 19bf 646d 1ebf 6c83 e9be
00000100: 9c99 5bbf af62 3fbf 904a 06bf 1bb7 16bf
00000110: 5edc 11be 11b7 18bd ea16 103c 37cf 01be
00000120: 6f3b b8be 3d1c b6be aa1e 01be dd73 e7be
00000130: b18f d93d fe66 b7be 8da1 d9be 0d89 08be
00000140: 28ed 82bd 6179 1fbf e9b3 20bf ca8d d9be
00000150: cdf2 6b3c f3e2 c0be 0bc0 0cbf 5430 2dbf
00000160: 0b43 15bf 3421 1dbf c432 38be 6038 d9be
00000170: 7e03 8ebd 9955 36be 2155 b0be b3f8 0bbe
00000180: 6ada 4abf 421d b8be 9961 82be 9e65 fbbd
00000190: 169a 1abf 685e 3bbf 20b9 a43d 4537 a3bd
000001a0: 0f55 f3be 291f ffbe 5140 34bf f663 14bf
000001b0: c252 c5bc 4bd2 14be 748e 2d3d 1dd3 0fbf
000001c0: f216 50bf d415 17bf 8c2c 19bf e8cf 72bd
000001d0: e9f2 0ebf 83ff dfbe ba3f 3dbe 7ba9 33bf
000001e0: aaf3 96bd d5df 2abf 7508 64be 158f 3ebd
000001f0: 2ca7 1cbf 23e0 6fbf 004e 46bf 8060 28bf
00000200: 2cc3 dd3c c6ab 08bd 5b2f 91bc be94 03be
00000210: 776f 2a3d 0bf3 32bc ecd9 1cbc ef73 a9bd
00000220: 5077 10bd a673 c1bd c4a4 453d 0ba8 1bbc
00000230: 0e39 983d b2eb a3bd e858 c43b ee4d c8ba
00000240: 3c68 b23c db2e a6bb 8d06 cdbc 29fc 06bd
00000250: d9fe ce3c 748c 1c3c 7c83 82bc c8fc acbc
00000260: bb58 20bd 2350 ea3d e4ad 7f3d b68e a1bd
00000270: 7ec8 91bd c8c5 90bd efb9 ff3d c87f 3fbd
00000280: 6c3c dfbd eada 05bd 1a5c cd3d 4d96 ce3c
00000290: 977b 79bd b31f 0dbd d9c2 98bc 010f f93d
000002a0: d974 04be 38a8 9e3c 3c51 633d 924d 3e3d
000002b0: 958a 9dbd bf0e bf3c fab8 8038 b287 0dba
000002c0: b6aa 113d 8510 75bd 6dde 8b3b 9238 0ebe
000002d0: 7920 8ebc ea6e b53c be31 8cbd 85ed a6bd
000002e0: e9d5 de3d 2661 20bd 4d96 10bd be93 a53d
000002f0: 2682 9bbd bfc9 293d 0590 8f39 5457 1abd
00000300: 1859 5bbf 6048 39bf 3ca0 acbe 61a6 16bf
00000310: a447 25be 7731 57be e94e 85bc 9ef5 2bb8
00000320: 676b 8bbe 3fa5 a1be c6e8 d03d e3e4 0ebf
00000330: abd7 4abd 425c b1be b725 08bf 2a06 163f
00000340: 30d9 da3d e6b0 37bf 20f2 81bf 833d b1be
00000350: 3deb a13e b89c f8be ba7f 02bf d1be 6fbf
00000360: 989d 8bbe dab1 e7be 5233 8b3e 4b5e 55be
00000370: b1b2 183f cffd 463f 005b 913f 7ab5 60be
00000380: a565 1cbf 777c 9fbe e2b8 a7be 7713 98be
00000390: 668c e0be ec2f 28bf fe15 003e dc35 e03c
000003a0: 13e3 b53d 5fb7 f0be 5116 39bf 94cb 20bf
000003b0: a93e c4be 3b3c 6ebb c05e cb3d 964e 06bf
000003c0: dd44 bdbe 0fbd 5dbf de71 29bf 515a 2ebe
000003d0: 2efb 46bf a92f a1be 0aae 933c 6839 11bf
000003e0: 53dd 953d ddac 7abf 593a 5ebe 0f3f bdbd
000003f0: a6ec 66bf ed07 2ebf 5c41 1bbf 2130 ecbe

lstm.bias_hh_l0 f4 [256]
-0.7870468 -0.8241755 -0.38800463 -0.4404452 -0.14290887 -0.35668913 0.084497 -0.0034931412
-0.29473686 -0.2643998 -0.12277291 -0.598237 -0.12097016 -0.29479158 -0.47873157 0.45064017
0.17143308 -0.7244646 -0.9214502 -0.35038036 0.34095263 -0.4572459 -0.5303595 -0.84466845
-0.14577582 -0.53429884 0.19827546 -0.21979381 0.6346755 0.8089263 0.98270273 -0.2684536
-0.5836612 -0.38651687 -0.19293381 -0.41180497 -0.35948515 -0.80481094 -0.002176222 -0.01287701
-0.05359371 -0.4811727 -0.6731393 -0.6855 -0.38652623 -0.08263075 0.065483026 -0.4078198
-0.55594623 -1.0557946 -0.76003885 -0.17216359 -0.79203457 -0.21046239 0.009173843 -0.6008103
-0.031652197 -0.9495892 -0.35097504 -0.11441826 -0.7856042 -0.56590873 -0.70134175 -0.39157483
-0.89701104 -0.71616966 -0.7494029 -0.5442943 -0.17389396 -0.030430716 -0.056875784 -0.113367856
-0.36417934 -0.29952782 -0.16512075 -0.48824537 -0.08355421 -0.43869025 -0.30749133 -0.15498552
0.0033654366 -0.53708977 -0.62205446 -0.29661936 -0.04046669 -0.32084683 -0.5537185 -0.7869361
-0.48656237 -0.5442392 -0.20899719 -0.42173886 -0.104347035 -0.08915623 -0.3696198 -0.16257657
-0.81108826 -0.29292315 -0.20866394 -0.32684097 -0.6342615 -0.615294 0.2188601 -0.2198472
-0.617244 -0.33543682 -0.69120514 -0.54515815 -0.08674477 -0.14889877 0.104492076 -0.54199225
-0.70210284 -0.7428707 -0.515468 -0.15167305 -0.7482546 -0.47902474 -0.15582676 -0.5964708
-0.07359153 -0.6039883 -0.31038603 -0.19591525 -0.5905423 -0.76205903 -0.60911673 -0.63848406
0.03494444 0.008846876 0.030116074 0.061896186 -0.021525329 -0.011376617 -0.18471803 -0.15547581
0.027811173 -0.024632873 0.013195979 -0.05325623 0.12643765 0.09013741 0.079295725 0.048431907
0.02285927 -0.01209928 0.0014158515 0.06921357 -0.07745261 0.01117818 -0.043945123 -0.028558856
0.02277565 -0.091403335 -0.04950838 -0.008143139 0.13773079 -0.02510059 -0.020390883 0.10522481
0.08143558 0.011215458 -0.0493592 -0.08889496 -0.0134145245 0.041163385 0.080810934 0.14847705
0.050850015 0.027214633 -0.081197605 -0.05922966 0.048327737 -0.0016849873 0.03183451 0.06657533
0.021527508 0.018217482 -0.033314485 0.07714615 -0.013436472 0.01585568 -0.016808018 0.003842006
0.083387636 0.03431852 0.013649751 0.10789898 0.0013876087 -0.07381078 0.025879955 0.008384788
-0.9298867 -0.71581084 -0.36147815 -0.384422 -0.07940329 -0.1399543 0.076368585 -0.1623746
-0.33419868 -0.17582703 0.04957921 -0.39615563 0.054307193 -0.2951317 -0.45603946 0.41470277
0.12172628 -0.57713103 -0.90081984 -0.24770099 0.2623439 -0.5308865 -0.580222 -0.80184907
-0.26398978 -0.37774068 0.2928168 -0.33006316 0.5772674 0.7788425 1.0586644 -0.14130028
-0.7147435 -0.4987435 -0.10471306 -0.3894953 -0.494854 -0.8480201 0.1902667 0.06395788
0.072018154 -0.480469 -0.8595994 -0.7309921 -0.37428105 -0.16254862 0.09986331 -0.565141
-0.466038 -1.0076119 -0.69641745 -0.2503339 -0.602943 -0.22974625 -0.079677545 -0.5468794
0.13873082 -1.080169 -0.12903833 0.08724089 -1.0067754 -0.56645143 -0.763241 -0.4026537
00000000: e67b 49bf 2afd 52bf 8ba8 c6be 0982 e1be
00000010: b456 12be f59f b6be c30c ad3d 2fed 64bb
00000020: c0e7 96be 695f 87be 5d70 fbbd 0f26 19bf
00000030: 34bf f7bd ecee 96be 4e1c f5be 4fba e63e
00000040: 278c 2f3e 8376 39bf 29e4 6bbf 0e65 b3be
00000050: 5891 ae3e 221c eabe a4c5 07bf 313c 58bf
00000060: 4246 15be cfc7 08bf b908 4b3e a111 61be
00000070: 187a 223f cb15 4f3f 6892 7b3f c072 89be
00000080: d26a 15bf 8ae5 c5be 7190 45be 1ad8 d2be
00000090: 700e b8be 1708 4ebf f29e 0ebb 18fa 52bc
000000a0: 1485 5bbd 455c f6be db52 2cbf ee7c 2fbf
000000b0: c4e6 c5be 503a a9bd f71b 863d c2cd d0be
000000c0: 7e52 0ebf 4724 87bf e891 42bf a74b 30be
000000d0: c7c2 4abf 7483 57be e34d 163c b4ce 19bf
000000e0: bca5 01bd 4718 73bf 00b3 b3be 1f54 eabd
000000f0: 5b1d 49bf 65df 10bf 228b 33bf 7f7c c8be
00000100: 84a2 65bf e556 37bf ded8 3fbf df56 0bbf
00000110: 4211 32be d649 f9bc 95f6 68bd 682d e8bd
00000120: b775 babe b65b 99be 6a15 29be 4cfb f9be
00000130: 781e abbd 029c e0be 816f 9dbe 86b4 1ebe
00000140: a88e 5c3b b77e 09bf f63e 1fbf 7ede 97be
00000150: 66c0 25bd 0946 a4be 7fc0 0dbf a574 49bf
00000160: b41e f9be 4353 0bbf 5c03 56be 28ee d7be
00000170: e6b3 d5bd 8b97 b6bd ce3e bdbe 797a 26be
00000180: 7ba3 4fbf 06fa 95be 00ac 55be b357 a7be
00000190: f65e 22bf e883 1dbf dd1c 603e a01f 61be
000001a0: b403 1ebf 60be abbe d2f2 30bf 7c8f 0bbf
000001b0: 3ea7 b1bd eb78 18be f1ff d53d 01c0 0abf
000001c0: 03bd 33bf c62c 3ebf b6f5 03bf 2e50 1bbe
000001d0: 9d8d 3fbf bb42 f5be 0d91 1fbe 4fb2 18bf
000001e0: 28b7 96bd fa9e 1abf ebea 9ebe 029e 48be
000001f0: c82d 17bf 4d16 43bf 13ef 1bbf b173 23bf
00000200: e721 0f3d 7df2 103c fcb5 f63c db86 7d3d
00000210: e355 b0bc fd64 3abc b926 3dbe 0d35 1fbe
00000220: 42d4 e33c e1ca c9bc f333 583c 3423 5abd
00000230: df78 013e f699 b83d cc65 a23d 8960 463d
00000240: 5d43 bb3c 0f3c 46bc 1894 b93a d8bf 8d3d
00000250: 799f 9ebd af24 373c cdff 33bd 43f4 e9bc
00000260: 0094 ba3c ac31 bbbd 4dc9 4abd cd6a 05bc
00000270: 4d09 0d3e c19f cdbc c80a a7bc 1b80 d73d
00000280: b3c7 a63d 0ac1 373c df2c 4abd 900e b6bd
00000290: 98c8 5bbc f09a 283d 3480 a53d 5e0a 183e
000002a0: 1b48 503d 39f1 de3c ee4a a6bd cd9a 72bd
000002b0: 4ef3 453d cbda dcba e764 023d a658 883d
000002c0: 755a b03c d43c 953c c574 08bd cdfe 9d3d
000002d0: a624 5cbc c5e3 813c f8b0 89bc 2aca 7b3b
000002e0: 23c7 aa3d 9491 0c3d 35a3 5f3c 24fa dc3d
000002f0: 6ce0 b53a 1b2a 97bd 3302 d43c 5a60 093c
00000300: 0e0d 6ebf 613f 37bf aa13 b9be f6d2 c4be
00000310: 319e a2bd 2e50 0fbe 2267 9c3d 8745 26be
00000320: 171c abbe 000c 34be 9213 4b3d e9d4 cabe
00000330: 3871 5e3d 811b 97be 017e e9be ec53 d43e
00000340: a14b f93d dcbe 13bf 219c 66bf 54a5 7dbe
00000350: f151 863e 2de8 07bf 6e89 14bf fb45 4dbf
00000360: ab29 87be 3a67 c1be 15ec 953e 0afe a8be
00000370: ccc7 133f 3962 473f 5182 873f 05b1 10be
00000380: 6ef9 36bf 4f5b ffbe cd73 d6bd ee6b c7be
00000390: 815d fdbe d817 59bf 46d5 423e 59fc 823d
000003a0: 417e 933d 0800 f6be b50e 5cbf 4c22 3bbf
000003b0: c4a1 bfbe 2573 26be 2385 cc3d 15ad 10bf
000003c0: 889c eebe 6df9 80bf 6a48 32bf c42b 80be
000003d0: 795a 1abf 9a42 6bbe fb2d a3bd 4a00 0cbf
000003e0: 740f 0e3e fa42 8abf a022 04be 5aab b23d
000003f0: 04de 80bf f602 11bf c363 43bf a028 cebe

fc.weight f4 [1, 64]
-0.08712972 0.09452384 0.10350966 0.13168724 -0.12643951 0.11649653 0.20649719 0.17868641
-0.046172474 0.14574693 -0.12513731 0.1271599 -0.13735294 -0.13814889 -0.04067468 -0.31598297
-0.095851354 -0.063068114 -0.031751696 -0.1541947 0.2960027 -0.08932255 0.094571136 0.10708072
0.13061838 -0.0985807 -0.11578168 0.17251822 -0.2595752 0.3067412 -0.17522648 -0.15846053
0.11569694 0.06148611 -0.15542364 -0.050353397 0.13509825 0.062575415 -0.17924647 -0.18885644
0.1424444 -0.09133891 0.07187126 0.056702804 0.059398532 0.11186077 0.16626725 -0.13203819
-0.09363814 0.057659764 0.0052414727 0.025542282 0.104809865 -0.10857185 0.16500758 0.114712305
-0.30189663 -0.041163564 -0.10767204 -0.1913327 0.034203935 0.11554142 -0.08075974 0.11539552
00000000: 1171 b2bd b795 c13d dffc d33d 05d9 063e
00000010: 5c79 01be bc95 ee3d 0074 533e 92f9 363e
00000020: 591f 3dbd af3e 153e ff23 00be 3436 023e
00000030: 40a6 0cbe e776 0dbe 7e9a 26bd 85c8 a1be
00000040: b74d c4bd db29 81bd 110e 02bd 37e5 1dbe
00000050: aa8d 973e beee b6bd 83ae c13d 234d db3d
00000060: d3c0 053e aee4 c9bd f21e edbd 9ea8 303e
00000070: 0ae7 84be 2f0d 9d3e 926e 33be 7a43 22be
00000080: 84f2 ec3d dcd8 7b3d 6027 1fbe 5d3f 4ebd
00000090: 3257 0a3e 8a27 803d 638c 37be 9563 41be
000000a0: f2dc 113e e50f bbbd 3d31 933d 3341 683d
000000b0: e04b 733d 4217 e53d f641 2a3e 0535 07be
000000c0: 5ac5 bfbd a52c 6c3d a9c0 ab3b 0c3e d13c
000000d0: 8ea6 d63d eb5a debd bff7 283e 49ee ea3d
000000e0: 3292 9abe 209b 28bd 2983 dcbd b8ec 43be
000000f0: 6d19 0c3d fba0 ec3d 5d65 a5bd 7d54 ec3d
