weights/LSTM_L16_H64_E100_s2.pt (torch, 75119 bytes, 5 tensors)

lstm.weight_ih_l0 f4 [256, 5]
0	0xbeeb94c3	-0.46011934
1	0xbf04be84	-0.51853204
2	0xbf06289a	-0.52405703
3	0xbf14cacb	-0.5812194
4	0xbeba70aa	-0.3641408
5	0xbdcf4716	-0.101209804
6	0xbe2ca9be	-0.16861627
7	0xbe9c72eb	-0.30556425
8	0xbe83d983	-0.25751886
9	0xbb437eb0	-0.002983015
10	0xbf1f346c	-0.62189364
11	0xbf28188c	-0.65662456
12	0xbf3d2f1c	-0.7390001
13	0xbf23d47e	-0.6399611
14	0xbf0f9ea5	-0.5610145
15	0x3eb11419	0.34585646
16	0x3e92b6e6	0.28655165
17	0x3d8cc0b4	0.06872693
18	0x3cd84e6a	0.026404578
19	0x3f01f788	0.5076833
20	0xbf13c4b3	-0.57722014
21	0xbeedf1b3	-0.46473464
22	0xbf0bf9bf	-0.5467796
23	0xbef5ada5	-0.47984043
24	0xbeb1ee18	-0.34751964
25	0xbeaf0a95	-0.3418776
26	0xbeaee762	-0.34160906
27	0xbebc4ec7	-0.36778852
28	0xbea80609	-0.32817104
29	0xbedd1389	-0.43178967
30	0xbf09a923	-0.5377371
31	0xbf02506b	-0.5090396
32	0xbedcff85	-0.43163696
33	0xbecfdb66	-0.40597075
34	0xbebd516a	-0.36976177
35	0xbf3b2302	-0.7310029
36	0xbf25d199	-0.64772946
37	0xbf4ba583	-0.79549426
38	0xbf4e1932	-0.80507195
39	0xbf2c0585	-0.6719592
40	0xbe94896c	-0.29011095
41	0xbea78ff5	-0.32727018
42	0xbe3ab5b3	-0.18233375
43	0xbe565e63	-0.20934443
44	0xbe64fd5b	-0.22362272
45	0xbea1b832	-0.31585842
46	0xbeaa79be	-0.33296007
47	0xbef0498c	-0.46931112
48	0xbf093fbf	-0.53612894
49	0xbe9f75d7	-0.31144592
50	0xbf2dfd2d	-0.6796444
51	0xbf2be741	-0.6714974
52	0xbf30e0cf	-0.6909303
53	0xbf37e9ce	-0.7184113
54	0xbf4002e9	-0.7500444
55	0xbf24bedd	-0.64353734
56	0xbf3607bb	-0.71105546
57	0xbf301687	-0.68784374
58	0xbf4b6f89	-0.79467064
59	0xbeeedb94	-0.466519
60	0xbec0b1d1	-0.37635663
61	0xbf01b561	-0.5066739
62	0xbec074bd	-0.37589064
63	0xbeaa9554	-0.33317053
64	0xbe89a396	-0.2688262
65	0xbecfb7dc	-0.4056996
66	0xbea1f29a	-0.31630403
67	0xbeec8b27	-0.46199915
68	0xbec360dc	-0.38159835
69	0xbea79d65	-0.3273727
70	0xbf08b0c5	-0.5339473
71	0xbeb65f6f	-0.35619685
72	0xbf26a511	-0.6509562
73	0xbf1716c1	-0.59019095
74	0xbea3e615	-0.32011476
75	0x3f225208	0.6340642
76	0x3f12163d	0.5706518
77	0x3eaf54fa	0.3424452
78	0x3eb4e35c	0.3532971
79	0x3f2522d9	0.645063
80	0xbea7d5f8	-0.32780433
81	0xbee17941	-0.44037822
82	0xbf1adeb0	-0.60496044
83	0xbef95362	-0.4869643
84	0xbea67619	-0.32511976
85	0xbf47b68f	-0.7801294
86	0xbf396bae	-0.7242993
87	0xbf20c813	-0.6280529
88	0xbf3cf7d0	-0.7381563
89	0xbf4dda42	-0.8041116
90	0xbc8fdb5d	-0.017560655
91	0xbde6aa8a	-0.112629965
92	0x3de3269a	0.11091347
93	0x3d832713	0.06403937
94	0x3e9f4323	0.3110591
95	0xbf15d51e	-0.58528316
96	0xbf432172	-0.7622291
97	0xbf46d833	-0.77673644
98	0xbf4f0e75	-0.80881435
99	0xbf214e06	-0.6300968
100	0xbf273142	-0.65309536
101	0xbf2a4a25	-0.66519386
102	0xbf55e99b	-0.8355958
103	0xbf362f68	-0.71166086
104	0xbee94370	-0.45559263
105	0xbc74f832	-0.0149517525
106	0xbcbd147a	-0.023081053
107	0xbd9cf448	-0.076637805
108	0xbeae3368	-0.34023595
109	0x3d45d15c	0.048295364
110	0xbe7a2d01	-0.2443123
111	0xbede7771	-0.43450502
112	0xbed1ce89	-0.40977886
113	0xbebb1140	-0.36536598
114	0xbecec122	-0.40381724
115	0xbe6ecdd7	-0.23320709
116	0xbe57eb00	-0.21085739
117	0xbdbb39d4	-0.09141889
118	0xbe5ea2fb	-0.2174186
119	0xbc60b571	-0.013715134
120	0xbf0a6a33	-0.540683
121	0xbf17a0bb	-0.5922963
122	0xbf4f187b	-0.8089673
123	0xbf22c2f5	-0.6357873
124	0xbeea4668	-0.4575684
125	0x3e18d8d0	0.14926457
126	0x3e057dfd	0.13036342
127	0x3e42a6c5	0.1900893
128	0xbdc9333b	-0.098242246
129	0x3e88ba01	0.2670441
130	0xbf2548b1	-0.64564043
131	0xbf0f96e0	-0.5608959
132	0xbf3c65fb	-0.7359311
133	0xbf56bcab	-0.83881634
134	0xbeae78ac	-0.3407644
135	0xbebc30c9	-0.3675597
136	0xbecf36bf	-0.40471455
137	0xbf21296d	-0.62953836
138	0xbeed53e0	-0.46353054
139	0xbeaa928a	-0.33314925
140	0xbd4f3b07	-0.050593402
141	0xbb39384b	-0.0028262313
142	0x3cedcb58	0.029027626
143	0xbd27ce2d	-0.04096811
144	0x3e15bb94	0.14622337
145	0xbf00194f	-0.5003862
146	0xbf3db436	-0.74103105
147	0xbf1fb31f	-0.6238269
148	0xbf26a98a	-0.65102446
149	0xbf13bd85	-0.5771106
150	0xbeceeb74	-0.4041401
151	0xbee2191d	-0.44159785
152	0xbf10c435	-0.5654939
153	0xbeff0601	-0.49809268
154	0xbed5d564	-0.41764367
155	0xbe137c9a	-0.14403
156	0xbe69893a	-0.22806254
157	0xbe9b5061	-0.30334762
158	0xbea0b264	-0.313861
159	0x3e0fc391	0.14039446
160	0xbf533336	-0.82500017
161	0xbf26b088	-0.65113115
162	0xbf358c82	-0.7091752
163	0xbf5482f1	-0.830123
164	0xbf3fd989	-0.7494131
165	0x3e6e9721	0.23299839
166	0x3da85599	0.082194515
167	0x3e17f966	0.14841232
168	0x3d8e56c4	0.06950143
169	0x3e097308	0.13422787
170	0xbf2f618c	-0.6850822
171	0xbf2406a3	-0.64072627
172	0xbf22ee33	-0.63644713
173	0xbf4a1891	-0.78943735
174	0xbf298746	-0.66222036
175	0xbf20f0d7	-0.6286749
176	0xbf3e9130	-0.7444029
177	0xbf2a3b9e	-0.6649722
178	0xbf1827f6	-0.59435976
179	0xbf04b99a	-0.51845706
180	0xbf25a909	-0.6471105
181	0xbf24f9d2	-0.64443696
182	0xbf2a9d3a	-0.6664616
183	0xbf3ed908	-0.74549913
184	0xbf1de654	-0.6167958
185	0xbe28e17c	-0.16492265
186	0xbe13e3d3	-0.14442377
187	0xbd810663	-0.06300046
188	0xbc94858d	-0.018130088
189	0x3e417639	0.18892755
190	0x3eb07297	0.34462425
191	0x3e06e919	0.13174857
192	0x3e672b6a	0.22575155
193	0x3df67fd7	0.12036102
194	0x3eb84593	0.3599058
195	0xbee8c0d9	-0.4545963
196	0xbebf9e40	-0.37425423
197	0xbf09998a	-0.53749907
198	0xbedfb322	-0.43691355
199	0xbe6e6a99	-0.23282851
200	0x3eaa111e	0.33216184
201	0x3e8d3aca	0.27583915
202	0x3e499ad2	0.19687966
203	0x3d7a18ed	0.061058927
204	0x3f055b24	0.52092195
205	0xbef4e602	-0.47831732
206	0xbf148b28	-0.58024836
207	0xbf44ebad	-0.7692211
208	0xbf4b6797	-0.7945494
209	0xbf085164	-0.5324919
210	0xbeef1642	-0.4669667
211	0xbed13ab4	-0.408651
212	0xbebf39d6	-0.37348813
213	0xbee4869d	-0.44633952
214	0xbeec799f	-0.4618654
215	0xbc939b47	-0.018018378
216	0x3cf1ca3e	0.029515382
217	0x3d36f013	0.044662546
218	0x3e107913	0.14108686
219	0x3de507d8	0.11183137
220	0xbf1e0fe2	-0.61742985
221	0xbf336e7c	-0.7009046
222	0xbeef4620	-0.4673319
223	0xbef00d5c	-0.46885192
224	0xbf1cf039	-0.6130405
225	0xbef04b35	-0.46932378
226	0xbee72055	-0.45141855
227	0xbeb8d361	-0.3609877
228	0xbee11d1b	-0.43967518
229	0xbee4ebc5	-0.44711128
230	0xbeb85d60	-0.3600874
231	0xbeb03575	-0.34415784
232	0xbebea570	-0.37235594
233	0xbedb5d6b	-0.4284471
234	0xbecd4ee1	-0.40099242
235	0xbf3a5450	-0.727849
236	0xbf41d76a	-0.7571932
237	0xbf42d29b	-0.7610261
238	0xbf476afc	-0.7789762
239	0xbf4c6350	-0.7983904
240	0xbf2a918c	-0.66628337
241	0xbf19fc6c	-0.6015079
242	0xbf519ef2	-0.81883156
243	0xbf5e1fe1	-0.86767393
244	0xbed40011	-0.414063
245	0xbe47b7a1	-0.19503643
246	0xbe3ec24c	-0.18628806
247	0xbe81d8f0	-0.25360823
248	0xbecd577e	-0.40105814
249	0xbe53f8c2	-0.20700362
250	0x3ef7503c	0.483034
251	0x3ee92090	0.45532656
252	0x3eafee60	0.34361553
253	0x3db6cf75	0.08926288
254	0x3f407c71	0.7518988
255	0xbec9419a	-0.39307863

lstm.weight_hh_l0 f4 [256, 64]
0	0x3d410f5b	0.047133785
1	0x3ea5d46e	0.32388633
2	0xbdbb4555	-0.091440834
3	0xbe99bce3	-0.30026922
4	0x3db260c2	0.08709861
5	0xbdb7e4ba	-0.08979173
6	0x3e1df942	0.15427116
7	0xbe5d2071	-0.21594407
8	0x3e936119	0.28785017
9	0x3dd61a3b	0.10454222
10	0xbdb820a1	-0.089905985
11	0x3c4fdc4f	0.012686803
12	0x3e6f1660	0.23348379
13	0x3d9952e7	0.074865155
14	0xbd30e597	-0.043187704
15	0x3e0d8c65	0.13823088
16	0x3e550218	0.2080158
17	0xbdd7c88c	-0.10536298
18	0xbe2a56ca	-0.1663467
19	0x3dac3ecf	0.08410417
20	0x3bf84cbe	0.0075775078
21	0x3e759d02	0.23985675
22	0x3e5106f5	0.2041281
23	0x3e6538cc	0.22384948
24	0xbda114e9	-0.078653164
25	0x3daaf394	0.0834724
26	0x3dec78ac	0.11546454
27	0xbddba8ad	-0.10725532
28	0xbe23e102	-0.16003802
29	0xbe7badbd	-0.24577995
30	0xbcab9e87	-0.020949615
31	0x3f10bec8	0.5654111
32	0xbe1ab231	-0.15107037
33	0xbec92d3d	-0.39292327
34	0x3d9523c0	0.072822094
35	0xbdca1425	-0.098671235
36	0x3c597149	0.013271638
37	0x3e84e173	0.25953254
38	0xbe2ab536	-0.16670689
39	0x3e19be1b	0.15013926
40	0xbf295e52	-0.66159546
41	0x3dcd1e83	0.10015585
42	0x3dbd00a8	0.09228641
43	0x3eb55d25	0.35422626
44	0xbdf8ee76	-0.12154858
45	0xbe3af239	-0.18256463
46	0x3de0226a	0.10944064
47	0x3d343913	0.043999743
48	0xbe140166	-0.14453658
49	0x3dd40b9d	0.103537776
50	0xbec6d41a	-0.38833696
51	0xbd4d98e0	-0.05019462
52	0x3dc75629	0.097332306
53	0x3bfb7691	0.0076740463
54	0x3eb25d9c	0.34837043
55	0xbd63b7cc	-0.055595204
56	0x3dd49366	0.103796765
57	0xbddff973	-0.109362505
58	0xbc174753	-0.009233314
59	0xbe3c52a4	-0.183909
60	0x3f2c1b4b	0.67229146
61	0x3f1acde4	0.60470414
62	0xbd655240	-0.055986643
63	0x3da64661	0.081188925
64	0x3ef0e404	0.47048962
65	0xbe6412b9	-0.22272767
66	0x3e74d480	0.23909187
67	0xbe48a68d	-0.19594784
68	0xbeacd94d	-0.33759537
69	0xbd979e8f	-0.074032895
70	0xbd82ba86	-0.06383233
71	0x3dc0d4f5	0.09415618
72	0xbe9f38ca	-0.31098014
73	0x3e29b97e	0.16574666
74	0x3cea2537	0.028582199
75	0x3e0a2595	0.13490899
76	0xbe91297a	-0.28351957
77	0xbe685611	-0.22689082
78	0x3dca5f20	0.09881425
79	0x3e92e848	0.28692842
80	0x3e29d252	0.16584137
81	0x3e0315ab	0.12801234
82	0x3e3b2781	0.18276788
83	0x3e3d279f	0.18472145
84	0x3e702aa7	0.2345377
85	0xbf195a26	-0.5990318
86	0x3e924ec3	0.28575715
87	0xbd0831dd	-0.03325068
88	0xbcfd38e8	-0.030910924
89	0x3e8c37e9	0.27386406
90	0xbe96c5ba	-0.29447728
91	0x3e260c50	0.16215634
92	0x3f383cea	0.7196795
93	0x3c87d984	0.016583212
94	0xbd502621	-0.050817613
95	0xbc1b8d4a	-0.009494135
96	0x3e27ac6c	0.16374367
97	0x3dc6c53b	0.097055875
98	0x3d7b9337	0.061419692
99	0xbe1036ad	-0.14083357
100	0x3d9857c3	0.07438614
101	0x3e906dc1	0.28208736
102	0xbdd86757	-0.105665855
103	0x3e98e749	0.29863957
104	0xbed49e5c	-0.4152707
105	0x3decea8b	0.11568173
106	0xbe2748fd	-0.16336437
107	0x3d98e57f	0.07465648
108	0x3d3aed82	0.04563666
109	0xbcdacf59	-0.0267102
110	0x3e4a829e	0.19776389
111	0x3ccd573d	0.025066013
112	0x3d6fc3bf	0.058536287
113	0xbe305895	-0.17221291
114	0x3d4a86d3	0.049444985
115	0x3f20069e	0.625101
116	0x3e576f74	0.2103861
117	0xbd7d4ab4	-0.06183882
118	0xbdfe6185	-0.12420944
119	0xbeb6ba8f	-0.35689208
120	0xbd9e06f0	-0.07716167
121	0x3de40704	0.111341506
122	0xbd859252	-0.06522049
123	0x3ee8f284	0.45497525
124	0xbeca9802	-0.39569098
125	0xbf383ca2	-0.7196752
126	0xbda2b12e	-0.079439506
127	0x3e7d152c	0.24715108
128	0xbd3389b7	-0.043832507
129	0xbe10f580	-0.14156151
130	0xbe25709e	-0.16156241
131	0xbea9872d	-0.33110943
132	0xbccb2110	-0.024796039
133	0xbd10b971	-0.0353331
134	0x3d8b08e8	0.06788808
135	0xbc630ace	-0.0138575565
136	0xbbc1cf8b	-0.0059146336
137	0x3e8efdde	0.2792806
138	0x3d60c9f8	0.054880112
139	0xbd90cc53	-0.07070222
140	0xbd68cc1d	-0.056835283
141	0xba9329a6	-0.0011227622
142	0xbdece58b	-0.11567219
143	0x3eea148b	0.45718798
144	0x3d8e86a3	0.06959274
145	0x3d13d552	0.03609211
146	0xbbc64294	-0.006050417
147	0x3da68692	0.08131136
148	0x3d39fa4a	0.04540471
149	0x3dd0282b	0.101639114
150	0x3d961ab1	0.0732931
151	0xbdb2f42d	-0.08737979
152	0xbdd37d07	-0.103265814
153	0xbd9ac95d	-0.07557938
154	0xbd9c9bfd	-0.0764694
155	0xbe0c884d	-0.1372387
156	0xbe990630	-0.29887533
157	0xbe0f2f3d	-0.13982864
158	0x3d53fee4	0.051756755
159	0x3edf9ec0	0.43675804
160	0xbe106f05	-0.1410485
161	0x3dfeb587	0.12436967
162	0x3d5b679e	0.053565614
163	0x3d0ca8c4	0.034340635
164	0xbd7a7cb4	-0.061154082
165	0x3c8425e9	0.016131358
166	0xbeae97bf	-0.34100148
167	0xbd2f7348	-0.04283455
168	0xbf19b861	-0.60046965
169	0x3dff56ca	0.124677256
170	0x3e2f1eec	0.1710164
171	0x3db0ea17	0.08638399
172	0x3c88b141	0.016686084
173	0x3cc25674	0.023722865
174	0x3d3eba2d	0.04656427
175	0xbd99eabe	-0.07515477
176	0x3d834d33	0.06411209
177	0xbdc32563	-0.09528615
178	0xbf151f0b	-0.5825049
179	0x3e0de76f	0.13857816
180	0xbd13dabf	-0.036097284
181	0xbd72e3ad	-0.05929916
182	0x3dde577c	0.1085653
183	0x3ca7ddbc	0.020491473
184	0xbdcca756	-0.09992854
185	0x3d8da17a	0.06915565
186	0xbd147554	-0.036244705
187	0xbe33c236	-0.17554554
188	0xbc93e925	-0.018055508
189	0x3e20a0b6	0.15686306
190	0xbd654482	-0.055973537
191	0x3e86f87e	0.2636146
192	0x3e2e1ed9	0.17003955
193	0x3d9994e3	0.07499101
194	0x3e204310	0.15650582
195	0xbd7f06e8	-0.062262446
196	0xbe31c3c4	-0.17359835
197	0xbdf903d5	-0.12158934
198	0x3dc1a1a1	0.094546564
199	0x3e9a377d	0.3012046
200	0x3c679270	0.0141340345
201	0xbc9c2923	-0.019062584
202	0x3e10f624	0.14156395
203	0x3c020c92	0.007937567
204	0xbd359d97	-0.044339743
205	0xbdcff56e	-0.10154234
206	0x3f311cac	0.69184375
207	0xbc68b63f	-0.014203607
208	0x3e2585fc	0.16164392
209	0x3d631cb9	0.055447314
210	0x3e89a553	0.26883945
211	0x3c822457	0.015886469
212	0xbe071110	-0.13190103
213	0xbe01a234	-0.12659532
214	0x3e4fae66	0.20281371
215	0x3d816aff	0.06319236
216	0x3cca6ee3	0.024711078
217	0x3dbfb329	0.09360344
218	0xbdd34343	-0.103155635
219	0xbdf2b5ba	-0.11851068
220	0x3ed4677f	0.4148521
221	0x3cc3c0ad	0.023895586
222	0x3d23eb0d	0.040019084
223	0xbebb1eb2	-0.36546856
224	0x3e54478f	0.20730422
225	0xbda1ca69	-0.07899935
226	0xbe368550	-0.17824292
227	0xbdb4a311	-0.08820165
228	0xbd2212c3	-0.039568674
229	0x3dc3d8d7	0.09562843
230	0xbe4d59ab	-0.20053737
231	0x3c58972c	0.013219636
232	0xbe854761	-0.2603102
233	0x3d9e391d	0.07725737
234	0xbe5f0fb7	-0.21783338
235	0xbe0be5aa	-0.13661829
236	0xbd846d40	-0.0646615
237	0x3e28ae00	0.16472626
238	0xbc160247	-0.009155816
239	0x3c17e302	0.0092704315
240	0x3d81cad3	0.06337514
241	0x3e729700	0.23690414
242	0x3e3fbb07	0.18723689
243	0x3e830a31	0.25593713
244	0x3da2fa52	0.07957901
245	0x3d555949	0.052087102
246	0xbeda838c	-0.42678487
247	0xbeb6cb33	-0.35701904
248	0x3cd1ffc5	0.025634656
249	0x3e2ad829	0.16684021
250	0x3d8b109a	0.06790276
251	0xbd18c97c	-0.037301525
252	0xbe7586bb	-0.23977177
253	0xbf561604	-0.83627343
254	0xbd5fb654	-0.05461724
255	0x3e226d98	0.15862119

lstm.bias_ih_l0 f4 [256]
0	0xbf2fb005	-0.6862796
1	0xbeb0eca7	-0.3455555
2	0xbf937a59	-1.1521713
3	0x3ea457ec	0.3209833
4	0xbead3d8e	-0.33836025
5	0xbeac14dd	-0.33609667
6	0xbed2a526	-0.41141623
7	0xbf9fbc9a	-1.2479432
8	0xbd67a1f8	-0.05655095
9	0xbec59672	-0.38591343
10	0xbfa997bb	-1.324943
11	0xbf7e9334	-0.99443364
12	0xbcdc29b2	-0.02687535
13	0xbe6a8a6e	-0.22904369
14	0xbf05051f	-0.5196094
15	0x3f42846b	0.75983304
16	0xbf0562e7	-0.5210404
17	0xbfa27417	-1.2691678
18	0xbe620aef	-0.22074483
19	0xbf62a3ac	-0.88530993
20	0xbf86c39b	-1.0528444
21	0xbec9a29c	-0.39381874
22	0xbe69a8a9	-0.22818245
23	0x3e078693	0.1323493
24	0xbf74995f	-0.95546526
25	0x3c657201	0.014004231
26	0xbf159ae9	-0.584395
27	0xbf11a9fb	-0.56899995
28	0xbeb59f86	-0.3547327
29	0xbf80a8f1	-1.0051557
30	0xbe93b8b9	-0.2885187
31	0xbe4e8f0c	-0.20171756
32	0xbfa22a9d	-1.2669255
33	0xbc98db09	-0.018659132
34	0xbf4b4bb8	-0.7941241
35	0xbf4a80ca	-0.79102767
36	0xbf0b6f75	-0.54466945
37	0xbca11724	-0.019664355
38	0x3e1ed4ad	0.15510817
39	0xbf088eb3	-0.5334274
40	0x3eb82c21	0.35971168
41	0xbf24fda0	-0.644495
42	0xbf0cddf2	-0.5502616
43	0xbe210ee2	-0.15728334
44	0xbf9122c8	-1.1338739
45	0xbea73cfb	-0.32663712
46	0xbebc3290	-0.36757326
47	0xbfb0be0c	-1.3807998
48	0xbf936274	-1.151442
49	0xbf248696	-0.6426786
50	0x3f0db837	0.55359215
51	0xbcb9417b	-0.022614231
52	0xbfa8f5e9	-1.3200046
53	0xbf9f5a99	-1.2449523
54	0xbf19427a	-0.5986706
55	0xbebdaf7d	-0.3704795
56	0xbfa30ce4	-1.2738309
57	0xbfb784bc	-1.4337382
58	0xbfa1ed38	-1.2650518
59	0xbe1ce992	-0.15323475
60	0xbd7d6fc7	-0.061874177
61	0x3d3b4969	0.045724306
62	0xbfa20372	-1.2657301
63	0x3f55ac3d	0.8346594
64	0xbed120f6	-0.4084546
65	0xbe895da8	-0.26829267
66	0xbf270183	-0.6523668
67	0xbe6a6bbe	-0.22892663
68	0xbec1a96f	-0.3782458
69	0xbebcf0a9	-0.3690236
70	0xbed6256c	-0.41825426
71	0xbf184355	-0.5947774
72	0xbce00c00	-0.027349472
73	0xbe839973	-0.2570301
74	0xbf25c49f	-0.64753145
75	0xbf625284	-0.8840716
76	0xbec3bae1	-0.38228515
77	0xbeead469	-0.4586518
78	0xbee20f8a	-0.4415248
79	0xbe8802e6	-0.2656471
80	0x3dcfa055	0.10138003
81	0xbf1f9c66	-0.6234802
82	0xbf0751d8	-0.5285926
83	0xbf53328b	-0.82499
84	0xbefb8c8d	-0.4913067
85	0xbe157f16	-0.1459926
86	0xbd44b9e6	-0.04802885
87	0x3bd6976e	0.0065488135
88	0xbf0ec0c4	-0.55762887
89	0xbe1a31c0	-0.1505804
90	0xbf69afd1	-0.912839
91	0xbf39fae1	-0.72648436
92	0xbdb82c59	-0.08992834
93	0xbf33c45d	-0.702215
94	0xbf33a383	-0.70171374
95	0xbd5771c9	-0.05259875
96	0xbf49af00	-0.78782654
97	0xbe8dac52	-0.27670532
98	0xbf3f17e3	-0.74645823
99	0xbf562fe8	-0.8366685
100	0xbf312ee4	-0.69212174
101	0xbecd6d14	-0.40122283
102	0xbe8a75cc	-0.27042997
103	0xbece3f3e	-0.40282625
104	0xbe4d3131	-0.20038296
105	0xbf80207b	-1.0009912
106	0xbdf33761	-0.11875797
107	0x3dd699e4	0.10478571
108	0xbf4aa869	-0.79163224
109	0xbef157d3	-0.47137317
110	0xbf267ded	-0.650359
111	0xbf316ec7	-0.6930966
112	0xbf44fe6d	-0.7695072
113	0xbdcf5bbc	-0.10124919
114	0xbd6a29ae	-0.057168655
115	0xbf0b8038	-0.5449252
116	0xbf07c29b	-0.5303132
117	0xbf39e83e	-0.7262
118	0xbe79d48d	-0.24397488
119	0xbe875297	-0.264302
120	0xbf579d46	-0.84224355
121	0xbf1b3d29	-0.606402
122	0xbf2f7879	-0.685432
123	0xbd8eca9d	-0.06972239
124	0x3e82195f	0.25409982
125	0xbe399938	-0.18124855
126	0xbf3323b6	-0.69976366
127	0xbe802324	-0.2502681
128	0x3d373bc8	0.044734746
129	0xbc409ab5	-0.011755635
130	0xbbdef08c	-0.0068035778
131	0xbdd9a7d9	-0.106277175
132	0xbd1727f1	-0.036903325
133	0x3d06b5fd	0.0328884
134	0xbdcb4e1e	-0.09927009
135	0x3d63f070	0.05564922
136	0xbd96ebac	-0.073691696
137	0xbd66eb66	-0.056376837
138	0xbd6b600c	-0.057464644
139	0xbc9a72b2	-0.01885352
140	0xbd372265	-0.044710536
141	0x3d99a997	0.0750305
142	0xbd1573ee	-0.036487512
143	0xbd21d8ef	-0.039513525
144	0xbd9ccfe4	-0.076568395
145	0xbc142fc7	-0.009044594
146	0xbdd047a6	-0.10169916
147	0x3c84535c	0.01615303
148	0xbda850a8	-0.08218509
149	0x3e145924	0.1448713
150	0x3cad908e	0.021187093
151	0x3cbaf7d6	0.022823256
152	0xbc97ad2c	-0.018515192
153	0xbe2eecc3	-0.17082505
154	0xbc418315	-0.011811038
155	0x3a9dde9b	0.0012044491
156	0xbdf50459	-0.1196372
157	0xbc5e4382	-0.0135659
158	0xbd85ca8e	-0.06532775
159	0x3d6de97b	0.058083992
160	0x3d3ee5c9	0.04660586
161	0x3b06c527	0.002056429
162	0x3de75b48	0.112967074
163	0x3de1fd43	0.11034634
164	0x3b96e7e9	0.0046052826
165	0x3d932ecc	0.0718666
166	0xbcdd9eac	-0.0270532
167	0x3da29e2f	0.079403274
168	0x3c842bf1	0.016134234
169	0xbd880966	-0.066424176
170	0xbca666d0	-0.020312697
171	0x3d1311d8	0.03590569
172	0x3b2f9bf5	0.0026795838
173	0xbcae701b	-0.02129369
174	0x3d488f82	0.048964985
175	0x3d5c8818	0.053840727
176	0xbd9a04c0	-0.07520437
177	0xbdf39612	-0.11893858
178	0xbd8f635f	-0.070013754
179	0x3d6f2843	0.058388006
180	0xbc529313	-0.012852448
181	0x3ce15ec3	0.027511006
182	0xbc061823	-0.008184466
183	0xbcb94c52	-0.0226194
184	0x3cd2287c	0.02565407
185	0xbb8f5e15	-0.004375229
186	0xbca2742f	-0.019830791
187	0xb9e8934b	-0.0004436023
188	0xbdced325	-0.100988664
189	0xbe601ccf	-0.2188599
190	0x3d4ec880	0.05048418
191	0x3d658caa	0.05604235
192	0xbf2a6b9b	-0.6657044
193	0xbeb92743	-0.36162767
194	0xbfa6f327	-1.3042954
195	0x3e7bfa18	0.24607122
196	0xbed30311	-0.41213277
197	0xbeaa2b4d	-0.3323616
198	0xbef8cf74	-0.48595774
199	0xbf99816a	-1.1992619
200	0xbdf9b13c	-0.12192008
201	0xbedb944a	-0.42886573
202	0xbfa985a1	-1.3243905
203	0xbf655e44	-0.8959696
204	0xbdaa60fa	-0.08319278
205	0xbea3ccf5	-0.31992307
206	0xbf058d50	-0.5216875
207	0x3f35d2a1	0.7102452
208	0xbeac4cd8	-0.33652377
209	0xbfb59142	-1.4184954
210	0xbeafa73f	-0.34307286
211	0xbf621e10	-0.8832712
212	0xbf6481b3	-0.89260405
213	0xbe9dcd08	-0.3082049
214	0xbe68947e	-0.22712895
215	0xbce21b5c	-0.027600937
216	0xbf911681	-1.1334993
217	0x3ca2cf1c	0.019874148
218	0xbf03d925	-0.5150321
219	0xbed1fc8b	-0.41012987
220	0xbe71f8b3	-0.23630027
221	0xbf80d78d	-1.0065781
222	0xbe89b574	-0.2689625
223	0xbd8949bf	-0.06703519
224	0xbf9af907	-1.2107247
225	0xbcb5fdf9	-0.02221583
226	0xbf47a162	-0.77980626
227	0xbf1c43d2	-0.61040986
228	0xbef255d5	-0.4733111
229	0xbd7ab75d	-0.061210025
230	0x3e54f9c7	0.20798407
231	0xbeaf5942	-0.34247786
232	0x3e95c4dc	0.29251754
233	0xbf14f4c4	-0.5818598
234	0xbee5345c	-0.4476651
235	0xbe71e324	-0.23621804
236	0xbf966dd2	-1.1752264
237	0xbee444a6	-0.44583625
238	0xbe9fd82c	-0.31219614
239	0xbfb52d46	-1.4154441
240	0xbf82749a	-1.0191834
241	0xbf1318b2	-0.5745956
242	0x3eb0a1f3	0.34498557
243	0x3d09409e	0.03350889
244	0xbf92dbcb	-1.1473325
245	0xbf929728	-1.1452379
246	0xbf0e7f5e	-0.55663097
247	0xbeb9f0cb	-0.36316523
248	0xbfa972c9	-1.3238155
249	0xbfa98113	-1.3242515
250	0xbfac6b11	-1.3470174
251	0xbe8a756f	-0.2704272
252	0x3e239aa4	0.1597696
253	0xbe56a8a9	-0.20962776
254	0xbf96267b	-1.1730493
255	0x3f6b6775	0.9195474

lstm.bias_hh_l0 f4 [256]
0	0xbf3e2f97	-0.74291366
1	0xbe9f62ea	-0.31130153
2	0xbfa034f1	-1.2516156
3	0x3e915cd9	0.2839115
4	0xbeecb6d9	-0.46233252
5	0xbeb74f0f	-0.35802504
6	0xbf0c97c7	-0.54919094
7	0xbfa8daec	-1.319181
8	0xbda0ed0b	-0.07857712
9	0xbf04a32f	-0.518115
10	0xbf9aa553	-1.2081703
11	0xbf52ba6d	-0.82315713
12	0x3d4209eb	0.04737274
13	0xbe9275c3	-0.2860547
14	0xbf1e0069	-0.61719376
15	0x3f522b87	0.8209767
16	0xbee4a31b	-0.4465569
17	0xbfaf19b9	-1.3679725
18	0xbee1d122	-0.44104868
19	0xbf8066bb	-1.0031351
20	0xbf8b0e2a	-1.0863698
21	0xbea6bcb4	-0.32565844
22	0xbe9199ef	-0.28437755
23	0x3e2ba684	0.1676274
24	0xbf862383	-1.0479587
25	0xbe214032	-0.15747145
26	0xbf2741fb	-0.65335053
27	0xbeaf35e7	-0.34220812
28	0xbec6dd8d	-0.38840905
29	0xbf82bb08	-1.0213327
30	0xbee8fc89	-0.4550517
31	0xbda7f072	-0.08200158
32	0xbfa9e9b9	-1.3274451
33	0x3bfa20a4	0.0076332856
34	0xbf6692e1	-0.9006787
35	0xbf28829f	-0.6582431
36	0xbf124f07	-0.57151836
37	0xb99ebc58	-0.00030276435
38	0x3e2fde3f	0.17174624
39	0xbeb2a8b3	-0.34894332
40	0x3efa1ca9	0.4884999
41	0xbf2ce6f6	-0.6753992
42	0xbeaa4f77	-0.33263752
43	0xbce1afcd	-0.027549649
44	0xbf9102d2	-1.1328986
45	0xbeb37abd	-0.3505458
46	0xbee05587	-0.43815252
47	0xbfaece6f	-1.3656749
48	0xbf6bce93	-0.9211208
49	0xbf21cb7a	-0.63201106
50	0x3efce233	0.49391326
51	0x3dcd5e9c	0.10027811
52	0xbf94f118	-1.1636076
53	0xbf8fd49d	-1.123676
54	0xbec92976	-0.39289445
55	0xbf08fbe0	-0.5350933
56	0xbfa2daea	-1.2723057
57	0xbfb7da2b	-1.4363455
58	0xbfa0333e	-1.2515638
59	0xbe146e0a	-0.14495102
60	0x3d7b6f8f	0.061385687
61	0xbe065294	-0.13117439
62	0xbf9a6c7d	-1.2064358
63	0x3f4b797f	0.79482263
64	0xbebb0e45	-0.36534324
65	0xbe4c7de0	-0.19969893
66	0xbf1e9472	-0.6194526
67	0xbe1f96d2	-0.15584877
68	0xbec5fb6c	-0.38668382
69	0xbec33a55	-0.3813044
70	0xbeac7613	-0.33683833
71	0xbf19c2a0	-0.600626
72	0xbc56b23a	-0.013104016
73	0xbed3fc93	-0.41403636
74	0xbf2c39b5	-0.67275554
75	0xbf788f58	-0.97093725
76	0xbe9b28dd	-0.30304614
77	0xbeee84ff	-0.46585843
78	0xbf0060de	-0.5014781
79	0xbe86fa71	-0.26362947
80	0x3e483e48	0.19555008
81	0xbf5147b1	-0.8175002
82	0xbefdf730	-0.49602652
83	0xbf644f54	-0.89183545
84	0xbf253080	-0.6452713
85	0xbd78b5f2	-0.06072039
86	0x3dd46692	0.10371126
87	0xbdca742e	-0.09885441
88	0xbf0f53c8	-0.55987215
89	0xbe2cb3f4	-0.16865522
90	0xbf3df14e	-0.74196327
91	0xbf23aa27	-0.63931507
92	0xbde0b669	-0.10972292
93	0xbf301dcc	-0.68795466
94	0xbf213a25	-0.62979347
95	0xbdf80b98	-0.12111586
96	0xbf533760	-0.8250637
97	0xbe3c0f4f	-0.18365215
98	0xbf611f2e	-0.879382
99	0xbf366f66	-0.7126373
100	0xbf4b0498	-0.79303885
101	0xbe9bf78f	-0.3046231
102	0xbe1a62cd	-0.15076752
103	0xbee63512	-0.44962364
104	0xbe832671	-0.25615266
105	0xbf802364	-1.00108
106	0xbe06b75b	-0.13155882
107	0x3e68c684	0.22731978
108	0xbf3bd3f6	-0.733703
109	0xbf084df9	-0.53243977
110	0xbf5791e1	-0.8420697
111	0xbf318180	-0.69338226
112	0xbf775125	-0.9660819
113	0xbdedbf1e	-0.11608718
114	0xbe3aa4f0	-0.18226981
115	0xbece7f42	-0.40331465
116	0xbf0de9fe	-0.5543517
117	0xbf5e5584	-0.86849236
118	0xbe933e3b	-0.28758416
119	0xbe69c36e	-0.22828457
120	0xbf429ab9	-0.7601734
121	0xbf4ce316	-0.80034006
122	0xbf1eaa29	-0.61978394
123	0x3e1a2d18	0.15056264
124	0x3e5d26b6	0.21596798
125	0xbe21ae4a	-0.15789142
126	0xbf35de12	-0.7104198
127	0xbcffc546	-0.031221997
128	0xbc9894bd	-0.018625611
129	0xbd31dc44	-0.043422952
130	0x3bbf7195	0.0058423975
131	0xbd87000f	-0.06591808
132	0x3ce0be89	0.027434604
133	0xbc6b5003	-0.014362338
134	0x3c8bea2b	0.017079433
135	0xbd5793b8	-0.05263111
136	0xbd7e4f82	-0.062087543
137	0x3d6ac6e4	0.057318583
138	0x3ce6e346	0.028184544
139	0xbd3fc011	-0.04681403
140	0xbc043522	-0.0080693085
141	0xbd80e205	-0.0629311
142	0xbb6e3731	-0.0036348815
143	0x3e26e054	0.16296512
144	0x3b946ad6	0.0045293374
145	0x3d91c74f	0.07118093
146	0x3dad08ff	0.084489815
147	0x3d23e4f2	0.04001326
148	0x3e07dcf2	0.13267878
149	0x3c078b49	0.008272954
150	0x3ca1d172	0.019753192
151	0x3a3abf16	0.0007123811
152	0xbd7174a0	-0.058949113
153	0xbdec369d	-0.11533854
154	0xbc961b7b	-0.01832365
155	0x3ce59063	0.02802295
156	0xbcbfede4	-0.023428865
157	0xbcbfc56b	-0.023409566
158	0x3db54e43	0.08852818
159	0x3c2fde3b	0.010734136
160	0x3b88789c	0.0041647684
161	0x3d75698d	0.059915114
162	0xbd1525a6	-0.036412857
163	0xbd5f2b66	-0.054484747
164	0xbd673188	-0.05644372
165	0xbe20d103	-0.15704732
166	0xbdf86e8a	-0.12130459
167	0xbd4f3697	-0.05058917
168	0xbd3d9e27	-0.046293404
169	0x3d5409d9	0.051767204
170	0x3dd494c4	0.10379937
171	0x3cb1d98f	0.021710185
172	0x3d16f38d	0.036853362
173	0x3d226b04	0.03965284
174	0x3c468ccb	0.012118529
175	0xbdbd99c4	-0.09257844
176	0x3d6cfdb1	0.057859126
177	0xbbcc67de	-0.006237968
178	0xbd018484	-0.031620517
179	0x3c650a86	0.01397956
180	0x3d9a3727	0.07530051
181	0xbd47f9fb	-0.048822384
182	0x3df261a5	0.118350305
183	0x3d2f1af0	0.0427503
184	0xbbe774d8	-0.0070634894
185	0xbbe47538	-0.0069719814
186	0x3d7e6605	0.062109012
187	0xbd85254d	-0.06501255
188	0x3bcde277	0.0062831
189	0xbe32e016	-0.17468295
190	0xbd61375a	-0.054984428
191	0x3e0b9e65	0.13634641
192	0xbf411645	-0.75424606
193	0xbebe9bd5	-0.37228265
194	0xbf9c8052	-1.222666
195	0x3e454378	0.19264019
196	0xbed6a61b	-0.41923603
197	0xbed889af	-0.42292544
198	0xbf028fce	-0.5100068
199	0xbfa1f7f5	-1.2653795
200	0x39980a2a	0.00028999272
201	0xbefc6e45	-0.4930288
202	0xbfa0f576	-1.2574909
203	0xbf4eb40a	-0.8074347
204	0xbd23f931	-0.04003257
205	0xbe7a9ecf	-0.24474643
206	0xbf1e00e2	-0.617201
207	0x3f51a211	0.8188792
208	0xbe915edc	-0.28392684
209	0xbfa13b64	-1.259625
210	0xbedd787f	-0.43255994
211	0xbf5b2233	-0.8559906
212	0xbf807dbd	-1.0038372
213	0xbebfa8bf	-0.3743343
214	0xbe609715	-0.21932633
215	0x3e307c9d	0.17235036
216	0xbf85f15b	-1.0464281
217	0x3e4ddae5	0.20103033
218	0xbf0a2b09	-0.53971916
219	0xbeab75ab	-0.3348821
220	0xbe382813	-0.17984037
221	0xbf5995b0	-0.8499403
222	0xbeb0c2d5	-0.34523645
223	0xbe12fc9e	-0.14354178
224	0xbf9daa6e	-1.2317636
225	0x3d4b407b	0.04962204
226	0xbf674e40	-0.90353775
227	0xbf1184d2	-0.5684329
228	0xbf00fbb6	-0.5038408
229	0xbe488eda	-0.19585744
230	0x3ddc2667	0.10749512
231	0xbeb98af2	-0.3623882
232	0x3e8f53f5	0.27993742
233	0xbf1618e8	-0.58631754
234	0xbedb1611	-0.42790273
235	0xbe97ba58	-0.29634356
236	0xbf84c4dc	-1.0372577
237	0xbe9b0943	-0.30280504
238	0xbece1e6f	-0.40257594
239	0xbfa56fa3	-1.2924694
240	0xbf80139c	-1.0005984
241	0xbf138d6a	-0.57637656
242	0x3e57b4d3	0.21065073
243	0x3ddd9fa7	0.10821467
244	0xbf9c1e83	-1.2196811
245	0xbf99c43a	-1.2013009
246	0xbf03d0cd	-0.5149048
247	0xbed754fd	-0.42057028
248	0xbfb39639	-1.4030219
249	0xbf9ead3b	-1.2396616
250	0xbfb24d64	-1.3929868
251	0xbe4e1659	-0.20125712
252	0x3e1e5543	0.15462212
253	0xbce14960	-0.027500808
254	0xbf92dc3c	-1.147346
255	0x3f828834	1.0197816

fc.weight f4 [1, 64]
0	0x3aabc0cd	0.0013103724
1	0x3e172658	0.1476072
2	0x3d633a0a	0.055475272
3	0x3e9928e4	0.2991401
4	0xbd4be44b	-0.049778264
5	0x3e1855d9	0.14876498
6	0x3e318e1c	0.17339367
7	0x3d7472a4	0.059679642
8	0x3dbabf11	0.09118474
9	0xbe31533f	-0.17316912
10	0x3d0cb18b	0.034349006
11	0x3e026f13	0.12737684
12	0x3e4a1ee0	0.1973834
13	0x3e368b96	0.17826685
14	0x3bd3ebb9	0.0064673093
15	0xbe764bac	-0.24052304
16	0x3d05ab8c	0.032634303
17	0x3b893510	0.0041872337
18	0x3e4abab2	0.19797781
19	0xbe11a04b	-0.14221303
20	0xbddea764	-0.10871771
21	0xbd927757	-0.071516685
22	0x3d1b147f	0.037861343
23	0x3ddbd6a8	0.10734302
24	0x3d8360db	0.06414958
25	0x3e683879	0.22677793
26	0xbdf55178	-0.119784296
27	0x3e1a54a0	0.15071344
28	0x3d1faed3	0.038985085
29	0x3ded0829	0.11573822
30	0x3e25a046	0.1617442
31	0xbe0772eb	-0.13227431
32	0xbd83a86d	-0.06428609
33	0xbe39d836	-0.18148884
34	0xbdfea641	-0.12434054
35	0xbde2e081	-0.11077977
36	0x3e039ee4	0.1285358
37	0x3dc4a221	0.09601236
38	0x3e943ff2	0.28955036
39	0x3d60d475	0.054890115
40	0x3eb1943d	0.3468341
41	0x3e1c14a9	0.15242256
42	0x3de35f9e	0.11102222
43	0xbe38b93f	-0.18039416
44	0x3dde9008	0.108673155
45	0xbdf85d4a	-0.121271685
46	0x3e169df0	0.14708686
47	0x3da098d4	0.0784165
48	0x3dd97105	0.1061726
49	0x3dcbadc3	0.09945252
50	0x3e924d41	0.28574565
51	0xbe49151c	-0.19636959
52	0xba69c4cb	-0.0008917569
53	0x3dc05cce	0.09392701
54	0xbc20d77e	-0.009817002
55	0x3a977026	0.0011553809
56	0xbd92917f	-0.071566574
57	0x3bf5c448	0.007500205
58	0xbd87d517	-0.066324405
59	0xbdf3c65f	-0.11903071
60	0x3e2c11ab	0.16803615
61	0x3e22117b	0.15826981
62	0x3dbe2b29	0.09285576
63	0xbe64f455	-0.2235883
