weights/LSTM_L16_H64_E100_s3.pt (torch, 75119 bytes, 5 tensors)

lstm.weight_ih_l0 f4 [256, 5]
-0.69247794 -0.6844079 -0.67472523 -0.7640697 -0.5354439 -0.75217307 -0.5870057 -0.62879294
-0.68274105 -0.54812527 0.22551428 0.31631723 0.082937814 0.08341563 0.08970181 -0.101033695
-0.1634628 -0.029338319 -0.08144441 0.11762776 -0.36666787 -0.44616973 -0.2682606 -0.50054467
-0.4315867 0.56310457 0.5678609 0.5987116 0.44239536 0.5676027 0.07720331 0.21208757
0.0029989022 -0.042745236 0.06782389 -0.17276382 -0.12265788 -0.2106824 -0.14484732 -0.12227533
0.12221866 0.14227344 0.07025638 -0.0565047 0.22402738 -0.41252545 -0.47958001 -0.4665557
-0.48150137 -0.22500177 -0.5215568 -0.63125104 -0.5807735 -0.4369504 -0.47613585 -0.2998508
-0.40313357 -0.30906528 -0.3991904 -0.32790968 -0.2868761 -0.3317619 -0.39142156 -0.32566467
-0.46603066 -0.61323667 -0.50469637 -0.57941717 -0.41528374 -0.45760795 -0.16167949 -0.08317917
-0.22726573 -0.15998743 -0.07829625 0.061338052 -0.01782122 -0.016881669 -0.15887162 0.17013186
-0.6650297 -0.6450808 -0.6743344 -0.5686868 -0.41649505 -0.33869445 -0.15801121 -0.35286397
-0.35640606 -0.2383075 -0.4365065 -0.33338904 -0.47631428 -0.22658634 -0.36018032 -0.5806866
-0.71575534 -0.56582195 -0.6650462 -0.68577987 -0.43389255 -0.42432222 -0.5092736 -0.5817723
-0.45489952 -0.480794 -0.44856653 -0.48053017 -0.3744486 -0.49403802 -0.4763947 -0.45147187
-0.6288648 -0.65406686 -0.5172384 -0.60812944 -0.37082535 -0.40113607 -0.5451588 -0.44465372
-0.45611227 -0.60824406 -0.59743756 -0.5122447 -0.6232261 -0.45074213 -0.3464047 -0.4103262
-0.4475454 -0.39498603 -0.47289872 -0.5491762 -0.4938569 -0.5836055 -0.6302353 -0.266174
-0.1734508 -0.1483465 -0.294792 -0.20985258 -0.5922993 -0.5044502 -0.55442107 -0.54298383
-0.50013274 -0.050146874 -0.0063486258 -0.21826798 -0.07725874 0.22029229 -0.22192949 -0.031038921
-0.20260379 -0.1447771 0.048880134 0.41940242 0.58051926 0.4161871 0.37963864 0.55294806
-0.122749634 0.15067957 0.1472836 0.16694997 -0.20859678 -0.473364 -0.2943994 -0.40099
-0.39651114 -0.37410358 0.3472941 0.3288617 0.11690867 0.22167872 0.44094157 -0.5129807
-0.64576507 -0.5260561 -0.55665964 -0.61892056 0.4203232 0.31824538 0.37743282 0.36481282
0.43797106 -0.3085668 -0.29899228 -0.24533056 -0.43291143 -0.32200822 -0.2989929 -0.4718892
-0.43483293 -0.34029377 -0.3911521 -0.055567574 -0.162913 -0.2250684 -0.36128467 0.06231291
-0.7011701 -0.53792673 -0.57575065 -0.54542935 -0.54388297 -0.6097076 -0.4950049 -0.71069694
-0.54932433 -0.66946155 -0.7213335 -0.7159267 -0.5209175 -0.6089596 -0.7373406 -0.70939523
-0.61075735 -0.6752563 -0.6314807 -0.5215689 0.3816074 0.28759876 0.33374104 0.34873062
0.6095625 -0.4614549 -0.5144477 -0.5129644 -0.4998784 -0.61439705 -0.38198796 -0.24827406
-0.2967215 -0.30593044 -0.19171278 0.25612384 0.024919111 0.18532793 0.18835908 0.17782024
-0.5236361 -0.4849478 -0.72081965 -0.64003724 -0.5068811 -0.15183279 -0.19956066 -0.17515402
-0.31062943 -0.21326746 -0.52031237 -0.56273556 -0.5744747 -0.77766365 -0.63122153 -0.29330194
00000000: 3c46 31bf 5b35 2fbf cbba 2cbf 129a 43bf
00000010: da12 09bf 6a8e 40bf 0146 16bf 93f8 20bf
00000020: 1ec8 2ebf f051 0cbf 37ed 663e 55f4 a13e
00000030: 4ddb a93d d0d5 aa3d 95b5 b73d c1ea cebd
00000040: cb62 27be ea56 f0bc 54cc a6bd d3e6 f03d
00000050: e4bb bbbe 5c70 e4be 7459 89be b223 00bf
00000060: eff8 dcbe 9f27 103f 555f 113f 2a45 193f
00000070: a581 e23e 694e 113f c51c 9e3d 7c2d 593e
00000080: 3b89 443b a115 2fbd 40e7 8a3d 00e9 30be
00000090: 0e34 fbbd 21bd 57be db52 14be 7d6b fabd
000000a0: c74d fa3d 21b0 113e 94e2 8f3d 7971 67bd
000000b0: 6f67 653e 8936 d3be 838b f5be 64e0 eebe
000000c0: 5987 f6be dd66 66be bf84 05bf ab99 21bf
000000d0: 92ad 14bf f6b7 dfbe 14c8 f3be 0b86 99be
000000e0: 8667 cebe ce3d 9ebe af62 ccbe c7e3 a7be
000000f0: 6de1 92be b2dc a9be 6868 c8be 85bd a6be
00000100: 929b eebe 14fd 1cbf c833 01bf af54 14bf
00000110: 12a0 d4be 974b eabe 4f8f 25be d759 aabd
00000120: 59b8 68be bfd3 23be c959 a0bd 9c3d 7b3d
00000130: cffd 91bc 6d4b 8abc 3eaf 22be 0c37 2e3e
00000140: 633f 2abf 0424 25bf 2ea1 2cbf 7595 11bf
00000150: d73e d5be 5c69 adbe b1cd 21be 96aa b4be
00000160: db7a b6be e206 74be c87d dfbe f8b1 aabe
00000170: 77df f3be 4006 68be 8e69 b8be e1a7 14bf
00000180: be3b 37bf b5d9 10bf 7840 2abf 458f 2fbf
00000190: 2a27 debe c340 d9be c15f 02bf 08ef 14bf
000001a0: 97e8 e8be a22a f6be 83aa e5be 0d08 f6be
000001b0: bab7 bfbe 8df2 fcbe 02ea f3be 5227 e7be
000001c0: 49fd 20bf ed70 27bf bc69 04bf 5fae 1bbf
000001d0: d2dc bdbe b561 cdbe 878f 0bbf a7a9 e3be
000001e0: 8c87 e9be e2b5 1bbf abf1 18bf 7822 03bf
000001f0: bf8b 1fbf acc7 e6be f55b b1be 4716 d2be
00000200: ac24 e5be 9c3b cabe c81f f2be d096 0cbf
00000210: d0da fcbe 2c67 15bf 1a57 21bf f547 88be
00000220: 169d 31be 25e8 17be faee 96be 98e3 56be
00000230: eda0 17bf a623 01bf 8aee 0dbf fd00 0bbf
00000240: b308 00bf cf66 4dbd 2208 d0bb a481 5fbe
00000250: d539 9ebd 4d94 613e 7c41 63be 5645 febc
00000260: 5e77 4fbe 7340 14be 8936 483d eabb d63e
00000270: e99c 143f 7a16 d53e ff5f c23e 018e 0d3f
00000280: 2964 fbbd bf4b 1a3e 83d1 163e eff4 2a3e
00000290: 659a 55be c45c f2be 85bb 96be 904e cdbe
000002a0: 8203 cbbe 818a bfbe 88d0 b13e 9060 a83e
000002b0: d06d ef3d bfff 623e 18c3 e13e b452 03bf
000002c0: dc50 25bf 9dab 06bf 3f81 0ebf 9471 1ebf
000002d0: 9a34 d73e 0ff1 a23e e03e c13e bfc8 ba3e
000002e0: be3d e03e 78fc 9dbe 8415 99be ef37 7bbe
000002f0: 91a6 ddbe 43de a4be 9915 99be 769b f1be
00000300: 6ca2 debe fc3a aebe 1745 c8be d39a 63bd
00000310: aad2 26be 5578 66be 4efa b8be d23b 7f3d
00000320: e27f 33bf 91b5 09bf 6564 13bf 42a1 0bbf
00000330: ea3b 0bbf cc15 1cbf 4871 fdbe 3cf0 35bf
00000340: 85a0 0cbf d561 2bbf 50a9 38bf f946 37bf
00000350: d95a 05bf c7e4 1bbf 5bc2 3cbf ed9a 35bf
00000360: 985a 1cbf 99dd 2cbf b8a8 21bf 8a85 05bf
00000370: 0c62 c33e 2540 933e 1be0 aa3e d28c b23e
00000380: 4a0c 1c3f d143 ecbe d8b2 03bf a351 03bf
00000390: 10f0 ffbe 2049 1dbf ed93 c3be 8e3b 7ebe
000003a0: e1eb 97be eaa2 9cbe 5b50 44be aa22 833e
000003b0: 2a23 cc3c 9bc6 3d3e 34e1 403e 8216 363e
000003c0: 040d 06bf 144b f8be a387 38bf 7bd9 23bf
000003d0: f6c2 01bf 0e7a 1bbe a159 4cbe 935b 33be
000003e0: d20a 9fbe c962 5abe 3133 05bf 700f 10bf
000003f0: c610 13bf f714 47bf bc97 21bf ac2b 96be

lstm.weight_hh_l0 f4 [256, 64]
0.10616498 0.03933146 0.018521206 0.105654694 0.060985155 0.4695639 -0.07153604 0.05599895
0.06387989 0.11459033 0.06065233 -0.054108292 0.014268645 0.005539534 0.13271572 0.29488054
-0.077442974 -0.16549122 0.16878122 -0.066407606 0.0030291565 0.02577206 0.022892177 -0.035799548
-0.1320122 0.065193966 0.05154727 -0.11119501 -0.06392592 0.07652231 -0.14379027 0.74758595
-0.39492026 0.03951462 -0.6241189 -0.03372999 -0.028907714 -0.108462445 -0.032319654 0.2683164
-0.011094322 0.005901365 -0.028726606 -0.082351185 0.50947547 0.04919768 -0.16416723 -0.101784006
-0.054282725 -0.08131284 -0.047082327 -0.056008346 0.122533426 -0.014318662 -0.112700395 0.122544155
0.15155041 0.0150231905 -0.04782148 -0.11951715 0.114384785 -0.3670128 0.05775306 0.09911737
-0.0023421103 -0.049044076 0.11391301 0.25398082 0.12648758 0.66735816 0.016907051 0.058979012
0.29019988 0.018528165 -0.021542298 0.09084245 -0.113922425 0.12741353 0.06396066 0.44023842
0.05226375 -0.09310208 0.013668573 0.06888795 0.03708052 0.07504143 0.0859115 -0.007931712
-0.036161922 -0.041055676 0.089959756 -0.21206106 0.032537933 0.04309919 -0.17395535 0.5269858
-0.2919295 -0.0774778 -0.56416553 -0.06367766 0.026191883 0.04179977 0.0653574 0.3006157
0.045740344 0.10150929 0.011929014 0.10330697 0.6519424 0.016469337 -0.13528816 -0.109888025
0.083978385 -0.10187798 0.05591776 -0.10498074 -0.12323785 -0.040745437 -0.06804937 0.098902844
0.13207921 -0.08204379 0.016047867 0.11316791 0.047008477 -0.4124489 0.026728582 -0.064912185
0.34792942 -0.19567318 0.112506054 -0.8309378 -0.073940724 0.0046436875 0.4094483 0.3055706
-0.36136955 0.16676825 -0.20491877 -0.32566503 -0.14828281 -0.1877622 0.15809554 -0.5038537
-0.52613765 -0.16946986 0.32834876 0.20873162 0.11634396 0.16174349 -0.49057448 0.2283027
-0.36880773 0.03732263 -0.0653033 0.50842625 0.20175408 -0.37528327 0.8342912 -0.68671185
-0.42919484 0.11629887 0.36139333 -0.44760686 -0.7530902 0.11679986 0.20451061 -1.2813787
-0.07865972 0.0907136 -0.07665435 -0.3282403 -0.776957 0.039553545 0.28858283 -0.012404276
0.16625492 0.101917 0.0588883 -0.025271319 0.048394103 0.018347114 0.39361817 -0.24203002
-0.4089865 0.45256394 0.1980233 -0.47425538 -0.75970745 0.11733279 -0.6157567 -0.2511318
0.0056202784 -0.10177115 -0.20055526 -0.07296788 -0.04409046 0.5360812 -0.040497158 0.244715
0.09125957 0.0031758852 0.08344852 -0.041211307 -0.025860477 0.023720855 0.07705579 0.78203356
0.022201534 -0.16658682 0.2610292 0.042691514 0.017420247 -0.23993444 -0.047324695 0.15184061
-0.31547943 -0.0830365 0.030810628 0.1463443 0.14474688 0.0058014444 -0.1297839 0.04427656
-0.18286765 -0.15023528 -0.14234436 0.15898807 -0.08022283 0.048078302 -0.019998634 0.20976259
0.06812587 -0.049743824 0.08947368 0.06659693 0.8544094 0.11733642 0.0076443083 -0.023521813
0.047052052 4.661365e-05 -0.004794107 -0.15066119 -0.150567 -0.0140616605 -0.22190595 0.14066102
0.10612147 -0.112096444 0.13578708 0.074815 0.14071663 -0.2500162 -0.0022528027 -0.104697876
00000000: 066d d93d 061a 213d c9b9 973c 7d61 d83d
00000010: 92cb 793d ae6a f03e 7d81 92bd 285f 653d
00000020: 76d3 823d 56ae ea3d 946e 783d a8a0 5dbd
00000030: 09c7 693c fb84 b53b a1e6 073e 95fa 963e
00000040: 6c9a 9ebd 8876 29be fcd4 2c3e b600 88bd
00000050: d084 463b ed1f d33c 6088 bb3c 8ca2 12bd
00000060: 352e 07be 6a84 853d 3b23 533d 36ba e3bd
00000070: 98eb 82bd bbb7 9c3d c23d 13be cb61 3f3f
00000080: fd32 cabe 15da 213d 42c6 1fbf 7528 0abd
00000090: dfcf ecbc 8f21 debd 9d61 04bd c460 893e
000000a0: f6c4 35bc 3d60 c13b 0f54 ebbc bda7 a8bd
000000b0: fc6c 023f 8283 493d 741b 28be 2274 d0bd
000000c0: 9057 5ebd 5987 a6bd 66d9 40bd 0269 65bd
000000d0: cef2 fa3d d298 6abc 77cf e6bd 6ef8 fa3d
000000e0: 0830 1b3e d423 763c 75e0 43bd 68c5 f4bd
000000f0: 9242 ea3d 1ae9 bbbe 798e 6c3d 0cfe ca3d
00000100: 177e 19bb 71e2 48bd 394b e93d c609 823e
00000110: f685 013e fcd7 2a3f a880 8a3c fa93 713d
00000120: 1495 943e 61c8 973c 7979 b0bc 9b0b ba3d
00000130: 2950 e9bd b178 023e cefd 823d ee66 e13e
00000140: 8412 563d 4eac bebd 27f2 5f3c 2015 8d3d
00000150: bee1 173d 52af 993d 5ef2 af3d 03f4 01bc
00000160: 861e 14bd ff29 28bd d23c b83d 8926 59be
00000170: 7f46 053d c788 303d 5a21 32be 8be8 063f
00000180: c977 95be aeac 9ebd 276d 10bf 6f69 82bd
00000190: 5c90 d63c 3c36 2b3d 1ada 853d 4dea 993e
000001a0: 3a5a 3b3d 1ae4 cf3d e971 433c 9b92 d33d
000001b0: b2e5 263f b4ea 863c fb88 0abe f90c e1bd
000001c0: dcfc ab3d 67a5 d0bd 050a 653d 2400 d7bd
000001d0: 2064 fcbd b0e4 26bd 785d 8bbd 938d ca3d
000001e0: c63f 073e 9306 a8bd d176 833c 94c4 e73d
000001f0: f68b 403d 812c d3be e6f5 da3c aef0 84bd
00000200: ce23 b23e 8d5e 48be 9369 e63d 57b8 54bf
00000210: 3c6e 97bd 132a 983b 35a3 d13e c073 9c3e
00000220: 6e05 b9be 4cc5 2a3e 3ad6 51be 91bd a6be
00000230: 73d7 17be bc44 40be cce3 213e 8efc 00bf
00000240: f5b0 06bf 8289 2dbe 541d a83e bebd 553e
00000250: be45 ee3d 16a0 253e 942c fbbe 2fc8 693e
00000260: 5ed4 bcbe 9ddf 183d bdbd 85bd 3928 023f
00000270: 9f98 4e3e 2125 c0be 1c94 553f 59cc 2fbf
00000280: 6dbf dbbe 1a2e ee3d 8c08 b93e ba2c e5be
00000290: 85ca 40bf c434 ef3d 3b6b 513e 3804 a4bf
000002a0: 5918 a1bd 0dc8 b93d f5fc 9cbd 1d0f a8be
000002b0: a7e6 46bf e602 223d 21c1 933e 4e3b 4bbc
000002c0: bb3e 2a3e dcb9 d03d dc34 713d cc05 cfbc
000002d0: e538 463d b04c 963c 5288 c93e b8d6 77be
000002e0: ae66 d1be 76b6 e73e 9fc6 4a3e 9ad1 f2be
000002f0: 307c 42bf 2c4c f03d 3ba2 1dbf 5994 80be
00000300: 502a b83b 656d d0bd 5c5e 4dbe 2f70 95bd
00000310: 3398 34bd 9e3c 093f 59e0 25bd 9296 7a3e
00000320: 4ce6 ba3d 8322 503b 0fe7 aa3d 30cd 28bd
00000330: 5ad9 d3bc 3d52 c23c 6dcf 9d3d 5a33 483f
00000340: fedf b53c bc95 2abe 9fa5 853e 4cdd 2e3d
00000350: e8b4 8e3c 60b1 75be 8ad7 41bd 1b7c 1b3e
00000360: 8586 a1be 0a0f aabd 9266 fc3c 48db 153e
00000370: 8738 143e 0b1a be3b 12e6 04be 575b 353d
00000380: a841 3bbe 47d7 19be b8c2 11be c5cd 223e
00000390: de4b a4bd c1ed 443d 2dd4 a3bc 01cc 563e
000003a0: 9385 8b3d 2ec0 4bbd fa3d b73d f963 883d
000003b0: 93ba 5a3f 144e f03d 1b7d fa3b d1b0 c0bc
000003c0: a7b9 403d 0783 4338 e217 9dbb ed46 1abe
000003d0: 3c2e 1abe e162 66bc 503b 63be 7109 103e
000003e0: 3756 d93d d292 e5bd c50b 0b3e 9b38 993d
000003f0: 0518 103e 2002 80be c2a3 13bb d76b d6bd

lstm.bias_ih_l0 f4 [256]
-0.7107849 -0.81409454 0.5730649 -0.39117178 -0.6432936 0.61083734 -0.017473714 -0.18662186
0.21339545 -0.53188396 -0.8304093 -0.5008843 -0.3140139 -0.72317404 -0.25521412 -0.024151059
-0.49212658 -0.101590924 -0.60984856 -0.8843406 -0.3366857 -0.2752178 -0.9222537 -0.22661181
-0.7353936 -0.48864046 -0.8609528 -0.45402744 -0.644451 -0.4051325 -0.22898053 0.7109274
0.45872676 -0.27355483 0.28878766 -0.6106862 0.61974436 -0.6011783 -0.61199474 -0.068305664
-0.79180396 -0.65320235 -0.99104595 -0.8825883 0.16389777 -0.29366225 -0.4068365 0.11717581
-0.4578809 -0.23146632 -1.0158147 -0.28345 -0.38853452 -0.22189161 -0.5435075 -0.69968396
-0.49583822 -0.44498265 -0.74332476 -0.36945918 -0.74462426 0.11023333 -0.5208871 -0.7249988
-0.6095621 -0.65019053 -0.05567628 -0.5668111 -0.58828366 -0.2225254 -0.042273045 -0.36549082
-0.10600504 -0.5096737 -0.5772344 -0.6645056 -0.22629477 -0.6907032 -0.42871037 -0.14339544
-0.9128125 -0.56310487 -0.43003905 -0.6068564 -0.4462523 -0.5420359 -0.77171296 -0.5677653
-0.63536257 -0.5780156 -0.6188957 -0.1440953 -0.6037839 -0.32255852 -0.38534448 -0.017054448
0.29081947 -0.5040941 -0.059696846 -0.7043207 -0.13691948 -0.7645345 -0.5252595 -0.21141687
-0.7051793 -0.71490216 -0.74704987 -0.660785 -0.049877077 -0.62972414 -0.6314134 -0.18587705
-0.7166342 -0.42884788 -0.7096726 -0.32501727 -0.38855147 -0.42514125 -0.29667598 -0.64655256
-0.56160766 -0.69994277 -0.711321 -0.5047232 -0.4549463 -0.08652698 -0.733057 -0.34899727
0.027822152 -0.00047671472 -0.009886368 0.0014560296 0.041732218 0.11734115 0.0995187 0.05471912
0.14920795 -0.021965273 0.0293527 0.0092445705 0.094676 0.019567996 -0.029490272 -0.040934104
-0.038580157 -0.0495935 0.04218169 0.036212917 -0.0032095 -0.07628003 -0.07021434 0.11361909
0.031333216 -0.12834689 -0.03835298 0.12172957 -0.011809025 -0.007063369 0.01609736 0.047965072
-0.033471115 -0.0062604174 -0.07135148 0.04119832 0.02422086 -0.009061153 0.007183985 -0.02759526
0.078570075 -0.01824275 0.102449365 0.120878376 -0.06948413 0.09253565 -0.051999502 0.119692974
-0.046424612 0.13110119 0.009933494 -0.1552541 -0.010496367 -0.094394594 0.01727261 0.108360656
-0.008302998 -0.12191624 0.0645648 -0.0071471576 -0.013670389 -0.13376588 -0.006227595 -0.05316118
-0.7805784 -0.73349476 0.6263062 -0.46124613 -0.6646878 0.7008491 -0.066687144 -0.2736337
0.26076 -0.41949594 -0.7710099 -0.41210613 -0.32125375 -0.84085286 -0.27135885 0.05803882
-0.65731084 -0.19018623 -0.5531788 -0.99632883 -0.26056826 -0.48962578 -0.81089747 -0.3439142
-0.6348373 -0.34924632 -0.6894987 -0.36338678 -0.71005887 -0.26450083 -0.47286206 0.7171187
0.7431729 -0.50480574 0.40736237 -0.5724225 0.5735799 -0.4358683 -0.62081677 -0.14980042
-0.67450476 -0.7629506 -0.9711129 -0.79395694 0.232378 -0.15337086 -0.43260628 -0.04836732
-0.54756075 -0.44096944 -1.0727148 -0.44317207 -0.1980241 -0.40707114 -0.536996 -0.58836514
-0.5315002 -0.42594272 -0.61099225 -0.5133548 -0.62915266 0.08867401 -0.5811794 -0.7903452
00000000: 00f6 35bf 8068 50bf 62b4 123f ab47 c8be
00000010: e4ae 24bf d65f 1c3f 0925 8fbc cd19 3fbe
00000020: 5684 5a3e 8c29 08bf b495 54bf f439 00bf
00000030: 6ec6 a0be ef21 39bf 6dab 82be 71d8 c5bc
00000040: 04f8 fbbe e70e d0bd 091f 1cbf 2564 62bf
00000050: 1162 acbe 59e9 8cbe d218 6cbf ed0c 68be
00000060: c142 3cbf 152f fabe 6767 5cbf 4976 e8be
00000070: befa 24bf 876d cfbe df79 6abe 57ff 353f
00000080: 3cde ea3e 610f 8cbe fadb 933e ee55 1cbf
00000090: 91a7 1e3f d2e6 19bf b0ab 1cbf d7e3 8bbd
000000a0: aab3 4abf 4538 27bf 30b5 7dbf 4ff1 61bf
000000b0: d1d4 273e e65a 96be e04c d0be dff9 ef3d
000000c0: 5e6f eabe 8205 6dbe 3706 82bf 5c20 91be
000000d0: ffed c6be 8e37 63be 4f23 0bbf 7d1e 33bf
000000e0: 82de fdbe c4d4 e3be 884a 3ebf c129 bdbe
000000f0: b29f 3ebf 03c2 e13d db58 05bf 8599 39bf
00000100: 430c 1cbf e372 26bf d00c 64bd 881a 11bf
00000110: c299 16bf b3dd 63be 8026 2dbd 9d21 bbbe
00000120: 2c19 d9bd fa79 02bf a2c5 13bf 0a1d 2abf
00000130: d1b9 67be edd1 30bf ed7f dbbe 41d6 12be
00000140: 14ae 69bf a427 10bf 142e dcbe f15a 1bbf
00000150: 2e7b e4be ddc2 0abf fb8e 45bf 1159 11bf
00000160: 1fa7 22bf d5f8 13bf f36f 1ebf b88d 13be
00000170: 9591 1abf 6426 a5be df4b c5be c5b5 8bbc
00000180: 4ae6 943e 500c 01bf ae84 74bd 5d4e 34bf
00000190: 9f34 0cbe 88b8 43bf 6877 06bf aa7d 58be
000001a0: a186 34bf d403 37bf a93e 3fbf 3529 29bf
000001b0: e84b 4cbd 9a35 21bf 4fa4 21bf 8e56 3ebe
000001c0: 5775 37bf f391 dbbe 1aad 35bf aa68 a6be
000001d0: 38f0 c6be 1dac d9be eae5 97be 7884 25bf
000001e0: 85c5 0fbf 732f 33bf 2219 36bf 8a35 01bf
000001f0: b9ee e8be 0f35 b1bd a0a9 3bbf c5af b2be
00000200: 48eb e33c 91ef f9b9 6ffa 21bc 3fd8 be3a
00000210: 67ef 2a3d 8f50 f03d 76d0 cb3d 2821 603d
00000220: f8c9 183e 84f0 b3bc 1375 f03c 8a76 173c
00000230: 7ee5 c13d 104d a03c 9595 f1bc 85aa 27bd
00000240: 3a06 1ebd 8e22 4bbd b5c6 2c3d ff53 143d
00000250: 7a56 52bb b438 9cbd 89cc 8fbd 20b1 e83d
00000260: 4257 003d 5e6d 03be 0418 1dbd 5a4d f93d
00000270: a47a 41bc d573 e7bb 9cde 833c 0677 443d
00000280: 0219 09bd 3024 cdbb ba20 92bd 92bf 283d
00000290: d36a c63c 3b75 14bc a267 eb3b 740f e2bc
000002a0: 59e9 a03d d271 95bc f9d0 d13d 158f f73d
000002b0: b24d 8ebd 5583 bd3d 6efd 54bd 9721 f53d
000002c0: bc27 3ebd 643f 063e 18c0 223c eefa 1ebe
000002d0: f4f8 2bbc f451 c1bd 4a7f 8d3c 31ec dd3d
000002e0: 4c09 08bc 39af f9bd 8d3a 843d b432 eabb
000002f0: c4f9 5fbc ecf9 08be da10 ccbb 8abf 59bd
00000300: fcd3 47bf 50c6 3bbf 9a55 203f 7428 ecbe
00000310: fb28 2abf d96a 333f 4593 88bd b719 8cbe
00000320: 5682 853e 2cc8 d6be e860 45bf 93ff d2be
00000330: 5f7b a4be 2242 57bf 8cef 8abe 1dba 6d3d
00000340: 8645 28bf 2ec0 42be 209d 0dbf 680f 7fbf
00000350: 3469 85be 3bb0 fabe fa96 4fbf 8615 b0be
00000360: b384 22bf 6ad0 b2be fd82 30bf d50d babe
00000370: 6bc6 35bf a76c 87be fa1a f2be 1795 373f
00000380: 9440 3e3f f33a 01bf cd91 d03e 488a 12bf
00000390: 22d6 123f 212a dfbe d9ed 1ebf 4865 19be
000003a0: 58ac 2cbf bb50 43bf db9a 78bf c340 4bbf
000003b0: 80f4 6d3e 400d 1dbe 927e ddbe d01c 46bd
000003c0: f12c 0cbf bfc6 e1be b84e 89bf 73e7 e2be
000003d0: d4c6 4abe a16b d0be 9278 09bf 199f 16bf
000003e0: 6610 08bf 2a15 dabe fd69 1cbf 386b 03bf
000003f0: 2610 21bf b89a b53d 2cc8 14bf 1054 4abf

lstm.bias_hh_l0 f4 [256]
-0.9155791 -0.7210681 0.45408472 -0.4235929 -0.5413404 0.57544917 0.06757119 -0.32519364
0.41205728 -0.43264517 -0.8140792 -0.5321472 -0.4959647 -0.7808321 -0.25481033 -0.0703247
-0.6982428 0.0017080109 -0.53450084 -0.97766453 -0.24457382 -0.29753613 -0.7738457 -0.18968044
-0.6814879 -0.2990046 -0.6850809 -0.55251485 -0.7395204 -0.41642204 -0.2740706 0.658049
0.6340863 -0.48065335 0.16752248 -0.74742484 0.7073704 -0.57867306 -0.625795 -0.27261728
-0.75128525 -0.69288373 -0.9221296 -0.95456135 0.3365647 -0.22149912 -0.5675374 0.11272658
-0.4472586 -0.27902824 -1.1296128 -0.31508866 -0.3363342 -0.371029 -0.46592662 -0.47941706
-0.66747826 -0.47108525 -0.7890165 -0.5725637 -0.7394 0.08782552 -0.5496264 -0.6539987
-0.5322924 -0.67774004 0.05929751 -0.46571472 -0.6481487 -0.07493015 -0.21421431 -0.25147036
-0.2819432 -0.6265835 -0.46420518 -0.61576384 -0.27490735 -0.6380426 -0.4269322 0.07018189
-0.7462469 -0.38488773 -0.45050502 -0.66468406 -0.6084805 -0.6302384 -0.73101634 -0.6620796
-0.51601994 -0.39232138 -0.7833817 -0.2109861 -0.5071591 -0.35638636 -0.30130583 0.060199734
0.18291007 -0.4793321 -0.06084882 -0.744634 -0.029311024 -0.6462047 -0.6357875 -0.17314604
-0.7308454 -0.5140364 -0.7815108 -0.78647685 0.08354031 -0.59543705 -0.56834716 0.053172708
-0.6062112 -0.38110384 -0.5990106 -0.36387968 -0.35987452 -0.6034034 -0.46656275 -0.6600727
-0.49620545 -0.5839221 -0.7297083 -0.5151811 -0.55540955 -0.16638534 -0.70862836 -0.4122997
-0.09549466 0.0027804633 0.12779461 0.10203459 -0.018495481 0.08268033 0.12876712 -0.02826546
0.00853494 -0.13057095 -0.06106883 0.013561803 -0.04108773 0.013891286 0.0032774673 0.099938065
0.06555903 -0.09548419 0.0018832308 0.05144617 -0.0926191 -0.04288869 0.055774815 -0.021808906
-0.05954338 0.063016586 -0.012026885 -0.08853502 0.02679882 0.1499408 -0.057665348 0.14212851
-0.15467827 -0.11373437 -0.032028962 -0.0027145543 0.15798287 0.045549564 -0.04735262 0.09266702
0.032883625 -0.0025051087 -0.07540621 -0.06429004 0.08799193 -0.024908423 0.028992772 0.09798048
-0.06468691 0.043355864 -0.10125866 -0.030395953 -0.17093955 -0.03017511 -0.11856988 -0.053531412
0.07115896 0.03776231 -0.014097211 0.041134804 0.042138726 -0.08058212 -0.0021080545 0.020156043
-0.7124666 -0.749401 0.5698647 -0.3160269 -0.5129731 0.5878586 0.12907332 -0.30437562
0.3147497 -0.45569798 -0.85393715 -0.4219368 -0.5262091 -0.860949 -0.39015907 -0.09757895
-0.6517605 -0.20933773 -0.666343 -1.0317703 -0.3045704 -0.41373834 -0.942551 -0.33585888
-0.64731663 -0.40092382 -0.73709524 -0.4319015 -0.5944002 -0.38714242 -0.27314872 0.64366513
0.75668514 -0.4703832 0.32195935 -0.5785251 0.56926787 -0.40397385 -0.61362183 -0.14876603
-0.79025614 -0.6349003 -0.88938725 -0.7850157 0.31258202 -0.21280792 -0.56350005 0.066476874
-0.42045757 -0.38465932 -1.1659615 -0.4281178 -0.28867868 -0.36856177 -0.46507668 -0.7132753
-0.47101343 -0.35392964 -0.7928918 -0.57277685 -0.7548245 0.26847637 -0.5819301 -0.8243826
00000000: 6463 6abf eb97 38bf cb7d e83e 2be1 d8be
00000010: 4995 0abf a350 133f c462 8a3d c87f a6be
00000020: 2cf9 d23e ab83 ddbe 7f67 50bf cd3a 08bf
00000030: 16ef fdbe 9de4 47bf 8076 82be 6506 90bd
00000040: 0ac0 32bf 56df df3a 0cd5 08bf 3948 7abf
00000050: 8f71 7abe a856 98be c01a 46bf 973b 42be
00000060: fe75 2ebf 2217 99be 7661 2fbf 9d71 0dbf
00000070: 3551 3dbf 4535 d5be fb52 8cbe e675 283f
00000080: 7b53 223f 3218 f6be 038b 2b3e 3c57 3fbf
00000090: 3a16 353f eb23 14bf 1a34 20bf 7e94 8bbe
000000a0: 3b54 40bf d460 31bf af10 6cbf 225e 74bf
000000b0: 3552 ac3e aad0 62be 224a 11bf 31dd e63d
000000c0: 14ff e4be cadc 8ebe 2797 90bf 4d53 a1be
000000d0: ff33 acbe 83f7 bdbe ef8d eebe 2776 f5be
000000e0: dbdf 2abf 1632 f1be fcfc 49bf 8993 12bf
000000f0: 5249 3dbf dedd b33d 51b4 0cbf 756c 27bf
00000100: 5144 08bf 5f80 2dbf f2e1 723d 2972 eebe
00000110: 13ed 25bf fa74 99bd ff5a 5bbe b9c0 80be
00000120: dc5a 90be c767 20bf 4dac edbe b3a2 1dbf
00000130: a8c0 8cbe c356 23bf db96 dabe 86bb 8f3d
00000140: 090a 3fbf 0110 c5be 98a8 e6be bc28 2abf
00000150: 61c5 1bbf 4e57 21bf e323 3bbf 0c7e 29bf
00000160: e219 04bf 59de c8be b48b 48bf bd0c 58be
00000170: 2ed5 01bf 4678 b6be c244 9abe ff93 763d
00000180: c74c 3b3e 046b f5be 9d3c 79bd 55a0 3ebf
00000190: ac1d f0bc ac6d 25bf f8c2 22bf 324d 31be
000001a0: af18 3bbf e497 03bf 1711 48bf 8c56 49bf
000001b0: 2f17 ab3d 906e 18bf 337f 11bf a0cb 593d
000001c0: a830 1bbf 0b20 c3be c258 19bf 704e babe
000001d0: 7941 b8be a578 1abf 50e1 eebe 86fa 28bf
000001e0: a40e febe eb7b 15bf 2ace 3abf e9e2 03bf
000001f0: 522f 0ebf eb60 2abe ab68 35bf f218 d3be
00000200: b492 c3bd 6f38 363b 97dc 023e 83f7 d03d
00000210: d683 97bc 4e54 a93d 87db 033e f78c e7bc
00000220: 22d6 0b3c 64b4 05be 4f23 7abd 5332 5e3c
00000230: 9c4b 28bd 4798 633c c7ca 563b 54ac cc3d
00000240: d043 863d 378d c3bd bdd6 f63a 38b9 523d
00000250: 15af bdbd 0dac 2fbd 2274 643d 97a8 b2bc
00000260: c2e3 73bd d70e 813d 690c 45bc d951 b5bd
00000270: 3389 db3c 158a 193e 8032 6cbd 238a 113e
00000280: fb63 1ebe 91ed e8bd cd30 03bd aae6 31bb
00000290: 43c6 213e 2e92 3a3d d2f4 41bd 35c8 bd3d
000002a0: fbb0 063d c02c 24bb 926e 9abd 7faa 83bd
000002b0: 1d35 b43d c00c ccbc 4082 ed3c fda9 c83d
000002c0: 927a 84bd eb95 313d b360 cfbd ef00 f9bc
000002d0: c70a 2fbe cb31 f7bc c4d4 f2bd c143 5bbd
000002e0: cabb 913d a7ac 1a3d fdf7 66bc f87c 283d
000002f0: a899 2c3d 3d08 a5bd 4927 0abb 491e a53c
00000300: 3664 36bf bed8 3fbf a7e2 113f 47ce a1be
00000310: 3552 03bf e77d 163f cc2b 043e 1fd7 9bbe
00000320: df26 a13e 3f51 e9be a09b 5abf 1a08 d8be
00000330: a4b5 06bf 2767 5cbf eec2 c7be 79d7 c7bd
00000340: c7d9 26bf a15c 56be 7495 2abf 0d11 84bf
00000350: a7f0 9bbe 83d5 d3be 064b 71bf b2f5 abbe
00000360: 8bb6 25bf e345 cdbe 46b2 3cbf 3222 ddbe
00000370: 9d2a 18bf 8837 c6be 26da 8bbe 3dc7 243f
00000380: 1eb6 413f 11d6 f0be dbd7 a43e 391a 14bf
00000390: 8abb 113f a9d5 cebe 5216 1dbf 1f56 18be
000003a0: 3a4e 4abf d388 22bf e2ae 63bf caf6 48bf
000003b0: c00a a03e 52ea 59be 8a41 10bf 0725 883d
000003c0: 3746 d7be 11f2 c4be 3a3e 95bf 4232 dbbe
000003d0: b1cd 93be 21b4 bcbe 881e eebe 3699 36bf
000003e0: ac28 f1be 4436 b5be f5fa 4abf 81a1 12bf
000003f0: 2e3c 41bf bc75 893e 5ff9 14bf bd0a 53bf

fc.weight f4 [1, 64]
0.101410516 -0.1024821 -0.23667327 -0.1625448 -0.104341656 -0.37025645 -0.19280887 -0.120639175
-0.22808357 0.12002411 -0.0807422 -0.118117005 0.13986531 0.008624371 -0.102111705 -0.15933411
-0.1432203 0.16395718 -0.07981864 0.00548826 0.11787345 0.15353301 -0.11126073 -0.15673709
0.10989186 0.13174674 -0.13735121 0.15510042 0.06049311 -0.17384252 0.16416247 -0.28958616
0.24665728 0.103167586 0.29117534 -0.089784764 -0.1832235 0.022287231 -0.12708409 -0.10532432
-0.12458727 0.08879016 -0.10078371 -0.10903311 -0.41379854 -0.1461126 0.1512332 -0.18620642
0.13225935 -0.09682597 0.06967432 0.10609844 0.08619943 -0.032795765 0.046817146 -0.10817246
-0.10404495 0.12976323 0.07437296 -0.14213239 -0.09361073 0.27507484 -0.1406349 0.12402437
00000000: 51b0 cf3d 23e2 d1bd 7a5a 72be 2572 26be
00000010: 14b1 d5bd 4192 bdbe b06f 45be ac11 f7bd
00000020: bd8e 69be 33cf f53d 2b5c a5bd 54e7 f1bd
00000030: da38 0f3e 3c4d 0d3c f11f d1bd 7b28 23be
00000040: 58a8 12be 64e4 273e f577 a3bd ddd6 b33b
00000050: a367 f13d c237 1d3e aadc e3bd b07f 20be
00000060: fc0e e13d 9ee8 063e cca5 0cbe a5d2 1e3e
00000070: a0c7 773d c603 32be 351a 283e a344 94be
00000080: ba93 7c3e 8749 d33d ef14 953e 13e1 b7bd
00000090: f19e 3bbe b693 b63c 5522 02be 47b4 d7bd
000000a0: 9c27 ffbd 9ed7 b53d b167 cebd c04c dfbd
000000b0: 67dd d3be 8b9e 15be e0dc 1a3e e5ac 3ebe
000000c0: ff6e 073e b24c c6bd 69b1 8e3d 244a d93d
000000d0: 5489 b03d da54 06bd 56c3 3f3d 8689 ddbd
000000e0: 8515 d5bd a7e0 043e da50 983d 278b 11be
000000f0: fbb6 bfbd 9cd6 8c3e 9802 10be 7d00 fe3d
