weights/stockmixer_wo_indicator_L16_H64_M40_K4_E50_s3.pt (torch, 609770 bytes, 74 tensors)

time_mixing.0.ln.weight f4 [16, 5]
00000000: ac80 6f3f f2f3 883f c5b8 713f e723 7f3f
00000010: f768 743f abdb 733f 23bf 8a3f 2305 753f
00000020: 77f9 7d3f fe8b 6e3f 3b0e 673f 8d05 8e3f
00000030: bcb8 643f 8805 7e3f 7362 753f a347 803f
00000040: cd88 833f 258d 783f 423b 773f 10d5 7b3f
00000050: 9801 6f3f fe65 873f c5ce 6c3f 77be 7d3f
00000060: d79b 703f 218a 783f f4b1 7c3f c031 7c3f
00000070: 0f5a 773f e1fb 613f 5d42 803f 1b0c 823f
00000080: ab53 803f 162e 773f c05d 723f d024 873f
00000090: 8962 773f 5463 843f 0847 6e3f 0d97 803f
000000a0: 2bff 723f 1893 893f 24e0 7a3f e90a 803f
000000b0: 49a9 793f 0a89 7b3f 2413 883f eefd 803f
000000c0: ad33 7d3f 431a 803f 7a54 7b3f 548a 883f
000000d0: 9b4e 813f 1a1d 7f3f 892a 7d3f 2ade 763f
000000e0: 0716 8a3f 4874 803f 0195 803f 00f3 7a3f
000000f0: b758 7e3f aadd 883f dc77 833f 5678 7f3f
00000100: faa9 7f3f a5c0 813f e365 843f 57e9 843f
00000110: f3bc 783f ff90 7b3f cbe4 823f 1e5a 733f
00000120: 02b3 813f 02b3 823f bfda 983f 4ea9 af3f
00000130: 5f60 403f 09a8 5c3f 031b 703f 98b9 1040
0.9355571 1.0699446 0.9442256 0.9966416 0.95472664 0.9525706 1.083958 0.95710963
0.9920878 0.9318236 0.9025609 1.1095444 0.8934438 0.9922719 0.95853347 1.0021862
1.0276123 0.9709037 0.96574795 0.9837198 0.93361807 1.0578 0.92503005 0.9911875
0.9398779 0.9708577 0.98709035 0.9851341 0.96621794 0.8827496 1.0020252 1.0159944
1.0025533 0.96554697 0.946743 1.0558109 0.9663473 1.0342813 0.93077135 1.0046097
0.94920605 1.0748014 0.9799826 1.000333 0.97523934 0.9825598 1.0630841 1.0077493
0.98906976 1.0008014 0.98175776 1.0667214 1.0102113 0.9965378 0.9889303 0.96432745
1.0787972 1.0035486 1.0045472 0.9802704 0.9935412 1.0692647 1.0270953 0.99792993
0.9986874 1.0136915 1.0343593 1.038371 0.97163314 0.9826812 1.0226072 0.9505938
1.0132754 1.0210879 1.1941756 1.3723543 0.7514705 0.861939 0.93791217 2.2613277

time_mixing.0.ln.bias f4 [16, 5]
00000000: b8b6 2f3d 512a 3e3d 54fa 64bd 8b65 28bd
00000010: 87be cc3c d4f1 b43c 86a6 393d 5159 55bd
00000020: cd02 edbc aa29 643c ccc1 783d 2792 9c3d
00000030: 0dfd acbd 8bec 89bd 1bda e63c 1f16 c4bc
00000040: edf8 f53c 5e8a fabb e9c5 0dbc 62e3 62bd
00000050: 0b5f a13c 77dc 873d ed4d 3fbd a064 4bbd
00000060: a676 cebc 5f04 1f3d 22ce 4c3b e7ba 74bc
00000070: e07b fcbb 45c1 003d edc5 673b 9f2c aeb9
00000080: b067 debb 3c4f 5c3c ce1e 0a3c 172b 99bc
00000090: f7a4 0fbd 43c6 d63c 0f19 313d 1af2 14bc
000000a0: 6dab b83b b06c 763d 5098 1cbd 0c2d 17bd
000000b0: a3d3 d2bc 1c07 8bbc d2a7 3d3d 1aa5 b1bc
000000c0: 6519 8fbc c101 3ebd 5e88 84bc d3ca 493d
000000d0: b5bc c5bc 3323 91bc 75c6 37bd 5355 29bc
000000e0: ac8a 493d 0f1f dabc fbca b0bc 1e4e 1bbd
000000f0: 225a 02bd d1a0 0e3d 52b1 0dbc 0da4 41bb
00000100: 22e0 70bd dd1f 64bd bd9a 923c a5f3 2f3c
00000110: 5196 993c 2ae9 b9bd 64e8 823c a0e5 81bc
00000120: 9492 4d3c 43aa adbc f3b7 123a 5c24 c63c
00000130: 8823 7ebd 0234 e63c f339 793c c7ca 423d
0.042898864 0.046427075 -0.055902794 -0.041112464 0.024993194 0.022087969 0.045324825 -0.052087132
-0.028932 0.013925949 0.060731694 0.07645064 -0.08446703 -0.0673457 0.028180173 -0.02393633
0.030025924 -0.007645889 -0.0086531425 -0.05539263 0.01969864 0.06633847 -0.046705175 -0.04965651
-0.02520306 0.038822528 0.0031250794 -0.014937139 -0.0077051967 0.031434316 0.0035365776 -0.00033221112
-0.006787263 0.013446625 0.008430196 -0.018697305 -0.035069432 0.026217585 0.04323679 -0.009090925
0.00563567 0.060162246 -0.038231194 -0.036908194 -0.025735682 -0.016971163 0.046302624 -0.021685172
-0.017468164 -0.04638839 -0.016178306 0.049265694 -0.024137834 -0.01771698 -0.044866998 -0.010335284
0.049204513 -0.026626138 -0.021581164 -0.037916295 -0.03182424 0.034821335 -0.0086482335 -0.0029547245
-0.0588075 -0.05569445 0.01789605 0.010739242 0.018748434 -0.09077676 0.015979953 -0.015856564
0.012547154 -0.021199351 0.00055968686 0.02418726 -0.062045604 0.028100971 0.01521157 0.047556665

time_mixing.0.U1.1 f4 [1, 2]
00000000: 9aea 9939 4521 0eb9
0.00029357226 -0.00013554569

time_mixing.0.U1.2 f4 [1, 3]
00000000: c74a cdbb b818 bf3b cb69 cf39
-0.0062650177 0.005831804 0.0003956094

time_mixing.0.U1.3 f4 [1, 4]
00000000: 0593 58bb df60 543c f275 81bc 9273 f63a
-0.0033046615 0.012962549 -0.015803311 0.0018802753

time_mixing.0.U1.4 f4 [1, 5]
00000000: c907 343c 4161 993c 5c55 9cb9 40d9 96bc
00000010: 92e0 bbbb
0.010988184 0.018723132 -0.00029818236 -0.01841414 -0.005733558

time_mixing.0.U1.5 f4 [1, 6]
00000000: 0c0b 8f3a 93d9 893b 6e68 963c 3883 ab3b
00000010: edc9 853a 47a8 aebc
0.0010913326 0.004206845 0.018360343 0.0052341484 0.0010207273 -0.021320475

time_mixing.0.U1.6 f4 [1, 7]
00000000: f9d3 f23a 6e7f 7b3c aa88 e33b f582 0cbc
00000010: a26f 503a dcb8 86bc f9d4 cb3b
0.0018526308 0.015350206 0.006943782 -0.008576144 0.0007951205 -0.01644557 0.0062204567

time_mixing.0.U1.7 f4 [1, 8]
00000000: ff0f f4bb c5d7 013d 4437 ff3b 623a 65bd
00000010: e314 e9bc de29 a0bc 6323 4b3c a354 8e3d
-0.007448196 0.031699914 0.0077885706 -0.05596388 -0.028452342 -0.019551214 0.012398574 0.06949737

time_mixing.0.U1.8 f4 [1, 9]
00000000: d7ce d03b b46a 973c 9da7 85bc 4fd3 04bc
00000010: 4129 14bc 1e73 c0bb 0d32 f6bb a22a 193c
00000020: c3dc 363c
0.0063723135 0.018483497 -0.016315276 -0.0081070205 -0.009043039 -0.005873098 -0.0075132907 0.009348543
0.011161032

time_mixing.0.U1.9 f4 [1, 10]
00000000: de5b a43c ecc1 173b b9f3 7a3a 006d 973c
00000010: 86d4 f13b 4f9a 0fbc 4187 a7bc 12da 02bc
00000020: 52c5 663b f80f 69bb
0.020063337 0.0023156358 0.00095730607 0.018484592 0.007380071 -0.008764817 -0.020450236 -0.007986562
0.0035212827 -0.0035562497

time_mixing.0.U1.10 f4 [1, 11]
00000000: 5397 c0b9 f64a 00bc 878a d0bb 5c66 dcbc
00000010: 92fa 33bb 7df4 a3ba f065 893b b0c8 993a
00000020: a81c 1d3c dc9c 103c 3717 953c
-0.0003673384 -0.007830372 -0.00636417 -0.026904278 -0.0027462584 -0.0012508776 0.00419306 0.0011732783
0.009589352 0.008826461 0.018199546

time_mixing.0.U1.11 f4 [1, 12]
00000000: a809 143d 84b8 f33a d5b1 413c e941 d13b
00000010: c3ae 003c 9ce7 19bb 1370 fcbc 7a5a 1dbd
00000020: 2b46 853c 660b b83b 618c e93b 462e 063c
0.03614202 0.0018594419 0.011822184 0.006386031 0.007854166 -0.0023483997 -0.03081516 -0.038416363
0.01626881 0.005616593 0.00712733 0.008189743

time_mixing.0.U1.12 f4 [1, 13]
00000000: 1f4d 2fbb 2b27 8cbb bc1a 333c bd2c d7ba
00000010: 8180 8939 0677 a5bc 173a 31bc ceff 98bc
00000020: 2356 163b 7dd8 913c 13a9 9e3c da25 ea3b
00000030: 8563 d93b
-0.0026748849 -0.00427713 0.010931667 -0.0016416531 0.0002622642 -0.020198356 -0.010817072 -0.018676665
0.0022939525 0.017803425 0.01936773 0.0071456255 0.006634178

time_mixing.0.U1.13 f4 [1, 14]
00000000: a030 b93b 9943 9c3b b2bc a8bb 38e4 3fbc
00000010: 302e 8d3c c1e2 cdbb 523e 7dbc 4ced 8ebb
00000020: 9ef0 863c f5a1 293c cce6 813c 61c4 7abc
00000030: e2f4 e7ba f368 d4b9
0.0056515485 0.0047688005 -0.0051494474 -0.011712126 0.017233938 -0.0062831347 -0.015456753 -0.004361784
0.016472157 0.010353555 0.015857123 -0.015305609 -0.0017696882 -0.00040513984

time_mixing.0.U1.14 f4 [1, 15]
00000000: b835 94bc f7f7 edbc c91e 463c 1a66 a13c
00000010: 50f5 ae3c 65ed a5bc 0e44 21bd 6be8 40be
00000020: 7610 883d 7f94 b73d 8c2c 943d ad88 9a3c
00000030: 9454 193e 51b5 ef3d 372d 3d3e
-0.018092021 -0.029048903 0.012092301 0.019702006 0.021357208 -0.0202548 -0.039371543 -0.1883866
0.06643765 0.0896387 0.07235059 0.018864 0.1497367 0.11704505 0.1847428

time_mixing.0.U1.15 f4 [1, 16]
00000000: c0c7 b03b 9fb3 a33c 5053 213c 5ba3 92bd
00000010: de2e 8dbc 5fba e93c e1f9 153d 9fce 343e
00000020: 365c 34bd 381b c8bd 7f28 c8bd 3819 1abd
00000030: 541e 37be 7f37 61be 95a5 20be 1c36 3e3f
0.005394906 0.019983111 0.009846523 -0.07160064 -0.017234262 0.028531251 0.036615256 0.17656945
-0.04403325 -0.097708166 -0.09773349 -0.037621707 -0.17882663 -0.21993826 -0.15688165 0.74301314

time_mixing.0.U2.1 f4 [1, 2]
00000000: 778d 8f3b be58 afbb
0.0043808776 -0.005351155

time_mixing.0.U2.2 f4 [1, 3]
00000000: 3742 acbb 84e0 03bc b955 b43c
-0.005256917 -0.008049134 0.022013532

time_mixing.0.U2.3 f4 [1, 4]
00000000: 35c3 953d 0999 433d 13bd 503d cd79 17bd
0.073126234 0.047753368 0.050961565 -0.036981393

time_mixing.0.U2.4 f4 [1, 5]
00000000: eabd 373c 60af a8bb e24d e63c bb68 2fbc
00000010: 4160 67bc
0.011214713 -0.0051478595 0.02811331 -0.010706122 -0.01412207

time_mixing.0.U2.5 f4 [1, 6]
00000000: f5cc b5bb 855e 183b d2bc 1e3d 4ca7 df3b
00000010: 6e40 54bb b44c 4eb8
-0.0055481144 0.0023249697 0.03875429 0.0068253633 -0.0032387036 -4.9185663e-05

time_mixing.0.U2.6 f4 [1, 7]
00000000: b66e c23c ab83 693c 181d 883c aeeb a4bc
00000010: c0f1 31bd a808 e8bc 6302 303c
0.023734432 0.0142525835 0.016615435 -0.020131912 -0.04344344 -0.02832444 0.010742757

time_mixing.0.U2.7 f4 [1, 8]
00000000: ebf7 2f3c 359a 813b 8b02 023c 6213 71bc
00000010: 143f 10bd 1018 82bc 3eaa 41bc 5a80 953c
0.010740261 0.0039551505 0.007935177 -0.014714094 -0.035216406 -0.015880615 -0.011820374 0.01824968

time_mixing.0.U2.8 f4 [1, 9]
00000000: 5d18 163c f755 50bb 633a c53c a6ea 0f3c
00000010: 7588 f1bc d6ee bdbc 72d4 4abb 3e8c 8c3d
00000020: 73ef 5ebb
0.009161082 -0.003178952 0.024075693 0.008783972 -0.029484013 -0.023185175 -0.0030949381 0.068626866
-0.0034017235

time_mixing.0.U2.9 f4 [1, 10]
00000000: 8a3c 273c 3af1 993b d42e 8dbb d12e 353c
00000010: 2694 8cbc 82b5 3abb 4fa5 873b d21a 8cbb
00000020: d1ca 01bb 4b62 573b
0.010207305 0.004697946 -0.004308561 0.011058525 -0.017160486 -0.0028489535 0.0041395794 -0.004275658
-0.0019804726 0.0032864984

time_mixing.0.U2.10 f4 [1, 11]
00000000: 99f3 083d 8996 0b3d 1ceb 913d 4084 b5bc
00000010: 66ff 6ebc 2594 143d b379 9f3c db9d 573e
00000020: 042d 01bd ca85 0e3d 83c9 8ebd
0.033435438 0.03407911 0.07124922 -0.022157788 -0.014587259 0.036274094 0.01946721 0.21056311
-0.03153707 0.03479556 -0.06972029

time_mixing.0.U2.11 f4 [1, 12]
00000000: 5598 063c 587b 0dbc 3d29 bfbc 7962 02bc
00000010: bd2e cb3c 5184 cb3c d36d 17bc 108d da3a
00000020: 0ca7 fdbb 26b9 8fbc be46 d0bc cf4d 973c
0.00821503 -0.0086353645 -0.023335094 -0.007958048 0.02480256 0.024843367 -0.009242493 0.001667412
-0.007740861 -0.01754434 -0.025424358 0.01846972

time_mixing.0.U2.12 f4 [1, 13]
00000000: 37a3 213a 64d3 603b 3479 93bc b56e 81bc
00000010: 6270 7f3c 793f 6d3c 81ab 87ba d86f 163d
00000020: c7cc 83bc 0839 0bbd 8be8 56bb 8fd2 26bc
00000030: 09c0 65bb
0.00061659835 0.0034305686 -0.01800213 -0.01579986 0.015590759 0.014480465 -0.0010350795 0.036727756
-0.016088856 -0.033989936 -0.0032792415 -0.010182037 -0.0035057089

time_mixing.0.U2.13 f4 [1, 14]
00000000: 23d5 ca3c 6919 d93b 51af 3e3c e2a4 84bc
00000010: 7d78 00bc a005 fc3c 07e2 c7ba 22f7 b93c
00000020: 810f 98bc 60c5 00bb dae3 5dbc 094f c9bb
00000030: 6bce 72bc 6dcb 5fbb
0.024759835 0.0066253436 0.011638478 -0.016191904 -0.007841227 0.030764401 -0.0015249857 0.02270085
-0.01856208 -0.0019648895 -0.013543094 -0.006143455 -0.014819722 -0.003414835

time_mixing.0.U2.14 f4 [1, 15]
00000000: ede6 943c a74d e0bb b44d 0a3c 2afa 323b
00000010: df16 1dbc 334d 09bc e9c6 18bb 7013 85ba
00000020: bc5f 613c 8c6d 0f3b cebe 143c 347e 12ba
00000030: faf4 81bc af39 153c cca7 0ebd
0.01817652 -0.0068451944 0.008441377 0.0027309754 -0.009587972 -0.008380222 -0.002331192 -0.0010152888
0.013755735 0.0021885363 0.0090786945 -0.0005588264 -0.015863884 0.009107991 -0.034827992

time_mixing.0.U2.15 f4 [1, 16]
00000000: 93d8 453b c74a bd3a 748f bb3c 5c51 ebba
00000010: 3ff7 f1bb 1e21 ee3a 9fa4 01bb 3c2c 8cbc
00000020: 05ea eaba 490c d13b b0cc 43bc 631c 153c
00000030: fafd 2f3c 1ee9 81bb 214e 82bd 36bd 8a3f
0.0030188903 0.0014441841 0.022895552 -0.0017953324 -0.0073842104 0.0018167829 -0.001978196 -0.017110936
-0.0017922526 0.0063796383 -0.011950657 0.009101006 0.010741705 -0.0039645573 -0.06362558 1.0838993

time_mixing.1.ln.weight f4 [8, 5]
00000000: 97df d13f dc80 8bbe 2756 713f 6fd8 cf3f
00000010: b691 0940 a5ba e53f 1b10 71bd 3fdb 863f
00000020: 13b2 ba3f ec4a 0740 16b3 eb3f 6d53 5fbd
00000030: 9c32 823f fa5b ab3f 8f84 0440 739f f43f
00000040: 1fef 34be ad58 723f 26d3 783f 318e 0640
00000050: 621b fb3f 86fc 68bc 97ff 683f 1b32 593f
00000060: 1c8a 0f40 5512 0540 4e1c efbd db9d 353f
00000070: 7d9c 9d3f eef2 1140 1354 913f 1af2 ab3e
00000080: e963 693f 23b8 ad3f 4e11 f43f ce55 553f
00000090: b6d4 7c3f 1b13 643f 2e21 4a3f 8574 403f
1.6396359 -0.2724675 0.94272083 1.6237925 2.1495185 1.7947584 -0.05885325 1.0535659
1.4585594 2.1139479 1.8414028 -0.05452292 1.0171695 1.3387444 2.0705907 1.911116
-0.17669342 0.9466656 0.97197187 2.1024287 1.9617732 -0.0142203625 0.91015 0.8484208
2.2428045 2.079244 -0.116753206 0.70943993 1.2313381 2.2804523 1.1353782 0.33583146
0.91168076 1.3571819 1.9067781 0.8333405 0.9876207 0.8909165 0.7895688 0.75177795

time_mixing.1.ln.bias f4 [8, 5]
00000000: fdfc 2ebf 2fde 37be 644c 1e3e 52f6 5e3e
00000010: c36e eebe e53c 6cbf 3298 3cbf 84ef 4c3e
00000020: 1060 a03e 5670 46bf 5082 7fbf 2e2b 75bf
00000030: 9a49 f83d 4a39 7a3e 4e34 7abf bc2a 8dbf
00000040: ae0a 90bf 26c7 e0bd cd29 74be db41 93bf
00000050: 8bb0 97bf 2f3a 9dbf c486 a6be 9c16 93be
00000060: 3f3b 9ebf 025e b0bf 7d8b b5bf 2734 14bf
00000070: eec7 cc3d 7571 b5bf ce61 fbbd 398e e4bd
00000080: 603e dd3d 8c21 523e e8bc 353e 1bc0 6e3e
00000090: 400f 563e 39c2 61be e372 29be 3cbc 6f3e
-0.6835478 -0.1795585 0.15458828 0.21773651 -0.4656888 -0.9228042 -0.7366973 0.20013243
0.3132329 -0.7751516 -0.99808216 -0.9576901 0.121234134 0.24435917 -0.9773606 -1.1028666
-1.1253259 -0.109754845 -0.2384407 -1.1504472 -1.1850752 -1.2283381 -0.32524693 -0.28728187
-1.236183 -1.3778689 -1.4183193 -0.5789208 0.09999071 -1.4175249 -0.12274514 -0.11159939
0.10802913 0.2052061 0.17747843 0.2331547 0.20904255 -0.22046746 -0.16547732 0.2341165

time_mixing.1.U1.1 f4 [1, 2]
00000000: 22c2 543e 756a a23d
0.20777181 0.07930461

time_mixing.1.U1.2 f4 [1, 3]
00000000: cc04 ce3d b751 653c 471e babb
0.10059509 0.013996533 -0.005679879

time_mixing.1.U1.3 f4 [1, 4]
00000000: 3003 1dbe 96a6 03be 38f4 0dbe c085 e9bd
-0.15333247 -0.12856516 -0.13862693 -0.11402464

time_mixing.1.U1.4 f4 [1, 5]
00000000: 665e 6bbe 3581 9cbe 4007 9ebe 0d71 abbe
00000010: fea5 a6be
-0.22985229 -0.30567327 -0.30864906 -0.33484688 -0.32548517

time_mixing.1.U1.5 f4 [1, 6]
00000000: 6829 4cbf f7f1 50bf 6049 50bf c359 49bf
00000010: da61 55bf f316 57bf
-0.7975068 -0.8161921 -0.8136196 -0.7865259 -0.83352435 -0.8401939

time_mixing.1.U1.6 f4 [1, 7]
00000000: 0a7e f1bc 43b8 273b 9281 e53c 5cba ce3d
00000010: 8800 b73d ec80 c03d 7c73 5c3c
-0.029479045 0.0025592006 0.028015886 0.10094139 0.08935648 0.0939959 0.013455268

time_mixing.1.U1.7 f4 [1, 8]
00000000: d2e5 a9bd 54e6 94bc 9dae a33c 8cf9 203d
00000010: 36a8 893c e360 a33c f870 23bd 9e11 37bc
-0.08295788 -0.018176235 0.019980723 0.039300486 0.016803842 0.01994366 -0.039902657 -0.011173634

time_mixing.1.U2.1 f4 [1, 2]
00000000: d526 e53d 47ff bdbd
0.11189047 -0.09277206

time_mixing.1.U2.2 f4 [1, 3]
00000000: b3b3 933d 18a3 8abc 5f33 4c3d
0.07212009 -0.016923472 0.04985368

time_mixing.1.U2.3 f4 [1, 4]
00000000: 2990 04be fe7b b33d 9704 863c 4893 cebc
-0.12945618 0.08763884 0.01635961 -0.025216714

time_mixing.1.U2.4 f4 [1, 5]
00000000: f55a fc3d 29f8 90bd bb17 a9bc 3a2d 923c
00000010: aabf 47bc
0.12322036 -0.07078583 -0.020641198 0.017843831 -0.012191692

time_mixing.1.U2.5 f4 [1, 6]
00000000: 693f 0bbf a02d fd3e fde0 e03e d0b3 2abf
00000010: ca58 1ebf 0e31 57bf
-0.5439363 0.49448872 0.43921652 -0.6668062 -0.6185423 -0.84059227

time_mixing.1.U2.6 f4 [1, 7]
00000000: 3ad2 c83d 1577 86bd 6ac4 04bc f505 22bd
00000010: d7db edbc 9f4c cdbd 61fd 403b
0.098057225 -0.06565682 -0.008103469 -0.039556462 -0.029035492 -0.1002438 0.00294479

time_mixing.1.U2.7 f4 [1, 8]
00000000: 0bcc dfbd b6f9 f73d 6a11 a53d 3ac0 0dbd
00000010: 102c 02bd c535 3ebd 6df1 a0bb 761d 9a38
-0.1092759 0.121081755 0.08059962 -0.03460715 -0.031780303 -0.046437997 -0.0049115927 7.34878e-05

time_mixing.2.ln.weight f4 [4, 5]
00000000: 2503 523f 105d 7c3f 203c 433f c2b0 563f
00000010: 2175 663f 476f 4f3f f69f 7a3f 5096 4a3f
00000020: 0829 563f 8f81 803f 8dda 473f 2552 793f
00000030: de76 473f 1456 4a3f 1a8b 5d3f d53e 363f
00000040: 8e81 773f c783 4a3f 5972 473f 738d 6c3f
0.8203605 0.985795 0.7626362 0.8386346 0.90022475 0.8102917 0.9790033 0.7913561
0.8365636 1.0039538 0.7806786 0.9739097 0.7791575 0.79037595 0.8654038 0.71189624
0.9668206 0.79107326 0.77908856 0.92403334

time_mixing.2.ln.bias f4 [4, 5]
00000000: 1592 38be b229 2abe 04de 383e 09ec 283e
00000010: 90bc 25be cb7f 40be 11fd 30be b904 403e
00000020: 5113 2f3e 6253 30be b2b4 6abe 4783 61be
00000030: af8a 6f3e f34a 563e d0ad 47be e32e 86be
00000040: 7494 72be 0516 823e 8af7 513e ca9e 4fbe
-0.18024476 -0.16617468 0.18053442 0.1649629 -0.16185212 -0.18798749 -0.17284037 0.18751802
0.17097212 -0.17219308 -0.22920492 -0.22022735 0.23392747 0.20927028 -0.19499898 -0.26207647
-0.23689443 0.25407425 0.20504585 -0.20275417

time_mixing.2.U1.1 f4 [1, 2]
00000000: 9f78 20bb bc9b 253b
-0.0024485958 0.0025269827

time_mixing.2.U1.2 f4 [1, 3]
00000000: adeb 1a3a 37b0 8fbb 1796 823b
0.0005909752 -0.00438502 0.0039851773

time_mixing.2.U1.3 f4 [1, 4]
00000000: af77 093a d739 663b 4ad9 97bb 2392 cfb9
0.00052439695 0.003512969 -0.004634057 -0.00039590997

time_mixing.2.U2.1 f4 [1, 2]
00000000: 93a0 2d3c 62bf f23c
0.010597366 0.029632274

time_mixing.2.U2.2 f4 [1, 3]
00000000: 7a36 ffb9 b1eb 99bc e2db adbc
-0.00048677978 -0.018789144 -0.021223012

time_mixing.2.U2.3 f4 [1, 4]
00000000: 6a54 18bb fab8 1b3c 84ab 7c3c 9d07 9237
-0.0023243674 0.009504551 0.015421752 1.7408101e-05

time_mixing.3.ln.weight f4 [2, 5]
00000000: 8a41 eb3f 9dec c13f fb3d a73f c162 683f
00000010: 2cf5 f13f e00f 0040 7be6 a53f 2826 8c3f
00000020: 456e 4a3f 042b 523e
1.8379376 1.5150334 1.306579 0.90775687 1.8902946 2.000969 1.2960962 1.0949144
0.7907451 0.20524222

time_mixing.3.ln.bias f4 [2, 5]
00000000: c8a3 133d 87b0 033d 94bf 0abd ce12 e8bc
00000010: b2de e3bb 307b a8bd e007 f8bc e26e 54bd
00000020: 712b a8bc 55c6 4a3d
0.036044866 0.03215077 -0.03387411 -0.02832928 -0.0069540376 -0.08226621 -0.030277193 -0.05186356
-0.020528527 0.04950555

time_mixing.3.U1.1 f4 [1, 2]
00000000: d389 a13e 3fb1 97be
0.31550464 -0.29627416

time_mixing.3.U2.1 f4 [1, 2]
00000000: 2c2e b03e 1db4 1bbf
0.34410226 -0.60821706

conv1d.0.weight f4 [5, 5, 1]
00000000: 7446 67be 9f57 183b 5570 b63e 7aa6 dbbe
00000010: c10d 253f 7433 723d a8f9 103e b39a a5be
00000020: e62c a8bb 0c2d 11bd 6849 093e 91ad d9bd
00000030: 4afa d03e 0999 9bbc 0abe 46be 1a1c 50be
00000040: c241 a2bd 211b bd3d bbd3 563e 3155 093e
00000050: 8153 fb3d 5726 1abe 0e6a 5a3d 38d7 89be
00000060: ec77 473f
-0.2258547 0.0023245586 0.35632578 -0.4290045 0.6447411 0.0591311 0.14157736 -0.3234459
-0.0051323054 -0.03544335 0.13406909 -0.10628808 0.40815955 -0.018993871 -0.19408432 -0.2032322
-0.079226986 0.0923369 0.20979206 0.13411404 0.122717865 -0.15053688 0.053323798 -0.2692201
0.7791736

conv1d.0.bias f4 [5]
00000000: 54c5 c3be e7aa 4e3e aeaa 823d 014c 24bd
00000010: b44d 2a3c
-0.38236487 0.20182382 0.06380211 -0.040111545 0.010394502

conv1d.1.weight f4 [5, 5, 2]
00000000: b416 56be 1044 acbd e267 343e b521 763d
00000010: b63d 65be 676a 503d 039b 963d 475c cc3d
00000020: 1a6f c63c d392 1b3e 883e 053c 533c 333e
00000030: 542a 2d3d ca91 82be 7cda c43d 177f babe
00000040: 5f96 013e 2f8c a5bd 94c3 febd fa33 d63c
00000050: 6123 ffbd 1533 b3bb 9663 abbe 9cc2 40be
00000060: 7de9 f73d 1f2b e53d 9b64 0bbe b475 99be
00000070: 4601 6d3e 5d99 bcbd 9663 8d3e 6be3 ca3e
00000080: 0754 6f3e ceac 193e 274f 4f3d 0ab2 bdbd
00000090: a624 753e 0712 b43d 9211 88bd 0661 c13e
000000a0: dd90 a03d 6a91 14be 8187 833e f575 8f3e
000000b0: 2bd5 1bbe dc08 5bbe 087b 60be 988a bfbd
000000c0: d9d1 6b3d 0213 aebe
-0.20907098 -0.084114194 0.17617753 0.06009074 -0.22386822 0.050882723 0.07353785 0.09978538
0.0242229 0.15192728 0.008132584 0.1750348 0.042276695 -0.25501853 0.09611985 -0.36425087
0.12655018 -0.080833785 -0.12439647 0.026147831 -0.1245792 -0.005468736 -0.33474416 -0.18824238
0.12105081 0.11189865 -0.13612597 -0.29972613 0.23145017 -0.09208939 0.2761504 0.3962663
0.23371898 0.15007326 0.050612595 -0.09262474 0.23939762 0.08792501 -0.06643976 0.37769336
0.078401305 -0.14508596 0.2568932 0.28019682 -0.15218036 -0.21390098 -0.21921933 -0.093526065
0.057573173 -0.33998877

conv1d.1.bias f4 [5]
00000000: 8b8f 7cbd 584e 23be 3bad 823d 26ea f4bd
00000010: c124 883d
-0.06166033 -0.15947855 0.06380697 -0.11958723 0.06647635

conv1d.2.weight f4 [5, 5, 4]
00000000: 8c6a 323c 289f 403e 187c 973d 3c86 eb3d
00000010: 2c8a 54bd 632f 433d ce2b ddbd 3f5b e6bd
00000020: 4428 563d 31d2 0bbd f19d 053e dfb6 2b3e
00000030: 9f2a 7fbb 71cb 2c3e a03a 843c 9b81 373d
00000040: 77d6 b43d 8962 f83d ddbe 11be 91d6 093e
00000050: e301 14be 14ed 433e c133 9a3d 65f7 6e3e
00000060: 1ced 013e 0e35 8f3c f612 22be 6e7a 163e
00000070: 9540 453e 0cb1 863d 8fcd 6bbc a728 18be
00000080: 0782 26be a93a a8bd 9bf8 523e 3e54 06be
00000090: d145 c7bd ecc3 4e3e 7643 0b3e 4e8d 2a3d
000000a0: ce4b ec3d 06c0 a83a 9688 7abe 973c 123e
000000b0: 489c 0c3e 9962 23bc 4e6c 87be 44fa 6cbe
000000c0: 4f56 e73c b74d a13c 8a8c e8bd 435c 50bc
000000d0: bdec 203e 83de 01be 8c9d adbc eaec 0fbe
000000e0: 2327 3fbe f7d9 bc3d 9cea 24bd 2137 acbc
000000f0: 30a9 0b3d 1f4e dcbb dccf 2bbe 6507 bf3c
00000100: 89a9 83be 5bac 92bc a1d2 223e 05c2 6dbe
00000110: 6ee1 a3bd eb71 373e 4baf 543c 9351 0ebd
00000120: 3c7b 463d 9a7a d43b 5332 713d e941 50be
00000130: 2cf6 64bd 66e4 e13d 37ee 7bbe 072b f7bc
00000140: 35d4 5a3e 7491 a5bc c8bd 49be 1709 c6bd
00000150: 222d 153e 3bd4 eabd 63c8 31bd 521b bb3d
00000160: 6bd9 a5bd a24b 91bd e984 413e ecb9 8e3d
00000170: 2305 ad3d ecfc 03be 2429 c8bd c1af 3ebe
00000180: 789a 03be 1689 273e 7876 193e c6e8 453e
0.010889661 0.18810713 0.07396716 0.115002126 -0.051889583 0.047652613 -0.10799371 -0.112478726
0.052284494 -0.034136 0.13048531 0.16768979 -0.0038935316 0.16874482 0.016141236 0.044801336
0.088299684 0.12128169 -0.14232965 0.13460757 -0.14453845 0.19133407 0.075294025 0.23336561
0.12688106 0.017481353 -0.15827546 0.1469514 0.19262917 0.06576738 -0.014392271 -0.14859258
-0.16260539 -0.082143135 0.20602648 -0.13118073 -0.09730113 0.20191926 0.13599953 0.041638665
0.11537896 0.001287461 -0.24466166 0.14280926 0.13731492 -0.009972238 -0.26449817 -0.23142344
0.028239397 0.019690378 -0.11354931 -0.012717309 0.15715308 -0.12682538 -0.021193288 -0.1405522
-0.18667273 0.09221261 -0.040262803 -0.021022381 0.034096897 -0.00672318 -0.16778511 0.023318956
-0.25715283 -0.017904451 0.15900661 -0.23218544 -0.08001982 0.1791455 0.012981246 -0.034745764
0.04845737 0.006484342 0.058885884 -0.20337643 -0.05589883 0.11029892 -0.2460259 -0.030171884
0.21370013 -0.020210959 -0.19701302 -0.096697025 0.14567998 -0.11466261 -0.043403994 0.0913607
-0.0809811 -0.07094504 0.18898357 0.069690555 0.084482454 -0.12889451 -0.09773472 -0.18621732
-0.12851894 0.16360888 0.14986598 0.19327077

conv1d.2.bias f4 [5]
00000000: 8764 bd3d 30df 12be 88c5 273e 12bf 3e3d
00000010: b690 7f3d
0.0924769 -0.14342952 0.16383946 0.046568938 0.062393866

conv1d.3.weight f4 [5, 5, 8]
00000000: 1b29 fd3d 5d66 493d b6f2 c83d b241 fa3d
00000010: 5783 81bc e61a 123e 386f 153d 76ca 183e
00000020: 2b94 ec3c 89b6 9d3d 601d e53d e9ca e03d
00000030: 9b6a 4e3d 1609 dabd 1f46 0c3e 3958 b63d
00000040: b65b a03d fdb6 623c 8d8f 61bd c5f9 a83c
00000050: 789a 46bd 0f24 033e 9296 07bc f286 da3d
00000060: 26ca 15be 4fc6 a4bb 1ea3 99bd 285a 173e
00000070: 24d3 ba3d ff4f a6bd 8445 e63d 7b93 edbb
00000080: ae39 f7bd 5174 f4bd 0fd1 edbc 1e9e 99bd
00000090: 9cdc 453c 3b38 e9bc 674c 153d 9115 833e
000000a0: 0670 433d 9fd5 04be 132e ccbd 0884 393d
000000b0: b3cb a83d 1833 9bba 60c8 df3c df47 8ebc
000000c0: cb1c 0ab9 4a42 d83d ab4d b23d 1457 073e
000000d0: d095 b53d a7bb 19be b6d2 4a3d 83d6 ff3c
000000e0: 8302 253e a2c7 ff3d 78bb 87bd 6775 97bc
000000f0: ec1d f83d 23f7 81bd 292c 233d e793 efbd
00000100: 4c60 693d 6242 1a3e 04a3 6b3c 6c60 cbbd
00000110: 1079 33bc 9556 4abd 8f47 5f3d d59a 97bb
00000120: 757c db3d bd91 af3c 0e0e d3bc 3fa5 973d
00000130: 8990 00be 38cd a33d ff21 ed3d b26c 8c3e
00000140: 1c57 513e 31b7 3f3e 6e0f aabd d45e 87bd
00000150: ab6c 2fbd 1d2a 1a3b 8526 233e 8588 8cbd
00000160: 38c5 433e 42a8 91bd a75c 4abc 2579 2f3e
00000170: c3ec 7a3a 83c2 81bd a957 5a3d 196f 233e
00000180: fca8 2fbd 2b16 ea3d 5023 b2bb edeb 8c3b
00000190: ea8d bf3d abf5 e83c e0e0 97bd 59e6 13bd
000001a0: 4fff 02bd f01d a73d 8fa3 f5bd 04dc a93d
000001b0: 6d9d 973c 1a9e 4b3c 2960 993d 01ca d33d
000001c0: 3cec 96bd 7708 1abd 4edd 0f3e 73d7 d83d
000001d0: 118a 093e 0b8c 963c 69a1 3dbc 2228 34be
000001e0: 5b3b 513e 2151 ecbc 61a3 a53d 928e bb3b
000001f0: 547b de3d e53b 87bc ffce 513d 88cf f53d
00000200: 9960 3d3c bd43 603d 660f b2bc ee01 b8bd
00000210: 0147 7d3d f06e 2b3e 3d05 4f3e 0976 a43d
00000220: ce9c df3d 02f9 873d db28 fbbd e267 e73c
00000230: 7c47 cf3d 5666 acbd 98c2 9dbc 18a9 31bd
00000240: 7248 acbc 34c1 c2ba 5c56 e4bd 4123 403d
00000250: 4b4c 193d e6cd f33d b608 6ebd 68fb 47bc
00000260: 59c7 343e b238 423e 220c 783c f9e6 6abd
00000270: 4db8 7cbd 43f1 c83d 3dec 553e c9c2 63be
00000280: 1d24 1fbc ebe6 213e fca8 e43d 2d09 0fbe
00000290: fbde e63d 45ef e63d d5c2 de3d 454f e43b
000002a0: 0a00 103d 5dd2 2e3d ee29 a1bd 789b 893c
000002b0: 1089 753d 9188 f43d f4b9 f93d cf81 5dbd
000002c0: 45ba 913a 70a7 7d3d aa3a 563d 06e8 e3bc
000002d0: aeb7 d43d cfef c9bd 95c8 01be 7458 5e3a
000002e0: f088 fd3d fa0e 153e e337 e13b dae7 1c3e
000002f0: 46e1 b3bd ecbc afbd 7a99 393d 3dcb c23d
00000300: 484a d13c a656 41bd f11d e03d 3f6a cebd
00000310: 8021 463d f137 57bc baa4 3c3d a55a 3e3d
0.12361356 0.049169887 0.098119184 0.12219562 -0.015809698 0.14268073 0.03648302 0.14920983
0.028879246 0.077008314 0.111872435 0.10976202 0.050394636 -0.10646264 0.13698624 0.08903546
0.078299925 0.013837573 -0.05506854 0.020626912 -0.048487157 0.12806724 -0.008275645 0.1067027
-0.14627895 -0.005028523 -0.07501815 0.14780486 0.09122303 -0.08120727 0.11243728 -0.007250247
-0.120715484 -0.11936248 -0.029030351 -0.075008616 0.012076523 -0.028469196 0.036449816 0.2560239
0.047714256 -0.12972115 -0.099697255 0.04529193 0.082419775 -0.0011840789 0.027317226 -0.017368255
-0.00013171432 0.10559519 0.0870622 0.13216811 0.08866465 -0.1501299 0.049517356 0.031230217
0.1611424 0.12489249 -0.06627554 -0.018488599 0.12115082 -0.06345966 0.039837036 -0.11698132
0.0569766 0.15064386 0.014382128 -0.099305004 -0.0109541565 -0.049398977 0.054511603 -0.0046266117
0.10717098 0.021431798 -0.025763538 0.07404565 -0.12555136 0.07998127 0.1157875 0.27426678
0.20443386 0.18722226 -0.08303724 -0.06609884 -0.042828243 0.0023523637 0.15932663 -0.068619765
0.19118202 -0.07112171 -0.012351192 0.17136057 0.00095720234 -0.06335928 0.053306255 0.15960349
-0.042885765 0.114300095 -0.0054363385 0.0043005855 0.0935324 0.028437456 -0.074159384 -0.03610835
-0.031981762 0.08160007 -0.11994087 0.08293918 0.018507684 0.012427831 0.07489044 0.103412636
-0.07369277 -0.03760573 0.14049265 0.10587969 0.13431574 0.018377325 -0.011574128 -0.17593434
0.20432799 -0.028847279 0.08087803 0.005723783 0.10863367 -0.016508052 0.051222797 0.12002474
0.011558675 0.0547521 -0.021735858 -0.08984743 0.061835293 0.16741538 0.20216842 0.08030326
0.1091858 0.06639291 -0.12263652 0.028247777 0.101210564 -0.084179565 -0.019257829 -0.04337415
-0.021030638 -0.0014858604 -0.11149284 0.04690862 0.037426274 0.119045064 -0.058113776 -0.012205936
0.1765417 0.1896694 0.015139611 -0.05734918 -0.0616992 0.09811642 0.20890899 -0.22242273
-0.0097132 0.15810744 0.11165044 -0.13968344 0.11272999 0.11276106 0.10877005 0.0069674575
0.035156287 0.042681087 -0.078693256 0.016797766 0.059945166 0.119401105 0.12193671 -0.054078873
0.0011118135 0.06192726 0.05230204 -0.027820598 0.103865966 -0.09860193 -0.12674172 0.00084818085
0.123796344 0.14556494 0.0068731173 0.1532282 -0.08783202 -0.08580956 0.045312382 0.09511421
0.025548115 -0.047201775 0.10943211 -0.100788586 0.04837179 -0.013135896 0.046055533 0.046473164

conv1d.3.bias f4 [5]
00000000: 26dc bebd c3d4 1bbe edc2 7a3c 9975 9ebd
00000010: 554a 203e
-0.09319334 -0.15217881 0.015305263 -0.07737274 0.15653355

fc.weight f4 [1, 5]
00000000: eecb 903e 6f38 613e 095c 7cbe c7f8 00be
00000010: fac2 e93d
0.28280586 0.21994184 -0.24644484 -0.12594901 0.11414142

stock_mixing.M1 f4 [40, 1026]
00000000: 79b3 f1be 6c25 3cbe d02c c3bf ea86 b83b
00000010: 9d02 d3be bafc ab3f 5a6d 25bf 1241 d8bf
00000020: 0b02 8abf 7149 ffbf 2e3e 52bf c90b 0f40
00000030: 9c0b a4bf 432a 69bf 9983 12be fb9c 2f3f
00000040: 54c4 25bd 5d0e ae3f c885 56be ed85 a43e
00000050: 83fb 7d3e 175e 5d3e 3563 84bf 062a 44be
00000060: f846 873d b968 c63f 90d0 a53f 0fe9 2bbd
00000070: b219 cf3e 5ada 7bbe f4bf a7bf d1f6 c83e
00000080: 955c c6be 5ca8 96bf b37e 503f 3c3c 94bf
00000090: 6824 02bf e4a8 1cc0 78a8 f43e a6b2 0ebe
000000a0: be09 6abf d696 dfbd 6e0b 31bf 9597 5abf
000000b0: 697f 773f 65fe 9e3f ed75 9cbe 6e26 d7bd
000000c0: 18da 8d3f 8988 a0be 1ed8 e6bf caef 8b3f
000000d0: a7f6 8a3e eaf5 cf3e 4b1d 303f 5684 66be
000000e0: 0989 883d dd00 0b40 3d11 f4bf 36b8 57bf
000000f0: 9e83 993f 866b a0be 41ae b23f 92c2 5dbf
00000100: 387c 8fbe 1e11 d43f 819f bfbe a9cb d2bf
00000110: 3d96 383e 1b16 c03f 579f 8f3e 0adb f93e
00000120: 6fba 153e 3be8 f4bf c586 d73f 9a64 54bf
00000130: 4861 02be 414a 70bf b945 debe 1a0d 2240
00000140: 71ff 4cbf f5f3 71bf cf0b d73d 7d01 cfbe
00000150: 7d06 583f dd7a 8c3f 4116 4dbf 3f72 14bf
00000160: 92b6 33be 1906 503f 5056 bcbf a49d 0640
00000170: ff2e d93f 8319 7cbf bcf9 493f ae9e 41be
00000180: d795 1fbf c68c fbbe e619 01c0 bd58 b4bc
00000190: 409b 83be 83aa 813f 6352 71bf fdf2 c23e
000001a0: a3c4 95bf 6373 4bbf 97a5 3c3f ac06 37be
000001b0: 920d 0d40 cd52 463f d0bf b63f 0c14 913d
000001c0: 290b 523f 5a13 83bf 665d a0be 3c90 d3be
000001d0: d420 d6bf a812 04bf 95ab 143e ac17 a83f
000001e0: 56c8 3f3f 8a0a d6be ef89 5bbf 6d80 cd3f
000001f0: 9428 243e ecee 5dbf aaeb 8ebf e259 143f
00000200: 08b1 743f a9b8 ec3d a010 1f3f aed0 e53f
00000210: 6f7c 2cbf 9c40 9f3e 1550 5cbf a543 253e
00000220: 46dd 413f 32eb 1ebe 5eb5 6bbf 374c 26be
00000230: 4f71 d7bf f0f5 e8bf 53ca 9fbe d42b 373e
00000240: eaaf 8d3f ee0c 3fbe 466b 313e 0f45 763f
00000250: 68dd 793f 3b23 15bf 62ce 923e 5cda 73be
00000260: c365 6f3f 46c4 69be 94a0 103f 1b0d 373d
00000270: 95ef 6a3f ff11 233f d859 413f dac9 66bb
00000280: 1d77 99bf 0596 bb3e 0b18 8abf a3b3 9c3e
00000290: 4727 0fbf f94b 423f 872c 49bf da07 93bf
000002a0: b47b a7bf c076 683f e4f3 143e fb65 94be
000002b0: 6663 74bf 1349 663e 854a d3bf f064 08c0
000002c0: 43db 65bf e6be 543f 12d1 85bf 9a73 053f
000002d0: 1a06 0ac0 57bf a83f b585 5a3e c767 ebbf
000002e0: b7a6 6f3e cc44 20be d28d 253f 2c66 9f3e
000002f0: dbd2 9c3f c868 b2be f4c0 323f b0e9 2c3f
00000300: 3a65 9cbf c4e2 78be 1b46 9e3e 6d4f 45bf
00000310: 13c8 423e f4c7 3a3f 57f2 f2bd f1cd 0cbf
00000320: d09e 673f 250c 80bf 7b86 60bf 9797 ff3d
00000330: 0b92 d8bf 7caf 823f 6247 af3f 32eb 9c3e
00000340: 2cda b03d 3c1c a73e 0403 b5bf 4dab 943e
00000350: ee12 313f 4290 713e 489a 49be 5ede 583f
00000360: 6115 c3be f1de e43e daae 94bf c104 8e3f
00000370: f39f 863f caa9 743f 28b7 1b3f cd53 c6be
00000380: 7b82 abbe d272 4bbf e0b5 2840 ad69 dcbf
00000390: ae3d 37be 20da 47bd 7e12 aa3c fefc cb3f
000003a0: 866d 7cbf 352d 6ebe 1ffe 70be 8db8 1bbf
000003b0: 36f3 b43f 47d1 673f 2366 8bbc 9d2e 9fbf
000003c0: 368f 3e40 68af 84bf d4c4 753f ed3b 9cbf
000003d0: 0fe4 a03f 0d55 37bf 7d8a dc3e 239b 47bf
000003e0: a380 b7bd 73d8 af3e df3c 03bf 9f47 46bf
000003f0: 6d04 1dbf 3534 7d3e bd77 bebf aee7 80bf
-0.4720724 -0.1837365 -1.5248051 0.0056313174 -0.4121293 1.3436501 -0.6461998 -1.6894858
-1.0781873 -1.9944288 -0.8212613 2.2350943 -1.2816043 -0.9108011 -0.14308013 0.6859891
-0.040470436 1.3598133 -0.20949471 0.32133427 0.24802975 0.21617924 -1.0342776 -0.19156656
0.06605333 1.5500709 1.2954273 -0.04197031 0.4044929 -0.24595013 -1.3105454 0.39250806
-0.3874251 -1.1770129 0.8144333 -1.1580882 -0.508368 -2.4478083 0.4778478 -0.13935336
-0.91421115 -0.109174415 -0.69158065 -0.85387546 0.9667879 1.2421385 -0.3055872 -0.10505377
1.1082182 -0.31354168 -1.8034704 1.0932553 0.27141306 0.40617305 0.687947 -0.2251142
0.066667624 2.1719277 -1.9067761 -0.8426546 1.1993291 -0.31332034 1.3959428 -0.86625016
-0.2802446 1.6567724 -0.3742638 -1.6468402 0.18026061 1.5006746 0.28051254 0.48799926
0.146219 -1.9133371 1.6838003 -0.82966006 -0.12732422 -0.938633 -0.4341257 2.5320497
-0.8007727 -0.94512874 0.10500299 -0.40430823 0.843849 1.0974995 -0.8011208 -0.57986826
-0.17550114 0.81259304 -1.471384 2.1033716 1.6967467 -0.9847643 0.7889669 -0.18908188
-0.6233801 -0.4913084 -2.0172057 -0.02201497 -0.25704384 1.0130161 -0.9426634 0.3807601
-1.1700634 -0.7947294 0.7369017 -0.17873639 2.2039533 0.77470094 1.4277287 0.07083902
0.8204828 -1.0240281 -0.31321257 -0.4132098 -1.6728768 -0.5159097 0.14518578 1.3132224
0.74915063 -0.41804916 -0.85757345 1.6054817 0.16031104 -0.8669269 -1.1165669 0.5794965
0.9558263 0.11558659 0.6213474 1.7954309 -0.6737737 0.3110398 -0.86059695 0.16139086
0.7572826 -0.15519407 -0.9207362 -0.16240011 -1.6831454 -1.8200054 -0.3120905 0.17887813
1.106931 -0.18657276 0.17326078 0.96199125 0.97603464 -0.5825688 0.28673083 -0.23813766
0.9351465 -0.22828779 0.5649502 0.044690233 0.91771823 0.63699335 0.75527716 -0.0035215528
-1.1989475 0.36637893 -1.0788587 0.30605802 -0.5591931 0.75897175 -0.7858357 -1.1486771
-1.3084626 0.908062 0.14546162 -0.28984055 -0.9546417 0.22488813 -1.6507117 -2.1311607
-0.8978769 0.8310379 -1.0454428 0.5212952 -2.1566224 1.3183392 0.21340068 -1.8391045
0.2340344 -0.15651244 0.64669526 0.31132638 1.2251848 -0.34845567 0.69825673 0.6754408
-1.2218392 -0.24305254 0.3091286 -0.7707432 0.19021635 0.72961354 -0.11862629 -0.5500174
0.90476704 -1.0003706 -0.877052 0.12480085 -1.6919569 1.0209804 1.3693659 0.3064819
0.08635363 0.3263873 -1.4141545 0.29036942 0.6916951 0.23590186 -0.1968776 0.84714305
-0.38102248 0.4470134 -1.161586 1.1095201 1.0517563 0.9557158 0.6082635 -0.3873581
-0.33497986 -0.79472077 2.6361008 -1.721975 -0.17894623 -0.048792005 0.02076077 1.5936582
-0.9860462 -0.23259433 -0.2353444 -0.6082848 1.4136722 0.90553707 -0.017016476 -1.24361
2.977491 -1.036603 0.9600346 -1.2205788 1.2569598 -0.7161415 0.43074408 -0.77971095
-0.089600824 0.34344825 -0.51264757 -0.77453035 -0.6133488 0.24726947 -1.4880291 -1.0070703

stock_mixing.M2 f4 [1026, 40]
00000000: d176 6f3f 7a74 8b3f 42c5 983f a777 983d
00000010: 4542 ad3f d2df ccbe 8856 9ebe 21c2 00c0
00000020: c7ae 5e3e b202 f9bf bd75 dbbe 2710 25bf
00000030: eccd 863e 92d0 8ebd e50d 05bf 16fd a03f
00000040: 6671 c0bf a5d6 3ebe 53b2 b6be 3805 4dbe
00000050: 6048 3cbe ecfa b73b 04ae 2a3f 0e57 cb3f
00000060: 14f3 6bbd 2a57 aa3e 8f92 7e3e efed 0fbf
00000070: 5570 41be 7191 05c0 6f16 583f bbbb ae3f
00000080: b524 043f bc42 62bf 23f6 43be 9800 a3bd
00000090: 45e5 d23f b5a5 823f fb81 0b3f f949 9c3f
000000a0: f3ce 0bbe 2ed9 07bf 3e2e 0340 5959 5f3e
000000b0: 1837 a2bf 6876 8e3f 40ef 443e f795 4fbf
000000c0: a9df d3be 3450 54bc 2376 333f a761 fc3f
000000d0: c5f5 27be 34ee d13e d97b 44bd 568b aabf
000000e0: d86a 993f 12c7 24be 3f4c c7bf 0936 6fbf
000000f0: ff9a a1bf f039 073f abfb 053d fcd4 cbbe
00000100: bf61 283e 8e8c acbe bc35 1a3f 29c0 0d40
00000110: 5fd8 943f a21a 383e 6a33 e2bf 57ba 1cbf
00000120: 6fc3 e3bf 0efe 9c3d 9115 78bf 2bbb 053f
00000130: c905 623f 1926 bf3e 0704 0b40 611a 4fbf
00000140: ae4f 3d3e b73b 87bf cf9f 92be 4d56 b9bd
00000150: 7588 6b3f 3343 cd3f 9159 b0be b59d 3a3f
00000160: d076 bb3d fe4a 96bf 1712 04c0 97ef a43d
00000170: 1d4d 2d3f ddac 563e 1fb2 dabf 2f78 533f
00000180: 7271 eebe d682 c83f 0554 ad3f 4bd8 813d
00000190: a8fd 443f 01cb 37be c583 cdbe 120f bc3f
000001a0: c1a9 af3e 845b 39bf d9ec ff3f ede3 963e
000001b0: ab31 a1be c13d 70bf 621e 9a3f d1aa b83e
000001c0: 2334 cd3e 1319 1ebf 270f c0be c51a d7be
000001d0: 00cc 32bf 661a 823f dc0d 1f3e 958b 8ebe
000001e0: 7a97 133f 8c5d e0be 2828 943f 5bc6 773f
000001f0: 6b1f ff3e 51fc 3a3c 2f89 ca3f 2b54 ce3f
00000200: 1109 c6be e7ef 823f 30cc b33e 0c8c 28bf
00000210: b4a6 913f 36e4 d1be 20e2 7bbe 23a0 afbf
00000220: 0183 133f d0ed 04bf 6164 7e3f b7d0 83be
00000230: 5c2d 6f3e 87fb e93f fc37 ed3e a576 403f
00000240: c62c b43f 9d23 f8bd 19d4 c13e 8a8e dfbd
00000250: c6ee 2cbe 182f 3a3f e2d9 c3bf 847d 69bf
00000260: 5707 18bf f66a 3ebf 0771 403d 01cf 7f3f
00000270: b62f 9dbe 15ef 8bbf b343 01bd 3d61 87bf
00000280: 20bb 383f a7aa ed3e 3a97 2c3d 57fd 603f
00000290: d693 86bf 4fd9 743e b048 2dbf 591d 9cbf
000002a0: 8905 08bf 945c 29bd b55f b0bf 89a8 143f
000002b0: 309d e23f fdc7 6d3d 4961 c63f 480a 5dbf
000002c0: e6fa 893e bcba 943f 9ff4 86be e0cc 11be
000002d0: 77a1 fcbe e37b cabf 7c87 95bf 9632 debe
000002e0: 7f80 903e db4e 8a3e 1545 573f 6c98 e2be
000002f0: f588 013f 4b58 583f 6b9f 023f 4743 693e
00000300: f611 93be e499 b83f 0b99 dbbe fa39 f03f
00000310: f1d6 9abe 778b 213f d58a a6be f451 093f
00000320: 95a0 e13c 8d89 25bf 8939 89bc e1d2 48bf
00000330: 0daf 16be 93c2 d5bc 2001 da3e 5b94 3abf
00000340: 4b4f 64bf 0c4f 9dbe 3e92 f4be 3d65 84bc
00000350: 0157 e73e d7f2 ec3f f67e a43f e31c 4abf
00000360: b987 72bf 85fd 41be 455f 83bf bb40 dcbe
00000370: e4b1 9ebf 5e77 e13e 363f e9bd 7e35 6e3e
00000380: 100a 04bf a72b d23e 6eff d43e a05e c5be
00000390: 0c27 9fbe b156 653f fd6f f6bf efc3 44bf
000003a0: 40cf 4bbe 5b34 8f3e 9204 c83e 6531 9cbe
000003b0: 31f5 96bc cca1 c1bf 211c 8dbf 1ef2 853d
000003c0: a55a cfbf efe6 a93f 9dfb 5f3e e694 6c3c
000003d0: 7f23 f3be 7a2c 023f fa35 b2bf f7f8 dabe
000003e0: 179a 453f 3144 54be 1089 e2be a1d8 8cbf
000003f0: cc0e 18bf e6d4 98bf 2b2d 03bf 42b9 8abf
0.93540674 1.0894921 1.1935198 0.07444697 1.3535849 -0.4001451 -0.30925393 -2.0118487
0.2174636 -1.9453948 -0.42863265 -0.6447777 0.2632898 -0.069733754 -0.51974326 1.2577236
-1.5034606 -0.18636568 -0.35682926 -0.20021522 -0.18386984 0.005614629 0.66671777 1.5885942
-0.057604864 0.33269626 0.24860595 -0.5622243 -0.18890508 -2.087002 0.8440923 1.3651041
0.5161851 -0.8838308 -0.19136862 -0.079590976 1.6476218 1.020682 0.5449521 1.2210075
-0.13653164 -0.53065765 2.0496974 0.21811427 -1.2673063 1.1129885 0.19231892 -0.81088203
-0.41381577 -0.012958575 0.7010214 1.9717301 -0.16402347 0.41002047 -0.047969673 -1.3323772
1.1985731 -0.16091564 -1.5570143 -0.93441826 -1.2625426 0.5282278 0.032710712 -0.39810932
0.16443537 -0.33700985 0.6023824 2.2148535 1.1628531 0.1797891 -1.767194 -0.6122183
-1.7794017 0.076656446 -0.9690791 0.5223872 0.8829008 0.37333754 2.1721208 -0.80899626
0.18487427 -1.0565099 -0.2863755 -0.09049664 0.9200509 1.6036133 -0.34443334 0.7289689
0.09153521 -1.1741636 -2.063604 0.08053511 0.6769579 0.2096438 -1.7085608 0.8260526
-0.46570927 1.5664928 1.3541266 0.06340083 0.7694955 -0.17948534 -0.40139595 1.4692099
0.343092 -0.72405267 1.9994155 0.2947077 -0.31483206 -0.9384423 1.2040522 0.36067823
0.4007884 -0.6175701 -0.3751156 -0.4201261 -0.6984253 1.0164306 0.1553263 -0.27840868
0.5765301 -0.4382137 1.1574755 0.9678704 0.49828658 0.011412696 1.5823115 1.6119436
-0.38678792 1.0229462 0.3511672 -0.65838695 1.1378999 -0.40994424 -0.24597979 -1.3720745
0.5762177 -0.51925373 0.99371916 -0.25745174 0.23357147 1.8279885 0.46331775 0.7518104
1.4076164 -0.12116168 0.3785713 -0.10915859 -0.1688796 0.7272811 -1.5300868 -0.91207147
-0.593862 -0.7438196 0.04698279 0.9992524 -0.30700463 -1.0932337 -0.031558704 -1.057655
0.7216053 0.4641926 0.04213641 0.87886566 -1.0513866 0.23911022 -0.6768904 -1.2196456
-0.53133446 -0.041348055 -1.3779207 0.58069664 1.770422 0.05805205 1.5498439 -0.8634381
0.26949233 1.1619487 -0.26358506 -0.1423831 -0.49341938 -1.5819057 -1.1681972 -0.4339797
0.28223035 0.27013287 0.84089786 -0.44256914 0.50599605 0.84509724 0.510245 0.2277957
-0.2872464 1.4421964 -0.428902 1.8767693 -0.30242112 0.6310343 -0.32527795 0.53640676
0.027542392 -0.6466301 -0.016751068 -0.78446776 -0.14715214 -0.026093757 0.42578983 -0.7288262
-0.8918349 -0.3072437 -0.47767824 -0.016161555 0.45183566 1.8511609 1.2851245 -0.7895033
-0.94738346 -0.18944366 -1.0263449 -0.43018135 -1.2398038 0.44036382 -0.1138901 0.23262593
-0.51577854 0.4104893 0.41601127 -0.38548756 -0.31084478 0.89585406 -1.9252926 -0.7686147
-0.19903278 0.27969632 0.39065987 -0.30506435 -0.018427463 -1.5127501 -1.1024209 0.06540321
-1.6199538 1.32736 0.21873327 0.014439797 -0.4748802 0.50849116 -1.3922722 -0.4276807
0.7718825 -0.20729138 -0.44245195 -1.100361 -0.5939758 -1.1939971 -0.51240796 -1.0837786

stock_mixing.ln.weight f4 [1026, 30]
00000000: c0f2 823f 87ec 7d3f 5371 823f 25b8 7b3f
00000010: c25f 833f b15f 823f c82c 8a3f 089e 7f3f
00000020: 5984 853f 41ce 843f 4dd0 823f 32f8 783f
00000030: f5fc 843f 0dee 813f 02a4 793f 6b34 833f
00000040: 966c 803f 624f 893f 2319 843f a60a 803f
00000050: 392d 833f 56a8 773f 2a65 713f d320 783f
00000060: 5660 803f ec3b 7c3f d5c1 7c3f 3d2e 823f
00000070: 55b5 843f f2d4 803f bf57 7a3f 9c1d 7a3f
00000080: 3951 7d3f 3bea 813f 4a11 763f f825 783f
00000090: 0f83 763f 86fc 7c3f f4a0 6c3f d484 773f
000000a0: 9a4a 7d3f 3a45 843f 2485 773f 66ae 813f
000000b0: eaa6 763f 2834 7a3f cba7 813f 663a 853f
000000c0: 3af9 863f 5f5f 7a3f 7d74 833f a204 663f
000000d0: ceae 783f aaef 803f 8b5b 713f 3a5e 783f
000000e0: a61c 803f 507c 803f fc7d 7b3f 46c8 7e3f
000000f0: 9c12 743f 7193 733f de5c 703f d012 783f
00000100: 152c 783f a200 7b3f b853 743f 79e0 713f
00000110: d1af 813f b2fd 713f 7366 703f 63bf 803f
00000120: 9986 793f 97d5 793f b692 793f 717b 7a3f
00000130: 5a68 7b3f 338c 843f 1ea4 803f 581f 823f
00000140: 7e81 793f 73a9 903f 0f17 8b3f c02d 873f
00000150: c0b8 723f b74c 6e3f 61d5 673f 6509 6e3f
00000160: 275d 7a3f 178c 7f3f c083 733f c857 773f
00000170: 6e30 783f dfbe 6a3f cde8 7e3f 0b85 813f
00000180: 89cc 643f 004e 7b3f c371 653f 3e13 683f
00000190: af8c 6b3f f825 6f3f 4803 7d3f 535d 663f
000001a0: b0f1 7f3f b1c7 6b3f fb3b 7f3f 7d2d 7d3f
000001b0: e564 863f 4fc0 763f d2bb 743f 64c7 903f
000001c0: 10d1 883f d75d 7f3f 0397 833f 2a80 713f
000001d0: f6a9 6f3f 56bb 743f 60c8 713f 8f34 743f
000001e0: 5642 863f 4fa6 833f 6d03 873f 2cbc 763f
000001f0: 3e9c 813f 896f 833f 0e88 863f 0045 883f
00000200: 7a7b 823f 8e76 803f a015 843f a039 823f
00000210: 732a 863f a1a4 843f b1f2 863f 6358 793f
00000220: b8c2 7e3f 2a37 823f fa23 833f d8ff 7f3f
00000230: 6a20 803f 8c27 833f 44ea 813f 7477 813f
00000240: 832f 863f 0796 873f 6771 843f ff90 853f
00000250: 28fc 853f 63a1 813f 1669 723f 5aae 6b3f
00000260: fc9c 743f 8099 723f 66b3 783f ecf3 713f
00000270: e106 783f 880d 6c3f 35f0 703f b540 6e3f
00000280: b859 6a3f b911 793f 81b5 6e3f 5fcc 6d3f
00000290: 2d86 773f 1a39 673f a494 843f 2635 813f
000002a0: fd93 833f 489d 803f 5f4b 723f 29cf a43f
000002b0: c172 8f3f 8633 893f 933b 5c3f 19d2 713f
000002c0: 1ac6 613f 9ed9 683f e267 7a3f a4c5 723f
000002d0: db76 8c3f 845e 853f c96d 853f 814a 883f
000002e0: 44cd 833f c5f3 7a3f 0441 883f d0ad 833f
000002f0: 1799 843f fa8f 833f 8be7 843f 82ed 8c3f
00000300: aecf 853f bded 853f 96a0 853f b4e6 853f
00000310: c7e9 803f 2b2c 8c3f 32bd 6c3f c6bf 763f
00000320: e913 8a3f a84b 4e3f b7cd 5f3f 9206 6f3f
00000330: 6268 8d3f 45ad 8a3f 12e9 883f 2da6 853f
00000340: 31f9 823f 54fd 843f 28a4 8b3f 288b 853f
00000350: 09bd 883f d417 8b3f f622 853f 8620 853f
00000360: af29 8c3f 0ad4 8b3f 714f 8e3f 71c0 8e3f
00000370: 7d7c 903f 00a3 853f 5487 853f 1dbb 8c3f
00000380: d9ff 833f e5f2 843f 9799 823f 6988 833f
00000390: bfd1 7a3f c9b9 7d3f 8ec2 863f 6132 193f
000003a0: c6d5 333f 6345 553f 1790 903f c8a2 8c3f
000003b0: 883c 903f 1b19 903f 660e 823f b7e4 843f
000003c0: d55a 8c3f 991a 8c3f 54c2 8f3f 32bf 8b3f
000003d0: 3e5c 8a3f b8e5 8a3f 40cb 8a3f 2fcc 8c3f
000003e0: 3e7c 8c3f 6be7 843f 75f6 8b3f 8d85 8a3f
000003f0: 7777 8b3f 65cf 943f 98c0 8f3f afaa 913f
1.0230331 0.9918904 1.0190834 0.9832786 1.0263598 1.0185453 1.0794916 0.9985051
1.0431014 1.0375444 1.0219818 0.97253716 1.0389696 1.0150772 0.9751588 1.0250372
1.0033138 1.0727351 1.0320171 1.000325 1.0248176 0.96741235 0.9429499 0.96925086
1.0029399 0.98528934 0.98733264 1.0170361 1.0367838 1.0064986 0.9779014 0.9770143
0.9895206 1.0149606 0.9612013 0.96932936 0.9629373 0.9882282 0.92433095 0.96687055
0.9894196 1.0333626 0.9668753 1.0131347 0.9634844 0.97735834 1.0129331 1.0408447
1.0544808 0.97801775 1.0269924 0.8985082 0.9714173 1.007314 0.9428031 0.9701878
1.0008743 1.0037937 0.9823911 0.99524343 0.95340896 0.9514685 0.93891704 0.96903706
0.96942264 0.9804784 0.95440245 0.94483143 1.013178 0.94527733 0.93906325 1.0058407
0.97471005 0.9759154 0.9748949 0.97844607 0.982061 1.0355285 1.0050085 1.0165815
0.97463214 1.1301712 1.0866412 1.0560837 0.94813156 0.9308581 0.90559965 0.92983085
0.9779839 0.99823135 0.9512291 0.9661832 0.969489 0.91697496 0.99573976 1.0118726
0.89374596 0.98165894 0.8962671 0.9065436 0.9201154 0.9341731 0.9883313 0.8998615
0.9997816 0.9210158 0.997009 0.98897535 1.049954 0.9638719 0.9559909 1.1310849
1.0688801 0.99752563 1.028046 0.9433619 0.93618715 0.9559835 0.94446373 0.953927
1.0488994 1.0285128 1.054792 0.9638088 1.0125806 1.0268413 1.051027 1.0646057
1.0193932 1.003618 1.03191 1.0173836 1.0481704 1.0362741 1.0542814 0.9740049
0.9951587 1.0173085 1.0245354 0.9999976 1.0009892 1.0246444 1.0149617 1.0114579
1.048325 1.059266 1.0347108 1.0434874 1.0467577 1.0127376 0.946916 0.92062914
0.9555204 0.9476547 0.9714874 0.9451282 0.96885496 0.9220815 0.94116527 0.93067485
0.9154315 0.9729267 0.93245703 0.9288997 0.9668911 0.90321505 1.0357862 1.0094345
1.0279537 1.0047998 0.9464626 1.287572 1.1206895 1.0718849 0.86028403 0.9446121
0.88192904 0.9095706 0.9781476 0.94832826 1.0973772 1.0419469 1.0424129 1.0647737
1.0297017 0.9802821 1.0644841 1.0287418 1.0359219 1.0278313 1.0383161 1.1009982
1.0454004 1.0463177 1.0439632 1.046103 1.0071343 1.0950979 0.9247619 0.96386373
1.0787326 0.8058419 0.8742327 0.933694 1.104748 1.0834128 1.0696127 1.0441338
1.0232297 1.038981 1.0909472 1.0433092 1.0682689 1.0866647 1.0401294 1.040055
1.0950221 1.0924084 1.1117994 1.1152478 1.1287991 1.0440369 1.0431924 1.0994602
1.0312454 1.0386626 1.0203122 1.0276004 0.979763 0.9911161 1.0528123 0.598425
0.7024807 0.83309 1.1293973 1.0987177 1.1268473 1.1257662 1.0160644 1.0382298
1.096522 1.0945617 1.1231179 1.0917723 1.08094 1.0851355 1.0843277 1.0999812
1.0975416 1.0383123 1.0934588 1.0822006 1.0895833 1.1625792 1.123065 1.1380213
