weights/stockmixer_L16_H64_M40_K4_E50_s2_tanh.pt (torch, 630786 bytes, 93 tensors)

indicator_time_mixing.0.indicator_mixing.W1 f4 [5, 64]
000000 26 98 87 bf 5c e8 6d 3f 7c f1 a2 bf 9f 22 91 bf
       -1.0593307 0.9293268 -1.2729945 -1.133869
000010 3f f0 b0 bf d8 a1 7f 3f 40 83 89 bf ad 14 c8 bd
       -1.3823317 0.9985633 -1.0743179 -0.097695686
000020 f4 33 6a bf a8 2b b6 3e 4f 8f 0c bf 7f 7b 7f be
       -0.91485524 0.35580182 -0.5490617 -0.24949454
000030 18 89 82 3f 42 dc 3f bf d7 0a 7b be 04 44 00 bf
       1.0198088 -0.7494546 -0.24515854 -0.50103784
000040 62 18 c8 bf 90 cf e4 be 0f 28 5a bf c3 62 08 3f
       -1.5632441 -0.44689608 -0.85217375 0.532757
000050 09 d2 24 bd fe d3 88 bd 17 9f 8a 3f 1a cd 5d 3f
       -0.040239368 -0.06681059 1.08298 0.86641085
000060 37 c3 f7 3e 60 90 01 bf a3 1c 0a 3e b1 1b 2b 40
       0.48391125 -0.50610924 0.13487487 2.6735651
000070 f2 f2 1b 3e db 21 90 3f af 30 a4 3e a6 d9 e1 3f
       0.15229395 1.1260332 0.32068393 1.7644546
000080 77 7d 41 bf 85 7c e9 3f 52 fd 87 be 17 e8 8e be
       -0.7558207 1.8241125 -0.26560456 -0.27911445
000090 41 1f a3 bf 9d 55 f6 bc b2 1e 60 be ab e3 31 bf
       -1.2743913 -0.03007012 -0.2188671 -0.6948802
0000a0 ba 3a 99 3f b9 36 dc 3e cc eb 91 bf 4d 1b 3e bf
       1.1971047 0.430105 -1.1400084 -0.7426041
0000b0 4f 4e 72 bf 21 7d 55 bf 4b e1 72 bf 02 6d c0 bd
       -0.9465074 -0.83394057 -0.9487502 -0.093957916
0000c0 90 78 83 bf 96 7d 9c 3e 9f 16 d0 bf 20 45 d3 3f
       -1.0271168 0.30564564 -1.6256903 1.650547
0000d0 e1 e9 1a 3d a6 5f a2 3f c1 74 18 bf 15 72 92 3f
       0.0378207 1.268544 -0.5955315 1.1441065
0000e0 b7 66 3e 3f 65 fa 99 bf 04 9f 1b bf 2a b7 de be
       0.7437548 -1.2029539 -0.60789514 -0.43499118
0000f0 17 fe 00 c0 42 20 43 3f 6c 21 4b bf 38 37 31 be
       -2.0155084 0.76221097 -0.7934787 -0.1730622
000100 56 bc 8f 3f de a8 1f bf b7 e3 b7 bf 28 88 75 be
       1.122935 -0.62367046 -1.4366368 -0.2397772
000110 82 fe 7d bf 1f a4 bf 3f b8 b1 68 be 7a 46 77 3f
       -0.99216473 1.4971961 -0.22724044 0.96591914
000120 57 32 07 40 30 a8 77 bf a8 b4 4b 3e 72 ca 13 be
       2.1124475 -0.9674101 0.19893134 -0.14432696
000130 c7 38 87 be cd a1 aa 3e 24 f4 2e 3e f0 21 05 40
       -0.26410505 0.3332657 0.1708532 2.0801964
000140 00 b0 55 3f fe 24 c6 3d 60 c2 66 bd 7b df 58 3f
       0.8347168 0.096750244 -0.056337714 0.84716004
000150 ae 71 07 3f 93 c4 4a bf f5 80 b2 3e a5 23 22 3e
       0.52907836 -0.792062 0.3486401 0.1583391
000160 9d 65 08 40 66 0c 89 3f 82 b9 8f 3c b4 8b 87 3f
       2.131202 1.0706909 0.017544512 1.0589509
000170 9d 25 c6 bf 4e 03 40 be 6d 10 86 bf 84 1f c7 bf
       -1.5480229 -0.1875126 -1.0473763 -1.5556493
000180 09 dc da 3d 54 28 b3 be 82 11 7d 3e 70 50 25 3f
       0.106864996 -0.34991705 0.2471371 0.6457586
000190 ab 9b 67 3f 1f ac 6d bf 61 3f 45 3e 4b 90 83 3f
       0.90471905 -0.9284076 0.19262458 1.027841
0001a0 a0 d2 df be c2 b1 0c bf b1 7b 02 bf 50 a7 24 bf
       -0.43715382 -0.54958737 -0.5096999 -0.643178
0001b0 a4 a2 c0 3c 9e ad eb be ac f2 c2 bc 69 32 99 3f
       0.023515053 -0.46030897 -0.023797356 1.1968509
0001c0 50 25 09 3f f5 df 4b be c6 a7 11 3f 2b 4d 2e 3f
       0.5357256 -0.19909652 0.56896627 0.680865
0001d0 d5 ef 01 3f 05 13 ac 3f 6f a2 f8 be ce 8f 6e 3f
       0.5075658 1.3443304 -0.48561427 0.9318818
0001e0 f6 39 1c bf 7d 9a 8e bf 33 20 70 3e 10 b6 33 bf
       -0.6102594 -1.1140896 0.23449783 -0.7019968
0001f0 b3 86 74 bf 0c c7 e9 3f 85 cd 7e 3f d1 3f bc bf
       -0.95518035 1.8263869 0.9953235 -1.4706975
000200 f6 9c 2d bd 4b 15 9d 3e bd f1 0f 3f a2 65 b2 bf
       -0.042386018 0.30680308 0.5622824 -1.3937266
000210 59 aa 63 3f 07 72 6a be a7 8e 37 3f 24 47 6a be
       0.88931805 -0.2289506 0.71702045 -0.228787
000220 1a 04 17 be 63 86 11 3e 6a 85 95 bd e8 b2 b7 3e
       -0.14747658 0.1421142 -0.07300837 0.35878682
000230 65 53 e6 3d 59 f5 14 3e 9d d8 ab bf 12 b6 cf bf
       0.11246375 0.14546718 -1.342548 -1.6227438
000240 e2 9d 85 3f 3b a6 fb bf 25 47 13 be 22 34 de 3f
       1.0438807 -1.9660105 -0.14382608 1.735966
000250 72 49 0e 40 56 f4 23 bf 07 b9 a7 3f 66 8a dc be
       2.2232327 -0.640447 1.3103341 -0.4307434
000260 1f 82 07 3f f5 19 92 3d b6 34 81 3e e2 41 68 3f
       0.52932924 0.07133857 0.25235528 0.9072553
000270 8c 4b 21 40 91 c8 45 bd 28 c1 a3 be bd 4e 73 bf
       2.520236 -0.04828698 -0.31983304 -0.9504202
000280 63 dc 43 bc 49 a9 c3 3f 67 12 80 3e 35 5c 09 be
       -0.0119544 1.5286037 0.2501404 -0.1341408
000290 e1 bd 06 3f 29 20 c5 bf a8 bb 20 3f f4 f8 92 bf
       0.5263348 -1.540044 0.6278634 -1.1482224
0002a0 cb d4 0f 3f 28 f1 97 3f 2d 0a 98 3f 6e d4 5f bd
       0.5618407 1.187047 1.1878105 -0.054645948
0002b0 42 87 89 bf bc 4b 80 3f 3c 9f 47 3e 93 1a cf 3c
       -1.0744402 1.0023112 0.19494337 0.025281226
0002c0 0d 87 bd 3e 04 52 a8 3e 88 5f 5f bf 43 56 18 bf
       0.37017098 0.32875073 -0.87255144 -0.59506625
0002d0 9e 44 20 3f 8d 49 09 bc 93 64 13 bf 78 fc 9f 3f
       0.626047 -0.008379352 -0.5757534 1.2498922
0002e0 c5 6d ab 3d b2 4d 98 3f f8 41 eb 3f a7 7f b9 bf
       0.08370546 1.1898711 1.8379507 -1.4492081
0002f0 74 29 45 be 8e 7a 77 bf cc 25 b6 bf ef 17 2c 3f
       -0.19254094 -0.9667138 -1.4230285 0.6722402
000300 b1 2d 5b 3f 69 3d 17 3f 0e ff 51 be 52 e4 28 3f
       0.85616595 0.5907808 -0.20507452 0.6597339
000310 c6 9c 89 bf 5c 23 04 3f 29 ba 08 bf 13 f2 87 bf
       -1.0750968 0.51616454 -0.5340906 -1.062075
000320 c6 41 d1 3f 0a 9b b4 3f 56 c3 6a 3f db b1 a1 3e
       1.6348197 1.4109814 0.9170431 0.31581005
000330 b3 32 05 3f 3c d0 28 bf 72 04 bd bf d7 17 e6 3f
       0.52030486 -0.6594274 -1.4766982 1.7976025
000340 fd 2d 4f bf 51 70 ea be 23 8f 90 be 57 c4 6c 3f
       -0.8092955 -0.45788816 -0.28234205 0.9248709
000350 54 a5 86 bf b6 30 c5 3e b4 39 08 3f b7 03 66 3f
       -1.0519204 0.38513726 0.5321305 0.8984942
000360 27 94 e8 be 8d 74 1f 3f fb ac ac be 78 1d 27 be
       -0.4542553 0.6228722 -0.33725724 -0.16319835
000370 75 d3 bb be 01 db 23 3f 71 da d6 bd 3d a8 8b bf
       -0.36684766 0.6400605 -0.10490883 -1.0910717
000380 5c 92 3e bf 94 23 4d bf 3d a4 a9 3d 4a 3e 16 c0
       -0.74442077 -0.8013241 0.08283279 -2.3475518
000390 0a 80 89 bf 54 87 c3 be f2 c4 0d 3c 3e d4 97 bd
       -1.07422 -0.38189185 0.008652912 -0.07413529
0003a0 5f 11 3e bf ef 85 12 3e 5e 42 4d 3f 71 b8 73 3e
       -0.74245256 0.14308904 0.80179393 0.23800828
0003b0 25 56 a1 3f ad 52 29 3f ef dc 9d 3f 5a a8 ac 3f
       1.2604414 0.6614178 1.2333049 1.3488877
0003c0 3b d1 94 be 73 12 17 3f 94 5a 38 3e 87 5f 87 3e
       -0.2906588 0.59012526 0.18003303 0.2644007
0003d0 a2 e5 ce bf c4 48 01 40 d1 5f a5 3f 4e ed a4 3e
       -1.6163828 2.0200663 1.2919866 0.322123
0003e0 03 4c 35 3f cb 37 b5 3f 49 bb 9a 3e 4b 29 74 3d
       0.7081911 1.4157652 0.30221012 0.059609693
0003f0 23 31 cb bf 29 74 7a 3e ad 38 92 3f 0a 65 c4 bf
       -1.587437 0.24458374 1.1423546 -1.5343335

indicator_time_mixing.0.indicator_mixing.W2 f4 [64, 5]
000000 22 f2 60 bf b9 ff 27 3f ba aa 80 3f 16 6d bb bf
       -0.87869465 0.65624577 1.0052102 -1.4642665
000010 cb 30 02 bf e8 8b 47 3d 98 d0 6b 3f 2f e5 5e bf
       -0.508557 0.04871741 0.92115164 -0.87068456
000020 88 0d 0f bd 06 52 5c be 25 bb 95 3f 8a 05 8a 3d
       -0.034925014 -0.21515664 1.1697737 0.06739338
000030 db 66 a7 bf 29 30 8a be c9 63 b1 3c 34 f7 dc bd
       -1.3078264 -0.26989868 0.021654027 -0.10789338
000040 d5 bd af 3f 93 80 74 3b c7 c3 c4 3f 29 99 87 bf
       1.3729807 0.0037308082 1.5372247 -1.0593616
000050 3b 71 f5 bd fb dd 20 3e b5 d7 a9 3d 06 9e f0 bf
       -0.119844876 0.15709679 0.08293096 -1.8798225
000060 58 85 cf bf c9 c6 1c 3f 5e 82 7c 3f 18 47 9e bd
       -1.6212568 0.6124082 0.98636425 -0.07728404
000070 53 2e 1c 40 14 da b0 be 81 3d aa 3f 25 68 26 bf
       2.4403274 -0.3454138 1.330002 -0.6500266
000080 6d 2f b2 3e c3 65 80 3f 73 3e 48 bd bc c1 7c bf
       0.34801808 1.0031055 -0.04888768 -0.98733115
000090 12 24 af bf 19 9c b3 3d ae 33 e6 bf 4c c9 92 be
       -1.3682883 0.08770008 -1.7984521 -0.28669202
0000a0 f2 57 9d bd f6 98 20 3f 66 f6 17 40 fb 3c b4 3f
       -0.0768279 0.627334 2.374414 1.408111
0000b0 c5 75 4e bf 40 07 2e bf 47 1e b7 bf bb 32 32 3f
       -0.8064845 -0.6797981 -1.4306115 0.6960866
0000c0 2d f9 70 3e 53 72 85 3e 7c 47 3d bf c0 0a a3 3e
       0.23532553 0.26063785 -0.739372 0.3184414
0000d0 54 b5 87 3d 6c fc 2e 3f e0 79 dc 3e 48 75 4c bf
       0.066263825 0.68353915 0.43061733 -0.79866457
0000e0 f5 35 cd 3e 20 7a 67 3f fd 17 76 3e 83 a0 17 bf
       0.40080228 0.9042072 0.24032588 -0.59229296
0000f0 69 0f ea bf 60 1c 8d 3f 1c ec 12 3f 82 31 b7 bf
       -1.8285953 1.1024284 0.57391524 -1.4311984
000100 41 f9 8c 3f b6 23 96 bf ec 82 9f 3f 36 fd 10 3f
       1.1013566 -1.1729648 1.2461829 0.5663637
000110 1e 77 cc be 0e 1d 5e 3f 7e 1e 3d 3e fb 3d 4d 3e
       -0.3993463 0.86763084 0.18468663 0.20043175
000120 9a 3f 56 3e 8a 2c ba be 78 9b 8b bd 47 24 31 3e
       0.209227 -0.36362106 -0.06816763 0.17298995
000130 6f d3 70 bf 05 8c 01 bd 73 c9 82 bf 97 a8 e8 bf
       -0.9407262 -0.031627674 -1.0217727 -1.817645
000140 89 5d 59 3f ae ab a0 bf b9 6a 56 3e 8f ab 34 40
       0.8490835 -1.2552392 0.20939149 2.822971
000150 14 4b 22 be 06 7b a7 bf 11 ab 24 bf 51 50 4c be
       -0.15848953 -1.3084419 -0.64323527 -0.19952513
000160 97 a6 41 be c3 17 6c bf ba 1c a2 3f 27 10 0e 3f
       -0.18911205 -0.9222376 1.2665017 0.55493397
000170 5a 2a ee 3d 1a 05 89 3f c5 20 1c 3e ac 52 88 3e
       0.11629172 1.0704682 0.15246876 0.26625574
000180 8f 57 6a bf aa 6a 03 3e 05 15 b9 bc 0d bf 4f bf
       -0.91539854 0.12833658 -0.02259303 -0.81150895
000190 1e f1 cf bf dd 6e 5c 3e 9a 29 03 40 a9 f6 6b 3f
       -1.6245458 0.21526666 2.0494142 0.9217325
0001a0 4e ab 8a bf 0d c1 f1 3f dc 08 ed be 5e 7d ab be
       -1.0833528 1.888704 -0.46295822 -0.33494085
0001b0 1a c4 ca 3f b5 5e db bc cc 27 28 3f 06 a5 d7 be
       1.5841095 -0.026778558 0.65685725 -0.4211809
0001c0 a0 14 ef be a4 27 69 bf 3b a3 be be 23 8d 11 3f
       -0.46695423 -0.9107611 -0.3723391 0.5685598
0001d0 62 81 ba 3f 52 15 a8 3b f2 c7 6d be 7a 8e 8e bd
       1.4570735 0.0051294947 -0.23220804 -0.06960769
0001e0 2c 65 eb 3f 88 e7 04 3f 5e 37 58 bf 7c c1 04 c0
       1.839025 0.5191579 -0.84459484 -2.0743093
0001f0 95 fa 05 3f ea 7a aa be 3c ee dc be 70 70 f8 bd
       0.5233548 -0.332969 -0.43150508 -0.12130821
000200 ef c0 86 be 45 63 16 bf 96 14 97 3d 76 dd b9 3f
       -0.26319072 -0.58745223 0.07376973 1.452071
000210 be 42 75 bf 2e c5 c9 3b 3b 2f 8a 3f b8 ca 38 bf
       -0.95804965 0.006157539 1.0795664 -0.72184324
000220 c9 a7 d2 3d ca cf 1f be 92 d6 88 3f fc 95 47 bf
       0.10285909 -0.15606609 1.0690482 -0.77963233
000230 f9 29 3e be ba 48 6c bf c4 22 21 3f c1 b1 81 3f
       -0.18570699 -0.9229847 0.62943673 1.0132371
000240 e6 c2 1a 3f cc bc 10 3f 84 f7 99 bf 92 21 0f bf
       0.6045364 0.5653808 -1.2028661 -0.559106
000250 4f d7 5e 3f 82 b0 73 bf c7 27 ca 3e 70 c1 ac bf
       0.87047285 -0.95191205 0.39483473 -1.3496532
000260 96 86 af bf ca d3 66 3e 20 8b 80 3e 52 ad e3 3e
       -1.3712947 0.22541729 0.25106144 0.4446817
000270 05 ba 7b 3e d8 af 3b 3f 30 32 8b be d2 f1 0f bf
       0.2458268 0.7331519 -0.27186728 -0.56228364
000280 62 0b 83 bf 19 2f 1e 40 6a 9c 08 bd d4 cb 62 bf
       -1.0237849 2.4716246 -0.033352293 -0.8859227
000290 a9 44 ee 3e 91 da 99 3f fa f4 00 40 d0 25 9c 3f
       0.4653676 1.2019826 2.0149522 1.219904
0002a0 78 9d 02 3f 17 0c 3d bf 48 70 c4 3f 2b 4a e4 bf
       0.5102153 -0.7384657 1.5346766 -1.7835134
0002b0 6e 4d ea 3d f0 d0 a6 3f 90 9e dc 3e 3b ba 8a 3f
       0.1144055 1.3032513 0.43089724 1.0838083
0002c0 e0 0b 85 3e 49 d1 3f 3d 94 86 53 3e db 7d 1c 3f
       0.25985622 0.04683045 0.20656806 0.6112954
0002d0 bd 8e 05 bf 58 ee 22 40 95 69 b6 3f 6d fa 3b 3f
       -0.52170926 2.5457973 1.4250971 0.73428994
0002e0 6a 73 4c 3f 57 d2 cd be 79 5a 04 3f e5 db b8 3e
       0.7986361 -0.4019954 0.5170055 0.36105266
0002f0 e7 1b be 3f 20 52 05 bf a0 eb 6b bf 59 18 cb 3e
       1.4852265 -0.5207844 -0.9215641 0.39667013
000300 d3 69 75 bf 31 3c 44 3e 1b 2c 10 bf 1a d3 8a 3e
       -0.958646 0.19163586 -0.563173 0.27114183
000310 84 4e a3 3e d9 b4 ec 3e 82 e9 25 40 45 8f b9 3f
       0.3189584 0.46231726 2.5923772 1.4496847
000320 c6 1a 2f 40 87 ee 33 bf 9a 40 18 3f 53 73 2f 3d
       2.7360091 -0.7028584 0.59473574 0.04283459
000330 71 15 0e 40 ca 78 03 c0 cf 7f 4c 3f 20 f1 3a 3d
       2.2200587 -2.0542474 0.7988252 0.04564011
000340 2d 7f c5 3f e1 b5 11 bd 72 de d7 be 78 aa 97 3f
       1.5429436 -0.035573844 -0.421619 1.1848898
000350 e2 b0 b0 bf 39 5e dd 3e ba 3a a2 3f 2f fe 05 c0
       -1.380398 0.4323595 1.2674172 -2.0936391
000360 03 d3 00 40 2d 20 c0 be 49 17 af 3f 06 96 20 40
       2.0128791 -0.37524548 1.3678981 2.5091567
000370 4c 51 5d 3e 8f cc 80 bf f1 84 4e 3f d2 e8 f2 3f
       0.21613044 -1.0062426 0.806716 1.8977301
000380 d3 7d 39 3f 83 cb 23 3f d8 58 69 3f dc c6 d4 bf
       0.7245762 0.6398241 0.9115119 -1.6623187
000390 fb ec 0b bf 66 3b 5d bf 6b d4 5a bf a2 2b a0 bf
       -0.5465848 -0.8641876 -0.85480374 -1.2513316
0003a0 f8 fe 2a bf e1 d3 d1 bf b8 9d 9d 3f e0 22 e9 3c
       -0.667953 -1.6392785 1.2313757 0.028459013
0003b0 0b 04 00 c0 97 18 be bf 6c 5a 1d 3d c4 af 9e 3e
       -2.0002468 -1.4851254 0.03841631 0.30993474
0003c0 02 27 2d 3f b3 f5 07 bf 1d 0f d0 3f 6f c1 5e bc
       0.67637646 -0.5310928 1.6254612 -0.013595923
0003d0 78 cf 14 3e c5 f3 98 bd f7 16 92 bf 97 91 14 3f
       0.14532268 -0.0746837 -1.1413258 0.5803465
0003e0 81 86 b3 3f a7 8b 20 bf 1c a6 66 3f 2e aa fa be
       1.4025422 -0.6271309 0.9009721 -0.48957962
0003f0 66 55 ae be 2e 56 a4 3f da 6a 31 bf 3a 00 ac bf
       -0.3404953 1.28388 -0.6930367 -1.3437569

indicator_time_mixing.0.indicator_mixing.ln.weight f4 [16, 5]
000000 11 15 7a 3f 03 f7 87 3f ff 40 87 3f 56 ee 84 3f
       0.97688395 1.0622257 1.056671 1.0385234
000010 d3 9c 82 3f 75 5d 81 3f 39 6d 78 3f 3c 3e 79 3f
       1.0204109 1.0106646 0.9704166 0.9736059
000020 4e 9a 73 3f 71 9a 7e 3f ae 39 84 3f 2d ae 77 3f
       0.95157325 0.9945441 1.0330102 0.96750146
000030 4d 6f 74 3f 24 8e 74 3f bb fa 7c 3f b1 6c 7a 3f
       0.9548233 0.9552939 0.98820084 0.978221
000040 f8 ae 84 3f 81 a2 79 3f af 6a 88 3f fa 1a 82 3f
       1.0365896 0.97513586 1.0657557 1.0164483
000050 aa 65 6c 3f 2c 38 a4 3f 06 0b 86 3f ca 83 b9 3f
       0.9234263 1.2829642 1.0472114 1.4493344
000060 5b 51 87 3f 0a bd 7f 3f 49 27 7c 3f 62 4a 7c 3f
       1.0571703 0.99897826 0.98497444 0.98551
000070 ea 62 73 3f c3 f4 7f 3f 3c 23 7c 3f 5f 93 83 3f
       0.95072806 0.9998285 0.98491263 1.0279349
000080 ac fc 83 3f f4 a0 81 3f 99 ea 81 3f ab b8 76 3f
       1.0311484 1.0127244 1.0149719 0.9637553
000090 12 3f 94 3f cd 65 80 3f bd e6 92 3f 3d 0e 85 3f
       1.1581748 1.0031067 1.1476666 1.039497
0000a0 11 82 80 3f 98 4a 7a 3f fc c3 78 3f e9 e1 71 3f
       1.0039693 0.9777007 0.9717405 0.94485337
0000b0 54 a3 7f 3f d1 57 6e 3f d7 47 85 3f 14 c4 87 3f
       0.99858594 0.9310275 1.0412549 1.0606713
0000c0 6e 96 83 3f 3b be 85 3f e3 0b 81 3f c3 ae 7c 3f
       1.0280282 1.0448679 1.0081753 0.98704165
0000d0 36 0c 7f 3f 35 97 73 3f 5f 5c 7f 3f da d9 80 3f
       0.9962801 0.951526 0.9975032 1.0066483
0000e0 7e 6e 7f 3f 37 87 84 3f 2f 00 7b 3f 1c eb 82 3f
       0.9977797 1.0353764 0.98047155 1.0228
0000f0 51 5c 81 3f e3 48 7b 3f 71 04 83 3f b3 e1 7a 3f
       1.0106298 0.9815809 1.023573 0.9800064
000100 80 fa 81 3f 02 62 84 3f 45 09 77 3f dc c9 78 3f
       1.0154572 1.034241 0.9649852 0.9718301
000110 50 82 75 3f 30 08 80 3f c2 48 74 3f 07 1b 8b 3f
       0.95901966 1.0002499 0.9542352 1.0867623
000120 3e 1c 7b 3f 77 4c 9a 3f 5a 5d 89 3f 70 86 7a 3f
       0.9808997 1.2054585 1.0731614 0.97861385
000130 58 ff 83 3f fc a9 7c 3f 57 24 84 3f 56 4f 82 3f
       1.03123 0.98696876 1.032359 1.0180461

indicator_time_mixing.0.indicator_mixing.ln.bias f4 [16, 5]
000000 fc 94 c9 3c 2f d7 89 bd 50 22 41 3d 62 26 25 bd
       0.024607174 -0.06730496 0.047151864 -0.040319808
000010 b4 45 9c 3c b2 bf d4 bc c2 51 b9 3c f3 2d 02 bd
       0.019076206 -0.025970314 0.022621993 -0.0317821
000020 3a 5b 86 3c a1 dc 8b bb 3c 37 1c bd 04 3f bd 3c
       0.016400922 -0.0042682444 -0.038138613 0.023101337
000030 c8 a5 19 bd bb 15 20 3c e2 a3 4b bc ef 6d b0 3c
       -0.037511617 0.009770806 -0.012429209 0.021536795
000040 fb c6 25 bd ce 6e b3 bc 6a 9a 12 bd 2b a8 82 3c
       -0.040472966 -0.021903422 -0.035791792 0.01594933
000050 b2 d0 ae 3d ec fd 60 be ed d6 e3 3c 6b 4c c0 be
       0.08535899 -0.21971864 0.027812446 -0.37558302
000060 4e 46 1e 3d a3 e9 21 bc e9 b6 9e 3c b5 67 31 bc
       0.038641267 -0.0098823635 0.019374328 -0.010827948
000070 bd d3 e5 3c f2 97 4b 3b a8 b7 84 3c 33 76 ea bc
       0.028055066 0.0031065908 0.016200855 -0.028620815
000080 c2 aa e2 3c 84 b4 83 bc 1b 7e 7b 3c 55 2f 2d 3d
       0.027669314 -0.016077287 0.01534989 0.042281467
000090 a8 ee 82 be c3 d8 6b 3d 22 70 02 be d9 87 29 3d
       -0.25572705 0.057579767 -0.12738088 0.04138932
0000a0 67 11 76 bc da 72 9c 3c b6 0c 54 bc 55 d1 81 3c
       -0.0150187975 0.019097734 -0.012942484 0.015846888
0000b0 70 fa 46 b9 e7 45 58 3d 60 81 b1 bc be 23 53 3d
       -0.00018976047 0.05280104 -0.021668136 0.05154776
0000c0 3f 6b 87 ba 33 4d 46 3d 6c f3 90 bc 89 aa 87 3c
       -0.0010331644 0.048413467 -0.017694198 0.01656081
0000d0 f1 ab 5f bc 43 b4 61 3c 06 7d 00 bb da fc e8 b8
       -0.013651834 0.013775888 -0.001960577 -0.00011109719
0000e0 63 85 0a bc cf a1 1a 3d fc 82 62 bb 32 fd b4 3c
       -0.008454653 0.03775197 -0.0034562936 0.02209339
0000f0 eb e7 b2 bb 82 b3 6a 3c 3e f9 e9 3c 07 ca 6a 39
       -0.0054597757 0.014325025 0.02856123 0.0002239124
000100 ac 8f 6e 3c 54 d6 06 bd 6d 75 06 3d da 22 c0 bc
       0.014560621 -0.032919243 0.03282683 -0.023454119
000110 dc d1 6b 3c 11 ba 9b b9 82 0a 6f 3d db 69 d6 bd
       0.014393296 -0.00029702534 0.05835963 -0.10469409
000120 48 03 7d bd fa 35 08 be 64 f6 99 3d 29 f1 cb 3c
       -0.061770707 -0.1330184 0.075176984 0.024895268
000130 a2 4e 16 bd e6 35 b8 bb bb a2 91 bc 4e 0d bd 3c
       -0.036696084 -0.0056216596 -0.017777791 0.023077633

indicator_time_mixing.0.time_mixing.ln.weight f4 [16, 5]
000000 f5 0c 93 3f 3c b0 89 3f 5b 5f 52 3f 50 42 8f 3f
       1.1488329 1.0756907 0.8217675 1.1192112
000010 42 0f 88 3f eb 63 8f 3f f1 5f 97 3f 69 26 3b 3f
       1.0629656 1.1202368 1.1826154 0.73105484
000020 a5 42 9e 3f 01 6f 96 3f 75 20 8d 3f 62 b6 8c 3f
       1.2364088 1.1752626 1.102553 1.0993159
000030 16 61 49 3f 44 40 98 3f d9 9f 8e 3f 46 58 91 3f
       0.78663766 1.1894612 1.1142532 1.1355064
000040 21 48 83 3f ce 05 62 3f cf 6b 8b 3f 58 a6 85 3f
       1.0256387 0.8829011 1.0892276 1.0441389
000050 7a 57 a2 3f 83 d1 92 3f f3 b8 57 3f 93 35 94 3f
       1.2682946 1.1470188 0.84266585 1.157885
000060 ac 86 90 3f 8e 95 8d 3f af da 8e 3f 06 99 64 3f
       1.1291099 1.1061265 1.1160487 0.89295995
000070 29 67 9b 3f 30 d3 8f 3f 76 d9 93 3f cf 71 98 3f
       1.2140857 1.1236324 1.1550739 1.1909732
000080 78 2d 6d 3f b7 5c a1 3f 62 02 93 3f 7e 89 a2 3f
       0.92647505 1.2606419 1.1485102 1.2698209
000090 84 c3 92 3f 10 6f 4c 3f 60 98 9a 3f 5d 3a 91 3f
       1.1465917 0.7985697 1.2077751 1.1345936
0000a0 35 5c 93 3f 90 fb 88 3f 13 f9 4f 3f fb 70 8d 3f
       1.1512514 1.0701771 0.8123943 1.1050104
0000b0 70 a4 8b 3f de 47 a5 3f 29 4f 90 3f 20 81 3d 3f
       1.0909557 1.2912557 1.1274158 0.74025154
0000c0 c4 3a 9c 3f de 11 93 3f 1a 68 9d 3f 78 6f 87 3f
       1.2205434 1.1489828 1.2297394 1.0580893
0000d0 5d 75 4f 3f a7 c6 9b 3f 12 5d 88 3f d6 4d a9 3f
       0.8103846 1.2169999 1.0653403 1.3226879
0000e0 16 d2 95 3f 66 b0 36 3f 0a 82 aa 3f d6 77 95 3f
       1.1704738 0.7136291 1.3320935 1.1677196
0000f0 5c 8a ae 3f b3 02 95 3f dc da 43 3f ed 5c a4 3f
       1.3635974 1.1641449 0.7650583 1.2840859
000100 b1 2d 90 3f 08 99 a7 3f 93 25 87 3f 16 99 5f 3f
       1.1263944 1.3093576 1.0558342 0.87342966
000110 2e f1 92 3f d3 74 83 3f ac 6d b1 3f 45 31 91 3f
       1.1479852 1.0270027 1.3861594 1.1343161
000120 c3 ca 56 3f 7c 01 a0 3f 19 0d 8b 3f 16 5d 7e 3f
       0.8390314 1.2500453 1.0863372 0.9936079
000130 7d 2b 7f 3f 18 3b 80 3f 57 bb 7f 3f b2 32 7f 3f
       0.9967573 1.0018034 0.9989523 0.9968673

indicator_time_mixing.0.time_mixing.ln.bias f4 [16, 5]
000000 54 53 3f 3e 6d e4 9e 3d 2e 70 3f 3e fd 25 fa 3d
       0.18684131 0.077584125 0.18695137 0.12214277
000010 2c 49 6b bd a9 e3 94 3e d5 61 54 3e 09 4e 98 3e
       -0.05744283 0.2907994 0.20740445 0.29747036
000020 c7 17 67 3e e5 05 34 be 6d 28 75 3e f7 42 0b 3e
       0.22567664 -0.17580374 0.23941202 0.13599764
000030 e2 3d 75 3e 92 58 2b 3e 5b 86 d7 bd 7e 34 00 3e
       0.23949388 0.16733006 -0.10523673 0.12520024
000040 16 9a 64 3d e6 34 0b 3e e6 d9 b2 3d da fa d3 bc
       0.05581101 0.13594398 0.08732967 -0.025876451
000050 07 d1 33 3e 28 a5 02 3e 89 b8 3f 3e 75 16 33 3e
       0.17560206 0.12758315 0.18722738 0.17489035
000060 73 8e e7 bd d5 a1 24 3e 87 e7 f4 3d ce 3f fd 3d
       -0.11306467 0.16077359 0.11958223 0.123656854
000070 a7 cc 39 3e b2 dc e4 bd 32 d5 72 3e 14 b9 21 3e
       0.18144475 -0.11174907 0.2371414 0.15793258
000080 1a 43 a5 3d 54 91 66 3e 78 09 1c be f3 e2 59 3e
       0.08069439 0.22516376 -0.15237987 0.2127798
000090 97 e9 02 3e f5 a8 54 3e 9d 60 34 3e 5b 50 02 be
       0.1278442 0.20767577 0.1761498 -0.12725966
0000a0 1a 17 59 3e 18 6a 7e 3d 22 f7 48 3e 69 ab f4 3d
       0.21200219 0.062112898 0.19625524 0.119467564
0000b0 e9 26 b4 bd 01 94 8d 3e 0f 60 ab 3d 05 94 81 3e
       -0.08796484 0.2765198 0.08367931 0.25308242
0000c0 0d 24 5a 3e d8 e3 19 be d3 41 59 3e e1 16 63 3d
       0.21302815 -0.15028322 0.21216516 0.05544174
0000d0 bd 28 46 3e c4 84 41 3e fe bf 7a bd 25 f4 9b 3e
       0.19351478 0.18898302 -0.061218254 0.30459705
0000e0 db 63 37 3e db 81 90 3e 90 c1 8f 3e d3 e8 1c be
       0.17909186 0.28224072 0.28077364 -0.1532319
0000f0 b9 cd 7a 3e f7 61 1f 3e 94 ca 68 3e d2 98 64 3e
       0.2449254 0.15564714 0.22733527 0.22323921
000100 57 fc df bd 24 6f 05 3e cc d3 59 3d 91 66 f7 3d
       -0.10936802 0.13030678 0.0531805 0.1208011
000110 6d 64 de 3d 82 84 a7 bc 22 05 41 3e 5c 04 ef 3d
       0.108589984 -0.020448927 0.18849614 0.11670753
000120 e2 09 31 3e 81 96 21 3e 49 5b 88 bd d0 24 35 bb
       0.17288926 0.15780069 -0.06658036 -0.002764035
000130 2f 18 65 bb 0c f6 3f bb 74 80 90 bb 6e a5 51 3b
       -0.0034957041 -0.0029290942 -0.004409844 0.0031989473

indicator_time_mixing.0.time_mixing.U1.1 f4 [1, 2]
000000 e4 1a 1d 3b c0 96 94 bc
       0.0023972327 -0.01813829

indicator_time_mixing.0.time_mixing.U1.2 f4 [1, 3]
000000 49 db 0b be 68 d5 0f be 81 7a f9 bd
       -0.1365787 -0.14046252 -0.12181569

indicator_time_mixing.0.time_mixing.U1.3 f4 [1, 4]
000000 a2 f2 96 3d a8 8b e0 3d 55 ea 95 3d ba 0b 6a 3d
       0.07370497 0.10964137 0.07320086 0.05714009

indicator_time_mixing.0.time_mixing.U1.4 f4 [1, 5]
000000 b1 51 91 3b 09 dc ac bc d7 40 b7 bc a8 13 54 bc
       0.004434787 -0.021101015 -0.022369785 -0.01294414
000010 b2 1d be bc
       -0.02320752

indicator_time_mixing.0.time_mixing.U1.5 f4 [1, 6]
000000 21 f8 04 bc 3a 8e 31 3c bc 13 9b 3b ef 66 9b bb
       -0.008115799 0.010837132 0.004732577 -0.0047424952
000010 d6 6a dd 3b d4 06 af bc
       0.0067571206 -0.02136556

indicator_time_mixing.0.time_mixing.U1.6 f4 [1, 7]
000000 80 e2 22 3d 3d c9 8d 3d 10 2f 35 3d c3 14 87 3c
       0.03976679 0.06923149 0.044234335 0.016489392
000010 4a ac 11 3d f3 fe 88 3d df 1b 52 3d
       0.0355647 0.06689253 0.05129611

indicator_time_mixing.0.time_mixing.U1.7 f4 [1, 8]
000000 ef fa 98 3d 49 c2 d5 3d 94 c8 89 3d c0 57 9d 3d
       0.07469737 0.104374476 0.0672771 0.076827526
000010 4e a5 b6 3d a9 6b a8 3d 77 e6 a1 3d 15 dd b0 3d
       0.08918248 0.082236595 0.07905286 0.08635918

indicator_time_mixing.0.time_mixing.U1.8 f4 [1, 9]
000000 6a 40 2a 3c f7 9b 1b 3b 4a cf 1d bb 5b e7 47 bc
       0.010391334 0.0023744085 -0.0024079853 -0.012201156
000010 92 1b 9a bb 00 fd 19 bc 13 dc 40 bc 44 1a 8d 3b
       -0.0047029937 -0.009398699 -0.01177122 0.0043061096
000020 9b 49 81 bc
       -0.015782168

indicator_time_mixing.0.time_mixing.U1.9 f4 [1, 10]
000000 58 48 98 3d 43 80 ab 3d 10 ff a3 3d 04 3b 5d 3d
       0.074356735 0.08374073 0.08007634 0.05401136
000010 55 5d 8d 3d 6e b7 a0 3d 36 46 8d 3d d7 1c b9 3d
       0.06902567 0.078474864 0.06898157 0.09038704
000020 d8 c0 9b 3d ad db bb 3d
       0.076051414 0.09172759

indicator_time_mixing.0.time_mixing.U1.10 f4 [1, 11]
000000 79 e1 18 bc f5 ce 32 3c 12 38 5c 3c 02 35 b4 3b
       -0.009331101 0.0109136 0.013441103 0.005499483
000010 ef 2a d4 3b 28 83 5e 3c 79 d9 02 3c 38 83 fe 3b
       0.0064748446 0.013581075 0.00798642 0.0077671073
000020 8f 54 1a 3c dc bd 37 3c 3d cd 37 3b
       0.009419574 0.0112147 0.0028045916

indicator_time_mixing.0.time_mixing.U1.11 f4 [1, 12]
000000 c6 89 4a bd 58 82 87 bd d5 e7 e6 bc 8c 32 2a bd
       -0.049447797 -0.06616658 -0.028186718 -0.04155211
000010 5f 6e 92 bd c5 57 90 bd d6 f2 4e bd 35 c9 74 bd
       -0.07149958 -0.07047991 -0.050524555 -0.0597622
000020 88 43 89 bd 20 70 84 bd 25 0a 46 bd 95 47 9c bd
       -0.06702334 -0.06466699 -0.04834952 -0.07630841

indicator_time_mixing.0.time_mixing.U1.12 f4 [1, 13]
000000 79 a2 c3 bd bc 01 f1 bd d6 fb 96 bd 5e 62 9d bd
       -0.095524736 -0.11767909 -0.07372253 -0.07684778
000010 c2 8a f6 bd 72 c1 ea bd c7 df b1 bd 64 90 e2 bd
       -0.12038185 -0.11462678 -0.0868526 -0.110626966
000020 79 4b ab bd f0 86 da bd 87 0b 98 bd d4 1e d3 bd
       -0.08364005 -0.106702685 -0.07424074 -0.103086144
000030 64 10 c1 bd
       -0.094269544

indicator_time_mixing.0.time_mixing.U1.13 f4 [1, 14]
000000 9f 54 45 3c b9 8f e4 ba 27 04 9f 3b 01 ad 13 3c
       0.012044101 -0.0017437852 0.00485279 0.009013415
000010 51 ce b0 3b 82 a8 a5 bb 03 31 8a bc 3d d7 4e bc
       0.0053956886 -0.005055488 -0.016869074 -0.012624559
000020 1a 5b 65 bb 09 4d 66 bc f1 1d 18 3c 0f 39 ae 39
       -0.0034996928 -0.014056453 0.009284482 0.00033230378
000030 2b 0f 27 3b ef a8 5f 3c
       0.0025491219 0.013651117

indicator_time_mixing.0.time_mixing.U1.14 f4 [1, 15]
000000 ce ca e7 3d c2 fd db 3d ff a7 bc 3d 24 59 de 3d
       0.11317979 0.1074176 0.0921173 0.10856846
000010 6c a8 13 3e da 1d 01 3e fa 54 a2 3d 55 52 e2 3d
       0.14419717 0.12609044 0.07926364 0.1105086
000020 37 db 8b 3d 28 8d c9 3d 1e d2 6d 3d b3 31 01 3e
       0.06828921 0.098413765 0.05806171 0.12616615
000030 53 e3 bb 3d 00 ca 82 3d 60 eb 1f 3e
       0.09174218 0.06386185 0.15617132

indicator_time_mixing.0.time_mixing.U1.15 f4 [1, 16]
000000 bf ad 80 bc ee 90 0f b9 7c f0 10 3b 99 59 82 3c
       -0.015707849 -0.00013691533 0.0022115996 0.015911864
000010 b1 f0 f0 3b 02 da 98 bc 30 4f 48 3c 65 23 01 bb
       0.0073529114 -0.018658642 0.012225911 -0.0019704935
000020 ad 31 0f 3c c1 99 a5 bb 76 eb 62 3c bb 4a 1a 3a
       0.008739871 -0.0050537293 0.013850084 0.00058857695
000030 25 48 82 ba 1e 44 fe 3b 4f 99 90 bc 24 61 f3 bb
       -0.0009939714 0.007759585 -0.017651228 -0.0074273515

indicator_time_mixing.0.time_mixing.U2.1 f4 [1, 2]
000000 82 ed 58 bc 7e bf 00 bc
       -0.01324022 -0.007858155

indicator_time_mixing.0.time_mixing.U2.2 f4 [1, 3]
000000 27 3c 09 3c d2 15 5e 3c e9 a4 c5 3b
       0.008376158 0.013555007 0.0060316217

indicator_time_mixing.0.time_mixing.U2.3 f4 [1, 4]
000000 28 bd f3 3c ea 44 dc 3c 00 ab c1 bd 75 be 98 3d
       0.029753283 0.02688833 -0.09456444 0.07458202

indicator_time_mixing.0.time_mixing.U2.4 f4 [1, 5]
000000 9a fb 84 3d eb 71 3e 3e 39 cf b6 be 71 17 8b 3e
       0.06493302 0.18598144 -0.35704973 0.27166322
000010 f8 00 5f be
       -0.21777713

indicator_time_mixing.0.time_mixing.U2.5 f4 [1, 6]
000000 a4 6e c9 bc b4 5b 97 bc 65 51 43 3c 22 8b 1b bd
       -0.02458889 -0.018476345 0.011921261 -0.037974484
000010 18 e3 2e 3d 8e 61 b3 bb
       0.042697042 -0.005474276

indicator_time_mixing.0.time_mixing.U2.6 f4 [1, 7]
000000 af 85 92 3c dc 61 94 3d b3 6a 28 be 39 13 2b 3e
       0.01788601 0.07245228 -0.16446953 0.16706552
000010 41 82 fb bd e4 61 81 bc f5 20 e5 3d
       -0.12280703 -0.015793748 0.11187927

indicator_time_mixing.0.time_mixing.U2.7 f4 [1, 8]
000000 99 9c a7 3d 05 c7 43 3e c6 ae fb be 8b b5 d1 3e
       0.081841655 0.19118889 -0.4915678 0.4095882
000010 ff 8b 8e be 46 be 2a bd 31 c9 a1 3e e0 a4 9e 3e
       -0.27841184 -0.041685365 0.3159881 0.30985165

indicator_time_mixing.0.time_mixing.U2.8 f4 [1, 9]
000000 73 86 37 bc 8d dd 48 bc 3e 11 71 3d f1 4d 2b bd
       -0.011201489 -0.012259853 0.058854334 -0.041822378
000010 97 bf 13 3d c6 64 6d 3c ff 6c 28 bd 4b 9b 18 bd
       0.036071386 0.014489358 -0.04111957 -0.037257474
000020 02 1b d4 bc
       -0.025891785

indicator_time_mixing.0.time_mixing.U2.9 f4 [1, 10]
000000 72 f7 b2 3c 82 34 2e 3d 5d 27 b5 bd 9b bf ed 3c
       0.021846507 0.042530544 -0.088453986 0.029022029
000010 de 57 f5 bc e4 7b 32 bd 44 2a 74 3d 8b 6c 35 3d
       -0.029949125 -0.043575183 0.05961062 0.044292968
000020 ac 5d 60 3d 8c 5b 2f 3d
       0.054776832 0.042811915

indicator_time_mixing.0.time_mixing.U2.10 f4 [1, 11]
000000 b3 a5 07 bc fd 41 34 bb fd 2e 83 3c 07 d1 d5 bc
       -0.008279252 -0.0027505152 0.016013617 -0.026100649
000010 26 85 75 3c 02 c9 82 3c 89 1f 07 3b 1c c6 8a bc
       0.014985358 0.015964989 0.0020618162 -0.016940169
000020 cf cf 96 bc b3 46 b4 bc 12 50 11 3b
       -0.018409638 -0.022006368 0.002217297

indicator_time_mixing.0.time_mixing.U2.11 f4 [1, 12]
000000 c1 d2 59 3d d5 87 c7 3d cf f2 5c be b4 52 20 3e
       0.053179506 0.09742705 -0.21576999 0.15656549
000010 c5 ce 0a be 81 c5 81 bc 11 54 0e 3e 57 20 0b 3e
       -0.13555439 -0.015841248 0.13899256 0.13586555
000020 ba 00 f1 3d 9c 63 21 3e bf eb b5 bd e7 3a 28 be
       0.11767717 0.15760654 -0.088828556 -0.1642872

indicator_time_mixing.0.time_mixing.U2.12 f4 [1, 13]
000000 f8 53 09 3d 9a d8 68 3d d2 1f 04 be 16 6e b6 3d
       0.033527344 0.056847192 -0.12902763 0.08907716
000010 30 76 93 bd 75 fc a7 bc e4 57 b0 3d 5d 4b c5 3d
       -0.07200277 -0.020506123 0.08610514 0.09633515
000020 3d 1b 58 3d da 85 cb 3d 48 0b 1c bd 7b 97 bf bd
       0.05276035 0.099376395 -0.038096696 -0.093550645
000030 02 18 ee bd
       -0.11625673

indicator_time_mixing.0.time_mixing.U2.13 f4 [1, 14]
000000 54 2b f9 3b 51 aa f0 3c f8 97 c8 bc 22 e5 d6 3b
       0.007604042 0.029378088 -0.024486527 0.0065580765
000010 0f a5 67 ba b9 a0 03 bc ed 7f 15 bb 4c 96 80 3c
       -0.00088365463 -0.008033925 -0.0022811845 0.015696667
000020 f3 15 b6 3c 0d a2 2b 3d b7 7f 23 bc a2 0f 27 bd
       0.022227263 0.04190259 -0.00997918 -0.040786393
000030 d7 f0 04 bd 64 6b c9 3c
       -0.032456245 0.02458734

indicator_time_mixing.0.time_mixing.U2.14 f4 [1, 15]
000000 0b 05 04 3d 3f 73 d3 3d e5 b9 88 be 1e 6f 40 3e
       0.03223137 0.10324716 -0.26704326 0.18792388
000010 d2 c0 13 be 22 6b 3a bd 45 76 3d 3e 85 7f 54 3e
       -0.14429024 -0.045512326 0.18502147 0.2075177
000020 c6 fc 14 3e 93 f8 52 3e 16 c3 fc bd 0e 11 63 be
       0.1454955 0.20602636 -0.12341897 -0.22174475
000030 2f ab 94 be ae ed 4d 3d be 65 9f 3e
       -0.29036853 0.050275497 0.3113231

indicator_time_mixing.0.time_mixing.U2.15 f4 [1, 16]
000000 bf c5 6c 3c 60 b3 1e bc 19 74 32 bd c3 19 b9 3a
       0.014451443 -0.009686321 -0.04356775 0.0014122057
000010 42 76 43 bc 8a c8 5e 3b 28 12 99 3c 1a 8a dd 3b
       -0.01193005 0.0033994042 0.018685415 0.0067608478
000020 cc 82 74 3b 2e 96 87 3c 64 9e 6b bc a1 4a 5f ba
       0.0037309406 0.016551103 -0.014381025 -0.00085178955
000030 e8 7f 32 bc 02 be 0e bd 4e 0e 52 3b 7b 03 2c b6
       -0.010894753 -0.034849174 0.0032051983 -2.5632023e-06

indicator_time_mixing.0.fc.weight f4 [1, 5]
000000 32 5c 19 be 3b 7e 01 be 05 c3 bb be e0 ce 35 bd
       -0.14976576 -0.1264581 -0.36672226 -0.044386744
000010 64 c5 9c 3e
       0.30619347

indicator_time_mixing.1.indicator_mixing.W1 f4 [5, 64]
000000 33 7c b3 3e 3a 26 dd 3f 76 31 d7 3d 18 e1 8e 3c
       0.35055694 1.7277291 0.10507481 0.017441317
000010 bf e2 73 bf 7b c6 99 3f 47 17 b5 3e f8 c2 8a bd
       -0.9526786 1.2013696 0.35369322 -0.067754686
000020 58 5f c9 3e e5 f4 82 bf 4d 36 85 3f bc f0 7f bf
       0.39330554 -1.0230986 1.0407196 -0.99976707
000030 3a e4 e8 3f ea 10 81 bf b1 ef 18 bf 68 a2 81 be
       1.8194649 -1.0083287 -0.5974074 -0.2531922
000040 57 0b 0c bf 4c c6 1e 3f e1 9b b0 3f 06 9c 1f bf
       -0.54704803 0.62021327 1.379757 -0.6234745
000050 68 e6 7f 3f b8 81 da 3f 29 d9 33 40 30 f4 36 bf
       0.9996095 1.7070837 2.8101294 -0.7146635
000060 a0 5f 22 bf 5e c6 be bf e9 40 8f bf 28 db d2 be
       -0.6342716 -1.4904287 -1.1191684 -0.41182828
000070 ce 31 b7 be 01 bd 3b 3f b2 8a d3 3e 24 03 65 be
       -0.35780185 0.7333527 0.41316754 -0.2236448
000080 f7 c5 a6 be 59 2c cb 3e 0e b7 45 bf 70 91 a7 3f
       -0.3257291 0.39682272 -0.77232444 1.3091259
000090 e1 9f 27 bf e6 ff 86 3f 62 5c 90 bf 4e 2d 87 3f
       -0.6547833 1.0546844 -1.1278193 1.0560701
0000a0 12 46 f0 3e ce 06 c1 bf d7 8b 8a 3f ab ce d1 3c
       0.4692846 -1.5080202 1.0823926 0.025611242
0000b0 3d 01 80 be 50 b4 d5 be b3 f6 da be 78 aa 57 3f
       -0.25000945 -0.4173913 -0.42766342 0.8424449
0000c0 93 55 29 bf 69 d2 f0 3f b8 cf 5e 3c c1 c2 dd bf
       -0.661462 1.8814212 0.013599329 -1.7325059
0000d0 1e 56 83 3f 5d 8a 8c 3e 16 4f 8b 3f 6b a6 15 3f
       1.0260656 0.27449313 1.088351 0.5845706
0000e0 18 33 8b 3f 3a b9 16 be e1 65 d0 3f f3 e9 53 3f
       1.0874968 -0.14719096 1.6281091 0.82778853
0000f0 8f 28 b3 be 17 b3 ac 3f 91 bf f8 3e 11 f4 b7 3e
       -0.3499188 1.3492154 0.48583654 0.35928395
000100 4b 09 e3 3f 3f 9f cf be ba c9 c0 3f eb de 3b 3f
       1.7737211 -0.40551183 1.5061562 0.7338702
000110 3c df 20 3f 36 6b 16 bf 7c bf ea bd 94 e9 a1 3e
       0.6284063 -0.5875734 -0.11462304 0.31623518
000120 99 f1 ef 3f 8a 74 0b bf 78 5a 92 3f e8 08 0d bf
       1.8745605 -0.544747 1.1433859 -0.55091715
000130 2e fb 98 3f 14 ed 78 bf 5b aa 98 bb d4 66 88 be
       1.1951654 -0.9723675 -0.00465898 -0.26640952
000140 d9 ce 10 3f 56 fe d1 bf 22 9e ff be 62 9f 4e 3f
       0.56565624 -1.6405742 -0.49925333 0.8071195
000150 9e 62 10 bf 05 6e 0b bf 80 fd 23 3f ad 61 f4 3e
       -0.5640048 -0.5446475 0.64058685 0.4773077
000160 08 ed 9e be 9d 19 2b 3e cf d3 a7 3f ba 6a 44 3d
       -0.31040215 0.1670899 1.3111514 0.047953345
000170 7e 80 a1 bf 55 09 c2 3f 8e b7 6c 3f 8c 62 1d be
       -1.2617338 1.5159098 0.9246758 -0.15369624
000180 a0 3a e7 bf 13 e1 24 3f ec eb be 3f f8 96 df bf
       -1.8064766 0.64405936 1.4915748 -1.7467947
000190 b4 f0 cc bd 35 88 07 3f fb df ea 3e 54 f4 55 bd
       -0.10006848 0.5294221 0.4587401 -0.052234963
0001a0 1e 50 0d 3f 54 d7 5f 3f 9b 8b b1 3e f7 ec f1 3d
       0.55200374 0.8743794 0.34676823 0.118127756
0001b0 61 26 b5 3f 1f 7e a3 bf 56 b8 54 3e 07 e8 57 3e
       1.4152337 -1.2772864 0.20773444 0.21084605
0001c0 70 d6 11 bf 0c 03 32 bf af 3f 90 3f 00 d0 a7 3f
       -0.5696783 -0.695359 1.1269435 1.3110352
0001d0 5d 84 35 bf c1 df c3 3c c7 1f cf 3e 77 d7 e1 3e
       -0.70905095 0.023910405 0.40453932 0.441097
0001e0 39 ce f5 bc 8a d2 70 3f 1e b2 ae bf f6 28 a1 bf
       -0.030005561 0.9407126 -1.3648107 -1.2590625
0001f0 8b 55 a6 3f 71 5c 65 3e 26 66 9f be 61 dc 5b 3f
       1.2994856 0.22398545 -0.3113262 0.85883147
000200 bc 37 4e 3f 84 d4 6c 3e 1e 49 fd bf b4 db 57 3d
       0.80553794 0.23127943 -1.9787939 0.05269976
000210 7c a8 af be f0 ae 47 be 41 3d 86 3f b8 c0 8e bf
       -0.3430823 -0.19500327 1.0487443 -1.1152563
000220 fd 81 39 bf 0c a7 10 3f 40 7e a9 bf 81 73 b4 3f
       -0.7246397 0.56504893 -1.3241653 1.4097749
000230 7c d6 ca 3e b6 1f 97 bf c9 fc d3 3f a1 22 41 3f
       0.39616764 -1.1806552 1.6561519 0.75443465
000240 bd 84 d2 bf cb 28 06 3e ab 2a 4a 3f 84 5d a2 be
       -1.6446759 0.13101499 0.78971356 -0.31711972
000250 72 ac 01 c0 10 be d8 be 76 f9 bc bf d7 0a 24 bf
       -2.0261502 -0.42332506 -1.476363 -0.6407904
000260 d4 8d 46 be 79 e3 29 3f c5 49 99 3e 7f 17 09 40
       -0.1939004 0.6636272 0.29939094 2.142059
000270 49 3e 5e bd ef b0 47 3a 93 55 8a be d2 87 13 be
       -0.05425862 0.0007617613 -0.27018413 -0.1440728
000280 58 8c ef 3f f3 1a 53 bf 68 45 d4 3d 00 ea ff bf
       1.8714705 -0.82462996 0.10364801 -1.9993286
000290 66 e8 0e 3e d7 34 de bf 07 1e 9e 3e 4d 86 83 be
       0.1395584 -1.7359875 0.30882284 -0.256884
0002a0 ec 46 07 c0 26 db 99 bf c4 83 74 3d 3f c7 61 be
       -2.1137037 -1.2020004 0.059695974 -0.22048663
0002b0 9f 94 42 bf 71 40 b7 bf c0 a1 ee be e5 18 45 bd
       -0.7600803 -1.4316541 -0.4660778 -0.048119444
0002c0 3c 6f ef bf 68 ba 5a be b6 14 32 c0 c2 0e bd 3e
       -1.8705821 -0.21360171 -2.782514 0.36925322
0002d0 ec ef 7f be bb 02 c7 3f e5 02 98 3e 66 8f 09 bf
       -0.24993867 1.5547708 0.29689708 -0.53734434
0002e0 7b 48 5b 3f b5 58 16 3f 4c f0 12 bf 2e 62 e7 3d
       0.8565747 0.58729106 -0.57397914 0.11298023
0002f0 5b 5a 99 bf 84 e3 78 3e 97 1f 31 40 ce e1 5b 3f
       -1.1980699 0.2430554 2.767553 0.85891426
000300 8b 01 59 be e3 c7 40 be 0d f2 93 bf 23 47 39 bf
       -0.21191995 -0.1882625 -1.1558243 -0.7237417
000310 36 50 2d bf e2 18 19 40 9a 33 00 40 be b1 dd be
       -0.6770052 2.3921437 2.0031495 -0.4329967
000320 3b b7 99 3f f4 0c 94 3e b4 b3 96 3f fa 6f 03 bf
       1.2009043 0.28916132 1.1773591 -0.5134274
000330 2e 50 29 3e ac 1c 71 be 99 69 94 bd a4 92 34 3e
       0.16534492 -0.23546094 -0.07246704 0.17634064
000340 0c 6b 5b 3f d3 b7 b9 be e3 08 66 3f c9 c6 be 3f
       0.85710216 -0.3627306 0.8985731 1.4904414
000350 d8 0a ce be 6d dc 90 3f da 45 4a 3f 30 e5 60 3f
       -0.40242648 1.1317269 0.79012835 0.8784971
000360 7f 40 63 3f b8 8d 5e 3f 8a 82 1f bf 51 5f 14 3f
       0.8877029 0.86934996 -0.6230856 0.5795794
000370 95 7c 3c 3f 49 c6 0f 40 a2 8a 87 be 23 de 9a be
       0.736276 2.2464774 -0.26472956 -0.30247602
000380 e7 7e ac 3d e8 03 6b bf 2b 87 3f bf ca 9b aa bf
       0.08422642 -0.91802835 -0.74815625 -1.3328793
000390 46 b6 81 be 7d 68 78 3e 98 23 a1 3d 3c 9f 6b 3e
       -0.25334376 0.24258609 0.07868117 0.23009962
0003a0 28 13 fc bf 27 17 36 bf 26 1f b2 be a5 e9 8a 3e
       -1.9693346 -0.7112908 -0.3478939 0.27131382
0003b0 29 42 86 bf 5d 46 bf bb 6b 4e e2 be 1a 25 d1 3e
       -1.048894 -0.0058372454 -0.44200453 0.4084862
0003c0 57 69 84 bf dd f2 89 3d 52 d0 47 be b4 f4 20 c0
       -1.0344647 0.067357756 -0.19513062 -2.5149355
0003d0 67 2c 11 3e 77 6e bf bf 56 69 c2 3e ed 7b d6 bf
       0.14177094 -1.4955586 0.3797099 -1.6756569
0003e0 1a a3 c6 be f5 ec f4 3e c6 8d f2 bd d1 b3 1f 3e
       -0.38796312 0.47837034 -0.118434474 0.15595938
0003f0 00 e6 fc 3d 2d ea f5 3e 88 c1 a6 3f 58 0a 7f bd
       0.123485565 0.48030224 1.3027811 -0.062265724

indicator_time_mixing.1.indicator_mixing.W2 f4 [64, 5]
000000 d8 4a 97 bf e0 ef d6 3e 30 ad ac 3f b9 a4 37 3f
       -1.1819715 0.41979885 1.3490353 0.7173572
000010 76 47 83 3f c9 61 df 3e 30 dd ce 3e 1c 2d 9d bf
       1.0256183 0.43629292 0.40403128 -1.2279391
000020 1b 20 04 c0 fa e1 95 3f 96 4a 1c c0 e9 3a b1 3e
       -2.0644596 1.1709588 -2.4420524 0.34615257
000030 25 c1 a6 be 6b 4e ea bd 9a a2 ce 3f 3c 5c c8 bc
       -0.32569233 -0.11440738 1.6143372 -0.024458043
000040 5a 22 ff be e8 f9 0b 40 4c 3f ab 3c 2d 74 b0 3e
       -0.49830896 2.187128 0.020904206 0.34463635
000050 f5 fe 5a 3f 1f f9 1f be 3b 51 11 3f 9f 0e b1 be
       0.85545284 -0.15622376 0.5676457 -0.34581468
000060 30 c2 17 bf c9 b9 aa 3f 92 72 08 bf 23 0f 96 3f
       -0.5928068 1.3337947 -0.5329982 1.1723369
000070 4a 78 f9 3c d6 04 7c 3e 63 eb e0 3f 06 a7 c2 3e
       0.030452866 0.2461122 1.7571834 0.38018054
000080 42 f3 45 bf 6b 10 e5 3e eb 2b 07 be 57 f9 49 3f
       -0.77324307 0.44739088 -0.13200347 0.7889609
000090 04 74 54 bf 09 0e 44 3f c1 df 3a bf 1f cf 88 bf
       -0.82989526 0.76583916 -0.7299767 -1.0688208
0000a0 f6 83 cc be a6 06 9f bf 63 b3 9c 3d cf d8 51 bf
       -0.39944428 -1.2423904 0.07651403 -0.8197145
0000b0 9f 78 0c bf 29 5d 7e be 4a d5 0a 3f b4 50 8e be
       -0.54871553 -0.24840225 0.54231703 -0.27795947
0000c0 3c 6b 60 bf a3 5b b8 3f 7f 6d 89 3e 72 10 ee 3e
       -0.87663627 1.4402965 0.2684135 0.46496922
0000d0 c4 69 79 3f 92 4c 67 3d e4 06 4d bd 92 ef 05 3f
       0.9742701 0.056469508 -0.0500554 0.5231868
0000e0 20 f9 84 3e bc b7 32 be a0 8f 2e bf 3a b3 2a 40
       0.25971317 -0.17452902 -0.68187904 2.6671891
0000f0 5d 7f e5 bd 9a 26 3b 3f 3b 1f 5b bd 75 62 a6 3e
       -0.11205933 0.73105776 -0.05349658 0.32496992
000100 07 15 06 3f 25 29 81 bf 6c fb c2 be 5e 6a 95 bf
       0.52375835 -1.0090681 -0.38082445 -1.1673086
000110 d5 6b c2 3e 26 69 0a be 16 28 c0 bf 91 42 ef 3f
       0.37972894 -0.13516673 -1.5012233 1.869219
000120 dd 97 b7 3e 9c ca ac 3e 7d 64 d4 3f f8 b3 05 bf
       0.3585805 0.3374833 1.6593167 -0.52227736
000130 37 76 5e 3e eb 86 f2 be d1 6d c4 bf 65 b3 b6 bf
       0.21724783 -0.4736856 -1.5346013 -1.4273497
000140 11 65 3e c0 76 71 ae 3f 42 a4 09 bf 8b 03 09 3c
       -2.9749186 1.3628376 -0.5376626 0.008362661
000150 60 90 fe bd 07 bf f8 be 19 4c e8 bc bf 87 e9 bf
       -0.12429881 -0.48583242 -0.028356599 -1.8244551
000160 63 52 45 be c3 cb 2a bf 3d c9 fc 3d 83 b1 83 bd
       -0.1926971 -0.66717166 0.12343071 -0.06430342
000170 a8 41 db be 76 f7 b2 3f 1d 7e 3a 3f 4f f8 9d 3e
       -0.4282353 1.3981769 0.72848684 0.30853507
000180 4b 29 ce be 15 bf fb be 0f 3c 0f 3f f8 71 7c 3f
       -0.4026588 -0.49169222 0.5595102 0.986114
000190 02 78 2d 3c 03 29 da 3f 26 b5 20 bf fd 47 10 40
       0.010587694 1.7043766 -0.6277641 2.2543938
0001a0 99 15 ba bf b6 5b 00 bd 9a 68 98 be 20 6b a0 bf
       -1.4537841 -0.031337462 -0.29767305 -1.2532692
0001b0 89 23 40 3f 8a f5 c1 bf 27 36 26 3e 08 3e 14 40
       0.7505422 -1.5153058 0.16231595 2.316286
0001c0 9e a5 d8 3f cc 12 aa be a0 f1 df 3e 24 6b 2d bf
       1.6925542 -0.33217466 0.43739033 -0.6774161
0001d0 2b 82 e8 3e 42 ee 49 3f 0f 3d 0f bf dd 07 24 bf
       0.4541181 0.7887918 -0.55952543 -0.640745
0001e0 4f 2b 16 3f 90 6c bf 3f 66 33 8a 3f 26 4c db 3e
       0.58659834 1.4955006 1.0796936 0.42831534
0001f0 ca 52 58 3f a1 1e aa bf 1a 67 45 3e aa ac d6 bf
       0.84501326 -1.3290597 0.19277611 -1.6771443
000200 01 38 91 bf e4 89 06 40 e9 06 10 c0 6c 3b 3a bf
       -1.1345216 2.1021662 -2.2504218 -0.7274692
000210 97 ee 83 3f 47 86 ed 3f a2 18 79 3f b1 5d 9b be
       1.0307187 1.8556603 0.9730321 -0.30344918
000220 9f 99 1b 3f b9 ff 2b be 67 3b 0c 3f c6 54 8e be
       0.6078128 -0.16796769 0.5477814 -0.27799052
000230 25 98 f2 be 9a a5 15 bd 36 ff 82 bf c0 9c 9b bf
       -0.47381702 -0.036534883 -1.0234134 -1.2157211
000240 8c d2 19 40 82 f6 72 bf 1e 6a 93 bf d3 fc 85 be
       2.4034758 -0.9490739 -1.1516759 -0.26169452
000250 95 b5 48 3f 2e d3 71 3f db 68 1f bf 4c c5 d1 bd
       0.7840207 0.9446286 -0.6226937 -0.102427095
000260 c9 fb e0 bf 91 9d c1 bf aa a4 85 bc 14 c1 f2 be
       -1.7576839 -1.512621 -0.01631387 -0.47412932
000270 16 66 0f bf 52 81 6f bf 1c 5e 87 3f 0a 94 6f 3e
       -0.56015146 -0.935567 1.0575595 0.23396316
000280 11 f3 1f 40 04 72 c0 bf 3b 52 1c 3f b1 3b e7 be
       2.4992106 -1.5034795 0.61062974 -0.45162728
000290 1c 21 d9 be 6c b3 a9 bf 2d c1 b5 3f 3f 27 32 3e
       -0.42408073 -1.325788 1.4199578 0.17397784
0002a0 11 bd 2c 3d 8a db 78 3f 94 55 51 3e e5 17 85 bd
       0.042172495 0.9720999 0.20442802 -0.06498698
0002b0 06 c9 9f 3f 29 f4 af bf 0a 85 20 40 60 29 cc 3f
       1.2483222 -1.3746387 2.50812 1.5950127
0002c0 21 94 8d bf 35 39 69 be 22 3b c7 be 6e 41 a5 be
       -1.106083 -0.22775729 -0.38912302 -0.3227648
0002d0 3f 8d e5 bf f6 7b 73 be d3 ba 07 c0 d0 aa d9 3f
       -1.793373 -0.23777756 -2.1207778 1.7005253
0002e0 30 25 32 3f 89 f9 bd 3e 52 2f bc be bb c1 ae be
       0.69587994 0.37104443 -0.36754853 -0.3413218
0002f0 c7 2a b7 be ef fc 7b 3d a6 56 05 40 58 bd b2 bf
       -0.35774824 0.061520513 2.0834136 -1.3964033
000300 e4 05 bc bf 63 e6 6a bf 6d d9 b7 be 08 01 ec be
       -1.4689298 -0.9175779 -0.3590807 -0.46094537
000310 96 91 3d 3f f8 56 87 bf 56 b6 e6 3e 8d 96 3e bf
       0.7405027 -1.0573416 0.45060986 -0.7444847
000320 f6 2c 67 bf 81 5d e7 3e da 10 1c 3e 09 7b a4 3c
       -0.9030298 0.45188525 0.15240803 0.020078199
000330 89 3b c8 bf 01 84 fe 3e d3 f5 85 bf 41 fb 6b bf
       -1.5643169 0.49710086 -1.0465645 -0.9218026
000340 34 49 aa bf 3e 58 0b 3f b2 74 d6 3f dc a5 8d 3e
       -1.330359 0.5443152 1.6754363 0.27665603
000350 ac 5d ab 3f 28 66 ca 3e 3e 1a 8b bf 17 7d 2c 3f
       1.3387961 0.39531064 -1.0867383 0.6737837
000360 26 0e 91 bf 9b 6b 1d be 46 6f 90 3f 5c 95 ca 3f
       -1.1332443 -0.1537308 1.1283958 1.5826831
000370 ca 01 44 3f 8a cc a1 be d9 c6 d7 bf 7e 5a 82 3f
       0.7656523 -0.31601363 -1.6857558 1.0183866
000380 10 73 a5 bf f8 86 18 c0 f4 fd c7 3f 74 95 19 bf
       -1.2925739 -2.3832378 1.5624375 -0.5999367
000390 da bc c7 bf ba 43 f3 bd 01 de bd 3e e6 ba 98 3f
       -1.5604508 -0.11878152 0.37083438 1.1932037
0003a0 b8 fe 02 bf 58 f3 08 c0 83 15 73 3e 94 fd dc 3f
       -0.5116992 -2.1398525 0.23738675 1.7264886
0003b0 7d 2a 1b 3f ee 11 b7 be 92 c4 9b 3e 2e 57 61 3e
       0.60611707 -0.35755867 0.3042341 0.22005913
0003c0 77 09 29 bf 49 d4 81 3f ec 40 2e bf 1b b8 11 3f
       -0.6603007 1.0142909 -0.6806781 0.5692155
0003d0 a5 74 4b 3f cb 7c 4c bf 9d 41 0a bf 41 1c 62 3f
       0.7947486 -0.7987792 -0.5400637 0.8832436
0003e0 a3 15 00 3f fc 78 86 3e 7e a8 ec 3d d1 6b 47 3f
       0.50033015 0.2626418 0.11555575 0.7789889
0003f0 56 96 a2 3f ef 69 82 3f 9d 48 a7 3d 63 4a be be
       1.2702129 1.0188578 0.08168147 -0.37166128

indicator_time_mixing.1.indicator_mixing.ln.weight f4 [8, 5]
000000 49 f7 83 3f 96 e0 83 3f 16 42 74 3f 46 69 7c 3f
       1.030984 1.0302913 0.9541334 0.98598135
000010 4e 10 67 3f 06 6c 81 3f 9f 27 85 3f 87 9c 77 3f
       0.90259254 1.0111091 1.0402716 0.96723217
000020 e5 1e 7d 3f f9 af 7d 3f b3 cb 84 3f be b5 79 3f
       0.98875266 0.9909664 1.0374664 0.9754294
000030 79 2d 81 3f 9c 29 7d 3f 90 f6 70 3f 68 cd 7f 3f
       1.0092002 0.98891616 0.94126225 0.999228
000040 17 cb 79 3f 27 ef 7a 3f 27 bb 80 3f 9d eb 5d 3f
       0.97575516 0.9802117 1.0057114 0.8668764
000050 45 f5 7e 3f 11 c9 81 3f d1 39 7a 3f eb 27 80 3f
       0.99593 1.0139486 0.9774447 1.0012182
000060 14 f8 65 3f 24 5b 7e 3f 3b 82 80 3f 34 0c 7c 3f
       0.8983166 0.9935782 1.0039743 0.9845612
000070 33 b9 80 3f a2 79 68 3f a3 25 7d 3f 78 89 7e 3f
       1.0056518 0.90810597 0.98885554 0.9942851
000080 19 52 78 3f f0 22 82 3f 02 2c 5f 3f fa 46 7c 3f
       0.9700027 1.0166912 0.87176526 0.985458
000090 0f 90 7d 3f b2 4e 7a 3f d5 89 81 3f 24 75 65 3f
       0.9904794 0.9777633 1.0120188 0.8963187

indicator_time_mixing.1.indicator_mixing.ln.bias f4 [8, 5]
000000 cf 55 a6 bc 32 61 cb bc 8a 0c 0b bd 99 69 e0 bb
       -0.020304589 -0.02482662 -0.033947505 -0.0068485257
000010 67 a8 86 ba 55 a1 5a bc 85 ea 82 3c 5b ac 32 3c
       -0.0010273576 -0.013344129 0.015980968 0.010905351
000020 b6 29 5d bc f2 ba 14 bc 60 dc a6 bc 1c 6a c9 bc
       -0.013498714 -0.009077774 -0.020368755 -0.02458673
000030 51 e2 1b bc 5c a2 85 3b 86 fa 18 bd 96 49 38 3c
       -0.009514407 0.0040781926 -0.037348293 0.011248013
000040 e9 ff d8 bc fe e1 db bc 82 ad 66 3c 1e b6 1d 3c
       -0.026489215 -0.02684116 0.014079453 0.00962594
000050 68 bd 06 3b 71 ce 87 bc 38 7c a1 bc 36 45 99 3b
       0.0020559672 -0.016577931 -0.019712552 0.00467744
000060 cc 9b 95 3c 57 e3 fb 3b c8 13 7b bc 04 01 c2 bc
       0.018262766 0.007687013 -0.01532454 -0.023682125
000070 c6 e1 e9 3a 93 06 1c 3c fd 84 45 3c 38 52 8e bc
       0.0017843775 0.009523052 0.012055633 -0.01737319
000080 25 f8 81 bc f5 94 a8 3c d4 86 96 3c 84 5e 84 3c
       -0.015865395 0.02057884 0.018374838 0.01615835
000090 07 28 73 bc 38 96 80 bc 09 77 9d 3c 5a 5e 93 3c
       -0.014841086 -0.01569663 0.0192218 0.017989326

indicator_time_mixing.1.time_mixing.ln.weight f4 [8, 5]
000000 7d 07 4b 3f 17 5d a2 3f dc 4a 67 3f 6f cf 82 3f
       0.793083 1.2684659 0.903486 1.0219554
000010 1e c8 88 3f df 01 53 3f a1 b1 8f 3f c0 b5 71 3f
       1.0686071 0.8242473 1.1226083 0.94417953
000020 bb ed 83 3f e2 f0 76 3f a5 6e 89 3f 8b 68 90 3f
       1.0306925 0.9646131 1.0736891 1.1281904
000030 7b 3d 69 3f fd 89 6e 3f 47 7d 95 3f 1b 0f 7b 3f
       0.91109437 0.93179303 1.1678857 0.98069924
000040 66 07 84 3f fe 4d 78 3f d0 c8 81 3f f1 04 82 3f
       1.0314758 0.96994007 1.0139408 1.0157758
000050 a7 72 84 3f 46 be 95 3f a8 75 60 3f 47 70 79 3f
       1.0347489 1.1698692 0.8767953 0.97436947
000060 08 a8 93 3f a6 a3 7b 3f 95 3f 87 3f 17 f4 6f 3f
       1.1535654 0.9829658 1.0566279 0.93731827
000070 e9 8f 83 3f da 86 82 3f 5b dd 81 3f 67 98 8f 3f
       1.0278293 1.0197403 1.0145677 1.1218385
000080 50 04 6f 3f 44 88 89 3f 63 ad 8f 3f 1d 7f 84 3f
       0.93365955 1.074471 1.1224788 1.0351292
000090 7a 98 95 3f d0 16 69 3f 25 4e 8b 3f 78 6e 89 3f
       1.1687157 0.91050434 1.0883223 1.0736837

indicator_time_mixing.1.time_mixing.ln.bias f4 [8, 5]
000000 c4 d8 45 bd a2 24 50 bd 42 22 df 3d 6a 04 9f 3d
       -0.048302427 -0.050816186 0.10895206 0.07764514
000010 6e 20 93 3d da 08 89 bc c8 57 b7 bc db 9c aa 3d
       0.0718392 -0.016727854 -0.022380725 0.08330699
000020 2d ea 52 3d e5 b2 47 3d 1a 14 b5 bd d0 ee b5 bd
       0.05149286 0.04875459 -0.08841725 -0.088834405
000030 f2 1c 13 3e 11 19 ff 3d 83 97 fd 3d 1f 7c d9 3a
       0.1436651 0.12455953 0.12382414 0.0016592777
000040 a9 3c fa ba 48 a7 52 3d d5 b2 fd 3c cd f0 e8 3c
       -0.0019091564 0.051429063 0.030969063 0.028435135
000050 39 5b 5d bd 1c c8 71 bd c9 dc f7 3d 9a 8e c7 3d
       -0.054042075 -0.05902873 0.12102658 0.09743996
000060 ed 9f c1 3d 96 f5 da bc 9e f6 16 bd 22 bd c7 3d
       0.094543315 -0.026728433 -0.036856286 0.09752871
000070 64 46 93 3d 0e ee 7b 3d 58 d9 6b bd b9 0d 88 bd
       0.0719116 0.061506324 -0.057580322 -0.066432424
000080 6c f5 0d 3e ce ec fe 3d c2 57 e8 3d 4d 6e 1f bd
       0.13863152 0.12447511 0.113448635 -0.03892355
000090 e6 d3 49 bd d4 71 a5 3d 3a 9d 5f 3d d4 c5 84 3d
       -0.049274348 0.080783516 0.054593302 0.06483045

indicator_time_mixing.1.time_mixing.U1.1 f4 [1, 2]
000000 36 8a e7 3d 24 2e b4 3c
       0.113056585 0.021994658

indicator_time_mixing.1.time_mixing.U1.2 f4 [1, 3]
000000 83 5c 97 3c 9d f7 01 bb 57 e9 dc bb
       0.01847673 -0.0019831427 -0.0067416835

indicator_time_mixing.1.time_mixing.U1.3 f4 [1, 4]
000000 3b f2 e4 3b 0e ad da b8 52 c4 35 3c 13 78 3c 3c
       0.006986884 -0.00010427284 0.01109417 0.011503237

indicator_time_mixing.1.time_mixing.U1.4 f4 [1, 5]
000000 10 5d 23 3e 7a e8 b5 3d 9c fa 96 3d b8 21 b1 3d
       0.1595347 0.08882232 0.07372019 0.086490095
000010 dc 65 12 3e
       0.14296669

indicator_time_mixing.1.time_mixing.U1.5 f4 [1, 6]
000000 01 f7 b4 3d 13 67 49 3d 76 bf 2f 3d f7 81 14 3d
       0.08836175 0.049170565 0.0429072 0.036256757
000010 bd 3f ac 3d 5a 09 74 3d
       0.084105946 0.05957923

indicator_time_mixing.1.time_mixing.U1.6 f4 [1, 7]
000000 48 76 45 3e d3 de b2 3d 38 f5 41 3d 73 a2 87 3d
       0.19283402 0.087339066 0.047353 0.066227816
000010 cd 8b 16 3e 8e c2 b0 bb 54 a6 60 3e
       0.14701767 -0.0053942865 0.21938449

indicator_time_mixing.1.time_mixing.U1.7 f4 [1, 8]
000000 26 4e 81 3d 31 ac bd 3b df c5 25 3c c5 bc e5 3c
       0.06313734 0.005788349 0.010117977 0.028044114
000010 2a 27 69 3d b8 a2 ad 3c 10 97 86 3d 7b f3 f5 3d
       0.056922115 0.021195754 0.06571782 0.12009331

indicator_time_mixing.1.time_mixing.U2.1 f4 [1, 2]
000000 03 56 67 bd 8b 9b 37 3d
       -0.05647851 0.04482607

indicator_time_mixing.1.time_mixing.U2.2 f4 [1, 3]
000000 27 44 4d 3d 1d bb 00 bd 09 7e 27 b9
       0.050113823 -0.031428445 -0.00015973313

indicator_time_mixing.1.time_mixing.U2.3 f4 [1, 4]
000000 ee d1 86 3d dd 21 87 bd 91 15 54 bb 13 49 ff bc
       0.0658301 -0.06598256 -0.0032361487 -0.031162774

indicator_time_mixing.1.time_mixing.U2.4 f4 [1, 5]
000000 8d 32 3b 3d 2c 32 03 bd 8e e0 ad bc ae ec 49 ba
       0.045702506 -0.03203027 -0.02122524 -0.00077028095
000010 2d 76 f8 bd
       -0.12131915

indicator_time_mixing.1.time_mixing.U2.5 f4 [1, 6]
000000 5c d6 36 3d df 57 4c bc 43 e7 df 3b c0 9a b5 3a
       0.044638023 -0.012472122 0.0068329885 0.0013855323
000010 03 1d 7b bd 90 5d 20 bd
       -0.061306965 -0.03915173

indicator_time_mixing.1.time_mixing.U2.6 f4 [1, 7]
000000 9b ec a6 3d 71 ff 75 bd b8 06 77 bc 4b da 6c bc
       0.08150598 -0.06005806 -0.0150772855 -0.014456342
000010 ec 9f 0a be f1 e3 9a bd b5 de 09 be
       -0.13537568 -0.075630076 -0.13463862

indicator_time_mixing.1.time_mixing.U2.7 f4 [1, 8]
000000 cf f7 43 3d d3 40 24 bd b2 79 2e 3b 64 7b f2 b8
       0.04784375 -0.040100884 0.002662283 -0.000115624425
000010 39 3e 89 bd 30 63 fd bc ea a9 7f bd 33 c3 73 bd
       -0.06701321 -0.030931085 -0.062417902 -0.05951233

indicator_time_mixing.1.fc.weight f4 [1, 5]
000000 9a 16 16 3c bd 2d 9b 3e e5 90 d4 bd a2 59 cb be
       0.009160662 0.30308333 -0.10379199 -0.39716822
000010 27 ef 8c be
       -0.2752621
