weights/stockmixer_L16_H64_M40_K4_E50_s2_GELU.pt (torch, 630786 bytes, 93 tensors)

indicator_time_mixing.0.indicator_mixing.W1 f4 [5, 64]
-1.0255132 0.89170146 -1.3152783 -1.096978 -1.1992136 1.1583906 -1.0435345 -0.08722606
-0.91343373 0.35591236 -0.58815986 -0.22028415 0.9778917 -0.7995267 -0.2613954 -0.35798812
-1.494937 -0.45370513 -0.8302591 0.5413076 0.04440445 -0.046286527 1.0412228 0.89762723
0.49690038 -0.4562217 0.10920672 2.7591465 0.10739819 0.9109828 0.34302482 1.773602
-0.77591556 1.8290337 -0.3699166 -0.4183101 -1.2859685 -0.035678618 -0.24786146 -0.67059875
1.205182 0.41495433 -1.2026446 -0.77197903 -0.93350375 -0.8584875 -0.9326641 -0.018499013
-1.0064912 0.21927872 -1.5872256 1.8946773 0.059657354 1.5411541 -0.63818824 1.1682861
0.7321567 -1.196003 -0.5599175 -0.46561295 -1.9431003 0.68854606 -0.7211511 -0.12182316
1.1392341 -0.68164885 -1.4654789 -0.21855094 -0.8690762 1.6266487 -0.23839125 0.9531361
2.0890613 -0.987623 0.17655668 -0.13430934 -0.32315508 0.31669334 0.17518492 2.1984825
0.8489264 0.08913638 -0.061304312 0.8222664 0.5579623 -0.7863742 0.32379785 0.20263027
2.1182523 1.0830086 0.017441094 1.1308068 -1.4998089 -0.36992142 -1.0381013 -1.5480664
0.10943932 -0.38535622 0.19428796 0.5271827 0.8633536 -0.9319562 0.1801891 1.0365785
-0.47416148 -0.5342523 -0.53249246 -0.64411056 0.024248121 -0.46379867 -0.01224028 1.2652296
0.5332829 -0.2830504 0.59217364 0.7646539 0.50433445 1.5007766 -0.53326565 0.99093133
-0.63580406 -1.1315595 0.26198786 -0.72458464 -0.91096276 1.7578883 1.0663092 -1.4471817
-0.07456344 0.3488532 0.5979067 -1.4271241 0.8141456 -0.2731493 0.70346683 -0.23632455
-0.16488129 0.15083693 -0.03687145 0.33282527 0.15804762 0.18908624 -1.3321673 -1.7028267
1.0235611 -1.9550079 -0.16080818 1.7272738 2.1946979 -0.65463305 1.38566 -0.44957158
0.5108728 0.023579972 0.27469712 0.8657774 2.5440264 0.17768149 -0.33620176 -0.95927286
0.0025854758 1.5213039 0.33442575 -0.015440279 0.53583556 -1.523999 0.6539876 -1.1639317
0.5570298 1.1989852 1.2299565 -0.031178882 -1.0833384 1.0212411 0.17581567 -0.014762167
0.3523163 0.39265642 -0.9088262 -0.671859 0.61079687 -0.12978931 -0.52548605 1.2531453
0.1022987 1.1761345 1.7958329 -1.4206159 -0.24273399 -0.88211596 -1.4848822 0.6388538
0.96210206 0.5941056 -0.30015334 0.7617536 -1.2722942 0.22067162 -0.5427934 -1.013463
1.7173814 1.4404006 0.8101266 0.40462536 0.5135828 -0.80170465 -1.5239136 1.659631
-0.9013791 -0.4126357 -0.22627886 0.99262446 -1.1569909 0.46228194 0.4846119 0.91767013
-0.40470123 0.7903222 -0.4130771 -0.23982501 -0.2858531 0.5112522 -0.04355574 -1.0896896
-0.8076871 -0.7758358 -0.1538182 -2.5848234 -1.0413514 -0.35205027 -0.07808932 0.020060988
-0.68237895 0.06899166 0.7568898 0.11428543 1.3405797 0.6029425 1.3774431 1.441983
-0.22372334 0.5443059 0.2846546 -0.24417625 -1.5669606 1.499075 1.3223743 0.41362262
0.7500158 1.5072126 0.41501167 -0.017582953 -1.5197867 0.2007179 1.1155872 -1.5027825
00000000: 0444 83bf 8c46 643f 0a5b a8bf c669 8cbf
00000010: d57f 99bf 2546 943f 8a92 85bf 94a3 b2bd
00000020: cbd6 69bf 253a b63e a591 16bf 2b92 61be
00000030: 1c57 7a3f c8ad 4cbf 9ed5 85be 384a b7be
00000040: 185a bfbf 0a4c e8be dc8b 54bf 2393 0a3f
00000050: 71e1 353d f196 3dbd ca46 853f e6ca 653f
00000060: ba69 fe3e e495 e9be c6a7 df3d db95 3040
00000070: 95f3 db3d 2b36 693f f3a0 af3e 6405 e33f
00000080: 67a2 46bf c71d ea3f b565 bdbe be2c d6be
00000090: 9e9a a4bf be23 12bd 65cf 7dbe 5cac 2bbf
000000a0: 6743 9a3f e574 d43e 42f0 99bf 6ba0 45bf
000000b0: 1afa 6ebf d6c5 5bbf 13c3 6ebf 3e8b 97bc
000000c0: b4d4 80bf 9a8a 603e 352a cbbf c984 f23f
000000d0: 455b 743d 8a44 c53f 4e60 23bf 668a 953f
000000e0: 9f6e 3b3f a016 99bf c156 0fbf d264 eebe
000000f0: 83b7 f8bf 8e44 303f 5c9d 38bf 6c7e f9bd
00000100: 6cd2 913f 8a80 2ebf d094 bbbf d1cb 5fbe
00000110: c77b 5ebf 0636 d03f d61c 74be ba00 743f
00000120: 2eb3 0540 dcd4 7cbf 46cb 343e 6388 09be
00000130: 9574 a5be a125 a23e ad63 333e f0b3 0c40
00000140: 3e53 593f 228d b63d 3b1a 7bbd 0d80 523f
00000150: 9ed6 0e3f d24f 49bf d5c8 a53e 4f7e 4f3e
00000160: 7291 0740 07a0 8a3f a0e0 8e3c 47be 903f
00000170: bdf9 bfbf 5766 bdbe 81e0 84bf 0a27 c6bf
00000180: b921 e03d 694d c5be 6cf3 463e 72f5 063f
00000190: be04 5d3f ae94 6ebf 7e83 383e 9bae 843f
000001a0: 4bc5 f2be c2c4 08bf 6d51 08bf 6ee4 24bf
000001b0: ffa3 c63c 0577 edbe 758b 48bc 0bf3 a13f
000001c0: 3a85 083f fbeb 90be b198 173f 5cc0 433f
000001d0: 101c 013f 7319 c03f 1984 08bf adad 7d3f
000001e0: 0ec4 22bf f1d6 90bf 4623 863e 617e 39bf
000001f0: db34 69bf 7c02 e13f d27c 883f 403d b9bf
00000200: b8b4 98bd e39c b23e 6a10 193f 01ac b6bf
00000210: d96b 503f 3ada 8bbe 6716 343f 10ff 71be
00000220: a4d6 28be ff74 1a3e 8406 17bd 1368 aa3e
00000230: 3cd7 213e d39f 413e 7584 aabf 3af6 d9bf
00000240: 0d04 833f b33d fabf e6aa 24be 4f17 dd3f
00000250: ee75 0c40 0896 27bf 4f5d b13f 3f2e e6be
00000260: 8fc8 023f c92a c13c 1aa5 8c3e 96a3 5d3f
00000270: 54d1 2240 23f2 353e a322 acbe e892 75bf
00000280: 1671 293b 16ba c23f da39 ab3e 39f9 7cbc
00000290: 852c 093f 6612 c3bf bb6b 273f b7fb 94bf
000002a0: 8199 0e3f 5978 993f 376f 9d3f db6a ffbc
000002b0: d5aa 8abf 07b8 823f 0609 343e 04dd 71bc
000002c0: cd62 b43e 430a c93e d5a8 68bf f4fe 2bbf
000002d0: 2f5d 1c3f 7de7 04be 4186 06bf 1167 a03f
000002e0: fb81 d13d 938b 963f dadd e53f bed6 b5bf
000002f0: 428f 78be 5ad2 61bf 9f10 bebf ec8b 233f
00000300: 524c 763f 4e17 183f b3ad 99be 4902 433f
00000310: 89da a2bf bef7 613e 82f4 0abf 28b9 81bf
00000320: 27d3 db3f 0c5f b83f 7564 4f3f 0e2b cf3e
00000330: 2a7a 033f 843c 4dbf 9a0f c3bf ca6e d43f
00000340: c8c0 66bf fd44 d3be a5b5 67be a31c 7e3f
00000350: 4718 94bf 38b0 ec3e 0d1f f83e 6eec 6a3f
00000360: 0035 cfbe 8e52 4a3f d77e d3be b094 75be
00000370: 565b 92be 6de1 023f 8167 32bd f37a 8bbf
00000380: 95c4 4ebf 2d9d 46bf 8582 1dbe bf6d 25c0
00000390: 014b 85bf ef3f b4be 4bed 9fbd f156 a43c
000003a0: 63b0 2ebf 804b 8d3d 88c3 413f 7b0e ea3d
000003b0: 1e98 ab3f 715a 1a3f 0e50 b03f e692 b83f
000003c0: bb17 65be a257 0b3f 3fbe 913e 5709 7abe
000003d0: 2a92 c8bf b1e1 bf3f 9043 a93f 58c6 d33e
000003e0: 0901 403f 58ec c03f 697c d43e 200a 90bc
000003f0: 5f88 c2bf fe88 4d3e 90cb 8e3f 2d5b c0bf

indicator_time_mixing.0.indicator_mixing.W2 f4 [64, 5]
-0.8964185 0.6397138 0.9899323 -1.476548 -0.49140352 0.015150041 0.8882874 -0.9053469
-0.0682556 -0.17866097 1.1529992 0.051587593 -1.3217741 -0.28016034 0.03786888 -0.1156659
1.3665999 -0.0020057762 1.5335782 -1.0521442 -0.14422143 0.13393621 0.062174115 -1.8947542
-1.597392 0.58648694 0.9594875 -0.099989116 2.4271278 -0.3174729 1.3074644 -0.6709408
0.3294427 0.992703 -0.027061483 -0.9394123 -1.3227924 0.13317408 -1.7569823 -0.3351585
-0.081475064 0.61917496 2.3669107 1.3925924 -0.80056393 -0.70928127 -1.4594731 0.6645481
0.20327324 0.2927993 -0.7500349 0.3087955 0.0578356 0.67746246 0.44059324 -0.81250083
0.38806304 0.8928139 0.2316819 -0.5791046 -1.8642735 1.0673041 0.53815675 -1.46356
1.1399794 -1.3460675 1.0697125 0.40245387 -0.5438008 1.0459079 0.21419303 0.22857526
0.23634371 -0.33955595 -0.097309 0.047381457 -1.073468 -0.13900498 -1.1260138 -1.6973329
0.8194044 -1.2834907 0.18339768 2.8034823 -0.1292338 -1.3205706 -0.6556446 -0.21228808
-0.20025806 -0.90847456 1.2314385 0.52148646 0.085802004 1.0479753 0.18724109 0.249617
-0.93183357 0.113387495 -0.036739223 -0.79567766 -1.6492506 0.1921154 2.0278003 0.9053666
-1.0591844 1.9172995 -0.43090826 -0.30529132 1.612698 -0.057095274 0.6491716 -0.42971763
-0.47731683 -0.9234235 -0.3627464 0.5772935 1.4632533 0.015915152 -0.215962 -0.078957394
1.9002649 0.57623255 -0.78254884 -2.0106623 0.4599218 -0.35235882 -0.44934532 -0.1388343
-0.27915153 -0.5686285 0.049352176 1.4293071 -0.9796013 -0.012302192 1.1034915 -0.7541568
0.0682901 -0.18389262 1.0528173 -0.7464822 -0.18972498 -0.92544645 0.6288061 1.020606
0.60717064 0.55743426 -1.2106651 -0.5698434 0.8560254 -0.94343436 0.39447936 -1.3506284
-1.3741134 0.2207716 0.25276637 0.40911925 0.21255639 0.696471 -0.30742794 -0.52420664
-1.0542924 2.4425762 -0.060228664 -0.9071236 0.495607 1.2292763 2.0402462 1.2423728
0.52426887 -0.7657939 1.1479369 -2.1742983 -0.26366892 0.9863211 0.8282057 0.7475521
-0.06619436 -0.28381577 -0.102733664 0.9664304 -0.5991663 2.4683287 1.3524806 0.672933
0.87768084 -0.42362353 0.50347364 0.3371337 1.4618028 -0.49592093 -0.93757087 0.38174272
-0.9722698 0.18076187 -0.5477122 0.28352034 0.32991475 0.47255751 2.6001406 1.4381096
2.773244 -0.669551 0.63289607 0.08354792 2.181005 -2.0597944 0.7908254 0.043601528
1.5470759 -0.03141424 -0.4376923 1.1696575 -1.3933579 0.42359453 1.2827677 -2.2745733
1.8232763 -0.5388152 1.2484204 2.695296 0.25383267 -0.96519035 0.8448904 1.9370087
0.685131 0.62444 0.89700454 -1.6747105 -0.5550355 -0.84951854 -0.8410096 -1.2362895
-0.66113496 -1.6437484 1.2195325 0.020241898 -2.0110004 -1.4952414 0.024190815 0.3197491
0.6519538 -0.554325 1.6040962 -0.030678062 0.16933183 -0.07195269 -1.1395911 0.5806542
1.4010016 -0.6284135 0.8807964 -0.50858116 -0.35801795 1.2697951 -0.6732495 -1.4887516
00000000: af7b 65bf 49c4 233f 346c 7d3f 86ff bcbf
00000010: 3e99 fbbe e137 783c ce66 633f d0c4 67bf
00000020: 98c9 8bbd e7f2 36be 7a95 933f 834d 533d
00000030: e52f a9bf 2d71 8fbe 661c 1b3d 3ee2 ecbd
00000040: bfec ae3f 5773 03bb 4a4c c43f a9ac 86bf
00000050: c8ae 13be 9326 093e 49aa 7e3d 4e87 f2bf
00000060: 5777 ccbf 0224 163f f9a0 753f 18c7 ccbd
00000070: 1056 1b40 cf8b a2be fe5a a73f c7c2 2bbf
00000080: b7ac a83e c921 7e3f 0bb0 ddbc 537d 70bf
00000090: 4351 a9bf c95e 083e cce4 e0bf e599 abbe
000000a0: 66dc a6bd 4082 1e3f 777b 1740 7840 b23f
000000b0: c2f1 4cbf 7593 35bf 04d0 babf d31f 2a3f
000000c0: dc26 503e cae9 953e 4a02 40bf 721a 9e3e
000000d0: 06e5 6c3d 2e6e 2d3f 7095 e13e 0e00 50bf
000000e0: 33b0 c63e 748f 643f 053e 6d3e 3340 14bf
000000f0: 84a0 eebf 6c9d 883f a4c4 093f ef55 bbbf
00000100: d8ea 913f f14b acbf 57ec 883f 6f0e ce3e
00000110: 8736 0bbf 4fe0 853f 6b55 5b3e a20f 6a3e
00000120: 1604 723e 47da adbe f149 c7bd 0f13 423d
00000130: 6667 89bf 5257 0ebe 3821 90bf 3442 d9bf
00000140: 7dc4 513f 6c49 a4bf 9acc 3b3e 416c 3340
00000150: de55 04be 7508 a9bf 53d8 27bf 0c62 59be
00000160: 7310 4dbe ca91 68bf c79f 9d3f 2380 053f
00000170: f6b8 af3d 0e24 863f 21bc 3f3e 999b 7f3e
00000180: a58c 6ebf b437 e83d de7b 16bd 88b1 4bbf
00000190: a51a d3bf e6b9 443e 7bc7 0140 1bc6 673f
000001a0: 5b93 87bf 126a f53f 02a0 dcbe 254f 9cbe
000001b0: e36c ce3f bcdc 69bd 1c30 263f f303 dcbe
000001c0: df62 f4be 7c65 6cbf e5b9 b9be 82c9 133f
000001d0: e24b bb3f 7e60 823c 2425 5dbe 6ab4 a1bd
000001e0: e13b f33f fa83 133f 1f55 48bf b1ae 00c0
000001f0: df7a eb3e 6068 b4be 9710 e6be 942a 0ebe
00000200: f3ec 8ebe a391 11bf 8225 4a3d 89f3 b63f
00000210: 27c7 7abf 228f 49bc 363f 8d3f 6c10 41bf
00000220: aedb 8b3d 594e 3cbe b8c2 863f 7519 3fbf
00000230: 4447 42be 0fea 6cbf 70f9 203f 38a3 823f
00000240: 896f 1b3f 03b4 0e3f 13f7 9abf 42e1 11bf
00000250: 7b24 5b3f ea84 71bf 33f9 c93e 64e1 acbf
00000260: f3e2 afbf f311 623e 986a 813e 1478 d13e
00000270: 62a8 593e ec4b 323f 3267 9dbe 6832 06bf
00000280: 0ef3 86bf 2b53 1c40 55b2 76bd 4139 68bf
00000290: 33c0 fd3e ed58 9d3f 6593 0240 1206 9f3f
000002a0: 7c36 063f 120b 44bf 99ef 923f b427 0bc0
000002b0: 9dff 86be 8a7f 7c3f 4a05 543f 935f 3f3f
000002c0: e990 87bd 4d50 91be 0766 d2bd fc67 773f
000002d0: f662 19bf 19f9 1d40 161e ad3f 5645 2c3f
000002e0: b1af 603f 2fe5 d8be a6e3 003f ca9c ac3e
000002f0: 5b1c bb3f 59e9 fdbe a504 70bf c873 c33e
00000300: ace6 78bf a419 393e de36 0cbf 9429 913e
00000310: 96ea a83e 0ff3 f13e b468 2640 fa13 b83f
00000320: d47c 3140 b267 2bbf 7a05 223f 2c1b ab3d
00000330: 9695 0b40 acd3 03c0 8973 4a3f 8497 323d
00000340: 9506 c63f 38ac 00bd 3519 e0be 56b7 953f
00000350: 8d59 b2bf 62e1 d83e bb31 a43f 9c92 11c0
00000360: 1e61 e93f cbef 09bf 3dcc 9f3f bb7f 2c40
00000370: 5bf6 813e b716 77bf bd4a 583f e7ef f73f
00000380: bf64 2f3f 4ddb 1f3f 17a2 653f ea5c d6bf
00000390: ce16 0ebf 0c7a 59bf 684c 57bf bc3e 9ebf
000003a0: 2440 29bf 5966 d2bf a419 9c3f 56d2 a53c
000003b0: 3bb4 00c0 1264 bfbf d12b c63c 27b6 a33e
000003c0: 72e6 263f 3ee8 0dbf 0653 cd3f 8f50 fbbc
000003d0: 5365 2d3e ef5b 93bd 1fde 91bf c1a5 143f
000003e0: 0554 b33f b5df 20bf df7b 613f 6032 02bf
000003f0: 214e b7be a588 a23f 145a 2cbf 6a8f bebf

indicator_time_mixing.0.indicator_mixing.ln.weight f4 [16, 5]
1.0077528 0.982777 1.003972 0.9913837 1.038098 0.9618265 1.03197 0.9969398
1.0087216 0.96233904 0.96342236 1.0459715 0.9941351 1.0480267 0.9710819 1.001741
1.0134734 0.9909026 1.0280048 1.0669302 1.0120862 1.0083921 1.0102404 1.0603712
1.115299 0.98287314 1.0003083 0.9636654 0.9525913 1.0392824 0.998171 0.97906566
1.005577 0.9991745 1.0349989 1.0184486 0.9419331 1.0472308 1.0014284 1.0130187
0.96755195 0.9839954 0.98208016 0.9463691 1.0294476 1.0532022 0.99435806 1.0521976
0.9686537 0.93566746 0.9708763 1.0278584 0.9903621 0.9956688 0.9556216 1.0419933
0.94754624 1.01495 0.9626467 1.0029687 1.0302743 0.94687974 1.0149778 0.97035664
1.0078205 1.0374854 0.9753235 0.9795864 0.935632 0.9561481 0.9543097 1.0351998
1.0183005 1.078334 1.0873884 0.9673316 1.0224484 1.0226783 1.030087 1.0127178
00000000: 0bfe 803f 4697 7b3f 2882 803f 52cb 7d3f
00000010: 65e0 843f 433a 763f 9817 843f 7237 7f3f
00000020: ca1d 813f da5b 763f d9a2 763f 65e2 853f
00000030: a37f 7e3f bd25 863f d398 783f 0d39 803f
00000040: 7fb9 813f cbab 7d3f a995 833f 2b91 883f
00000050: 0a8c 813f fe12 813f 8f4f 813f 3eba 873f
00000060: 1ec2 8e3f 939d 7b3f 1a0a 803f c7b2 763f
00000070: 06dd 733f 3507 853f 2288 7f3f 0ca4 7a3f
00000080: bfb6 803f e6c9 7f3f d87a 843f 865c 823f
00000090: 8722 713f a90b 863f ce2e 803f 99aa 813f
000000a0: 7cb1 773f 1fe7 7b3f 9b69 7b3f 3f45 723f
000000b0: f0c4 833f 54cf 863f 408e 7e3f 69ae 863f
000000c0: b0f9 773f e787 6f3f 598b 783f dd90 833f
000000d0: 5f88 7d3f 27e4 7e3f 9ea3 743f 0960 853f
000000e0: 6492 723f e2e9 813f 0470 763f 4761 803f
000000f0: 07e0 833f b666 723f cbea 813f 4b69 783f
00000100: 4300 813f 52cc 843f cdae 793f 2dc6 7a3f
00000110: 9485 6f3f 1fc6 743f a44d 743f 6d81 843f
00000120: ac57 823f d906 8a3f 8b2f 8b3f 0ba3 773f
00000130: 97df 823f 1fe7 823f e4d9 833f bda0 813f

indicator_time_mixing.0.indicator_mixing.ln.bias f4 [16, 5]
-0.0085998755 0.016714752 0.0033440685 -0.0050821584 0.04372095 0.032964487 -0.021474095 -0.0064686476
0.0038423382 -0.03395638 0.034597278 -0.030450998 -0.007944375 0.0013519006 -0.018604072 -0.0060588233
-0.025130574 -0.00196891 -0.023229564 0.057530593 -0.015253371 -0.01661689 0.0147358505 -0.0367383
0.1093597 0.00069236645 -0.011341508 -0.018814415 -0.003519961 0.034536663 0.0011227508 0.016086085
0.006476989 -0.010441231 0.046068273 -0.013746635 0.055539586 0.041298736 -0.012935912 0.04100939
0.019371659 -0.004443752 -0.006046852 -0.0014139834 0.03309043 -0.058617815 0.057348642 0.042778924
0.024391003 -0.05041002 0.020748872 -0.0065096403 -0.00784888 0.01260776 -0.040994864 -0.034547713
0.048721395 0.0147016775 0.0044783764 0.014890142 -0.020758342 0.04147501 0.012313237 0.0031778412
0.018661553 -0.03060911 0.037869677 -0.01965927 0.033950336 -0.037537843 0.026449487 -0.028487014
0.021386473 -0.04120728 0.08681832 0.020250304 -0.020913487 0.02405455 -0.02014483 0.021565273
00000000: 7ee6 0cbc 60ed 883c 2928 5b3b 3c88 a6bb
00000010: bd14 333d c505 073d 71ea afbc f3f6 d3bb
00000020: bdcf 7b3b d815 0bbd e0b5 0d3d 5f74 f9bc
00000030: 2029 02bc 4232 b13a 9167 98bc 1889 c6bb
00000040: a2de cdbc d408 01bb ed4b bebc 33a5 6b3d
00000050: 46e9 79bc 2520 88bc a36e 713c e67a 16bd
00000060: faf7 df3d ed7f 353a bbd1 39bc b020 9abc
00000070: 25af 66bb 5176 0d3d 4429 933a f7c6 833c
00000080: ec3c d43b b211 2bbc 16b2 3c3d 9139 61bc
00000090: 7a7d 633d dd28 293d 26f1 53bc 76f9 273d
000000a0: 50b1 9e3c e59c 91bb ac24 c6bb 6955 b9ba
000000b0: d589 073d 3c19 70bd 69e6 6a3d f438 2f3d
000000c0: a4cf c73c bd7a 4ebd 8af9 a93c d24e d5bb
000000d0: 9798 00bc c790 4e3c 3bea 27bd e781 0dbd
000000e0: 1690 473d 4edf 703c 58bf 923b c8f5 733c
000000f0: 660d aabc b3e1 293d 76bd 493c 5443 503b
00000100: 1de0 983c f5bf fabc 3c1d 1b3d 7a0c a1bc
00000110: 820f 0b3d 48c1 19bd 98ac d83c 995d e9bc
00000120: af32 af3c f7c8 28bd cecd b13d f7e3 a53c
00000130: c352 abbc 0c0e c53c c506 a5bc a8a9 b03c

indicator_time_mixing.0.time_mixing.ln.weight f4 [16, 5]
0.96586454 0.97550106 1.0777395 1.0061783 0.959203 0.94777316 0.9691162 1.0725071
1.0654525 0.96155626 0.9438066 0.95568115 1.0456542 1.0749592 0.9643751 0.95455354
0.9644974 1.0899292 1.0225942 0.93796283 0.95251054 0.946062 1.0276562 1.0578932
0.93527925 0.9790596 1.0218616 1.2084048 0.99039793 0.946889 0.9368116 0.94613147
1.0706251 1.0554036 0.9422012 0.95412076 0.9626264 1.056969 1.0231159 0.9586394
0.968134 0.9884019 1.1169103 1.0376436 0.93955845 0.9394726 0.9441554 1.0781357
1.0316341 0.935717 0.9725992 0.9724901 1.0221086 1.022288 0.96948385 0.9342816
0.94858307 1.1094291 1.0194881 0.94404763 0.9525856 0.94782346 1.037185 1.0265815
0.93494654 0.9674261 0.9735712 1.0368692 1.0107975 0.977063 1.0095387 1.001009
1.0107646 1.0045522 0.9655611 0.9957172 0.9973052 1.0003457 1.0007843 0.99582005
00000000: e642 773f 70ba 793f 5ef3 893f 73ca 803f
00000010: 548e 753f 43a1 723f 0018 783f ea47 893f
00000020: bf60 883f 8d28 763f 4f9d 713f 85a7 743f
00000030: ffd7 853f 4398 893f 49e1 763f 9f5d 743f
00000040: 4de9 763f cd82 8b3f 5ee4 823f 551e 703f
00000050: bbd7 733f 1f31 723f 3d8a 833f 0b69 873f
00000060: 766e 6f3f a6a3 7a3f 5ccc 823f 02ad 9a3f
00000070: b88a 7d3f 5167 723f e3d2 6f3f ac35 723f
00000080: 3e0a 893f 7717 873f 1934 713f 4241 743f
00000090: af6e 763f c34a 873f 76f5 823f 6469 753f
000000a0: a1d7 773f e807 7d3f ebf6 8e3f 81d1 843f
000000b0: e786 703f 4781 703f 2bb4 713f 5a00 8a3f
000000c0: 960c 843f 268b 6f3f 43fc 783f 1cf5 783f
000000d0: 74d4 823f 55da 823f 1830 783f 142d 6f3f
000000e0: 57d6 723f c601 8e3f 967e 823f 1bad 713f
000000f0: a6dc 733f 8fa4 723f 7ac2 843f 0667 833f
00000100: a858 6f3f 3da9 773f f63b 793f 21b8 843f
00000110: d061 813f cd20 7a3f 9038 813f 1021 803f
00000120: bc60 813f 2b95 803f 032f 773f 53e7 7e3f
00000130: 654f 7f3f 540b 803f b319 803f 10ee 7e3f

indicator_time_mixing.0.time_mixing.ln.bias f4 [16, 5]
-0.030916546 -0.031007355 -0.035745732 -0.031748146 0.037143044 -0.040566485 -0.03893756 -0.038666423
-0.036745768 0.043093394 -0.04544444 -0.043225717 -0.041801777 -0.042014513 0.04265591 -0.04490891
-0.046377473 -0.05398531 -0.048000723 0.055355877 -0.049339797 -0.05082997 -0.059399515 -0.052152093
0.06604245 -0.039739158 -0.042996168 -0.049521383 -0.039856967 0.049440295 -0.055828575 -0.053968094
-0.060128126 -0.056423523 0.058808357 -0.043753874 -0.038826004 -0.04372641 -0.04260448 0.04290353
-0.04172384 -0.04389841 -0.052535083 -0.049236476 0.052551482 -0.05744129 -0.05612598 -0.06880953
-0.05751785 0.067830995 -0.036655754 -0.03229208 -0.032087173 -0.033111997 0.032490533 -0.054757178
-0.055645544 -0.05780874 -0.049989957 0.05568921 -0.05894288 -0.05310674 -0.05771315 -0.04578698
0.05783942 -0.029114857 -0.025474085 -0.027372506 -0.024868745 0.025413617 -0.0055430816 -0.0060419207
-0.022511272 -0.009550434 0.026489217 -0.0034682788 -0.0034285788 -0.0038922492 -0.002696948 0.005246207
00000000: b244 fdbc 2303 febc 1e6a 12bd 580a 02bd
00000010: 4e23 183d 0b29 26bd fe7c 1fbd af60 1ebd
00000020: bb82 16bd b382 303d f323 3abd 730d 31bd
00000030: 5738 2bbd 6917 2cbd f7b7 2e3d 68f2 37bd
00000040: 4ef6 3dbd b31f 5dbd 689c 44bd d8bc 623d
00000050: 8718 4abd 1633 50bd e84c 73bd 6f9d 55bd
00000060: 4441 873d 87c5 22bd c01c 30bd efd6 4abd
00000070: 0f41 23bd e881 4a3d 81ac 64bd a60d 5dbd
00000080: e948 76bd 5a1c 67bd 08e1 703d 4337 33bd
00000090: 0408 1fbd 771a 33bd 0982 2ebd 9dbb 2f3d
000000a0: 9ee6 2abd d2ce 33bd 072f 57bd 30ac 49bd
000000b0: 3940 573d 8f47 6bbd 5be4 65bd 03ec 8cbd
000000c0: d697 6bbd faea 8a3d 5824 16bd b344 04bd
000000d0: d76d 03bd 72a0 07bd cb14 053d 1049 60bd
000000e0: 95ec 63bd dbc8 6cbd 45c2 4cbd 5e1a 643d
000000f0: 176e 71bd 7486 59bd a064 6cbd 218b 3bbd
00000100: 07e9 6c3d 4882 eebc 07af d0bc 4e3c e0bc
00000110: 8ab9 cbbc 3830 d03c bda2 b5bb 4efb c5bb
00000120: 8f69 b8bc 6c79 1cbc eaff d83c 104c 63bb
00000130: 02b2 60bb 1b15 7fbb 47bf 30bb 60e8 ab3b

indicator_time_mixing.0.time_mixing.U1.1 f4 [1, 2]
0.009038378 -0.011477931
00000000: b415 143c ef0d 3cbc

indicator_time_mixing.0.time_mixing.U1.2 f4 [1, 3]
-0.013648297 0.012860282 0.0074990694
00000000: 1b9d 5fbc efb3 523c c1ba f53b

indicator_time_mixing.0.time_mixing.U1.3 f4 [1, 4]
-0.0012621636 0.019219173 -0.00871905 -0.008049302
00000000: 2f6f a5ba 8771 9d3c 59da 0ebc 38e1 03bc

indicator_time_mixing.0.time_mixing.U1.4 f4 [1, 5]
0.017851396 0.0023242126 -0.0074877036 -0.008368793 -0.0058250274
00000000: 173d 923c d151 183b 695b f5bb 431d 09bc
00000010: dfdf bebb

indicator_time_mixing.0.time_mixing.U1.5 f4 [1, 6]
-0.004676182 0.029492775 0.015501907 -0.011437474 0.012214532 -0.040573843
00000000: a83a 99bb d59a f13c b6fb 7d3c 3e64 3bbc
00000010: 761f 483c c230 26bd

indicator_time_mixing.0.time_mixing.U1.6 f4 [1, 7]
-0.006437014 0.012644321 -0.0028497367 -0.02093912 -0.014605301 0.03369413 0.0054009506
00000000: 96ed d2bb 202a 4f3c a6c2 3abb 8488 abbc
00000010: 134b 6fbc db02 0a3d 75fa b03b

indicator_time_mixing.0.time_mixing.U1.7 f4 [1, 8]
-0.005593809 0.0062281433 -0.017177107 0.007905655 0.0016915122 0.015819276 -0.004326087 -0.0027796645
00000000: 454c b7bb 7415 cc3b 01b7 8cbc b886 013c
00000010: bbb5 dd3a 6d97 813c d9c1 8dbb 082b 36bb

indicator_time_mixing.0.time_mixing.U1.8 f4 [1, 9]
0.022681138 0.013369397 0.007165445 -0.005177845 0.00041959077 -0.01311565 -0.010679863 0.0019454334
-0.021341221
00000000: cbcd b93c 510b 5b3c 1ccc ea3b e9aa a9bb
00000010: 85fc db39 06e3 56bc 98fa 2ebc eafd fe3a
00000020: c9d3 aebc

indicator_time_mixing.0.time_mixing.U1.9 f4 [1, 10]
-0.0035479078 -0.035071667 -0.0122856265 0.00094479654 -0.012753309 0.04156882 -0.009553025 0.004480424
0.028943684 -0.0011748858
00000000: 0484 68bb 4fa7 0fbd a749 49bc 39ac 773a
00000010: 41f3 50bc 1144 2a3d 4a84 1cbc 85d0 923b
00000020: 4e1b ed3c a0fe 99ba

indicator_time_mixing.0.time_mixing.U1.10 f4 [1, 11]
-0.017302498 0.0019026438 0.002402189 -0.0016433453 -0.0013227296 0.009804039 0.0008001949 0.0028302004
0.005649418 0.0051257415 -0.0028808224
00000000: f8bd 8dbc 2262 f93a 0b6e 1d3b 8565 d7ba
00000010: 715f adba 1fa1 203c 2cc4 513a e27a 393b
00000020: c11e b93b d6f5 a73b 2ecc 3cbb

indicator_time_mixing.0.time_mixing.U1.11 f4 [1, 12]
0.00065904617 -0.0025588386 0.022377484 -0.0010877039 -0.011627316 -0.02793376 0.0054700808 0.010065768
-0.017422786 0.0039255316 0.018779213 -0.0016211652
00000000: d7c3 2c3a 30b2 27bb fc50 b73c 4991 8eba
00000010: 7f80 3ebc 57d5 e4bc 5d3e b33b e4ea 243c
00000020: 3bba 8ebc bfa1 803b ddd6 993c 477d d4ba

indicator_time_mixing.0.time_mixing.U1.12 f4 [1, 13]
-0.009793466 -0.01040744 0.008858678 0.0072942935 0.0051538222 -0.027804038 0.0064535956 -0.0021931399
-0.012186569 0.001289103 0.009190702 0.012674386 0.007648765
00000000: c674 20bc f883 2abc fd23 113c f804 ef3b
00000010: 65e1 a83b 4bc5 e3bc af78 d33b c8ba 0fbb
00000020: 2daa 47bc 1ef7 a83a 9994 163c 3aa8 4f3c
00000030: 7ea2 fa3b

indicator_time_mixing.0.time_mixing.U1.13 f4 [1, 14]
0.010708973 -0.0034551579 0.0044862963 0.0098961275 0.0025577627 -0.0017452358 -0.015486826 -0.013285008
-0.00048139787 -0.01486508 0.0073033017 -0.0013611427 0.00072510104 0.011792092
00000000: b074 2f3c ee6f 62bb c801 933b 5e23 223c
00000010: 23a0 273b 65c0 e4ba 75bc 7dbc 5da9 59bc
00000020: 2164 fcb9 aa8c 73bc 8950 ef3b 5f68 b2ba
00000030: b514 3e3a 9e33 413c

indicator_time_mixing.0.time_mixing.U1.14 f4 [1, 15]
0.015767466 -0.0027914809 0.0046073976 0.009663667 -0.0013572811 0.032372687 -0.009839919 0.004219921
-0.001497509 -0.015730033 -0.011562711 0.01079887 -0.009037919 -0.00071808725 -0.01738073
00000000: c62a 813c 47f1 36bb a7f9 963b 5b54 1e3c
00000010: cce6 b1ba 3999 043d 9d37 21bc 4347 8a3b
00000020: 1048 c4ba 45dc 80bc 8671 3dbc beed 303c
00000030: c813 14bc 053e 3cba 0862 8ebc

indicator_time_mixing.0.time_mixing.U1.15 f4 [1, 16]
-0.018023321 -0.000844642 0.0011453555 0.0135943005 0.008342967 -0.020867856 0.012359217 -0.00092530984
0.007747237 -0.0041929716 0.015448215 0.0014565743 0.00038804158 0.010060174 -0.015055712 -0.0061095767
00000000: a5a5 93bc f76a 5dba c11f 963a a1ba 5e3c
00000010: f1b0 083c 11f3 aabc 507e 4a3c 7e90 72ba
00000020: 89dc fd3b 3265 89bb 831a 7d3c 86ea be3a
00000030: 0f72 cb39 6ed3 243c 3cac 76bc d832 c8bb

indicator_time_mixing.0.time_mixing.U2.1 f4 [1, 2]
-0.0071341293 0.009701846
00000000: 6ac5 e9bb 7ef4 1e3c

indicator_time_mixing.0.time_mixing.U2.2 f4 [1, 3]
0.011063969 0.024824994 -0.00068027875
00000000: a645 353c c95d cb3c bc54 32ba

indicator_time_mixing.0.time_mixing.U2.3 f4 [1, 4]
0.02236246 -0.0020705173 -0.017973319 0.004605518
00000000: 7a31 b73c 84b1 07bb c83c 93bc e3e9 963b

indicator_time_mixing.0.time_mixing.U2.4 f4 [1, 5]
0.02512087 0.05727132 -0.09144119 0.010062865 -0.030670147
00000000: 48ca cd3c 5595 6a3d 8545 bbbd b7de 243c
00000010: f63f fbbc

indicator_time_mixing.0.time_mixing.U2.5 f4 [1, 6]
-0.014124301 0.0041826083 -0.013697574 0.0019501479 0.00892469 0.01370745
00000000: 9d69 67bc 430e 893b ca6b 60bc 1b9c ff3a
00000010: dd38 123c 3695 603c

indicator_time_mixing.0.time_mixing.U2.6 f4 [1, 7]
-0.0012596375 0.0023906126 -0.0022220968 0.0064869956 3.520094e-05 0.0021670558 0.00035775386
00000000: 6c1a a5ba d3ab 1c3b 99a0 11bb dd90 d43b
00000010: b9a4 1338 2a05 0e3b e990 bb39

indicator_time_mixing.0.time_mixing.U2.7 f4 [1, 8]
0.027506096 0.012815053 -0.065441884 0.028864793 -0.01645711 -0.022001585 0.014642843 0.0054388577
00000000: 7754 e13c 3af6 513c 6506 86bd dc75 ec3c
00000010: 10d1 86bc ab3c b4bc 89e8 6f3c 7238 b23b

indicator_time_mixing.0.time_mixing.U2.8 f4 [1, 9]
-0.00073172734 0.009533288 0.033787783 0.0003929086 0.0026594389 0.0400859 -0.012139088 -0.0053412607
0.009501037
00000000: 64d1 3fba 8231 1c3c 0f65 0a3d 4dff cd39
00000010: fb49 2e3b 1d31 243d 06e3 46bc be05 afbb
00000020: 3daa 1b3c

indicator_time_mixing.0.time_mixing.U2.9 f4 [1, 10]
0.019532 0.034373358 -0.12376505 -0.013129541 -0.011187683 -0.12248464 0.06027025 0.035256788
0.0035169416 0.06942325
00000000: 9301 a03c 14cb 0c3d 8878 fdbd 491d 57bc
00000010: 8b4c 37bc 3ad9 fabd f0dd 763d 6c69 103d
00000020: 7d7c 663b c72d 8e3d

indicator_time_mixing.0.time_mixing.U2.10 f4 [1, 11]
-0.008054805 0.0036917832 0.0030959067 -0.018102461 -0.00013300781 -0.003975288 0.016560456 -0.002835328
-0.019907407 0.015640981 -0.00016646487
00000000: 4df8 03bc d8f1 713b b2e4 4a3b 9d4b 94bc
00000010: 0378 0bb9 2243 82bb cba9 873c e9d0 39bb
00000020: dc14 a3bc 8421 803c 138d 2eb9

indicator_time_mixing.0.time_mixing.U2.11 f4 [1, 12]
0.021423472 0.011162289 -0.022362538 -0.0017754546 -0.020202396 0.0036532935 0.008554285 0.00022750552
0.007059477 -0.012527123 -0.022434728 -0.009486873
00000000: 4780 af3c 09e2 363c a431 b7bc 5fb6 e8ba
00000010: 7f7f a5bc 186c 6f3b 4627 0c3c 8c8e 6e39
00000020: 2f53 e73b 903e 4dbc 09c9 b7bc d46e 1bbc

indicator_time_mixing.0.time_mixing.U2.12 f4 [1, 13]
0.00854957 -0.004049427 -0.012618706 -0.0077200755 0.0038497949 0.00044052416 0.0031584895 0.010495314
-0.016057434 -0.012923656 0.005849231 0.0061485665 0.0011412897
00000000: 7f13 0c3c 0eb1 84bb b0be 4ebc b0f8 fcbb
00000010: d74c 7c3b 27f6 e639 a9fe 4e3b 8af4 2b3c
00000020: e18a 83bc bebd 53bc e8aa bf3b ea79 c93b
00000030: 5497 953a

indicator_time_mixing.0.time_mixing.U2.13 f4 [1, 14]
-0.001477212 0.016305929 -0.029846495 -0.0050448664 0.0035718128 -0.027667608 -0.0058945944 0.01152989
0.0016610298 0.03598876 -0.0042255186 -0.030636862 -0.008329052 0.0112055605
00000000: 029f c1ba 0394 853c a380 f4bc 684f a5bb
00000010: 1315 6a3b 2ea7 e2bc 7127 c1bb dde7 3c3c
00000020: e9b6 d93a f368 133d 3876 8abb 28fa fabc
00000030: 9376 08bc 8797 373c

indicator_time_mixing.0.time_mixing.U2.14 f4 [1, 15]
0.0056080422 0.015121787 -0.03967872 -0.014311145 -0.002633953 -0.04220156 0.022908634 0.039520986
-0.0069441996 0.042899735 -0.027000694 -0.061525095 -0.013221689 0.02467439 0.004144578
00000000: abc3 b73b 5fc1 773c 2786 22bd 4b79 6abc
00000010: 669e 2cbb 8bdb 2cbd e3aa bb3c c2e0 213d
00000020: 2b8c e3bb a2b7 2f3d 8f30 ddbc bd01 7cbd
00000030: c89f 58bc f221 ca3c 3dcf 873b

indicator_time_mixing.0.time_mixing.U2.15 f4 [1, 16]
0.012268435 -0.012013668 -0.023702597 -0.005493688 -0.0068503865 0.016000887 0.003417767 -0.0033496479
-0.0034138598 -0.0021111416 -0.0031489637 0.01288189 0.003259504 -0.01000113 -0.005592511 3.1826643e-05
00000000: 8c01 493c fad4 44bc f32b c2bc 6504 b4bb
00000010: 3579 e0bb 4b14 833c 9dfc 5f3b c485 5bbb
00000020: 10bb 5fbb 145b 0abb d85e 4ebb 900e 533c
00000030: 679d 553b c8db 23bc 6241 b7bb 997d 0538

indicator_time_mixing.0.fc.weight f4 [1, 5]
-0.16220528 -0.0865022 -0.34852082 -0.048766237 0.299484
00000000: 2419 26be 1128 b1bd 5271 b2be 1bbf 47bd
00000010: f855 993e

indicator_time_mixing.1.indicator_mixing.W1 f4 [5, 64]
0.36115974 1.8784239 0.08385012 -0.01742683 -0.9238171 1.1268332 0.46518305 -0.21604358
0.31575048 -1.0519294 0.8967259 -0.9632466 1.7009456 -1.0021317 -0.5625757 -0.25087485
-0.5528655 0.5781872 1.3944573 -0.6676384 0.8621729 1.629847 2.7619228 -0.7026175
-0.669231 -1.4452708 -1.1110897 -0.43895933 -0.3625398 0.67588824 0.41687277 -0.21158063
-0.3828152 0.4507859 -0.7874976 1.0808614 -0.63184255 0.9486864 -1.2223262 1.0839441
0.58928305 -1.6002429 1.1414598 -0.0013756213 -0.18659084 -0.4145014 -0.40867805 0.8535815
-0.67295563 1.8595672 0.31364372 -1.7909299 1.0458375 0.23721132 1.1046973 0.65420955
1.0505128 -0.13475975 1.6539278 0.86785156 -0.3271133 1.2678324 0.47041947 0.3677092
1.8582113 -0.19381379 1.8191152 0.79771626 0.89238715 -0.4680797 -0.27235168 0.5351788
1.9040434 -0.6746781 1.1589276 -0.5183449 1.0593845 -1.0414509 -0.0910161 -0.11248054
0.76032656 -1.8321687 -0.40209967 0.682002 -0.46490824 -0.7727859 0.8661218 0.57005304
-0.2629668 0.18480387 1.1088382 -0.13521396 -1.2834913 1.5167793 0.9252349 -0.09582279
-1.665296 0.3608207 1.1876925 -2.0954518 -0.09541145 0.5599221 0.4897428 -0.2223497
0.0403151 0.992736 0.42746565 -0.08130894 1.3765147 -1.2213521 0.43436122 0.3245708
-0.7945671 -0.7338532 0.9470464 1.3471943 -0.84113705 -0.024915295 0.5185788 -0.03322009
-0.08157409 0.84085417 -1.2511584 -1.1427985 1.4843681 0.040705428 -0.5537504 0.9114618
0.7526023 0.027055718 -2.01449 0.19341221 -0.4039533 -0.28187394 1.1594328 -1.2106872
-0.76987994 0.41058213 -1.3159553 1.472917 0.4788053 -1.1675602 1.7424959 0.7207179
-1.6880487 0.30479404 0.73936665 -0.2642458 -2.4067452 -0.26297742 -1.9589808 -0.6676478
-0.19921961 0.64241827 0.34639305 1.9750893 -0.052933525 0.02052319 -0.40774205 -0.16377033
1.8431659 -0.829559 0.23689276 -1.6950102 0.18504046 -1.7963954 0.16972537 -0.2876035
-1.473241 -1.1631889 0.0052153957 -0.15627451 -0.6734631 -1.4303843 -0.5748263 -0.16102298
-1.7741964 -0.15616658 -2.4903765 0.30072778 -0.31768236 1.6169515 0.20888343 -0.13468087
0.9096806 0.6165002 -0.7310348 0.030929701 -1.2545989 0.40075067 2.8032453 0.87361985
-0.24367963 -0.41907468 -1.1773673 -0.706786 -0.7067412 2.4335122 1.9535846 -0.31358534
1.296653 0.3900187 1.3185631 -0.5596288 0.32184884 -0.24633645 -0.12427349 0.17988849
0.85890627 -0.23108959 0.85457945 1.5325342 -0.22576703 1.2880232 0.7957307 0.86827654
0.90373117 0.8121109 -0.6384201 0.688612 0.7286912 2.2504575 -0.27069485 -0.32782054
0.115994506 -0.9381612 -0.72425956 -1.046082 -0.29155013 0.36806569 0.21946684 0.19005698
-2.1017647 -0.5781794 -0.42526385 0.29308522 -1.0896306 0.0037089123 -0.46019915 0.38136372
-1.0271642 0.11260274 -0.486592 -2.4637837 0.09463377 -1.463418 0.30626115 -1.6778305
-0.33068857 0.4575808 -0.20531362 0.073886454 0.10631537 0.6582565 1.3710372 -0.07786652
00000000: eee9 b83e 3270 f03f 9db9 ab3d b6c2 8ebc
00000010: 477f 6cbf 123c 903f 792c ee3e 873a 5dbe
00000020: 0caa a13e 9fa5 86bf d48f 653f 5497 76bf
00000030: 96b8 d93f da45 80bf f604 10bf ab72 80be
00000040: 9888 0dbf 1404 143f 947d b23f 5aea 2abf
00000050: 5db7 5c3f d49e d03f 58c3 3040 bede 33bf
00000060: b952 2bbf a2fe b8bf 3038 8ebf 47bf e0be
00000070: d19e b9be 0307 2d3f 5970 d53e 98a8 58be
00000080: 5b00 c4be 69cd e63e 7199 49bf ab59 8a3f
00000090: 6fc0 21bf 1ddd 723f 2f75 9cbf aebe 8a3f
000000a0: 41db 163f c2d4 ccbf 5b1b 923f 314e b4ba
000000b0: ab11 3fbe 8739 d4be 403e d1be 5184 5a3f
000000c0: d246 2cbf 4c06 ee3f e995 a03e 313d e5bf
000000d0: 01de 853f 86e7 723e b966 8d3f 477a 273f
000000e0: 3477 863f 76fe 09be e8b3 d33f 852b 5e3f
000000f0: 657b a7be 5548 a23f d2da f03e 6144 bc3e
00000100: ded9 ed3f 1f77 46be c4d8 e83f 2237 4c3f
00000110: 7c73 643f 24a8 efbe ae71 8bbe 7a01 093f
00000120: b2b7 f33f b4b7 2cbf bd57 943f 40b2 04bf
00000130: e999 873f 434e 85bf a666 babd 335c e6bd
00000140: c3a4 423f 8184 eabf 02e0 cdbe af97 2e3f
00000150: 7408 eebe 4cd5 45bf 29ba 5d3f ffee 113f
00000160: 96a3 86be 3a3d 3d3e 69ee 8d3f 8775 0abe
00000170: 7149 a4bf d325 c23f 32dc 6c3f bd3e c4bd
00000180: 6b28 d5bf 7ebd b83e 4f06 983f e21b 06c0
00000190: 1467 c3bd 0e57 0f3f 91bf fa3e a4af 63be
000001a0: 7221 253d f223 7e3f c7dc da3e 4d85 a6bd
000001b0: a231 b03f 4455 9cbf 9864 de3e 252e a63e
000001c0: c068 4bbf cedd 3bbf a271 723f dd70 ac3f
000001d0: c254 57bf 291b ccbc 95c1 043f ca11 08bd
000001e0: 5110 a7bd 3842 573f f525 a0bf 3947 92bf
000001f0: c6ff bd3f bcba 263d 96c2 0dbf 8f55 693f
00000200: 8baa 403f f4a3 dd3c 67ed 00c0 da0d 463e
00000210: f8d2 cebe c851 90be 4b68 943f ccf7 9abf
00000220: da16 45bf d237 d23e 3971 a8bf 8b88 bc3f
00000230: f825 f53e 9d72 95bf 1b0a df3f f880 383f
00000240: fb11 d8bf f70d 9c3e 2247 3d3f 3a4b 87be
00000250: 1d08 1ac0 faa4 86be e2bf fabf f7ea 2abf
00000260: 3a00 4cbe 8675 243f 6e5a b13e bacf fc3f
00000270: d3d0 58bd 4020 a83c 91c3 d0be 69b3 27be
00000280: dcec eb3f fb5d 54bf 0494 723e 18f6 d8bf
00000290: 3f7b 3d3e 49f0 e5bf 7dcc 2d3e c440 93be
000002a0: 2993 bcbf 60e3 94bf e9e5 aa3b 6d06 20be
000002b0: 1468 2cbf d516 b7bf d127 13bf 35e3 24be
000002c0: de18 e3bf 22ea 1fbe 5462 1fc0 fef8 993e
000002d0: 43a7 a2be 44f8 ce3f 8ae5 553e c8e9 09be
000002e0: d4e0 683f f5d2 1d3f 1925 3bbf 4960 fd3c
000002f0: b296 a0bf 312f cd3e 5f68 3340 8da5 5f3f
00000300: 2787 79be f590 d6be f9b3 96bf edef 34bf
00000310: feec 34bf aabe 1b40 0f0f fa3f 428e a0be
00000320: baf8 a53f 88b0 c73e adc6 a83f d543 0fbf
00000330: 5fc9 a43e 9f3f 7cbe 1983 febd b034 383e
00000340: 48e1 5b3f c0a2 6cbe b8c5 5a3f 152a c43f
00000350: 792f 67be f2dd a43f 02b5 4b3f 5f47 5e3f
00000360: ed5a 673f 80e6 4f3f 806f 23bf e048 303f
00000370: 828b 3a3f 7f07 1040 8498 8abe 18d8 a7be
00000380: 878e ed3d 552b 70bf 1369 39bf 04e6 85bf
00000390: 0f46 95be 1b73 bc3e eabb 603e 4c9e 423e
000003a0: 5083 06c0 9103 14bf 2fbc d9be 440f 963e
000003b0: 0479 8bbf 3911 733b 399f ebbe 1b42 c33e
000003c0: 1e7a 83bf 449c e63d 9622 f9be a2ae 1dc0
000003d0: 5acf c13d 4851 bbbf 43ce 9c3e 26c3 d6bf
000003e0: 0350 a9be 0848 ea3e bc3d 52be c851 973d
000003f0: dfbb d93d 7f83 283f 267e af3f 7b78 9fbd

indicator_time_mixing.1.indicator_mixing.W2 f4 [64, 5]
-1.2214109 0.38113382 1.4201491 0.76013905 1.0677599 0.36219275 0.33357915 -1.140724
-1.990594 1.2435547 -2.490425 0.31566918 -0.28743908 -0.07945406 1.6495619 -0.040050894
-0.5068575 2.2038975 0.0313057 0.3557483 0.90340483 -0.111882165 0.51453894 -0.39300728
-0.6386476 1.3715054 -0.5004901 1.117451 -0.0052069603 0.21054985 1.781964 0.39973593
-0.7997072 0.42561 -0.15402906 0.787097 -0.830858 0.76310694 -0.7275775 -1.0660388
-0.3249874 -1.1825218 0.0018891073 -0.88634264 -0.6141959 -0.23054911 0.5531302 -0.28585023
-0.8891691 1.4271985 0.37154663 0.55901706 0.82357186 -0.047323268 -0.1510493 0.5232207
0.2512032 -0.13714951 -0.673773 2.674252 -0.1338187 0.71417904 -0.047094263 0.3412957
0.5412261 -0.99400705 -0.3745981 -1.1755508 0.37215698 -0.14364408 -1.5114977 1.853354
0.40056443 0.3532687 1.6740156 -0.5299563 0.20697178 -0.4629077 -1.5247455 -1.4183753
-2.9487462 1.3843935 -0.58436644 -0.01613095 -0.14892209 -0.4279709 0.03032997 -1.9110918
-0.255456 -0.72696203 0.1229832 -0.05549112 -0.44967216 1.3907433 0.722038 0.32725844
-0.39328662 -0.49719656 0.54820967 0.9741132 -0.056009535 1.661432 -0.59030604 2.3025439
-1.4045832 0.12553217 -0.14878839 -1.4445053 0.59484506 -1.6683605 0.26607093 2.4396458
1.5288273 -0.46547654 0.30783278 -0.65522206 0.46657965 0.7771072 -0.57421774 -0.6560538
0.608011 1.5084497 1.0686686 0.41332504 0.82946384 -1.31264 0.20112826 -1.6807741
-1.1446451 2.0913885 -2.2369478 -0.7233173 1.0381328 1.8490151 0.96658 -0.2944413
0.60969436 -0.1536353 0.54477096 -0.28184786 -0.4608819 -0.030814359 -1.0262686 -1.2225465
2.3957365 -0.912303 -1.1232191 -0.3005278 0.75206125 0.91272753 -0.6391664 -0.10971728
-1.750404 -1.5037967 -0.0066127926 -0.43560398 -0.5297483 -0.96072084 1.0246403 0.20152885
2.4884818 -1.5161092 0.6376992 -0.43802512 -0.41195223 -1.3432091 1.4145566 0.17405263
0.049222175 0.9802478 0.28480855 0.021230675 1.1270435 -1.4659716 2.4195333 1.4842701
-1.1996355 -0.1181357 -0.29084688 -0.2261951 -1.7773262 -0.23121332 -2.1075938 1.6920811
0.6869562 0.358229 -0.3659257 -0.3593615 -0.35596716 0.06443103 2.1049619 -1.383355
-1.4784068 -0.93289506 -0.3748222 -0.4866666 0.7225566 -1.0392706 0.47042176 -0.72406864
-0.35051194 1.0032593 -0.4452037 -0.5432369 -2.124864 0.50867236 -1.0491259 -0.9002562
-1.3292499 0.54473436 1.6607426 0.26574 1.3391995 0.40570182 -1.07533 0.6838209
-1.1294978 -0.14469469 1.1236984 1.5782199 0.7364423 -0.33624443 -1.6533098 1.0417519
-1.2690868 -2.3559947 1.5824511 -0.66017646 -1.5831152 -0.14197657 0.406739 1.2279621
-0.56415534 -2.1770556 0.20132795 1.7188846 0.6119168 -0.38949174 0.2989947 0.2163732
-0.6747834 1.0045426 -0.6712472 0.58266896 0.80833197 -0.84043765 -0.57815605 0.9251393
0.53884774 0.30119434 0.112910874 0.7902978 1.2463737 1.0098829 0.07430215 -0.41569003
00000000: 3157 9cbf f923 c33e 72c7 b53f 7998 423f
00000010: 5bac 883f 5471 b93e e3ca aa3e 3e03 92bf
00000020: c9cb febf cd2c 9f3f 2063 1fc0 649f a13e
00000030: 372b 93be cfb8 a2bd d824 d33f 680c 24bd
00000040: 6ac1 01bf a80c 0d40 683a 003d a424 b63e
00000050: 8a45 673f 7a22 e5bd d3b8 033f 4038 c9be
00000060: 697e 23bf 7d8d af3f 1f20 00bf a208 8f3f
00000070: 269f aabb 619a 573e 6517 e43f 30aa cc3e
00000080: 9cb9 4cbf 8ee9 d93e cbb9 1dbe 307f 493f
00000090: 1cb3 54bf fa5a 433f 8542 3abf f673 88bf
000000a0: c064 a6be e05c 97bf ec9b f73a 5ae7 62bf
000000b0: f13b 1dbf 1115 6cbe f199 0d3f f65a 92be
000000c0: 96a0 63bf 71ae b63f 5c3b be3e be1b 0f3f
000000d0: 9bd5 523f 0bd6 41bd abac 1abe cbf1 053f
000000e0: b59d 803e ec70 0cbe 637c 2cbf f226 2b40
000000f0: c507 09be 70d4 363f eae5 40bd 4fbe ae3e
00000100: cb8d 0a3f 3f77 7ebf 52cb bfbe 7378 96bf
00000110: 5c8b be3e 6f17 13be c278 c1bf b43a ed3f
00000120: c816 cd3e a3df b43e 2546 d63f 37ab 07bf
00000130: 69f0 533e 3d02 edbe dc2a c3bf 528d b5bf
00000140: 42b8 3cc0 ce33 b13f 0a99 15bf 0e25 84bc
00000150: 087f 18be 001f dbbe 8f76 f83c a89e f4bf
00000160: 21cb 82be 2f1a 3abf 9ede fb3d a84a 63bd
00000170: 6e3b e6be e003 b23f 7bd7 383f 6b8e a73e
00000180: dd5c c9be 8c90 febe 7857 0c3f 7c5f 793f
00000190: 416a 65bd cea9 d43f 4c1e 17bf e15c 1340
000001a0: 62c9 b3bf 818b 003e fc5b 18be 8de5 b8bf
000001b0: c447 183f d68c d5bf 733a 883e 2823 1c40
000001c0: 9db0 c33f f152 eebe 429c 9d3e a2bc 27bf
000001d0: 87e3 ee3e 7ff0 463f efff 12bf 24f3 27bf
000001e0: 9ca6 1b3f e114 c13f 22ca 883f 579f d33e
000001f0: be57 543f 9604 a8bf 91f4 4d3e 9b23 d7bf
00000200: bb83 92bf 4fd9 0540 272a 0fc0 532b 39bf
00000210: 89e1 843f 87ac ec3f c971 773f 03c1 96be
00000220: ee14 1c3f 9252 1dbe 1c76 0b3f 5d4e 90be
00000230: b6f8 ebbe 656e fcbc c55c 83bf 677c 9cbf
00000240: bf53 1940 b08c 69bf a5c5 8fbf c8de 99be
00000250: 1687 403f 83a8 693f 69a0 23bf 74b3 e0bd
00000260: 3d0d e0bf 697c c0bf 20b0 d8bb 7c07 dfbe
00000270: 969d 07bf cdf1 75bf 6a27 833f 945d 4e3e
00000280: 4943 1f40 de0f c2bf 4140 233f d444 e0be
00000290: 67eb d2be 47ee abbf 3110 b53f da3a 323e
000002a0: 319d 493d 85f1 7a3f 6dd2 913e f4eb ad3c
000002b0: f642 903f f5a4 bbbf a2d9 1a40 90fc bd3f
000002c0: a88d 99bf 21f1 f1bd e2e9 94be b09f 67be
000002d0: 6d7f e3bf 2fc3 6cbe d1e2 06c0 1d96 d83f
000002e0: 5ddc 2f3f cb69 b73e 9d5a bbbe 3bfe b7be
000002f0: 5441 b6be 6af4 833d b2b7 0640 c711 b1bf
00000300: 6f3c bdbf 36d2 6ebf b2e8 bfbe 5d2c f9be
00000310: 78f9 383f d206 85bf 1fdb f03e 905c 39bf
00000320: 4d76 b3be cd6a 803f bdf1 e3be 9311 0bbf
00000330: c6fd 07c0 5a38 023f c249 86bf 3177 66bf
00000340: dc24 aabf b673 0b3f 3793 d43f 130f 883e
00000350: e46a ab3f 26b8 cf3e 6aa4 89bf e30e 2f3f
00000360: 6293 90bf d82a 14be 59d5 8f3f 1c03 ca3f
00000370: 7c87 3c3f 3b28 acbe a89f d3bf 2058 853f
00000380: 7071 a2bf 9ec8 16c0 c28d ca3f 5301 29bf
00000390: 85a3 cabf 4e62 11be 1840 d03e dd2d 9d3f
000003a0: 7c6c 10bf e154 0bc0 ea28 4e3e 6904 dc3f
000003b0: 94a6 1c3f 766b c7be d515 993e f090 5d3e
000003c0: 9bbe 2cbf da94 803f dbd6 2bbf cb29 153f
000003d0: d8ee 4e3f ec26 57bf 0902 14bf eed5 6c3f
000003e0: edf1 093f 2536 9a3e d13d e73d f550 4a3f
000003f0: 2c89 9f3f d843 813f ba2b 983d 53d5 d4be

indicator_time_mixing.1.indicator_mixing.ln.weight f4 [8, 5]
0.946583 0.895457 1.0323987 0.98724324 0.8856998 1.0443963 1.0616384 1.0059669
1.0211211 1.0051775 0.97472703 0.88652056 0.96832657 0.99741244 0.9214822 0.9992707
0.9311083 1.0072933 0.9580752 0.8036682 1.014876 0.9082037 0.99862945 0.9815449
0.87644327 0.9759111 1.1298051 0.92545104 0.99883217 0.9710002 0.9830083 0.9110817
1.0418425 0.96085536 0.8399325 0.97373307 1.0560776 0.8968228 0.98244995 0.90388477
00000000: 4353 723f ac3c 653f a425 843f f9bb 7c3f
00000010: 39bd 623f c7ae 853f c4e3 873f 86c3 803f
00000020: 19b4 823f a8a9 803f b687 793f 03f3 623f
00000030: 40e4 773f 6c56 7f3f 42e6 6b3f 34d0 7f3f
00000040: 1d5d 6e3f fdee 803f 6b44 753f 33bd 4d3f
00000050: 75e7 813f 0a80 683f 2ea6 7f3f 8746 7b3f
00000060: 965e 603f 4fd5 793f 749d 903f 5cea 6c3f
00000070: 77b3 7f3f 7893 783f 6fa6 7b3f a63c 693f
00000080: 185b 853f 9efa 753f d105 573f 9246 793f
00000090: 8d2d 873f 2e96 653f d781 7b3f fe64 673f

indicator_time_mixing.1.indicator_mixing.ln.bias f4 [8, 5]
0.042895522 -0.02173863 -0.028160544 -0.0017350978 0.026635062 -0.04298346 0.012952091 0.022762345
0.026613386 -0.015634697 0.011836647 -0.004942375 -0.0041676923 -0.039072946 -0.020055357 0.008184301
-0.009672287 -0.014078183 -0.05334154 0.0004958396 -0.0046668914 -0.0059575406 -0.01622012 -0.010764129
0.002716725 0.012662467 -0.0075925435 -0.018767135 0.013949017 0.030219045 0.024948647 -0.018594433
-0.029012367 -0.02553103 0.0079180915 0.02526862 -0.013437768 -0.024163743 -0.010630293 0.018745631
00000000: 37b3 2f3d 3615 b2bc f1b0 e6bc 396c e3ba
00000010: c631 da3c 6d0f 30bd 0235 543c 1978 ba3c
00000020: 5104 da3c 5614 80bc 7fee 413c a5f3 a1bb
00000030: 2391 88bb f40a 20bd 224b a4bc 7217 063c
00000040: 8378 1ebc 2ea8 66bc a97c 5abd 3bfb 013a
00000050: b9ec 98bb 7937 c3bb 0fe0 84bc 085c 30bc
00000060: 150b 323b 3c76 4f3c dfca f8bb 89bd 99bc
00000070: 6b8a 643c ee8d f73c 1b61 cc3c 5a53 98bc
00000080: 58ab edbc 7326 d1bc e2ba 013c 2300 cf3c
00000090: 162a 5cbc 0bf3 c5bc ae2a 2ebc 7090 993c

indicator_time_mixing.1.time_mixing.ln.weight f4 [8, 5]
1.1297085 1.0055041 0.91675276 0.97306675 1.0664511 0.9352405 1.147815 1.0115266
1.0296612 0.9977861 0.85662234 1.2374215 1.189138 1.1720514 0.7884019 0.8934307
1.158738 1.1085217 1.0964378 0.9125954 0.9169328 1.1874328 1.0764927 1.11411
0.9255067 1.0619092 0.9723707 0.8892571 0.90492195 1.0917758 1.0513705 1.0421475
0.9419432 0.97783774 1.0515851 0.8888816 1.1352085 0.98667896 0.9930733 1.0371095
00000000: 4a9a 903f 5cb4 803f 4fb0 6a3f e71a 793f
00000010: 7881 883f ec6b 6f3f 9aeb 923f b479 813f
00000020: f0cb 833f e96e 7f3f 9a4b 5b3f d463 9e3f
00000030: ad35 983f c805 963f b5d4 493f e0b7 643f
00000040: 8751 943f 0ae4 8d3f 1358 8c3f da9f 693f
00000050: 1cbc 6a3f ccfd 973f 83ca 893f 289b 8e3f
00000060: 02ee 6c3f a4ec 873f 49ed 783f 5aa6 633f
00000070: f7a8 673f 4fbf 8b3f 4f93 863f 1765 853f
00000080: 3123 713f 9353 7a3f 579a 863f bf8d 633f
00000090: 834e 913f fe96 7c3f 0d3a 7e3f 01c0 843f

indicator_time_mixing.1.time_mixing.ln.bias f4 [8, 5]
-0.00857725 0.008744856 -0.015067383 -0.0055346075 -0.0025056126 0.025699513 0.033699997 -0.048474208
-0.032632377 -0.02088102 0.10769672 0.13300823 -0.1444577 -0.1183599 -0.1761623 0.05795273
0.07476875 -0.09892344 -0.07453448 -0.077915594 0.015405825 0.026379485 -0.039381914 -0.026194615
-0.019237224 -0.013558464 0.00332159 -0.020116296 -0.0013071891 0.009857507 -0.00023758068 0.013540927
-0.03318245 -0.01278352 -0.00079727 -0.027542572 -0.0063830516 -0.020647263 0.005588489 0.020870483
00000000: 9887 0cbc 9646 0f3c 2fdd 76bc a75b b5bb
00000010: 3435 24bb c987 d23c 0209 0a3d e48c 46bd
00000020: 87a9 05bd ac0e abbc 1990 dc3d 4f33 083e
00000030: b8ec 13be ad66 f2bd e463 34be d85f 6d3d
00000040: 5c20 993d 5f98 cabd 89a5 98bd 3692 9fbd
00000050: b768 7c3c ca19 d83c ee4e 21bd 1796 d6bc
00000060: 6297 9dbc 5224 5ebc 08af 593b eeca a4bc
00000070: fd55 abba 6281 213c 141f 79b9 c4da 5d3c
00000080: 52ea 07bd f871 51bc e2ff 50ba f6a0 e1bc
00000090: eb28 d1bb 7324 a9bc a51f b73b 93f8 aa3c

indicator_time_mixing.1.time_mixing.U1.1 f4 [1, 2]
0.13918392 0.06760963
00000000: 3b86 0e3e eb76 8a3d

indicator_time_mixing.1.time_mixing.U1.2 f4 [1, 3]
0.047197517 0.0114032375 0.05608009
00000000: 2f52 413d a5d4 3a3c 3db4 653d

indicator_time_mixing.1.time_mixing.U1.3 f4 [1, 4]
0.024340186 0.008261796 0.033877574 0.019150324
00000000: 1265 c73c 7c5c 073c 36c3 0a3d 24e1 9c3c

indicator_time_mixing.1.time_mixing.U1.4 f4 [1, 5]
0.080147825 0.050365977 0.013611725 0.012641935 -0.0011642275
00000000: 8b24 a43d 8e4c 4e3d b603 5f3c 1e20 4f3c
00000010: fe98 98ba

indicator_time_mixing.1.time_mixing.U1.5 f4 [1, 6]
0.091545664 0.06504642 0.011516901 0.003245503 0.012220385 0.092698365
00000000: 4b7c bb3d 0f37 853d 62b1 3c3c 81b2 543b
00000010: 0238 483c a4d8 bd3d

indicator_time_mixing.1.time_mixing.U1.6 f4 [1, 7]
0.08171445 0.029560717 -0.014844384 0.0070238546 -0.00025389914 0.053652067 0.06588848
00000000: e859 a73d 5129 f23c dc35 73bc 5d28 e63b
00000010: c41d 85b9 45c2 5b3d 8af0 863d

indicator_time_mixing.1.time_mixing.U1.7 f4 [1, 8]
0.112584405 0.07141858 0.0076319654 0.041259468 0.017729374 0.10549181 0.09068948 0.07433669
00000000: a792 e63d e843 923d 9115 fa3b b0ff 283d
00000010: 313d 913c 170c d83d 68bb b93d d63d 983d

indicator_time_mixing.1.time_mixing.U2.1 f4 [1, 2]
-0.081998125 0.06882266
00000000: a2ee a7bd e5f2 8c3d

indicator_time_mixing.1.time_mixing.U2.2 f4 [1, 3]
0.11041091 -0.056739457 -0.03437553
00000000: 1d1f e23d a267 68bd 5bcd 0cbd

indicator_time_mixing.1.time_mixing.U2.3 f4 [1, 4]
0.070509836 -0.09815285 -0.034764834 -0.04230877
00000000: 7667 903d 5d04 c9bd 9265 0ebd f64b 2dbd

indicator_time_mixing.1.time_mixing.U2.4 f4 [1, 5]
-0.0026130206 -0.059523657 -0.035460364 -0.0045201113 -0.0506244
00000000: 363f 2bbb 14cf 73bd e33e 11bd 711d 94bb
00000010: 885b 4fbd

indicator_time_mixing.1.time_mixing.U2.5 f4 [1, 6]
-0.0014326994 -0.021182772 0.010927023 0.0075711086 -0.0028501605 -0.030355794
00000000: 6ac9 bbba 7e87 adbc 4207 333c 1017 f83b
00000010: c2c9 3abb b7ac f8bc

indicator_time_mixing.1.time_mixing.U2.6 f4 [1, 7]
0.068792626 -0.080076374 -0.04342593 -0.023327658 -0.052229986 -0.0644082 -0.04018219
00000000: 26e3 8c3d 15ff a3bd 63df 31bd a519 bfbc
00000010: 1cef 55bd 72e8 83bd 1496 24bd

indicator_time_mixing.1.time_mixing.U2.7 f4 [1, 8]
0.053511616 -0.10467172 -0.034663595 -0.015749615 -0.06371639 -0.07089969 -0.05365199 -0.08023919
00000000: ff2e 5b3d 205e d6bd 6afb 0dbd 5605 81bc
00000010: bd7d 82bd db33 91bd 30c2 5bbd 7254 a4bd

indicator_time_mixing.1.fc.weight f4 [1, 5]
0.018697586 0.26383695 -0.057288688 -0.4081889 -0.27123022
00000000: ae2b 993c a315 873e 8ba7 6abd 23fe d0be
00000010: b0de 8abe
