weights/stockmixer_L16_H64_M40_K4_E50_s3_tanh.pt (torch, 630786 bytes, 93 tensors)

indicator_time_mixing.0.indicator_mixing.W1 f4 [5, 64]
0	0xbd6943d7	-0.056949463
1	0x3eb12848	0.34601045
2	0xbf3b18da	-0.73084795
3	0x3e39714b	0.18109624
4	0x3f37ed31	0.718463
5	0xbee77da9	-0.4521306
6	0x3fd95f7a	1.6982262
7	0xbfe24562	-1.7677424
8	0xbb85b364	-0.004080223
9	0xbe843752	-0.25823456
10	0x3e45b31d	0.19306608
11	0xbe5ce18c	-0.21570414
12	0x3f534a10	0.82534885
13	0x3dc654ca	0.09684141
14	0x3f00b14d	0.5027054
15	0x3ebfa2f9	0.37429026
16	0x3edba3b1	0.42898324
17	0x3f6610bb	0.8986928
18	0xbefb180d	-0.49041787
19	0xbfd631ba	-1.6733925
20	0x3f7fde0b	0.99948186
21	0x3ef0700e	0.4696049
22	0xbe5ef727	-0.21773969
23	0x3dc9cf08	0.09853941
24	0x3f342ded	0.7038258
25	0x40162787	2.3461626
26	0x3ff29341	1.8951188
27	0xbf9ac749	-1.2092067
28	0x3f65ef4e	0.89818275
29	0x3ed552b4	0.4166466
30	0x40190d30	2.39143
31	0xbdaab48b	-0.08335217
32	0xbed4b7d0	-0.41546488
33	0xbeab5e75	-0.33470502
34	0xbebdce28	-0.37071347
35	0x3ec24131	0.37940362
36	0x3d2dc432	0.042423435
37	0xbdeb7e72	-0.11498727
38	0x3ec4cccd	0.384375
39	0xbf60f316	-0.8787092
40	0xbe852be9	-0.26010063
41	0x3e5ea7ee	0.21743748
42	0x3dcc1e87	0.0996676
43	0x3f1a6f53	0.6032612
44	0xbf6b885f	-0.9200496
45	0xbd9b3255	-0.075779594
46	0x3f1c8827	0.6114525
47	0x3ef7f647	0.48430082
48	0xbf021fcc	-0.5082977
49	0x401e9799	2.4780028
50	0xbea4175c	-0.32049072
51	0xbd460969	-0.048348818
52	0x3f1cf3eb	0.6130969
53	0xc01222f2	-2.283383
54	0x3fa6e53d	1.3038708
55	0x3f3501a0	0.70705605
56	0x3f858f2e	1.043432
57	0xbf92029c	-1.1407046
58	0xbfdb1394	-1.711535
59	0x3f8a5ecc	1.081018
60	0xbf45db1f	-0.7728748
61	0xbf2b18e3	-0.6683485
62	0x3fb2c7c4	1.3967214
63	0x3fbe2157	1.4853925
64	0xbdaa17a1	-0.08305288
65	0xbeb5049a	-0.35355073
66	0x3ee95d8d	0.45579186
67	0xbe6ae4b3	-0.22938804
68	0xbfd25e5d	-1.6435047
69	0x3fbaf176	1.4604938
70	0xbf8339a8	-1.025197
71	0x3f80a313	1.0049766
72	0x3f0adce5	0.5424331
73	0xbdb7c003	-0.0897217
74	0xbf8dc2db	-1.107509
75	0xbf0a9a77	-0.54141945
76	0xbf2b7089	-0.6696859
77	0xbf413b87	-0.75481457
78	0xbf6c9746	-0.92418325
79	0xbfe56c24	-1.7923627
80	0x3e1406ad	0.14455672
81	0xbe4f0cbd	-0.20219703
82	0xbda23789	-0.07920749
83	0xbf21c5a7	-0.6319222
84	0x3ffa62df	1.9561423
85	0x3ea92813	0.33038387
86	0xbfae378b	-1.36107
87	0xbe05903b	-0.13043301
88	0x3e8abd89	0.2709773
89	0x3ecee988	0.40412545
90	0x3e86e562	0.2634688
91	0xbf84d33f	-1.0376967
92	0x3f85c60e	1.0451066
93	0xbc861871	-0.016369076
94	0xbf59daab	-0.85099286
95	0xbe88af7e	-0.2669639
96	0xbf16619d	-0.58742696
97	0xbf11ae42	-0.5690652
98	0xbf01b7b6	-0.50670946
99	0xbe850344	-0.25979054
100	0x3f13f799	0.5779968
101	0x3f5d0dcf	0.86349195
102	0xbeb0e399	-0.34548643
103	0x3d161d6e	0.03664916
104	0xbeaca207	-0.33717367
105	0x3fcd8572	1.6056349
106	0x3f74757a	0.95491755
107	0x3f13d39b	0.5774476
108	0xbf9e8cee	-1.2386758
109	0x3f9b419a	1.2129395
110	0xbfa5ef11	-1.2963582
111	0xbf45ebfc	-0.7731321
112	0xbedf7318	-0.43642497
113	0x3eea110e	0.45716137
114	0x3f1f8b89	0.6232229
115	0x3df82631	0.121166594
116	0x400ee4c8	2.2327137
117	0xbe96d9f1	-0.2946315
118	0xbf26dfc8	-0.65185213
119	0xc037d2f7	-2.8722513
120	0xbec5ef04	-0.38658917
121	0x3db715c9	0.08939702
122	0x3dd8a2df	0.1057794
123	0x3eac36d3	0.33635578
124	0x3cfd2507	0.030901445
125	0x400dc02c	2.2148542
126	0xbf556b57	-0.8336691
127	0x3e893c38	0.26803756
128	0xbdb60a27	-0.08888655
129	0x3e595e1d	0.21227308
130	0x401c4bdd	2.4421303
131	0xbf935954	-1.1511636
132	0x3fdc6a35	1.7219912
133	0xbf86d491	-1.053362
134	0xbefcca77	-0.49373218
135	0xbf12021a	-0.57034457
136	0xbf84eed4	-1.0385385
137	0xbf8e094c	-1.1096587
138	0x3ee39f77	0.444576
139	0x3eff4ca7	0.4986317
140	0x3e72bf50	0.23705792
141	0xbd5a2921	-0.05326188
142	0xbd382d36	-0.04496499
143	0xbf9e316c	-1.2358832
144	0xbf4684e6	-0.77546537
145	0x3f8a9ae6	1.0828521
146	0x3fa3661d	1.2765538
147	0x3d623ffe	0.05523681
148	0x3f9cd14e	1.2251375
149	0xc034f598	-2.8274899
150	0xbede0935	-0.433664
151	0xbfa1e963	-1.2649349
152	0xbeb1c642	-0.3472157
153	0xbdaf0892	-0.085465565
154	0xbf0bc4dd	-0.54597265
155	0x3e088f72	0.1333597
156	0xbf886706	-1.065644
157	0xbe9be11e	-0.30445188
158	0xbe7541a1	-0.23950817
159	0x402a9863	2.665551
160	0xbeb0e563	-0.34550008
161	0xbf6fbcf8	-0.9364772
162	0xbfac2fcf	-1.345209
163	0xbfbdd745	-1.483132
164	0x3e6f5ab4	0.23374444
165	0xbd1c2b1b	-0.038127046
166	0xbfba6f0a	-1.4565136
167	0xbe089b1e	-0.13340423
168	0x3d1c5703	0.03816892
169	0x3f69e897	0.9137053
170	0xbded7637	-0.11594813
171	0xbf386a61	-0.7203732
172	0x3d892fc7	0.06698566
173	0xbe147baf	-0.14500307
174	0xbef76ae8	-0.4832375
175	0xbf9252c1	-1.1431504
176	0xbf1a4b55	-0.602712
177	0xbfd82026	-1.6884811
178	0xbf8bbe5d	-1.0917469
179	0x3e39e4c0	0.18153667
180	0x40117e80	2.273346
181	0xbf9b5df8	-1.2138052
182	0x40163b10	2.347355
183	0x3fe28e90	1.7699757
184	0xbed92588	-0.42411447
185	0xbf86912d	-1.0513054
186	0xbfc30da0	-1.5238533
187	0xbf24aeb1	-0.6432906
188	0x3f19789e	0.5994967
189	0x3ddea827	0.10871916
190	0xbe934124	-0.28760636
191	0x3ff56553	1.9171547
192	0x3ead8a8a	0.3389476
193	0x3f08f3b9	0.5349689
194	0x3e2bef42	0.16790488
195	0x3fc667c4	1.5500417
196	0x3f8f5093	1.1196464
197	0xbf1f82f0	-0.6230917
198	0x3ee51fc8	0.4475081
199	0x3ff2c0fd	1.8965145
200	0x3f174575	0.5909036
201	0xbf96418c	-1.1738753
202	0xbfbded68	-1.4838076
203	0xbf1eeaba	-0.62076914
204	0xbec11949	-0.37714604
205	0x3f9f9444	1.2467122
206	0xbf1310f0	-0.5744772
207	0x3ff71ce2	1.9305689
208	0xc00221db	-2.0333164
209	0xbefdd85d	-0.49579135
210	0xbed0e738	-0.40801406
211	0x3e556c8c	0.20842189
212	0x3f973e3a	1.1815865
213	0x3fb4f4bd	1.4137188
214	0xbf078c95	-0.52948886
215	0x3e6f667a	0.23378935
216	0xbf3f6ab0	-0.7477217
217	0x3eb3ddae	0.35130066
218	0xbf069aa8	-0.52579737
219	0xbf07fb17	-0.5311751
220	0x402eba99	2.730139
221	0x3ed35838	0.41278243
222	0xbde57e61	-0.112057455
223	0xbefaea90	-0.49007082
224	0x3fb29f3c	1.3954844
225	0x3f804ff1	1.0024396
226	0xbe9a92e4	-0.30190194
227	0x3fb5296f	1.415327
228	0x3fed63b7	1.8546056
229	0xbe754777	-0.23953043
230	0xbf580b04	-0.8439181
231	0x3f967929	1.1755725
232	0xbf989b94	-1.1922479
233	0xbe7f2d65	-0.2491966
234	0xbf70c8a6	-0.94056165
235	0x3d0eab3b	0.034831267
236	0x3e496c3e	0.19670197
237	0xbda52493	-0.080636166
238	0xbeb91643	-0.36149797
239	0xbfa3d706	-1.2799995
240	0xbf35518f	-0.70827574
241	0xc007d4e2	-2.1223683
242	0x3ea0b839	0.3139055
243	0x3efd8641	0.4951649
244	0x3f6c0b61	0.9220486
245	0x3fcffeec	1.6249671
246	0xbfb336ac	-1.400106
247	0x3f5f49f1	0.872222
248	0x3f851530	1.0397091
249	0x3ed01258	0.40638995
250	0xbcd36343	-0.025804168
251	0xbf95e7ec	-1.1711402
252	0xbf9e133f	-1.2349623
253	0x3f60237d	0.8755415
254	0x3d563278	0.052294225
255	0x3f293771	0.6610022

indicator_time_mixing.0.indicator_mixing.W2 f4 [64, 5]
0	0xc010f129	-2.2647192
1	0x3f82ef88	1.0229349
2	0xbeddd175	-0.43323866
3	0xbeb65034	-0.35608065
4	0xbeac8336	-0.33693856
5	0xbf684d97	-0.9074339
6	0xbf77d2fa	-0.968063
7	0xbee0607c	-0.43823612
8	0x3e0723df	0.13197277
9	0x3e414d0a	0.18877044
10	0x3e81c3b6	0.25344628
11	0xbea0253a	-0.31278402
12	0x40045d1a	2.0681825
13	0xbe1650c6	-0.1467925
14	0xbf171ed1	-0.590314
15	0xbfb6b77b	-1.4274744
16	0xbf5dcd70	-0.866416
17	0xbde5f7b9	-0.1122889
18	0xbf088b5b	-0.5333764
19	0xbfdb5d97	-1.7137936
20	0x3f091043	0.5354044
21	0xbefa503f	-0.48889348
22	0xbfa13092	-1.2592947
23	0xbe1833bc	-0.14863485
24	0x3d083e09	0.033262286
25	0x4018828a	2.3829675
26	0x40108055	2.2578328
27	0xbf22d510	-0.6360636
28	0x3ea0627a	0.31325132
29	0xbf046757	-0.51720184
30	0x3ea5b5b1	0.32365182
31	0x3f2fe7b8	0.6871295
32	0x3f0ab645	0.5418437
33	0xbeedc52d	-0.46439496
34	0xbe0ab613	-0.13546018
35	0xbee089be	-0.4385509
36	0x3ededf80	0.43529892
37	0x3ed9dcd0	0.4255128
38	0x3e837550	0.2567544
39	0xbe248a60	-0.16068411
40	0x3eea9ac4	0.45821202
41	0x3eeba052	0.46020752
42	0x40080e49	2.125872
43	0xbf919967	-1.137494
44	0xbf659331	-0.8967772
45	0x3f64c2a3	0.8935949
46	0xbec6e05a	-0.38843042
47	0x3e86f4e3	0.2635871
48	0x3f090348	0.5352063
49	0xbfadeb59	-1.3587447
50	0x3f0d44ff	0.55183405
51	0xbf7103e3	-0.94146556
52	0xbe96ecbe	-0.29477495
53	0x3fa56215	1.2920557
54	0x3f2b3b30	0.6688719
55	0x3ff92e39	1.9467231
56	0x3f2e8de2	0.68185246
57	0x4020e788	2.5141315
58	0x3d0a7fd9	0.03381333
59	0x3f7490dd	0.95533544
60	0x3fb29c30	1.3953915
61	0x3ee9c9c3	0.45661744
62	0x3d4dc69b	0.050238233
63	0x3fa3b68e	1.2790086
64	0xbf3f48af	-0.7472028
65	0xbee93075	-0.45544782
66	0x3fb9ecdf	1.4525412
67	0xbf58d889	-0.84705406
68	0xbee1f868	-0.4413483
69	0xbe786127	-0.2425581
70	0x3fe27ed0	1.769495
71	0xbf566c63	-0.83759135
72	0xbf1325a9	-0.5747934
73	0xbea1a6c4	-0.31572545
74	0xbf0373ce	-0.5134858
75	0x3e820cb5	0.2540032
76	0x3f16420e	0.5869454
77	0x3f1a3645	0.6023906
78	0x3fda4bdf	1.7054404
79	0x3f50f00d	0.8161629
80	0x3f96c882	1.177994
81	0x3f039211	0.51394755
82	0xbebbd44b	-0.36685404
83	0x3f950812	1.1643088
84	0xc007eade	-2.1237102
85	0x3f7e6aa9	0.993815
86	0xbee3f9bb	-0.44526467
87	0xbee2a2bd	-0.44264784
88	0x3ec99a5e	0.39375585
89	0x3fa9b650	1.3258762
90	0xbf9d83fe	-1.2305906
91	0xbe034f6c	-0.12823266
92	0x3f6d7547	0.92757076
93	0xbf6551a0	-0.89577675
94	0x3f57cbee	0.84295547
95	0xbf02966d	-0.5101078
96	0xbff578a5	-1.9177443
97	0x3ed29e14	0.4113623
98	0xbf857684	-1.0426793
99	0xbf41a2c0	-0.7563896
100	0x3ec56014	0.38549864
101	0x3feab109	1.8335277
102	0x3eac107a	0.3360632
103	0x3fe8fe3c	1.8202586
104	0xbeabfec9	-0.33592823
105	0x3e166e25	0.14690454
106	0x3e4f3f34	0.20238954
107	0x3ec355dc	0.38151443
108	0x3f66f836	0.9022249
109	0xbfa95c46	-1.3231285
110	0x3f38686d	0.7203434
111	0xbf843394	-1.032824
112	0x3eb1c8c9	0.347235
113	0x3f29c471	0.6631537
114	0xbfa50450	-1.2891941
115	0xbf2f16ac	-0.6839397
116	0x3f22a216	0.63528574
117	0x3ddc6c56	0.10762851
118	0xbfc6b857	-1.5525006
119	0xbefe3261	-0.4964781
120	0x3f05b0c9	0.5222288
121	0xbf547566	-0.82991636
122	0xbf82f338	-1.0230474
123	0x3edc4590	0.43021822
124	0xbe5b6bba	-0.21427813
125	0x3f6008fc	0.8751371
126	0xbf470ee1	-0.7775708
127	0x3e4955f7	0.19661699
128	0xbddb4c2b	-0.10707887
129	0xbf080cf3	-0.5314476
130	0x3e77bcff	0.2419319
131	0xc0047ce3	-2.0701225
132	0x3e5ff889	0.21872152
133	0x3f289603	0.658539
134	0xbfa301ba	-1.2734902
135	0x3f320724	0.69542146
136	0x3c569bde	0.013098685
137	0x3ea36aaf	0.3191733
138	0x3ffceb51	1.9759313
139	0xbf5bfd88	-0.85933733
140	0xbed6006d	-0.417972
141	0xbf6b448f	-0.9190149
142	0x3fc08d19	1.504306
143	0x3eca71ba	0.3953989
144	0xbf2e9846	-0.682011
145	0x3f2780ef	0.6543111
146	0xbfa2d2dd	-1.27206
147	0x3fc2f21b	1.5230135
148	0x3ef36215	0.47535768
149	0xbe9187fd	-0.28424063
150	0xbdaa634a	-0.08319719
151	0x3fa2d383	1.2720798
152	0xbf061e6d	-0.52390176
153	0x3f2bda5d	0.6713007
154	0xbeb1fe17	-0.34764168
155	0x3f156f6a	0.5837313
156	0x3fb07dc3	1.378838
157	0xbf6729c3	-0.902981
158	0xbe807ebb	-0.25096688
159	0xbf6a21c1	-0.91457754
160	0x3eefb21f	0.46815583
161	0xbc754542	-0.014970126
162	0x3f76530c	0.9622047
163	0xc000dadf	-2.0133588
164	0xbcd118a4	-0.025524445
165	0x3f8badda	1.091243
166	0x3d82b1fb	0.06381603
167	0x3f9348c3	1.150658
168	0x3e96dbcb	0.29464564
169	0xbf8801ec	-1.0625587
170	0x3f4c9503	0.79914874
171	0x3dcbf019	0.09957904
172	0xbfd620ba	-1.6728737
173	0x3ec2a142	0.38013655
174	0xbff19228	-1.8872728
175	0x3d3a0c73	0.04542203
176	0xbf071099	-0.527597
177	0x3f45fbe9	0.7733751
178	0x4017c912	2.3716474
179	0x3fbd1f46	1.4775169
180	0x3ea471e7	0.3211815
181	0xbfbaa77a	-1.458236
182	0xbf51630a	-0.81791747
183	0xbfa09869	-1.2546512
184	0x3f7067cb	0.93908376
185	0x3fbff90c	1.4997878
186	0xbf22081d	-0.6329363
187	0x3ec8f923	0.39252576
188	0x3faff089	1.374528
189	0xbf81b16b	-1.0132269
190	0x3f043aff	0.5165252
191	0xbee8e481	-0.45486835
192	0x3f0f8733	0.5606567
193	0x3f00e175	0.5034402
194	0x3e80fb1e	0.25191587
195	0x3de1182a	0.10990937
196	0x3fbfea80	1.4993439
197	0xbf4f7372	-0.8103553
198	0x3fbc413e	1.470741
199	0xbffb1c33	-1.9617981
200	0x3e2ff6d7	0.17184006
201	0x3e811a44	0.25215352
202	0x3ebd98a7	0.37030527
203	0x3d6eb432	0.058277316
204	0xbf53cb73	-0.82732314
205	0x3ebc94f0	0.3683238
206	0xbffa1359	-1.9537154
207	0xbdb49ff5	-0.08819572
208	0xbfac2ac0	-1.3450546
209	0xbec6b2a3	-0.38808164
210	0xbe68d4ad	-0.2273738
211	0x402160be	2.5215297
212	0xbeeb5afe	-0.4596786
213	0xbc5034e5	-0.012707924
214	0xbec66fef	-0.38757274
215	0x3fe0a114	1.7549157
216	0x3ee6b452	0.45059448
217	0xbe6af03e	-0.22943208
218	0x3e33ffb1	0.17578007
219	0xbf131c9e	-0.5746554
220	0x3d4f7418	0.050647825
221	0xc04b9bcb	-3.1813838
222	0x3e4da19f	0.20081185
223	0xbfaf3618	-1.3688383
224	0x3d8eb70e	0.06968509
225	0x3ff7d5d3	1.9362129
226	0x3f5bb04d	0.8581589
227	0xbf1ba9c6	-0.6080593
228	0x3d643fe9	0.055725012
229	0xbfa028a2	-1.25124
230	0x3e913f6d	0.28368703
231	0x3f38d9f8	0.72207594
232	0x3f909157	1.1294354
233	0xbdd7f3b0	-0.105445266
234	0x3f6a214c	0.91457057
235	0xbfa6e8df	-1.3039817
236	0x3dff5a81	0.12468434
237	0x3e826ca9	0.25473526
238	0xbe98e75a	-0.29864007
239	0x3eb8f244	0.36122334
240	0xbeb75a16	-0.35810918
241	0x3df09f4a	0.11749132
242	0x3fa0b0e3	1.2553982
243	0x3fa8f7f5	1.320067
244	0xbf30301e	-0.6882342
245	0xbf4bf840	-0.79675674
246	0x3f882b60	1.0638237
247	0x3f5227e8	0.8209214
248	0x3f6728f7	0.9029688
249	0x3fb199f0	1.3875103
250	0x3eb4954a	0.3527015
251	0x3f156876	0.5836252
252	0x3e084fed	0.1331174
253	0xbeff27f8	-0.4983518
254	0xc008b108	-2.1358051
255	0x3f442d38	0.766315

indicator_time_mixing.0.indicator_mixing.ln.weight f4 [16, 5]
0	0x3f7f74d3	0.99787635
1	0x3f6fa75b	0.9361474
2	0x3f8109b8	1.0081091
3	0x3f7a8016	0.97851694
4	0x3f7c9680	0.98667145
5	0x3f740b8a	0.9533011
6	0x3f7c2597	0.9849486
7	0x3f852190	1.0400867
8	0x3f811bef	1.008665
9	0x3f872d81	1.0560762
10	0x3f818cd4	1.0121102
11	0x3f76d272	0.96414864
12	0x3f70d56f	0.94075674
13	0x3f834fd8	1.0258741
14	0x3f7c6e08	0.98605394
15	0x3f7fb7d7	0.9988989
16	0x3f80bbc7	1.0057305
17	0x3f78c3b9	0.9717365
18	0x3f811c62	1.0086787
19	0x3f7b4667	0.981543
20	0x3f7086bc	0.9395559
21	0x3f8004bf	1.0001448
22	0x3f8e86f2	1.1134932
23	0x3f6f9239	0.93582493
24	0x3f800881	1.0002595
25	0x3f70c6e7	0.940535
26	0x3f782b35	0.9694093
27	0x3f8a342e	1.0797174
28	0x3f71fb01	0.94523627
29	0x3f854071	1.0410291
30	0x3f73f31a	0.9529282
31	0x3f8085d7	1.0040845
32	0x3f90a4c6	1.1300285
33	0x3f716cfa	0.9430691
34	0x3f7e8c57	0.9943289
35	0x3f7f6476	0.99762666
36	0x3f65dfc7	0.8979458
37	0x3f7fae47	0.998753
38	0x3f84fe0d	1.039003
39	0x3f91b958	1.1384687
40	0x3f6a0220	0.9140949
41	0x3f78fef3	0.9726402
42	0x3f80b3bf	1.0054854
43	0x3f7d7cdf	0.99018663
44	0x3f81e6d9	1.0148574
45	0x3f791b68	0.97307444
46	0x3f7c175f	0.9847316
47	0x3f81e60a	1.0148327
48	0x3f772f93	0.9655697
49	0x3f7d400e	0.98925865
50	0x3f771913	0.96522635
51	0x3f83fbc7	1.0311211
52	0x3f8b11ba	1.0864785
53	0x3f71e129	0.9448419
54	0x3f81a296	1.0127742
55	0x3f7e23d2	0.9927341
56	0x3f7a7aa8	0.9784341
57	0x3f806ce1	1.0033227
58	0x3f80c6f9	1.0060722
59	0x3f7c2e45	0.985081
60	0x3f76df85	0.96434814
61	0x3f6e2736	0.9302858
62	0x3f84a8c9	1.0364009
63	0x3f7be56f	0.9839696
64	0x3f7ed102	0.9953767
65	0x3f73c702	0.95225537
66	0x3f81603f	1.0107497
67	0x3f882ee5	1.0639311
68	0x3f6c38d3	0.92274207
69	0x3f7dc8f9	0.99134785
70	0x3f7902e6	0.9727005
71	0x3f857ec0	1.0429306
72	0x3f83d045	1.0297934
73	0x3f67792d	0.90419275
74	0x3f80519f	1.0024909
75	0x3f9535b6	1.1657016
76	0x3f85cde1	1.0453454
77	0x3f472a65	0.77799064
78	0x3f80db71	1.0066968
79	0x3f577c50	0.8417406

indicator_time_mixing.0.indicator_mixing.ln.bias f4 [16, 5]
0	0x3cdbbe77	0.02682422
1	0x3d95c56b	0.07313045
2	0x3c66d8b6	0.014089754
3	0xbd467146	-0.04844787
4	0x3c5d796f	0.013517722
5	0xbd72bce5	-0.059262175
6	0x3c8a6ffe	0.016899105
7	0x3c714a78	0.014727227
8	0x3e568eef	0.20952962
9	0xbd67b2cd	-0.056567002
10	0x3d67b7d1	0.056571785
11	0x3d04af1c	0.03239356
12	0xbd1f4c4d	-0.038891125
13	0xbda30841	-0.07960559
14	0x3c7d9e24	0.015479598
15	0x3d65e942	0.056130655
16	0xbc721da5	-0.014777576
17	0xbd1a9fa3	-0.037749898
18	0xbd861e36	-0.06548731
19	0x3c87b031	0.016563507
20	0x3bddef13	0.0067728846
21	0xbccd3d1f	-0.025053559
22	0x3da09d63	0.07842519
23	0x3d0ad48b	0.033894103
24	0xbbd04ae0	-0.006356582
25	0xbcca8d75	-0.024725655
26	0x3c9fa1c4	0.019486316
27	0x3d80d23e	0.062901005
28	0x3da29928	0.079393685
29	0xbd3bf062	-0.045883544
30	0x3b7a1aab	0.0038162868
31	0xbce6114c	-0.02808442
32	0x3d8383e1	0.06421638
33	0x3d3c2380	0.045932293
34	0x386f98f8	5.7124504e-05
35	0xbd7fa610	-0.06241423
36	0x3e045e90	0.12926698
37	0xbbefbdba	-0.0073163183
38	0x3eb9d72f	0.36296985
39	0xbdfee57d	-0.12446115
40	0x3ca725ea	0.020403821
41	0x3cc4250f	0.023943452
42	0x3c539652	0.012914257
43	0x3cbee361	0.023301782
44	0xbc920fb5	-0.017829755
45	0x3cd3eead	0.025870645
46	0x3cc7aa5b	0.024373224
47	0x3c94dcaf	0.018171636
48	0xbd05ac24	-0.03263487
49	0x3c28b7b7	0.010297707
50	0xbc6f25ef	-0.014596446
51	0xbd3d94c8	-0.046284467
52	0x3d5ed5e4	0.0544032
53	0x3dec7cf2	0.11547269
54	0xbbdd1d01	-0.0067478423
55	0x3d02a4d2	0.031895466
56	0x3d21ce4e	0.039503388
57	0x3c1752fb	0.009236093
58	0xbd5c5bc0	-0.053798437
59	0x3c07b4e6	0.008282876
60	0x3d15e19c	0.03659211
61	0x3d918efa	0.07107349
62	0x3d17fdda	0.037107326
63	0xbd7ec0da	-0.062195636
64	0x3c0e8564	0.008698795
65	0xbc058694	-0.008149762
66	0xbd039b55	-0.032130558
67	0x3d6e7c62	0.05822409
68	0x3b891964	0.004183935
69	0x3c1a40eb	0.009414892
70	0xbd0907cf	-0.033454712
71	0xbd8baf3f	-0.06820535
72	0x3cdb487a	0.026767958
73	0x3da17c82	0.07885076
74	0x3bd068e9	0.0063601625
75	0xbc2e281f	-0.010629683
76	0xbd43610c	-0.047699973
77	0xbe0350be	-0.1282377
78	0xbe29d6e0	-0.16585875
79	0x3da6ef64	0.08151129

indicator_time_mixing.0.time_mixing.ln.weight f4 [16, 5]
0	0x3f68588f	0.9076013
1	0x3f867459	1.0504256
2	0x3f82567f	1.0182647
3	0x3f73fdfa	0.9530941
4	0x3f8b1f73	1.0868973
5	0x3f5ed988	0.87050676
6	0x3f871540	1.055336
7	0x3f8161a3	1.0107921
8	0x3f7e875d	0.994253
9	0x3f836e6c	1.0268073
10	0x3f763e6f	0.96189016
11	0x3f83531a	1.0259736
12	0x3f8dbc09	1.1073009
13	0x3f807a80	1.0037384
14	0x3f826bf0	1.018919
15	0x3f7998f8	0.97499037
16	0x3f807950	1.0037022
17	0x3f8c58bf	1.0964583
18	0x3f80caf5	1.0061938
19	0x3f81685a	1.010997
20	0x3f65f17f	0.8982162
21	0x3f828da8	1.019948
22	0x3f85ba9e	1.0447576
23	0x3f810543	1.0079731
24	0x3f82b384	1.0211034
25	0x3f58ccbb	0.84687394
26	0x3f830c31	1.0238096
27	0x3f799d5c	0.97505736
28	0x3f7f1902	0.99647534
29	0x3f826e98	1.019
30	0x3f5d181a	0.863649
31	0x3f85c199	1.0449706
32	0x3f7df776	0.9920572
33	0x3f7b1a0c	0.9808662
34	0x3f853bde	1.0408895
35	0x3f60811c	0.87697005
36	0x3f8c7f9f	1.0976447
37	0x3f865d62	1.0497248
38	0x3f6b3905	0.9188388
39	0x3f8ac4c7	1.0841302
40	0x3f65cf9b	0.89769906
41	0x3f8634f8	1.0484915
42	0x3f77c755	0.9678853
43	0x3f78b697	0.9715361
44	0x3f859f39	1.0439216
45	0x3f58977c	0.84606147
46	0x3f886da0	1.0658455
47	0x3f762582	0.9615098
48	0x3f7b621d	0.98196584
49	0x3f8503b3	1.0391754
50	0x3f62755b	0.8846032
51	0x3f881341	1.0630876
52	0x3f82bf17	1.0214566
53	0x3f722479	0.945869
54	0x3f86f1bc	1.0542521
55	0x3f94498d	1.1584946
56	0x3f7b2ab0	0.9811201
57	0x3f8c9d80	1.0985565
58	0x3f73b600	0.95199585
59	0x3f841780	1.0319672
60	0x3fa37b0a	1.2771924
61	0x3f608cac	0.8771465
62	0x3f92bfe7	1.1464814
63	0x3f72d1bc	0.9485128
64	0x3f7c77d5	0.9862035
65	0x3fa7072e	1.3049066
66	0x3f56110b	0.83619756
67	0x3fadc890	1.3576832
68	0x3f762f46	0.96165884
69	0x3f825b5d	1.0184132
70	0x3fd61c04	1.67273
71	0x3f400d8d	0.75020677
72	0x3fc614c9	1.5475093
73	0x3f7570d6	0.958753
74	0x3f81e7cd	1.0148865
75	0x401af26d	2.4210465
76	0x3ebd95d6	0.37028378
77	0x400b6974	2.1783113
78	0x3f883762	1.0641901
79	0x3f71fa6b	0.9452273

indicator_time_mixing.0.time_mixing.ln.bias f4 [16, 5]
0	0x3d66c0e5	0.056336302
1	0xbd8872ae	-0.066624984
2	0xbdc8f061	-0.09811474
3	0x3d9d27aa	0.07673581
4	0x3d673487	0.05644658
5	0x3cb5e886	0.022205602
6	0xbca8ee3e	-0.020621415
7	0xbd7d7052	-0.061874695
8	0x3d13800d	0.03601079
9	0x3c7eb880	0.015546918
10	0x3c418fd3	0.0118140755
11	0xbc34a5cd	-0.011025858
12	0xbd1561cd	-0.036470223
13	0x3ca0270d	0.01954987
14	0x3bf0e829	0.0073518944
15	0x3c307e57	0.010772309
16	0xbbe22fe0	-0.00690268
17	0xbd0c15f1	-0.034200612
18	0x3c9063d5	0.017625729
19	0x3ba2d3ae	0.004969082
20	0x3cc20a00	0.023686409
21	0xbc934c4e	-0.01798072
22	0xbd4a6549	-0.049413
23	0x3d004710	0.03131777
24	0x3c681f46	0.014167612
25	0x3cf972f2	0.030450318
26	0xbccae24e	-0.024766114
27	0xbd6ae457	-0.057346668
28	0x3d1e4fee	0.038650446
29	0x3c8fdc7b	0.017561188
30	0x3d513ba0	0.051082253
31	0xbd2963b8	-0.041354865
32	0xbdb0446a	-0.08606799
33	0x3d799df6	0.06094166
34	0x3cd9558d	0.026530052
35	0x3d97f3bf	0.07419538
36	0xbd847d8f	-0.06469261
37	0xbddfe781	-0.10932828
38	0x3dae10fd	0.08499334
39	0x3d662052	0.056183167
40	0x3ce2e776	0.02769826
41	0xbca2f4da	-0.019892145
42	0xbd53009d	-0.051514257
43	0x3d279683	0.040915024
44	0x3cabae5e	0.020957168
45	0x3cd6948e	0.026193883
46	0xbc65f5e8	-0.014035679
47	0xbd6d03fe	-0.057865135
48	0x3d210fb5	0.03932162
49	0x3c884626	0.016635012
50	0x3d640c99	0.055676077
51	0xbd53eaef	-0.051737722
52	0xbdbc7624	-0.09202221
53	0x3d8e60dc	0.06952068
54	0x3cf55667	0.029948426
55	0x3cbbb0d8	0.022911474
56	0xbd224507	-0.03961661
57	0xbc83802f	-0.016052334
58	0x3d1194b0	0.03554219
59	0x3ca8a2d0	0.020585448
60	0x3d2a7612	0.041616507
61	0xbcc0e994	-0.023548879
62	0xbc0169e2	-0.00789878
63	0x3d30675f	0.043067332
64	0xbadf678f	-0.0017044413
65	0x3cdb8196	0.02679519
66	0xbd1e4f7e	-0.03865003
67	0x3c869919	0.016430425
68	0x3c42defe	0.011893986
69	0x3a26f89a	0.0006369442
70	0x3c89e68f	0.016833572
71	0xbd1e4057	-0.038635578
72	0x3d3704eb	0.044682425
73	0xbb44b026	-0.003001222
74	0xbb834761	-0.0040063118
75	0xbd994980	-0.07484722
76	0x3d0bcdf6	0.034131967
77	0x3e3d0c1e	0.18461654
78	0xbdce35d9	-0.100688644
79	0xbdc3a92a	-0.0955375

indicator_time_mixing.0.time_mixing.U1.1 f4 [1, 2]
0	0xbf057192	-0.5212642
1	0xbe575855	-0.2102979

indicator_time_mixing.0.time_mixing.U1.2 f4 [1, 3]
0	0x3d03db49	0.03219155
1	0x3d901f36	0.07037203
2	0x3df325f3	0.118724726

indicator_time_mixing.0.time_mixing.U1.3 f4 [1, 4]
0	0xbabb6fce	-0.0014300288
1	0x3d1392f2	0.03602881
2	0x3db7af2a	0.08968957
3	0x3de8760c	0.11350641

indicator_time_mixing.0.time_mixing.U1.4 f4 [1, 5]
0	0x3d0b4e0a	0.03400997
1	0x3c49481f	0.012285261
2	0xbd51f6c0	-0.05126071
3	0xbd636a49	-0.055521283
4	0xbd659cfd	-0.05605792

indicator_time_mixing.0.time_mixing.U1.5 f4 [1, 6]
0	0xbc494ad9	-0.0122859115
1	0x3bf64cac	0.007516464
2	0x3d64fc2d	0.055904556
3	0x3d91a63d	0.071117856
4	0x3da284a4	0.079354554
5	0x3d129f3a	0.03579638

indicator_time_mixing.0.time_mixing.U1.6 f4 [1, 7]
0	0x3ab1cc13	0.0013564847
1	0x3c341901	0.0109922895
2	0x3d910a22	0.07082011
3	0x3dc60574	0.09669009
4	0x3d97c9bf	0.07411527
5	0x3d02429d	0.03180181
6	0x3c94112b	0.018074593

indicator_time_mixing.0.time_mixing.U1.7 f4 [1, 8]
0	0xbc597645	-0.013272827
1	0xbdab4492	-0.08362688
2	0xbdf11847	-0.11772209
3	0xbe0f898f	-0.14017318
4	0xbdfadf1b	-0.12249585
5	0xbdc979ef	-0.0983771
6	0xbd29c6ee	-0.04144948
7	0xbd945598	-0.07242888

indicator_time_mixing.0.time_mixing.U1.8 f4 [1, 9]
0	0x39914dae	0.0002771443
1	0x3da55aa5	0.0807393
2	0x3def7866	0.11692886
3	0x3df46e97	0.11935156
4	0x3df9756b	0.12180599
5	0x3daa5f57	0.08318966
6	0x3d41d7d2	0.047324963
7	0x3dc6c30f	0.09705173
8	0x3d03e193	0.032197546

indicator_time_mixing.0.time_mixing.U1.9 f4 [1, 10]
0	0xbc0111b3	-0.007877755
1	0x3d838809	0.06422431
2	0x3dabeece	0.08395158
3	0x3dcd1100	0.10013008
4	0x3dce8efa	0.10085864
5	0x3d254ec1	0.04035831
6	0x3d2c8e09	0.042127643
7	0x3d14fe46	0.036375307
8	0x3c31e268	0.010857202
9	0x3bae1120	0.0053121

indicator_time_mixing.0.time_mixing.U1.10 f4 [1, 11]
0	0x3be2945d	0.006914659
1	0xbd83edb6	-0.06441824
2	0xbdee7320	-0.11643052
3	0xbe0a24fa	-0.13490668
4	0xbdfeb423	-0.12436702
5	0xbd8c262f	-0.068432204
6	0xbd3086ec	-0.04309742
7	0xbda6dc8f	-0.08147537
8	0xbcd1332a	-0.025537092
9	0xbd527b78	-0.05138728
10	0xbd0acd51	-0.03388721

indicator_time_mixing.0.time_mixing.U1.11 f4 [1, 12]
0	0xbd01ed6e	-0.03172057
1	0xbd838dbf	-0.0642352
2	0xbdaa7a48	-0.083241045
3	0xbdd15ee4	-0.10223177
4	0xbdd3c2ab	-0.10339864
5	0xbd80d7e8	-0.06291181
6	0xbdb0aabe	-0.086263165
7	0xbd9ebf78	-0.077513635
8	0xbc885002	-0.016639713
9	0xbd265bc2	-0.04061485
10	0xbcfd82cc	-0.030946158
11	0xbd1f29af	-0.038858112

indicator_time_mixing.0.time_mixing.U1.12 f4 [1, 13]
0	0xbe16c751	-0.1472447
1	0xbcdff230	-0.027337164
2	0xbd522901	-0.051308636
3	0xbd83d0d2	-0.06436314
4	0xbdce3625	-0.10068921
5	0xbd32108b	-0.043472808
6	0xbdb0cad7	-0.08632439
7	0xbdb3068f	-0.08741485
8	0x3c9df0c7	0.01927985
9	0xbd12be4c	-0.035826012
10	0xbd63c346	-0.05560615
11	0xbcba176d	-0.022716248
12	0xbc3730d4	-0.011181075

indicator_time_mixing.0.time_mixing.U1.13 f4 [1, 14]
0	0x3db46861	0.08808971
1	0x3daa5c40	0.083183765
2	0xbb90dd4f	-0.0044209133
3	0xbcb2438b	-0.021760723
4	0x3b23797c	0.0024944237
5	0x3d2b0843	0.041755926
6	0x3d82097e	0.06349467
7	0x3e02eafb	0.1278495
8	0x3dbfaa52	0.09358658
9	0x3de9de11	0.11419309
10	0x3d49f85e	0.049309127
11	0x3d6951d4	0.056962803
12	0x3b21825e	0.0024644355
13	0x3b4f71ea	0.0031653591

indicator_time_mixing.0.time_mixing.U1.14 f4 [1, 15]
0	0xbe156224	-0.14588219
1	0xbda8affb	-0.082366906
2	0xbc01353e	-0.007886229
3	0x3bca39e3	0.0061714514
4	0xbc5ae24f	-0.01335962
5	0xbd26dcbb	-0.04073785
6	0xbd8523bb	-0.06500956
7	0xbe033ae3	-0.12815432
8	0xbda1e3b0	-0.07904756
9	0xbdd06400	-0.101753235
10	0xbda0a236	-0.07843439
11	0xbd32f9ea	-0.043695368
12	0x3a85c307	0.0010205217
13	0x3cdcce07	0.02695371
14	0x3d8dc01c	0.069214076

indicator_time_mixing.0.time_mixing.U1.15 f4 [1, 16]
0	0x3dd9326c	0.1060532
1	0x3d93126a	0.071812466
2	0x3cd99406	0.02655984
3	0x3ccce731	0.025012584
4	0x3d285854	0.04109986
5	0x3d46a49a	0.04849682
6	0x3da7fde3	0.08202722
7	0x3dca8a1f	0.09889626
8	0x3dc1d078	0.094635904
9	0x3e00d6f2	0.12581995
10	0x3da840d8	0.08215493
11	0x3d9cacae	0.076501235
12	0xbc6326ae	-0.013864202
13	0xbd277f35	-0.0408928
14	0xbe0cf215	-0.13764222
15	0xbe9f394c	-0.31098402

indicator_time_mixing.0.time_mixing.U2.1 f4 [1, 2]
0	0xbede0713	-0.43364772
1	0xbef3a8d4	-0.47589743

indicator_time_mixing.0.time_mixing.U2.2 f4 [1, 3]
0	0x3e7520c2	0.23938277
1	0x3e831719	0.2560356
2	0xbe3f3399	-0.18672027

indicator_time_mixing.0.time_mixing.U2.3 f4 [1, 4]
0	0x3dd906b8	0.105969846
1	0x3e0257cc	0.12728804
2	0xbe1596b9	-0.14608277
3	0xbe159e53	-0.14611177

indicator_time_mixing.0.time_mixing.U2.4 f4 [1, 5]
0	0xbdbdfaf5	-0.09276382
1	0xbd64dacc	-0.055872723
2	0xbcfc3a16	-0.030789416
3	0xbd6eb31c	-0.05827628
4	0x3d057c20	0.032589078

indicator_time_mixing.0.time_mixing.U2.5 f4 [1, 6]
0	0xbe1a3f6f	-0.1506326
1	0xbe30b68f	-0.1725714
2	0x3decf10a	0.11569412
3	0x3df2bc6c	0.11852345
4	0xbd97db83	-0.074149154
5	0x3dc5fbcb	0.09667166

indicator_time_mixing.0.time_mixing.U2.6 f4 [1, 7]
0	0xbddcc3ef	-0.10779559
1	0xbdd2c9da	-0.102924064
2	0xbd3520e1	-0.04422081
3	0xbd6c6990	-0.05771786
4	0x3d5bf69b	0.05370198
5	0xbd2524f0	-0.04031843
6	0xbd2e0675	-0.042486627

indicator_time_mixing.0.time_mixing.U2.7 f4 [1, 8]
0	0x3e4c761c	0.1996693
1	0xbebaafb5	-0.3646218
2	0x3ec58943	0.38581285
3	0x3eb6bed7	0.35692474
4	0xbe9d8990	-0.30769014
5	0x3eb0cb12	0.3452993
6	0x3ea6f908	0.3261187
7	0xbeb63962	-0.35590655

indicator_time_mixing.0.time_mixing.U2.8 f4 [1, 9]
0	0x3e1962d8	0.14979112
1	0x3dba0c40	0.09084368
2	0x3d2f4100	0.0427866
3	0x3d8e0084	0.06933692
4	0xbc2372c5	-0.009976094
5	0x3d08fffb	0.033447247
6	0x3ce13d74	0.027495123
7	0xbc031226	-0.007999932
8	0x3ce7cc3a	0.028295625

indicator_time_mixing.0.time_mixing.U2.9 f4 [1, 10]
0	0x3df7e7e1	0.12104774
1	0x3dce969e	0.10087322
2	0x3cb927aa	0.022601921
3	0x3d0b0999	0.0339447
4	0xbd1aa7d2	-0.037757702
5	0x3d358c06	0.04432299
6	0x3d17e68c	0.0370851
7	0x3a880fc6	0.0010380677
8	0xbc902d6e	-0.017599788
9	0xbc55e7dd	-0.013055769

indicator_time_mixing.0.time_mixing.U2.10 f4 [1, 11]
0	0xbe9442bd	-0.28957167
1	0xbe9d93a4	-0.30776703
2	0x3d880a86	0.06642632
3	0x3d2c3663	0.042044055
4	0xbd31507b	-0.043289643
5	0x3c60b6dd	0.013715473
6	0x3d4d8cf2	0.050183244
7	0xbdc0734f	-0.09396993
8	0x3de34417	0.110969715
9	0x3d44a9ee	0.04801362
10	0xbe185da8	-0.14879477

indicator_time_mixing.0.time_mixing.U2.11 f4 [1, 12]
0	0x3e050192	0.1298888
1	0x3dd7da99	0.10539741
2	0xbb474092	-0.0030403477
3	0x3cde20be	0.027115222
4	0xbc822372	-0.015886042
5	0x3d087af7	0.033320393
6	0x3cd3bb84	0.02584625
7	0x3ce52e83	0.02797628
8	0xbd097492	-0.033558436
9	0xba90c904	-0.0011046235
10	0x3d9f3670	0.07774055
11	0x3d82f04f	0.063934915

indicator_time_mixing.0.time_mixing.U2.12 f4 [1, 13]
0	0xbc17a31f	-0.0092552
1	0x3cb7fe44	0.02246011
2	0xbd8b4481	-0.068001755
3	0xbd6a7ef6	-0.057249986
4	0x3d2644e8	0.040593058
5	0xbda359a3	-0.07976081
6	0xbd83185f	-0.06401133
7	0x3d8b4a46	0.06801276
8	0xbd9dc7d5	-0.077041306
9	0xbd085edc	-0.03329359
10	0x3d111211	0.03541762
11	0x3d315886	0.043297313
12	0x3cec3c7b	0.028837433

indicator_time_mixing.0.time_mixing.U2.13 f4 [1, 14]
0	0xbd8eb46f	-0.06968009
1	0xbd463971	-0.048394624
2	0xbd446487	-0.047947433
3	0xbd963837	-0.07334941
4	0x3d41ed8d	0.047345687
5	0xbda8b358	-0.08237332
6	0xbda7482d	-0.08168063
7	0x3ce1b779	0.027553307
8	0xb8f15ba8	-0.00011508848
9	0xbcfea337	-0.031083686
10	0x3c5fcccc	0.013659667
11	0xbbc2c26f	-0.0059435884
12	0xbd439942	-0.04775358
13	0x3d23013b	0.039796095

indicator_time_mixing.0.time_mixing.U2.14 f4 [1, 15]
0	0xbe332343	-0.1749392
1	0xbe11b32a	-0.14228502
2	0xbc9238eb	-0.017849406
3	0xbd06cd99	-0.032910917
4	0x3cb25f2c	0.021773897
5	0xbd32e650	-0.043676674
6	0xb95b6145	-0.00020921703
7	0xbcc13c2e	-0.023588266
8	0x3d4f79e2	0.050653346
9	0xbc89e45f	-0.016832529
10	0xbd9f3e79	-0.077755876
11	0xbe0007d3	-0.12502985
12	0xbe0c224c	-0.13684958
13	0x3db7207a	0.08941741
14	0xbda4f073	-0.080536745

indicator_time_mixing.0.time_mixing.U2.15 f4 [1, 16]
0	0x3f008c66	0.5021423
1	0x3ed7a295	0.42116228
2	0xbe223f75	-0.1584452
3	0xbde401bd	-0.11133144
4	0x3dbdbe75	0.092648424
5	0xbe027de0	-0.1274333
6	0xbe09e001	-0.13464357
7	0x3e3ad447	0.1824504
8	0xbe5aa0aa	-0.21350351
9	0xbde48ec2	-0.111600414
10	0x3e64a541	0.22328664
11	0x3ed6402c	0.41845834
12	0x3f04f11e	0.51930416
13	0xbe306d6a	-0.17229238
14	0x3e3ea896	0.18618998
15	0xbe4f238f	-0.20228408

indicator_time_mixing.0.fc.weight f4 [1, 5]
0	0x3d124eb5	0.035719592
1	0xbe2e886c	-0.17044228
2	0xbd8b19c9	-0.067920275
3	0x3e96a19f	0.29420182
4	0x3dbee603	0.09321215

indicator_time_mixing.1.indicator_mixing.W1 f4 [5, 64]
0	0xbe98d191	-0.29847386
1	0xbfeb17b6	-1.8366611
2	0x3f51aa39	0.81900364
3	0x3ea24bad	0.3169836
4	0x3eee5205	0.4654695
5	0x3f31fc76	0.6952585
6	0xbe4a584d	-0.19760247
7	0x3e205f85	0.15661438
8	0x400ade54	2.1698198
9	0xbff590e8	-1.9184847
10	0xbf6571cb	-0.8962676
11	0x3f9b0fbb	1.2114176
12	0xbebc056f	-0.36722896
13	0x3fe645fc	1.7990108
14	0xbf65d536	-0.8977846
15	0x3cf5c072	0.029998992
16	0x3fd6000f	1.6718768
17	0xbeafdacf	-0.34346625
18	0xbfd7b68f	-1.6852587
19	0x3e24c5da	0.160911
20	0x3f962dfb	1.1732782
21	0x3e464f16	0.19366106
22	0x3f0018d6	0.50037897
23	0xbe9166cc	-0.2839874
24	0xbffc69d5	-1.9719797
25	0x3fd834b5	1.6891085
26	0xbf578c85	-0.8419879
27	0xbdeb5974	-0.11491671
28	0xbf8ac237	-1.084052
29	0xbeedb75f	-0.46428964
30	0x40225516	2.5364432
31	0x3f8bfa67	1.0935792
32	0xbf694d11	-0.9113322
33	0x3df19cc4	0.11797479
34	0xbebd4dc3	-0.3697339
35	0x3f66f650	0.90219593
36	0x3f8696d1	1.0514776
37	0xbf413cb0	-0.75483227
38	0xbf22a5b2	-0.6353408
39	0xbf88f14e	-1.069864
40	0x3f45dfff	0.77294916
41	0xbfda85fa	-1.7072136
42	0x3fe57e51	1.7929174
43	0x3fcf538d	1.6197373
44	0xbf7962d1	-0.97416407
45	0x3f41c219	0.75686795
46	0xbe468b27	-0.1938902
47	0xbf213b65	-0.62981254
48	0xbf0bd510	-0.5462198
49	0xc003948c	-2.0559416
50	0xbd4e0d33	-0.050305557
51	0xbeb0217b	-0.34400544
52	0x3f71b245	0.9441264
53	0xbf7aa8db	-0.97913903
54	0x3eba1f06	0.36351794
55	0xbfb2941c	-1.3951449
56	0xbf3f9ef3	-0.7485191
57	0x3f439070	0.7639227
58	0xbdf5807a	-0.119873956
59	0x400bc55a	2.1839204
60	0x3f63bbfa	0.88958704
61	0x3fba7852	1.4567969
62	0x3df29157	0.118441276
63	0x3ec34794	0.38140547
64	0xbf88223f	-1.0635451
65	0xbe96f339	-0.2948244
66	0xbf18eb9e	-0.59734523
67	0xbfebe464	-1.8429074
68	0xbf1758c6	-0.5911983
69	0x3e376d5e	0.17912814
70	0x3faf8b67	1.3714417
71	0xbee206d7	-0.44145843
72	0xbedc4f2e	-0.4302916
73	0xbf72da85	-0.94864684
74	0x3fc558d4	1.5417733
75	0x3e633cf9	0.22191228
76	0xbf580042	-0.84375393
77	0xbf54449c	-0.8291719
78	0x3ef49994	0.4777342
79	0x3d27d2b6	0.040972434
80	0x3e59529f	0.21222924
81	0x3f125b9c	0.57171035
82	0x3fdad87b	1.7097315
83	0xbf27ae2a	-0.6550013
84	0xbd00b7c6	-0.03142526
85	0xbf5870f4	-0.8454735
86	0x3e71756f	0.23579954
87	0xbebeaf54	-0.3724314
88	0xbd900817	-0.07032793
89	0xbf49eb3b	-0.7887456
90	0xbd6f5035	-0.0584261
91	0xbfe35ef0	-1.7763348
92	0xbffe79c8	-1.9880915
93	0xbe4e0349	-0.2011844
94	0x3e3c408d	0.18383999
95	0xbeb442b1	-0.35207132
96	0xbe4dd87c	-0.20102113
97	0x3e8c8716	0.27446812
98	0x3f8d47f1	1.103758
99	0x3f4204fb	0.7578885
100	0xbf1850e4	-0.5949843
101	0x3e7df4bf	0.24800394
102	0xbe18197e	-0.14853474
103	0x3dedf852	0.11619629
104	0xbe329aa0	-0.17441797
105	0x3e07081a	0.13186684
106	0xbebd848d	-0.3701519
107	0x3f8907f9	1.0705558
108	0x3f2893a2	0.6585027
109	0x3f595d30	0.8490782
110	0x3c93ffd1	0.018066319
111	0xbeb246fb	-0.3481978
112	0x3ea2cbfc	0.31796253
113	0xbfa7f5ed	-1.3121926
114	0x3ef3ff20	0.47655582
115	0xbf173964	-0.59071946
116	0x3f354ad4	0.70817304
117	0xbf495cc3	-0.7865717
118	0xbf944a4f	-1.1585177
119	0xbf88c0f2	-1.0683882
120	0x3f59332a	0.84843695
121	0x3debf6f5	0.11521713
122	0xbead4feb	-0.33850035
123	0xbf8ee751	-1.1164342
124	0x3e2cec73	0.16887073
125	0xbfc213ab	-1.5162252
126	0xc00b131b	-2.173041
127	0x3f8efbea	1.1170628
128	0x3f320aef	0.69547933
129	0xbf813915	-1.0095545
130	0x3e60e2cb	0.21961515
131	0xc01218fa	-2.2827744
132	0x3f9a11da	1.2036698
133	0x3e6da767	0.2320839
134	0xbfe347eb	-1.7756323
135	0xbec8c1ec	-0.3921045
136	0xbe54ff1d	-0.20800443
137	0x3f1c1aac	0.609782
138	0x3e815241	0.25258067
139	0x3f9a5264	1.2056394
140	0xbea1a5a5	-0.3157169
141	0x3f7112f9	0.94169575
142	0x3f10cd00	0.56562805
143	0xbf5f7fdc	-0.8730447
144	0xbe1ab6d9	-0.15108813
145	0x3e6865ee	0.22695133
146	0xbf55e999	-0.83559567
147	0x3e4cb48b	0.19990747
148	0x3eb961fb	0.36207566
149	0xbde9879e	-0.1140282
150	0xbf11fc95	-0.57026035
151	0x3f57c8b4	0.84290624
152	0xbf813374	-1.0093827
153	0xbf712514	-0.941972
154	0x3e1dec66	0.1542221
155	0xbfe08100	-1.7539368
156	0x3f3ed480	0.74543
157	0x3fb7f050	1.4370213
158	0x3e8cf913	0.2753378
159	0x3ef3f74c	0.4764961
160	0x3eb29abb	0.34883675
161	0xbfa8fe4d	-1.3202606
162	0x3ecae625	0.3962871
163	0x3edb5af2	0.42842823
164	0x3e37bb6e	0.17942593
165	0xbe5d8b32	-0.2163513
166	0x3f6495d0	0.89291096
167	0xbfbc2f63	-1.4701961
168	0x3f007cef	0.50190634
169	0xbfc7b7c9	-1.5602962
170	0x3f3b361e	0.7312945
171	0x3f9ff0d4	1.249537
172	0x3f87c0dd	1.0605732
173	0x3f2b5a61	0.6693478
174	0xbee03e6f	-0.43797633
175	0x3f93df8f	1.15526
176	0xbf4e1143	-0.8049509
177	0x401f7aef	2.4918783
178	0xbfc92eb3	-1.5717376
179	0xbe3704b3	-0.17872886
180	0xbe078292	-0.13233402
181	0x3d843641	0.064556606
182	0x3fd0fdbe	1.6327436
183	0x3fb73de4	1.4315763
184	0xbe6fa287	-0.23401843
185	0xbe914f14	-0.28380644
186	0xbf30f67f	-0.69126123
187	0x3fa8953f	1.3170546
188	0x3f569dff	0.8383483
189	0x3da94726	0.082655236
190	0xbfa57152	-1.2925208
191	0xbda87517	-0.08225458
192	0xbf8846a8	-1.0646563
193	0x3f738bfc	0.95135474
194	0xbf9404e7	-1.1563996
195	0x3f9a323f	1.2046584
196	0xbf5011c0	-0.81277084
197	0x3eeccf25	0.4625179
198	0xbf426bfc	-0.7594602
199	0x4036be73	2.855374
200	0x3ed57b9c	0.4169587
201	0xbefceac5	-0.49397865
202	0xbf3ee069	-0.7456117
203	0xbf27d6ce	-0.6556214
204	0x3e85be42	0.26121718
205	0xbfcf4f40	-1.619606
206	0xbf84a2db	-1.03622
207	0xbfbd210f	-1.4775714
208	0x3f1b1881	0.60584265
209	0x3f670d57	0.9025473
210	0xbf9502c1	-1.1641465
211	0xbd49f699	-0.04930744
212	0xbfa6b0af	-1.302267
213	0x3fec31b8	1.8452673
214	0x3f20621f	0.6264972
215	0x3d34c166	0.04412975
216	0xbfacda2c	-1.3504081
217	0x3ee7c3ed	0.45266667
218	0xbdf29be9	-0.11846144
219	0x3f6c3e37	0.9228243
220	0x3f617bbb	0.8807942
221	0x3ff19e6e	1.8876474
222	0x3faa0c83	1.3285068
223	0xbe64cfdb	-0.22344916
224	0xbf87e646	-1.0617149
225	0xbf82a0a1	-1.020527
226	0x3f4da9e5	0.80337363
227	0x402b2028	2.6738377
228	0xbea26415	-0.31716982
229	0x3f86e340	1.0538101
230	0x3fc26656	1.518748
231	0xbe38bdc1	-0.18041135
232	0x3edd2a79	0.43196467
233	0x3fcd3ef6	1.6034839
234	0xbf9b2b81	-1.2122651
235	0x3f5fa99e	0.8736819
236	0xbf94225f	-1.1572989
237	0x3fdbe018	1.7177763
238	0x3dc0ef91	0.09420694
239	0x3fabc3f3	1.3419174
240	0xbf1651f5	-0.58718807
241	0xbf97be85	-1.1855017
242	0xbf083fb0	-0.5322218
243	0xbe81fd92	-0.2538877
244	0x3f4710e6	0.7776016
245	0xbfcd5de0	-1.6044273
246	0x3f0c0343	0.54692477
247	0xbee26cbd	-0.44223586
248	0x3f603e7c	0.87595344
249	0x3fa4ae77	1.2865742
250	0xbfbb9c91	-1.4657155
251	0x3f7e5d34	0.99360967
252	0xbf9fb591	-1.2477285
253	0x3f96c1e1	1.1777917
254	0x3f783b3b	0.9696538
255	0x3f908bf7	1.1292714

indicator_time_mixing.1.indicator_mixing.W2 f4 [64, 5]
0	0x3f12bc43	0.57318515
1	0xbfd9a22d	-1.7002617
2	0xc01a4e74	-2.4110384
3	0xbfc4a6ec	-1.536344
4	0x3fffceaf	1.998495
5	0xbf3e6ce5	-0.7438491
6	0x3e0abee4	0.13549381
7	0x3f9dfbf2	1.2342513
8	0xbea2bb2b	-0.31783423
9	0xbf567e22	-0.83786213
10	0x3f40957d	0.752281
11	0x3e4569de	0.19278666
12	0xbe5815a7	-0.2110201
13	0xbe6764c9	-0.2259704
14	0xbf38b964	-0.72157884
15	0x3e9b96a6	0.30388373
16	0xbe87d832	-0.2653213
17	0x3e31f9ef	0.17380498
18	0x3d64c6cc	0.05585365
19	0x3ec40ee2	0.38292605
20	0x3f848f88	1.0356302
21	0x3fe83b9a	1.8143189
22	0xbfb6fc4f	-1.4295748
23	0xbfde9b69	-1.7391177
24	0x3efe7df5	0.49705473
25	0x3fc6cf65	1.5532042
26	0x3cb4fccb	0.022093197
27	0x3f5e67da	0.86877215
28	0xbeda9aa8	-0.42696118
29	0xbf96c6c5	-1.177941
30	0xc00defb8	-2.2177563
31	0xbe7881ba	-0.24268237
32	0x3e58a628	0.21157134
33	0x3eb09e83	0.34495935
34	0x3f441be5	0.76605064
35	0x3f475573	0.7786476
36	0xbfb8897b	-1.4416956
37	0xbf922fbd	-1.1420819
38	0xbd68f30e	-0.05687242
39	0xbf95a913	-1.1692222
40	0xbdcff4ed	-0.10154138
41	0x3e9f67a3	0.31133756
42	0xbf38aa59	-0.7213493
43	0x3f11d7b2	0.5696975
44	0x3d734970	0.059396207
45	0x3f93b95d	1.1540943
46	0x3f4b9331	0.7952147
47	0xbe96fcae	-0.29489654
48	0xbd35862b	-0.044317406
49	0x3fa501fb	1.2891229
50	0x3f40f4b4	0.7537339
51	0xbc8ae305	-0.016953954
52	0x3fdb3d4c	1.7128081
53	0xbf069885	-0.52576476
54	0x3e9ee2b6	0.31032342
55	0x3d6fd4af	0.05855244
56	0x3e3af004	0.18255621
57	0x3ffbb946	1.9665916
58	0xbda44578	-0.080210626
59	0x3e002f25	0.12517984
60	0x3f86e1c6	1.053765
61	0x3fc41b1c	1.5320773
62	0xbfcb638a	-1.5889752
63	0xbf88e97d	-1.0696255
64	0x4006c380	2.1056824
65	0x3e97abbc	0.2962321
66	0xbed79186	-0.42103213
67	0xbfed0d70	-1.8519726
68	0x3fb07fe4	1.3789029
69	0x3c6169cd	0.013758135
70	0x3f1ce780	0.6129074
71	0x3f899cc4	1.0750966
72	0x3f16b8ef	0.58875936
73	0x3f31e6e4	0.69492936
74	0xbf94b3aa	-1.1617329
75	0xbffd96b3	-1.9811615
76	0x3fc58a61	1.5432855
77	0xbffcadda	-1.9740555
78	0x3f857552	1.0426428
79	0x40120250	2.2813911
80	0xbe34de4a	-0.17662922
81	0x3f15873b	0.5840947
82	0xbda0a62f	-0.07844197
83	0xbd0252d0	-0.031817257
84	0xbd9954db	-0.07486888
85	0x3d2ac266	0.0416893
86	0xbe5c873e	-0.21535966
87	0x3fed1c6a	1.8524296
88	0x3fe08bd5	1.7542673
89	0xc026c220	-2.6055984
90	0x3ea2ad8b	0.31773028
91	0xbfa86fde	-1.3159139
92	0x3f8bcc2f	1.0921687
93	0xbdd02fbe	-0.10165356
94	0xbdd43c41	-0.10363055
95	0xbece0a32	-0.40242153
96	0xbf823748	-1.017312
97	0x3e8ca642	0.27470595
98	0xbea7f916	-0.32807225
99	0xbeaa964f	-0.333178
100	0x3f9d265d	1.2277333
101	0x3ddb6253	0.10712113
102	0x3ffcf976	1.976363
103	0xbfc03fb2	-1.5019438
104	0x3f2f9678	0.6858897
105	0x3eeb98cb	0.4601501
106	0xbf91b56f	-1.1383494
107	0x3f08eba5	0.53484565
108	0xc0079c89	-2.1189291
109	0xbe9f8eab	-0.31163535
110	0x3f0899c6	0.5335964
111	0x3f5dcc3f	0.8663978
112	0xbd8fea8a	-0.07027157
113	0xbfcfb5d4	-1.6227365
114	0xbf4fbd73	-0.8114845
115	0xbf0c1f95	-0.5473569
116	0xbf3485a2	-0.7051641
117	0x3f492aee	0.7858113
118	0x3e467e14	0.19384032
119	0x3ec3cb84	0.38241208
120	0xbf8f1971	-1.1179639
121	0x3eef14a9	0.4669545
122	0xbe9122c6	-0.28346843
123	0xbf1ccdb9	-0.6125141
124	0xbfa1708e	-1.2612474
125	0xbe4c7b00	-0.19968796
126	0xbe207737	-0.15670477
127	0x3f9e1ddb	1.2352861
128	0x3f5b5d0a	0.8568884
129	0xbf0842ba	-0.53226817
130	0xbed32439	-0.41238573
131	0xbf6d98b5	-0.9281114
132	0xbf302f16	-0.6882185
133	0xbf18763b	-0.59555405
134	0x3f664451	0.8994799
135	0x3e5e2df6	0.2169722
136	0x3e8de8c2	0.27716643
137	0xbf14f090	-0.5817957
138	0x3e31b253	0.17353182
139	0x3f8fe6e8	1.1242342
140	0xbf7ba0ae	-0.9829205
141	0x3f806101	1.0029603
142	0x3fd404cd	1.6563965
143	0xbef32720	-0.47490788
144	0xc0052144	-2.0801554
145	0xbfa7c9f4	-1.3108506
146	0x3fa74a0c	1.3069472
147	0x3ff02cd5	1.8763682
148	0xbf4da9cf	-0.8033723
149	0xbebf15d6	-0.37321347
150	0x3f3741cd	0.7158478
151	0xbfbfc923	-1.4983257
152	0xc00d89af	-2.2115285
153	0x3fcc027d	1.5938259
154	0x3f77ba11	0.9676829
155	0xbf904467	-1.1270875
156	0xbfaa27c2	-1.3293383
157	0x3fa539de	1.2908285
158	0xbc86e3ff	-0.016466139
159	0x3e8b0cbc	0.27158153
160	0xbf85063f	-1.0392531
161	0x3f0d3e99	0.5517364
162	0x3d5b90c5	0.05360486
163	0x3f437784	0.7635424
164	0x3ee7313c	0.4515475
165	0xbfc67969	-1.5505801
166	0xbefe4f4f	-0.49669883
167	0x3d99c06c	0.07507405
168	0xbe463e73	-0.1935976
169	0xbf7b03bf	-0.9805259
170	0xbecf878b	-0.405331
171	0xbefbb32a	-0.4916013
172	0xbf9b2972	-1.2122023
173	0x3ca4f85e	0.020137962
174	0xbf3cd761	-0.7376614
175	0xbdb068b7	-0.08613723
176	0x3f1f2a4f	0.6217393
177	0x3f16976d	0.5882481
178	0x3e251dc2	0.16124633
179	0xbdda5da7	-0.10662394
180	0xbf92d674	-1.1471696
181	0x3ec0acc1	0.376318
182	0x3fa6f839	1.3044502
183	0xbf939f50	-1.1532993
184	0xbee16f8e	-0.44030422
185	0x4013d754	2.3100176
186	0xbe3032b2	-0.17206839
187	0xbef2ddbb	-0.47434792
188	0x3f7f0515	0.9961713
189	0x3f11a0eb	0.56886166
190	0xbfb5313d	-1.4155651
191	0x4019be94	2.402257
192	0xbf5c8d44	-0.86153054
193	0x3ddce219	0.10785312
194	0xbc7bcc55	-0.015368541
195	0xbf48f2cb	-0.7849547
196	0x3ead9b7e	0.33907694
197	0xbe8a0b00	-0.26961517
198	0xbfa35982	-1.2761691
199	0xbe936f9c	-0.2879609
200	0x3fef27bf	1.8684005
201	0x3f187741	0.5955697
202	0x3e9bb5fd	0.30412284
203	0xbf299300	-0.6623993
204	0x3ebda5a4	0.37040436
205	0x3ee22c42	0.4417439
206	0x3f2ef1a0	0.6833744
207	0x3f2dd6ee	0.6790608
208	0xbf1d5118	-0.61451864
209	0x3f63dcd4	0.8900883
210	0xbc77b66e	-0.015119178
211	0x3ff166c1	1.8859483
212	0xbf7d9161	-0.99049956
213	0xc03ab319	-2.9171813
214	0xbe8a54c0	-0.27017784
215	0x3d4684c8	0.048466474
216	0xbfce0395	-1.6094843
217	0xbf224211	-0.6338206
218	0x3f80dcd2	1.0067389
219	0x3d7f0672	0.062262006
220	0xbf681d69	-0.90669876
221	0xbf0c86f6	-0.54893434
222	0x3d4a4765	0.049384493
223	0xbe7e15fe	-0.24813077
224	0x3f76538a	0.9622122
225	0x3da592ee	0.08084665
226	0x3f48e25c	0.78470397
227	0xbf10fbb0	-0.56634045
228	0x3e47434d	0.19459267
229	0x3e94bc6d	0.29050007
230	0xbfa0012d	-1.2500359
231	0x3f2678ee	0.65028274
232	0xbfc8c7d9	-1.5685989
233	0xbf8277ab	-1.019277
234	0xbfd294d6	-1.6451671
235	0x3fde46da	1.7365372
236	0x3fb3896b	1.4026312
237	0xbea41672	-0.32048374
238	0xbf442b82	-0.7662889
239	0xbfbe289b	-1.4856142
240	0xbf39b7fe	-0.72546375
241	0x3f3e9112	0.7444011
242	0xbf281734	-0.65660405
243	0xbf230dad	-0.6369274
244	0x3f5112fb	0.81669587
245	0x3e9b314d	0.3031105
246	0xbff9cdba	-1.9515908
247	0xbfbb0f05	-1.4613959
248	0x3f944181	1.158249
249	0xbf62d6d3	-0.88609046
250	0x3f7fa2f5	0.9985803
251	0x3ffec9e3	1.9905361
252	0x4021fe70	2.5311546
253	0xbf7053d1	-0.93877894
254	0x3e76c27a	0.24097624
255	0xbf10cfb2	-0.5656692

indicator_time_mixing.1.indicator_mixing.ln.weight f4 [8, 5]
0	0x3f78c95f	0.9718227
1	0x3f805f58	1.0029097
2	0x3f719995	0.9437497
3	0x3f80c116	1.0058925
4	0x3f7cd30d	0.9875954
5	0x3f836d1b	1.0267671
6	0x3f58bda4	0.8466437
7	0x3f5d2116	0.8637861
8	0x3f839989	1.028123
9	0x3f7ad1c2	0.97976315
10	0x3f8aed52	1.0853674
11	0x3f7dfc38	0.9921298
12	0x3f64d98a	0.8939444
13	0x3f8106a2	1.0080149
14	0x3f7dbf55	0.99120075
15	0x3f848852	1.0354102
16	0x3f6b2903	0.91859454
17	0x3f66e1be	0.90188205
18	0x3f7e9556	0.9944662
19	0x3f8439f5	1.0330187
20	0x3f87fa4b	1.0623258
21	0x3f7a025e	0.9765986
22	0x3f62646a	0.8843447
23	0x3f822720	1.016819
24	0x3f804545	1.0021139
25	0x3f7d8696	0.99033487
26	0x3f6f0dac	0.93380237
27	0x3f7584ec	0.9590595
28	0x3f7e915f	0.9944057
29	0x3f827f07	1.0195016
30	0x3f81db8f	1.0145129
31	0x3f7c8068	0.9863343
32	0x3f70c66d	0.94052774
33	0x3f7bc01b	0.98340005
34	0x3f7f0f9d	0.996332
35	0x3f6c5add	0.92326146
36	0x3f929cd6	1.1454113
37	0x3f9bff2c	1.2187247
38	0x3f7958ea	0.974013
39	0x3f79b66e	0.9754399

indicator_time_mixing.1.indicator_mixing.ln.bias f4 [8, 5]
0	0x3cd0b243	0.025475627
1	0x3c8a5c04	0.01688958
2	0x3c814c46	0.01578344
3	0x3c1be44d	0.00951488
4	0xbc649c84	-0.013953332
5	0xbcf5ed26	-0.030020308
6	0xbd07e371	-0.03317589
7	0x3baf6199	0.0053522107
8	0x3d8d0501	0.0688572
9	0xbd4d2a2c	-0.050089046
10	0xbda24250	-0.07922804
11	0xbc09a8e6	-0.008402085
12	0xbca8a543	-0.020586615
13	0xbb42f0ea	-0.0029745647
14	0x3c543d42	0.012954058
15	0xbd0254b6	-0.031819068
16	0x39bbb758	0.0003580402
17	0x3c2a7e8c	0.010406148
18	0x3c2fbdc8	0.0107264
19	0x3c026847	0.007959432
20	0xbd8255bd	-0.063640095
21	0xbca3f411	-0.02001384
22	0xbcbe9bf1	-0.023267718
23	0x3c3d089f	0.0115377
24	0x3c7cf21c	0.015438583
25	0x3c3e483d	0.011613903
26	0x3a470b82	0.00075929624
27	0x3bf3a2d6	0.007435183
28	0x3bb74be0	0.005593762
29	0xbcc9f133	-0.024651146
30	0xbc3dc361	-0.0115822265
31	0x3bd88510	0.006607659
32	0xbb8c44db	-0.004280669
33	0xbc81b281	-0.015832188
34	0x3c92fabf	0.01794183
35	0x3d89a558	0.0672099
36	0x3ccac248	0.024750844
37	0x3d251233	0.04030056
38	0xbbc6725e	-0.006056114
39	0xbcd2a6e5	-0.025714347

indicator_time_mixing.1.time_mixing.ln.weight f4 [8, 5]
0	0x3f868461	1.0509149
1	0x3f887a09	1.0662242
2	0x3f76a8ee	0.96351516
3	0x3f74a95b	0.95570916
4	0x3f8b14f0	1.0865765
5	0x3f87b3d5	1.0601755
6	0x3f890b85	1.070664
7	0x3f77feac	0.96872973
8	0x3f721787	0.9456715
9	0x3f8b10f1	1.0864545
10	0x3f8892f3	1.0669845
11	0x3f8a2e95	1.0795466
12	0x3f74dcdb	0.956495
13	0x3f703286	0.9382709
14	0x3f8c2f3b	1.0951914
15	0x3f89df5b	1.0771288
16	0x3f895333	1.0728515
17	0x3f74e9bc	0.9566915
18	0x3f6d3927	0.9266533
19	0x3f87fd9f	1.0624274
20	0x3f89024c	1.0703826
21	0x3f8a99f7	1.0828236
22	0x3f745dd9	0.954557
23	0x3f70261c	0.9380815
24	0x3f8d846d	1.1056038
25	0x3f8855b3	1.0651153
26	0x3f892e31	1.0717221
27	0x3f749578	0.9554057
28	0x3f71b959	0.94423443
29	0x3f8c5a7e	1.0965116
30	0x3f876787	1.0578469
31	0x3f882263	1.0635494
32	0x3f74fdb3	0.95699614
33	0x3f73ff98	0.9531188
34	0x3f89cd16	1.0765712
35	0x3f8ab790	1.0837269
36	0x3f8fd9c6	1.1238334
37	0x3f66c5f3	0.90145797
38	0x3f65e64b	0.89804524
39	0x3f90b783	1.1306003

indicator_time_mixing.1.time_mixing.ln.bias f4 [8, 5]
0	0xbd804730	-0.06263578
1	0x3d8a5f4b	0.06756457
2	0xbd3e5913	-0.046471667
3	0xbd73e01c	-0.0595399
4	0xbdc28bd2	-0.09499325
5	0xbd5310b4	-0.0515296
6	0x3d66e375	0.056369264
7	0xbd16cf5b	-0.036818843
8	0xbd480e74	-0.04884191
9	0xbdb524a0	-0.08844876
10	0xbd7d6d91	-0.06187207
11	0x3d87c1df	0.06628775
12	0xbd45ad93	-0.048261236
13	0xbd759614	-0.05995758
14	0xbdc2bc3a	-0.095085576
15	0xbd84b631	-0.06480063
16	0x3d88290f	0.06648456
17	0xbd636408	-0.05551532
18	0xbd8114fd	-0.06302831
19	0xbd84c7d6	-0.06483428
20	0xbd887692	-0.066632405
21	0x3d9283ed	0.07154069
22	0xbd5084df	-0.050907966
23	0xbd8316c2	-0.06400825
24	0xbdd2c599	-0.10291595
25	0xbd85dce1	-0.0653627
26	0x3d8e125a	0.06937094
27	0xbd53dd2d	-0.0517246
28	0xbd8183f5	-0.06323997
29	0xbdc7182e	-0.09721409
30	0xbd8dabd6	-0.06917541
31	0x3d949bc3	0.07256272
32	0xbd6c78db	-0.057732444
33	0xbd8fad72	-0.07015504
34	0xbd9ae905	-0.07563976
35	0xbde52a25	-0.11189679
36	0x3ded75c7	0.1159473
37	0xbdb208c3	-0.086930774
38	0xbde74ef9	-0.1129436
39	0xbdceda50	-0.101002336

indicator_time_mixing.1.time_mixing.U1.1 f4 [1, 2]
0	0x3d80ca91	0.062886365
1	0x3d3773b9	0.044788096

indicator_time_mixing.1.time_mixing.U1.2 f4 [1, 3]
0	0xbc615cc5	-0.013755028
1	0xb7550efa	-1.2699276e-05
2	0xbb6de470	-0.003629949

indicator_time_mixing.1.time_mixing.U1.3 f4 [1, 4]
0	0x3c1b5608	0.009480961
1	0x3a96f14f	0.0011516007
2	0x3c9ea4e6	0.01936574
3	0x3bcd0f65	0.0062579387

indicator_time_mixing.1.time_mixing.U1.4 f4 [1, 5]
0	0xbd37fff6	-0.044921838
1	0xbc8aef34	-0.016959764
2	0xbca2b341	-0.019860866
3	0xbc2e5db8	-0.0106424615
4	0xbd02fe42	-0.03198076

indicator_time_mixing.1.time_mixing.U1.5 f4 [1, 6]
0	0xbb88ac16	-0.004170905
1	0xba73757d	-0.00092872215
2	0x3c8427b8	0.01613222
3	0xbcefc3ab	-0.029268106
4	0x3b09fe52	0.0021056128
5	0x3c7b8823	0.015352282

indicator_time_mixing.1.time_mixing.U1.6 f4 [1, 7]
0	0xbc77b34c	-0.015118431
1	0xbb90b7b5	-0.004416431
2	0xbc960f87	-0.01831795
3	0x3cb435e9	0.021998363
4	0xbbbc397c	-0.0057441574
5	0xbc142fd7	-0.009044609
6	0xbd2c2041	-0.042022947

indicator_time_mixing.1.time_mixing.U1.7 f4 [1, 8]
0	0xbad76528	-0.0016433345
1	0x3c7a0f3f	0.015262424
2	0xbc93bb73	-0.018033719
3	0x3c097fd1	0.00839229
4	0xbc70dd20	-0.014701158
5	0xbc4424db	-0.011971678
6	0xbdbf7b52	-0.09349693
7	0xbcde75d3	-0.027155792

indicator_time_mixing.1.time_mixing.U2.1 f4 [1, 2]
0	0x3b8456c8	0.0040386654
1	0x3cf360d5	0.029709259

indicator_time_mixing.1.time_mixing.U2.2 f4 [1, 3]
0	0x3cf58b64	0.029973693
1	0xbd5211c6	-0.05128648
2	0x3c8a9843	0.016918307

indicator_time_mixing.1.time_mixing.U2.3 f4 [1, 4]
0	0xbc90e8f8	-0.017689213
1	0x3caf99a3	0.021435564
2	0xbc5ae36e	-0.0133598875
3	0xbcc8447c	-0.024446718

indicator_time_mixing.1.time_mixing.U2.4 f4 [1, 5]
0	0x3cab1221	0.020882668
1	0xbca8f8f3	-0.02062652
2	0xbc9262f0	-0.017869443
3	0x3c22ecc0	0.009944141
4	0xbb935ba1	-0.004497007

indicator_time_mixing.1.time_mixing.U2.5 f4 [1, 6]
0	0xbcb676b8	-0.022273406
1	0x3cf93430	0.030420393
2	0x3c79056a	0.015199045
3	0xbc8e6f08	-0.017386928
4	0xbc3b4783	-0.011430624
5	0xbbd5ae82	-0.006521047

indicator_time_mixing.1.time_mixing.U2.6 f4 [1, 7]
0	0x3cff2295	0.03114442
1	0xbd50911c	-0.050919637
2	0x3ce5f3dc	0.028070383
3	0xbce3d4aa	-0.027811367
4	0x3d019b17	0.031642046
5	0xbc7f651b	-0.01558807
6	0x3d0b83a0	0.034061074

indicator_time_mixing.1.time_mixing.U2.7 f4 [1, 8]
0	0x3d4e3092	0.05033929
1	0xbdbc04c2	-0.09180595
2	0x3c6cc193	0.014450449
3	0xbcec30c0	-0.02883184
4	0x3d3f5da4	0.046720162
5	0xbaf18c82	-0.0018428715
6	0x3c80b79d	0.015712554
7	0x3cfd28da	0.030903269

indicator_time_mixing.1.fc.weight f4 [1, 5]
0	0x3dd7bbb6	0.1053385
1	0xbdd06cea	-0.10177024
2	0x3d529752	0.05141384
3	0x3ec302bc	0.38088024
4	0x3c8570da	0.016289163
