weights/stockmixer_wo_stock_L16_H64_M40_K4_E50_s3.pt (torch, 55610 bytes, 89 tensors)

indicator_time_mixing.0.indicator_mixing.W1 f4 [5, 64]
0	0x3e850982	0.25983816
1	0x3f01b2e2	0.5066358
2	0x3f39484b	0.72375935
3	0x3f541946	0.82851064
4	0x3e109e62	0.14122918
5	0x3faef991	1.3669912
6	0x3e017c01	0.1264496
7	0xbf5cb304	-0.86210656
8	0xbbc0863d	-0.0058753775
9	0xbcc908ae	-0.024540272
10	0xbfa8a890	-1.3176441
11	0x3ef11d30	0.4709258
12	0xbf02150d	-0.5081337
13	0xbf8403ee	-1.0313699
14	0xbca0626d	-0.019578183
15	0x3fe0b3f8	1.7554922
16	0x3f185d90	0.59517765
17	0x3e90a6b8	0.28252196
18	0xbf83980c	-1.0280776
19	0xbfd62529	-1.673009
20	0xbec45565	-0.383464
21	0x3d8f9f38	0.070127904
22	0x3fd6da0b	1.6785291
23	0xbf4988f7	-0.78724617
24	0xbf1cf7e6	-0.61315763
25	0xbd9db0da	-0.076997474
26	0x3fb40412	1.4063742
27	0x3f725123	0.94655055
28	0xbb9c7d72	-0.0047756964
29	0xbf7a53fc	-0.977844
30	0x3dd2c3d3	0.10291257
31	0xbf3cf8b6	-0.73817
32	0xbf955dff	-1.166931
33	0x40298fa0	2.6493912
34	0x3e642d0a	0.22282806
35	0x3fa393c5	1.2779471
36	0x3f31a395	0.6939023
37	0xbfa0da7d	-1.2566677
38	0xbf632563	-0.8872892
39	0xbffca5e0	-1.9738121
40	0xbdcc4e2b	-0.09975847
41	0x3ea6a13c	0.32544887
42	0xbd95e1bf	-0.07318448
43	0xbf791344	-0.9729502
44	0x3f96c58a	1.1779034
45	0xbf9d5194	-1.2290521
46	0x3f8d6f34	1.1049562
47	0xbfd6f68c	-1.679399
48	0xbe982a2f	-0.29719684
49	0x3e9d8ffd	0.30773917
50	0xbe218dd2	-0.15776756
51	0xbf073ec3	-0.5283014
52	0xbfffabe5	-1.9974333
53	0x3ed1e113	0.4099203
54	0x3fde1b4d	1.7352082
55	0x3f80687e	1.0031888
56	0x3f5fc044	0.8740275
57	0xbe95d89b	-0.2926682
58	0xbfa37240	-1.2769241
59	0x3df52819	0.11970539
60	0xbf23e229	-0.6401697
61	0x3eb3d857	0.35125992
62	0xbf669cfc	-0.9008329
63	0x3e8a446f	0.27005336
64	0x3cd5dd62	0.02610654
65	0xbed4a34f	-0.41530845
66	0x3f80accd	1.0052735
67	0x3e69ead9	0.22843494
68	0x3f6ef494	0.93341947
69	0x3f7014e7	0.93781894
70	0x3f14e3e0	0.5816021
71	0xbf6244f7	-0.8838648
72	0xbf30f14d	-0.69118196
73	0x3f28c236	0.6592134
74	0xbdb7a05e	-0.089661345
75	0x3e57b88c	0.21066493
76	0xbf994c93	-1.1976494
77	0xbfda3939	-1.7048713
78	0xbe9f135a	-0.31069452
79	0x3ea469c2	0.32111937
80	0xbfedce2c	-1.8578544
81	0xbf362399	-0.7114807
82	0xbe00a9b4	-0.12564737
83	0xbfea7de4	-1.8319669
84	0xbdaaddb3	-0.08343067
85	0x3d1129c4	0.03544022
86	0x3e993d77	0.29929706
87	0xbfaca710	-1.3488483
88	0x3cece502	0.028917793
89	0x3f736f33	0.9509155
90	0x3fc60eb7	1.5473241
91	0xbf7e7607	-0.99398845
92	0x3f54733b	0.8298833
93	0xbe552b2e	-0.20817253
94	0xbf9d50a0	-1.229023
95	0x3f227742	0.63463223
96	0xbf8dadde	-1.1068685
97	0xbc6ef2fb	-0.014584298
98	0x3e972a75	0.2952458
99	0x40197498	2.3977413
100	0xbe7b0379	-0.24513043
101	0xbd2ef7d1	-0.042716805
102	0x3fbcf5f7	1.4762563
103	0x3fb2c8aa	1.3967488
104	0x3f360e60	0.71115685
105	0x3f07c487	0.5303425
106	0x3fe4e25e	1.7881582
107	0x3fb56441	1.417122
108	0xbf5f6a61	-0.87271696
109	0x3f2660f0	0.64991665
110	0x3ee0f5d3	0.4393755
111	0x3eabfce0	0.33591366
112	0xbf015b1a	-0.50529635
113	0x3f033efb	0.51267976
114	0x3f804a88	1.0022745
115	0xbf87de66	-1.0614746
116	0x3fde7abc	1.7381206
117	0xbf3747aa	-0.71593726
118	0xbe92303f	-0.28552434
119	0xbf70eaed	-0.9410847
120	0x3f263fe3	0.64941233
121	0x3de62fef	0.11239611
122	0x3f8b9ba0	1.0906868
123	0xbfe8e993	-1.8196281
124	0xbeec5262	-0.46156603
125	0x3fa3c3da	1.2794144
126	0x3c5ab8ac	0.013349693
127	0x3e022291	0.12708499
128	0xbf5aee5c	-0.8551996
129	0xbd20be6a	-0.039244093
130	0xbdcde0a7	-0.10052615
131	0xbfec8bcf	-1.8480166
132	0x3ea2d1f7	0.31800815
133	0xbe8a11ad	-0.2696661
134	0x3efee15c	0.4978131
135	0x3fa2bb48	1.2713404
136	0xbeb01054	-0.34387457
137	0xbe5f778e	-0.2182295
138	0x3e423f2f	0.18969415
139	0x3ff66a82	1.9251254
140	0x3dc990c9	0.09842069
141	0x3ef952d8	0.48696017
142	0xbdfa49b8	-0.12221092
143	0x3fb6f1fd	1.4292599
144	0x3fb65f9f	1.4247931
145	0xbe9b7463	-0.30362234
146	0x3f09d58d	0.5384148
147	0x3fc2460e	1.5177629
148	0x3f28cc16	0.6593641
149	0x3f2657d6	0.64977777
150	0xbef2e305	-0.47438827
151	0xbfa81fbe	-1.3134687
152	0xbf91f70c	-1.1403518
153	0xbec6c8fc	-0.38825214
154	0x3e9207a0	0.28521442
155	0xbe93e629	-0.28886536
156	0x3faba301	1.340912
157	0x3e19cd5b	0.15019743
158	0xbe3a5a9d	-0.18198629
159	0x3f0ab23e	0.54178226
160	0x3f0b3bb3	0.5438797
161	0xbd5e8802	-0.054328926
162	0x3f919972	1.1374953
163	0x3f350265	0.7070678
164	0xbfdf11f8	-1.7427359
165	0xc00cf500	-2.2024536
166	0xbe351505	-0.176838
167	0x3fbd3174	1.4780717
168	0xbf7dbe18	-0.99118185
169	0xbe2c58d9	-0.16830768
170	0x3e30c386	0.17262086
171	0xbeade49a	-0.33963472
172	0x3fb24f45	1.3930441
173	0xbef83994	-0.4848143
174	0x3ef8ed1d	0.48618403
175	0xbf166485	-0.5874713
176	0xbe8f39f1	-0.27973893
177	0xbf905e85	-1.1278845
178	0x4006af86	2.104463
179	0x3f06e8ff	0.52699274
180	0xbf6e5acc	-0.93107295
181	0x3f107946	0.5643505
182	0xbf805018	-1.0024443
183	0x3f136433	0.57574767
184	0x3ffc8b5a	1.9730027
185	0x3f92af7b	1.1459802
186	0xbf125232	-0.5715667
187	0xbe4fc602	-0.20290378
188	0xbf34ae79	-0.70578724
189	0xbf8147e8	-1.0100069
190	0x3f5a0936	0.85170305
191	0x3f404f01	0.7512055
192	0xc00b7bcf	-2.1794317
193	0x3fb413a8	1.4068499
194	0x3f7e77fd	0.9940184
195	0x3fb7bb56	1.4354045
196	0xbfeccb57	-1.8499554
197	0xbe50994c	-0.20370978
198	0x3de10f52	0.1098925
199	0x3fbd7786	1.4802101
200	0x3f1f2e53	0.6218006
201	0xbe388d05	-0.18022545
202	0x3e390326	0.18067607
203	0x40085fe2	2.1308522
204	0x3eca5442	0.3951741
205	0xbfb48cca	-1.4105465
206	0xbff50d14	-1.9144616
207	0xbf96cebd	-1.1781842
208	0xbf95b41e	-1.1695592
209	0x40194fcf	2.3954961
210	0xc0161c73	-2.3454864
211	0xbf9b5d48	-1.2137842
212	0xbebcafa8	-0.36852765
213	0x3f2fb394	0.6863339
214	0xc004acf1	-2.0730555
215	0xbe9d7d3c	-0.3075961
216	0xbf5ed296	-0.8704008
217	0x3ec1bec6	0.3784086
218	0xbef9f8b5	-0.4882256
219	0xbec334bf	-0.3812618
220	0xbe84ef0b	-0.25963625
221	0x3fd75133	1.6821655
222	0xbd48e8a2	-0.04904998
223	0x3f5be00a	0.8588873
224	0x3f879192	1.05913
225	0x3f0dc360	0.55376244
226	0xbf372e01	-0.7155457
227	0x3fedad32	1.856848
228	0xbf57b82d	-0.84265405
229	0x3fa5ef12	1.2963583
230	0x4025cb08	2.590517
231	0xbd0b9b4d	-0.034083653
232	0xbd16a6bc	-0.036780104
233	0x3f3f0839	0.7462192
234	0xbe1dce27	-0.15410672
235	0x3dab7002	0.08370973
236	0x3f967334	1.1753907
237	0x3f61d30f	0.88212675
238	0x3ee4f9cd	0.44721833
239	0x3ede5922	0.43427378
240	0xbf6f3908	-0.934464
241	0x3fa555ed	1.2916847
242	0x3e4cdb54	0.20005542
243	0xbfcb578b	-1.5886091
244	0x3f8ceabf	1.1009139
245	0xbe2aeb99	-0.16691436
246	0xbf858b09	-1.0433055
247	0x3e9114ad	0.28336087
248	0xbfe2ff7b	-1.7734216
249	0xc00eec5d	-2.2331765
250	0x3eeeb5f7	0.46623203
251	0xbee4d2b5	-0.44692007
252	0xbf1abd6c	-0.60445285
253	0xbf0c1cb3	-0.5473129
254	0xbfa642e9	-1.2989169
255	0x3fa7c94d	1.3108307

indicator_time_mixing.0.indicator_mixing.W2 f4 [64, 5]
0	0x3fe45687	1.7838906
1	0x3ca67867	0.020321084
2	0x3fb10f8f	1.3832873
3	0xbf459a48	-0.7718854
4	0xbf04761f	-0.5174274
5	0x3d0548c6	0.032540105
6	0xbf924a1c	-1.1428866
7	0x3f9016b5	1.125693
8	0xbdcccbe5	-0.09999827
9	0xba1d544e	-0.0006001637
10	0x3f758962	0.95912755
11	0xbe80245a	-0.25027734
12	0xbf2441bc	-0.641628
13	0x3f00e90d	0.5035561
14	0x3ebecebf	0.3726711
15	0xbf4aa76f	-0.79161733
16	0x3dc8636d	0.09784589
17	0x3e5f1b3a	0.2178773
18	0xbe957e8b	-0.29198107
19	0x3b837056	0.004011194
20	0xbf84e809	-1.0383312
21	0x3e6aaca5	0.22917421
22	0xbe801aa4	-0.25020325
23	0xbeafc878	-0.34332633
24	0xbf5092b7	-0.8147387
25	0xbe0d96ca	-0.13827053
26	0xbc7e253c	-0.015511807
27	0xbefece00	-0.4976654
28	0xbf1c5220	-0.6106281
29	0x40500cc0	3.2507782
30	0xbfb45cec	-1.4090858
31	0xbf3c2abe	-0.7350272
32	0xbf9c90fe	-1.2231748
33	0x3ed908a1	0.42389396
34	0x3f842128	1.0322618
35	0xbf809426	-1.0045211
36	0xbffd5c41	-1.9793779
37	0xbfa48169	-1.2851993
38	0x3fb4f350	1.4136753
39	0x3f53ff5e	0.82811534
40	0xbecd1368	-0.40053868
41	0x3f242dcd	0.64132386
42	0xbe6a54dc	-0.22883934
43	0x3f187a01	0.59561163
44	0x3de3b2cf	0.111180894
45	0x3f59bd98	0.8505492
46	0x3f3aa96e	0.7291478
47	0xbfcad584	-1.584641
48	0x3fdce4bd	1.7257305
49	0xbe1f2ce6	-0.15544471
50	0xbf7a12b9	-0.9768482
51	0xbd415da1	-0.047208432
52	0xbfab7abf	-1.3396834
53	0xbde87bd9	-0.11351747
54	0xbfb571d3	-1.4175361
55	0x3ec811ae	0.3907599
56	0x3fe8c208	1.8184214
57	0x3f3009b7	0.68764824
58	0xbf776ebe	-0.96653354
59	0xbe200358	-0.15626276
60	0x3f7b1925	0.9808524
61	0xbf9d40d1	-1.2285405
62	0x3ef5bf52	0.47997528
63	0xbea30b48	-0.31844544
64	0x3f843f98	1.0331907
65	0x3ee05a85	0.4381906
66	0x3e11a3ef	0.14222692
67	0x3ee5d9ca	0.44892722
68	0x3dc11f44	0.094297916
69	0xbfbecf75	-1.4907061
70	0x3f91646d	1.1358773
71	0xbc93521e	-0.017983492
72	0x3eacac32	0.33725125
73	0xbfa21d9f	-1.266529
74	0x3fc2aa36	1.5208194
75	0x4015d043	2.3408363
76	0xbf3c2704	-0.73497033
77	0xbe7d450a	-0.24733368
78	0xbe62e329	-0.22156967
79	0x3e8f5156	0.27991742
80	0xbdbc7b04	-0.09203151
81	0x3f1fd57c	0.62435126
82	0x3ea970c5	0.3309385
83	0x3f36b3e5	0.7136825
84	0xbfae9c3c	-1.3641429
85	0x3f290e12	0.66037095
86	0xbfe06d2b	-1.7533315
87	0xbfb34615	-1.4005762
88	0xbf8c78fe	-1.0974424
89	0x3f007cdc	0.5019052
90	0xbf5d70d8	-0.8650031
91	0x3ef425f6	0.47685212
92	0x3ef10499	0.4707382
93	0x3fa2fdaf	1.2733668
94	0x3f85e92b	1.0461782
95	0xbf88e9b0	-1.0696316
96	0xbf822fd8	-1.0170851
97	0x401c7c5d	2.4450905
98	0xbf580269	-0.8437868
99	0xbec89dac	-0.39182794
100	0x3f260eba	0.6486622
101	0x3f2aa803	0.66662616
102	0x3eca5340	0.3951664
103	0xbf41b17a	-0.7566143
104	0xbec8f759	-0.3925121
105	0x3f1ec723	0.6202261
106	0x3f2afa36	0.6678804
107	0xbfc4e6fd	-1.5382992
108	0x3f350026	0.7070335
109	0xbf25b928	-0.6473565
110	0x3fccb298	1.5992002
111	0xbedeacd4	-0.43491232
112	0x400f08b5	2.2349064
113	0x3f96ec44	1.1790853
114	0x3d0c0b98	0.034190744
115	0x3e2f3bc5	0.17112644
116	0x402ef67b	2.733794
117	0xc004cdc3	-2.0750587
118	0xbe22dbe4	-0.15904194
119	0x400c5fee	2.193355
120	0x3fab75d3	1.3395332
121	0x40036f68	2.0536747
122	0xbf816486	-1.0108802
123	0x3fa38734	1.2775636
124	0xbdf74cee	-0.1207522
125	0xc017f7fc	-2.3745108
126	0xbfee1627	-1.860051
127	0xbff22052	-1.8916113
128	0x3fe2ca17	1.7717923
129	0x3eafe0dc	0.34351242
130	0x3fb3dab6	1.405112
131	0xbf4089cb	-0.75210255
132	0x3f025238	0.50906706
133	0xbcc7aa3c	-0.024373166
134	0xbed4feb5	-0.41600576
135	0xbd8a7489	-0.067605086
136	0x3f3b59b1	0.73183733
137	0xbfb95a23	-1.4480633
138	0xbf5cecec	-0.86299014
139	0x3f42d5a2	0.7610723
140	0xbee645b4	-0.44975054
141	0xbf4e693d	-0.8062933
142	0xbebe34b5	-0.37149587
143	0xbd1cc643	-0.038275015
144	0xc015bbe2	-2.3395925
145	0xbe4ce2bd	-0.20008369
146	0x3e8d4923	0.2759486
147	0xc0027bb2	-2.0387998
148	0x3f2f79f7	0.6854548
149	0x3dce62ba	0.10077424
150	0xbf0f0d6c	-0.55879855
151	0x3eb53d7a	0.35398465
152	0x3ea82275	0.3283879
153	0x3fc0e2fd	1.5069271
154	0xbf9a8b7c	-1.2073817
155	0xbefa2e5b	-0.4886349
156	0x3e1e70bb	0.15472691
157	0xbfd57983	-1.6677707
158	0x3ddec7ae	0.1087793
159	0x3fccb147	1.5991601
160	0xbfaa4bcd	-1.3304383
161	0x3f5a9832	0.8538848
162	0x40103e99	2.2538207
163	0x3eaab5e4	0.33341897
164	0x3f69b224	0.91287446
165	0xbfe686d8	-1.8009901
166	0xc0122b8b	-2.2839077
167	0xbfcbb7cd	-1.5915467
168	0x3e4b3926	0.19846019
169	0xbf04299c	-0.5162599
170	0x3f9003e0	1.1251183
171	0x3f28bef2	0.6591636
172	0xbfa5fc59	-1.2967635
173	0x3fad1b2b	1.3523916
174	0x3fe3cbc7	1.7796563
175	0x3fa2525b	1.2681383
176	0xbf60a949	-0.8775831
177	0xbe8b3c9c	-0.2719468
178	0x3ff448b8	1.9084692
179	0x3f343ff0	0.7041006
180	0xbf1d60ba	-0.6147572
181	0x3da7926a	0.08182223
182	0xbf346e42	-0.7048074
183	0x3ed6cb01	0.41951755
184	0x3f8615ea	1.0475438
185	0x3b14dc0a	0.0022714161
186	0x3f45e029	0.77295166
187	0x4010c9fc	2.2623281
188	0xbef00f10	-0.46886492
189	0xbef8dd0f	-0.48606154
190	0xbf6a1601	-0.91439825
191	0x3f763714	0.9617779
192	0x3f040d68	0.51582956
193	0x3ebfb6d9	0.3744419
194	0xbfcec40d	-1.615358
195	0xbe92b1c4	-0.2865125
196	0xbfe5985d	-1.7937123
197	0xbf2fbd97	-0.68648666
198	0xbd86c0ce	-0.06579743
199	0x3fea052a	1.8282826
200	0x3edd0f18	0.43175578
201	0xbfb9e4f8	-1.4523001
202	0x3feddae4	1.8582425
203	0xbd9f9099	-0.07791252
204	0xbee4e9a7	-0.44709513
205	0x3f591ae0	0.84806633
206	0xbe62ea44	-0.22159678
207	0xbeaff0bd	-0.34363356
208	0x3fc8565b	1.5651354
209	0xbf0367cd	-0.5133026
210	0x3fc99d9b	1.5751222
211	0x3f31a444	0.69391274
212	0xbe4eeb0b	-0.2020685
213	0xbf800270	-1.0000744
214	0xbfa5c5d0	-1.2950993
215	0x3d79fe7f	0.061033722
216	0x3f903737	1.126685
217	0xbf41a976	-0.756492
218	0xbfe391cc	-1.7778869
219	0xbf6c0df9	-0.9220882
220	0xbe8aa5ed	-0.27079716
221	0x4000ce6c	2.012599
222	0x3fe04c82	1.7523348
223	0xbfd13ac9	-1.6346065
224	0xbf03c6cf	-0.5147523
225	0x3eb6886f	0.35650966
226	0xbf76694c	-0.9625442
227	0x3f3d2c09	0.7389532
228	0xbf34c651	-0.70615107
229	0x3f83153c	1.0240855
230	0xbecd263f	-0.40068242
231	0x3d9f1aa2	0.07768752
232	0xbfc8f3a2	-1.5699351
233	0xbe723227	-0.23651944
234	0x3fba4630	1.455267
235	0xbd19758c	-0.037465617
236	0x3e4cca13	0.1999896
237	0x3ef4bf56	0.47802228
238	0xbfa2f37e	-1.2730558
239	0xbf26c1c0	-0.6513939
240	0x3e185ec0	0.14879894
241	0x3ec5940e	0.3858952
242	0x3f8e8d0e	1.1136796
243	0x3fff580b	1.9948744
244	0xbea39f00	-0.31957245
245	0x3fc7bf4a	1.5605252
246	0x3ea03313	0.31288967
247	0x3fb61c6e	1.4227426
248	0xbf04c43d	-0.51861936
249	0x3e9bd5dc	0.304366
250	0xbc6665f2	-0.014062392
251	0x3f4f3097	0.8093352
252	0xc0178881	-2.3677065
253	0x3ec3f61d	0.38273707
254	0x3fa09018	1.2543974
255	0x3d6d805e	0.05798375

indicator_time_mixing.0.indicator_mixing.ln.weight f4 [16, 5]
0	0x3f772c39	0.96551853
1	0x3f7dbf9e	0.9912051
2	0x3f7612a8	0.9612222
3	0x3f7d40ec	0.9892719
4	0x3f7702ed	0.9648884
5	0x3f77594e	0.96620643
6	0x3f7c9a93	0.9867336
7	0x3f779e8a	0.96726286
8	0x3f7de66a	0.9917971
9	0x3f7c76b0	0.986186
10	0x3f6f1c2e	0.93402374
11	0x3f816d6b	1.0111517
12	0x3f718a6d	0.94351846
13	0x3f7c80c9	0.9863401
14	0x3f732a37	0.9498629
15	0x3f856f36	1.0424564
16	0x3f812590	1.0089588
17	0x3f8566f5	1.0422045
18	0x3f85b8b2	1.044699
19	0x3f81fcea	1.0155308
20	0x3f72e76e	0.94884384
21	0x3f7ab8c6	0.9793819
22	0x3f7e09cb	0.9923369
23	0x3f7e6faa	0.99389136
24	0x3f791346	0.97295034
25	0x3f73e01d	0.95263845
26	0x3f79422d	0.973666
27	0x3f7f6469	0.9976259
28	0x3f7e6a2a	0.99380744
29	0x3f7d19f2	0.98867714
30	0x3f715891	0.94275767
31	0x3f7c9373	0.9866249
32	0x3f804805	1.0021979
33	0x3f7bf616	0.9842237
34	0x3f786f4f	0.97044843
35	0x3f7401f9	0.9531551
36	0x3f7b4058	0.98145056
37	0x3f7e1e73	0.9926521
38	0x3f7bebc8	0.9840665
39	0x3f7a0089	0.97657067
40	0x3f84d921	1.0378762
41	0x3f83a856	1.0285747
42	0x3f82f5bb	1.0231241
43	0x3f84946a	1.0357792
44	0x3f7df471	0.99201113
45	0x3f7574f2	0.9588157
46	0x3f7bd79f	0.98375887
47	0x3f80f8e9	1.0075961
48	0x3f7ce762	0.9879056
49	0x3f812be0	1.0091515
50	0x3f746780	0.9547043
51	0x3f7c9ca0	0.9867649
52	0x3f812daf	1.0092067
53	0x3f7c9d0e	0.98677146
54	0x3f80cab0	1.0061855
55	0x3f86afa2	1.0522349
56	0x3f81e7d3	1.0148872
57	0x3f85d22b	1.0454763
58	0x3f7d9e0e	0.990693
59	0x3f857da2	1.0428965
60	0x3f872a4f	1.0559787
61	0x3f83bd3d	1.0292126
62	0x3f844e58	1.0336409
63	0x3f8053d4	1.0025582
64	0x3f82ff70	1.0234203
65	0x3f728270	0.9473028
66	0x3f7b4c27	0.98163074
67	0x3f80fe39	1.0077583
68	0x3f7d0727	0.9883904
69	0x3f7e999d	0.99453145
70	0x3f727e7f	0.9472427
71	0x3f781b42	0.9691659
72	0x3f7f19ca	0.99648726
73	0x3f7bfbc3	0.9843103
74	0x3f7e79ea	0.99404776
75	0x3f85c313	1.0450157
76	0x3f812ff7	1.0092763
77	0x3f7b2f7c	0.9811933
78	0x3f7767d7	0.9664282
79	0x3f867640	1.0504837

indicator_time_mixing.0.indicator_mixing.ln.bias f4 [16, 5]
0	0xbd5d5ab0	-0.054041564
1	0x3c6c10b8	0.014408283
2	0xbd3eaa7a	-0.046549298
3	0xbc2bafa9	-0.010478892
4	0x3cb40025	0.021972725
5	0xbd6aae3b	-0.057295065
6	0x3c8e8c7a	0.017400969
7	0xbd23f4e6	-0.040028475
8	0xbc5b046c	-0.0133677535
9	0x3bb64188	0.005562011
10	0xbc8b4f07	-0.017005457
11	0xbb39e955	-0.0028367836
12	0xbd8b2bf9	-0.067954965
13	0xbc647beb	-0.01394556
14	0x3d1580ba	0.036499716
15	0x3c67bfa9	0.014144816
16	0xbc700065	-0.014648532
17	0x3d2d6caf	0.042339977
18	0x3d4f109c	0.05055295
19	0xbc50e4be	-0.012749849
20	0xbd3713fb	-0.04469679
21	0x3cbdf7ab	0.023189386
22	0xbc4b8e95	-0.012424131
23	0xbc51c9fa	-0.012804503
24	0x3c971f44	0.018447526
25	0xbd5b616a	-0.0535597
26	0x3cf48c72	0.029852126
27	0xbbc16411	-0.0059018214
28	0xbc4d6c4b	-0.012538026
29	0x3c092dbc	0.00837272
30	0xbcf95298	-0.030434892
31	0x3c8908df	0.016727863
32	0xbbb97bb0	-0.0056604967
33	0xbc9a817d	-0.018860573
34	0x3caa84cb	0.020815274
35	0xbd376fef	-0.044784483
36	0x3cc147f7	0.023593886
37	0xbc6c5366	-0.014424181
38	0xbcb36590	-0.021899015
39	0x3cae2ec9	0.021262543
40	0x3d02a3b9	0.03189442
41	0xbcff7959	-0.031185793
42	0x3ce03352	0.027368221
43	0x3d3e6141	0.046479467
44	0xb9a6b1df	-0.00031794512
45	0xbd5b7eff	-0.05358791
46	0x3ccf9228	0.025338247
47	0x3b92944b	0.0044732443
48	0xbcc20353	-0.023683226
49	0xbb04e93c	-0.002028062
50	0xbd4fa03d	-0.050689925
51	0x3cb0635d	0.021531755
52	0x3bdb16f9	0.006686088
53	0xbcb26b3d	-0.02177965
54	0xbba96ce8	-0.0051704533
55	0x3c8872f8	0.016656384
56	0xbcc5511e	-0.024086531
57	0x3d4f41c0	0.050599813
58	0xb89b857f	-7.4158415e-05
59	0xbd3d49b6	-0.046212874
60	0x3cc8e1e2	0.024521772
61	0xbd139f77	-0.03604075
62	0x3d16c01c	0.036804304
63	0x3c8754e4	0.016519971
64	0xbcbd7d21	-0.023130955
65	0xbd3feb23	-0.046855103
66	0x3cd0d48c	0.025491975
67	0x3c210e96	0.009830138
68	0xbc9895aa	-0.018626053
69	0xbb1b25b3	-0.0023673594
70	0xbd6c339e	-0.057666413
71	0x3d167224	0.036729947
72	0xbb1422f5	-0.0022603844
73	0xbcb9c981	-0.022679092
74	0x3c15c332	0.0091407765
75	0x3d918e03	0.07107165
76	0xbd0ced80	-0.034406185
77	0xbc8b64f9	-0.017015921
78	0xbce346e9	-0.027743774
79	0xbd7e9356	-0.06215223

indicator_time_mixing.0.time_mixing.ln.weight f4 [16, 5]
0	0x3f4c7ef4	0.79881215
1	0x3f470faf	0.77758306
2	0x3f4a912c	0.79127765
3	0x3f99e040	1.2021561
4	0x3f5019cd	0.8128937
5	0x3f46d39f	0.7766666
6	0x3f44036c	0.7656772
7	0x3f4bf6ca	0.79673445
8	0x3f977af4	1.1834397
9	0x3f48d261	0.7844601
10	0x3f4b2a11	0.79361063
11	0x3f4baf81	0.7956467
12	0x3f4e82b2	0.80668175
13	0x3f999b8a	1.2000592
14	0x3f47c9d9	0.7804237
15	0x3f4de6f6	0.80430543
16	0x3f522cc5	0.8209956
17	0x3f512ea0	0.8171177
18	0x3f98af5b	1.1928514
19	0x3f46e713	0.7769634
20	0x3f4cf861	0.80066496
21	0x3f4aac20	0.7916889
22	0x3f4d4e56	0.80197656
23	0x3f992182	1.1963351
24	0x3f487eeb	0.7831866
25	0x3f512cab	0.8170878
26	0x3f46fd6a	0.7773043
27	0x3f4acf2d	0.79222375
28	0x3f98b2a4	1.1929517
29	0x3f4fa941	0.81117636
30	0x3f5205e0	0.82040215
31	0x3f4bb4cb	0.79572743
32	0x3f4b01b8	0.792995
33	0x3f987c73	1.1912979
34	0x3f48ea01	0.7848206
35	0x3f56634b	0.8374526
36	0x3f4dab96	0.80339944
37	0x3f4daaf5	0.80338985
38	0x3f96ba74	1.1775651
39	0x3f4ed412	0.80792344
40	0x3f527c91	0.82221323
41	0x3f4f2ec2	0.8093072
42	0x3f5001c5	0.812527
43	0x3f95cf65	1.1703917
44	0x3f482ddf	0.78194994
45	0x3f512c5d	0.8170832
46	0x3f4959b9	0.7865253
47	0x3f49d693	0.7884304
48	0x3f99030d	1.1954056
49	0x3f4cc5ec	0.79989505
50	0x3f576ea5	0.84153205
51	0x3f4e92ae	0.80692565
52	0x3f47ef4a	0.780995
53	0x3f999a27	1.2000169
54	0x3f4d1fde	0.8012675
55	0x3f5963a2	0.8491765
56	0x3f4f1984	0.8089831
57	0x3f4b69d3	0.7945835
58	0x3f9707da	1.1799271
59	0x3f4f2e06	0.809296
60	0x3f5cbde0	0.86227226
61	0x3f55b03a	0.83472025
62	0x3f4dee67	0.804419
63	0x3f968d64	1.1761899
64	0x3f494fa8	0.7863717
65	0x3f600fb2	0.8752395
66	0x3f55eb09	0.8356176
67	0x3f501311	0.81279093
68	0x3f95296c	1.1653266
69	0x3f512c82	0.8170854
70	0x3f614910	0.8800211
71	0x3f59eee5	0.8513015
72	0x3f4f7398	0.8103576
73	0x3f962e99	1.173297
74	0x3f4f469b	0.8096711
75	0x3f7ba4a8	0.9829812
76	0x3f7aba72	0.9794074
77	0x3f71c984	0.94448113
78	0x3f871367	1.0552796
79	0x3f68ecd7	0.9098639

indicator_time_mixing.0.time_mixing.ln.bias f4 [16, 5]
0	0x3e441d1f	0.19151734
1	0xbe5f899a	-0.21829835
2	0xbe56a293	-0.20960455
3	0xbe5b3caa	-0.2140986
4	0xbe581492	-0.21101597
5	0x3e50f938	0.2040757
6	0xbe63ed64	-0.22258526
7	0xbe5a69f4	-0.2132948
8	0xbe5fd048	-0.21856797
9	0xbe60d3a4	-0.21955734
10	0x3e475682	0.19466594
11	0xbe5e9e3f	-0.21740054
12	0xbe572905	-0.21011741
13	0xbe590cb8	-0.21196258
14	0xbe5c69f3	-0.21524791
15	0x3e366328	0.17811263
16	0xbe54681d	-0.20742841
17	0xbe5002c4	-0.20313555
18	0xbe509aa8	-0.20371497
19	0xbe514ae0	-0.20438719
20	0x3e3be488	0.18348897
21	0xbe61fe02	-0.22069553
22	0xbe584e80	-0.21123695
23	0xbe5dbdf4	-0.21654493
24	0xbe5c4643	-0.21511178
25	0x3e2e4931	0.17020108
26	0xbe5f65ac	-0.21816128
27	0xbe58c805	-0.21170051
28	0xbe5b33d1	-0.21406485
29	0xbe5ce2a2	-0.21570829
30	0x3e20ef7e	0.15716359
31	0xbe5e5b58	-0.21714532
32	0xbe5a1dc4	-0.21300417
33	0xbe566354	-0.20936328
34	0xbe5c5a54	-0.21518832
35	0x3e1375f5	0.14400466
36	0xbe59993c	-0.2124986
37	0xbe52c3ae	-0.20582458
38	0xbe542807	-0.20718394
39	0xbe57d40e	-0.21076986
40	0x3e17de97	0.14831005
41	0xbe6199d0	-0.22031331
42	0xbe51d5d5	-0.20491727
43	0xbe5daeb8	-0.21648681
44	0xbe5cbfc3	-0.21557526
45	0x3e1f9d5f	0.15587376
46	0xbe657371	-0.22407319
47	0xbe5a31f5	-0.2130812
48	0xbe64731c	-0.22309536
49	0xbe61bded	-0.22045107
50	0x3e0aa087	0.13537799
51	0xbe6cab9a	-0.23112336
52	0xbe5f4355	-0.21803029
53	0xbe67d8ca	-0.22641292
54	0xbe63fa07	-0.22263347
55	0x3df16dba	0.11788507
56	0xbe5f5e7f	-0.21813391
57	0xbe50813f	-0.20361803
58	0xbe5da8e6	-0.21646461
59	0xbe5c6666	-0.21523437
60	0x3dd99a9c	0.106251925
61	0xbe604abd	-0.2190351
62	0xbe515731	-0.20443417
63	0xbe5ec774	-0.21755773
64	0xbe5e8656	-0.21730933
65	0x3dc0ae1b	0.09408208
66	0xbe598d08	-0.21245205
67	0xbe426203	-0.18982701
68	0xbe5f2dbe	-0.21794793
69	0xbe56bb52	-0.20969895
70	0x3dbeffa6	0.09326105
71	0xbe5ed821	-0.21762134
72	0xbe44dbc7	-0.19224463
73	0xbe673fba	-0.22582904
74	0xbe5a8e3f	-0.21343325
75	0x3c79c214	0.015244026
76	0xbd939089	-0.07205302
77	0xbd8db470	-0.06919181
78	0xbd89f1e7	-0.06735592
79	0xbd9307d7	-0.0717923

indicator_time_mixing.0.time_mixing.U1.1 f4 [1, 2]
0	0x370013e6	7.6340275e-06
1	0xb8061e4c	-3.1976306e-05

indicator_time_mixing.0.time_mixing.U1.2 f4 [1, 3]
0	0xb906a811	-0.00012841845
1	0xba35a6ce	-0.0006929458
2	0x3a2cb1f2	0.0006587795

indicator_time_mixing.0.time_mixing.U1.3 f4 [1, 4]
0	0xba09958c	-0.00052484195
1	0xbb47a76d	-0.0030464784
2	0x3b3dbd08	0.0028951783
3	0xb78e52f0	-1.696634e-05

indicator_time_mixing.0.time_mixing.U1.4 f4 [1, 5]
0	0x3aa4e837	0.0012581412
1	0xbaedd6c7	-0.0018145674
2	0xb997ad26	-0.0002892997
3	0xb9fbb73d	-0.00048010974
4	0x3b1cf379	0.0023948832

indicator_time_mixing.0.time_mixing.U1.5 f4 [1, 6]
0	0x3bbe510c	0.0058080014
1	0x3b4b9c13	0.003106837
2	0xbb297e97	-0.0025862807
3	0xbbd2794d	-0.0064231516
4	0x3aff6efc	0.0019488032
5	0x3b950af3	0.0045484244

indicator_time_mixing.0.time_mixing.U1.6 f4 [1, 7]
0	0xbb9d3ff0	-0.0047988817
1	0x3c115899	0.008871221
2	0xba5c1c7b	-0.0008396578
3	0xbb04b3e5	-0.0020248827
4	0xbbbf7c88	-0.0058437027
5	0x3bcfd036	0.0063419593
6	0xba412c8e	-0.0007369005

indicator_time_mixing.0.time_mixing.U1.7 f4 [1, 8]
0	0xbbaf01c8	-0.0053407885
1	0xbac4d83e	-0.0015018058
2	0xbb6f2ffc	-0.0036497107
3	0x3bd0f9ca	0.0063774334
4	0xbc1415d7	-0.00903841
5	0xbbba0c73	-0.0056777536
6	0x3c2f28e9	0.010690906
7	0xbb52afd8	-0.0032148268

indicator_time_mixing.0.time_mixing.U1.8 f4 [1, 9]
0	0x3aa7a72d	0.0012790911
1	0x3c024756	0.007951578
2	0xbc024ddf	-0.007953136
3	0xbb706be6	-0.0036685406
4	0xbbe31346	-0.006929788
5	0xbba4142b	-0.005007287
6	0x3bad9d23	0.005298273
7	0x3a4ea0ff	0.00078822667
8	0x3ada47f3	0.0016653523

indicator_time_mixing.0.time_mixing.U1.9 f4 [1, 10]
0	0xbb6bc5d9	-0.003597608
1	0x39ca3284	0.0003856608
2	0xbb54b987	-0.0032459216
3	0xbb761cb8	-0.0037553739
4	0x3bba5740	0.0056866705
5	0xbc26094e	-0.010134054
6	0x3c09007e	0.008361934
7	0x3ac119d7	0.0014732432
8	0xbaab3a11	-0.001306357
9	0x3b9fbeb0	0.0048750266

indicator_time_mixing.0.time_mixing.U1.10 f4 [1, 11]
0	0xbb06148b	-0.0020459022
1	0xbbe449fb	-0.006966827
2	0xbb007b35	-0.0019604687
3	0x3c2055ec	0.00978611
4	0xbb84249f	-0.004032686
5	0xbb2c934c	-0.0026332913
6	0x3b533c09	0.0032231829
7	0xbb6d50df	-0.0036211533
8	0xbb225270	-0.0024768375
9	0xbb750b0b	-0.0037390615
10	0x3bae2c20	0.0053153187

indicator_time_mixing.0.time_mixing.U1.11 f4 [1, 12]
0	0xbbec22a2	-0.007206277
1	0x3aea49c2	0.0017874765
2	0xbbd7660c	-0.006573444
3	0x3bc67dec	0.0060574915
4	0x3be2a1a3	0.0069162413
5	0x3c58c588	0.013230689
6	0xbc654071	-0.013992415
7	0xb8a471c5	-7.8413206e-05
8	0x3bb8d4b2	0.0056405896
9	0xbb0bd4ac	-0.002133648
10	0xbbfa8925	-0.0076457434
11	0x3a8276dc	0.0009953636

indicator_time_mixing.0.time_mixing.U1.12 f4 [1, 13]
0	0xbc04aebe	-0.008098302
1	0x3bd717cd	0.0065641166
2	0x3c1ffec6	0.009765333
3	0xbc1044fc	-0.00880551
4	0x3b27cd24	0.002560445
5	0x3a87985e	0.0010345092
6	0xbb0705de	-0.0020602862
7	0x3bd103a2	0.006378607
8	0x3b401f52	0.0029315543
9	0xbc270d1e	-0.0101959985
10	0x3b1c27f2	0.002382752
11	0xbb724e7b	-0.0036973048
12	0x3bb6ed37	0.0055824774

indicator_time_mixing.0.time_mixing.U1.13 f4 [1, 14]
0	0xbbbf946d	-0.005846551
1	0xbc5886c6	-0.013215726
2	0xbb13e83a	-0.0022568838
3	0x3a822f82	0.0009932371
4	0x3c9e24f6	0.019304734
5	0x3bb5c751	0.005547442
6	0xba3ba579	-0.0007158141
7	0x3b2783c7	0.0025560723
8	0xbb97752d	-0.0046221227
9	0x3b7b25bd	0.0038322054
10	0x3ab24007	0.0013599404
11	0x3bcc22d6	0.0062297387
12	0xbb88af48	-0.004171286
13	0xbb76e32e	-0.003767203

indicator_time_mixing.0.time_mixing.U1.14 f4 [1, 15]
0	0xbbaf1d38	-0.0053440593
1	0xbbf89a4d	-0.0075867535
2	0xbbf5bf54	-0.0074996147
3	0xbb53f6ff	-0.0032343266
4	0x3bc79cd3	0.006091693
5	0x3bccd417	0.006250869
6	0xbc871f9f	-0.01649457
7	0x3bc8654a	0.00611559
8	0x3ad10bce	0.0015948953
9	0xbb44bfbd	-0.0030021511
10	0x3af23808	0.0018479833
11	0x3c105f82	0.008811833
12	0x3ad81b20	0.0016487576
13	0xbb783b87	-0.0037877278
14	0xbba1343b	-0.0049195564

indicator_time_mixing.0.time_mixing.U1.15 f4 [1, 16]
0	0xbc5d9962	-0.013525339
1	0xbc049e0a	-0.00809432
2	0xbc2941eb	-0.0103306575
3	0x3b470f39	0.0030374064
4	0xbaba786b	-0.0014226561
5	0xbc3d91f7	-0.011570445
6	0xbba66423	-0.005077855
7	0xbc045a8d	-0.00807823
8	0x3b16b38e	0.0022995207
9	0xbc08e75a	-0.00835594
10	0xba7e4c98	-0.00097007444
11	0xbc15718d	-0.009121311
12	0xbba750b2	-0.005106055
13	0xbc483c53	-0.012221414
14	0xbc13cb51	-0.009020642
15	0xbab4a879	-0.0013783119

indicator_time_mixing.0.time_mixing.U2.1 f4 [1, 2]
0	0xbbbd02de	-0.005768164
1	0xbba44574	-0.0050131623

indicator_time_mixing.0.time_mixing.U2.2 f4 [1, 3]
0	0x3c07b11a	0.00828197
1	0x3b995722	0.0046795765
2	0xbb489b46	-0.0030610128

indicator_time_mixing.0.time_mixing.U2.3 f4 [1, 4]
0	0x3c69ea0c	0.0142769925
1	0x3c5c563e	0.013448296
2	0x3c1fc18b	0.009750734
3	0x3ab3e10f	0.0013723689

indicator_time_mixing.0.time_mixing.U2.4 f4 [1, 5]
0	0x3c0bc646	0.008531159
1	0x3c9a5615	0.018839875
2	0xbbfa618f	-0.0076410244
3	0xbb527186	-0.0032111122
4	0x3c709c88	0.014685757

indicator_time_mixing.0.time_mixing.U2.5 f4 [1, 6]
0	0xbbb5d9d4	-0.005549649
1	0xbbbc80a0	-0.005752638
2	0x3c756a76	0.014978996
3	0xbc13241b	-0.008980776
4	0xbc6d9d94	-0.014502902
5	0xbc6428f3	-0.013925779

indicator_time_mixing.0.time_mixing.U2.6 f4 [1, 7]
0	0x3c69b4b5	0.014264275
1	0x3ba1ae66	0.00493412
2	0x3c1344de	0.008988587
3	0x3c364c80	0.011126637
4	0x3c94621c	0.018113188
5	0x3b46917a	0.0030299113
6	0xbcd3d3a8	-0.025857762

indicator_time_mixing.0.time_mixing.U2.7 f4 [1, 8]
0	0x3b8e80aa	0.004348834
1	0x3c626b56	0.013819536
2	0x3cb68f64	0.02228517
3	0xbb0260b1	-0.0019894058
4	0xbc07e964	-0.008295391
5	0xbc1c1e4c	-0.009528708
6	0x3bcdbb7d	0.006278454
7	0x3cd65b63	0.026166623

indicator_time_mixing.0.time_mixing.U2.8 f4 [1, 9]
0	0xbc256fa9	-0.010097423
1	0xbb880316	-0.0041507585
2	0x3b7c66ae	0.003851335
3	0x3c9abe50	0.018889576
4	0xbb004eee	-0.0019578296
5	0xbc4ac6bf	-0.012376486
6	0xbaacdd42	-0.0013188499
7	0x3c9115a3	0.017710513
8	0x3b868f98	0.004106473

indicator_time_mixing.0.time_mixing.U2.9 f4 [1, 10]
0	0xb542b3a4	-7.2532043e-07
1	0x3cab6c3e	0.020925637
2	0x3c42119c	0.011845019
3	0xbc36b0ec	-0.01115058
4	0xbc008059	-0.0078431005
5	0x3c6a04fb	0.014283414
6	0xbbc039dc	-0.0058662724
7	0x3adc7801	0.0016820432
8	0x3ae680e0	0.0017586015
9	0xbb212e79	-0.002459435

indicator_time_mixing.0.time_mixing.U2.10 f4 [1, 11]
0	0x3a3d812b	0.00072290254
1	0x3c15821f	0.009125262
2	0xbc6ec8ce	-0.014574243
3	0x3cc06c8b	0.023489257
4	0x3b86a84f	0.0041094194
5	0xbbc455ed	-0.0059916885
6	0xba48f004	-0.00076651596
7	0xbc21913b	-0.009861286
8	0x3bc281d4	0.005935887
9	0x3c3edc32	0.011649178
10	0xb99ad5d2	-0.00029532477

indicator_time_mixing.0.time_mixing.U2.11 f4 [1, 12]
0	0x3c61a002	0.013771059
1	0x3c6182fb	0.013764138
2	0x3b82cafa	0.003991482
3	0x3c873337	0.016503913
4	0xbcb61f0c	-0.022231601
5	0xbc3cc856	-0.011522373
6	0x3c39e608	0.011346348
7	0x3be77942	0.0070640156
8	0xb95314c6	-0.00020130267
9	0x39cf9155	0.00039590398
10	0xbc639eff	-0.013892888
11	0x3c5033f4	0.012707699

indicator_time_mixing.0.time_mixing.U2.12 f4 [1, 13]
0	0x3b25720d	0.0025244982
1	0x3c3ddbd5	0.011588057
2	0x3b215c13	0.002462153
3	0xbc2036e1	-0.009778709
4	0x3ce6e6b0	0.028186172
5	0xbc06a381	-0.008217693
6	0x3a9e18bb	0.0012061814
7	0x3bd6a0a9	0.006549914
8	0xbc6b691f	-0.014368325
9	0xbc6ed79f	-0.014577775
10	0xba3f16db	-0.00072894775
11	0x39dce989	0.00042135667
12	0xbb502a11	-0.0031763355

indicator_time_mixing.0.time_mixing.U2.13 f4 [1, 14]
0	0x3ba89623	0.005144851
1	0xba7ee281	-0.0009723083
2	0xbcbf997f	-0.023388622
3	0x3a91a042	0.0011110383
4	0xbc05eb12	-0.008173721
5	0x3c521084	0.01282132
6	0x3bb15216	0.0054113967
7	0x3b5b28fe	0.0033441181
8	0xbc2b3b5b	-0.010451163
9	0xbbb5e56b	-0.0055510304
10	0x39b2cc73	0.00034103132
11	0xbae88baa	-0.0017741818
12	0x3c08280a	0.008310327
13	0x3c73fc72	0.014891731

indicator_time_mixing.0.time_mixing.U2.14 f4 [1, 15]
0	0xbb0f0bc3	-0.002182708
1	0x3b8e1a6e	0.0043366468
2	0x3bf3192a	0.0074187713
3	0x3c2fb872	0.0107251275
4	0x3ba79fcf	0.005115486
5	0xbcb1c4a3	-0.021700209
6	0x3c11c776	0.008897653
7	0xbc1517fc	-0.009099957
8	0xbc520174	-0.012817729
9	0xbc6619d1	-0.014044241
10	0xbc757025	-0.014980351
11	0xbb907eb6	-0.0044096364
12	0x3c44e0f0	0.01201652
13	0xbc594d75	-0.013263096
14	0x3af13639	0.0018403

indicator_time_mixing.0.time_mixing.U2.15 f4 [1, 16]
0	0x3b4d8bff	0.0031363962
1	0x3b927dde	0.004470571
2	0xbb721713	-0.0036940023
3	0xbbd2991c	-0.0064269435
4	0xbba2fef8	-0.0049742423
5	0x3c0e81c9	0.008697935
6	0xbc2abc4a	-0.010420868
7	0xbbe10a41	-0.0068676774
8	0x3b817cb2	0.0039516324
9	0x3c0638b4	0.00819223
10	0x3af68037	0.0018806522
11	0xbb72508a	-0.0036974275
12	0x3b859b70	0.0040773675
13	0x3b30fbbf	0.002700552
14	0xb96598e8	-0.00021896104
15	0xb9840cd5	-0.00025186563

indicator_time_mixing.0.fc.weight f4 [1, 5]
0	0xbcd02005	-0.025405893
1	0x3e9c9d0e	0.30588573
2	0x3e666fc4	0.22503573
3	0x3eae9a67	0.34102175
4	0x3e974aac	0.29549158

indicator_time_mixing.1.indicator_mixing.W1 f4 [5, 64]
0	0x3c25f226	0.0101285335
1	0xbf061f68	-0.5239167
2	0xbd961648	-0.073284686
3	0x400470c8	2.0693836
4	0xbf8d39f6	-1.1033313
5	0xbf4d1f50	-0.80125904
6	0x3f0fb0b0	0.5612898
7	0xbe2e19d0	-0.17002034
8	0x3f33adcf	0.70187086
9	0xbcd9513e	-0.026527997
10	0x3f77e126	0.96827924
11	0x3f477493	0.77912253
12	0xbe9f3d19	-0.311013
13	0x3eb08221	0.3447428
14	0x3f8dc434	1.1075501
15	0x3ee52182	0.44752127
16	0xbd9775fe	-0.07395552
17	0x3f92c33e	1.1465833
18	0xbee152f8	-0.44008613
19	0x3fd71ad4	1.6805062
20	0x3fe213bc	1.7662272
21	0xbef82e7c	-0.48472965
22	0x3d4706a0	0.048590302
23	0x3eef653a	0.46756917
24	0x3f6c834b	0.9238784
25	0xbfdb4da7	-1.7133073
26	0x3e3ab62c	0.18233556
27	0xbebafad7	-0.365195
28	0xbf4d0a7c	-0.8009412
29	0xbfb558fe	-1.4167783
30	0xbdfc5f50	-0.12322867
31	0xbe19ab03	-0.15006642
32	0xbfbe5f84	-1.4872899
33	0x3cd9d856	0.026592415
34	0xbeb6075b	-0.35552487
35	0xbf691c18	-0.9105849
36	0xbef74fd8	-0.48303103
37	0x3cc1088e	0.02356365
38	0x3e0fdc4b	0.14048879
39	0xbeeb2041	-0.45923045
40	0xbe41befe	-0.18920514
41	0xbd975817	-0.07389849
42	0xbe326c2c	-0.17424077
43	0x3ed0924a	0.4073661
44	0xc002d167	-2.044031
45	0x3f005ad6	0.50138605
46	0x3e294250	0.16529202
47	0x3e82308f	0.25427672
48	0xbf49deaa	-0.78855383
49	0xbf3a85d2	-0.72860444
50	0xbf5ff843	-0.8748819
51	0x3ee0bbc7	0.43893263
52	0x3ff23487	1.892228
53	0x3e8f48e2	0.27985293
54	0xbe738d1f	-0.23784302
55	0x3f2fed90	0.68721867
56	0x3f012367	0.50444645
57	0xbe2d992b	-0.1695296
58	0x3fdf44b6	1.7442844
59	0xbfd28280	-1.6446075
60	0xbfad2a9b	-1.3528627
61	0x3f3d0de1	0.738493
62	0xbef451bc	-0.47718608
63	0x3f1e2649	0.6177717
64	0xbfcdb341	-1.6070329
65	0xbf15720f	-0.58377165
66	0x3e893152	0.2679544
67	0x3faed639	1.3659126
68	0x3efd2ce0	0.494483
69	0xbf2fb7ba	-0.6863972
70	0xbf43cd63	-0.7648527
71	0xbf0d3569	-0.5515962
72	0x3f337dcb	0.7011382
73	0xbed36bdd	-0.4129323
74	0x40042ea4	2.0653467
75	0x3e19f19a	0.1503357
76	0x3fac5195	1.3462397
77	0x3dcbe7ae	0.09956299
78	0xbf062336	-0.5239748
79	0x3e4a03d7	0.19728027
80	0xc017f0c3	-2.37407
81	0xbee40923	-0.4453822
82	0x3faa131a	1.3287079
83	0xbf77ee35	-0.9684785
84	0xbf53cc40	-0.82733536
85	0x401a4947	2.4107225
86	0x3f6a8002	0.91601574
87	0xbf15de60	-0.5854244
88	0x3f89bfd8	1.0761671
89	0xbfb07d44	-1.3788228
90	0xbf969064	-1.1762815
91	0xbf19af85	-0.60033447
92	0x3f8ede20	1.1161537
93	0x3fef1931	1.8679563
94	0xbf626cd4	-0.8844731
95	0xbf976c11	-1.1829854
96	0xbf6ccabe	-0.9249686
97	0xbdb88bf7	-0.09011071
98	0xbdacad6a	-0.084315136
99	0x3d25e0fb	0.04049776
100	0x3eb196ab	0.34685263
101	0x3fa6dc84	1.3036046
102	0x3f85e83d	1.0461498
103	0xbf577993	-0.8416988
104	0xbf03efa7	-0.51537555
105	0xbfac3923	-1.3454937
106	0xbe99b282	-0.30019003
107	0xbe8502f0	-0.25978804
108	0xbe4a8018	-0.19775426
109	0xbd1a3566	-0.03764858
110	0xc004438c	-2.0666227
111	0x3fc31bf2	1.5242903
112	0xbc0bb529	-0.008527079
113	0xbff83323	-1.9390606
114	0x3fc79036	1.5590885
115	0x3f19ffff	0.60156244
116	0x4011817a	2.2735276
117	0xc02154a8	-2.520792
118	0x3e94024d	0.28908005
119	0xbf52d207	-0.82351726
120	0x3f7e74ad	0.99396783
121	0x3e8eafa1	0.2786837
122	0xbf429767	-0.7601227
123	0x3eec6653	0.46171817
124	0xbd0938f1	-0.03350157
125	0xbc4b2589	-0.012399086
126	0xbfc58405	-1.5430914
127	0xbdc11632	-0.094280615
128	0xbfd09604	-1.6295781
129	0x3f4258c7	0.75916713
130	0xbedee992	-0.43537575
131	0x3f1b1392	0.60576737
132	0x3eb50e2c	0.35362375
133	0xbf540350	-0.82817554
134	0x3ee616b6	0.44939202
135	0xbd32860a	-0.04358486
136	0xbeca4f11	-0.39513448
137	0xbed67bcc	-0.41891325
138	0x3dd92bd1	0.106040604
139	0x3f06b4a5	0.5261939
140	0x3ecb9f71	0.39770082
141	0x3e7a11d3	0.24420862
142	0x3f8bb0a2	1.0913279
143	0x40139a66	2.3062987
144	0xbf165f45	-0.5873912
145	0xbe7701d5	-0.24121793
146	0xbe299ebe	-0.16564462
147	0xbf6d86ae	-0.9278363
148	0x3ff8a2c0	1.9424667
149	0xbe42a9fc	-0.19010156
150	0x3fb92ac7	1.446618
151	0x3f26d172	0.6516334
152	0xbeac05f0	-0.3359828
153	0x3f8f88e0	1.1213646
154	0xbe51dd29	-0.20494522
155	0xbde1a618	-0.11018008
156	0x3f3a2953	0.72719306
157	0x3faf0824	1.3674359
158	0xbf1a7222	-0.603304
159	0xbf2f1e6c	-0.68405795
160	0x3f55b847	0.8348431
161	0x3f4c9311	0.79911906
162	0x3f82e594	1.0226312
163	0xbf84c64e	-1.0373018
164	0x3f8e4e4a	1.1117642
165	0x3f74aaa2	0.95572865
166	0xbe5e5fd4	-0.21716243
167	0xbf81385f	-1.0095328
168	0x3fdedad8	1.7410536
169	0xbef00ef8	-0.4688642
170	0x3e2fd8c0	0.17172527
171	0x3f6b2b3e	0.9186286
172	0x3ee20b14	0.44149077
173	0xbf94a2c1	-1.1612169
174	0xbf145b6c	-0.57952
175	0x3de443a2	0.111457124
176	0xbf82f83c	-1.0232005
177	0xc00b5289	-2.1769125
178	0x4002e813	2.0454147
179	0xbe47c26a	-0.19507757
180	0x3e87c323	0.26516065
181	0xbf83758f	-1.0270251
182	0xbed8fc46	-0.4237997
183	0x3ef9aaf0	0.48763227
184	0x3f897f28	1.074193
185	0xbe6e9af9	-0.23301305
186	0x4031186f	2.7671163
187	0xbea2cfa3	-0.3179904
188	0x3f08872b	0.5333125
189	0xbe73e4de	-0.23817775
190	0xbfd011ef	-1.6255473
191	0xbfdc7156	-1.7222087
192	0xbee9b237	-0.4564378
193	0x3eeca87c	0.46222293
194	0xbf4c186b	-0.7972476
195	0x3f2f616c	0.6850803
196	0xbf4a6be6	-0.7907089
197	0xc01025e1	-2.252312
198	0xbee14f94	-0.44006026
199	0x3d84848b	0.06470593
200	0xbe32efa8	-0.17474234
201	0x3f06db34	0.5267823
202	0x4029b956	2.651937
203	0x3fb5494f	1.4162997
204	0xbf952048	-1.1650476
205	0x3eab9bcd	0.33517304
206	0xbfc3e099	-1.5302917
207	0xbf2b411a	-0.6689621
208	0xbe76b113	-0.24090986
209	0x3eae93f4	0.34097254
210	0x401ced85	2.451997
211	0x3f014a36	0.5050386
212	0x3f4e8c01	0.8068238
213	0x3f28fab1	0.66007525
214	0xbf983510	-1.1891193
215	0xbe713e5b	-0.23558943
216	0x3ffd17d6	1.9772899
217	0xbc213289	-0.009838709
218	0x3f9685b5	1.1759554
219	0x3f722258	0.94583654
220	0x3f1e8abc	0.6193044
221	0xc021eae6	-2.529962
222	0x3fc63a38	1.5486517
223	0x3d4df22a	0.050279774
224	0xbf8388d4	-1.0276132
225	0x3de7cb54	0.11318079
226	0xbedb2532	-0.42801815
227	0x3e64d761	0.22347786
228	0x40293f7f	2.6445005
229	0xbfad0d33	-1.3519653
230	0xbf4159f5	-0.7552789
231	0x3f136857	0.57581085
232	0xbf056c44	-0.52118325
233	0xbeca3f4e	-0.39501423
234	0xc01cb839	-2.448744
235	0xbf93d3a6	-1.1548965
236	0x3dc07c70	0.093987346
237	0x3e04e6a3	0.12978606
238	0x3e63477a	0.22195235
239	0x3fba7b0e	1.4568803
240	0xbfe1afec	-1.7631812
241	0xbecb766a	-0.3973878
242	0x3f08aef0	0.53391933
243	0xbfceaa6e	-1.6145761
244	0xbe0cc529	-0.13747086
245	0x3fb641f8	1.4238882
246	0x3de87274	0.11349955
247	0xbe4140ae	-0.1887233
248	0x3d8fdad9	0.07024164
249	0x3ee9208f	0.45532653
250	0xbae011e0	-0.0017095171
251	0x3fd734ee	1.6813028
252	0x3f945ad4	1.1590219
253	0x3f29bf46	0.66307485
254	0x3d2a7a2f	0.04162043
255	0x40026e1a	2.03797

indicator_time_mixing.1.indicator_mixing.W2 f4 [64, 5]
0	0x3d83d554	0.064371735
1	0x3fd5bfae	1.6699121
2	0x3cc7e2ea	0.024400193
3	0x3f3f7f88	0.7480397
4	0x3f971aed	1.1805092
5	0x3db79f3e	0.0896592
6	0x3f572320	0.8403797
7	0x3f13f957	0.5780234
8	0x3f7a0544	0.97664285
9	0xbef1e52c	-0.47245157
10	0x3f965510	1.1744709
11	0xbeb2a316	-0.3489005
12	0x3e9033e1	0.2816458
13	0xbf939c72	-1.1532118
14	0xbfca0222	-1.5781901
15	0x3f9c45e7	1.2208833
16	0x3fc270e4	1.5190701
17	0xbf0fcb9d	-0.56170064
18	0xbf0825b9	-0.5318256
19	0xbda6e285	-0.08148674
20	0xbf868e2c	-1.0512137
21	0xbe0e02f9	-0.13868321
22	0xbf219005	-0.6311038
23	0x3f21830f	0.63090605
24	0x3fa9fa7a	1.3279564
25	0x3eaa4019	0.33252028
26	0x40027f87	2.0390337
27	0xbf8fc830	-1.1232967
28	0xbff12013	-1.8837913
29	0xbfbce049	-1.4755946
30	0xbdb525ed	-0.088451244
31	0x3f79d678	0.9759288
32	0x3f712435	0.9419587
33	0x3d31860c	0.043340728
34	0x4004ccd5	2.075002
35	0xbfea6f0f	-1.8315142
36	0x3f951755	1.1647745
37	0xbe9f0528	-0.3105862
38	0x3fb51f76	1.4150226
39	0xbeb880b8	-0.36035705
40	0xbfa42dcb	-1.2826475
41	0x3fe276ef	1.7692546
42	0xc00085b9	-2.0081618
43	0xbf41649d	-0.7554415
44	0xbfdc63a8	-1.7217913
45	0xbfef54f0	-1.8697796
46	0x40083bd0	2.1286507
47	0x3f805766	1.0026672
48	0x3eaee968	0.3416245
49	0x3f15c33f	0.58501047
50	0x3f1180e1	0.5683728
51	0x400b972b	2.1811016
52	0x3f850f94	1.0395379
53	0x3eae466b	0.340381
54	0x3fd3e305	1.6553656
55	0x3e810d0d	0.2520527
56	0x3f40ce0e	0.75314415
57	0xbf283531	-0.65706164
58	0x3f2a6bf4	0.66570973
59	0xbfd123f3	-1.6339096
60	0x3eb14bea	0.3462823
61	0xbe9ac52a	-0.3022855
62	0xbe8d7bbf	-0.27633473
63	0x3e9c1e05	0.30491653
64	0x3fce77cf	1.6130313
65	0xbe53f4c9	-0.20698847
66	0xbf260c1f	-0.64862245
67	0xbed371e7	-0.41297838
68	0xbef37eb4	-0.47557604
69	0x3f445321	0.76689345
70	0x3f85f97c	1.0466762
71	0x3f71a66a	0.9439455
72	0x3c9d09ab	0.01916965
73	0x3f1d12aa	0.61356604
74	0xbfc09497	-1.5045346
75	0x3fbddd9d	1.4833256
76	0xbf8ccaaf	-1.0999354
77	0x4007f30d	2.1242096
78	0xbd545ca8	-0.051846176
79	0xbf3499d6	-0.70547235
80	0x3f740d29	0.9533258
81	0xbfa20d3b	-1.2660288
82	0xbebbee91	-0.3670545
83	0xbfc8ca2e	-1.56867
84	0xbf8109e5	-1.0081145
85	0xbf1c71f8	-0.611114
86	0xbf16e51c	-0.58943343
87	0x3f0ffaa2	0.5624181
88	0xbfa6b12c	-1.3022819
89	0x3decf361	0.11569858
90	0x3f52e7f8	0.82385206
91	0xbf8d3ba5	-1.1033827
92	0x3e7f9b00	0.24961472
93	0x3c76599a	0.015036011
94	0xbfaa15d0	-1.3287907
95	0xbf3b8c92	-0.7326137
96	0xbfbf610d	-1.4951493
97	0x3f262a3a	0.6490818
98	0x3da97b8e	0.08275519
99	0xbe99e222	-0.30055338
100	0x3f4d2f92	0.8015071
101	0xbe92c61b	-0.28666767
102	0x3e433141	0.19061758
103	0x3e87a829	0.26495484
104	0xbf18f1ae	-0.59743774
105	0x3ffd8309	1.9805614
106	0xc01ddc92	-2.4665875
107	0xbf3873c7	-0.7205166
108	0x3f1c7020	0.6110859
109	0x3e6e0c62	0.23246911
110	0xbf0f29b0	-0.55922985
111	0xbf7e8342	-0.99419034
112	0x3f73ff9e	0.95311916
113	0xbe31ee34	-0.17376024
114	0x3fe2959a	1.7701905
115	0x3f58a64d	0.84628755
116	0xbe77a9b5	-0.24185832
117	0xbfcdbbd6	-1.6072948
118	0x3f0bb454	0.54572034
119	0x3ee50a18	0.44734263
120	0x3f0c6939	0.5484806
121	0xbb67f33b	-0.003539278
122	0xbe4bcb2b	-0.19901721
123	0xbf28f235	-0.6599458
124	0xbe216c1a	-0.15763894
125	0x3fdef422	1.7418253
126	0x3fc11889	1.5085613
127	0x3f1a491f	0.60267824
128	0x3f97117b	1.180221
129	0x3fa43817	1.2829617
130	0xbee88b2f	-0.4541869
131	0x3faf2a9e	1.3684881
132	0xbf525046	-0.8215374
133	0xbf311d99	-0.6918579
134	0xbf1852c0	-0.59501266
135	0xbf3365ed	-0.700774
136	0xbee46920	-0.44611454
137	0xbded513e	-0.11587761
138	0x3fe12998	1.7590818
139	0x3e1a075d	0.15041871
140	0xbf1515c7	-0.58236355
141	0xbebc2c87	-0.36752722
142	0xbfa7e5b0	-1.311697
143	0x3ec20e85	0.37901703
144	0xbf1708b2	-0.58997643
145	0xbe195009	-0.14971937
146	0x3e1d766e	0.15377209
147	0x3fe798da	1.8093522
148	0xbec0c96c	-0.37653673
149	0xbfcc0b1e	-1.5940893
150	0x3fdca089	1.7236491
151	0xbeb1bb24	-0.3471309
152	0xbf501544	-0.8128245
153	0xbfdb1a1f	-1.7117347
154	0x3f03e27b	0.51517457
155	0xbf9fd34e	-1.248636
156	0x3f8a9e45	1.082955
157	0xc009dc3a	-2.1540666
158	0xbeae3a8c	-0.34029043
159	0x3f0a05f7	0.5391535
160	0x3f0d1ae6	0.5511917
161	0x3f29e921	0.6637135
162	0x3fbd202b	1.4775442
163	0xc0038ddb	-2.0555332
164	0xbf77149a	-0.9651581
165	0xbf2f760b	-0.68539494
166	0xbf21094d	-0.62904817
167	0x3f81a05e	1.0127065
168	0xbef04e95	-0.46934953
169	0x3e969c92	0.2941633
170	0x403f299f	2.9869153
171	0xbf8ad2d3	-1.0845588
172	0xbfc58b13	-1.5433067
173	0x3ef3b126	0.4759609
174	0x3ff870bd	1.9409405
175	0xbebb6af4	-0.36605036
176	0xbe59d0b4	-0.2127102
177	0xbe885326	-0.26625937
178	0xbe6841f2	-0.22681406
179	0x3ec44f29	0.38341644
180	0xbffc7e63	-1.972607
181	0x3ff5c674	1.9201188
182	0xbfbfae0f	-1.4974993
183	0x3ecf4ca4	0.4048816
184	0x3edad20e	0.42738384
185	0x3f871c66	1.0555542
186	0x3f558856	0.8341116
187	0x3f4215cb	0.75814503
188	0xbfbc41ef	-1.4707621
189	0xbf9a204c	-1.2041106
190	0xbed9ffe8	-0.42578053
191	0xbf219b37	-0.63127464
192	0x3e75d2a7	0.24006139
193	0x3e109d60	0.14122534
194	0x3f2742d4	0.65336347
195	0x3f696d77	0.91182655
196	0x3f843d2f	1.0331172
197	0x3f0e9ada	0.55705035
198	0x3e88d2b1	0.26723245
199	0x3f43e3dc	0.7651956
200	0xbfcec251	-1.6153051
201	0x3f09783f	0.53699106
202	0xbe7a50db	-0.24444906
203	0x3e8f62f5	0.28005186
204	0x3c45203b	0.01203161
205	0xc00ef28b	-2.2335536
206	0x3e0153a7	0.12629567
207	0x4021f45f	2.5305402
208	0xbe956b54	-0.29183447
209	0xbf1e6837	-0.6187777
210	0x3f841649	1.0319301
211	0xbed3a99a	-0.41340333
212	0xc01e488d	-2.4731781
213	0x3f68caf3	0.90934676
214	0x3f70c41a	0.9404923
215	0xbef1df25	-0.47240558
216	0xbf35b04a	-0.7097212
217	0x3c03edda	0.008052314
218	0xbe344aee	-0.17606708
219	0xbf119bef	-0.5687856
220	0x3fa09f1b	1.2548555
221	0xbf760377	-0.96099037
222	0xbfa43c8f	-1.2830981
223	0x3f065679	0.52475697
224	0xbf810d67	-1.0082215
225	0x3ea18d14	0.31552947
226	0x3e873f12	0.26415306
227	0xbf9ee8e8	-1.2414827
228	0xbf7b7193	-0.98220176
229	0xbd2bbd9e	-0.04192888
230	0x3fb32db6	1.3998325
231	0x3dfa604a	0.12225397
232	0x3f008802	0.5020753
233	0x3f880e21	1.0629312
234	0x3f060696	0.523538
235	0xbec5bb73	-0.38619575
236	0xbf6dc42c	-0.9287746
237	0xbe835c6c	-0.2565645
238	0x3f55c0f4	0.8349755
239	0xbedf6c2a	-0.4363721
240	0x400c7d28	2.195139
241	0x3e60a921	0.21939518
242	0xbee51db9	-0.4474924
243	0xc00b79d8	-2.1793118
244	0xbff95c69	-1.9481326
245	0xbeb1b00c	-0.34704626
246	0x4022d58b	2.5442836
247	0xbfa0218a	-1.2510235
248	0x3f99f5bc	1.2028117
249	0x3f72a02a	0.9477564
250	0x3d6f20ed	0.05838101
251	0xbfc197d0	-1.5124454
252	0x3f24bf15	0.6435407
253	0xbe3625a7	-0.177878
254	0x3f5c53cf	0.8606538
255	0x3f4cebd3	0.8004734

indicator_time_mixing.1.indicator_mixing.ln.weight f4 [8, 5]
0	0x3f805d4e	1.0028474
1	0x3f729db2	0.94771874
2	0x3f70af12	0.94017136
3	0x3f7d63c0	0.9898033
4	0x3f75e4b5	0.96052104
5	0x3f7b1570	0.98079586
6	0x3f811feb	1.0087866
7	0x3f740c7b	0.95331544
8	0x3f8790b9	1.0591041
9	0x3f7d147b	0.98859376
10	0x3f73f042	0.9528848
11	0x3f7c6901	0.98597723
12	0x3f80d7bd	1.0065838
13	0x3f7bb497	0.98322433
14	0x3f7e939f	0.99444
15	0x3f811350	1.0084019
16	0x3f794aaf	0.97379583
17	0x3f6e4386	0.9307178
18	0x3f8b749b	1.089496
19	0x3f7d7fbc	0.9902303
20	0x3f81b42f	1.0133113
21	0x3f815ebf	1.0107039
22	0x3f84dc55	1.037974
23	0x3f83191f	1.0242041
24	0x3f7e7558	0.993978
25	0x3f840308	1.0313425
26	0x3f6ec1e0	0.9326458
27	0x3f71eabb	0.94498795
28	0x3f7db831	0.9910918
29	0x3f818384	1.011826
30	0x3f811887	1.008561
31	0x3f839694	1.0280328
32	0x3f90728c	1.1284957
33	0x3f7d7233	0.9900238
34	0x3f8057d4	1.0026803
35	0x3f9a2988	1.2043924
36	0x3f28a4cb	0.65876454
37	0x3f637eff	0.88865656
38	0x3f6f83cd	0.9356049
39	0x3f825136	1.0181034

indicator_time_mixing.1.indicator_mixing.ln.bias f4 [8, 5]
0	0xbc8fcbcf	-0.017553238
1	0x3cb0985b	0.021557024
2	0xba70d9b0	-0.00091877114
3	0xbbcf0407	-0.006317619
4	0x3ce1eab0	0.027577728
5	0xbbc9f244	-0.0061629135
6	0xbaf66a5b	-0.0018800007
7	0x3d72b4fc	0.05925463
8	0x3d707ee2	0.058714755
9	0xbc2a6379	-0.010399693
10	0xbd00c308	-0.031435996
11	0x3c064c26	0.008196866
12	0xbcbad157	-0.0228049
13	0xbbcadb54	-0.0061906967
14	0x3cc18fcd	0.02362814
15	0xbbf92f18	-0.007604491
16	0x3c0b2bc2	0.008494319
17	0x3c99b88f	0.018764762
18	0x3dc65797	0.09684675
19	0xbc862b37	-0.016378028
20	0x3cbe1e5e	0.02320784
21	0xbbac8206	-0.0052645234
22	0xbce2eddb	-0.027701309
23	0x3cc5dd79	0.024153458
24	0x3b9d219d	0.004795267
25	0x3c23146f	0.009953602
26	0x3d4dbc5e	0.05022847
27	0x3d58054d	0.05273943
28	0x3b1d5cf6	0.0024011708
29	0xbcdfd268	-0.02732201
30	0x3d0b2a92	0.033976145
31	0xbc314888	-0.010820515
32	0xbcf23f50	-0.029571205
33	0x3c1189d3	0.0088829575
34	0x3bdc29fd	0.0067188726
35	0x3ddd5995	0.10808102
36	0x3e7512c8	0.23932946
37	0x3d603154	0.054734543
38	0xbdf3a558	-0.11896771
39	0xbc00229b	-0.007820751

indicator_time_mixing.1.time_mixing.ln.weight f4 [8, 5]
0	0x3f7eb8b9	0.99500614
1	0x3f6f109b	0.9338471
2	0x3f80e9bd	1.0071331
3	0x3f850347	1.0391625
4	0x3f4c1298	0.7971587
5	0x3f7b946c	0.9827335
6	0x3f7e3503	0.9929964
7	0x3f81489a	1.0100281
8	0x3f842469	1.0323611
9	0x3f637e2e	0.8886441
10	0x3f82d814	1.0222192
11	0x3f71a251	0.943883
12	0x3f81661f	1.010929
13	0x3f8058bc	1.002708
14	0x3f780433	0.9688141
15	0x3f82ca99	1.0218078
16	0x3f794caa	0.97382605
17	0x3f81b1fb	1.013244
18	0x3f88b456	1.0680034
19	0x3f664e87	0.89963573
20	0x3f75b681	0.95981604
21	0x3f7f3194	0.99685025
22	0x3f800aeb	1.0003332
23	0x3f7e8231	0.99417406
24	0x3f6cb34a	0.92461073
25	0x3f7d7e22	0.9902059
26	0x3f796633	0.9742157
27	0x3f815fd9	1.0107375
28	0x3f7c033f	0.98442453
29	0x3f6d0bef	0.92596334
30	0x3f85ab42	1.0442889
31	0x3f7aa97f	0.9791488
32	0x3f81dba5	1.0145155
33	0x3f82b26f	1.0210704
34	0x3f700a85	0.9376605
35	0x3f828a27	1.0198411
36	0x3f81dac1	1.0144883
37	0x3f7428ef	0.9537496
38	0x3f7ccee8	0.98753214
39	0x3f66bbf7	0.9013056

indicator_time_mixing.1.time_mixing.ln.bias f4 [8, 5]
0	0x3aa48841	0.0012552814
1	0xbbe524cc	-0.006992912
2	0xbb894ab9	-0.004189816
3	0xba9be277	-0.0011893053
4	0x3b2eb0a7	0.0026655586
5	0xbc95d282	-0.018288855
6	0xb9b6f40f	-0.00034895583
7	0xbc5ac007	-0.013351447
8	0x3c507d9b	0.012725259
9	0x3c966e27	0.018363072
10	0xbaef5172	-0.0018258526
11	0xbcb6927f	-0.022286652
12	0xbb487776	-0.0030588782
13	0x3b60d70a	0.003430786
14	0x3a00a521	0.00049074186
15	0xbc9ea4b9	-0.019365655
16	0xba2d8175	-0.0006618717
17	0xbc70bc28	-0.014693297
18	0x3c66cc00	0.014086723
19	0x3caad7a3	0.020854777
20	0xb9cad460	-0.00038686674
21	0xbb4e1dee	-0.0031450945
22	0x3b64eb7a	0.0034930394
23	0xbb6ffe75	-0.0036620174
24	0xb91669fc	-0.00014344597
25	0xbc96949f	-0.018381415
26	0xbc6faf7c	-0.014629241
27	0xbc5738cb	-0.013136099
28	0x3c251028	0.010074653
29	0x3c82e1e9	0.015976863
30	0xbccd221d	-0.02504068
31	0xbc2134f1	-0.009839282
32	0xbc82d651	-0.015971335
33	0x3c81f918	0.015865847
34	0x3cbf3766	0.023341846
35	0x3baf8807	0.005356792
36	0x3b17e7a5	0.0023178842
37	0x3c5d026c	0.013489347
38	0xbc36b870	-0.011152372
39	0xbb84119b	-0.004030419

indicator_time_mixing.1.time_mixing.U1.1 f4 [1, 2]
0	0xb9f7af52	-0.00047242135
1	0x3a599073	0.00082994177

indicator_time_mixing.1.time_mixing.U1.2 f4 [1, 3]
0	0x399aa913	0.0002949914
1	0xbb8502a2	-0.0040591517
2	0x3b30a001	0.0026950839

indicator_time_mixing.1.time_mixing.U1.3 f4 [1, 4]
0	0xbc55493e	-0.013017951
1	0x3ba666cf	0.0050781737
2	0x3940d471	0.00018389687
3	0x3c26beb2	0.010177301

indicator_time_mixing.1.time_mixing.U1.4 f4 [1, 5]
0	0x3b7c684f	0.0038514321
1	0x3b4d171e	0.0031294296
2	0x3c7e01e9	0.015503385
3	0xbc89fffd	-0.016845698
4	0xbc0679bd	-0.008207736

indicator_time_mixing.1.time_mixing.U1.5 f4 [1, 6]
0	0xba8b982b	-0.0010650208
1	0x3c3789a5	0.011202251
2	0xbc597612	-0.013272779
3	0x3c499aab	0.012304942
4	0xbb5b3480	-0.003344804
5	0xbb3c6cca	-0.0028751367

indicator_time_mixing.1.time_mixing.U1.6 f4 [1, 7]
0	0xbb6efa1b	-0.0036464992
1	0xbbafd09a	-0.0053654434
2	0xbc11d359	-0.008900487
3	0x3c26a33a	0.010170752
4	0xbabce456	-0.0014411311
5	0x3aa84f5c	0.0012841034
6	0x3c08fabe	0.008360563

indicator_time_mixing.1.time_mixing.U1.7 f4 [1, 8]
0	0x3c3e74c4	0.011624519
1	0xba9dd2d7	-0.0012040985
2	0x3cdb6691	0.026782306
3	0xbba8535e	-0.0051368913
4	0xbc4a498f	-0.012346639
5	0xbab98985	-0.0014155364
6	0xbc76ee7d	-0.0150715085
7	0xba51047c	-0.00079733855

indicator_time_mixing.1.time_mixing.U2.1 f4 [1, 2]
0	0x3ca42ccf	0.020040898
1	0xba8513f8	-0.0010153046

indicator_time_mixing.1.time_mixing.U2.2 f4 [1, 3]
0	0x3ad5d59a	0.0016314269
1	0x39da41b5	0.00041629156
2	0xbbc50dec	-0.0060136225

indicator_time_mixing.1.time_mixing.U2.3 f4 [1, 4]
0	0x3c069e2a	0.00821642
1	0xbb899310	-0.0041984394
2	0x3c4cf301	0.0125091085
3	0xbcec71e2	-0.028862897

indicator_time_mixing.1.time_mixing.U2.4 f4 [1, 5]
0	0x3be55fa3	0.006999926
1	0xbc6525f6	-0.013986101
2	0x3c3da782	0.0115755815
3	0xbbfa1fb3	-0.0076331734
4	0xbc21fbef	-0.009886726

indicator_time_mixing.1.time_mixing.U2.5 f4 [1, 6]
0	0xbcb4b11e	-0.022057112
1	0xbc699213	-0.014256018
2	0xbc3e058c	-0.011598002
3	0xbb14b4f0	-0.0022690855
4	0xbb931501	-0.004488588
5	0xbc911fd3	-0.01771537

indicator_time_mixing.1.time_mixing.U2.6 f4 [1, 7]
0	0xbc05ac8d	-0.008158815
1	0xbc44f0fc	-0.012020346
2	0x3c3beb8e	0.011469735
3	0xbc507f8a	-0.01272572
4	0x37a4885c	1.961382e-05
5	0x3c5072c6	0.012722677
6	0xbb2a9e4a	-0.002603429

indicator_time_mixing.1.time_mixing.U2.7 f4 [1, 8]
0	0x3b4e8cbc	0.003151699
1	0xbabe5442	-0.001452096
2	0x3d145d88	0.03622201
3	0xbc9bdaab	-0.019025167
4	0x3be493b2	0.0069756145
5	0x3d43e9de	0.047830455
6	0xbbc48f70	-0.0059985444
7	0x3a9d28b9	0.0011990286

indicator_time_mixing.1.fc.weight f4 [1, 5]
0	0xbea1b986	-0.31586856
1	0xbd380f30	-0.04493636
2	0xbe4bb7e2	-0.19894364
3	0x3dc367eb	0.09541305
4	0x3e83de9c	0.25755775
