weights/stockmixer_wo_stock_L16_H64_M40_K4_E50_s2.pt (torch, 55610 bytes, 89 tensors)

indicator_time_mixing.0.indicator_mixing.W1 f4 [5, 64]
-0.6392375 -1.027045 -0.08741182 0.37469625 -0.90707433 1.0215514 0.49274644 0.61962426
-1.8625355 0.10004921 2.0622694 -0.19072786 0.06261406 -1.2125432 0.617058 -0.826171
-0.25727928 2.1481779 0.40617168 -1.0656873 -1.4550736 -1.1459508 0.14789692 -0.8432099
3.2148569 0.5969006 1.1153505 0.2778217 -0.10585477 0.6921917 0.06264 -0.69709283
-0.10916541 0.40599367 0.8905518 1.6795653 1.174081 1.212364 -0.8940328 -0.26381165
-1.1457442 0.7527821 -0.59672284 0.8618494 -2.7403028 0.81378984 0.7622229 0.15322238
-0.2418119 0.47079885 1.1433665 -0.014797848 -0.45244184 0.6357903 1.3022561 -1.0237387
0.21347193 2.2671309 1.3846524 -0.47406766 -0.1588371 0.5964022 0.32086253 0.5894788
0.5305418 0.6081611 1.5225657 -0.47606748 -1.1338459 -2.2429073 -0.16443986 0.366595
-0.4620453 1.837258 -0.9816686 1.1578233 -0.5611691 0.17494756 0.15496343 0.12621945
0.14682004 0.68812764 -0.19889651 -1.2920702 -2.4627628 -0.868725 -1.080762 0.014281493
-0.563227 -1.0332619 -0.7934763 -1.2880465 0.42045826 -0.2451583 -0.24342732 -0.3010347
1.2946417 -0.62637967 1.7188323 1.1546806 -0.5683782 -0.13288553 -0.0046642474 -0.20667107
-1.4394782 -0.32192218 0.07552523 -0.025903922 -0.7459268 -0.52703464 -0.632265 0.8909445
1.5587758 -1.584205 -0.46657065 -1.296718 -0.04972268 -0.27083182 -0.5417284 1.8071975
0.61816627 -0.4806407 -0.079929814 0.8546316 0.39917636 0.39959255 0.11548159 -0.62140846
1.3455062 -1.0616431 0.61226535 -0.88136077 1.1183338 -0.443905 -0.08691238 -1.2802917
-0.8775244 -0.9821158 1.0211432 0.08416779 0.06275258 -0.7202795 -0.8763592 -2.3353393
1.0268887 0.4037416 0.9165487 1.2205364 -0.759401 -1.2093769 -2.8933034 -1.1127363
0.9094589 -0.011793582 -0.06813102 -0.5851102 0.08562223 0.1747993 -0.3275779 -0.03029571
0.47263896 0.5900159 -0.25851813 -1.9136214 -0.5917085 0.8023372 -0.40232918 -0.07714613
-0.5074177 -0.88680357 0.14136557 0.09976155 0.6962969 1.336183 0.9732405 -0.32177198
2.0777156 0.7739523 0.2124479 -1.3050736 -0.30548477 0.83669144 2.6689317 -0.32757068
0.5523375 -1.4512035 -0.18079184 0.49934176 1.0694079 0.5976396 -0.004400999 0.15019745
0.87535924 -0.042440686 -0.30067125 -1.0740154 -0.05532439 0.6957203 1.2558581 1.1944308
-0.5054943 0.3747369 1.2770913 0.15105265 -1.0987352 -0.7552159 0.51245123 0.6084416
-0.47246376 0.19010055 -0.2496342 -0.23433565 -0.27155894 -1.4653338 0.7614187 -1.2436541
-0.4210509 1.3679984 0.26988214 -1.0772969 -0.57666403 0.65396255 -0.9604321 0.6715195
-0.31959894 0.3509931 2.072333 -0.12913306 0.9532418 0.6694394 -0.591084 0.09598322
-0.009108523 -1.8610979 1.2019676 0.29176518 -0.9825808 -0.11923389 0.32027677 -1.0092729
-0.36299664 2.0951533 -0.65566 0.081383534 0.30875385 0.15001643 0.36725166 -1.7946979
0.10290196 -2.6904821 -0.40858546 -0.16835096 1.1410725 -0.39478403 0.54246455 1.2495004
00000000: 12a5 23bf 3676 83bf f804 b3bd 30d8 bf3e
00000010: 0636 68bf 32c2 823f 4349 fc3e b29f 1e3f
00000020: 9067 eebf 9ae6 cc3d 39fc 0340 2a4e 43be
00000030: cd3b 803d 9e34 9bbf 83f7 1d3f f17f 53bf
00000040: 1cba 83be bf7b 0940 bcf5 cf3e 7168 88bf
00000050: da3f babf 84ae 92bf 4a72 173e 9bdc 57bf
00000060: 37c0 4d40 7ace 183f cec3 8e3f a53e 8e3e
00000070: 63ca d8bd 7a33 313f 6649 803d ad74 32bf
00000080: 1d92 dfbd 67de cf3e 34fb 633f fffb d63f
00000090: 4948 963f be2e 9b3f 55df 64bf 5212 87be
000000a0: bfa7 92bf 54b6 403f d4c2 18bf 2aa2 5c3f
000000b0: 1f61 2fc0 8854 503f 0a21 433f 54e6 1c3e
000000c0: 8a9d 77be 8c0c f13e d559 923f ac72 72bc
000000d0: 75a6 e7be 27c3 223f 54b0 a63f df09 83bf
000000e0: 6398 5a3e ac18 1140 4a3c b13f ffb8 f2be
000000f0: 31a6 22be d1ad 183f 1848 a43e 15e8 163f
00000100: 96d1 073f 72b0 1b3f 6fe3 c23f 1ebf f3be
00000110: dd21 91bf cb8b 0fc0 ec62 28be 57b2 bb3e
00000120: 3491 ecbe 452b eb3f a24e 7bbf 8e33 943f
00000130: c7a8 0fbf 7425 333e bcae 1e3e ac3f 013e
00000140: fe57 163e 2229 303f 87ab 4bbe 8e62 a5bf
00000150: e89d 1dc0 c364 5ebf 6956 8abf ecfc 693c
00000160: a52f 10bf ed41 84bf 4321 4bbf b5de a4bf
00000170: 4e46 d73e c70a 7bbe 0345 79be 3821 9abe
00000180: d2b6 a53f 6b5a 20bf b202 dc3f 93cc 933f
00000190: 3c81 11bf 2513 08be 8bd6 98bb 95a1 53be
000001a0: d240 b8bf fcd2 a4be f9ac 9a3d 7634 d4bc
000001b0: 0ff5 3ebf beeb 06bf 1edc 21bf f014 643f
000001c0: f785 c73f 3bc7 cabf 59e2 eebe dbfa a5bf
000001d0: 02aa 4bbd 78aa 8abe b6ae 0abf 3f52 e73f
000001e0: 2540 1e3f 8a16 f6be 3eb2 a3bd 23c9 5a3f
000001f0: d860 cc3e 6597 cc3e 9d81 ec3d a014 1fbf
00000200: 8c39 ac3f ece3 87bf 6cbd 1c3f dca0 61bf
00000210: 9025 8f3f 8447 e3be 1eff b1bd 99e0 a3bf
00000220: 70a5 60bf f16b 7bbf d2b4 823f 2a60 ac3d
00000230: 6d84 803d 3d64 38bf 1459 60bf 3376 15c0
00000240: 1771 833f 38b7 ce3e f0a2 6a3f 893a 9c3f
00000250: 1b68 42bf ddcc 9abf e22b 39c0 256e 8ebf
00000260: 4cd2 683f de39 41bc 4788 8bbd c8c9 15bf
00000270: b55a af3d 96fe 323e 4ab8 a7be b52e f8bc
00000280: bcfd f13e 480b 173f 7d5c 84be 8cf1 f4bf
00000290: 357a 17bf f965 4d3f 17fe cdbe cafe 9dbd
000002a0: 20e6 01bf 8f05 63bf 23c2 103e c94f cc3d
000002b0: 8340 323f 0b08 ab3f 4a26 793f 4cbf a4be
000002c0: 4bf9 0440 bd21 463f f18b 593e a70c a7bf
000002d0: 8068 9cbe 6931 563f c7cf 2a40 58b7 a7be
000002e0: fe65 0d3f 09c1 b9bf 7f21 39be b9a9 ff3e
000002f0: 5ce2 883f e9fe 183f 4136 90bb 5ccd 193e
00000300: 8b17 603f 49d6 2dbd 95f1 99be 5679 89bf
00000310: d49b 62bd ba1a 323f f5bf a03f 1ce3 983f
00000320: 1368 01bf 84dd bf3e ba77 a33f 8cad 1a3e
00000330: 5ba3 8cbf d455 41bf 0130 033f d4c2 1b3f
00000340: c5e6 f1be b8a9 423e 1ca0 7fbe aff5 6fbe
00000350: c609 8bbe 0f90 bbbf 56ec 423f 0f30 9fbf
00000360: fc93 d7be 921a af3f fe2d 8a3e dde4 89bf
00000370: 41a0 13bf 176a 273f e1de 75bf b4e8 2b3f
00000380: 79a2 a3be 5eb5 b33e 1ba1 0440 753b 04be
00000390: a807 743f 6160 2b3f 4851 17bf da92 c43d
000003a0: ea3b 15bc 7538 eebf 13da 993f 3f62 953e
000003b0: 6a8a 7bbf e630 f4bd 51fb a33e db2f 81bf
000003c0: b2da b9be fe16 0640 55d9 27bf 69ac a63d
000003d0: fc14 9e3e e89d 193e 6908 bc3e a9b8 e5bf
000003e0: 43be d23d dc30 2cc0 1d32 d1be 3264 2cbe
000003f0: aa0e 923f 2221 cabe f5de 0a3f a1ef 9f3f

indicator_time_mixing.0.indicator_mixing.W2 f4 [64, 5]
0.14107856 -0.2440443 -1.992566 0.6773146 -0.2796353 1.01409 0.39847177 0.28456262
1.5656091 -0.18463683 -0.93521506 0.061709624 0.6650596 0.32493913 -0.6361881 -0.22008526
2.135572 0.40527177 0.1548077 1.5271491 -0.12389809 -0.8983468 0.26291773 -0.22998749
-1.63613 1.0852855 -1.1702715 2.0447257 -1.2014581 1.0466595 0.7721864 -0.36424375
1.1847337 -0.5871703 1.7659792 2.932136 1.6605065 0.93041366 -0.0025624996 -1.1513103
0.85007817 0.5047616 2.3087056 0.6657152 0.9656501 0.19360264 0.8821726 -0.44007882
-0.4748153 0.05284896 0.14564939 0.005508813 -1.3461362 0.44688183 -0.60626143 1.0299047
1.961446 1.0177826 -0.1174704 1.8736275 2.056358 0.75394255 -0.06319556 -0.7815116
0.021887185 -0.5994764 -0.6774976 1.7017369 1.2091296 -0.5343662 0.1263112 0.32489312
1.7318645 1.5551099 2.3756597 -0.02884472 -1.2930213 0.20193101 1.1010988 0.10469413
0.443594 -1.3524107 0.7014917 -0.573643 0.1579989 0.9441205 -0.7168556 0.81086487
0.3664277 -0.18549867 0.56780374 -0.5954001 2.6376643 2.1445272 0.8750888 1.4303521
-0.8816757 0.15125331 -0.025735924 0.1660098 0.1763609 -0.22994001 -0.13567674 2.3458955
0.7779054 0.16012216 -1.0202211 0.7983168 -0.18541797 1.2232289 0.09942225 -0.3735356
-0.41047946 -1.3383629 0.42248407 -1.1268905 1.2729707 -0.2857718 0.82095927 2.4673183
1.099597 0.23811206 -0.62832314 0.33488998 -1.4760114 -0.8323398 0.105853304 1.311846
-0.025989665 -0.037498828 -0.58652717 1.8768973 -0.45130253 0.5947582 0.5917591 0.8078486
-1.587138 -1.0797136 0.12897332 -1.0560244 1.8426486 1.040862 -0.9629134 0.08418518
0.6387438 0.2629547 0.93775797 1.9099059 -0.9142718 0.042697225 -0.517805 0.58363426
-0.44849238 -0.715891 1.4087331 -0.26229975 -0.22519599 3.8901715 -0.14217241 0.1310205
0.35204276 0.6975098 0.49234548 0.7586808 -2.6362991 0.54013133 -1.4972897 1.0208521
-0.025783662 0.9134057 -0.92048204 -1.3582635 1.3024426 0.34196714 0.11192107 -1.2562175
0.39107165 0.5601848 -0.35481173 0.57057625 -0.11144051 0.47366002 1.7975425 0.9715269
-0.25712335 -0.49139217 1.8359557 -0.6899501 -0.4162129 0.7161105 -0.6363603 1.5960625
-0.8426728 0.7357797 0.2186758 1.048239 -1.963531 -1.1894853 -0.71550685 -1.1634909
0.6510653 0.020778257 0.45542756 0.94435686 0.15380356 0.9580597 -1.3053463 0.5782391
0.12433544 -0.8908572 0.53970975 -1.027723 -0.71156967 -0.052744918 0.25795382 0.23310663
-0.3464918 -1.4414227 -0.22844028 -0.40381292 -1.574252 0.7858368 1.3975372 -0.06795864
-0.9730831 -0.37974712 1.5117294 -0.2720364 -0.30073074 -0.6903789 0.6811522 -0.25709906
0.5507266 0.29129958 -0.65470773 -0.42489687 -0.42820907 0.77045244 -0.40332887 1.1549242
-0.43184686 -0.9915432 -0.89789766 -1.0536649 0.91808534 -0.67877966 -0.6698282 1.3635513
1.0616877 0.14087471 0.39691532 1.4819613 0.16624892 0.1777987 -0.21552527 0.13596109
00000000: e676 103e c0e6 79be 670c ffbf 7d64 2d3f
00000010: 5c2c 8fbe b3cd 813f 7e04 cc3e 31b2 913e
00000020: e165 c83f 7011 3dbe 416a 6fbf 3bc3 7c3d
00000030: 5941 2a3f 6c5e a63e 39dd 22bf 085e 61be
00000040: 36ad 0840 c87f cf3e e985 1e3e 9f79 c33f
00000050: 48be fdbd 0efa 65bf 279d 863e d781 6bbe
00000060: b56c d1bf a3ea 8a3f 75cb 95bf c9dc 0240
00000070: 61c9 99bf f0f8 853f 02ae 453f 287e babe
00000080: 5ba5 973f cb50 16bf 9b0b e23f 1ea8 3b40
00000090: 7a8b d43f 972f 6e3f 9cef 27bb 235e 93bf
000000a0: b99e 593f 0e38 013f d5c1 1340 506c 2a3f
000000b0: d834 773f c53f 463e 10d6 613f 0352 e1be
000000c0: fe1a f3be 2778 583d 1d25 153e 4683 b43b
000000d0: 314e acbf b2cd e43e f333 1bbf ebd3 833f
000000e0: aa10 fb3f b346 823f 5294 f0bd 07d3 ef3f
000000f0: 5f9b 0340 6102 413f ac6c 81bd 2511 48bf
00000100: c14c b33c 4977 19bf 7c70 2dbf 84d2 d93f
00000110: c2c4 9a3f 39cc 08bf b957 013e 6458 a63e
00000120: bcad dd3f d70d c73f cf0a 1840 c34b ecbc
00000130: b981 a5bf 01c7 4e3e cef0 8c3f e069 d63d
00000140: c11e e33e cb1b adbf f694 333f 45da 12bf
00000150: 77ca 213e e2b1 713f d983 37bf d794 4f3f
00000160: 699c bb3e 5df3 3dbe 965b 113f 246c 18bf
00000170: 7ecf 2840 ef3f 0940 d205 603f c715 b73f
00000180: 80b5 61bf 26e2 1a3e 25d4 d2bc 79fe 293e
00000190: f497 343e 6575 6bbe d8ee 0abe 2723 1640
000001a0: cf24 473f 10f7 233e 9b96 82bf 7d5e 4c3f
000001b0: 35de 3dbe c492 9c3f e59d cb3d 0f40 bfbe
000001c0: 5d2a d2be 7a4f abbf d54f d83e f33d 90bf
000001d0: b4f0 a23f ae50 92be 632a 523f 8be8 1d40
000001e0: 98bf 8c3f a6d3 733e c9d9 20bf b376 ab3e
000001f0: f1ed bcbf 3914 55bf 9ec9 d83d 92ea a73f
00000200: 47e8 d4bc 5f98 19bd a526 16bf 2c3e f03f
00000210: 2011 e7be 1342 183f 867d 173f 2acf 4e3f
00000220: 5727 cbbf 0e34 8abf 9511 043e cf2b 87bf
00000230: e9db eb3f f73a 853f 7e81 76bf 4869 ac3d
00000240: b784 233f 00a2 863e e810 703f cc77 f43f
00000250: b70d 6abf 49e3 2e3d de8e 04bf 0e69 153f
00000260: cba0 e5be a244 37bf 5e51 b43f 274c 86be
00000270: c799 66be 92f8 7840 a595 11be 3d2a 063e
00000280: f33e b43e 0190 323f b514 fc3e e838 423f
00000290: 20b9 28c0 0c46 0a3f 30a7 bfbf 48ab 823f
000002a0: 4238 d3bc f5d4 693f b6a4 6bbf 94db adbf
000002b0: 70b6 a63f 5116 af3e e036 e53d bccb a0bf
000002c0: 8b3a c83e 4568 0f3f e2a9 b5be 4911 123f
000002d0: ec3a e4bd 9183 f23e df15 e63f fdb5 783f
000002e0: aca5 83be c197 fbbe 9900 eb3f 92a0 30bf
000002f0: db19 d5be 0553 373f 82e8 22bf c74b cc3f
00000300: 68b9 57bf 0f5c 3c3f 8dec 5f3e b22c 863f
00000310: fc54 fbbf 0e41 98bf 752b 37bf 45ed 94bf
00000320: 37ac 263f 2a37 aa3c cd2d e93e 5fc1 713f
00000330: ae7e 1d3e 6743 753f 9615 a7bf 7a07 143f
00000340: 94a3 fe3d 380f 64bf 6b2a 0a3f 6d8c 83bf
00000350: 6e29 36bf 0e0b 58bd 8612 843e 81b3 6e3e
00000360: 6067 b1be 8a80 b8bf 40ec 69be 91c0 cebe
00000370: 1781 c9bf 9a2c 493f 80e2 b23f e62d 8bbd
00000380: f91b 79bf 376e c2be 5980 c13f 5b48 8bbe
00000390: 61f9 99be acbc 30bf fe5f 2e3f 7da2 83be
000003a0: 6bfc 0c3f 3825 953e ed9a 27bf 158c d9be
000003b0: 383e dbbe 5f3c 453f 1f81 cebe 8ed4 933f
000003c0: 081b ddbe c6d5 7dbf 9fdc 65bf 7ede 86bf
000003d0: a407 6b3f 81c4 2dbf dc79 2bbf d988 ae3f
000003e0: 62e5 873f 7641 103e 7c38 cb3e e8b0 bd3f
000003f0: 283d 2a3e dd10 363e a8b2 5cbe 6239 0b3e

indicator_time_mixing.0.indicator_mixing.ln.weight f4 [16, 5]
1.2345014 1.0056561 0.9833694 1.0027425 0.770045 1.171586 1.0198739 0.977874
0.998184 0.84768105 1.133221 1.0232815 0.97531635 0.99976796 0.86979413 0.8243217
0.9127589 0.9795777 0.91663504 1.0668942 0.87691903 0.94224995 1.0011789 0.94546485
1.0912545 0.86348784 0.95918834 0.9943348 0.9377387 1.0950534 0.83710986 0.93283534
0.9523218 0.9810097 1.1426828 0.898937 0.95208365 0.96359056 0.9416189 0.99381304
0.84699166 0.9704067 0.9658156 0.9047722 1.1216214 0.88124907 0.9376769 0.98400015
0.94471526 1.0181434 0.986509 0.986232 0.9870105 0.96694326 0.9729209 0.9339158
0.97247666 0.97074145 0.9385238 1.0101722 0.85834676 0.9181807 0.98938954 0.9810457
1.155191 0.8167626 0.9411211 0.9769319 0.9172055 1.0700041 0.836426 0.91016203
0.9175099 0.95508677 1.1314071 1.0987526 1.093057 1.1377106 1.0122056 0.66875255
00000000: 2404 9e3f 57b9 803f 19be 7b3f de59 803f
00000010: ab21 453f 88f6 953f 3a8b 823f f355 7a3f
00000020: fd88 7f3f a001 593f 630d 913f e3fa 823f
00000030: 55ae 793f cbf0 7f3f d4aa 5e3f bf06 533f
00000040: 91aa 693f 9bc5 7a3f 98a8 6a3f fd8f 883f
00000050: c47d 603f 4b37 713f a126 803f fc09 723f
00000060: 3aae 8b3f 8a0d 5d3f 5e8d 753f ba8c 7e3f
00000070: a50f 703f b62a 8c3f d54c 563f 4cce 6e3f
00000080: 5dcb 733f 7423 7b3f 6e43 923f bc20 663f
00000090: c1bb 733f dfad 763f f00d 713f 886a 7e3f
000000a0: 72d4 583f 936c 783f b13f 773f 279f 673f
000000b0: 4a91 8f3f 8a99 613f 980b 703f 6fe7 7b3f
000000c0: dcd8 713f 8652 823f db8b 7c3f b379 7c3f
000000d0: b8ac 7c3f 9889 773f 5811 793f 1b15 6f3f
000000e0: 3bf4 783f 8382 783f 1943 703f 534d 813f
000000f0: 9dbc 5b3f e40d 6b3f a248 7d3f d025 7b3f
00000100: 4cdd 933f 5b17 513f 50ed 703f 3618 7a3f
00000110: fbcd 6a3f e5f5 883f 0420 563f 6100 693f
00000120: eee1 6a3f 9180 743f f3d1 903f eda3 8c3f
00000130: 4be9 8b3f 80a0 913f f48f 813f 5e33 2b3f

indicator_time_mixing.0.indicator_mixing.ln.bias f4 [16, 5]
-0.016143147 0.03037446 -0.016108505 0.0005410101 -0.0015468352 -0.00015087133 0.014818768 -0.014164619
0.010323245 -0.006184994 0.014755201 0.009219016 -0.016579706 0.019039022 -0.011804286 -0.022678329
0.020704996 -0.018327383 0.05539696 0.033624265 -0.046549227 0.013653356 -9.340976e-05 0.03966399
0.013963946 -0.04671382 0.0014936491 -0.004804879 0.041890625 0.00905894 -0.07085458 0.019209757
-0.04830663 -0.009167888 -0.007285547 -0.005194386 0.019268444 -0.018785223 0.042957712 0.034347408
-0.005167616 -0.016335621 -0.026497468 0.0679001 0.022120936 -0.03164484 0.01900148 -0.010384346
0.040479552 0.024654295 -0.013267128 0.012473824 -0.010939015 0.02299905 -0.0005317364 0.005824371
0.0033708632 -0.027745578 0.0385496 0.018509187 -0.030967945 0.021516131 -0.014847136 0.0014335262
-0.011341257 -0.029169781 -0.00267381 -0.014351099 0.061251473 0.020062363 -0.02931503 0.03900391
-0.08083348 0.017590715 -0.015584317 0.0297224 -0.032932226 0.118289486 0.020867538 0.02516508
00000000: a23e 84bc dcd3 f83c fcf5 83bc 93d2 0d3a
00000010: 2dbf caba 3733 1eb9 6bca 723c b812 68bc
00000020: d422 293c 7dab cabb ccbf 713c 5b0b 173c
00000030: 2ad2 87bc b9f7 9b3c c466 41bc e7c7 b9bc
00000040: 869d a93c 4f23 96bc ece7 623d 99b9 093d
00000050: 67aa 3ebd 53b2 5f3c fce4 c3b8 b576 223d
00000060: 09c9 643c fe56 3fbd 8cc6 c33a 3f72 9dbb
00000070: 8195 2b3d f36b 143c 351c 91bd c85d 9d3c
00000080: 2cdd 45bd e934 16bc 99bb eebb ab35 aabb
00000090: dbd8 9d3c 78e3 99bc 6df4 2f3d deaf 0c3d
000000a0: 1b55 a9bb 48d2 85bc 3811 d9bc 350f 8b3d
000000b0: f736 b53c 059e 01bd fea8 9b3c 1b23 2abc
000000c0: e3cd 253d cef7 c93c 5e5e 59bc 035f 4c3c
000000d0: 8e39 33bc 8168 bc3c 3a64 0bba 5dda be3b
000000e0: b3e9 5c3b b24a e3bc 2fe6 1d3d 94a0 973c
000000f0: 7db0 fdbc 9942 b03c 6741 73bc 28e5 bb3a
00000100: aed0 39bc 77f5 eebc 173b 2fbb df20 6bbc
00000110: d3e2 7a3d d359 a43c 1326 f0bc 90c2 1f3d
00000120: 068c a5bd 671a 903c 5d55 7fbc 647c f33c
00000130: f1e3 06bd c241 f23d 66f2 aa3c ff26 ce3c

indicator_time_mixing.0.time_mixing.ln.weight f4 [16, 5]
0.7909513 1.2492905 1.0023187 0.6507388 0.7089876 0.77901864 1.1927782 1.129125
0.65228283 0.6925158 0.7599185 1.1675637 1.1925027 0.6474544 0.700761 0.84009314
1.1221988 0.9579917 0.64490414 0.6633738 0.86948866 1.1391474 1.0024369 0.63529915
0.6706159 0.8359482 1.1124477 1.0808753 0.6405793 0.6692082 0.87713426 0.9907738
1.1196384 0.6392424 0.63751173 0.7546064 1.2056412 1.0735914 0.65861094 0.6957895
0.81141245 1.0765842 1.02949 0.6395611 0.6840224 0.7372342 1.2164749 1.1124319
0.6558235 0.71299016 0.7032191 1.2527013 1.1027907 0.67167133 0.7257799 0.75564003
1.1984017 1.0430933 0.6413445 0.74172884 0.7243257 1.1986228 1.1135685 0.6773882
0.70501107 0.7812587 1.1969091 1.0065447 0.64350593 0.75921047 0.789216 1.152759
1.0351379 0.68599606 0.7548997 0.7240183 1.3004736 0.9928538 0.58766484 0.7654083
00000000: c97b 4a3f c0e8 9f3f fb4b 803f d196 263f
00000010: 3680 353f c46d 473f f5ac 983f 2b87 903f
00000020: 02fc 263f b748 313f 058a 423f ba72 953f
00000030: eea3 983f 92bf 253f 1365 333f 5810 573f
00000040: 36a4 8f3f f23e 753f 7018 253f ded2 293f
00000050: cf96 5e3f 95cf 913f da4f 803f f7a2 223f
00000060: 7cad 2b3f b400 563f b064 8e3f 1f5a 8a3f
00000070: 01fd 233f 3b51 2b3f df8b 603f 5aa3 7d3f
00000080: 5050 8f3f 64a5 233f f833 233f e32d 413f
00000090: 7352 9a3f 716b 893f ba9a 283f 431f 323f
000000a0: bab8 4f3f 83cd 893f 54c6 833f 47ba 233f
000000b0: 181c 2f3f 61bb 3c3f 73b5 9b3f 2b64 8e3f
000000c0: 0de4 273f 8686 363f 2b06 343f 8458 a03f
000000d0: 3f28 8d3f a7f2 2b3f b6cc 393f a071 413f
000000e0: 3a65 993f 1584 853f 272f 243f f1e1 3d3f
000000f0: 696d 393f 796c 993f 6a89 8e3f 5069 2d3f
00000100: 9b7b 343f 9200 483f 5134 993f 75d6 803f
00000110: cebc 243f 9e5b 423f 0f0a 4a3f 9b8d 933f
00000120: 667f 843f 709d 2f3f 1b41 413f 4359 393f
00000130: eb75 a63f ab2b 7e3f 3471 163f ccf1 433f

indicator_time_mixing.0.time_mixing.ln.bias f4 [16, 5]
-0.3088045 -0.29395795 -0.110873446 -0.3181355 0.27881113 -0.30398425 -0.28844887 -0.08031883
-0.32186586 0.27545962 -0.30461895 -0.28707162 -0.11139564 -0.323003 0.26569992 -0.31819397
-0.30472237 -0.14454502 -0.33561856 0.2781739 -0.3201401 -0.29823032 -0.14164455 -0.33086684
0.26163614 -0.3153494 -0.2964314 -0.10516461 -0.33178183 0.25832647 -0.30696756 -0.29801184
-0.042083133 -0.3326567 0.26740974 -0.3081601 -0.29693007 -0.024042606 -0.32872772 0.26274654
-0.31967443 -0.29742664 -0.07208988 -0.3392161 0.24393475 -0.30172944 -0.29172692 -0.028534673
-0.33185878 0.24169917 -0.29977027 -0.29092538 -0.041662857 -0.31350514 0.24121757 -0.31354868
-0.29440352 -0.034447208 -0.33102903 0.20503186 -0.29604223 -0.31393737 0.06266923 -0.3304899
0.25098124 -0.3082406 -0.3188349 -0.005681634 -0.34029773 0.19311811 -0.27524653 -0.31404594
0.038562942 -0.32134724 0.2035009 -0.27959788 -0.35049528 0.020513559 -0.36126167 0.15614006
00000000: a01b 9ebe a881 96be 9e11 e3bd a8e2 a2be
00000010: 55c0 8e3e d3a3 9bbe 92af 93be 337e a4bd
00000020: 9acb a4be 0b09 8d3e 04f7 9bbe 0dfb 92be
00000030: 6623 e4bd a660 a5be d209 883e 52ea a2be
00000040: 9204 9cbe 9c03 14be 32d6 abbe cf6c 8e3e
00000050: 67e9 a3be a5b1 98be 450b 11be 6167 a9be
00000060: 2cf5 853e 7a75 a1be dbc5 97be 8b60 d7bd
00000070: 4fdf a9be 5e43 843e da2a 9dbe 0295 98be
00000080: 5d5f 2cbd fb51 aabe eee9 883e 29c7 9dbe
00000090: 3807 98be 00f5 c4bc 004f a8be b786 863e
000000a0: 5eac a3be 4e48 98be dca3 93bd bcad adbe
000000b0: 08ca 793e 487c 9abe 3b5d 95be 8cc1 e9bc
000000c0: 65e9 a9be fd7f 773e 7d7b 99be 2cf4 94be
000000d0: aca6 2abd bf83 a0be bd01 773e 7489 a0be
000000e0: 0fbc 96be 8418 0dbd a37c a9be dff3 513e
000000f0: d992 97be 66bc a0be ba58 803d f935 a9be
00000100: 9d80 803e b6d1 9dbe 543e a3be 002d babb
00000110: 813b aebe c1c0 453e 1ded 8cbe a1ca a0be
00000120: 2df4 1d3d a087 a4be 8a62 503e 7427 8fbe
00000130: 1e74 b3be 0d0c a83c 4af7 b8be 2ee3 1f3e

indicator_time_mixing.0.time_mixing.U1.1 f4 [1, 2]
-0.0005191841 -0.005066349
00000000: db19 08ba 9e03 a6bb

indicator_time_mixing.0.time_mixing.U1.2 f4 [1, 3]
0.00018797125 -0.0037319623 -0.002253574
00000000: 261a 4539 f093 74bb b3b0 13bb

indicator_time_mixing.0.time_mixing.U1.3 f4 [1, 4]
0.0061284117 0.0023274198 0.0014358867 0.005752998
00000000: d8d0 c83b a087 183b 5d34 bc3a a583 bc3b

indicator_time_mixing.0.time_mixing.U1.4 f4 [1, 5]
-0.005460022 -0.004301909 -0.0027549325 -0.00417132 -0.0039051496
00000000: fce9 b2bb 07f7 8cbb 198c 34bb 91af 88bb
00000010: 8aed 7fbb

indicator_time_mixing.0.time_mixing.U1.5 f4 [1, 6]
-0.0039383215 -0.0048662545 -0.0045107785 -0.0055723824 -0.0007378941 -0.0013521832
00000000: 090d 81bb 1a75 9fbb 27cf 93bb 8898 b6bb
00000010: 3c6f 41ba bd3b b1ba

indicator_time_mixing.0.time_mixing.U1.6 f4 [1, 7]
-0.0015307758 -0.002514747 -0.0024183432 -0.004974389 -0.0018933607 -0.0011082672 -0.00097519264
00000000: 50a4 c8ba 74ce 24bb 117d 1ebb 3300 a3bb
00000010: a52a f8ba 4743 91ba 12a4 7fba

indicator_time_mixing.0.time_mixing.U1.7 f4 [1, 8]
0.00087775016 -0.0007567029 -0.008407162 -0.0019390191 -0.002614772 -0.0037829364 -0.00025956443 -0.011086096
00000000: d118 663a 795d 46ba 31be 09bc af26 feba
00000010: 985c 2bbb 24eb 77bb 2616 88b9 75a2 35bc

indicator_time_mixing.0.time_mixing.U1.8 f4 [1, 9]
0.0065893494 0.0026482968 0.001469866 0.0036414075 0.0037269753 0.0022773684 0.0024199837 0.0051805386
0.00062922534
00000000: 78eb d73b 0c8f 2d3b 85a8 c03a aea4 6e3b
00000010: 4540 743b e73f 153b 9798 1e3b 82c1 a93b
00000020: 99f2 243a

indicator_time_mixing.0.time_mixing.U1.9 f4 [1, 10]
-0.0015585639 -0.0073546013 -0.0010631443 -0.009340412 -0.0018915992 -0.002997337 -0.0023392371 0.0012228795
0.006799407 0.003524631
00000000: ba48 ccba defe f0bb 3459 8bba 8708 19bc
00000010: 89ef f7ba f86e 44bb e34d 19bb 0749 a03a
00000020: 8fcd de3b 7ffd 663b

indicator_time_mixing.0.time_mixing.U1.10 f4 [1, 11]
-0.00079856155 -0.00287264 -0.0028914989 -0.003090772 -0.0017508072 0.00031655515 0.002435732 -0.010535075
-0.0069271503 -0.010243717 -0.0110276565
00000000: 8f56 51ba e742 3cbb 4d7f 3dbb 8d8e 4abb
00000010: 577b e5ba 50f7 a539 cda0 1f3b 4f9b 2cbc
00000020: 26fd e2bb 43d5 27bc 58ad 34bc

indicator_time_mixing.0.time_mixing.U1.11 f4 [1, 12]
0.0097828945 -0.0019583069 0.0020529856 -0.006942734 -0.0016331647 0.0013566768 0.0033750543 -0.004330462
0.0045260442 -0.000497453 0.0029170564 0.0015824537
00000000: 6f48 203c f056 00bb 628b 063b e07f e3bb
00000010: ea0f d6ba 85d2 b13a 0430 5d3b 8ce6 8dbb
00000020: 364f 943b 8167 02ba 162c 3f3b 566a cf3a

indicator_time_mixing.0.time_mixing.U1.12 f4 [1, 13]
-0.00093650987 -0.0077123805 -0.0068872347 -0.0040005273 0.0012623088 0.0012100878 0.0022975146 -0.0034175385
-0.004204549 -0.004124219 -0.0065906732 -0.0076635624 -0.0048347875
00000000: 1d80 75ba 23b8 fcbb 50ae e1bb db16 83bb
00000010: 0e74 a53a cf9b 9e3a e691 163b c8f8 5fbb
00000020: 50c6 89bb 7524 87bb 93f6 d7bb 9f1e fbbb
00000030: 236d 9ebb

indicator_time_mixing.0.time_mixing.U1.13 f4 [1, 14]
-0.0067835427 0.005894039 0.0018748407 0.0032197977 0.00069986336 -0.0053654546 0.005615016 0.0038204489
0.00044995997 -0.00409525 -0.0034509304 -0.0033909602 -0.006711442 0.0013388583
00000000: 7b48 debb c822 c13b 37bd f53a 3e03 533b
00000010: 0977 373a b2d0 afbb 2bfe b73b 7f60 7a3b
00000020: 9be8 eb39 7231 86bb 0129 62bb df3a 5ebb
00000030: a8eb dbbb a17c af3a

indicator_time_mixing.0.time_mixing.U1.14 f4 [1, 15]
-0.0017343777 -0.00517002 0.0073919804 -0.0004316859 0.003249725 0.0013601704 0.008614148 0.00044335474
-0.0013410406 -0.002288907 0.0012363753 -0.0026809515 0.00032851534 -0.0011928144 -0.0048450218
00000000: 0f54 e3ba 4569 a9bb 6d38 f23b e753 e2b9
00000010: 57f9 543b bf47 b23a 5b22 0d3c 1172 e839
00000020: dbc5 afba 7d01 16bb df0d a23a e7b2 2fbb
00000030: 953c ac39 3658 9cba fdc2 9ebb

indicator_time_mixing.0.time_mixing.U1.15 f4 [1, 16]
-0.0017175716 0.019321535 0.014560472 0.014820206 0.010359377 0.003559522 -0.018279776 -0.0018509359
0.0013983308 0.007033469 0.010077058 0.014519544 -0.011093215 0.013402801 -0.012314801 -0.01253366
00000000: 2420 e1ba 3248 9e3c 0c8f 6e3c 73d0 723c
00000010: 60ba 293c df46 693b 78bf 95bc 1a9b f2ba
00000020: 3248 b73a 0479 e63b 3f1a 253c 62e3 6d3c
00000030: 51c0 35bc 6c97 5b3c 05c4 49bc fb59 4dbc

indicator_time_mixing.0.time_mixing.U2.1 f4 [1, 2]
-0.01579293 0.00030774358
00000000: 2d60 81bc a558 a139

indicator_time_mixing.0.time_mixing.U2.2 f4 [1, 3]
-0.0039869174 0.023097483 0.009089017
00000000: b0a4 82bb ef36 bd3c 1aea 143c

indicator_time_mixing.0.time_mixing.U2.3 f4 [1, 4]
0.004586508 0.034813736 0.0015052186 -0.047514588
00000000: 6b4a 963b d998 0e3d c14a c53a a89e 42bd

indicator_time_mixing.0.time_mixing.U2.4 f4 [1, 5]
0.011162627 0.030741302 0.017927125 -0.060790688 0.05561607
00000000: 73e3 363c 2fd5 fb3c e8db 923c a8ff 78bd
00000010: adcd 633d

indicator_time_mixing.0.time_mixing.U2.5 f4 [1, 6]
0.026121736 0.023214983 0.012415353 -0.029198175 0.008052844 0.0054870746
00000000: 40fd d53c 592d be3c c469 4b3c 0331 efbc
00000010: 13f0 033c ebcc b33b

indicator_time_mixing.0.time_mixing.U2.6 f4 [1, 7]
0.024283255 -0.019239945 0.0003089155 0.0057613985 0.0038973321 -0.0028226136 0.0020456081
00000000: aded c63c 179d 9dbc f0f5 a139 1dca bc3b
00000010: 626a 7f3b 99fb 38bb 9c0f 063b

indicator_time_mixing.0.time_mixing.U2.7 f4 [1, 8]
0.018481243 0.032644723 0.023542058 -0.04307968 0.04476436 0.08627074 0.056505445 0.08104611
00000000: fa65 973c 79b6 053d 46db c03c 5274 30bd
00000010: d55a 373d b7ae b03d 4172 673d 81fb a53d

indicator_time_mixing.0.time_mixing.U2.8 f4 [1, 9]
0.030700944 0.010135287 0.016238725 -0.009538205 0.011885877 0.0013542817 0.004857779 0.034910567
-0.021476509
00000000: 8c80 fb3c 7a0e 263c 1307 853c 2246 1cbc
00000010: fbbc 423c 2782 b13a 012e 9f3b 62fe 0e3d
00000020: 81ef afbc

indicator_time_mixing.0.time_mixing.U2.9 f4 [1, 10]
0.027062828 0.027417675 0.016277479 -0.036467697 0.05167279 0.07146194 0.060136303 0.08163177
-0.08283672 0.024413813
00000000: ddb2 dd3c 089b e03c 5958 853c 275f 15bd
00000010: d9a6 533d a35a 923d 7c51 763d 8f2e a73d
00000020: 4ca6 a9bd 7aff c73c

indicator_time_mixing.0.time_mixing.U2.10 f4 [1, 11]
0.0247062 0.03305289 -0.009457011 -0.01502118 0.020849772 0.059699297 0.03913961 0.045659244
-0.04440364 -0.018761091 0.054510858
00000000: a864 ca3c 7862 073d 94f1 1abc 651b 76bc
00000010: 24cd aa3c 4087 743d db50 203d 3005 3b3d
00000020: 97e0 35bd dcb0 99bc c746 5f3d

indicator_time_mixing.0.time_mixing.U2.11 f4 [1, 12]
0.015297124 0.01964311 0.0178381 -0.02669251 0.03365271 0.058681797 0.025894849 0.05970776
-0.0733818 0.02996726 0.05686398 -0.0014722856
00000000: caa0 7a3c 96ea a03c 3521 923c 40aa dabc
00000010: 6dd7 093d 535c 703d 6f21 d43c 2090 743d
00000020: 3249 96bd e67d f53c 34ea 683d b5f9 c0ba

indicator_time_mixing.0.time_mixing.U2.12 f4 [1, 13]
0.005540796 0.004156025 -0.0037371235 0.020296602 0.022042047 0.008379717 -0.0027792014 0.0051328973
-0.003368378 -0.007270232 0.0032483337 -0.011772179 -0.009955269
00000000: 918f b53b 442f 883b 87ea 74bb 0f45 a63c
00000010: 8691 b43c 154b 093c 4323 36bb dd31 a83b
00000020: 01c0 5cbb 203b eebb ffe1 543b 19e0 40bc
00000030: 6d1b 23bc

indicator_time_mixing.0.time_mixing.U2.13 f4 [1, 14]
0.044163626 0.034875274 0.040336654 -0.046244413 0.0041808686 0.06193703 0.049288284 0.08077463
-0.08789855 0.03543152 0.08903799 -0.015373697 0.11545293 0.0460029
00000000: ebe4 343d 60d9 0e3d 0c38 253d c86a 3dbd
00000010: abff 883b afb1 7d3d 83e2 493d 2b6d a53d
00000020: 2804 b4bd a420 113d 8d59 b63d f5e1 7bbc
00000030: 9672 ec3d 896d 3c3d

indicator_time_mixing.0.time_mixing.U2.14 f4 [1, 15]
-0.015240941 -0.0089256475 0.0035229984 -0.001653451 0.013619914 -0.00018724668 3.5879654e-07 -0.00382281
-0.001045458 0.00043148192 -0.0029714762 -0.014923582 0.0028613915 -0.01789691 0.005431966
00000000: 24b5 79bc e13c 12bc 1be2 663b 9cb8 d8ba
00000010: 0f26 5f3c a657 44b9 9fa0 c034 1c88 7abb
00000020: c007 89ba 8638 e239 19bd 42bb 0a82 74bc
00000030: 2f86 3b3b 8a9c 92bc a2fe b13b

indicator_time_mixing.0.time_mixing.U2.15 f4 [1, 16]
-0.0007368207 -0.012694969 0.0011148911 0.007736964 0.0115369 -0.0015665048 -0.003384639 -0.0025624807
-0.0005075151 -0.00402619 -0.009617988 -0.01206385 -0.0059144255 -0.011346582 0.0038577956 0.0022769512
00000000: 3327 41ba 8ffe 4fbc 8a21 923a 5c86 fd3b
00000010: 4405 3d3c 2e53 cdba d2d0 5dbb 4bef 27bb
00000020: c30a 05ba 21ee 83bb c494 1dbc 74a7 45bc
00000030: cccd c1bb 04e7 39bc 12d3 7c3b e738 153b

indicator_time_mixing.0.fc.weight f4 [1, 5]
-0.11962482 -0.30105656 0.004465335 -0.3128525 0.07612419
00000000: dcfd f4bd 1624 9abe f251 923b 342e a0be
00000010: 00e7 9b3d

indicator_time_mixing.1.indicator_mixing.W1 f4 [5, 64]
-0.19688481 -0.48864746 -0.8330724 -1.1635174 -0.7839669 -0.7631749 -0.25602713 0.045120582
0.32828152 2.8475077 0.07336165 1.7454011 0.2717921 0.45852378 0.9143064 0.4939529
-0.20769998 -0.144973 1.4730027 0.027024575 1.0951948 1.0059178 -0.25640064 -0.46687087
-1.6390965 0.12982015 -0.24763873 0.11490949 0.60836333 -1.0069767 -0.16825528 -0.0059572845
2.270906 1.5443093 -1.2349198 0.41874495 -0.98643625 -3.8349934 0.5856748 -0.3210144
-0.62731206 -1.1666838 -1.0284935 0.6476221 1.5506928 0.51682115 0.044732038 -0.7733908
-0.83483213 -1.1264331 0.5212411 -0.89373404 -1.0638957 0.15945621 -0.28205526 0.6776999
-2.653387 -0.17906281 0.27206704 1.8860325 -1.4558401 1.4107562 1.524553 0.7071943
-0.72983086 1.5912458 -0.6004623 0.35131022 1.6799601 -0.60630673 -0.47685957 -0.18225208
1.3149779 0.7468095 0.6718717 -1.2420841 -0.3371563 -1.3706514 -0.9008907 0.42320737
-0.54143286 -0.12651277 0.39604196 0.35936776 -0.50550854 -0.34912315 -0.2497403 0.3398525
-0.43340173 1.7694974 -0.41404969 -0.13974608 1.7848378 0.27986738 0.6645449 -0.58387613
-0.75372666 -0.3827395 1.7748523 -1.8516945 -0.5676285 2.4082286 0.14112008 1.0180703
-1.2271442 0.3061849 0.49076027 -0.65006286 0.21637951 -0.19479087 -0.23605932 0.6749833
2.3616211 -0.65654933 0.317725 0.01960919 0.89633733 -0.17463619 -0.70963967 0.12874196
-0.25532427 0.15459968 1.0691313 0.3791422 -0.36816427 1.9423109 0.015373605 -0.9463444
1.0171512 0.52125347 -1.2311515 0.014309825 1.0921707 -0.15796877 0.7344041 -0.18326326
-1.2586952 -0.6877353 -0.70602673 1.0873241 -1.1759548 1.5448637 -0.8633894 0.07449904
-1.0172342 -0.83398515 -0.34116513 1.3809187 0.5211153 -0.9635295 -1.1983492 -1.6010172
0.76041776 -1.2649395 -0.50038576 0.6814771 0.43209207 -0.7413302 -0.8391678 -1.5319864
-0.6359255 -1.9197305 1.1210399 -0.77055895 -1.3727643 -0.22294696 -0.30725774 0.05083251
1.0057254 -2.1196313 1.2081968 0.5087041 -0.33296484 0.7835304 -0.5979141 -1.3415976
0.6890007 0.76600814 -0.37285206 0.91561717 -1.3565958 -0.7264542 1.4865861 1.3138763
-1.5764441 -1.2304031 1.322054 -0.25417662 -2.3059528 0.6302591 1.3107444 -0.38756946
-0.7269798 1.1085892 1.670699 -0.98977894 -0.35461453 0.46176466 0.0039771083 -0.13652936
0.780316 -0.5989308 0.68806994 0.78435385 -0.40221295 0.8723337 1.8864655 0.03252707
-0.92832917 -1.3286339 -0.12605673 -0.4731879 -0.6639434 -0.61093473 -0.19230437 -0.23246074
0.27660966 0.55264205 0.30069855 0.5713158 0.36913234 -0.19892704 -0.30058917 1.0601146
0.80559814 -1.6203674 0.26842082 -0.23585837 -0.5866588 -1.1605031 0.6869716 0.35227647
0.64668983 -0.40434316 -0.56997406 0.075781815 0.3385576 -0.469524 -0.09355813 2.090665
0.792803 0.40260035 -1.1452307 0.42359838 -0.79207826 -0.7916052 -1.9069703 -0.8873731
-1.7498617 0.2590613 -0.015678497 -0.37076387 1.429249 2.4001396 0.5474267 -0.13652392
00000000: 2c9c 49be 0030 fabe 3c44 55bf 23ee 94bf
00000010: 0eb2 48bf 6e5f 43bf fd15 83be 5cd0 383d
00000020: 8414 a83e 913d 3640 a23e 963d 4e69 df3f
00000030: 5628 8b3e a1c3 ea3e fc0f 6a3f 65e7 fc3e
00000040: 4eaf 54be cd73 14be 5a8b bc3f a462 dd3c
00000050: 582f 8c3f eac1 803f f246 83be b309 efbe
00000060: eacd d1bf 93ef 043e 0295 7dbe ab55 eb3d
00000070: b3bd 1b3f 9de4 80bf 1d4b 2cbe 5335 c3bb
00000080: 8656 1140 edab c53f da11 9ebf bd65 d63e
00000090: 1687 7cbf 8870 75c0 c9ee 153f 005c a4be
000000a0: 8697 20bf e555 95bf ada5 83bf 90ca 253f
000000b0: 1a7d c63f 644e 043f f138 373d f1fc 45bf
000000c0: 8fb7 55bf f62e 90bf 0f70 053f c1cb 64bf
000000d0: bc2d 88bf 7d48 233e 8c69 90be be7d 2d3f
000000e0: 18d1 29c0 3e5c 37be 5f4c 8b3e 8369 f13f
000000f0: f858 babf a993 b43f 8d24 c33f b00a 353f
00000100: 32d6 3abf f1ad cb3f e6b7 19bf efde b33e
00000110: ef08 d73f eb36 1bbf f026 f4be 4aa0 3abe
00000120: 3251 a83f e82e 3f3f c9ff 2b3f 9dfc 9ebf
00000130: c09f acbe 8171 afbf c6a0 66bf a3ae d83e
00000140: 589b 0abf 908c 01be 03c6 ca3e 0dff b73e
00000150: 0269 01bf 45c0 b2be ecbb 7fbe 2601 ae3e
00000160: d5e6 ddbe e47e e23f 52fe d3be 9919 0fbe
00000170: 9175 e43f c74a 8f3e 9d1f 2a3f e878 15bf
00000180: 3bf4 40bf 6ff6 c3be 5c2e e33f 5304 edbf
00000190: 1a50 11bf 6b20 1a40 c881 103e 2150 823f
000001a0: 1013 9dbf 44c4 9c3e ee44 fb3e 856a 26bf
000001b0: 9792 5d3e 4277 47be 89b9 71be b5cb 2c3f
000001c0: cd24 1740 9e13 28bf daac a23e 74a3 a03c
000001d0: 5d76 653f d4d3 32be f2aa 35bf efd4 033e
000001e0: ddb9 82be 614f 1e3e 4bd9 883f ed1e c23e
000001f0: 0780 bcbe a59d f83f 93e1 7b3c a043 72bf
00000200: 0332 823f de70 053f 5f96 9dbf c273 6a3c
00000210: 40cc 8b3f 91c2 21be e801 3c3f 5da9 3bbe
00000220: ed1c a1bf 6c0f 30bf 2bbe 34bf 702d 8b3f
00000230: b085 96bf 18be c53f 1607 5dbf f492 983d
00000240: bb34 82bf 0d80 55bf 32ad aebe f2c1 b03f
00000250: d067 053f dfa9 76bf 8263 99bf 22ee ccbf
00000260: bdaa 423f 8ae9 a1bf 4819 00bf 4975 2e3f
00000270: 2c3b dd3e d1c7 3dbf b3d3 56bf 2118 c4bf
00000280: 03cc 22bf bbb9 f5bf 3c7e 8f3f 5a43 45bf
00000290: beb6 afbf 354c 64be e350 9dbe c035 503d
000002a0: 9cbb 803f 0aa8 07c0 31a6 9a3f 6f3a 023f
000002b0: 5e7a aabe 7395 483f e610 19bf 78b9 abbf
000002c0: 5a62 303f 1c19 443f 77e6 bebe e365 6a3f
000002d0: eea4 adbf e7f8 39bf 7448 be3f 192d a83f
000002e0: ecc8 c9bf d97d 9dbf 1139 a93f 7023 82be
000002f0: bb94 13c0 a958 213f 79c6 a73f 816f c6be
00000300: 591b 3abf 40e6 8d3f 77d9 d53f 2762 7dbf
00000310: 0990 b5be 6b6c ec3e 6752 823b 5ace 0bbe
00000320: cac2 473f 8753 19bf 5a25 303f 6acb 483f
00000330: dbee cdbe 4351 5f3f b477 f13f 1b3b 053d
00000340: fba6 6dbf ad10 aabf 0415 01be af45 f2be
00000350: 32f8 29bf 3866 1cbf 70eb 44be 300a 6ebe
00000360: c89f 8d3e f379 0d3f 29f5 993e c141 123f
00000370: eafe bc3e 88b3 4bbe d3e6 99be d6b1 873f
00000380: ae3b 4e3f 3368 cfbf 746e 893e db84 71be
00000390: 452f 16bf 5e8b 94bf 5fdd 2f3f 955d b43e
000003a0: 778d 253f 1106 cfbe d2e9 11bf 7f33 9b3d
000003b0: 6c57 ad3e 7365 f0be 689b bfbd 75cd 0540
000003c0: 23f5 4a3f a221 ce3e eb96 92bf e3e1 d83e
000003d0: a4c5 4abf a3a6 4abf 9a17 f4bf e22a 63bf
000003e0: 78fb dfbf afa3 843e 3170 80bc c3d4 bdbe
000003f0: a2f1 b63f e39b 1940 2824 0c3f edcc 0bbe

indicator_time_mixing.1.indicator_mixing.W2 f4 [64, 5]
-0.8815977 1.1527106 0.7922032 0.88043135 1.1201541 0.33792374 1.8855171 -0.12234643
0.4904275 -0.6649608 -1.3080958 -0.8326525 -1.0950716 -0.74424285 -0.9679596 0.032235287
0.81283844 -0.14462714 0.15953967 1.1604453 -1.2278696 2.1934578 -1.0728635 -0.15017754
-0.20798 -1.2350639 0.26393008 0.67214507 -0.76464283 1.0383626 2.2611492 -0.026395056
-0.31128725 0.49260366 -1.9640737 0.03744346 0.06581165 -0.76099837 0.5858666 -0.08318663
1.382347 -1.033606 -0.50391465 -0.03228222 -0.31617743 -1.504428 0.0031631433 2.6902404
-0.8355263 -1.4289623 0.03403424 1.7242754 0.93256736 0.01664069 -0.73397464 -1.807346
-1.9004922 0.73600507 -0.31863967 -1.3070407 1.2298743 -0.6725691 -0.31784436 0.8189445
0.6097032 0.55707544 0.2840152 -0.2400474 -1.0920677 -0.63711554 -0.458224 0.06316188
-1.768349 2.155893 -0.75619227 -0.10774472 -0.7589766 0.16044526 2.2427263 1.9176141
0.6845685 -1.1749464 -1.2193774 -0.29415607 -1.5836518 -0.42601943 0.46011698 -1.2055254
0.8129841 0.656727 -0.56171125 0.5625299 -0.816238 0.4111961 -0.36079857 -0.72910666
0.44509253 1.1930932 -1.057434 -1.0721589 -0.8254331 0.75324637 -1.1517113 0.45498404
-0.49505892 1.8050188 -1.5963918 0.9982574 -0.86675155 -0.542771 -0.24734028 0.11912166
0.4641557 0.7168362 -0.0363666 -0.18573937 0.30745593 0.3068716 0.8546665 0.2820324
0.110850535 -0.6357991 -2.609755 0.08228505 -1.5645545 1.0084807 0.4345217 -0.6145033
0.46956608 -0.9819527 0.40804937 -0.0044201897 1.5690639 0.7630661 -1.4296626 0.33133772
1.77618 -1.5106871 0.86839634 0.97404695 -0.5999603 -0.9721511 -1.0885341 0.77945626
-1.6048732 0.90141195 1.676058 1.3783214 0.49733785 -0.27992597 0.9721383 0.19433905
0.62238806 2.0077157 0.03387532 0.5642915 0.8645922 1.0442106 -0.61243176 0.3782655
1.0005789 1.7173574 -1.5496137 -0.31359065 -1.3889595 0.281473 0.8714426 -0.68144035
-0.89681447 0.623958 1.3688418 -1.4247634 -0.7147215 1.1515838 0.25394964 0.9275535
-1.2446512 -0.927398 0.51751137 0.21015741 1.8497578 -0.836438 -1.5171994 0.4815177
0.60524064 -1.1981802 0.78914315 -0.42598575 -0.035187185 0.5357759 0.06806061 -0.66913277
0.43403268 -1.2893035 -1.2710204 0.21421006 0.6014304 -0.96788585 1.6606169 1.0354172
1.4826009 0.11580113 1.3333986 0.73001873 0.28485933 -0.84352124 0.26850572 0.3814709
-2.1836247 1.5724425 0.6499363 -0.40178046 -1.2295536 -0.6863129 0.102876134 1.3265942
0.14180967 -0.17489332 1.2449214 -0.9924545 0.30340338 -1.5960631 0.0027545758 -0.8389252
-2.4747748 0.47562703 -1.1131101 -0.47692308 -1.0328013 0.018168608 0.6018086 0.44145525
0.44585553 0.5710535 -2.1599631 -0.8769178 1.8938684 -0.33039367 0.5290845 -0.3958436
1.0070186 -0.10192834 1.3433444 0.44902638 1.4750805 -0.59526294 -0.5316836 -1.5901653
0.17028229 0.81826836 1.8441615 -0.027847992 -1.0100007 0.07784445 -0.72872365 -0.56637895
00000000: 63b0 61bf 058c 933f d4cd 4a3f f363 613f
00000010: 3661 8f3f 5704 ad3e a058 f13f c490 fabd
00000020: 5019 fb3e df3a 2abf af6f a7bf b728 55bf
00000030: 4e2b 8cbf b386 3ebf 33cc 77bf 2609 043d
00000040: 2e16 503f 2319 14be 5e5e 233e 7989 943f
00000050: d52a 9dbf 9d61 0c40 9753 89bf 24c8 19be
00000060: b6f8 54be 9316 9ebf d821 873e b311 2c3f
00000070: a2bf 43bf 11e9 843f abb6 1040 723a d8bc
00000080: 0b61 9fbe 8c36 fc3e c466 fbbf 505e 193d
00000090: 42c8 863d cad0 42bf 5afb 153f c05d aabd
000000a0: bff0 b03f 344d 84bf 8d00 01bf 5c3a 04bd
000000b0: 02e2 a1be 1991 c0bf bd4c 4f3b e62c 2c40
000000c0: 0de5 55bf 3de8 b6bf 7d67 0b3d 0eb5 dc3f
000000d0: bcbc 6e3f 0e52 883c c3e5 3bbf 1d57 e7bf
000000e0: 5443 f3bf d46a 3c3f bd24 a3be 1c4d a7bf
000000f0: 856c 9d3f 7d2d 2cbf 7fbc a2be 59a6 513f
00000100: 8215 1c3f 7f9c 0e3f 716a 913e fcce 75be
00000110: e0c8 8bbf 011a 23bf 569c eabe 045b 813d
00000120: 4359 e2bf 27fa 0940 d195 41bf 44a9 dcbd
00000130: 4a4c 42bf c34b 243e d488 0f40 6174 f53f
00000140: e23f 2f3f a564 96bf 8f14 9cbf a09b 96be
00000150: 1ab5 cabf 381f dabe 7494 eb3e a84e 9abf
00000160: ba1f 503f 431f 283f 4fcc 0fbf f601 103f
00000170: f9f4 50bf 4c88 d23e 97ba b8be bca6 3abf
00000180: 2be3 e33e 47b7 983f ff59 87bf 813c 89bf
00000190: 954f 53bf c1d4 403f 476b 93bf abf3 e83e
000001a0: 5d78 fdbe db0a e73f 9156 ccbf cc8d 7f3f
000001b0: 6ee3 5dbf 0af3 0abf c546 7dbe 0ff6 f33d
000001c0: d1a5 ed3e 9482 373f 25f5 14bd 7632 3ebe
000001d0: dd6a 9d3e 461e 9d3e 6ccb 5a3f 8d66 903e
000001e0: 9b05 e33d bbc3 22bf 3a06 27c0 1085 a83d
000001f0: 5243 c8bf e515 813f a179 de3e 1750 1dbf
00000200: f76a f03e 4161 7bbf d9eb d03e 3dd7 90bb
00000210: 16d7 c83f 4d58 433f 2fff b6bf 19a5 a93e
00000220: de59 e33f 325e c1bf 394f 5e3f 245b 793f
00000230: 0097 19bf e5de 78bf 1655 8bbf 728a 473f
00000240: 7c6c cdbf efc2 663f 1289 d63f d66c b03f
00000250: 11a3 fe3e 7552 8fbe 0ede 783f d100 473e
00000260: d354 1f3f 6a7e 0040 d9c0 0a3d 6875 103f
00000270: ea55 5d3f b1a8 853f 54c8 1cbf 04ac c13e
00000280: f812 803f 5ed2 db3f be59 c6bf f48e a0be
00000290: 6dc9 b1bf 3b1d 903e dd16 5f3f e072 2ebf
000002a0: a295 65bf b6bb 1f3f 3536 af3f a65e b6bf
000002b0: fdf7 36bf 1967 933f b005 823e 2574 6d3f
000002c0: bb50 9fbf f569 6dbf a07b 043f 8133 573e
000002d0: ddc4 ec3f cd20 56bf 9733 c2bf 7d89 f63e
000002e0: 0df1 1a3f f85d 99bf 4905 4a3f ce1a dabe
000002f0: 7020 10bd 9c28 093f 5c63 8b3d 494c 2bbf
00000300: 8839 de3e e607 a5bf ccb0 a2bf e259 5b3e
00000310: 58f7 193f 5ec7 77bf 188f d43f 8d88 843f
00000320: dec5 bd3f 2529 ed3d ceac aa3f 82e2 3a3f
00000330: 15d9 913e 02f1 57bf 9579 893e 2750 c33e
00000340: 82c0 0bc0 cc45 c93f 3a62 263f 2bb6 cdbe
00000350: 0362 9dbf 34b2 2fbf b9b0 d23d d7cd a93f
00000360: 8e36 113e 3c17 33be 9659 9f3f 8011 7ebf
00000370: b057 9b3e cc4b ccbf 1d86 343b cdc3 56bf
00000380: b662 1ec0 6385 f33e 647a 8ebf 432f f4be
00000390: d532 84bf 55d6 943c 2110 1a3f 6c06 e23e
000003a0: 2d47 e43e 9030 123f d63c 0ac0 af7d 60bf
000003b0: 486a f23f 5c29 a9be 1572 073f 03ac cabe
000003c0: fce5 803f cebf d0bd b6f2 ab3f c9e6 e53e
000003d0: 70cf bc3f 2763 18bf 6b1c 08bf 898a cbbf
000003e0: 7b5e 2e3e 097a 513f 7c0d ec3f 7921 e4bc
000003f0: b447 81bf e96c 9f3d a28d 3abf 36fe 10bf

indicator_time_mixing.1.indicator_mixing.ln.weight f4 [8, 5]
0.94883245 1.1492605 1.0127053 0.9709486 0.9524742 0.89124256 1.1306299 0.9059462
0.95002514 0.88634115 0.9824295 1.0099764 0.9740128 0.9719579 0.9798076 0.9946233
0.9407745 0.9957947 0.9738986 1.002034 0.9048231 0.91652286 0.9393815 1.0050583
0.97090054 1.0203784 0.9981792 0.9593354 1.1250644 1.0474087 0.9895226 0.99825925
0.9945785 0.85138255 0.9797669 0.96012264 1.1175337 0.9994956 1.1699061 0.9800804
00000000: afe6 723f f81a 933f 54a0 813f 1690 783f
00000010: 59d5 733f 7928 643f 7bb8 903f 17ec 673f
00000020: d934 733f 41e7 623f 8080 7b3f e846 813f
00000030: e758 793f 3cd2 783f acd4 7a3f a29f 7e3f
00000040: 99d6 703f 67ec 7e3f 6b51 793f a642 803f
00000050: 7da2 673f 3ea1 6a3f 4e7b 703f c0a5 803f
00000060: f08c 783f c29b 823f ac88 7f3f 0197 753f
00000070: 1c02 903f 7d11 863f 5a51 7d3f eb8d 7f3f
00000080: b29c 7e3f 35f4 593f 01d2 7a3f 99ca 753f
00000090: 580b 8f3f f2de 7f3f 7cbf 953f 8de6 7a3f

indicator_time_mixing.1.indicator_mixing.ln.bias f4 [8, 5]
0.0067968727 -0.04691104 -0.0047890623 -0.055125035 -0.02611349 -0.12358313 -0.02340655 -0.05106258
-0.041331656 0.07247536 0.0005354434 0.020862428 -0.023483489 -0.037134532 -0.036036406 -0.02409827
-0.016024567 0.021246556 -0.0017371059 0.030772148 -0.0876022 -0.007919561 -0.06457357 0.09656952
0.051152375 0.0077165742 -0.017145233 -0.028555686 0.034644317 0.0012842615 0.019326232 0.024308164
-0.0035600497 0.02030636 -0.028986389 -0.04670745 -0.07600039 -0.017511275 -0.009916428 0.06589327
00000000: 4db8 de3b ca25 40bd 91ed 9cbb caca 61bd
00000010: f5eb d5bc 2719 fdbd 18bf bfbc ff26 51bd
00000020: 624b 29bd f66d 943d 005d 0c3a afe7 aa3c
00000030: 7260 c0bc 611a 18bd e99a 13bd bc69 c5bc
00000040: f445 83bc 420d ae3c 9aaf e3ba df15 fc3c
00000050: c868 b3bd 0cc1 01bc 263f 84bd 3ec6 c53d
00000060: 2785 513d 51db fc3b 2974 8cbc 9ded e9bc
00000070: 33e7 0d3d aa54 a83a 0c52 9e3c ea21 c73c
00000080: b94f 69bb 8659 a63c dd74 edbc 5050 3fbd
00000090: 18a6 9bbd ce73 8fbc 8378 22bc 0df3 863d

indicator_time_mixing.1.time_mixing.ln.weight f4 [8, 5]
0.94245136 1.0659763 0.8393453 0.62899536 1.0228014 0.94141906 1.0604321 0.8458078
0.6222882 1.0136973 0.9731237 1.0506746 0.8362434 0.6937488 1.0229071 0.96820194
1.0502235 0.8763749 0.7380183 1.0158627 0.96129876 1.0373764 0.9122864 0.791431
1.0002216 0.9790374 1.0260104 0.94357204 0.8503156 1.001469 0.9694371 1.0100341
0.93824327 0.9239138 1.0450011 0.97563446 1.0139269 0.9854748 0.97665995 1.0278182
00000000: 7e44 713f e971 883f 55df 563f d705 213f
00000010: 28eb 823f d700 713f 3dbc 873f dc86 583f
00000020: 484e 1f3f d5c0 813f a31e 793f 817c 863f
00000030: 0c14 563f 8599 313f 9fee 823f 15dc 773f
00000040: b96d 863f 1b5a 603f c4ee 3c3f ca07 823f
00000050: ad17 763f c0c8 843f 9a8b 693f 399b 4a3f
00000060: 4307 803f 32a2 7a3f 4f54 833f f08d 713f
00000070: 48ae 593f 2330 803f 082d 783f cc48 813f
00000080: b630 703f 9d85 6c3f 99c2 853f 2ec3 793f
00000090: 5bc8 813f 1448 7c3f 6306 7a3f 8c8f 833f

indicator_time_mixing.1.time_mixing.ln.bias f4 [8, 5]
-0.026541494 0.044813965 -0.024366999 0.031309478 -0.010859184 -0.037268944 0.034020487 -0.028723974
0.03668823 -0.010793878 -0.049861014 0.037762143 -0.04183033 0.049371358 -0.022661895 -0.035414707
0.04141801 -0.026500138 0.03559165 -0.011816048 -0.028678002 0.03888869 -0.019450977 0.02334366
-0.0018488402 -0.025146862 0.04012609 -0.011648752 0.021241557 0.0038394742 -0.05267287 0.033045974
-0.03353154 0.04642863 -0.02446239 -0.02795914 0.010171011 -0.01348547 0.027872883 -0.012689376
00000000: 8c6d d9bc d98e 373d 4d9d c7bc 5e3e 003d
00000010: b8ea 31bc 52a7 18bd 1159 0b3d 8a4e ebbc
00000020: 6646 163d ced8 30bc 103b 4cbd 7aac 1a3d
00000030: 4856 2bbd 9f39 4a3d 70a5 b9bc 030f 11bd
00000040: eea5 293d d116 d9bc 8dc8 113d 1998 41bc
00000050: 21ee eabc bf49 1f3d a857 9fbc 343b bf3c
00000060: c854 f2ba cb00 cebc 415b 243d 68da 3ebc
00000070: c602 ae3c b09f 7b3b 82bf 57bd 375b 073d
00000080: 5e58 09bd f22b 3e3d 5a65 c8bc 910a e5bc
00000090: 50a4 263c 29f2 5cbc ac55 e43c 1ae7 4fbc

indicator_time_mixing.1.time_mixing.U1.1 f4 [1, 2]
-0.003018775 -0.0005871393
00000000: a4d6 45bb 40ea 19ba

indicator_time_mixing.1.time_mixing.U1.2 f4 [1, 3]
0.0004554734 0.00024402305 0.001248887
00000000: 9bcc ee39 70e0 7f39 b2b1 a33a

indicator_time_mixing.1.time_mixing.U1.3 f4 [1, 4]
0.00069174316 -0.006015969 0.0025901524 -0.0061358986
00000000: 1956 353a 9b21 c5bb 8cbf 293b a60f c9bb

indicator_time_mixing.1.time_mixing.U1.4 f4 [1, 5]
0.0009479515 -0.00017833186 0.0020749315 0.0006932581 0.000499821
00000000: f37f 783a 98fe 3ab9 93fb 073b c3bb 353a
00000010: 6b06 033a

indicator_time_mixing.1.time_mixing.U1.5 f4 [1, 6]
-0.0034810533 0.0006489366 0.0010378981 -0.0022166383 -9.374152e-07 -0.00082544325
00000000: 6222 64bb 661d 2a3a 150a 883a 0545 11bb
00000010: afa2 7bb5 8f62 58ba

indicator_time_mixing.1.time_mixing.U1.6 f4 [1, 7]
-0.0011044156 0.0042127063 -0.003699916 -0.004110119 0.004332377 -0.0016670384 -0.00021137316
00000000: 0ac2 90ba be0a 8a3b 4a7a 72bb 2dae 86bb
00000010: 9df6 8d3b 8780 daba 0da4 5db9

indicator_time_mixing.1.time_mixing.U1.7 f4 [1, 8]
-0.00016664615 -0.0016467441 -0.009982619 -0.017862134 -0.0040152567 -0.00013456804 -0.007250364 -0.0025026063
00000000: bcbd 2eb9 90d7 d7ba 248e 23bc 9c53 92bc
00000010: 6a92 83bb d51a 0db9 7694 edbb c402 24bb

indicator_time_mixing.1.time_mixing.U2.1 f4 [1, 2]
0.0017166303 0.0416305
00000000: 8e00 e13a be84 2a3d

indicator_time_mixing.1.time_mixing.U2.2 f4 [1, 3]
0.011257179 0.010101147 -0.012791689
00000000: 0870 383c 487f 253c 3b94 51bc

indicator_time_mixing.1.time_mixing.U2.3 f4 [1, 4]
0.013546975 0.0031869991 -0.005387847 -0.016949274
00000000: 22f4 5d3c f9dc 503b 898c b0bb 34d9 8abc

indicator_time_mixing.1.time_mixing.U2.4 f4 [1, 5]
-0.001676232 0.0010483646 -0.018139442 -0.034676228 -0.009971699
00000000: 03b5 dbba 4769 893a 2b99 94bc a908 0ebd
00000010: 5660 23bc

indicator_time_mixing.1.time_mixing.U2.5 f4 [1, 6]
0.007901345 -0.012591118 0.007699091 -0.00541819 -0.0003243812 -0.006553565
00000000: a574 013c fa4a 4ebc a848 fc3b 128b b1bb
00000010: b511 aab9 4abf d6bb

indicator_time_mixing.1.time_mixing.U2.6 f4 [1, 7]
0.004179038 0.0040102475 0.0036996189 -0.02627312 -0.0017561641 -0.00024223972 0.0138986325
00000000: 50f0 883b 6568 833b 4e75 723b ba3a d7bc
00000010: 172f e6ba bb01 7eb9 17b7 633c

indicator_time_mixing.1.time_mixing.U2.7 f4 [1, 8]
0.010160814 0.013112931 0.0069139055 -0.016530138 0.0013595677 0.0005547485 0.02001259 -0.0058628614
00000000: 8b79 263c 9ed7 563c 0b8e e23b 366a 87bc
00000010: 8633 b23a 8b6c 113a 71f1 a33c 3f1d c0bb

indicator_time_mixing.1.fc.weight f4 [1, 5]
0.11027735 -0.004856791 0.04585341 -0.06708563 0.0296644
00000000: 17d9 e13d b725 9fbb c9d0 3b3d 3164 89bd
00000010: c102 f33c
