weights/stockmixer_L16_H64_M40_K4_E50_s1_Sigmoid.pt (torch, 631692 bytes, 93 tensors)

indicator_time_mixing.0.indicator_mixing.W1 f4 [5, 64]
00000000: 4f78 c2bf 17af 23bf aa2b 0cbf 336f d0bf
00000010: bb46 5cbd f88f 29bf 836b 69bf af19 cdbf
00000020: f95b 46bf 82da ab3e 7c78 37bf 15a0 acbe
00000030: 1175 82be 3ca6 d73f f107 323e f8d6 db3e
00000040: 9614 19bf 59ad 8dbf 6d7b 283f 8939 833e
00000050: e6de 6a3f 37bb 973e 9964 3dbf da56 553f
00000060: 41de 853f 3d3e fcbd 6df0 09c0 7853 b8bf
00000070: 02c4 0c3e 04ad 26bf 2e2a 3fbf 3352 aebd
00000080: 4294 f23f d446 e2bd a654 de3d c077 39bf
00000090: 6afe 7f3e ed78 a3bc 7ebd bd3d 336e 02bf
000000a0: bf93 22be 5052 7b3e a341 60be 9afd 95bd
000000b0: e9cf 1540 cbf6 88bf 7c14 c93f ca7c 0abf
000000c0: 950b 66bf e335 333f db01 0f3e c59a c6be
000000d0: f459 363f 0fb4 c23e 2bfc 9a3f a390 0140
000000e0: eafc d23d 2014 7c3f 0aa0 03be fd59 25bf
000000f0: 8d8f c33f 3cec ffbe 2e67 54c0 d020 4abf
00000100: 0450 0bbd f93d 89bf c035 24bf c8e5 7cbf
00000110: 61dd 5cbe 7b35 f63c de3f d23f da36 e23b
00000120: c6e3 2bbf 215e 48be e448 83bf 6d38 4ebf
00000130: 97c1 dfbe 9caa 13bf 702e d93e 8176 71bf
00000140: 9d94 10bf 1744 8f3d e9b6 22bf cd3a 333f
00000150: 9492 babf 5b68 07bf 8cf2 513e 7c8d 32be
00000160: 2e4a 923e d5f2 0bbf 2e92 89bf 153b 373f
00000170: ce26 89bf 4da0 e1be 10c0 863e 79ec fd3f
00000180: 3344 213f ab1f 983f d651 573f 3abb 70bf
00000190: cfed b03f a6e5 44bf 2a99 64bf 1b35 903f
000001a0: eff2 ae3f 8848 213f c995 9fbd 54ab fabd
000001b0: 5026 08c0 e6d3 15bf b0f1 babf a08c 95bf
000001c0: 3c8f 573f f77e 12bf 2841 a03f e6c3 433f
000001d0: 7f61 693e 509b ad3e 35a7 033f a8d2 e9be
000001e0: c3f2 2240 b07c 81be 556d 31bd c552 ed3f
000001f0: 248d fdbf 99e7 ac3f 8c99 fc3d 689a b73e
00000200: 6818 413f ec38 fabf 9d78 893e c4eb 9c3f
00000210: c76d a5be 61f9 ddbf e856 163f 0901 4cbf
00000220: 2050 c7bf fb18 f3bf 1d6a fd3e 3432 3a3f
00000230: b20a 1540 0095 233f 30d2 e23f e745 d5bf
00000240: 36a7 c0bf c404 84bf f5e3 c43f aec7 173f
00000250: 4fbe cf3e c529 f2be 1c77 1b3f 2f43 c6bf
00000260: 3ad6 133f eeae fc3c 16ce 463e 6b8d a73f
00000270: 893b d93f 30c0 f13f 5e28 41bf 7eba 1c40
00000280: fc47 cf3e cafc 4dbe 5438 49bf 17af e7be
00000290: 56f9 28bf 4fdd 58bf 57c0 713f c8a0 873f
000002a0: ffe4 d73e 7b2b ca3f 08dc 9f3f f7a0 e2bf
000002b0: 8ccd dabe 2da2 6dbf e73a 213d 60dd 3bbe
000002c0: 7958 433f 9664 9c3f 614a e83e 2a2b b93f
000002d0: 501a 6dbf ca93 513e 3b8f 47be 0b72 b8be
000002e0: 060b bf3f 0be5 a8be 2003 453e 79a1 9c3f
000002f0: e9e1 053e 2479 343f 03db c9be cc8b 7c3f
00000300: b195 11bf 6061 603f efa2 eb3f 8691 56be
00000310: 2ec3 043f 11b1 f1bf 8a70 38c0 6a83 13bf
00000320: cf2a 12bf 0a68 663f ca80 5bbf f2c9 003f
00000330: 376c c8bf 4f9c 17be 5d92 343f 7049 f93c
00000340: e7cf 743f 6b22 893f 6f1d 08bf faf1 b03f
00000350: 6bd7 7a3e 11d0 f83f 9625 e63f c4d3 aa3f
00000360: 9356 7fbf 7b74 a53f 58f2 9f3f 76a4 06bf
00000370: e568 7a3e 45b2 17bf d4d6 bd3f 5fa4 e03f
00000380: 7e70 d63f 2d16 d5be eba6 95be a94d b5bf
00000390: 505d 9e3f 7b83 9e3f 1f1e b93e b761 c83e
000003a0: d392 c4bd f723 a53e 64cc 6c3f a4b1 b4bf
000003b0: f0ef dc3f 788f 19c0 2fdc 6cbf 9465 a63e
000003c0: b0fe 6a3e 0301 7d3f defa be3f a786 05bf
000003d0: 0b4b 43bf 21ca 6bbe 2432 5bbe 908b 743c
000003e0: 4b9c 9d3e ae34 12bf 730c 0cbf d226 793f
000003f0: 9e48 95bd 8f6e 48bf e004 c8bd bea0 0e3f
-1.5192965 -0.6393904 -0.54754126 -1.6283935 -0.05377839 -0.66235304 -0.91179675 -1.6023463
-0.7748409 0.33565146 -0.7166822 -0.33715883 -0.2547994 1.6847606 0.17385842 0.42937446
-0.59797037 -1.1068527 0.6581333 0.25629833 0.91746366 0.2963502 -0.73981625 0.8333565
1.0458452 -0.123165585 -2.1552994 -1.4400473 0.13746646 -0.6510775 -0.74673736 -0.08511772
1.8951495 -0.11048666 0.10855989 -0.7244835 0.24999395 -0.019955123 0.092646584 -0.509494
-0.15876673 0.24543118 -0.21900038 -0.07323761 2.3408148 -1.0700315 1.5709376 -0.54096663
-0.8986142 0.700041 0.13965552 -0.38789955 0.7123101 0.38028 1.2108206 2.024453
0.10302146 0.9846821 -0.12854019 -0.64590436 1.5278183 -0.4998492 -3.3187976 -0.7895632
-0.034011856 -1.0722038 -0.64144516 -0.9878812 -0.21568824 0.030054798 1.6425741 0.0069035115
-0.6714443 -0.19567157 -1.025662 -0.8055485 -0.43702385 -0.57682204 0.42418242 -0.9432145
-0.56476766 0.06995409 -0.6356035 0.700116 -1.4575982 -0.5289361 0.2050268 -0.17436785
0.2857222 -0.5466741 -1.0747736 0.7157453 -1.0714967 -0.44067612 0.26318407 1.9837791
0.6299469 1.1884664 0.84109247 -0.94035685 1.3822573 -0.76912916 -0.8929621 1.1266207
1.3667887 0.630013 -0.07792241 -0.122397095 -2.1273384 -0.58526456 -1.4605007 -1.168354
0.84202933 -0.5722498 1.2519884 0.7647079 0.22791098 0.33907557 0.5142701 -0.4566853
2.546067 -0.25290442 -0.043317158 1.8540884 -1.9808698 1.3508178 0.12333974 0.3585999
0.75427866 -1.9548621 0.26849833 1.225945 -0.32310316 -1.7341729 0.5872636 -0.7968908
-1.5571327 -1.8991998 0.4949502 0.72732854 2.3287778 0.6389923 1.7720394 -1.6661958
-1.5051029 -1.0313954 1.5382067 0.5928906 0.4057488 -0.47297493 0.6072862 -1.5489253
0.5774876 0.030845132 0.19414553 1.3090032 1.6971294 1.8886776 -0.7545222 2.4488826
0.40484607 -0.20115963 -0.78601575 -0.4525077 -0.66005456 -0.8471269 0.9443411 1.0595942
0.42166898 1.5794519 1.2489023 -1.7705373 -0.42734945 -0.92825586 0.039362814 -0.18346167
0.76306874 1.2218196 0.45369247 1.4466298 -0.92618275 0.20466533 -0.19488232 -0.36024508
1.4925239 -0.32987246 0.19239473 1.2236778 0.13074459 0.70497346 -0.39424905 0.98650813
-0.56869036 0.8764858 1.8409098 -0.2095395 0.5186032 -1.8882161 -2.8818688 -0.57622397
-0.5709657 0.900025 -0.8574339 0.50308144 -1.5658025 -0.14805721 0.7053583 0.030430526
0.95629734 1.0713629 -0.5316991 1.3823845 0.24496238 1.9438497 1.798022 1.3345876
-0.99741477 1.2926172 1.2495832 -0.525947 0.24454077 -0.5925639 1.4831185 1.7550162
1.675308 -0.4161848 -0.2922891 -1.4164325 1.2372227 1.2383875 0.36155793 0.3913705
-0.09598317 0.32254001 0.92499375 -1.4116712 1.7260723 -2.3993816 -0.92523474 0.32499373
0.22948718 0.9882967 1.4920309 -0.5215859 -0.7628638 -0.23026325 -0.21405846 0.014925852
0.30783305 -0.5711163 -0.54706496 0.9732486 -0.07289241 -0.782937 -0.09766555 0.55714023

indicator_time_mixing.0.indicator_mixing.W2 f4 [64, 5]
00000000: 6fac 253f 5e61 60bf 0377 4f3d 1e2b afbe
00000010: b02a b43f 82db e83e f60b 3cbf 136b 6abf
00000020: c642 3f3f 4b90 383f 4fdc 85bf 0329 55bf
00000030: 7704 4abf 1808 3a3f f154 fe3b 5372 8a3f
00000040: 6218 21bf ac62 14bf 8732 16bf b501 b63c
00000050: 3557 303f 0728 ef3d 14c5 2e3d 6d07 18c0
00000060: c856 c93e fc38 de3e a3e2 9f3f 6d13 973f
00000070: 5f3f 2c3e b393 133f 8175 ddbe 32d2 fbbf
00000080: db7d d73d f655 543f 63e9 273f 5bd4 e2bf
00000090: 0031 45bf c2cd aebf e0e4 ce3f 4ae0 29bd
000000a0: 1169 553f 98c8 0c3d a25b e5bf 8a43 5b3f
000000b0: 25c3 2cc0 dd23 82be af53 9d3e 2922 813f
000000c0: 3163 1abf b557 7d3f c871 95bc b5d3 b3bf
000000d0: d4c7 85bf e706 4a3f 8bb2 983f af90 77bf
000000e0: c817 a43f 05cf cabe a292 58be aeaf 0cbf
000000f0: cad8 293f aebf ca3e 357d 8cbf 8c87 773f
00000100: c0f9 09bf 4091 44be 9ed3 bb3f 51a8 c0bf
00000110: 98f0 443f 6bdd 20bf b10b 9e3f 14ed f33e
00000120: 7b01 afbe 92d6 e93f 6eba 23bc cd71 febd
00000130: 55e5 26bf 4bb0 3abf 6f9a e7be a2a4 ffbf
00000140: 83fd c33e c116 c9bf 66ba 8bbf 2442 60bd
00000150: 2860 86be 6870 103e 3381 9ebe 0bc5 1bbe
00000160: 938d 23bf 269e 9a3f 5eb4 133f fe9e fbbe
00000170: 7925 89bf fe4c 7b3e 9f83 25bf 905b 12bf
00000180: 27b4 f7be faf5 6f3e 8201 c2be 8a1e 363f
00000190: a417 d0be d860 1cc0 15be afbf 715f babd
000001a0: b5c0 84bd 9a08 16c0 4938 063f 4f2e d33e
000001b0: 7cf2 70be c01b 393f dc39 ca3e 1f7b 0e40
000001c0: f533 5e3f da80 b33f 362b c43f 0c0b 983d
000001d0: d6c0 d1bf c290 51be c8e6 5e3e 5dab 243f
000001e0: 2b7c 313f 760d 6bbe 75a8 b5bd 7808 f7be
000001f0: ef4a a1be fee1 a4bf 476f f13f 6d53 f8bf
00000200: 045e 0cbd 87aa 923e 3e1e 8b3e 4360 7e3e
00000210: 35f7 debe e877 783f 7e43 ef3f ce4b 8dbf
00000220: 823a 403f 0787 523e fdf7 bbbf b1ab db3f
00000230: a404 53c0 9e8d e33e 0fdb 0cc0 de6d c3bf
00000240: 747a 8c3f 5636 b43f 7c0f f23e c968 3b3f
00000250: 78b2 923f 5d3f 9fbe 18c2 d2be 6985 053f
00000260: 8db0 68be 6f4a 42bf 0b58 56be c96c 01bf
00000270: 50d0 473e 6dd6 ffbe 731b 5abf 38c4 123f
00000280: bc50 d6be b21e 84bd 8978 28bf 1ef3 2ebf
00000290: cf7f 413f e87f 233f e7c0 f4be f870 09bf
000002a0: d5af c5bf 584e 2ebf bd8d 9dbf 9639 a43f
000002b0: a35d 15c0 3a6c 7f3e 55aa 25be 3311 24c0
000002c0: 4eb8 cebf 719f 0a3e e2a8 2dbe af57 ba3f
000002d0: cc96 113e 6201 b0be 636b 2f3d fb2e 0cbf
000002e0: 8c69 8d3f 41c8 323f 17be 0b3f b300 e53e
000002f0: 7028 edbe a968 9c3e 37b4 883e 9cc5 17bf
00000300: e54e de3e 6f2b a83f 6798 58be d8df 9bbd
00000310: 4b63 23be 51f1 fc3e 7a79 60be 5d84 9fbf
00000320: 94ad 09bc 8457 b13f 1f47 eabf 2fbd b43d
00000330: 9131 f53e fd9d 943e babd 37bf a6d7 bcbe
00000340: 4864 aa3e ee9a 21bf 785a 253f 1144 a13f
00000350: 775f 4b3e db58 8d3f 99ac db3c 1a48 8cbe
00000360: 9cd6 51bf 578b cebd 485b 933f e7c0 0ebf
00000370: f449 cdbf 785a 5e3f 29a3 743f fc89 cd3e
00000380: f29f c03e 2b92 943f 7e38 5e3c abd1 20c0
00000390: d274 213f e849 b9be fd1f bf3e 6e5d 9d3e
000003a0: d742 32bf 344c 893f 30c3 153f f663 7abf
000003b0: 5d6e 08bf 8e0e d43f 1139 8e3f d51e 433f
000003c0: b508 29bf ee02 6abf e0bd 073f ac16 24bf
000003d0: edae 9d3f 9096 473f c07e cfbe f416 21bf
000003e0: b616 07bf ca77 8e3d f27d 4ebf 2539 953e
000003f0: 60a5 3c3f 4e54 573f 7031 043f ef93 d33e
0.6471624 -0.8764857 0.050650608 -0.34212583 1.4075527 0.4547997 -0.7345575 -0.9156963
0.74711263 0.72095174 -1.0457858 -0.83265704 -0.7891306 0.726686 0.0077615906 1.0816139
-0.6292783 -0.5796306 -0.5867085 0.02221761 0.6888307 0.116775565 0.042668417 -2.3754532
0.3932402 0.4340285 1.2491039 1.1802803 0.16821049 0.57647246 -0.4325371 -1.9673522
0.10522052 0.82943666 0.65590495 -1.7721056 -0.77027893 -1.3656542 1.6163597 -0.041473664
0.83363444 0.03437099 -1.7918589 0.8564993 -2.6994107 -0.25417987 0.30727908 1.008855
-0.60307604 0.98961955 -0.018242732 -1.4048983 -1.0451608 0.7891678 1.1929487 -0.96705145
1.2819757 -0.39611068 -0.21149686 -0.54955566 0.6634642 0.39599365 -1.097571 0.96691203
-0.53896713 -0.19196033 1.4673955 -1.5051366 0.76929617 -0.62837857 1.2347318 0.47641814
-0.34180817 1.8268607 -0.009993179 -0.124240495 -0.6519368 -0.7292525 -0.4523501 -1.9972117
0.38279352 -1.5710069 -1.0916259 -0.054750577 -0.26245236 0.1410538 -0.30957946 -0.15211885
-0.638879 1.2079513 0.57697093 -0.4914474 -1.0714561 0.24541089 -0.6465396 -0.57170963
-0.48379633 0.23433676 -0.37891775 0.7114035 -0.40643036 -2.4434109 -1.3729883 -0.09100235
-0.064820684 -2.344275 0.52429634 0.41246268 -0.2353 0.7230797 0.39497268 2.2262647
0.8679803 1.4023697 1.5325687 0.07423982 -1.6386974 -0.20465377 0.21767724 0.6432398
0.6933009 -0.22954354 -0.08870021 -0.4824865 -0.31502482 -1.2881467 1.8862084 -1.940046
-0.034269348 0.28645727 0.2717151 0.24841408 -0.4354798 0.9705796 1.8692472 -1.1038759
0.75089276 0.20559321 -1.4685055 1.7161771 -3.2971582 0.44443983 -2.2008703 -1.5267904
1.097487 1.4079082 0.4727744 0.73206764 1.1460714 -0.3110303 -0.41163707 0.5215669
-0.22723599 -0.75894827 -0.20932023 -0.5055662 0.19513059 -0.4996828 -0.85198134 0.57330656
-0.4185847 -0.06451167 -0.6580892 -0.6833972 0.75585645 0.63867044 -0.47803423 -0.53688
-1.5444285 -0.68088293 -1.230888 1.2830074 -2.3338401 0.24943629 -0.16178258 -2.5635498
-1.6149995 0.13537385 -0.16958955 1.4558009 0.1421768 -0.34376055 0.04282702 -0.54759187
1.1047835 0.69836813 0.5458693 0.44727096 -0.46319914 0.305486 0.26699993 -0.592859
0.43419567 1.3138255 -0.21151887 -0.07611054 -0.15955846 0.4940286 -0.2192134 -1.2462269
-0.008403201 1.3854833 -1.8302954 0.088251464 0.4788938 0.29026785 -0.71773875 -0.36883277
0.33279634 -0.6312703 0.6459117 1.2598897 0.19860636 1.1042742 0.0268157 -0.2739876
-0.8196809 -0.10085171 1.1512232 -0.55763096 -1.6038194 0.86856794 0.9556146 0.40144336
0.3762203 1.1607107 0.0135632735 -2.512797 0.6306888 -0.36189198 0.37329093 0.30735344
-0.6963324 1.072638 0.5850096 -0.9780878 -0.532934 1.6566942 1.1111165 0.7621892
-0.6602891 -0.9141072 0.530241 -0.64097095 1.2319008 0.77964115 -0.4052639 -0.6292565
-0.5276903 0.06956442 -0.8066093 0.2914516 0.7368984 0.84113014 0.51637936 0.41323802

indicator_time_mixing.0.indicator_mixing.ln.weight f4 [16, 5]
00000000: 896a 6d3f bcfb 823f 7e81 963f 0223 853f
00000010: c69e 8b3f 14fe 753f 2419 813f b77e 8d3f
00000020: 75d1 803f b173 903f 9f57 603f 5c1a 863f
00000030: 25e8 a23f 23ba 863f 19c6 7c3f 583b 773f
00000040: 4062 813f 260b 843f d1d6 803f 5d0c 733f
00000050: 13aa 7a3f 6aa1 7d3f bcf2 723f 51f5 7f3f
00000060: 1356 783f 0b19 823f 45b0 7d3f 0703 883f
00000070: 2ea7 833f b364 773f 3c12 763f e6db 7d3f
00000080: 5ab3 7b3f 75c7 803f 4a35 843f b041 7a3f
00000090: 288c 7c3f e05f 7a3f da88 803f 3274 843f
000000a0: 7e95 813f 6d96 803f 8114 793f 8b2f 7f3f
000000b0: 46fb 6c3f 805c 7f3f 4bd9 823f ce37 863f
000000c0: 4366 803f 2d36 6b3f 44bc 7d3f 9195 7a3f
000000d0: af50 823f de86 813f e6d7 8e3f 8fcd 7b3f
000000e0: 4dc4 7c3f 5d1a 873f 3ae3 7f3f 75bf 923f
000000f0: 29fe 7e3f 9482 813f d001 783f 9542 803f
00000100: a8c5 5d3f aff1 623f 2497 883f 329b a03f
00000110: bdbf 853f c094 443f a64f 7f3f 3b04 7f3f
00000120: 4c22 6c3f 95c7 803f d011 593f c84e 7a3f
00000130: 993c 803f baa7 613f e836 7f3f f538 543f
0.92740685 1.0233073 1.1758268 1.0401309 1.0907829 0.9609082 1.0085797 1.1054295
1.0063921 1.1285306 0.876337 1.0476794 1.2727095 1.0525554 0.98739773 0.96574926
1.0108109 1.0315902 1.0065557 0.9494074 0.9791576 0.99074423 0.94901633 0.999837
0.9700634 1.0163893 0.9909709 1.0625924 1.0285394 0.9663803 0.96121573 0.99163663
0.98320544 1.006087 1.0328763 0.9775648 0.9865136 0.97802544 1.0041764 1.034796
1.0123746 1.0045906 0.9729691 0.9968192 0.9257091 0.9975052 1.0222563 1.048578
1.0031208 0.9187954 0.99115396 0.9788447 1.0180873 1.0119283 1.1159637 0.9836053
0.9873703 1.055492 0.99956095 1.1464678 0.9960657 1.0117974 0.96877766 1.0020319
0.86629725 0.8865003 1.0671124 1.2547362 1.0449139 0.76789474 0.9973091 0.9961583
0.9223983 1.0060908 0.84792805 0.9777646 1.0018493 0.88146555 0.99693155 0.8289941

indicator_time_mixing.0.indicator_mixing.ln.bias f4 [16, 5]
00000000: 563e 01be cc1c b4bc f99c 01be d2e9 213d
00000010: 5cf3 cabd f8c5 cbbd d081 c8bb b455 a3bd
00000020: 4892 073b 728f 0abd ee7e 85be 50bf 4dbd
00000030: 8c41 02be f9f5 4c3d 385b 55be 4532 c6ba
00000040: 4301 5bbc e12d 71bc 4974 103c 64d6 15bc
00000050: 2c48 043d b2e7 523b fc33 463c e242 be3a
00000060: 80de 193d d0a7 04bc bf66 323c 57ea 2abd
00000070: f95c d43c 5f56 39bd 5a61 02bc 7577 ab3b
00000080: 7975 fbbb 20c0 aa3b ef8b f63c 0925 f9ba
00000090: 28e1 063c 3e4a 87bb adee 023b 932e 353d
000000a0: ad0b d6bb c35e 36bb 05cd 673c 8037 25bb
000000b0: 268a 82bc 8257 dbbb 89cd c2bc 2f4b b5bc
000000c0: a0fb fa3b 7238 18bd 4ed4 eabb 4ad5 a53c
000000d0: 41c8 93bc d448 d63b 6d56 b43c af01 f8bc
000000e0: 77f3 103c 7c2f d0bc 502a d7bb b2f1 073c
000000f0: aa14 da3c 0cd0 76bc ec7d 3f3c e674 0e3c
00000100: a947 b73a 373a d3be 1dbe 8bbd 534b d1bd
00000110: 3b5f 413d 6422 4bbe 22a7 343d 7b11 7fbb
00000120: db59 e63c e731 343c a263 f63c 8f8e 7f3d
00000130: 3526 9dbc 3570 813d 0e56 003c cd0e 213d
-0.12621436 -0.021986388 -0.12657537 0.03952963 -0.09909698 -0.09949869 -0.0061189905 -0.07975331
0.0020686556 -0.033828206 -0.26073402 -0.050231278 -0.12720317 0.050039265 -0.20835578 -0.0015121183
-0.013367 -0.014720411 0.008816787 -0.009145353 0.03229539 0.0032181558 0.012097355 0.0014515782
0.03756571 -0.00809665 0.010888754 -0.04172739 0.025923239 -0.045248386 -0.007957781 0.0052327462
-0.007673916 0.0052108914 0.030096022 -0.001900823 0.008232392 -0.0041287234 0.0019978688 0.04423387
-0.0065321536 -0.0027827478 0.014148002 -0.0025210083 -0.015935015 -0.0066937814 -0.023779647 -0.022130577
0.0076593906 -0.037163205 -0.007166422 0.020243306 -0.018039824 0.0065394435 0.022013867 -0.03027424
0.008847109 -0.025413267 -0.0065663233 0.008297371 0.026621182 -0.015064251 0.011687737 0.008694863
0.0013983148 -0.41255352 -0.068233706 -0.10219445 0.04720996 -0.19837338 0.044104703 -0.0038920331
0.028119018 0.010998226 0.030076806 0.062391814 -0.019183258 0.0632023 0.007833017 0.039320756

indicator_time_mixing.0.time_mixing.ln.weight f4 [16, 5]
00000000: 4931 833f b62d 823f 6b9d 863f ca5a 763f
00000010: 5b8e 833f a58e 853f 70a1 7d3f eae8 8e3f
00000020: 997c 753f 8a0a 853f 2b88 843f cd02 833f
00000030: ed48 853f ff32 743f f6f5 833f 225e 833f
00000040: 75d9 7b3f e3be 843f f800 783f 19c7 823f
00000050: fb8d 813f b0b1 7d3f d909 823f 4533 7d3f
00000060: 2e00 813f 2608 813f 5c9f 803f d00b 853f
00000070: 39b0 7d3f bb61 803f ad42 853f ec7e 773f
00000080: dbfc 8b3f 3bfd 743f c175 843f e0af 833f
00000090: cbe3 7a3f 1c9d 873f 3e9a 773f 15df 823f
000000a0: c93d 853f fdf0 773f e8d3 8e3f 9ff6 753f
000000b0: 9ddb 843f d47c 8b3f abe4 6b3f 1bdc 993f
000000c0: 9661 6b3f 7e87 8a3f 2d49 843f 3aa4 703f
000000d0: 8453 883f a691 783f 9dcb 833f fa91 7e3f
000000e0: 40ba 7a3f 527a 833f 25f7 803f b6f5 7e3f
000000f0: b17f 803f 5331 7e3f 96f7 803f 1aea 7e3f
00000100: 0e68 803f 5c77 7c3f 364f 7d3f e81f 7d3f
00000110: 8e39 823f ddaa 7c3f 25f2 803f 8abc 803f
00000120: 6fd2 803f 0f44 7d3f c4c1 803f d937 843f
00000130: 100d 7b3f 5988 863f 2928 783f 3209 843f
1.0249416 1.01702 1.051679 0.96232283 1.0277818 1.0434157 0.9907446 1.116483
0.95893246 1.0393841 1.0354055 1.023523 1.041288 0.95390314 1.0309436 1.0263102
0.9837869 1.0370754 0.9687648 1.021701 1.0121454 0.99099255 1.0159255 0.98906356
1.007818 1.0080612 1.0048633 1.039423 0.9909702 1.0029825 1.0410973 0.9667804
1.093654 0.956989 1.0348436 1.0288048 0.98003834 1.0594821 0.9671973 1.0224329
1.040948 0.96852094 1.1158419 0.9607944 1.0379521 1.089747 0.92145795 1.2020296
0.9194578 1.0822599 1.0334831 0.9400059 1.0650487 0.9709724 1.0296513 0.9944149
0.97940445 1.0271704 1.0075423 0.99593675 1.0038968 0.9929401 1.0075557 0.9957596
1.0031755 0.9861963 0.9894899 0.9887681 1.0173814 0.98698217 1.0073897 1.0057538
1.0064219 0.98931974 1.0059133 1.0329543 0.98066807 1.051036 0.9693628 1.0315306

indicator_time_mixing.0.time_mixing.ln.bias f4 [16, 5]
00000000: 6791 b5bc 9c04 e4bc f079 4dbd 5d88 a5bc
00000010: fba6 a53c e874 26bd 5173 55bd 89b7 eabd
00000020: 1915 16bd 0a54 153d 1154 f9bc f0e8 20bd
00000030: cf74 1fbd 9464 f2bc b5d6 c33c bd1e b7bc
00000040: 6025 f6bc 3c3d 0ebd 8a04 b0bc 905c 873c
00000050: 46fd 28bc de4c 8cbc fc2b 70bc 5f5b 24bc
00000060: 51d7 8d3b ffa5 1bbc 0340 96bc 8361 16bd
00000070: 7af3 09bc 2626 3b3b 9d66 2ebd dcb2 66bd
00000080: 27c2 b2bd c7a2 21bd 22f6 053d 25b8 02bd
00000090: 23d1 39bd 2fbb 55bd 782a f6bc dbb1 ae3c
000000a0: a277 34bd 89fd 64bd 8939 e9bd 7d9f 26bd
000000b0: 45f2 193d 0793 c2bd ce80 efbd a85d 49be
000000c0: 4489 b5bd 392d a53d 9024 16bd d643 47bd
000000d0: 9900 8bbd 5bf1 0cbd 3c64 e83c fd3b 423b
000000e0: e223 afba 68ad ddbc 6a76 8d3b baab 67bb
000000f0: defa 8bba 7759 19bb df27 19bc 28b1 3cba
00000100: 3186 723a e790 123c 4ce0 1d3c fed4 663c
00000110: c226 0e3c 6ecb 11bc 4d0b f6ba 77b5 24bb
00000120: a71e 91bb 065c e4ba b81f e43a b75d cfbc
00000130: 78ab e5bc 0543 49bd 2bc4 c3bc d27c ca3c
-0.02216406 -0.02783423 -0.050165117 -0.020206625 0.020221224 -0.040638834 -0.052111927 -0.11460788
-0.036641214 0.0364571 -0.030435594 -0.039284647 -0.038929757 -0.029588975 0.023906091 -0.022353524
-0.030047119 -0.034726366 -0.02148654 0.01652363 -0.010314291 -0.017126497 -0.014658924 -0.01003155
0.004328646 -0.009500026 -0.01834107 -0.03671409 -0.008419866 0.0028556674 -0.04257833 -0.056322917
-0.08728438 -0.039461877 0.032705434 -0.031913895 -0.045365464 -0.052180465 -0.030049548 0.021325042
-0.044059403 -0.055905852 -0.11387927 -0.040679444 0.03758456 -0.095006995 -0.116944894 -0.19664633
-0.08864072 0.08065266 -0.036655962 -0.048648678 -0.06787223 -0.034409862 0.028368108 0.0029637807
-0.0013362134 -0.027060226 0.0043170946 -0.003535016 -0.0010679623 -0.0023399272 -0.009347885 -0.0007198029
0.00092515635 0.00894568 0.009635996 0.014088867 0.008676233 -0.008898599 -0.0018771678 -0.0025132576
-0.004428703 -0.0017422445 0.0017404472 -0.025313241 -0.028035864 -0.04913618 -0.023897251 0.024717722

indicator_time_mixing.0.time_mixing.U1.1 f4 [1, 2]
00000000: fb4b 47bd 52c0 32bd
-0.048656445 -0.043640442

indicator_time_mixing.0.time_mixing.U1.2 f4 [1, 3]
00000000: 2cef 66bd 66cd 61bd ea8e 48bd
-0.056380436 -0.055127524 -0.04896442

indicator_time_mixing.0.time_mixing.U1.3 f4 [1, 4]
00000000: ed21 583b 6a2e afba f221 9b3c 970a a43c
0.0032979206 -0.0013365273 0.018937085 0.02002458

indicator_time_mixing.0.time_mixing.U1.4 f4 [1, 5]
00000000: c05e 86bc 2a4a a4bc 0873 a7bc c996 0dbd
00000010: e1af bcbc
-0.016402602 -0.020054895 -0.020440593 -0.034567628 -0.023033084

indicator_time_mixing.0.time_mixing.U1.5 f4 [1, 6]
00000000: 8cdf 1a3c ac1a 32bc b6e0 233c f0aa 1e3c
00000010: 3414 12bc ff15 5fbb
0.009452712 -0.010870617 0.010002306 0.009684309 -0.00891595 -0.003404021

indicator_time_mixing.0.time_mixing.U1.6 f4 [1, 7]
00000000: a4b3 65bc 6e1d 6ebc 391f e1bb 563d 79bb
00000010: 8203 663c 3f7f 7dba 4b38 c0bc
-0.01401988 -0.014533384 -0.006870177 -0.0038030944 0.014038922 -0.0009670145 -0.023464343

indicator_time_mixing.0.time_mixing.U1.7 f4 [1, 8]
00000000: a1e0 0bbc 3c3b d5bb 750b eabb edf2 1d3c
00000010: ba51 5a3c d00b 67bb f3fd 2d3c ee84 323b
-0.008537442 -0.0065073054 -0.007142479 0.009640438 0.013325149 -0.0035254844 0.010619628 0.0027239877

indicator_time_mixing.0.time_mixing.U1.8 f4 [1, 9]
00000000: 0d0a babc d241 29ba ed06 303a 2146 5dbb
00000010: 22ee 133c ef00 97bc 86f6 6ebb f272 15bc
00000020: db44 e8bb
-0.02270987 -0.00064566464 0.0006714899 -0.0033763724 0.009028943 -0.018433062 -0.0036462857 -0.009121643
-0.0070882863

indicator_time_mixing.0.time_mixing.U1.9 f4 [1, 10]
00000000: ede8 6e3c d4ab 3abc ab78 84bb 7fc3 9e3b
00000010: 3d7d a13b fd3b 8fbc a9c0 8cba e787 d6bb
00000020: 745a 7cbb 466a c2bb
0.014581901 -0.011393506 -0.004042705 0.0048450823 0.0049282596 -0.01748466 -0.001073857 -0.0065469625
-0.0038506063 -0.005933079

indicator_time_mixing.0.time_mixing.U1.10 f4 [1, 11]
00000000: 1aa0 ccbd 69cf ccbd 25ef d6bd e3c0 d1bd
00000010: ee71 d6bd ad47 d0bd 3c03 debd 08df b9bd
00000020: 2b37 e2bd 43f6 06be 6e9d b4bd
-0.099914744 -0.10000498 -0.10494832 -0.10241868 -0.10470949 -0.10169921 -0.10840461 -0.09075743
-0.11045679 -0.13179879 -0.0881909

indicator_time_mixing.0.time_mixing.U1.11 f4 [1, 12]
00000000: 6fad c0bc eead c33b c944 a1bc 9033 84bc
00000010: 2d65 453a d8c0 4ebb f630 163a 1050 81bc
00000020: 582c 85bc 7c9b 0dbc 6453 9fbc dc60 c23a
-0.0235202 0.005971662 -0.01968612 -0.016137868 0.000753003 -0.003154805 0.00057293416 -0.015785247
-0.016256496 -0.008643027 -0.019448943 0.0014829892

indicator_time_mixing.0.time_mixing.U1.12 f4 [1, 13]
00000000: a2aa e7bb c415 08bd 9f65 96bb 9bff a3bc
00000010: 7fa6 f5bb 9934 743b 9b9d a7bc cd57 23bb
00000020: bf12 2bbd 58c6 88bc cfa8 8cbb 22cf f3bc
00000030: dc81 adbc
-0.0070699016 -0.033223882 -0.004589751 -0.020019343 -0.0074966545 0.0037262796 -0.020460894 -0.002492416
-0.041765925 -0.01669614 -0.0042925845 -0.029761855 -0.021180086

indicator_time_mixing.0.time_mixing.U1.13 f4 [1, 14]
00000000: 079a 073d 48d4 1bbb b7a7 c13a fdda 813b
00000010: b201 2d3c 0e19 38ba 9c1b a73b e386 53bb
00000020: 0b98 37bb 9448 86bb fd7c 64bc f822 82bc
00000030: 1d24 ecbb b2e3 48bb
0.033105876 -0.0023777653 0.0014774714 0.003962873 0.010559486 -0.00070227764 0.005099727 -0.0032276444
-0.0028014209 -0.0040980075 -0.013945815 -0.015885815 -0.0072064535 -0.0030653295

indicator_time_mixing.0.time_mixing.U1.14 f4 [1, 15]
00000000: f910 f03b 7962 bb3c 1985 3fbc cfeb d2bb
00000010: 4075 27bc 552c 71bc 8e46 35ba ec97 7f3c
00000020: ceb1 1f3c 0e11 493b 35e8 5cbb f31d b83b
00000030: 3967 b7bc 05e2 5c3b d40c 09bc
0.007326242 0.022874104 -0.011689448 -0.006436802 -0.010220826 -0.014720042 -0.00069151155 0.015600186
0.009746982 0.0030680331 -0.0033707742 0.0056188046 -0.022388088 0.0033704054 -0.008364875

indicator_time_mixing.0.time_mixing.U1.15 f4 [1, 16]
00000000: 81e6 243c 1fbf 8f3c 9d41 b33c d2e8 083d
00000010: e633 aa3c a34c 8e3c c77a 553c 7063 bc3c
00000020: 88f5 a93c cf60 843c b9ef ea3b be2c 043c
00000030: e3e6 f93a 13be 923c e5b0 233d b92f 373d
0.010064722 0.017547188 0.021881873 0.03342516 0.0207767 0.017370528 0.013029761 0.022996634
0.020746961 0.016159443 0.0071696904 0.008067308 0.0019066002 0.0179129 0.03996362 0.044723246

indicator_time_mixing.0.time_mixing.U2.1 f4 [1, 2]
00000000: 8a03 5cbc d405 8fbc
-0.013428578 -0.017458834

indicator_time_mixing.0.time_mixing.U2.2 f4 [1, 3]
00000000: ee5e 94bd cfd1 abbd f876 b0bd
-0.07244669 -0.08389627 -0.086164415

indicator_time_mixing.0.time_mixing.U2.3 f4 [1, 4]
00000000: 72f9 b5bc a1d2 173a cbf9 eebb cf7d a23c
-0.022213671 0.0005791579 -0.0072929612 0.01983538

indicator_time_mixing.0.time_mixing.U2.4 f4 [1, 5]
00000000: 15a1 213b f2af aaba 82f6 123a 9ced b8ba
00000010: a0f8 16ba
0.0024662663 -0.0013022406 0.00056061905 -0.0014108899 -0.0005759094

indicator_time_mixing.0.time_mixing.U2.5 f4 [1, 6]
00000000: 204f 44bd 4c44 3dbd 2de4 2cbd 499e 14bd
00000010: 073a 2ebd 243f 21bd
-0.047927022 -0.04620771 -0.042209793 -0.036283765 -0.042535808 -0.039366856

indicator_time_mixing.0.time_mixing.U2.6 f4 [1, 7]
00000000: 0d8b c9bb 9193 cdbb 0a6e 2d3c 44a4 ac3a
00000010: 8f47 a3bb 8117 d039 5417 57bc
-0.0061506093 -0.006273695 0.010585317 0.0013171514 -0.0049828957 0.00039690363 -0.01312812

indicator_time_mixing.0.time_mixing.U2.7 f4 [1, 8]
00000000: cbba 093c 1ad9 783c 13e3 7e3b b7bb 96bb
00000010: 0a2d b3bb 5f1e babb 4871 df3b 549c 3dbc
0.008406351 0.01518848 0.003889267 -0.004600014 -0.0054680156 -0.00567989 0.006818924 -0.011572916

indicator_time_mixing.0.time_mixing.U2.8 f4 [1, 9]
00000000: 09d9 56bc 0282 153c 05b3 f53b d9c6 e03b
00000010: 583e 193c 8478 ab3c 616c 10bc 05e2 843c
00000020: 4649 14bc
-0.013113269 0.009125235 0.0074981474 0.006859642 0.009353243 0.02093149 -0.008814902 0.016221056
-0.009050673

indicator_time_mixing.0.time_mixing.U2.9 f4 [1, 10]
00000000: 22e6 8bbb ab06 a9bc 7a52 b4bb 6eed 4ebc
00000010: 09bb 91bc eed5 d1bc f99b 9fbc e720 9bbb
00000020: f16e 0eb9 2093 843a
-0.0042693773 -0.020633062 -0.005502996 -0.01262985 -0.01778938 -0.025614705 -0.019483553 -0.004734147
-0.00013583504 0.0010114647

indicator_time_mixing.0.time_mixing.U2.10 f4 [1, 11]
00000000: 3568 f6bc 4f89 4bbc 2511 1bbc fc03 d8bb
00000010: 5355 74bc b3bc 94bc 92d0 09bc 2f90 b13b
00000020: 4dc1 3cbc 98b2 93bc 38d1 d4bc
-0.030078987 -0.012422874 -0.009464537 -0.006592272 -0.014912921 -0.018156385 -0.008411543 0.0054187994
-0.011520696 -0.018029496 -0.02597867

indicator_time_mixing.0.time_mixing.U2.11 f4 [1, 12]
00000000: 7112 513c c496 163c c55e b63c 1057 15bb
00000010: 09b2 133c dfd3 75bb badf 283c b342 a3ba
00000020: 2797 0b3c 8cd9 8fbb 709d 403c 2a2f 95bb
0.012760744 0.009191219 0.022261987 -0.002278749 0.009014615 -0.0037510318 0.010307247 -0.0012455791
0.008519924 -0.0043899473 0.011756286 -0.0045527415

indicator_time_mixing.0.time_mixing.U2.12 f4 [1, 13]
00000000: 327b 9fbc 4ad9 bebc f52f b53b 1356 2a3c
00000010: c244 1cbc 1f97 ecbb f1e3 13bc a741 2f3c
00000020: 22dd df3b 20d1 77bb 7d3c b9bc 951e 58bc
00000030: ee85 573c
-0.019467924 -0.02329697 0.0055293986 0.010396498 -0.0095378775 -0.0072201635 -0.009026513 0.010696805
0.006831781 -0.0037813857 -0.02261185 -0.013190885 0.01315449

indicator_time_mixing.0.time_mixing.U2.13 f4 [1, 14]
00000000: 40dc c6bd ce30 a8bd 9a0a b7bd 252a a1bd
00000010: 9f88 ccbd b9af 97bd 4b03 adbd 0cb9 92bd
00000020: 94aa a8bd 83a5 a0bd 1f68 cdbd 4d26 c2bd
00000030: 7aeb d7bd 09da 4dbd
-0.09709978 -0.08212434 -0.08937569 -0.078693666 -0.09986996 -0.07406563 -0.08447894 -0.07164201
-0.0823566 -0.07844069 -0.10029625 -0.094799615 -0.105429605 -0.050256763

indicator_time_mixing.0.time_mixing.U2.14 f4 [1, 15]
00000000: 484a b8bb aee0 17bc 091a 1abc 6cb0 09bc
00000010: 1ec2 c5bb ff94 37bc cc70 653c 2f2d 9dbb
00000020: d712 23bc ef14 263b a288 dbbc 8a86 dcbb
00000030: 418d 643b 01ba 113b 52c0 9cbb
-0.0056240894 -0.009269876 -0.009405621 -0.008403879 -0.0060351035 -0.011204957 0.014003944 -0.004796646
-0.009953222 0.0025342067 -0.02679855 -0.0067299055 0.0034874233 0.002223611 -0.0047836686

indicator_time_mixing.0.time_mixing.U2.15 f4 [1, 16]
00000000: 94e2 95bc 7585 17bc 3105 f03b 47ac 3a3a
00000010: b222 de3a 54cc ab3c 96b7 de3c d063 fbbb
00000020: d7c0 06bc c9ff 6e3c d2ed 553c e010 a93c
00000030: f263 683b ab43 6a3c e251 9d3c d97f afb9
-0.018296517 -0.009248127 0.0073248376 0.0007121008 0.0016947596 0.020971455 0.02718715 -0.0076718107
-0.008224688 0.014587351 0.013057189 0.02063793 0.0035459963 0.01429836 0.019204084 -0.00033473855

indicator_time_mixing.0.fc.weight f4 [1, 5]
00000000: 801e a3be 7ae7 b1be 0f1e 0fbd da37 68be
00000010: 26b0 df3e
-0.31859207 -0.34746915 -0.034940775 -0.22677556 0.43689078

indicator_time_mixing.1.indicator_mixing.W1 f4 [5, 64]
00000000: 1f8d f83e 0982 1fbf 9c19 ae3e 4059 cc3f
00000010: 387b 15c0 d6ef 0a3e 8366 2d3e bd93 babf
00000020: 14a8 0f3f a8a2 38bf 66a1 833e dcdd 163f
00000030: f52e 4c3b 1dbd 373f 4f0c 5ebf 4ec4 0440
00000040: 05f7 8dbe 6ef0 7ebe 396e a9bf b054 c33b
00000050: a3e9 e3be 245e 1fbd 812f 7c3d c532 25c0
00000060: a527 95bf 9690 33bf 5e11 52bf 4c99 21c0
00000070: ea8d 6fbf 9223 28bf 5d01 06be 8ade 94bf
00000080: 1087 e1bf 2141 15bf 4fdc e8be 8a5a 4b3f
00000090: ae4a 83bd 3dfb 93bf ad17 b1bf 0683 603f
000000a0: c642 b83f 03a6 debf 5b57 89bf 544a b5bd
000000b0: a5e8 9abf 90c8 e5bf 877e 9bbf 6a4d 2c3e
000000c0: a88a 8a3e f171 a23e 15fd 113f 16d4 f1bd
000000d0: df01 9fbe f493 9a3f 1ac5 cfbe 33ea 033f
000000e0: 7de0 57bf f36b a0bf 4c8a 36be 4d34 ba3e
000000f0: c6d2 f7bf 7b52 563f 4490 473e c117 8c3f
00000100: 9c0c 3f3f 6484 653f 4362 af3f ef07 0c3e
00000110: 0c15 253f 1138 31bf b4fc c7be b380 c6be
00000120: d63e 25bf c5b6 b1bf 17cf 38bf 2ce5 5f3f
00000130: 12ee 11bf 66eb 743f ff3c 1e3f 534b 2f3f
00000140: 149e 363f f918 b13e ffe2 8e3f 212d 7a3c
00000150: 60cd c43f b6ef 96be 1fce fb3e 8672 033f
00000160: a8a5 73bf c3aa 48bf da40 553f 3f73 0e3f
00000170: 9b65 03bf 8774 e2be 0a30 21bf 555e f83e
00000180: e9b5 f6be 25c4 293f 04fd 633f 0e21 83bf
00000190: 84dd e43f a270 973f 9d6b d23d 40b6 76bf
000001a0: e9f3 c13f a110 e93f dc85 e43c d217 db3e
000001b0: c605 52bf 47fe 2fbf e7a8 b03f 15d1 22be
000001c0: d574 ff3e 5797 d63e 9ccc dbbf 7891 e4bf
000001d0: 918f f9be 2182 31bf bd63 123e f5f1 89be
000001e0: 7e73 83bf 9e8d 763f 6617 0cbe 3818 163e
000001f0: 24e0 9bbe 2d86 ae3d cdb7 cebe 842f b8bd
00000200: 6753 fcbf fc00 943f 785b 923f 896c 9fbf
00000210: 1450 ef3f 1c4e 42bc a85e d0bf 25a5 87bf
00000220: 8c2f 1fbd 9e26 21bf 7bdd 663e 60eb c3be
00000230: 4d47 f5be 67d0 a73f f260 8d3f cb29 953e
00000240: 1e45 5dbf d817 b03f 3226 aabf 86bd 993d
00000250: 0333 4dbf e403 cbbf 06b5 67bf 5071 7e3e
00000260: 4594 9b3f 3614 263f e7e3 83be ca0d ccbf
00000270: 0efe 9c3d d10a bcbd 19e6 213c df4e e9bf
00000280: 31b8 813f 507f b43e cf1c 0cbf 1087 073f
00000290: fce4 32bf c4e8 24c0 0099 643f 9e74 943f
000002a0: a99c 0a3f aabc a53d bcc6 403e 468d 913f
000002b0: 58e4 553f fc4e 69bf 8ec3 b93e 5831 d8bf
000002c0: f187 153f 930e b5bf 1180 863e a896 d43e
000002d0: 844b 383d 8094 99bf 477f 2abf 54aa fabf
000002e0: ff8b 953e afac c03f 8664 b93f b2bf 6f3f
000002f0: 44de db3e e8f8 bf3e ae6d 02be 7b81 8fbf
00000300: 51cf 93bf 1c85 55bf 9234 23bf fed8 1b3f
00000310: d741 a4be c312 1e3f 39f8 053f 4429 b0bf
00000320: a74d 8abf cb81 b1be ac7c 71be cb47 38bf
00000330: eb97 3040 81e6 34bf 20fd 0f3d 3334 e23f
00000340: 115f f83f 87be d43f a39a fc3f 4b3f 83bf
00000350: 45c8 18bf db0b b03e 3acf 723e 2bc2 7bbf
00000360: 93dc 02be 4e37 8cbe 0af6 dabf 6ca0 d6be
00000370: 56a4 efbd 5828 5cbf fb9e f3be 8982 e83e
00000380: 7285 6abf ecf3 5d3d 7aff 2cbf d12c 243f
00000390: 2806 273f b36d 4cbe db4e 0540 cc8f 0b3e
000003a0: 7eee 013f ddcb cf3f 2aec 863f b7b6 70bd
000003b0: f3e3 0f3e 561f 03c0 8a07 1d3f deb9 773f
000003c0: 2842 893f 2ee8 0bbe 8fc0 823f 83ea af3e
000003d0: ab21 3cbe cc33 fb3e c639 2d3f 5b99 433f
000003e0: adb4 6bbe 4ebb 913f 7cdb e93e 1b64 0fbf
000003f0: 3703 21bf aa75 22bf 6cc4 013e 8f07 663e
0.48545167 -0.6230779 0.34003913 1.5964737 -2.3356457 0.13568053 0.16933636 -1.4576336
0.5611584 -0.72123194 0.25709075 0.5893228 0.0031155918 0.7177294 -0.8673753 2.0744815
-0.27727523 -0.24896404 -1.3236762 0.0059610233 -0.44514188 -0.03890814 0.06156874 -2.5812237
-1.1652724 -0.70142496 -0.8205775 -2.5249815 -0.9357592 -0.65679276 -0.13086458 -1.1630414
-1.7619343 -0.58302504 -0.45480582 0.79435027 -0.064107284 -1.1561047 -1.383535 0.87699926
1.4395378 -1.7394413 -1.0729784 -0.088520676 -1.2102247 -1.7951832 -1.2147988 0.16826406
0.2705891 0.31727555 0.570268 -0.1180803 -0.31056115 1.2076402 -0.40580064 0.51529235
-0.84326917 -1.2532943 -0.17826194 0.36368027 -1.9361198 0.83719605 0.19488627 1.0944749
0.74628615 0.8965514 1.3701862 0.13674901 0.6448524 -0.69226176 -0.39059985 -0.38770065
-0.64549005 -1.3883902 -0.72190994 0.87459064 -0.5700389 0.9567169 0.6181182 0.6847431
0.7133496 0.34589365 1.1163024 0.015269549 1.5375175 -0.2947976 0.49180695 0.51346624
-0.95174646 -0.7838556 0.8330208 0.556446 -0.5132691 -0.44229528 -0.62963927 0.4850947
-0.4818566 0.6631492 0.89057946 -1.0244462 1.7880101 1.1831248 0.10274432 -0.9637184
1.515256 1.82082 0.02789586 0.4279161 -0.8204006 -0.6874737 1.3801545 -0.15900071
0.49893823 0.41912338 -1.7171817 -1.7856894 -0.48742345 -0.69339186 0.1429586 -0.2694241
-1.026962 0.9630984 -0.13680801 0.14657676 -0.30444443 0.08521686 -0.40374604 -0.08993438
-1.9712952 1.15628 1.1434164 -1.2454997 1.8696313 -0.011859443 -1.6278887 -1.0597273
-0.038863704 -0.6294955 0.22545426 -0.38265514 -0.4790596 1.3110474 1.104521 0.29133448
-0.8643359 1.3757277 -1.3292906 0.07506852 -0.8015596 -1.5860562 -0.90510595 0.24847913
1.2154623 0.6487459 -0.25759813 -1.5941708 0.076656446 -0.091817506 0.00988152 -1.8227195
1.0134336 0.35253382 -0.5473146 0.52940464 -0.6988065 -2.576707 0.8929596 1.1598089
0.54145294 0.080926254 0.18825811 1.1371238 0.8355155 -0.91136146 0.3628201 -1.6890059
0.58410555 -1.4145073 0.26269582 0.41521192 0.044993892 -1.1998444 -0.6660046 -1.958323
0.2920837 1.5052699 1.4483802 0.9365188 0.42943013 0.37494588 -0.12737152 -1.1211389
-1.1547643 -0.83406234 -0.6375209 0.6087798 -0.32081482 0.6174738 0.5233188 -1.3762593
-1.0804948 -0.34669337 -0.23582715 -0.7198455 2.7592723 -0.7066422 0.03515351 1.767218
1.9404012 1.6620644 1.9734691 -1.025369 -0.5968059 0.34384045 0.23711863 -0.9834315
-0.12779455 -0.27385944 -1.7106335 -0.41919267 -0.117012665 -0.8599906 -0.4758223 0.4541209
-0.9160987 0.0541877 -0.67577326 0.64130884 0.6524377 -0.19963722 2.082938 0.13629073
0.50754535 1.6234089 1.0540822 -0.058768 0.140518 -2.0487876 0.6133963 0.96767986
1.0723314 -0.13662788 1.0215014 0.34358606 -0.18372218 0.49062955 0.6766628 0.76405877
-0.23018141 1.1385286 0.45675266 -0.56012124 -0.6289553 -0.6346079 0.12672585 0.22463821

indicator_time_mixing.1.indicator_mixing.W2 f4 [64, 5]
00000000: ddac 803d 3db2 3a3f 1a67 3bbe f148 b7be
00000010: 567f c9bf 653e 0c3c d214 8bbf 15a9 4d3d
00000020: 0ec8 6c3e 3a38 853f 764f 413f b933 fbbf
00000030: cabf babf 46fa a6bd 731c 693e 97ee 8bbf
00000040: 0c3d 7cbf 5c76 1e3f 89fd 94bf 048c 6bbe
00000050: 6c40 4cbf b876 573f 69ac e43e c1e9 0bbf
00000060: 71e6 5e3f cdf4 343f 9873 3dbe 9ed7 863c
00000070: 75a4 543f 3eee acbe fa1c 44bf 1c96 28bf
00000080: d7c7 59bf f4ec ffbe 383e 17bf daf0 d3bf
00000090: 89d1 2040 775e 80bf f877 59bf ec8a a43f
000000a0: 297f 1e3e ebb6 983f f37a cebd e5e7 78bf
000000b0: 51bc 1c3f 95ee 5e3e c14c f03f 9456 11c0
000000c0: fac9 91bf fe7a 8dbf 7fde 03c0 2a19 47bf
000000d0: 9ad8 023f 032d 98be 7257 56be bd8b efbe
000000e0: 4be7 88bd 1280 c6bf 6995 9f3f 4cd0 e5be
000000f0: 0332 a8bf 40a8 82bf a8ff 54bf 219f 18bf
00000100: b3d9 0c3f 2d1e 0e3e 3967 c0be 081e bebf
00000110: 04a2 ea3d 9b93 dfbe 811a babf d92b a93f
00000120: 5b07 923d c841 28bf 2eee b83e c2c8 a2bf
00000130: 64fc d23e c4ab 163e 752d a6bf b534 8bbf
00000140: 6400 eabf d3fd 24bd 69ed e53e 0eb7 4abf
00000150: 94fe be3f 120d 003f 7b2f 2bbd 6888 403f
00000160: c283 5ebe 728a 3c3f 43b3 c3be 0756 563f
00000170: 5d29 573e 5a04 d23f ec9f 9d3a cff9 4a3f
00000180: db1d aebf e485 0e40 af08 94bf aff1 783f
00000190: 8cec 27c0 025a f33f c3a8 943e c4ee 963f
000001a0: a738 4abe 61c4 f23f b56b c1be 746c b2bd
000001b0: f0dd e2be 677f 2c3f ee26 efbf 3b56 c9be
000001c0: eb2d 0d40 0686 193f 7672 99bf 7537 aabf
000001d0: 4106 843e 64d8 483f aca8 a13f 12bc 2d3e
000001e0: a66a d5be 0254 893f bdda 143f 8edc 7ebd
000001f0: 0398 503f 60c0 33bf 6dcc e1bf 728e 9f3f
00000200: 67bc c13f 24cc 10c0 8d5e 33be 0478 393f
00000210: 318f 48c0 a115 1f3f 2de7 84bf c31c 0fbf
00000220: a73d eabf 567d a1bf 1750 26bf 46a5 66bf
00000230: a9c1 d83f d3f3 5a3c 922f 31be d0c9 023e
00000240: b290 1bbe d660 863f 3267 3dbf 6906 4fbf
00000250: d82c ea3f 35eb 90bf 71f5 b0bf 2f90 9c3f
00000260: 4bce c0bf 7ad9 9e3f 636e 3fbe a92c 5abe
00000270: f0df 243e 71af 59bf 7c40 bf3d 9e6f 8bbf
00000280: 5748 8b3d 524b 1cc0 210f 50be 1314 b7bf
00000290: cd9e fb3e 2ac3 123e 9858 3c3f b19a 1cbf
000002a0: 6055 3e3e 5f8c 7dbf b725 3ebf 1bc9 89bf
000002b0: 2f16 fb3f 33e8 87bf a03d 46be 0c78 4e3f
000002c0: eddb d83f 0dd1 74bf 5803 ccbf beba e2be
000002d0: 561d 46bd 0956 8ebf 74f3 9cbe d6fc 9b3f
000002e0: 0a79 9bbe 6d7a 2a3f de5d 83bd e6ed 73be
000002f0: 7818 cf3e b9b1 2a3e d46d 9dbe 88fe 56bf
00000300: 107a 23be db5c 88bf 644b 70be 385e 8fbf
00000310: 19a5 11bf f946 493f f0b4 dd3f 8a49 09bf
00000320: 7036 ac3e f155 0c3f d611 9b3e 2da8 17be
00000330: 5dbd 6bbf 51d4 54be 3d07 f53e 8351 edbf
00000340: 5506 043d 1821 babd 43f4 01c0 a0db eb3e
00000350: 81e7 2f3f fbf7 723e 31d0 6b3f b5d1 93be
00000360: ebed 2d3f 7d20 d23e f267 fa3e 5a49 553f
00000370: 04c5 8f3d a606 b2bf 2e16 d73e 5f68 c83d
00000380: a234 07c0 da76 31bf 53be 053d a8fa 35be
00000390: f29e bf3f 1754 c5be 12be 193f 5e97 b6bf
000003a0: bb28 65bf e5a7 01bf b07a 17bf 6c50 b6bf
000003b0: 396c ec3f 9398 803f f045 77bf 1083 3bbf
000003c0: 187e 9abf 351e 7abe 56ff c5bf 60d2 a63f
000003d0: 9247 1cbf 9179 833e dfc1 07bf 8377 5fbf
000003e0: ab38 383f fd07 3240 d9ef 83bf 0fbf 553f
000003f0: 327b 2a40 90a6 8bbe 48a1 9e3f bf6a 8c3f
0.06282971 0.7292822 -0.18301049 -0.35797837 -1.5741985 0.008559798 -1.0865729 0.050210077
0.2312319 1.0407784 0.7551187 -1.962516 -1.4589779 -0.081532046 0.22764759 -1.0932187
-0.9853065 0.6189935 -1.1639873 -0.2300263 -0.797858 0.84165525 0.4466279 -0.54653555
0.87070376 0.70686036 -0.18501127 0.016460236 0.8306344 -0.33775514 -0.76606715 -0.6585405
-0.85070556 -0.49985468 -0.59079313 -1.6557877 2.512789 -1.0028828 -0.8494868 1.2854896
0.15478195 1.1930822 -0.100820445 -0.9722884 0.6122485 0.217707 1.8773423 -2.2709093
-1.1389763 -1.1053159 -2.060455 -0.7777277 0.5111176 -0.2972184 -0.20931795 -0.467863
-0.06684741 -1.5507834 1.2467471 -0.4488548 -1.3140262 -1.0207596 -0.832026 -0.5961781
0.5501968 0.13878699 -0.37578753 -1.4852915 0.11456683 -0.43667302 -1.4539338 1.3216506
0.07130309 -0.65725374 0.36119217 -1.2717516 0.41208184 0.14713961 -1.2982622 -1.087546
-1.8281369 -0.04028113 0.44907692 -0.7918557 1.4921441 0.50019944 -0.041793328 0.7520814
-0.21729949 0.7364875 -0.38222703 0.8372502 0.21011873 1.6407578 0.001202581 0.7928743
-1.3602861 2.226922 -1.156515 0.9724378 -2.6238127 1.9011843 0.29035005 1.1791615
-0.19748174 1.896618 -0.37777486 -0.08712092 -0.4430995 0.673819 -1.8683755 -0.393236
2.2059276 0.5997013 -1.1988056 -1.3298174 0.2578602 0.78455186 1.26296 0.16966274
-0.4168293 1.0728762 0.5814627 -0.062222056 0.8148195 -0.70215416 -1.7640511 1.2465346
1.5135621 -2.2624598 -0.17516537 0.72448754 -3.1337397 0.6214238 -1.0383049 -0.5590326
-1.8300065 -1.2616374 -0.6496596 -0.9009594 1.69341 0.013363796 -0.17303303 0.12772298
-0.15191916 1.0498302 -0.7398559 -0.80869156 1.8294935 -1.132178 -1.3824903 1.2231501
-1.5062956 1.2410119 -0.18694453 -0.21306099 0.1610105 -0.8503333 0.09338471 -1.0893438
0.06800907 -2.4420972 -0.20318271 -1.4303001 0.49144593 0.14332262 0.73572683 -0.6117354
0.18587255 -0.99042314 -0.742763 -1.0764498 1.9616145 -1.0617737 -0.19359446 0.80651927
1.6942116 -0.95631486 -1.593852 -0.44283098 -0.04836782 -1.1120006 -0.3065449 1.2186534
-0.30365783 0.66593057 -0.06414388 -0.2382122 0.40448356 0.16669358 -0.30747855 -0.83982134
-0.15964532 -1.0653337 -0.23466259 -1.1200628 -0.56892544 0.7862392 1.7320843 -0.53627837
0.33635283 0.54818636 0.30287045 -0.14810248 -0.9208582 -0.20784117 0.47857085 -1.85405
0.0322326 -0.090883434 -2.0305336 0.46065998 0.6871262 0.2372741 0.9211455 -0.2887093
0.6794116 0.41040412 0.4890743 0.8331505 0.070199996 -1.3908279 0.4200911 0.09785532
-2.1125875 -0.6932198 0.03265221 -0.17771399 1.4970381 -0.38540718 0.6005565 -1.4264944
-0.89515275 -0.5064681 -0.5917158 -1.4243293 1.8470527 1.0046562 -0.9659109 -0.7324686
-1.2069731 -0.24425586 -1.5468547 1.3032951 -0.6104671 0.25678685 -0.530302 -0.87291735
0.7196147 2.7817376 -1.0307571 0.8349466 2.6637692 -0.27275515 1.2392969 1.0970076

indicator_time_mixing.1.indicator_mixing.ln.weight f4 [8, 5]
00000000: 4e78 783f cb8a 813f 3b7f 813f 32e4 853f
00000010: a238 9f3f 897b 803f 3801 663f 2957 7f3f
00000020: 9a39 763f 9d39 823f 1cd8 7f3f 99b7 803f
00000030: f7f9 7c3f 1c92 7f3f 54dd 863f 2599 803f
00000040: c7ce 823f e572 7b3f 6c38 7f3f fc74 833f
00000050: 9ea1 813f 9aec 6e3f b6b3 7f3f a935 763f
00000060: 8509 703f 94b5 793f 6590 7e3f 7fae 7f3f
00000070: 42c7 823f ac0d 8e3f 281c 893f 82bb 6d3f
00000080: 31e1 7d3f 7d88 6c3f 0db0 583f befe 7d3f
00000090: c090 813f 095b 7d3f e0cb 7d3f 57fc 863f
0.9705857 1.0120481 1.0116953 1.0460265 1.2439158 1.00377 0.8984561 0.9974237
0.96181643 1.0173832 0.9993913 1.005603 0.98818916 0.9983232 1.0536294 1.0046736
1.0219353 0.9822219 0.9969547 1.0270076 1.0127447 0.93329775 0.9988359 0.9617563
0.93764526 0.9754269 0.9943908 0.99875635 1.0217059 1.1097922 1.0711718 0.9286424
0.9917174 0.92395765 0.8464363 0.9921683 1.0122299 0.98967034 0.99139214 1.0545758

indicator_time_mixing.1.indicator_mixing.ln.bias f4 [8, 5]
00000000: 2888 a63c e316 b53b 7b2f 6b3c ca67 8d3c
00000010: 6449 47bd f966 eebb 1271 16ba 892f eb3a
00000020: 35f0 20bc 61aa d43c 9bd7 cfbb a165 49bc
00000030: 5af8 27bc c95d 71bb 384c e1bc 8610 49bc
00000040: 5088 8fbc d864 68bc 73ab 01bc 9060 a8bc
00000050: 7a54 f8bb bb6f e8ba c8e4 fdb9 2762 2ebc
00000060: 4078 113d 2210 1b3c 0f8b b73b cb83 76bb
00000070: 65f8 583c 11dd 5ebd c1df d8bc 6c0b 17bd
00000080: e214 02bc 52d4 80bd 6085 7e3d 21a6 82bb
00000090: 0444 19bc 8201 21bc c025 ccba c8cf 00bd
0.020328596 0.00552641 0.014354582 0.017261405 -0.048653975 -0.007275459 -0.00057388947 0.0017943244
-0.009822895 0.02596015 -0.006342841 -0.012292297 -0.010252083 -0.0036829582 -0.027502164 -0.012272006
-0.017521054 -0.014184199 -0.007914412 -0.020553857 -0.0075784298 -0.0017733494 -0.00048426376 -0.0106435185
0.03551507 0.009464296 0.005601294 -0.0037615176 0.013242816 -0.054410044 -0.026473882 -0.036876127
-0.007939549 -0.06290497 0.062138915 -0.0039870893 -0.009354595 -0.00982702 -0.0015575215 -0.031448156

indicator_time_mixing.1.time_mixing.ln.weight f4 [8, 5]
00000000: e61a 7d3f a379 813f 1de3 793f 5261 813f
00000010: e89a 7a3f 8b05 7c3f 8289 823f a818 9a3f
00000020: 231d 823f 46f1 7c3f 784d 803f f0ad 7b3f
00000030: bb6f 813f e90a 7f3f a6c2 813f b00f 7c3f
00000040: 7158 833f 8676 813f b4bb 813f f1f2 783f
00000050: fd6b 813f 3865 7b3f fb79 843f 7545 7d3f
00000060: ef26 833f 7d6a 7d3f ee70 823f 3565 813f
00000070: b441 813f 6e3b 793f 398a 7b3f 95fc 843f
00000080: 4eec 823f 156f 823f ce6f 773f 547c 7b3f
00000090: 8afe 843f b0a8 853f dd3c 823f fd18 753f
0.9886917 1.0115246 0.9761217 1.0107825 0.9789262 0.9844596 1.0198214 1.2038774
1.0165142 0.98805654 1.0023642 0.9831228 1.0112222 0.9962602 1.0137527 0.9846144
1.0261365 1.0114295 1.0135407 0.972457 1.011108 0.9820132 1.0349725 0.9893411
1.0246257 0.98990613 1.0190713 1.0109011 1.0098176 0.9735631 0.98257786 1.0389582
1.0228364 1.019015 0.96654975 0.98236585 1.0390179 1.0442104 1.0174824 0.95741254

indicator_time_mixing.1.time_mixing.ln.bias f4 [8, 5]
00000000: 6439 3c3c 8484 35bc ac74 363c 9b41 423c
00000010: a84c 67bc 0826 a73c 0b86 a4bc a73f a83c
00000020: 44c7 953c 3755 9ebc 0468 77bb 8271 723b
00000030: 395d 69bb 3f63 9abb 9e05 b83b b2d5 903c
00000040: 4197 8ebc c4b6 8c3c 26a9 993c 6527 a1bc
00000050: 0994 38bc 2d40 303c 283e 31bc 04d8 3fbc
00000060: d418 6e3c db69 3b3c 6189 32bc a22d 333c
00000070: 56c9 443c 48f1 76bc a177 9e3c f9b8 99bc
00000080: f6dc 983c b7cf a93c 7802 c6bc eef2 ac3c
00000090: 56a1 a6bc 556c a63c 4399 b53c 9461 dabc
0.011488292 -0.0110789575 0.011136215 0.011856462 -0.014117397 0.020403877 -0.020083448 0.020538164
0.018283494 -0.019327743 -0.0037751207 0.0036993925 -0.0035608544 -0.004711538 0.005615904 0.017680023
-0.017406108 0.017176993 0.018757414 -0.019672105 -0.011265763 0.010757488 -0.010818042 -0.011709217
0.014532287 0.011438812 -0.0108970115 0.010936173 0.012010893 -0.015072174 0.019344153 -0.01876496
0.01866005 0.020728929 -0.024171099 0.021111932 -0.020340603 0.020315329 0.022167807 -0.026657857

indicator_time_mixing.1.time_mixing.U1.1 f4 [1, 2]
00000000: 438a 8b3b ac69 353c
0.0042584254 0.011072557

indicator_time_mixing.1.time_mixing.U1.2 f4 [1, 3]
00000000: 4c68 613b fc9e 973c 1caf 8b3c
0.0034394441 0.018508427 0.017051272

indicator_time_mixing.1.time_mixing.U1.3 f4 [1, 4]
00000000: 7651 243c a7f4 c8bc 1173 be3b a31f 4c3c
0.010029187 -0.024530722 0.005812057 0.012458715

indicator_time_mixing.1.time_mixing.U1.4 f4 [1, 5]
00000000: 21a8 673c 1a57 b03b 1865 5c3c 5a39 5c3c
00000010: 82a0 0f3d
0.014139206 0.005381477 0.013451837 0.013441408 0.03506518

indicator_time_mixing.1.time_mixing.U1.5 f4 [1, 6]
00000000: 53bd 3ab9 e7b8 40bb 4354 ac3c 2d8e 253b
00000010: 9f88 8e3c 03b1 50bc
-0.00017808871 -0.0029407085 0.021036273 0.0025261745 0.01739913 -0.012737515

indicator_time_mixing.1.time_mixing.U1.6 f4 [1, 7]
00000000: e4d9 a739 ab63 a9bc 1004 2ebb b56c 23bc
00000010: 8716 d3bc 2c19 d6bb 819e 1e3c
0.00032015063 -0.020677408 -0.0026552714 -0.009974648 -0.025767578 -0.0065337624 0.009681345

indicator_time_mixing.1.time_mixing.U1.7 f4 [1, 8]
00000000: 77fd f2bc 0c25 dabc 9be9 2bbc 3fb1 7ebc
00000010: 53f9 a0bc f62b e63b ae09 d2bb 6576 b93a
-0.029661877 -0.026628993 -0.010492708 -0.015545188 -0.019650137 0.0070242835 -0.0064098453 0.0014149664

indicator_time_mixing.1.time_mixing.U2.1 f4 [1, 2]
00000000: f86a 033c 9a71 13bc
0.008021109 -0.008999253

indicator_time_mixing.1.time_mixing.U2.2 f4 [1, 3]
00000000: 32af ad3a d5ea 84bc 90d6 3bbc
0.0013251065 -0.016225258 -0.01146473

indicator_time_mixing.1.time_mixing.U2.3 f4 [1, 4]
00000000: 5cca ddbc 49a6 03bc a059 2dbc 57f2 96bb
-0.027074032 -0.008035251 -0.01058045 -0.004606526

indicator_time_mixing.1.time_mixing.U2.4 f4 [1, 5]
00000000: 4844 02bc 2121 143c e925 a03b 421f 153c
00000010: 830d 06bc
-0.00795085 0.009041102 0.0048873317 0.009101691 -0.008181932

indicator_time_mixing.1.time_mixing.U2.5 f4 [1, 6]
00000000: 61fc a2b9 fa88 f0bb 2608 3a3b 3e1f debc
00000010: 836e 09bc 3369 763c
-0.00031087085 -0.0073405476 0.0028386205 -0.027114507 -0.008388164 0.01503973

indicator_time_mixing.1.time_mixing.U2.6 f4 [1, 7]
00000000: e5f8 c6bb 9703 a1bc 2f3f afbc 6971 bbbc
00000010: e2d1 a4bc 7d6f cc3b e723 10bc
-0.006072151 -0.019655032 -0.021392433 -0.022881227 -0.020119611 0.0062388764 -0.008797622

indicator_time_mixing.1.time_mixing.U2.7 f4 [1, 8]
00000000: 6ff7 96bc 790c 80bc 4763 c33b 47c3 babb
00000010: 09d5 0cba a5c5 84bb a134 75bc ef86 7abc
-0.018428532 -0.015630947 0.0059627625 -0.0056995484 -0.0005372321 -0.0040518814 -0.014966161 -0.01529096

indicator_time_mixing.1.fc.weight f4 [1, 5]
00000000: ca86 93be ab93 5e3e fcdb 05be 4b45 a4bc
00000010: 5801 093d
-0.28813773 0.21736018 -0.13072199 -0.020052573 0.033448547
