weights/stockmixer_L16_H64_M40_K4_E100_s1.pt (torch, 630154 bytes, 93 tensors)

indicator_time_mixing.0.indicator_mixing.W1 f4 [5, 64]
000000 a8 93 be bf b5 6b 42 bf 88 f1 2e bf ca 6d c7 bf
       -1.4888811 -0.759456 -0.683373 -1.558038
000010 61 35 10 be 34 cc 20 bf 5b d2 7a bf de d3 cb bf
       -0.14082862 -0.6281159 -0.97977227 -1.5924032
000020 34 a9 2f bf 3d 6d 82 3e 3b 0c 4c bf 14 1b 5e be
       -0.6861756 0.25473967 -0.7970616 -0.21690017
000030 90 d5 f5 be f8 77 dc 3f 9b 0c 90 3e d6 69 01 3f
       -0.48014498 1.7224112 0.28134617 0.5055212
000040 ea 99 3a bf c4 a8 99 bf 44 4c 3c 3f d4 ba 11 3e
       -0.72891104 -1.2004628 0.7355387 0.14231426
000050 26 7f 53 3f 96 7a 74 3e 9c 43 1f bf f4 a3 46 3f
       0.8261589 0.23874888 -0.6221254 0.7759392
000060 78 a9 93 3f d6 83 49 be 31 bb 10 c0 ff 7b b8 bf
       1.1536093 -0.19679198 -2.2614253 -1.4412841
000070 ff 49 bf 3c a4 26 20 bf a3 f6 59 bf f4 80 07 be
       0.023350714 -0.6255896 -0.8514196 -0.13232785
000080 9b 0c ec 3f 70 26 54 bd bf 0b df 3d a5 cf 47 bf
       1.8441347 -0.05179447 0.10890912 -0.78051215
000090 59 28 1b 3e f6 96 8d 3d d8 e8 41 3e 20 97 07 bf
       0.1515211 0.06913559 0.18936479 -0.52964973
0000a0 ca 5c f9 bd c7 fa b7 3e 73 25 ef bd 71 09 16 bc
       -0.12175901 0.35933515 -0.11677065 -0.009157524
0000b0 65 0d 14 40 27 53 6b bf fd b4 cd 3f 9e f9 29 bf
       2.3133175 -0.91923755 1.6070858 -0.6639651
0000c0 50 a1 68 bf 1c 66 18 3f 0a 88 12 bd b9 4c f2 be
       -0.90871143 0.59530807 -0.03577427 -0.4732416
0000d0 cd de 4c 3f 84 a0 fa 3e 07 bd 8e 3f f9 5d fe 3f
       0.80027467 0.4895059 1.1151437 1.9872428
0000e0 6e d2 30 be 7f 9a 65 3f c2 d4 53 be f5 0e 0e bf
       -0.17267773 0.8968887 -0.2068663 -0.5549157
0000f0 c4 2c ca 3f 72 7e 50 bf f6 9e 47 c0 6c 43 21 bf
       1.5794911 -0.8144294 -3.1190772 -0.629935
000100 de 3c d1 bd af 9b 84 bf 5f f9 16 bf f4 cb 88 bf
       -0.102166876 -1.0360011 -0.5897426 -1.0687242
000110 81 93 3a be 2d 8f 74 3e dd 32 d6 3f e5 72 68 bd
       -0.18220331 0.23882742 1.6734272 -0.056750197
000120 ac 5e 39 bf 60 ae 1a be a3 67 7b bf 40 26 5b bf
       -0.7241008 -0.15105581 -0.9820501 -0.8560524
000130 a7 f2 a4 be 82 bf 16 bf cf 07 c1 3e 76 f5 80 bf
       -0.3221638 -0.5888597 0.3770127 -1.0074909
000140 d2 0a f5 be af 17 e6 3d c0 f7 2d bf 08 a0 40 3f
       -0.47859818 0.11234986 -0.6795616 0.7524419
000150 80 cc b7 bf f3 49 01 bf 07 94 1a 3e 1a a9 09 be
       -1.4359283 -0.5050346 0.1509553 -0.13443413
000160 90 38 6e 3e 08 48 f1 be a0 9c 81 bf 1e e8 42 3f
       0.23263764 -0.47125268 -1.0125923 0.7613543
000170 5d 97 82 bf 39 f1 e8 be d4 a8 a7 3e 77 6b f5 3f
       -1.0202442 -0.45496538 0.32745993 1.9173421
000180 70 43 30 3f 3f 7e b8 3f 3d 02 8a 3f 8a 27 66 bf
       0.688529 1.4413527 1.0781933 -0.8990408
000190 5c c3 aa 3f 51 f2 51 bf 7e 22 73 bf 62 e2 98 3f
       1.3340869 -0.8201037 -0.94974506 1.1944087
0001a0 92 99 af 3f 90 06 16 3f c0 14 04 be 80 b5 2a be
       1.3718741 0.58603764 -0.1289854 -0.166708
0001b0 85 f4 04 c0 6c 86 1f bf 49 8a bf bf 92 cc 8c bf
       -2.0774243 -0.62314487 -1.4964076 -1.099993
0001c0 72 bd 56 3f aa be 1a bf 5d 6c a6 3f fa 3a 49 3f
       0.8388282 -0.6044718 1.300182 0.78605616
0001d0 b2 f8 4c 3e b4 6f 8f 3e 92 89 0e 3f 78 0a d3 be
       0.20016745 0.2801491 0.55678666 -0.41218925
0001e0 d0 aa 12 40 5a 9d 52 be fc 2e 2c bc 7c 62 df 3f
       2.2916756 -0.20567837 -0.010509249 1.745193
0001f0 c2 99 ff bf 4f 96 a4 3f 6f a9 3a 3c 3b 55 a1 3e
       -1.9968798 1.285837 0.011392935 0.31510338
000200 b4 26 22 3f 74 62 ed bf af 84 9a 3e 57 5e 94 3f
       0.63340306 -1.854567 0.30179355 1.159129
000210 60 83 8e be 5d e9 d4 bf 2d 85 22 3f 06 f0 71 bf
       -0.27834606 -1.6633717 0.6348446 -0.9450687
000220 8f 7d cd bf 2d 4b ed bf 69 35 fa 3e 9e c6 25 3f
       -1.6053942 -1.8538567 0.48868874 0.6475619
000230 1a 72 1d 40 47 5f 23 3f b2 4b d9 3f db c0 e7 bf
       2.4600892 0.63817257 1.6976225 -1.810573
000240 12 fe b0 bf e2 bd 87 bf 97 ed be 3f 88 3b 25 3f
       -1.3827536 -1.0604823 1.4916257 0.6454396
000250 55 33 de 3e d2 34 ed be 20 8b 08 3f 53 7e c5 bf
       0.43398538 -0.4632936 0.5333729 -1.5429176
000260 b6 29 ff 3e 04 77 a0 bd 24 0c 82 3e 0f ca a7 3f
       0.4983651 -0.078352004 0.25399888 1.3108538
000270 4d cf e0 3f 84 76 ec 3f e7 06 4c bf 30 2f 21 40
       1.7563263 1.8473668 -0.7969803 2.518505
000280 f3 8f dd 3e 07 6c 5a be 28 8e 10 bf 19 83 f5 be
       0.43273887 -0.21330272 -0.56466913 -0.47951582
000290 62 50 44 bf e6 59 79 bf 7c ac 5d 3f f8 ea 8e 3f
       -0.76685154 -0.974028 0.86591315 1.1165457
0002a0 0e 0c b0 3e bb d8 bd 3f d3 af 97 3f 00 5d e6 bf
       0.34384197 1.4831766 1.1850532 -1.7997131
0002b0 1f bc d2 be 06 4a 72 bf 41 78 f1 bc 29 cb 9b bd
       -0.4115915 -0.946442 -0.029476287 -0.07607109
0002c0 cb 30 55 3f bb 92 99 3f 0b cb 01 3f 96 3b d0 3f
       0.8327758 1.1997904 0.50700444 1.6268184
0002d0 9e b3 76 bf 20 60 05 3e 2c 58 0f be 9c 72 af be
       -0.96367824 0.1302495 -0.13998479 -0.34267128
0002e0 ad 70 9f 3f 51 68 92 be 82 2b 54 3e cb 7f 91 3f
       1.2456261 -0.28595212 0.20719722 1.1367124
0002f0 01 7a f5 3d ae b2 ad 3f 7f ee cc be b8 aa 88 3f
       0.11986161 1.3570154 -0.40025708 1.0677099
000300 23 85 fd be a9 fa 60 3f 71 f8 e3 3f cf c6 0d be
       -0.49515638 0.8788248 1.7810193 -0.1384537
000310 b8 9f fc 3e c6 05 00 c0 e9 ab 3a c0 f6 b2 0b bf
       0.49340606 -2.0003524 -2.9167426 -0.5456995
000320 16 9d 02 bf 0f 01 5c 3f aa 2d 68 bf 32 87 0e 3f
       -0.51020944 0.85939115 -0.9069468 0.5567504
000330 c4 c8 d7 bf c6 7e 14 be 68 2c 44 3f a4 d7 a7 3d
       -1.6858144 -0.14501485 0.7663026 0.08195427
000340 be 83 5e 3f 7f 9c 82 3f 91 ba fb be 02 b2 a8 3f
       0.8691977 1.0204009 -0.49165776 1.3179324
000350 ad 15 74 3e 89 67 f4 3f a7 94 ed 3f c4 fe a4 3f
       0.23836394 1.9094096 1.856099 1.2890248
000360 e4 58 70 bf 7d 7e 9c 3f 5e e7 98 3f 02 12 12 bf
       -0.93885636 1.2226101 1.1945608 -0.5705873
000370 d2 c9 3f 3e 33 e2 1a bf b8 bd b5 3f 15 95 eb 3f
       0.18729332 -0.605014 1.4198523 1.8404871
000380 7b bd cf 3f cb 2d d4 be 29 e2 ef be e1 d2 b9 bf
       1.62297 -0.41441187 -0.46852234 -1.451748
000390 2f 2e a2 3f a2 14 a4 3f f0 51 d8 3e 54 5b 9d 3e
       1.2670344 1.2818797 0.42250013 0.3073374
0003a0 3f 57 02 be 01 25 c3 3e 01 bf 78 3f 31 56 af bf
       -0.12728594 0.3811417 0.9716645 -1.3698179
0003b0 bf 83 d8 3f f6 6c 0f c0 b8 5e 66 bf 9c 80 85 3e
       1.6915206 -2.2410254 -0.8998828 0.26074684
0003c0 70 d1 97 3e 51 47 7f 3f 5f 7d b7 3f f1 d5 0b bf
       0.29651976 0.99718195 1.4335135 -0.54623324
0003d0 7a fb 36 bf fe 2b 33 be 18 c7 88 be 54 67 ca bc
       -0.7147747 -0.1749725 -0.26714396 -0.024707474
0003e0 80 9f b4 3e 9e 7a 1d bf ba 92 15 bf 44 f7 91 3f
       0.3527794 -0.61515224 -0.5842701 1.1403584
0003f0 1e 23 a9 bd d6 ab 4a bf 70 c3 14 3d 18 aa 20 3f
       -0.08258651 -0.7916845 0.036319196 0.6275954

indicator_time_mixing.0.indicator_mixing.W2 f4 [64, 5]
000000 15 07 24 3f 4f 72 61 bf e5 2b 2d bd 40 f7 ae be
       0.64073306 -0.88065046 -0.04227819 -0.34173012
000010 ec e2 b4 3f 1e aa 02 3f 14 8e 2d bf 62 83 53 bf
       1.4131751 0.5104083 -0.6779492 -0.8262235
000020 90 06 4c 3f 67 98 2a 3f 46 45 7e bf 6e cd 47 bf
       0.79697514 0.666388 -0.9932445 -0.78047836
000030 a7 ab 28 bf b5 7d 45 3f dc ab 33 bd d0 ce 89 3f
       -0.6588692 0.7714494 -0.04386507 1.0766239
000040 ad e3 21 bf 43 e2 fc be cf 4d 18 bf b8 ff d8 3c
       -0.6323803 -0.49391374 -0.59493726 0.026489124
000050 76 b1 46 3f 2f b5 58 3e 96 17 98 3d 7b e0 12 c0
       0.77614534 0.21162866 0.07426374 -2.2949512
000060 74 4e 9d 3e 77 09 e7 3e 69 4c a2 3f ba 21 a5 3f
       0.30723917 0.4512441 1.2679569 1.2900918
000070 4c 7c 3e 3e 7c f6 0e 3f a9 ae cb be ee ec f6 bf
       0.18602103 0.55844855 -0.39781693 -1.9291055
000080 0f f2 6d 3e 03 89 5c 3f 7d 2b 1f 3f 04 99 e8 bf
       0.2323687 0.86146563 0.6217573 -1.8171697
000090 97 6a 50 bf 50 0d c4 bf 76 5e ca 3f c6 73 21 3b
       -0.81412643 -1.5316563 1.5810077 0.0024635657
0000a0 f7 0d 2f 3f f0 d9 e1 bd 0c ec 01 c0 d6 d0 38 3f
       0.68380684 -0.110278964 -2.0300322 0.7219366
0000b0 dc 1f 23 c0 27 ae 37 be 04 b9 c4 3e 81 be 8b 3f
       -2.5488195 -0.17937528 0.38422406 1.0917512
0000c0 cb af 08 bf 1e 81 6a 3f 30 1e 6c be 4d 49 d0 bf
       -0.5339324 0.9160327 -0.2305839 -1.627237
0000d0 05 e5 5d bf 1b 63 11 3f 70 a4 b3 3f d0 66 6a bf
       -0.8667758 0.5679185 1.4034557 -0.9156313
0000e0 3d 92 aa 3f b4 4c 84 be 94 f6 2b be 69 a0 19 bf
       1.3325878 -0.2583977 -0.16793281 -0.6001039
0000f0 25 e4 2e 3f 55 31 d7 3e 28 d9 89 bf 30 5f 7d 3f
       0.6831687 0.42029825 -1.0769396 0.9897337
000100 39 1c 0f bf bf a0 e5 bd 7f 3b c6 3f dc 61 af bf
       -0.5590244 -0.112123005 1.5486907 -1.3701739
000110 46 77 57 3f 57 fe 34 bf 3e a9 a3 3f ab 51 03 3f
       0.8416637 -0.7070059 1.2786024 0.5129649
000120 1d 17 8c 3d 39 5c ed 3f 5a 5d 5d bd 11 cc 9a bd
       0.06840346 1.8543769 -0.054044105 -0.07558454
000130 79 58 1a bf f0 1a 1e bf a3 79 d1 be 86 de 02 c0
       -0.6029125 -0.61759853 -0.40913114 -2.0448318
000140 a9 2a db 3e a3 2c c3 bf 1f 15 82 bf e3 e3 6b bc
       0.42805985 -1.5247997 -1.0162696 -0.014397594
000150 fe 10 9d be d4 be 15 3e dd c7 9a be 7a d1 63 be
       -0.30677027 0.14623576 -0.3023061 -0.22247878
000160 06 33 22 bf 4c 03 9a 3f 1e 45 23 3f 5f 89 dc be
       -0.63359106 1.2032256 0.6377734 -0.43073556
000170 c0 3c 63 bf a9 9c 98 3e 26 d1 34 bf 58 db d0 be
       -0.8876457 0.29807022 -0.70631635 -0.40792346
000180 dd 6b a5 be 36 9a 13 3f da 84 71 be c2 6e 0c 3f
       -0.32308856 0.5765718 -0.23585835 0.54856503
000190 14 76 b2 be 70 ad 18 c0 0e 88 9d bf da 47 25 bd
       -0.3485571 -2.3855858 -1.2307146 -0.040351726
0001a0 4e 19 f9 bd 27 36 12 c0 c2 92 15 3f 27 40 0a 3f
       -0.121630296 -2.2845552 0.5842706 0.5400414
0001b0 aa de 3a be cb 15 2a 3f 3a 00 dc 3e 5f a0 10 40
       -0.18249002 0.66439503 0.42968923 2.2597883
0001c0 c7 91 7f 3f 16 ea b6 3f fb cf bf 3f ee d0 15 3e
       0.99831814 1.4290187 1.4985346 0.14630482
0001d0 14 61 c8 bf df 9b c3 bd 87 27 91 3e 9b 84 12 3f
       -1.5654626 -0.095512144 0.2835047 0.5723359
0001e0 d9 06 44 3f 74 9c 1a be 12 f6 d3 3d f2 0f d4 be
       0.7657295 -0.15098745 0.103496686 -0.41418415
0001f0 2a 3d c6 be 87 aa 9d bf 6f 90 f8 3f ae 4c e6 bf
       -0.3871854 -1.2317666 1.9419078 -1.7992151
000200 bf 62 63 3c 14 85 6c 3e 5e a1 92 3e c9 23 85 3e
       0.013878523 0.2309764 0.28638738 0.26003864
000210 ec d9 b0 be 3f ca 79 3f 58 69 ed 3f 57 b4 64 bf
       -0.3454126 0.9757423 1.8547773 -0.89337677
000220 51 6b 73 3f da 45 2b 3f 46 a7 a4 bf e2 b0 c0 3f
       0.95085627 0.6690346 -1.2863548 1.505398
000230 33 a6 4f c0 23 fb fd 3e 9e 15 02 c0 d2 c8 bd bf
       -3.244519 0.49605665 -2.0325694 -1.482691
000240 d4 d9 85 3f f9 09 bd 3f 8b 2b 0b 3f f2 bc 70 3f
       1.0457101 1.4768668 0.54363316 0.9403831
000250 32 3c 9a 3f c4 c6 c2 be a1 28 ca be 17 6c 0a 3f
       1.204962 -0.3804227 -0.39484122 0.5407118
000260 f0 5e 51 be bb 7f 3e bf 22 b7 66 be fa aa e7 be
       -0.20446372 -0.7441365 -0.22530797 -0.45247632
000270 ee 75 7b 3e b1 40 f2 be c9 e3 4d bf 9d e6 04 3f
       0.24556705 -0.4731498 -0.804257 0.5191439
000280 32 2a af be 73 42 49 3c c8 ea 02 bf 6a 40 1d bf
       -0.3421188 0.012283909 -0.511395 -0.61426413
000290 95 36 2e 3f 18 4c 62 3f cd f5 69 be 49 4a 08 bd
       0.68052036 0.8839736 -0.22847672 -0.03327397
0002a0 d2 fa a9 bf e3 03 6d bf df d4 98 bf 8c bc a9 3f
       -1.3279669 -0.92584056 -1.1939963 1.3260665
0002b0 19 de 0c c0 07 18 92 3e d8 74 4b be 94 2f 25 c0
       -2.2010558 0.28533956 -0.19868791 -2.581029
0002c0 c2 32 d0 bf 38 aa f0 3d 8d b6 3c be 50 81 bc 3f
       -1.626549 0.11751217 -0.18429013 1.4726963
0002d0 d9 54 96 3e f2 c0 3e be 1d b1 89 3e c0 ca d3 be
       0.2936161 -0.1862829 0.2689294 -0.41365623
0002e0 82 a3 74 3f ca 40 40 3f 91 3b 19 3f 67 83 11 3f
       0.95561993 0.7509886 0.59856516 0.5684113
0002f0 74 84 d5 be 73 fe 81 3e 66 cf a4 3e fb ff 09 bf
       -0.41702616 0.25389442 0.32189482 -0.5390622
000300 04 ee 18 3f 6c 1b ae 3f 9a eb 87 be e5 6b 66 bd
       0.59738183 1.3602118 -0.26546937 -0.05625524
000310 b6 ab 0b be 33 6d 04 3f bd a3 4a be 12 1e a2 bf
       -0.13639721 0.51729125 -0.19789024 -1.2665427
000320 4d 2d 0d 3d 10 53 b7 3f 46 b3 dc bf de 30 05 3e
       0.03446703 1.4322224 -1.724221 0.13006923
000330 c6 0d df 3e ba a2 9a 3e ef de 33 bf 6c cd 83 be
       0.43565196 0.30202276 -0.70262045 -0.25742662
000340 6e 24 b0 3e dc b3 24 bf 7b 41 2f 3f 0c 18 a6 3f
       0.34402794 -0.64336944 0.6845929 1.2976089
000350 ca 0c b7 3e 49 4c 91 3f 33 17 38 bc 4b c0 87 be
       0.35751945 1.1351405 -0.011236 -0.26513895
000360 e0 0f 4e bf e3 05 62 bd 44 f2 94 3f 59 12 11 bf
       -0.80492973 -0.055181395 1.1636434 -0.5666862
000370 b4 bf c5 bf 00 79 6d 3f a0 2d 8b 3f c2 2c e8 3e
       -1.5449128 0.92762756 1.0873299 0.45346648
000380 f7 05 a3 3e 09 38 94 3f 2f 46 7d 3c 7f f6 1e c0
       0.31840488 1.15796 0.015458628 -2.483795
000390 c7 08 22 3f 2c 27 b8 be a1 3d de 3e 74 83 bc 3e
       0.63294643 -0.35967386 0.43406394 0.3681904
0003a0 6c 8c 0c bf ab 2f 90 3f 0e 7e 06 3f 71 ef 6c bf
       -0.54901767 1.1264547 0.52536094 -0.9255286
0003b0 91 07 f6 be f9 2d e3 3f 34 00 94 3f 2c e7 35 3f
       -0.48052648 1.7748405 1.1562562 0.71055865
0003c0 3c 1b 27 bf 32 f2 66 bf 67 1e 06 3f d3 b5 20 bf
       -0.6527593 -0.9021331 0.5239014 -0.6277744
0003d0 d4 a9 9c 3f 58 e2 57 3f ab 44 af be 95 77 e7 be
       1.2239327 0.8432975 -0.34232077 -0.4520842
0003e0 06 31 f2 be 4d ed e2 3b 5a 4c 49 bf 5f 20 a2 3e
       -0.47303027 0.006925261 -0.7863213 0.31665322
0003f0 b9 44 50 3f 11 8b 5c 3f 3e de fd 3e 11 f1 e1 3e
       0.8135486 0.861497 0.4958362 0.44129232

indicator_time_mixing.0.indicator_mixing.ln.weight f4 [16, 5]
000000 f1 3c 8b 3f e0 37 85 3f 57 f2 89 3f fd 31 87 3f
       1.0877973 1.0407677 1.0777081 1.056213
000010 b4 28 74 3f 89 0a 82 3f ae a7 7e 3f 74 e6 74 3f
       0.9537461 1.0159465 0.9947461 0.95664144
000020 f8 d1 7f 3f 50 19 5a 3f 9d 78 8e 3f 56 31 88 3f
       0.9992976 0.85194874 1.1130558 1.0640056
000030 98 67 a5 3f 43 45 88 3f 24 f0 6f 3f ae 42 85 3f
       1.2922239 1.0646137 0.937258 1.0410974
000040 23 fe 82 3f 0f f0 8b 3f f4 cb 77 3f 06 32 88 3f
       1.0233806 1.0932635 0.9679558 1.0640266
000050 b7 76 79 3f 2f 9a 7e 3f 3b 65 7d 3f f3 62 7a 3f
       0.9744677 0.99454015 0.9898259 0.97807235
000060 e4 eb 85 3f d3 37 6c 3f c7 3e 7c 3f 7a 26 6c 3f
       1.0462613 0.9227268 0.9853329 0.9224621
000070 ce 79 87 3f 3a 9f 7b 3f 2c 06 7d 3f f4 5e 7f 3f
       1.0584047 0.98289835 0.9883754 0.9975426
000080 0e f3 80 3f f1 23 7f 3f 48 1a 87 3f ce 6a 70 3f
       1.0074174 0.9966422 1.0554895 0.9391297
000090 59 fe 7c 3f ec 7c 77 3f 58 db 7f 3f de 0a 82 3f
       0.98825604 0.9667499 0.99944067 1.0159566
0000a0 06 60 7d 3f 2e 13 7e 3f 57 da 7a 3f 3e cf 7a 3f
       0.98974645 0.99248016 0.9798941 0.97972476
0000b0 c5 af 7d 3f 6f a4 81 3f d8 89 80 3f 6f b0 82 3f
       0.9909633 1.0128306 1.0042067 1.0210093
0000c0 56 fb 7a 3f 47 51 6c 3f db e6 7d 3f 5f 20 7f 3f
       0.9803976 0.9231152 0.9918038 0.9965877
0000d0 86 14 78 3f 41 10 84 3f 22 00 86 3f 34 5b 76 3f
       0.96906316 1.031746 1.046879 0.96232915
0000e0 df 35 7d 3f 4c 11 71 3f de 2f 81 3f 77 ed 81 3f
       0.98910326 0.9416702 1.0092733 1.0150594
0000f0 5f 42 7c 3f ba 51 80 3f d0 67 84 3f 96 80 77 3f
       0.98538774 1.0024941 1.0344181 0.9668058
000100 1d c3 82 3f b5 ee 91 3f 68 65 87 3f 1a 8c a4 3f
       1.0215794 1.1400973 1.0577822 1.2855256
000110 d0 a7 82 3f 45 b7 68 3f f0 fc 78 3f ad 47 7b 3f
       1.0207462 0.9090465 0.9726095 0.98156244
000120 8e 01 80 3f 13 07 83 3f aa 8b 75 3f 37 d6 71 3f
       1.0000474 1.0236534 0.95916235 0.9446749
000130 6d ee 77 3f da 80 82 3f 58 cd 7d 3f 27 af 71 3f
       0.96848184 1.0195572 0.99141455 0.94407886

indicator_time_mixing.0.indicator_mixing.ln.bias f4 [16, 5]
000000 3b 19 a1 3d 68 c6 67 bd 33 10 27 bd 48 d4 35 3d
       0.078661405 -0.0565857 -0.040786933 0.0443919
000010 61 9c 2f 3d b7 64 3f 3c b9 e6 18 3a d2 7a c6 3c
       0.042873744 0.011681727 0.000583272 0.024228487
000020 1b e7 2a bc 0b ad de 3c 9f 3e ab 3d 16 eb 9b bd
       -0.010431076 0.027182123 0.083615534 -0.076131985
000030 46 a5 35 bd 36 26 79 3d 2e 70 9d 3d 18 61 87 3c
       -0.04434707 0.060827456 0.07687412 0.01652579
000040 2a fa dc bc 47 3e 25 3c d8 67 13 bc f3 0b 04 bd
       -0.026974756 0.010085649 -0.008996926 -0.03223796
000050 0e 77 f1 bc af a7 ea 3b b2 a1 be b9 79 aa 38 bc
       -0.029475715 0.0071611027 -0.00036360096 -0.011271113
000060 ac 33 10 bd e8 81 ea bc b0 f5 81 3c ac 31 12 bd
       -0.03520553 -0.028626397 0.015864223 -0.035691902
000070 71 8f bf 3c 67 dd 1f 3d c9 f3 f9 bb 67 1c 4e 3b
       0.023383828 0.039029505 -0.0076279384 0.0031450035
000080 18 d5 d7 bb 5e 58 d5 ba 54 5b 6e bc 38 6f 5d bd
       -0.006586682 -0.0016276946 -0.0145481415 -0.054061145
000090 4a e7 70 3c 80 a4 06 3c b1 0e 33 ba a2 81 66 3c
       0.014703581 0.008217931 -0.00068304973 0.014068993
0000a0 2e b3 1c bc 4c 72 95 3b f0 c2 9f 3b 41 d9 93 bc
       -0.009564204 0.0045607444 0.0048755333 -0.01804793
0000b0 4d 9d eb bc 85 a5 a5 ba 80 df c3 bb 4f 32 75 3c
       -0.02876153 -0.001263783 -0.005977571 0.014965608
0000c0 8c d5 3d bc e4 ea 3b 3c fc f8 6b 3c 82 52 4e 3b
       -0.011586558 0.0114695765 0.014402624 0.0031482284
0000d0 e5 ad b8 bc af 93 61 3c b9 28 65 3c e1 c8 ce bc
       -0.022543857 0.013768121 0.01398676 -0.02524227
0000e0 90 6a 59 3c 74 a9 3d 3b e3 d4 8c 39 31 7e 84 bb
       0.013270035 0.0028940113 0.00026861494 -0.0040433635
0000f0 64 88 b9 bc 3a 6f 9a bb 60 13 a1 3c 45 09 99 bc
       -0.022648044 -0.0047129663 0.019662559 -0.018681178
000100 ee 4a 7c bc 54 a7 97 3d 5a e9 79 bd 79 09 05 bd
       -0.015398724 0.07404962 -0.061013557 -0.032479737
000110 54 b6 44 3d 2e e1 ab 3d 58 7b 83 3a 56 a9 40 3c
       0.048025444 0.08392559 0.0010031266 0.011759123
000120 3f ce e2 bb 46 3e 29 3c 5e ea 1d bc d9 f0 12 bd
       -0.006921559 0.010329789 -0.009638397 -0.03587422
000130 a6 be a4 3c 87 25 01 3c 0c 1c f1 bb f4 d6 3b bc
       0.02011044 0.007882482 -0.00735808 -0.011464823

indicator_time_mixing.0.time_mixing.ln.weight f4 [16, 5]
000000 2d c9 73 3f 5b 6d 85 3f ce 4e 8a 3f 88 47 88 3f
       0.95228845 1.0423998 1.0805299 1.064683
000010 6b 2d 7b 3f fe dd 6f 3f 77 bb 88 3f 8e 41 89 3f
       0.9811618 0.9369811 1.068221 1.0723131
000020 6c 05 87 3f b8 92 77 3f c8 a4 72 3f 49 4f 88 3f
       1.054853 0.9670825 0.94782686 1.0649196
000030 10 c1 8b 3f aa 2a 86 3f e4 ad 79 3f 0f 8d 73 3f
       1.0918293 1.048177 0.9753096 0.95137113
000040 6f cf 87 3f a2 5d 8b 3f d6 82 85 3f d3 e2 79 3f
       1.0610179 1.088795 1.0430553 0.9761173
000050 c3 eb 73 3f e4 3b 88 3f cf 12 8a 3f 21 4d 85 3f
       0.9528162 1.0643277 1.078699 1.0414163
000060 d6 88 7a 3f f0 12 74 3f 0c f4 86 3f 95 54 89 3f
       0.97865045 0.95341396 1.0543227 1.0728937
000070 aa 31 86 3f 40 20 79 3f 79 0b 75 3f 31 b2 86 3f
       1.0483906 0.97314835 0.9572063 1.052313
000080 82 1e 8c 3f a7 02 85 3f 5e ab 7b 3f 9f 69 71 3f
       1.094681 1.0391434 0.9830836 0.9430179
000090 58 5a 87 3f 72 5c 89 3f 3f c9 86 3f c0 1c 78 3f
       1.0574446 1.0731337 1.0530165 0.9691887
0000a0 4d fc 75 3f 60 55 85 3f ce ef 8b 3f eb f0 83 3f
       0.96088105 1.0416679 1.0932558 1.0307897
0000b0 23 81 7c 3f c6 27 73 3f 5d 0c 87 3f 19 19 8d 3f
       0.98634547 0.94982564 1.0550648 1.1023284
0000c0 a5 b5 84 3f fa 16 7b 3f 94 79 71 3f 2c db 86 3f
       1.0367934 0.98081934 0.9432614 1.0535636
0000d0 10 5f 8a 3f 2b 4f 86 3f fe ab 78 3f 38 0d 6e 3f
       1.0810261 1.049291 0.9713744 0.9298892
0000e0 55 63 8a 3f 29 b4 8b 3f 61 9b 88 3f 80 32 74 3f
       1.0811564 1.0914356 1.0672418 0.95389557
0000f0 94 75 75 3f a1 36 86 3f 84 4a 8e 3f dd b2 83 3f
       0.95882535 1.0485421 1.111649 1.028896
000100 09 82 7d 3f b8 e4 7a 3f 20 0c 85 3f e1 0e 8e 3f
       0.9902654 0.9800525 1.0394325 1.1098291
000110 5b 59 83 3f 55 cc 7e 3f cb 6d 7d 3f ad 7c 81 3f
       1.0261644 0.99530536 0.98995656 1.0116173
000120 ea 7d 7d 3f b1 98 80 3f 5a 33 7e 3f 34 89 7e 3f
       0.99020255 1.0046598 0.99297106 0.99428105
000130 5a 1b 81 3f 5a a6 7c 3f 78 2e 80 3f 27 56 7e 3f
       1.0086472 0.9869133 1.0014181 0.9935021

indicator_time_mixing.0.time_mixing.ln.bias f4 [16, 5]
000000 95 bb 47 3d 66 46 12 3d 27 23 a5 bd 1d d3 12 3d
       0.048762877 0.03571167 -0.080633454 0.035845865
000010 7a fa e3 bc f3 aa 7b 3d d0 5b 47 3d dd 42 6c bd
       -0.027829397 0.061442327 0.048671544 -0.057680953
000020 b3 29 42 3d 36 b3 27 bd 5b a0 56 3d ef e8 1c 3d
       0.04740305 -0.040942393 0.05239902 0.03830808
000030 15 ae 8c bd 08 b4 1b 3d 00 5d fc bc c0 f2 4a 3d
       -0.06869141 0.038013488 -0.030806065 0.04954791
000040 ee ea 1e 3d 31 b7 96 bd a6 98 1c 3d 5e b0 fe bc
       0.038798265 -0.0735916 0.038231514 -0.031089958
000050 d3 8d 41 3d bd 1b 1c 3d a0 37 af bd 87 48 1d 3d
       0.047254395 0.03811239 -0.085555315 0.038399246
000060 a6 cf f5 bc 3e 31 4a 3d b4 20 27 3d b9 9a 9f bd
       -0.030006241 0.049363367 0.040802673 -0.07793183
000070 19 8c 21 3d 68 2a 07 bd 59 3c 3a 3d f8 98 14 3d
       0.03944025 -0.032999426 0.04546771 0.036278695
000080 48 d9 ae bd f3 66 14 3d fa 13 e8 bc 3e 1d 7c 3d
       -0.08537537 0.036230993 -0.028329838 0.061551325
000090 86 19 4c 3d cd 1b 8a bd 59 46 4a 3d da 48 2c bd
       0.04982903 -0.06743584 0.049383495 -0.042061664
0000a0 74 62 29 3d c8 d0 fe 3c d4 8d a7 bd d4 b6 fc 3c
       0.041353658 0.031105414 -0.081813484 0.030848898
0000b0 98 ec bf bc 6b 33 52 3d 46 9f 1e 3d 75 df b2 bd
       -0.023428246 0.051318567 0.038726114 -0.08734027
0000c0 b5 7b 21 3d 1f b8 f9 bc c3 dd 74 3d dc 34 42 3d
       0.039424617 -0.030483304 0.0597818 0.047413692
0000d0 ce 01 88 bd f7 e8 3b 3d bb 6f 23 bd 49 4d 92 3d
       -0.06640969 0.04587647 -0.039901476 0.07143647
0000e0 ab ca 8d 3d d0 01 7d bd 40 1a 87 3d 98 91 7a bd
       0.069234215 -0.061769307 0.06596804 -0.061174005
0000f0 11 21 2a 3d df c1 ff 3c 22 0e b5 bd 97 86 fb 3c
       0.04153544 0.031220375 -0.08840586 0.030703826
000100 e9 3b c0 bc 21 8d d3 3c 38 2c a6 3c f2 d2 f8 bd
       -0.023466067 0.025824131 0.020284757 -0.121496096
000110 77 8b ae 3c 03 4e 49 bc eb b4 18 3c e1 7f 2b 3c
       0.021306736 -0.012286666 0.009320478 0.0104675
000120 00 71 2f 3c 5a 47 0f 3c 0f 64 25 bc e2 08 c1 3a
       0.010708094 0.008745039 -0.010094657 0.0014727379
000130 fa 95 4a 3b 98 46 e9 3a 15 a0 e2 3a d8 02 4e bb
       0.0030912147 0.0017797528 0.001729014 -0.00314348

indicator_time_mixing.0.time_mixing.U1.1 f4 [1, 2]
000000 0a 6d 98 b9 2c ef 24 3b
       -0.0002907294 0.0025166972

indicator_time_mixing.0.time_mixing.U1.2 f4 [1, 3]
000000 ba 52 0c bc 27 bc 09 bc 1d fa 1a ba
       -0.008564645 -0.008406675 -0.00059119036

indicator_time_mixing.0.time_mixing.U1.3 f4 [1, 4]
000000 c7 70 06 bc 41 f2 2a bc 3f 0e eb 3b 3d 86 2d 3c
       -0.008205599 -0.010433734 0.007173329 0.010591087

indicator_time_mixing.0.time_mixing.U1.4 f4 [1, 5]
000000 52 fe a7 3b cd 8f 90 3b 9c e8 8d 3a 4d d7 39 bc
       0.005126753 0.0044116736 0.0010826769 -0.011342836
000010 c8 2c 54 ba
       -0.0008093831

indicator_time_mixing.0.time_mixing.U1.5 f4 [1, 6]
000000 87 9c af 3b f8 df 2c bc e9 7b b9 3b 97 1f 1a 3c
       0.0053592357 -0.010551445 0.005660523 0.009406946
000010 2a 00 14 bc 3a 9d a7 bb
       -0.009033242 -0.0051151784

indicator_time_mixing.0.time_mixing.U1.6 f4 [1, 7]
000000 0f 89 9f bb 27 31 03 bc 48 6c fa 3a 1d bc 1f 3b
       -0.0048686336 -0.008007324 0.0019105757 0.00243736
000010 67 ea 9b 3c 33 06 ab 3b 1e 35 85 bc
       0.01903267 0.005219245 -0.01626068

indicator_time_mixing.0.time_mixing.U1.7 f4 [1, 8]
000000 ba fe 04 bc 20 49 05 bc af b2 dd bb 50 48 06 3c
       -0.008117372 -0.00813511 -0.0067656855 0.008195952
000010 fe bd 39 3c 41 b2 83 bb 3c e9 27 3c 49 4b d3 3a
       0.011336802 -0.0040190523 0.0102484785 0.0016120459

indicator_time_mixing.0.time_mixing.U1.8 f4 [1, 9]
000000 ce 07 52 bc 35 ce c6 3b e2 a5 31 3c fe c5 4f 3b
       -0.012819244 0.0060670623 0.010842772 0.0031703706
000010 c3 fa 73 3c c3 7b 48 bc 42 85 0b 3b 00 ae b9 bb
       0.014891329 -0.012236538 0.0021289145 -0.0056664944
000020 0c ac 55 bb
       -0.0032603769

indicator_time_mixing.0.time_mixing.U1.9 f4 [1, 10]
000000 9e 36 72 3c f2 90 10 bc a4 9d 5f bb 23 2c e9 3b
       0.01478353 -0.00882362 -0.003412106 0.007115857
000010 b5 d5 e0 3b 33 61 81 bc 4a 2c b7 3a cf d3 42 bb
       0.0068614134 -0.015793419 0.0013974991 -0.0029728299
000020 5f c7 d4 38 aa d7 97 ba
       0.000101460835 -0.0011584659

indicator_time_mixing.0.time_mixing.U1.10 f4 [1, 11]
000000 2b db 21 3c 2c 8a b6 3b 25 a7 af 3a 31 08 34 3b
       0.009878914 0.0055706706 0.0013401253 0.0027470703
000010 cd cf 35 bb 52 78 27 bb 18 59 b4 bb af 25 dd 3b
       -0.0027742267 -0.0025553894 -0.005503785 0.006748877
000020 8b 4b c8 bb ff ab ab bc f0 95 34 3c
       -0.006112521 -0.020956038 0.011022076

indicator_time_mixing.0.time_mixing.U1.11 f4 [1, 12]
000000 1b 63 58 bc 27 3b 83 3c 10 8f 30 bc 83 5b ea bb
       -0.013207222 0.016019417 -0.010776296 -0.0071520223
000010 e6 06 1a 3c 48 23 d8 3b be 68 31 3c b0 9d b5 bb
       0.009401059 0.0065960027 0.010828195 -0.0055424795
000020 1d 5c 63 bb 72 6a c0 3b ec 1d d1 bb ff ad 6b 3c
       -0.0034692355 0.0058720643 -0.006381741 0.014384746

indicator_time_mixing.0.time_mixing.U1.12 f4 [1, 13]
000000 e7 c7 a4 3b 27 13 90 bc d5 98 00 3c 3c 80 ac bb
       0.005028713 -0.017587258 0.007848938 -0.00526431
000010 b5 cf dd 3b 6c 46 8a 3c d6 95 cb bb 75 de 54 3c
       0.0067691454 0.016879283 -0.00621293 0.012992491
000020 bb eb d5 bc 77 db 00 3a 5e 77 35 3c d0 27 45 bc
       -0.026113382 0.00049155153 0.011075823 -0.012033418
000030 f7 80 9a bb
       -0.004715081

indicator_time_mixing.0.time_mixing.U1.13 f4 [1, 14]
000000 c8 37 ae 3d 4d 75 74 3d 43 11 67 3d b5 8a 76 3d
       0.08506733 0.05968218 0.056412946 0.060190875
000010 d3 b1 8c 3d 2c db 55 3d 72 fe 7e 3d 5f 62 5d 3d
       0.06869855 0.05221097 0.062254377 0.054048892
000020 36 77 51 3d 42 d4 58 3d 36 a7 3e 3d 01 6f 5d 3d
       0.05113908 0.0529368 0.046546184 0.05406094
000030 07 f5 65 3d 50 ba 59 3d
       0.05614188 0.053156197

indicator_time_mixing.0.time_mixing.U1.14 f4 [1, 15]
000000 e7 be 03 3c 51 06 bc 3c 7c 2a 3a bc a6 41 be bb
       0.00804112 0.02295223 -0.011362668 -0.0058061657
000010 1d fe 16 bc de 6c 60 bc 8e 20 0f 3a 03 f6 85 3c
       -0.009215859 -0.013697831 0.0005459868 0.01635266
000020 50 5b 2b 3c d2 c5 89 3b 68 b6 e1 ba 74 56 ee 3b
       0.010458782 0.00420449 -0.0017220499 0.0072734896
000030 59 cb a6 bc 10 b5 f4 3b 6e c2 c0 bb
       -0.020360636 0.0074678734 -0.005882553

indicator_time_mixing.0.time_mixing.U1.15 f4 [1, 16]
000000 64 b4 fa bb 96 4f cf 3a 97 df 99 3b 3f 97 94 3c
       -0.007650899 0.0015816565 0.0046958434 0.018138526
000010 84 97 d4 3b 5d 9e 77 3a 75 ad 76 bb 45 d2 c9 3b
       0.0064877886 0.00094459 -0.003764001 0.0061590993
000020 97 27 ec 38 06 e5 ae bb 1f 9b 5f bc 5f d8 44 bc
       0.00011260731 -0.0053373603 -0.013647824 -0.0120144775
000030 72 01 b4 bc 04 7e 1d bc 21 90 4a 3c a3 70 76 3c
       -0.021973345 -0.009612564 0.012363465 0.015041503

indicator_time_mixing.0.time_mixing.U2.1 f4 [1, 2]
000000 a6 59 44 3b 45 a5 08 bb
       0.0029960661 -0.0020850461

indicator_time_mixing.0.time_mixing.U2.2 f4 [1, 3]
000000 9c 6e 53 bd 65 51 59 bd ac 96 5b 3e
       -0.051619157 -0.05305614 0.21444196

indicator_time_mixing.0.time_mixing.U2.3 f4 [1, 4]
000000 db f1 8c bc 1e c2 09 3c 73 f6 11 bc 01 20 db 3c
       -0.01720517 0.008408098 -0.008908856 0.02674866

indicator_time_mixing.0.time_mixing.U2.4 f4 [1, 5]
000000 cb 4c 04 bc 46 3a e3 bb 9d 4a 4f bc fc f9 1a bb
       -0.0080749495 -0.006934437 -0.012652067 -0.0023647537
000010 92 96 0b bb
       -0.0021299464

indicator_time_mixing.0.time_mixing.U2.5 f4 [1, 6]
000000 0e 8c 2b bd c9 2a 1c bd a5 d0 a9 3d 1f 08 bf bc
       -0.041881613 -0.03812674 0.08291749 -0.023319302
000010 9f e2 45 bc 06 be 13 bc
       -0.012077956 -0.009017473

indicator_time_mixing.0.time_mixing.U2.6 f4 [1, 7]
000000 29 3c 33 bc 17 01 f7 bb 8a fc d1 3c 5e a3 8e 3b
       -0.010939636 -0.0075379717 0.025633115 0.004352971
000010 40 7b 8a 3a 04 a9 6a 3c 1e 6c 7e bb
       0.0010565296 0.014322523 -0.0038821767

indicator_time_mixing.0.time_mixing.U2.7 f4 [1, 8]
000000 16 93 3d 37 02 74 2a 3c 54 68 2a 3c 3c 7e 6c bb
       1.1299524e-05 0.010403635 0.01040085 -0.0036085984
000010 df 1a 82 bb 92 bc be 3b 7d 07 13 3c 85 c5 08 bc
       -0.0039704884 0.005820819 0.008973953 -0.008347874

indicator_time_mixing.0.time_mixing.U2.8 f4 [1, 9]
000000 a6 ac 70 bb 89 ea 58 3c 59 2a fb bb 3a 56 b8 3a
       -0.0036724 0.013239511 -0.0076649603 0.0014063783
000010 fb a7 ad 3b 18 a6 92 3b f0 ca 5f bc d9 1c 14 3c
       0.005299566 0.0044753663 -0.013659224 0.009040081
000020 e5 fb 74 bb
       -0.0037381586

indicator_time_mixing.0.time_mixing.U2.9 f4 [1, 10]
000000 e4 ed 4e 3c f4 c5 a7 bb 3c ba f2 39 51 9a 16 bc
       0.01262996 -0.0051200334 0.00046296592 -0.009192065
000010 6e d9 cd bb c5 c6 ad bc 09 81 97 bb 25 a2 58 ba
       -0.006282023 -0.021212945 -0.0046235365 -0.00082639075
000020 a8 14 68 3c 5d 9a 22 3a
       0.014165081 0.00062028115

indicator_time_mixing.0.time_mixing.U2.10 f4 [1, 11]
000000 ed e6 15 bd 8c 97 84 bc ef b4 05 3d 81 9a 11 bb
       -0.03659718 -0.016185544 0.032643255 -0.0022217336
000010 52 d5 d3 bb 86 93 3a ba 67 b4 37 3c d2 c2 bf 3c
       -0.0064646387 -0.00071173196 0.011212445 0.023408327
000020 15 48 f6 3a 65 70 17 3c 86 83 85 bc
       0.0018789793 0.009243106 -0.016298067

indicator_time_mixing.0.time_mixing.U2.11 f4 [1, 12]
000000 fa 89 db 38 fb 95 8b 3a de 9d 96 3c 9f c9 85 bb
       0.00010468434 0.0010649556 0.018385824 -0.004082873
000010 60 09 d2 3b 56 f5 c7 3b 98 db b1 3b b4 60 87 bb
       0.006409809 0.0061022444 0.005427789 -0.004131401
000020 c8 c0 5e bb d6 50 f4 3a a5 b5 fa 3b cf 98 20 bc
       -0.0033989418 0.0018639814 0.0076510482 -0.009802057

indicator_time_mixing.0.time_mixing.U2.12 f4 [1, 13]
000000 80 d9 cd bb f7 90 47 bc 5b 2e b2 3b 08 a5 39 3c
       -0.0062820315 -0.012180558 0.005437655 0.01133085
000010 3d 3b 5f bb 87 00 11 bc 61 f4 65 ba 57 2c 44 3c
       -0.0034062408 -0.008850223 -0.0008772072 0.011973462
000020 e7 4c 98 3c 71 b1 00 bc d6 70 49 bc 48 e6 7d bb
       0.018591357 -0.007854805 -0.012294969 -0.0038741995
000030 b1 af 90 3c
       0.017661901

indicator_time_mixing.0.time_mixing.U2.13 f4 [1, 14]
000000 49 7e 54 bd 87 c9 07 bd 3c db b4 3d 20 f0 6d bd
       -0.051878247 -0.033151176 0.08830878 -0.05809033
000010 ca 47 4c bc 8b da aa 3c 27 e3 9e 3d 11 a8 bf ba
       -0.012468288 0.020856163 0.077581696 -0.0014622231
000020 1c 44 33 bc ae 72 ca 3c 0c d0 69 bc 18 06 45 bd
       -0.0109415315 0.024712887 -0.014270794 -0.048101515
000030 81 f0 0e bc cb 24 3e 3e
       -0.008724333 0.18568723

indicator_time_mixing.0.time_mixing.U2.14 f4 [1, 15]
000000 d9 d7 2a bb 96 b4 f0 bb 01 36 03 3d 6e 9e 0a bc
       -0.0026068597 -0.0073457463 0.032033924 -0.008460624
000010 1b ef 28 bb 89 f9 48 bc 04 6f d0 3c ec c6 84 3b
       -0.0025777284 -0.012266525 0.025443561 0.0040520336
000020 68 50 1a 3c d0 51 eb 3b 34 db 8e bc ee 6b 2c bd
       0.009418584 0.0071813837 -0.017438509 -0.042095117
000030 5d 30 05 38 2c 96 18 bb 44 38 87 bb
       3.1754713e-05 -0.0023282869 -0.0041265804

indicator_time_mixing.0.time_mixing.U2.15 f4 [1, 16]
000000 59 c4 50 bc cf 75 11 bc b1 97 f7 3b fe e1 bf bb
       -0.012742125 -0.008878185 0.007555925 -0.005855798
000010 a5 04 90 bb ee f1 79 3b 9f 22 af 3c f9 1f 51 bc
       -0.004395085 0.0038138586 0.021378813 -0.0127639705
000020 2b 92 8e ba 6a ab ec 3a ec 3c f9 3b 74 6b 66 3a
       -0.0010877302 0.0018056456 0.0076061394 0.00087898155
000030 0c 01 08 bb ba 02 ff bc 87 37 7f 3b 9e 3f 42 b8
       -0.0020752577 -0.03112923 0.003894301 -4.6312452e-05

indicator_time_mixing.0.fc.weight f4 [1, 5]
000000 5c 7d 85 be cc b3 86 be 25 d2 8a 3c 46 0c 52 be
       -0.26072204 -0.2630905 0.016945908 -0.20512494
000010 04 1d b9 3e
       0.3615495

indicator_time_mixing.1.indicator_mixing.W1 f4 [5, 64]
000000 7c 20 87 3e c9 08 25 bf 9d 9b b7 3e 53 6b cb 3f
       0.2639197 -0.6446653 0.3586091 1.5892128
000010 4d 8f 12 c0 f8 a3 0e 3e 33 15 02 3e 4c 6b b8 bf
       -2.2899964 0.13929737 0.127034 -1.4407744
000020 ba 05 12 3f 06 a1 2c bf 97 82 88 3e 92 cb 1b 3f
       0.5703999 -0.674332 0.26662132 0.608575
000030 66 6e 89 3c b7 fd 33 3f 49 8e 59 bf 76 43 04 40
       0.016776275 0.70309013 -0.84982735 2.0666175
000040 70 1d 52 be c2 9a 4e be 95 a4 a7 bf 7d b6 09 bc
       -0.20519042 -0.20176223 -1.3097101 -0.008405325
000050 fa db ed be eb 3b 03 bd ed 74 ed 3c 0a a7 1f c0
       -0.4645689 -0.032039564 0.028986419 -2.4945703
000060 1b 95 91 bf ae e7 39 bf 79 3b 45 bf a5 39 29 c0
       -1.1373628 -0.7261914 -0.77043873 -2.6441433
000070 ce af 7b bf cd 0f 2b bf ee c1 06 be 4d 9c 8c bf
       -0.9831513 -0.66820985 -0.13159916 -1.0985199
000080 18 4b eb bf bf 57 0f bf bc b3 e4 be f5 d6 45 3f
       -1.8382292 -0.55993265 -0.44668376 0.77281123
000090 ba 77 c6 bd 76 dc 8f bf 3b 67 b0 bf bc b8 3f 3f
       -0.09690805 -1.1239154 -1.3781503 0.7489126
0000a0 c8 f4 d6 3f 5f 95 db bf 78 7e 85 bf dd d6 f3 bd
       1.6793451 -1.715496 -1.042922 -0.11906216
0000b0 ee ca a0 bf cf 8e df bf 38 9e 9e bf 69 ab 10 3e
       -1.2561929 -1.7465457 -1.2392035 0.14127888
0000c0 e1 90 7f 3e be ff b9 3e 11 f0 12 3f e2 30 11 be
       0.2495761 0.36327928 0.5739756 -0.14178804
0000d0 10 26 a2 be a5 a6 a9 3f b2 83 b5 be 78 b0 1a 3f
       -0.31669664 1.3253981 -0.35452038 0.6042552
0000e0 14 c9 57 bf 5a f0 a0 bf b7 14 2d be 36 20 ab 3e
       -0.84291196 -1.257335 -0.16902433 0.33423012
0000f0 45 01 f0 bf e4 28 5f 3f 8f 03 53 3e 61 b0 a7 3f
       -1.8750387 0.8717177 0.20606826 1.3100702
000100 52 f6 c7 3e b6 07 73 3f 07 c4 b4 3f 61 05 ac 3e
       0.39055115 0.9493364 1.4122323 0.33597854
000110 21 fc 2e 3f 27 6a 1e bf e9 68 12 bf ad 28 dd be
       0.6835347 -0.61880726 -0.5719133 -0.43195096
000120 4b 38 2b bf 75 21 ac bf 79 8e 43 bf b0 1a 6a 3f
       -0.6688277 -1.344771 -0.7638927 0.9144697
000130 82 86 29 bf 71 57 5b 3f eb 22 1c 3f 7f 55 cc 3e
       -0.6622087 0.856803 0.6099078 0.39908978
000140 d7 1e 2c 3f c8 db e4 3e 33 42 83 3f ed bf af 3c
       0.6723456 0.4469893 1.0254577 0.021453822
000150 04 75 b2 3f 3f ed 99 be 67 b0 86 3e 8b 49 e6 3e
       1.394196 -0.30063817 0.2630646 0.44977984
000160 c9 63 6f bf 9b 8c 38 bf e3 bb 56 3f d3 44 f7 3e
       -0.93511635 -0.72089547 0.8388044 0.48294696
000170 2d 40 16 bf 29 1e b9 be bb d1 31 bf 66 0f 16 3f
       -0.58691674 -0.36155823 -0.6946065 0.58617246
000180 b9 47 e1 be 09 3a 2f 3f 87 a4 74 3f c8 e6 8f bf
       -0.44000033 0.6844793 0.9556355 -1.1242304
000190 a2 e4 ee 3f 7d 16 97 3f 6e b1 b0 3d bd 9c aa bf
       1.8663523 1.1803738 0.08627592 -1.3329083
0001a0 c2 8e 06 40 0e 06 e2 3f d7 8e 37 3d 89 ce 93 3e
       2.1024632 1.7658098 0.044813957 0.2886851
0001b0 66 9a 45 bf 77 03 3f bf bf 36 b2 3f 1a 37 bb be
       -0.7718872 -0.7461466 1.3922957 -0.36565477
0001c0 6e a8 e2 3e 0a ca f2 3e 65 ae e9 bf 73 1c e5 bf
       0.44269127 0.4741977 -1.8256346 -1.7899307
0001d0 e7 a9 14 bf b4 9d 21 bf 9b c3 30 3e ed e0 5d be
       -0.5807175 -0.6313126 0.17262118 -0.21667834
0001e0 fd f8 60 bf 1b e0 7f 3f a9 de dc bd 27 ce f6 3b
       -0.87879926 0.9995133 -0.107846566 0.0075318995
0001f0 66 3d b4 be 5c 2f 52 3e 74 63 f2 be ad 2c a2 bd
       -0.35203093 0.20525879 -0.47341502 -0.079186775
000200 b3 54 f1 bf 3b f2 96 3f 5e 68 8f 3f 42 f2 9a bf
       -1.8853973 1.1792673 1.1203725 -1.2105181
000210 67 ee eb 3f 0e b0 8c bc e8 01 d6 bf 1f 9a 8c bf
       1.843213 -0.017173793 -1.6719332 -1.0984534
000220 a3 24 e7 bc 19 87 2c bf 94 7c 5b 3e 06 f3 c4 be
       -0.028215712 -0.6739364 0.21434242 -0.38466662
000230 af 70 fe be fe 48 a2 3f 5f 1e 8c 3f c4 36 9d 3e
       -0.49695346 1.2678525 1.0946769 0.30705845
000240 55 21 7a bf d7 90 ab 3f 24 29 b3 bf df 2e af 3d
       -0.9770711 1.3403577 -1.399693 0.08553862
000250 05 be 53 bf 9b 09 c8 bf eb 38 5d bf 3f 07 45 3e
       -0.8271182 -1.5627931 -0.86414975 0.19241045
000260 5b 9d 99 3f 79 88 2a 3f 2c c4 9c be 2f 5e c0 bf
       1.2001146 0.6661449 -0.30618417 -1.5028743
000270 0a f6 e6 3d e3 80 a1 bd dd b3 89 3b 08 f2 f9 bf
       0.11277397 -0.07885911 0.0042023496 -1.9526987
000280 23 06 89 3f 35 96 ab 3e 9f 45 0b bf b7 fb 0f 3f
       1.0704998 0.33513036 -0.5440311 0.5624346
000290 f8 e6 2a bf 8f 59 26 c0 b2 6f 5d 3f 70 41 90 3f
       -0.6675868 -2.5992162 0.8649856 1.126997
0002a0 13 63 91 3e ec 8b 7e 3d 05 a2 2a 3e 56 8c 93 3f
       0.283959 0.06214516 0.16663368 1.1527202
0002b0 0c 88 5d 3f 87 2d 78 bf bf 1d c3 3e ca bd e1 bf
       0.86535716 -0.9694447 0.38108632 -1.7636044
0002c0 3d 39 1a 3f 5f 46 bc bf 3f b3 8b 3e 27 3b e1 3e
       0.6024359 -1.4708976 0.2728519 0.43990442
0002d0 56 78 29 3d b5 6d ab bf 30 fa 35 bf 56 98 ff bf
       0.041374527 -1.3392855 -0.7108488 -1.9968364
0002e0 02 f7 97 3e fc 1c bf 3f dd ab b8 3f 6b b8 74 3f
       0.2968064 1.493072 1.4427449 0.955939
0002f0 7a 06 c6 3e ce de ad 3e 43 13 0a be 33 d0 b2 bf
       0.38676816 0.3395905 -0.1348391 -1.3969787
000300 61 bd b7 bf 58 2b 3b bf 1a 99 18 bf a8 0c 1e 3f
       -1.4354669 -0.7311301 -0.59608614 0.6173806
000310 79 28 ae be 0c ed 2c 3f 78 10 c0 3e 0c 7f bb bf
       -0.34015253 0.67549205 0.37512565 -1.4648147
000320 35 e9 8b bf ee 3a cf be b9 04 99 be 96 ff 3f bf
       -1.0930544 -0.40474647 -0.29886416 -0.7499937
000330 cc 79 29 40 e9 b0 49 bf 7c 29 63 bc d6 52 d4 3f
       2.648059 -0.7878557 -0.013864871 1.658778
000340 91 0b df 3f d9 6c d9 3f 90 c6 ea 3f 59 51 7a bf
       1.7425405 1.6986343 1.8341846 -0.97780377
000350 19 18 2f bf e0 79 31 3e 17 a8 4c 3e 9a db 90 bf
       -0.68396145 0.17331648 0.19985996 -1.1317017
000360 a6 b6 2d be e7 e6 49 be b3 1e e6 bf e4 3e 9e be
       -0.16964206 -0.19716989 -1.7978119 -0.30907357
000370 09 ad 91 bd 8f 5b 49 bf f2 c7 08 bf cf e0 bf 3e
       -0.07113082 -0.7865533 -0.5343009 0.37476203
000380 bb 34 4c bf a6 34 07 b9 fc 03 20 bf bd 73 17 3f
       -0.7976796 -0.00012894216 -0.6250608 0.5916098
000390 60 8d 3c 3f 1f e3 24 be b3 e1 04 40 f3 aa 21 be
       0.7365322 -0.16102265 2.0762756 -0.15787868
0003a0 2d 02 f9 3e 67 32 c8 3f a7 45 80 3f 86 d5 fd bd
       0.48634472 1.5640382 1.0021256 -0.12394242
0003b0 09 79 62 3e 01 10 09 c0 e0 1f 2c 3f d5 55 2e 3f
       0.22116484 -2.1416018 0.6723614 0.6809972
0003c0 85 d6 83 3f 73 9a e7 bd c0 3c 72 3f 06 da d6 3e
       1.0299841 -0.11308756 0.9462395 0.41963214
0003d0 7b 6a 81 be ca da a3 3e be e7 1a 3f 47 37 30 3f
       -0.2527655 0.3200286 0.6050986 0.68834347
0003e0 29 31 14 be 0b 12 92 3f 13 d0 00 3f b3 65 20 bf
       -0.14471878 1.1411756 0.50317496 -0.6265518
0003f0 6d e6 32 bf 1f 27 18 bf 37 63 6d 3d 2b ad e9 bd
       -0.6988285 -0.59434694 0.057955947 -0.11409982

indicator_time_mixing.1.indicator_mixing.W2 f4 [64, 5]
000000 b3 c7 d3 be 50 65 9e 3f 93 08 26 bf 62 77 7e bf
       -0.41363296 1.2374668 -0.64856833 -0.99400914
000010 66 85 65 bf 40 47 46 3c 54 29 8b bf 86 ba 4e 3d
       -0.89656675 0.012101948 -1.0871987 0.05047085
000020 3e 71 7c 3e 7b 54 84 3f 80 3f 3e 3f 92 26 f9 bf
       0.24652573 1.0338281 0.74315643 -1.9464896
000030 cc 9e bc bf 29 a4 bd bd 66 10 7d 3e 04 04 2f bf
       -1.4735961 -0.09259827 0.24713287 -0.683655
000040 37 9c b3 bf 52 79 81 3f c1 37 30 bf 51 d5 3f bf
       -1.4032048 1.0115149 -0.68835074 -0.7493487
000050 86 84 48 bf 44 41 54 3f 9f ec e9 3e bd 0d 03 bf
       -0.78327215 0.8291209 0.4568834 -0.5119284
000060 c4 e1 57 3f f0 ae 32 3f 07 66 30 be fc 48 1c 3c
       0.84328866 0.69798183 -0.1722642 0.009538885
000070 f2 fa 47 3f 0e 87 91 be e0 6c 50 bf 6d 56 1c bf
       0.7811729 -0.2842335 -0.8141613 -0.61069375
000080 0d 8b 63 bf 64 19 16 bf 74 0f 01 bf e1 6f d0 bf
       -0.8888405 -0.58632493 -0.50414205 -1.6284143
000090 21 85 1e 40 68 4c 79 bf 13 a7 48 bf 0e ee 9b 3f
       2.4768755 -0.9738221 -0.78379935 1.2182024
0000a0 ff 2a 33 3e 27 c1 95 3f 8a e8 9f bd 2c 22 75 bf
       0.1749687 1.169957 -0.07808025 -0.9575527
0000b0 d6 fd 16 3f cb f2 16 3f 54 12 be 3f aa 1b f6 bf
       0.5898107 0.5896422 1.4849343 -1.9227192
0000c0 49 50 1f bf d0 c2 d1 bf fc 00 03 c0 5d 5f 4a bf
       -0.6223188 -1.6387577 -2.046935 -0.7905176
0000d0 a2 d9 04 3f ae 16 83 be 6d 65 75 be 93 1c e4 be
       0.5189458 -0.2560324 -0.23964472 -0.4455305
0000e0 af 1e bc bd c1 0f c3 bf 7e 33 a1 3f 90 06 f2 be
       -0.0918554 -1.5239183 1.2593839 -0.47270632
0000f0 0f e7 9e bf ce f5 8b bf 28 b4 42 bf f2 12 09 bf
       -1.2414263 -1.0934389 -0.76056147 -0.53544533
000100 0d 40 ee 3e bb fc e3 3d 6e ec ae be 55 f2 c1 bf
       0.46533242 0.11132189 -0.34164757 -1.5152079
000110 10 76 93 3d f2 72 c5 be 4b b1 b8 bf 14 0f a8 3f
       0.07200253 -0.3856426 -1.4429106 1.3129601
000120 4b e3 9f 3d 38 0c 21 bf 8b 7f ae 3e 3a 64 91 bf
       0.078070246 -0.6290927 0.34081683 -1.1358712
000130 54 28 8f 3e dc 3b 91 3e a5 5d 96 bf 09 4a a0 bf
       0.27960455 0.28365982 -1.1747328 -1.2522594
000140 e0 47 e4 bf 3f 55 ad bd da 11 fe 3e ec cc 44 bf
       -1.7834435 -0.08463525 0.49622995 -0.76875186
000150 2f b2 b9 3f 97 59 fb 3e 0d d1 e0 bc 89 56 3d 3f
       1.4507502 0.4909179 -0.027443433 0.7396017
000160 84 5c 6c be da 25 42 3f 76 77 b1 be 91 ed 4c 3f
       -0.23082167 0.75839007 -0.34661454 0.8005
000170 68 79 7f 3e ed 64 d4 3f 0c c5 db bc 9a 05 56 3f
       0.24948657 1.65933 -0.026827358 0.836023
000180 8c f6 b3 bf d2 f9 10 40 38 ba 88 bf cf 09 65 3f
       -1.4059615 2.2652478 -1.068183 0.8946809
000190 d7 9f 26 c0 0b 80 f0 3f 1f 28 a1 3e f9 a8 97 3f
       -2.6035058 1.8789076 0.31475922 1.1848441
0001a0 8f 03 59 be 90 d6 f6 3f dc 7a d1 be 6e d2 8a bd
       -0.21192764 1.9284229 -0.40914047 -0.067784175
0001b0 d7 6a cb be 8c fa 21 3f a4 d6 de bf 91 80 07 bf
       -0.3972995 0.6327293 -1.7409253 -0.5293055
0001c0 cc ba 13 40 71 c8 59 3f 55 cb bc bf fd 10 a7 bf
       2.3082762 0.85071474 -1.4749552 -1.305206
0001d0 2b a8 6f 3e c6 24 4e 3f b9 d4 a8 3f 6a 56 f4 3d
       0.23403995 0.8052486 1.3189918 0.11930545
0001e0 b1 ee cc be f9 6f 87 3f fb e3 17 3f 2e ff be bc
       -0.40025857 1.0581046 0.59332246 -0.023315039
0001f0 de 8d 48 3f df 1c 33 bf e4 c1 e1 bf 00 74 9f 3f
       0.7834147 -0.6996593 -1.7637296 1.2457275
000200 80 b9 c3 3f 3b 27 11 c0 92 d4 db bd 54 5c 26 3f
       1.5290985 -2.2680194 -0.10733904 0.6498463
000210 eb a8 44 c0 03 f2 46 3f 9d d0 97 bf ac 82 e5 be
       -3.07281 0.7771303 -1.1860539 -0.44826257
000220 14 ff f9 bf a1 0b 96 bf 85 8a be be 80 0f 99 bf
       -1.9530969 -1.1722299 -0.37215057 -1.1957855
000230 34 52 de 3f 1b 28 f9 bc be dd 0a be ab be 53 3e
       1.7368836 -0.030414632 -0.1356115 0.20678203
000240 e1 0b 64 be 02 b0 86 3f 17 de 3d bf aa ac 4e bf
       -0.22270156 1.0522463 -0.7416701 -0.80732214
000250 93 66 ed 3f b7 bd 92 bf 40 2e aa bf f1 69 95 3f
       1.8546928 -1.1464146 -1.3295364 1.1672956
000260 09 da ba bf 40 b7 ad 3f 04 f6 96 be 5f a1 86 be
       -1.4597789 1.3571548 -0.2948457 -0.2629499
000270 90 10 53 3e 73 91 64 bf b1 49 d7 3c ea e1 81 bf
       0.20611787 -0.8928444 0.026280256 -1.0147069
000280 9b b6 a9 3d 9c 1f 1d c0 6a 28 45 be 7f 69 b2 bf
       0.08286782 -2.4550543 -0.19253698 -1.3938445
000290 66 c2 ec 3e 33 4b 33 3e 1f 33 34 3f a8 b1 15 bf
       0.46242064 0.17509155 0.70390505 -0.58474207
0002a0 b0 80 7f 3e 9a f4 85 bf 97 c3 32 bf 30 ff 8f bf
       0.24951434 -1.0465271 -0.69829696 -1.1249752
0002b0 c6 aa 00 40 3b ac 82 bf 1b 07 7a be 7a 81 40 3f
       2.0104232 -1.020881 -0.24416773 0.75197566
0002c0 83 90 e1 3f cb 3f 81 bf a4 43 df bf 99 f1 91 be
       1.7622226 -1.0097593 -1.7442517 -0.28504637
0002d0 9b 61 cf bc bb 32 91 bf 43 e4 8e be ef 09 9b 3f
       -0.025315097 -1.1343607 -0.27908525 1.2112406
0002e0 95 c7 9e be 24 e4 22 3f e4 88 0f bd 1e 0b 89 be
       -0.31011644 0.63629365 -0.03504266 -0.26766294
0002f0 a2 22 c0 3e 75 7e 4a 3e c1 5d 94 be 1b 12 5b bf
       0.37526423 0.19774802 -0.2897778 -0.855745
000300 2b 2a 16 be e7 64 83 bf aa 5a 88 be 5d 1e 90 bf
       -0.14664523 -1.0265168 -0.2663167 -1.1259266
000310 e7 59 0f bf 1d ab 46 3f a4 90 de 3f 3c df 08 bf
       -0.55996555 0.7760485 1.7387891 -0.5346563
000320 22 58 d8 3e 6b c3 ec 3e 1b a2 c7 3e 7a e1 95 bd
       0.4225474 0.46242842 0.38990864 -0.07318397
000330 b2 03 83 bf 13 43 3d be 9b 1c ea 3e 6e d6 ea bf
       -1.0235503 -0.18482618 0.4572495 -1.8346689
000340 c5 b0 96 3d 4d 32 01 be 4d 7e ff bf 88 5e da 3e
       0.07357935 -0.12616844 -1.9960419 0.42650247
000350 ac 57 37 3f 1a d8 9b 3e 23 6a 5c 3f b2 ea 98 be
       0.7161815 0.3043831 0.8609945 -0.29866558
000360 7e cd 31 3f 44 81 cb 3e d2 15 f2 3e 5a e8 5b 3f
       0.6945418 0.3974706 0.47282273 0.85901415
000370 29 ff 9f 3d cf b5 b2 bf 6c 53 d9 3e 39 a2 f7 3d
       0.0781234 -1.3961734 0.42446458 0.120914884
000380 43 22 08 c0 77 b7 24 bf 20 b2 d2 bc 2c 9b 0c be
       -2.1270912 -0.64342445 -0.025719702 -0.13731068
000390 71 4d d0 3f ba 8e 04 bf fa f8 1e 3f 6e 09 b9 bf
       1.6273633 -0.51780283 0.6209866 -1.4456003
0003a0 1c e6 60 bf dd fe ec be fc e4 20 bf 6c a8 a8 bf
       -0.8785112 -0.46288195 -0.628494 -1.3176398
0003b0 e0 35 e0 3f 86 f2 89 3f ab 08 59 bf 97 40 58 bf
       1.7516441 1.0777137 -0.8477885 -0.84473556
0003c0 fe 39 9b bf d1 cc 6f be 74 3e c7 bf e4 39 a6 3f
       -1.2127073 -0.23417975 -1.5565934 1.2986417
0003d0 2c 4b 19 bf 89 78 68 3e ce 13 00 bf 4c db 64 bf
       -0.5988033 0.2270223 -0.5003022 -0.8939712
0003e0 d2 8f 26 3f 88 6d 36 40 04 57 86 bf 3e b7 5c 3f
       0.650632 2.8504353 -1.0495305 0.86217105
0003f0 57 1e 29 40 b8 8d ae be ba 7d a8 3f 2f a9 90 3f
       2.6424768 -0.34092498 1.3163369 1.1301631

indicator_time_mixing.1.indicator_mixing.ln.weight f4 [8, 5]
000000 72 34 82 3f b5 ec 90 3f 66 d4 84 3f c1 00 72 3f
       1.0172255 1.1322237 1.0377319 0.945324
000010 d4 83 81 3f 7a af 7e 3f 59 d5 5b 3f 7e a1 83 3f
       1.0118356 0.99486506 0.8587242 1.0283659
000020 4b b4 75 3f 21 ec 71 3f b9 bf 72 3f 24 87 66 3f
       0.9597823 0.9450093 0.94823796 0.9004996
000030 2d ec 7d 3f 58 5d 73 3f 97 46 81 3f 22 63 84 3f
       0.991885 0.95064306 1.0099667 1.0342753
000040 e9 c0 96 3f 09 b4 84 3f 22 ac 83 3f 4c 59 8b 3f
       1.1777622 1.0367442 1.0286906 1.0886626
000050 ba 27 83 3f 53 d0 87 3f c1 2f 88 3f 23 c1 7f 3f
       1.0246499 1.061045 1.0639573 0.9990408
000060 cf 5a 86 3f a1 a2 79 3f 5d ef 5f 3f 9c 06 7c 3f
       1.0496463 0.97513777 0.87474614 0.98447585
000070 15 53 81 3f 81 84 83 3f 0f 35 7f 3f e6 89 91 3f
       1.010348 1.0274812 0.99690336 1.1370208
000080 5c 2f 87 3f b4 73 80 3f b5 f7 79 3f ee 90 73 3f
       1.0561328 1.003531 0.97643596 0.9514302
000090 0e 45 78 3f 5b 3a 73 3f 43 52 7f 3f ba 15 79 3f
       0.9698037 0.9501092 0.99734896 0.9729878

indicator_time_mixing.1.indicator_mixing.ln.bias f4 [8, 5]
000000 d4 7a b8 bc 61 a4 03 be 8c 14 15 3d 9e 1f 0d bd
       -0.022519507 -0.12855674 0.03639655 -0.03445398
000010 1c d5 00 3e ef fb a3 bb 74 28 1e 3c 1d 29 f7 3c
       0.12581295 -0.005004398 0.009653199 0.030170972
000020 5a 18 52 3c 2b 34 01 bc ff 7e 78 3d f8 e3 9f 3d
       0.012823189 -0.007885973 0.060667988 0.078071535
000030 80 2c 0a bc 79 d5 f8 3c 49 12 11 3c e7 fb 4b bd
       -0.008433461 0.03037523 0.008854457 -0.04980078
000040 ec cf a3 bd 9b a9 4a 3d 61 f0 a5 3c fc f3 dc bd
       -0.07998642 0.049478155 0.020256223 -0.10788724
000050 b9 47 5d bd ec 7b 4f bd 26 28 7c 3d f7 16 a4 3c
       -0.05402348 -0.05065529 0.061561726 0.020030482
000060 94 e6 d1 bd cf 81 ed 3c 1e 4a 26 3d b7 cb 5e bc
       -0.102490574 0.028992562 0.040598027 -0.013598374
000070 06 8f 19 3d 32 12 37 bd c9 67 4c 3c 0b 49 f9 bd
       0.037489913 -0.044695087 0.012475916 -0.12172135
000080 33 62 44 3d ce 6e 63 bd 9d 6d 48 3e 8a a9 8e 3d
       0.047945213 -0.055525593 0.19573064 0.06965931
000090 22 1c 80 3b 2e 68 3e bd 30 80 43 bd c9 1e ce 3d
       0.0039096037 -0.046486072 -0.04772967 0.100644656

indicator_time_mixing.1.time_mixing.ln.weight f4 [8, 5]
000000 b1 48 99 3f 6c 60 66 3f 85 c4 87 3f b6 8f 5a 3f
       1.1975309 0.8999088 1.0606848 0.85375535
000010 72 23 4f 3f 23 28 95 3f 7c 2a 77 3f b1 5b 8c 3f
       0.8091346 1.1652874 0.965492 1.0965482
000020 2b 2d 63 3f 42 27 13 3f b4 c4 a9 3f 9e f3 5f 3f
       0.88740796 0.5748178 1.3263154 0.87481105
000030 b5 b5 85 3f 36 7e 1e 3f e3 42 39 3f 2c b0 4d 3f
       1.0446078 0.6191133 0.72367686 0.8034694
000040 60 89 93 3f 86 d9 8b 3f 2c 69 84 3f db 52 e0 3f
       1.1526299 1.0925758 1.0344596 1.7525285
000050 da 4b 6c 3f 8c 60 84 3f 4e dc 97 3f e6 43 85 3f
       0.9230324 1.0341964 1.1864107 1.0411346
000060 57 49 72 3f a7 6f 81 3f 54 8a 85 3f 58 e5 90 3f
       0.9464316 1.0112199 1.0432839 1.131999
000070 46 41 85 3f d1 44 6b 3f d1 5f 7a 3f 3e 8b 80 3f
       1.0410545 0.9190188 0.97802454 1.0042493
000080 ab 2f ab 3f a1 6f 83 3f c2 42 50 3f 64 07 85 3f
       1.3373922 1.0268441 0.81351864 1.039288
000090 03 1c 80 3f c3 4e 81 3f b9 20 78 3f c2 ba 8c 3f
       1.0008548 1.0102161 0.9692493 1.0994494

indicator_time_mixing.1.time_mixing.ln.bias f4 [8, 5]
000000 c5 fb e7 3c 0c 0c 80 bc f4 3a 12 3d 96 29 fc 3c
       0.028318295 -0.015630744 0.035700753 0.030781548
000010 02 f1 f2 bc 4f a3 28 bc 49 e8 02 3d d3 37 de 3c
       -0.029655937 -0.010292842 0.031959806 0.027126228
000020 bf 44 00 3d 03 12 ef bb c7 ea 1a 3d df 53 19 bd
       0.03131556 -0.0072958483 0.037821557 -0.0374335
000030 a2 55 d8 3c 5e 53 19 3c 09 82 c5 bc 5c 83 49 3d
       0.02640802 0.009358255 -0.024109857 0.04919754
000040 fc 09 2e bd 0d bd 85 3d d1 9d 53 3d 2f f5 5c bd
       -0.04248999 0.06530199 0.051664177 -0.053944763
000050 2b fd ce 3d b2 a3 e8 ba 65 c8 09 3e 93 aa f4 3d
       0.10106882 -0.001774898 0.1345535 0.11946597
000060 b5 e5 f5 bd c9 de 77 3d 12 c6 7a bd 35 be e2 3d
       -0.12006704 0.0605152 -0.06122405 0.11071435
000070 16 ea e2 3d c2 4d e3 bd ab a9 27 3e 58 46 16 bc
       0.110798046 -0.110988155 0.16373317 -0.009172045
000080 47 40 48 3e 16 42 3c 3e dd 56 3e be 4c 57 95 3c
       0.1955577 0.18384585 -0.18587823 0.018230103
000090 43 c6 11 bc ea 04 07 3a cb 82 20 bd 55 3d 4f 3c
       -0.008897367 0.00051505736 -0.039187234 0.0126489

indicator_time_mixing.1.time_mixing.U1.1 f4 [1, 2]
000000 07 25 e0 bc f1 24 33 3d
       -0.027361406 0.043736402

indicator_time_mixing.1.time_mixing.U1.2 f4 [1, 3]
000000 5b 79 31 3b c0 0b 10 be 91 90 90 3d
       0.002708039 -0.14066982 0.07058824

indicator_time_mixing.1.time_mixing.U1.3 f4 [1, 4]
000000 d5 cc a5 3d fe 9c bd bd 38 23 12 3e 3d cc 17 3e
       0.08095709 -0.092584595 0.14271247 0.14824004

indicator_time_mixing.1.time_mixing.U1.4 f4 [1, 5]
000000 a7 7d b0 bd 40 d4 96 bc 30 7e 0d be 28 24 20 be
       -0.08617716 -0.018411756 -0.13817668 -0.15638793
000010 13 4e 63 bd
       -0.05549438

indicator_time_mixing.1.time_mixing.U1.5 f4 [1, 6]
000000 b2 12 d4 bc 06 ff eb 3c d5 73 58 bd 27 63 ce bd
       -0.02588782 0.028808128 -0.05284484 -0.100775056
000010 99 d3 a2 bc 3c 52 a5 bd
       -0.019876288 -0.080723256

indicator_time_mixing.1.time_mixing.U1.6 f4 [1, 7]
000000 d3 6a 1f 3e 24 b9 7c 3e bc 2d c2 3d 3b 9c e6 3d
       0.15568094 0.2468 0.094813794 0.11260267
000010 be 67 52 3e f1 1d 25 3e d9 41 96 3e
       0.20547387 0.16124703 0.29347113

indicator_time_mixing.1.time_mixing.U1.7 f4 [1, 8]
000000 f8 35 29 3d df 9d a6 bd 5c eb 1c 3e f5 03 18 3e
       0.041311234 -0.0813558 0.15324157 0.1484526
000010 a1 e6 03 3d ec c4 ec 3d ca de 85 3c c9 ae ce 3d
       0.032202367 0.11560997 0.016341586 0.100919314

indicator_time_mixing.1.time_mixing.U2.1 f4 [1, 2]
000000 30 05 6c 3b 74 32 c0 bd
       0.0036013834 -0.09384623

indicator_time_mixing.1.time_mixing.U2.2 f4 [1, 3]
000000 20 8a 1c 3c 2b 51 d5 39 55 ab dd bd
       0.009554416 0.00040687 -0.108236946

indicator_time_mixing.1.time_mixing.U2.3 f4 [1, 4]
000000 84 2d f4 3c 91 d7 94 3d f0 bc 07 be 97 94 fd bd
       0.02980686 0.072676785 -0.13255668 -0.12381857

indicator_time_mixing.1.time_mixing.U2.4 f4 [1, 5]
000000 b3 13 10 3e 1e c0 b4 3b ac 2e bf bd 22 6a 32 3e
       0.14070015 0.005516066 -0.09335074 0.17423299
000010 5f c6 3b be
       -0.18337391

indicator_time_mixing.1.time_mixing.U2.5 f4 [1, 6]
000000 79 01 4a bd 81 d4 1b 3c 3d ee 5b bd 31 33 88 be
       -0.04931781 0.009511114 -0.053694 -0.26601556
000010 2a b5 e7 3d 47 26 07 3e
       0.11313851 0.13198195

indicator_time_mixing.1.time_mixing.U2.6 f4 [1, 7]
000000 4c 4e 58 3e af 7c 86 3b eb 34 d5 be e3 ed 86 3c
       0.21123618 0.004104219 -0.41641936 0.016470855
000010 79 08 87 be 67 8f 3d be dc fa e0 3e
       -0.26373652 -0.18511735 0.4394139

indicator_time_mixing.1.time_mixing.U2.7 f4 [1, 8]
000000 bc f8 7c bd 68 c7 04 3b 71 30 17 bd cb a0 66 be
       -0.06176065 0.0020260457 -0.03691143 -0.22522275
000010 7a ca f1 3d 75 aa e6 3d cc 4d 28 bd 97 cf 3e be
       0.118061975 0.11262981 -0.041089818 -0.18633877

indicator_time_mixing.1.fc.weight f4 [1, 5]
000000 d7 e4 88 be 17 56 6b 3e 56 42 7a bd e2 e6 bf bd
       -0.2673709 0.2298206 -0.06109842 -0.09370209
000010 70 46 b4 3d
       0.088024974
