weights/stockmixer_L16_H64_M40_K4_E50_s1_ReLU.pt (torch, 630786 bytes, 93 tensors)

indicator_time_mixing.0.indicator_mixing.W1 f4 [5, 64]
0	0xbfc89ae2	-1.5672266
1	0xbf4a8839	-0.7911411
2	0xbf339e9c	-0.70163894
3	0xbfebde86	-1.8427284
4	0xbde1faaa	-0.110341385
5	0xbf0a2785	-0.5396655
6	0xbf7ad25b	-0.97977227
7	0xbfd0db42	-1.6316912
8	0xbf24f550	-0.6443682
9	0x3e8547aa	0.26031238
10	0xbf44f313	-0.769334
11	0xbe48960d	-0.1958849
12	0xbe78e98d	-0.24307843
13	0x3fdbee89	1.718217
14	0x3ebedbe3	0.37277135
15	0x3f0382bd	0.51371366
16	0xbf3e1305	-0.7424777
17	0xbf8f3d6d	-1.1190621
18	0x3f36419e	0.71193874
19	0x3e130d96	0.14360651
20	0x3f515e52	0.81784546
21	0x3e4a84a4	0.19777161
22	0xbf1cc7b6	-0.61242235
23	0x3f42be9b	0.7607209
24	0x3f883db7	1.0643834
25	0xbe04a5b8	-0.12953842
26	0xc010d482	-2.2629704
27	0xbfb92589	-1.446458
28	0x3c4f6f0a	0.012660751
29	0xbf22c8ef	-0.6358785
30	0xbf3a49d1	-0.72768885
31	0xbe82a294	-0.25514662
32	0x3feab72b	1.8337148
33	0xbde68137	-0.112551145
34	0x3e218e9e	0.1577706
35	0xbf3f3cf8	-0.74702406
36	0x3e550c43	0.20805459
37	0x3dc4273e	0.09577797
38	0x3e4bef60	0.19915533
39	0xbe9318eb	-0.28729948
40	0x3d97692e	0.07393108
41	0x3e8e2c0f	0.2776799
42	0xbdae7fc4	-0.08520463
43	0x3cd521e4	0.026017137
44	0x4013f62b	2.3119
45	0xbf81be06	-1.0136116
46	0x3fcf7ebc	1.6210551
47	0xbf2ec777	-0.6827311
48	0xbf6d698b	-0.9273917
49	0x3f170234	0.58987737
50	0x3ea5fd68	0.32419896
51	0xbf00920e	-0.5022286
52	0x3f446c9b	0.7672822
53	0x3edc355d	0.43009463
54	0x3f866a23	1.050114
55	0x3ffc2cd9	1.9701186
56	0x3d295b68	0.041346937
57	0x3f6801f2	0.9062797
58	0xbe649613	-0.22322874
59	0xbf481550	-0.7815752
60	0x3fcb0c5b	1.5863146
61	0xbf628e95	-0.8849881
62	0xc051fa2b	-3.280894
63	0xbf0d3841	-0.5516396
64	0xbd7357ea	-0.059410013
65	0xbf7c8078	-0.9863353
66	0xbf0f49d4	-0.5597203
67	0xbf6a67ba	-0.91564524
68	0xbe61e1df	-0.22058819
69	0x3d3b34de	0.045704715
70	0x3fd632dd	1.6734272
71	0x3d1d49bd	0.0384004
72	0xbf438d56	-0.76387537
73	0xbe1f23a1	-0.15540935
74	0xbf7fa6aa	-0.99863684
75	0xbf5d6d98	-0.8649535
76	0xbed1ff53	-0.4101511
77	0xbf1477bc	-0.579952
78	0x3e750898	0.2392906
79	0xbf81f6cf	-1.0153445
80	0xbef1a563	-0.47196493
81	0x3dbfa457	0.09357517
82	0xbf22159d	-0.6331423
83	0x3f483964	0.7821257
84	0xbfb33a8c	-1.4002242
85	0xbeeed98f	-0.4665036
86	0x3e0d816e	0.13818905
87	0xbe01aa7d	-0.12662692
88	0x3e9993c2	0.29995543
89	0xbf004ca6	-0.50116956
90	0xbf826492	-1.0186942
91	0x3f3b75dd	0.7322672
92	0xbf81a575	-1.0128618
93	0xbef3235b	-0.47487912
94	0x3e820bae	0.25399536
95	0x3fe93a1d	1.822086
96	0x3f3292bb	0.6975514
97	0x3fbaa678	1.4582052
98	0x3f51085e	0.8165339
99	0xbf610c71	-0.8790961
100	0x3f9e6c1a	1.237674
101	0xbf5949d2	-0.84878266
102	0xbf759ace	-0.9593934
103	0x3f95bfce	1.1699159
104	0x3f995d37	1.1981572
105	0x3f4f5c5a	0.8100029
106	0xbe17b578	-0.14815319
107	0xbdd7e20a	-0.105411604
108	0xc00439e1	-2.0660326
109	0xbf1aa8d5	-0.6041387
110	0xbfc0e7aa	-1.5070698
111	0xbf8c5e08	-1.0966196
112	0x3f5fb11d	0.8737963
113	0xbf1815d4	-0.5940831
114	0x3fa79885	1.309342
115	0x3f5c8415	0.8613904
116	0x3e668385	0.22511108
117	0x3ea3d1e6	0.31996077
118	0x3f21940c	0.63116527
119	0xbeca3803	-0.3949586
120	0x40291c4a	2.6423516
121	0xbe52412a	-0.2053267
122	0xbcdbe827	-0.026844097
123	0x3ff819f4	1.938292
124	0xc000d9fb	-2.0133045
125	0x3fe8a9d9	1.8176833
126	0x3e04f5c1	0.12984373
127	0x3da93df4	0.0826377
128	0x3f375e8d	0.7162865
129	0xbfdd7ae0	-1.7303123
130	0x3ed7dde1	0.42161468
131	0x3fbf33e1	1.4937707
132	0xbe894665	-0.2681152
133	0xbfd9bac4	-1.7010121
134	0x3f22852d	0.6348446
135	0xbf61bac2	-0.88175595
136	0xbfd55ffd	-1.6669918
137	0xbfe5ef6b	-1.796369
138	0x3eee287a	0.46515256
139	0x3f0bc5fe	0.5459899
140	0x401104f1	2.2659266
141	0x3f19ec08	0.6012578
142	0x3fd6bfd9	1.6777297
143	0xbfef0c3a	-1.8675606
144	0xbfa393ba	-1.2779458
145	0xbf893944	-1.0720601
146	0x3fc0055d	1.5001637
147	0x3f40ae2d	0.7526577
148	0x3f0e4e67	0.5558838
149	0xbeb68e47	-0.35655424
150	0x3ee28fbf	0.44250295
151	0xbfbbf22c	-1.468328
152	0x3f128519	0.5723434
153	0xbdd4741b	-0.10373708
154	0x3e9005db	0.28129467
155	0x3fa991ff	1.324768
156	0x3fe9d9a3	1.8269542
157	0x3ffaa8df	1.9582785
158	0xbf5dcf97	-0.8664488
159	0x4027ecea	2.623835
160	0x3efd8783	0.4951745
161	0xbd8aad57	-0.06771343
162	0xbf57077d	-0.839958
163	0xbeb0c865	-0.3452789
164	0xbf2c6f6a	-0.67357504
165	0xbf88e6b6	-1.0695407
166	0x3f4aa34a	0.7915541
167	0x3f7c4ee8	0.985579
168	0x3ee635c1	0.44962886
169	0x3fbc9fe1	1.4736291
170	0x3f88047f	1.0626372
171	0xbfe1bbcf	-1.763544
172	0xbeb2e72c	-0.34941995
173	0xbf6ebf7a	-0.9326092
174	0xbdd773a2	-0.10520102
175	0x3c0debee	0.008662207
176	0x3f57f9ba	0.8436543
177	0x3f8b4db1	1.0883085
178	0xbcc1bf72	-0.023650859
179	0x3fc6f48d	1.5543381
180	0xbf631b5c	-0.8871362
181	0x3dbb5e36	0.09148829
182	0xbd9eec70	-0.077599406
183	0xbe90e5a4	-0.28300202
184	0x3fcd3bc2	1.6033862
185	0xbeb3f858	-0.3515041
186	0x3e56e4cf	0.20985721
187	0x3fa055f7	1.2526234
188	0x3cb208f5	0.021732787
189	0x3f8f0aad	1.1175133
190	0xbeb97abf	-0.3622646
191	0x3f9cdee0	1.2255516
192	0xbe9c8a1d	-0.30574122
193	0x3f482c8f	0.7819299
194	0x3fdcee67	1.7260255
195	0xbe36b0d3	-0.1784089
196	0x3f09b518	0.5379195
197	0xbff5efaf	-1.9213771
198	0xc03aabe9	-2.9167426
199	0xbecc1eb7	-0.39867184
200	0xbee1a32f	-0.44069812
201	0x3f583cea	0.8446795
202	0xbf5e2893	-0.8678066
203	0x3f17cd07	0.5929722
204	0xbfd30aa9	-1.6487628
205	0xbe16e87c	-0.14737123
206	0x3f6ad6ba	0.91733897
207	0x3de2019c	0.11035463
208	0x3f59da34	0.85098577
209	0x3f81c905	1.0139471
210	0xbf105f88	-0.5639577
211	0x3fa35e6a	1.2763188
212	0x3e38d0b0	0.18048358
213	0x3fedfacb	1.8592161
214	0x3ff1e6c6	1.8898551
215	0x3fa2a54b	1.2706693
216	0xbf81301b	-1.0092806
217	0x3f9e7843	1.2380451
218	0x3f95aa9a	1.1692688
219	0xbf0725ce	-0.5279206
220	0x3e24fc28	0.16111815
221	0xbf0aadb4	-0.541713
222	0x3fbe32c4	1.4859242
223	0x3fe5cc03	1.7952884
224	0x3fcbc1e4	1.5918546
225	0xbf054e66	-0.5207275
226	0xbe8ac40a	-0.2710269
227	0xbfbc4a9a	-1.4710267
228	0x3fa1d1e3	1.2642177
229	0x3faa2399	1.3292114
230	0x3ee2b6d2	0.44280106
231	0x3f0c86af	0.5489301
232	0x3d85370d	0.06504641
233	0x3eaf2790	0.3420987
234	0x3f82be47	1.0214318
235	0xbfb6636e	-1.4249094
236	0x3fd559e5	1.6668059
237	0xc016035c	-2.343955
238	0xbf61b09b	-0.88160104
239	0x3e6c1585	0.23055084
240	0x3e5c4b92	0.21513203
241	0x3f7e0ff8	0.99243116
242	0x3fbef747	1.4919213
243	0xbf1dfff5	-0.61718684
244	0xbf4bcaa8	-0.79606104
245	0xbe7bbddc	-0.24584144
246	0xbea510d4	-0.322394
247	0xbd69a13c	-0.05703853
248	0x3e891a4d	0.26777878
249	0xbf224328	-0.6338372
250	0xbf05df86	-0.52294195
251	0x3f5fff29	0.8749872
252	0xbd56c164	-0.052430525
253	0xbf992bb9	-1.1966468
254	0xbe6e19d3	-0.23252039
255	0x3f553413	0.83282584

indicator_time_mixing.0.indicator_mixing.W2 f4 [64, 5]
0	0x3f33ccdd	0.7023447
1	0xbf4d80d7	-0.8027472
2	0xbd0866c6	-0.033301137
3	0xbe8bc920	-0.27301884
4	0x3fad034c	1.3516631
5	0x3f0c130c	0.54716563
6	0xbf23c7a0	-0.6397648
7	0xbf488ff9	-0.78344685
8	0x3f55d9e0	0.83535576
9	0x3f21562c	0.6302211
10	0xbf7882a6	-0.97074354
11	0xbf420c30	-0.75799847
12	0xbf24efb8	-0.6442828
13	0x3f4bc0e7	0.7959122
14	0xbd873737	-0.06602328
15	0x3f82a14d	1.0205475
16	0xbf31d72c	-0.6946895
17	0xbf260d1c	-0.64863753
18	0xbf2634ca	-0.649243
19	0x3da48836	0.08033793
20	0x3f616173	0.8803932
21	0x3ea9d0fc	0.33167255
22	0x3d742b24	0.059611455
23	0xc00b2a42	-2.1744542
24	0x3e512264	0.20423275
25	0x3edf9bd2	0.4367357
26	0x3fa086ce	1.2541139
27	0x3f9c0d1f	1.2191504
28	0x3e2e5639	0.17025079
29	0x3f12eb8c	0.57390666
30	0xbecbaea9	-0.39781693
31	0xbff6ecee	-1.9291055
32	0x3e6df20f	0.2323687
33	0x3f5c8903	0.86146563
34	0x3f1f2b7d	0.6217573
35	0xbfe7b43d	-1.8101879
36	0xbf4bd1a4	-0.7961676
37	0xbfc53be3	-1.5408901
38	0x3fcb8c14	1.5902123
39	0xbb9a35a9	-0.004706104
40	0x3f412c91	0.7545863
41	0xbd29b8b0	-0.041435897
42	0xbff029d1	-1.8762761
43	0x3f477b3d	0.7792242
44	0xc027b911	-2.6206706
45	0xbdce86ef	-0.1008433
46	0x3ef08a9e	0.46980757
47	0x3f8df8a4	1.1091504
48	0xbee67d14	-0.45017302
49	0x3f56b2bf	0.83866495
50	0xbce81e21	-0.02833468
51	0xbfb66d53	-1.4252113
52	0xbf519676	-0.8187021
53	0x3f43ad9f	0.764368
54	0x3f9a2740	1.2043228
55	0xbf661f0c	-0.89891124
56	0x3facc741	1.3498307
57	0xbe84c11b	-0.25928578
58	0xbe183d39	-0.14867105
59	0xbf1dd522	-0.6165334
60	0x3f28e125	0.65968543
61	0x3ec64f07	0.38732168
62	0xbf82baab	-1.0213217
63	0x3f755eca	0.9584776
64	0xbf08bcbb	-0.5341298
65	0xbdbbfc83	-0.09179022
66	0x3fc94a42	1.5725787
67	0xbfb1a05e	-1.3877065
68	0x3f5df0bd	0.8669546
69	0xbf3a1ff4	-0.72705007
70	0x3fd41135	1.6567751
71	0x3f64838b	0.8926322
72	0x3e561bdd	0.20909066
73	0x400f26cb	2.2367427
74	0xbedc7363	-0.43056783
75	0xbd87ca16	-0.06630342
76	0xbf17b1fe	-0.5925597
77	0xbf1eb3eb	-0.61993283
78	0xbecc202a	-0.3986829
79	0xc00377c8	-2.0541859
80	0x3ee6fc72	0.45114475
81	0xbfc04635	-1.5021425
82	0xbf78ba0e	-0.97158897
83	0x3c100749	0.008790799
84	0xbea8c4ba	-0.3296259
85	0x3e199ed5	0.15001996
86	0xbe9a3a8c	-0.30122793
87	0xbe042d06	-0.129078
88	0xbf21d01d	-0.6320818
89	0x3f998e48	1.1996546
90	0x3f2489c8	0.6427274
91	0xbed926e8	-0.42412496
92	0xbf6b0a84	-0.9181292
93	0x3e9cdc39	0.30636767
94	0xbf3605bc	-0.711025
95	0xbeb8963b	-0.36052117
96	0xbe8c5ff0	-0.27416945
97	0x3f07c572	0.5303565
98	0xbe3423d4	-0.17591792
99	0x3f00552c	0.5012996
100	0xbeae0950	-0.3399148
101	0xc0180e78	-2.375883
102	0xbf9ef8d7	-1.241969
103	0xbcf04ada	-0.029332567
104	0xbe05562e	-0.13021156
105	0xc010e068	-2.2636967
106	0x3f1b15ff	0.6058044
107	0x3f0d7517	0.5525679
108	0xbe23b923	-0.15988593
109	0x3f24cfb4	0.6437943
110	0x3efa5e67	0.48900148
111	0x40145f8b	2.3183315
112	0x3f84f400	1.0386963
113	0x3fbea1e8	1.489316
114	0x3fb853f9	1.4400626
115	0x3e379e55	0.17931493
116	0xbfc3de4a	-1.5302212
117	0xbd9a7d7d	-0.07543466
118	0x3ea35fbe	0.31908983
119	0x3f0a2f00	0.53977966
120	0x3f588d3d	0.8459051
121	0xbda43ce9	-0.0801943
122	0x3e839435	0.2569901
123	0xbeaf2ada	-0.3421238
124	0xbeee739a	-0.46572572
125	0xbf9d4272	-1.2285903
126	0x3ff906d2	1.9455206
127	0xbfe8914d	-1.8169342
128	0x3ca37e05	0.019957552
129	0x3e6957a9	0.22787346
130	0x3ea47776	0.3212239
131	0x3e961c89	0.29318646
132	0xbeabced8	-0.33556247
133	0x3f81c632	1.013861
134	0x3fe90eb6	1.8207614
135	0xbf8bc723	-1.0920147
136	0x3f43541a	0.76300204
137	0x3e6913f9	0.22761525
138	0xbfba7e49	-1.4569789
139	0x3fda28eb	1.7043737
140	0xc04f5a3c	-3.2398825
141	0x3f004ce2	0.50117314
142	0xc003dbf1	-2.0602992
143	0xbfbcd35d	-1.4752003
144	0x3f8546c9	1.0412227
145	0x3fa6cb71	1.3030835
146	0x3eb0e5c6	0.34550303
147	0x3f72d18e	0.94851005
148	0x3f8356be	1.0260847
149	0xbe545ede	-0.20739314
150	0xbe8f45df	-0.27982995
151	0x3f278dbb	0.6545064
152	0xbd911a8a	-0.0708514
153	0xbf21c157	-0.6318564
154	0xbeada731	-0.3391662
155	0xbe9bc739	-0.30425432
156	0x3ec87ac8	0.39156175
157	0xbe4a7c86	-0.19774064
158	0xbf2720d6	-0.6528448
159	0x3ebf56b6	0.37370843
160	0xbeaac1a1	-0.33350852
161	0x3cb7cea7	0.022437407
162	0xbf06f78f	-0.52721494
163	0xbf1a54b2	-0.60285485
164	0x3f2c0019	0.6718765
165	0x3f308fc6	0.6896938
166	0xbed89f37	-0.4230897
167	0xbeb40abd	-0.35164443
168	0xbfc005c4	-1.500176
169	0xbf3afda8	-0.730433
170	0xbf98719b	-1.190967
171	0x3fa9de9e	1.3271062
172	0xc00cb2ca	-2.1984124
173	0x3e92814a	0.28614265
174	0xbe4ddf4c	-0.20104712
175	0xc01dc5bd	-2.465194
176	0xbfc06223	-1.5029949
177	0x3e6dc62e	0.23220131
178	0xbd88e0df	-0.06683516
179	0x3fade89c	1.3586612
180	0x3efd86c3	0.49516878
181	0x3c1ec956	0.009691557
182	0x3ef799d1	0.4835954
183	0xbe52dfa1	-0.2059312
184	0x3f4105da	0.75399554
185	0x3f4509da	0.7696816
186	0x3f1e2b16	0.61784494
187	0x3f143abb	0.57902116
188	0xbecb3e4d	-0.3969597
189	0x3e70ff56	0.23534903
190	0x3ea5af83	0.32360467
191	0xbf095f76	-0.53661287
192	0x3f110567	0.5664887
193	0x3faeb40f	1.36487
194	0xbe88c63d	-0.26713744
195	0x3ecdf957	0.40229294
196	0x3ea8f3b9	0.32998446
197	0x3f75a9e0	0.95962334
198	0x3e879f49	0.26488712
199	0xbfdc9014	-1.7231469
200	0x3e806e77	0.25084278
201	0x3fd24ff9	1.6430656
202	0xbfbf3208	-1.4937143
203	0x3eafafb7	0.34313747
204	0x3e60f1a3	0.21967177
205	0x3ee808ea	0.453193
206	0xbf0c45ba	-0.54793894
207	0xbe03702d	-0.1283576
208	0x3efcdffb	0.49389634
209	0xbf4b40ea	-0.79395926
210	0x3f3950ed	0.7238911
211	0x3fab2b73	1.3372635
212	0x3eb6d780	0.35711288
213	0x3f968a9c	1.176105
214	0xbd4d0b35	-0.050059516
215	0xbe8a48ae	-0.27008575
216	0xbf4fb801	-0.8114014
217	0xbd2ac02b	-0.041687172
218	0x3f93bf30	1.1542721
219	0xbf0fa24d	-0.56107026
220	0xbfc3833c	-1.5274425
221	0x3f724bda	0.9464699
222	0x3f8ae9ba	1.0852578
223	0x3ef2545c	0.47329986
224	0x3e9a24b8	0.3010614
225	0x3f93614e	1.151407
226	0x3bfe8a70	0.007767968
227	0xc01ea599	-2.4788573
228	0x3f1f0f41	0.6213265
229	0xbeb47731	-0.35247186
230	0x3edd9dcf	0.4328446
231	0x3ebcb1fa	0.36854535
232	0xbf13d305	-0.57743865
233	0x3f905eb8	1.1278906
234	0x3f06c765	0.52648
235	0xbf696806	-0.9117435
236	0xbeeec7a2	-0.46636683
237	0x3fe4cca1	1.7874948
238	0x3f9614ea	1.1725132
239	0x3f32748a	0.69709074
240	0xbf231b24	-0.6371329
241	0xbf63b841	-0.88953024
242	0x3f18ec6c	0.5973575
243	0xbf1e8925	-0.61928016
244	0x3f9ac047	1.2089928
245	0x3f58fd4b	0.84761494
246	0xbeac91e6	-0.33705062
247	0xbef77b84	-0.48336422
248	0xbeee4ccc	-0.46542966
249	0x3b30586f	0.002690818
250	0xbe575c73	-0.2103136
251	0x3f75443e	0.95807254
252	0x3f46eff2	0.7770988
253	0x3fbda6d7	1.481654
254	0xbda6a92d	-0.081377365
255	0x3f056947	0.52113765

indicator_time_mixing.0.indicator_mixing.ln.weight f4 [16, 5]
0	0x3f892298	1.0713682
1	0x3f7e479b	0.9932801
2	0x3f9b5bdf	1.2137412
3	0x3f891529	1.0709583
4	0x3f2fe8bb	0.68714494
5	0x3f7bfc5e	0.98431957
6	0x3f8664e9	1.0499545
7	0x3f85e614	1.0460839
8	0x3f80b799	1.005603
9	0x3f53dbe4	0.827574
10	0x3f8aee13	1.0853904
11	0x3f92865b	1.1447252
12	0x3fc0768d	1.5036179
13	0x3f8d519e	1.1040533
14	0x3f2016cb	0.6253478
15	0x3f81dee8	1.014615
16	0x3f8bc800	1.092041
17	0x3f9985b7	1.1993932
18	0x3f773e5f	0.96579546
19	0x3f8d51af	1.1040553
20	0x3f7f2f2d	0.9968136
21	0x3f78d6bc	0.9720266
22	0x3f6bf4d2	0.9217044
23	0x3f7a63dd	0.9780863
24	0x3f6fc3d6	0.93658197
25	0x3f7f505f	0.9973201
26	0x3f7f64bb	0.9976308
27	0x3f52149b	0.8206269
28	0x3f870fb2	1.0551665
29	0x3f62daea	0.88615286
30	0x3f80e600	1.007019
31	0x3f7f1fc9	0.99657875
32	0x3f6af982	0.9178697
33	0x3f7b83cc	0.9824798
34	0x3f7a8d39	0.9787174
35	0x3f7763d9	0.9663673
36	0x3f783365	0.9695342
37	0x3f641135	0.89088756
38	0x3f7f7c98	0.9979949
39	0x3f7cd431	0.9876128
40	0x3f788f99	0.9709411
41	0x3f811f58	1.008769
42	0x3f8280cc	1.0195556
43	0x3f794b9f	0.97381014
44	0x3f725cac	0.94672656
45	0x3f80a6bd	1.0050884
46	0x3f866233	1.0498718
47	0x3f92dbe9	1.1473361
48	0x3f7d491b	0.98939675
49	0x3f6da946	0.92836416
50	0x3f748a25	0.9552329
51	0x3f7aa572	0.979087
52	0x3f58fc85	0.84760314
53	0x3f83a963	1.0286068
54	0x3f7e9f3d	0.9946173
55	0x3f7a5e32	0.9779998
56	0x3f74ccbd	0.95624906
57	0x3f6800b4	0.9062607
58	0x3f805d3c	1.0028453
59	0x3f723466	0.94611204
60	0x3f8112a1	1.008381
61	0x3f84cab0	1.0374355
62	0x3f8a6de0	1.0814781
63	0x3f792458	0.9732108
64	0x3f8a5398	1.0806761
65	0x3f90fe56	1.1327617
66	0x3f811ff7	1.008788
67	0x3fcd417e	1.6035612
68	0x3f879bec	1.0594459
69	0x3f54a324	0.8306143
70	0x3f6d6469	0.9273134
71	0x3f7af922	0.98036397
72	0x3f5bb701	0.85826117
73	0x3f8273fb	1.0191644
74	0x3f4d3bcf	0.80169386
75	0x3f75b320	0.9597645
76	0x3f6ea9a6	0.9322761
77	0x3f6c088e	0.92200553
78	0x3f7d6a06	0.98989904
79	0x3f760091	0.96094614

indicator_time_mixing.0.indicator_mixing.ln.bias f4 [16, 5]
0	0x3d83f4ed	0.064432
1	0xbc2922be	-0.010323225
2	0xbdfcc55f	-0.12342333
3	0x3d87117a	0.0659513
4	0x3d1830ce	0.03715592
5	0xbac82bb1	-0.001527181
6	0xbd80acf4	-0.06282988
7	0xbbc212b6	-0.0059226407
8	0x3c0e5535	0.008687307
9	0xbd5690b7	-0.052384105
10	0x3daef8dc	0.0854356
11	0xbe2139ed	-0.15744753
12	0xbe6dc17a	-0.23218337
13	0x3dcbad60	0.09945178
14	0x3d833060	0.06405711
15	0x3cba95d3	0.02277652
16	0xbdb5e3ab	-0.08881315
17	0x3cd91274	0.026498057
18	0x3adf6862	0.0017044658
19	0xbce0fb09	-0.027463453
20	0xbd00bbb3	-0.031429004
21	0x3d064406	0.032779716
22	0xba56e788	-0.0008197953
23	0xbca5b890	-0.020229608
24	0x3ce75f41	0.028243663
25	0x3c3454ae	0.011006517
26	0xbbf8157b	-0.00757092
27	0xbd610acc	-0.054941937
28	0x3c7f9e90	0.015601769
29	0x3d935fa9	0.0719598
30	0xbc1fd5aa	-0.009755531
31	0x3c070166	0.0082400795
32	0xbbb17421	-0.005415455
33	0xbc9aedd4	-0.018912233
34	0x3d288897	0.041145887
35	0xbd276eea	-0.04087726
36	0x3d193d46	0.03741195
37	0xbb5d3609	-0.0033754131
38	0xbc2390e1	-0.009983272
39	0x3cb23c24	0.021757193
40	0xbb80cd64	-0.0039307345
41	0xbc63a4b1	-0.013894246
42	0x3ceb6b13	0.02873758
43	0xbc6d1e4c	-0.014472555
44	0xbd21f6ce	-0.039542012
45	0x3cb031da	0.021508146
46	0xbd4b2a36	-0.049600802
47	0x3ce94432	0.0284749
48	0x3be0be96	0.006858657
49	0xbd345c50	-0.04403335
50	0xbd41ff72	-0.047362752
51	0x3c77a4c6	0.015114969
52	0xbce974ca	-0.028498072
53	0x3b6fe871	0.0036607052
54	0x3d1a55a7	0.03767934
55	0xbd05b9ca	-0.032647885
56	0x3d1f775c	0.03893219
57	0xbbd69b8e	-0.0065493053
58	0xbc872e31	-0.016501518
59	0x3d062edd	0.032759536
60	0x3cf891a3	0.030342882
61	0xbd05ca46	-0.032663606
62	0x3cbcb87a	0.023037184
63	0xba7f11e2	-0.0009730143
64	0xbd6217b7	-0.055198397
65	0x3da12999	0.07869262
66	0x3b816386	0.0039486317
67	0xbe378fa8	-0.17925894
68	0x3db81d42	0.089899555
69	0x3d838c6a	0.06423266
70	0xbd90b8e4	-0.07066515
71	0x3c02571f	0.007955342
72	0xbc5de790	-0.013543978
73	0xba7c066e	-0.0009613995
74	0x3c841633	0.016123867
75	0xbd893176	-0.06698887
76	0x3d74868e	0.059698634
77	0xbb80981e	-0.003924384
78	0xbc4dc6ec	-0.012559634
79	0xbdb2efaa	-0.087371185

indicator_time_mixing.0.time_mixing.ln.weight f4 [16, 5]
0	0x3f61e0e2	0.8823377
1	0x3f78fb7e	0.97258747
2	0x3f7b01e5	0.98049766
3	0x3f7f8cab	0.9982402
4	0x3f7c6167	0.98586124
5	0x3f589698	0.8460479
6	0x3f7c5436	0.98565996
7	0x3f7c64ea	0.9859148
8	0x3f82c90d	1.0217606
9	0x3f7c19e2	0.98476994
10	0x3f882c6f	1.063856
11	0x3f73d79b	0.9525086
12	0x3f83b999	1.0291015
13	0x3f6444fa	0.8916775
14	0x3f83307c	1.0249171
15	0x3f832e54	1.0248513
16	0x3f75f389	0.9607473
17	0x3f82f1e0	1.0230064
18	0x3f72e29d	0.94877034
19	0x3f83d432	1.0299132
20	0x3f852895	1.040301
21	0x3f699686	0.91245306
22	0x3f75456a	0.9580904
23	0x3f675b5f	0.90373796
24	0x3f859784	1.0436864
25	0x3f704ac1	0.93864065
26	0x3f5a8e60	0.85373497
27	0x3f7bc7fd	0.9835203
28	0x3f5bb6b3	0.8582565
29	0x3f889ed9	1.0673476
30	0x3f7736a4	0.9656775
31	0x3f6540b7	0.8955187
32	0x3f81d0ba	1.0141823
33	0x3f6b2a09	0.91861016
34	0x3f86b033	1.0522522
35	0x3f6b885f	0.9200496
36	0x3f5e66a1	0.8687535
37	0x3f709315	0.9397443
38	0x3f5eba4d	0.8700302
39	0x3f8a3ab1	1.0799161
40	0x3f593be7	0.8485703
41	0x3f863c20	1.0487099
42	0x3f80c0f5	1.0058886
43	0x3f8bcd1f	1.0921973
44	0x3f822c2e	1.0169733
45	0x3f5f9bc3	0.8734705
46	0x3f80209b	1.000995
47	0x3f7eb31e	0.9949206
48	0x3f7ef0f0	0.9958639
49	0x3f80ddb8	1.0067663
50	0x3f67b81d	0.9051531
51	0x3f77f476	0.9685739
52	0x3f6ece61	0.9328366
53	0x3f7af271	0.98026186
54	0x3f83874d	1.0275666
55	0x3f788cff	0.9709014
56	0x3f738c56	0.9513601
57	0x3f7a9475	0.9788278
58	0x3f7bf777	0.98424476
59	0x3f839907	1.0281075
60	0x3f6b2850	0.91858387
61	0x3f8184ad	1.0118614
62	0x3f76e1b1	0.9643813
63	0x3f8496a6	1.0358474
64	0x3f847057	1.0346783
65	0x3f84eeff	1.0385436
66	0x3f71d2b0	0.9446211
67	0x3f7f2124	0.99659944
68	0x3f79a105	0.9751132
69	0x3f81655e	1.010906
70	0x3f7ff7b3	0.99987334
71	0x3f7b3016	0.9812025
72	0x3f7c1d29	0.98481995
73	0x3f735c32	0.95062554
74	0x3f7f1efd	0.9965666
75	0x3f86a087	1.0517739
76	0x3f7b53fe	0.98175037
77	0x3f832d10	1.0248127
78	0x3f75638e	0.95855033
79	0x3f7cd54a	0.98762953

indicator_time_mixing.0.time_mixing.ln.bias f4 [16, 5]
0	0x3df05ee8	0.11736852
1	0xbc955306	-0.018228065
2	0xbbab6f43	-0.0052317693
3	0xbc3ee635	-0.011651565
4	0x3c56cd73	0.013110506
5	0x3e1cfdbd	0.15331168
6	0xbca52345	-0.02015842
7	0x3bb583c4	0.0055393893
8	0x3c8aaac1	0.016927125
9	0x3c84f7fa	0.016231526
10	0xbd7512cd	-0.059832383
11	0xbcf687d9	-0.030094074
12	0xbca2a49c	-0.019853882
13	0xbd349746	-0.044089578
14	0x3cdca161	0.02693242
15	0xbcc6535e	-0.024209674
16	0xbd493742	-0.049124964
17	0xbc6598e7	-0.014013506
18	0xbd7d50b6	-0.06184455
19	0x3d2676b1	0.040640537
20	0xbd129d5a	-0.035794593
21	0xbdafcb49	-0.085836954
22	0x3d16e27f	0.036837097
23	0xbdbf108c	-0.09329328
24	0x3d958065	0.0729988
25	0x3d820571	0.06348694
26	0xbdfb18e3	-0.12260606
27	0x3c6bc159	0.014389359
28	0xbe101422	-0.1407018
29	0x3dda8b0b	0.106710516
30	0x3d10ab20	0.035319448
31	0xbdbbfede	-0.091794714
32	0xbb2d29eb	-0.002642269
33	0xbd98a021	-0.07452417
34	0x3da5957d	0.08085153
35	0x3da4140f	0.080116384
36	0xbdfe87df	-0.12428259
37	0x3d7041b0	0.058656394
38	0xbdfaf3bf	-0.12253522
39	0x3dc25c43	0.09490254
40	0x3e1bbc11	0.1520846
41	0x3d11da68	0.03560868
42	0xbc588fc8	-0.013217874
43	0x3dada809	0.08479316
44	0xbbf7c4dd	-0.0075613097
45	0x3e00bf3b	0.12572949
46	0xbb4b7049	-0.003104227
47	0xbc02507a	-0.007953757
48	0x3b59d174	0.0033236416
49	0x3b605dd5	0.0034235616
50	0x3dc07fe6	0.09399395
51	0xbceccaa3	-0.028905218
52	0x3d778c02	0.060436256
53	0xbcea061c	-0.028567366
54	0x3ce16aad	0.027516687
55	0x3d00b7a5	0.031425137
56	0xbd3df8dd	-0.046379913
57	0x3d08f2a6	0.033434533
58	0xbc42f752	-0.011899786
59	0x3d08bcc8	0.03338316
60	0x3da44013	0.08020034
61	0x3b3ee96f	0.0029130836
62	0x3c9888d7	0.018619938
63	0x3cc3060e	0.023806598
64	0x3c06e85b	0.008234109
65	0xbd048c77	-0.03236052
66	0xbd3a2969	-0.045449648
67	0x3d003b9d	0.03130685
68	0xbd04e279	-0.032442544
69	0x3d0c711d	0.03428756
70	0xba6f57c7	-0.00091302063
71	0xbce00347	-0.027345313
72	0x3c01fbc5	0.007933562
73	0xbd277337	-0.04088136
74	0x3c7c5434	0.015400935
75	0xbd502949	-0.050820623
76	0xbcf573fc	-0.029962532
77	0xbc93891e	-0.018009719
78	0xbd368681	-0.044561867
79	0x3b92e8f3	0.004483336

indicator_time_mixing.0.time_mixing.U1.1 f4 [1, 2]
0	0x3b5f6819	0.0034089147
1	0xbb62eaa4	-0.003462472

indicator_time_mixing.0.time_mixing.U1.2 f4 [1, 3]
0	0xbc13a2af	-0.009010955
1	0xbc1792a0	-0.009251267
2	0x3c73526b	0.014851193

indicator_time_mixing.0.time_mixing.U1.3 f4 [1, 4]
0	0xbcf3cdb4	-0.029761173
1	0xbd284be4	-0.041088
2	0x3c9cf6db	0.019160679
3	0x3d0a0675	0.033697564

indicator_time_mixing.0.time_mixing.U1.4 f4 [1, 5]
0	0x3c6aefc3	0.01433939
1	0x3b98a9e3	0.004658924
2	0x3c9dd9b5	0.01926885
3	0x3ae01626	0.0017096444
4	0x3c9caab9	0.019124376

indicator_time_mixing.0.time_mixing.U1.5 f4 [1, 6]
0	0xbb9ba0b4	-0.004749382
1	0xbd09dd4b	-0.033658307
2	0x3c9b3f09	0.018950956
3	0x3c8e288d	0.01735332
4	0xbbe2dcb6	-0.0069232835
5	0x39fbb5ec	0.00048009993

indicator_time_mixing.0.time_mixing.U1.6 f4 [1, 7]
0	0xbc38071e	-0.011232166
1	0xbc648234	-0.0139470585
2	0x3beeee4c	0.007291591
3	0x3c224ab0	0.009905502
4	0x3ca9603f	0.020675777
5	0x3bdc369b	0.0067203767
6	0xbcbda71f	-0.023150979

indicator_time_mixing.0.time_mixing.U1.7 f4 [1, 8]
0	0xbc77e875	-0.015131106
1	0xbc88b5fc	-0.01668834
2	0xbb52f8c7	-0.003219174
3	0x3c0ddb4d	0.008658242
4	0x3c406fb6	0.011745384
5	0xba87a777	-0.0010349591
6	0x3c2bd5c0	0.010487974
7	0x3af6b685	0.0018822706

indicator_time_mixing.0.time_mixing.U1.8 f4 [1, 9]
0	0xbc6b501b	-0.01436236
1	0xbc038e39	-0.008029514
2	0x3d057fef	0.03259271
3	0x3c8203dd	0.015870983
4	0x3ca38b1c	0.019963793
5	0x3b0c1b9e	0.0021378766
6	0x3bd294b9	0.0064264205
7	0xbc0bf2a0	-0.008541733
8	0xbd102774	-0.035193875

indicator_time_mixing.0.time_mixing.U1.9 f4 [1, 10]
0	0x3c83b3b4	0.0160769
1	0xbc8d68d9	-0.01726191
2	0x3c2ea653	0.010659772
3	0x3c2fa81b	0.010721232
4	0x3c44052d	0.011964125
5	0xbbd39361	-0.006456778
6	0x3b849640	0.0040462315
7	0xbb5dbee0	-0.0033835694
8	0xbc838685	-0.016055355
9	0xbbfaa7cd	-0.007649398

indicator_time_mixing.0.time_mixing.U1.10 f4 [1, 11]
0	0x3c62b701	0.013837577
1	0xba5eea82	-0.00085035723
2	0x3c010133	0.007873821
3	0xbb0a9854	-0.0021147924
4	0x3b5bf2b1	0.0033561403
5	0x3c0c4f71	0.008563862
6	0xbb3ea652	-0.0029090834
7	0x3c8b1986	0.016979944
8	0xbc76136e	-0.015019281
9	0xbcb571f5	-0.022149066
10	0x3c4d6d94	0.0125383325

indicator_time_mixing.0.time_mixing.U1.11 f4 [1, 12]
0	0xbc1fb7f4	-0.009748448
1	0x3b856fe2	0.0040721754
2	0x3c655bc3	0.0139989285
3	0xbb934181	-0.0044938927
4	0x3c3af893	0.011411804
5	0x3c61318e	0.013744725
6	0x3c6cc962	0.01445231
7	0xbbb5725f	-0.0055373157
8	0xbcc43e97	-0.023955626
9	0xbb1a3372	-0.00235292
10	0xbc534068	-0.012893774
11	0x3c25bd86	0.010115987

indicator_time_mixing.0.time_mixing.U1.12 f4 [1, 13]
0	0x3c7f79d8	0.015593015
1	0xbc6ba1cc	-0.014381837
2	0x3cc120ac	0.02357515
3	0x36ba9d59	5.5615496e-06
4	0x3bd96870	0.0066347644
5	0x3c72402d	0.0147858085
6	0xbba17c67	-0.00492816
7	0x3bcc5b0a	0.0062364386
8	0xbcc1b802	-0.023647312
9	0x3b5a48e1	0.00333076
10	0x3bcc9914	0.0062438343
11	0xbc88f919	-0.016720342
12	0xbbcc79b7	-0.0062400955

indicator_time_mixing.0.time_mixing.U1.13 f4 [1, 14]
0	0x3d284bd5	0.041087944
1	0xbb59fa1b	-0.0033260647
2	0x3cbc3c6c	0.02297803
3	0x3c4af04a	0.012386391
4	0x3c68d6bc	0.014211353
5	0x3b88eb0c	0.0041784104
6	0x3be7108b	0.0070515326
7	0xbba5dc71	-0.005061679
8	0xbc4d737a	-0.012539739
9	0xbbf3b25e	-0.0074370345
10	0xbcb93935	-0.022610286
11	0xbccd960c	-0.025095962
12	0xbce2ca7b	-0.02768444
13	0xbb67e958	-0.0035386886

indicator_time_mixing.0.time_mixing.U1.14 f4 [1, 15]
0	0x3badfc41	0.005309612
1	0x3c5de4f3	0.013543355
2	0xbc06f560	-0.008237213
3	0xbc3a6d40	-0.011378586
4	0xbc08502d	-0.008319897
5	0xbc32fd1c	-0.010924604
6	0xbae33114	-0.0017333352
7	0x3ca1b136	0.019737821
8	0xb90f0aad	-0.0001364152
9	0xbb3e7622	-0.0029062112
10	0xbb7027b6	-0.0036644763
11	0x3c2a29dd	0.010385958
12	0xbc986390	-0.018602163
13	0x3ca94271	0.020661565
14	0x3aa3e124	0.001250301

indicator_time_mixing.0.time_mixing.U1.15 f4 [1, 16]
0	0xbbf93115	-0.007604728
1	0xbb8d1ecb	-0.0043066493
2	0x3c96b4ab	0.018396696
3	0x3cb8fd63	0.022581762
4	0x3bc0a735	0.0058793076
5	0x3b9d0c17	0.004792701
6	0xbba130e9	-0.0049191606
7	0x3ba3a61a	0.004994166
8	0xbbc5ea75	-0.0060399123
9	0xbc036d24	-0.008021627
10	0xbc9955c4	-0.018717654
11	0xbc98d1ba	-0.018654693
12	0xbcec66d0	-0.028857619
13	0xb94889bd	-0.00019124798
14	0x3c358e9d	0.011081365
15	0x3ca84304	0.020539768

indicator_time_mixing.0.time_mixing.U2.1 f4 [1, 2]
0	0x3c01afdd	0.007915464
1	0x3ab03fa9	0.0013446707

indicator_time_mixing.0.time_mixing.U2.2 f4 [1, 3]
0	0xbd27d784	-0.040977016
1	0xbd417cdd	-0.04723822
2	0x3db09f7a	0.08624168

indicator_time_mixing.0.time_mixing.U2.3 f4 [1, 4]
0	0xbc1fd5f8	-0.009755604
1	0x3c54aa77	0.012980095
2	0xbbe7174c	-0.0070523378
3	0x3c89b232	0.016808603

indicator_time_mixing.0.time_mixing.U2.4 f4 [1, 5]
0	0xbb56bf1b	-0.0032767716
1	0xbb7a253d	-0.0038169168
2	0xbcd35453	-0.025797045
3	0xbd3f926a	-0.04677049
4	0x3bafd198	0.0053655617

indicator_time_mixing.0.time_mixing.U2.5 f4 [1, 6]
0	0xbd3dbc29	-0.04632202
1	0xbd299527	-0.04140201
2	0x3d86b9e6	0.06578426
3	0x3d2aa16e	0.041657858
4	0x3bf2f829	0.007414837
5	0xbc21e5f0	-0.0098814815

indicator_time_mixing.0.time_mixing.U2.6 f4 [1, 7]
0	0xbbf76d94	-0.0075509045
1	0xbbca24f4	-0.006168956
2	0x3c45937d	0.01205909
3	0x3b099012	0.0020990414
4	0x3c2a423a	0.010391766
5	0x3c985b61	0.01859826
6	0xbc05cdba	-0.008166725

indicator_time_mixing.0.time_mixing.U2.7 f4 [1, 8]
0	0x3aa0ff25	0.001228307
1	0x3c2e3632	0.010633038
2	0xbbb1a0e4	-0.005420791
3	0xbcb7e652	-0.022448692
4	0x3be451d3	0.006967762
5	0x3b5064e8	0.0031798426
6	0xbae56797	-0.0017502186
7	0xbc48c77f	-0.012254595

indicator_time_mixing.0.time_mixing.U2.8 f4 [1, 9]
0	0x3a3c6b30	0.0007187603
1	0x3c8d3ae6	0.017239999
2	0x39c06db4	0.0003670283
3	0x3cc10e72	0.023566458
4	0xbbb93ad0	-0.005652763
5	0x3af4ec17	0.0018686083
6	0xbbd1c694	-0.006401846
7	0x3c8ce808	0.017200485
8	0x3bae944c	0.005327737

indicator_time_mixing.0.time_mixing.U2.9 f4 [1, 10]
0	0x3c8eee2c	0.017447554
1	0xbaaeb4d4	-0.0013329037
2	0x3c376b20	0.011194974
3	0x3abe8ac1	0.0014537201
4	0xbc9896de	-0.018626627
5	0xbca39515	-0.019968549
6	0xb9a229fa	-0.00030930323
7	0x3aaa891d	0.0013010834
8	0x3c9038be	0.017605182
9	0x3b58c6f9	0.0033077581

indicator_time_mixing.0.time_mixing.U2.10 f4 [1, 11]
0	0xbd1ca969	-0.0382475
1	0xbc95463f	-0.018221973
2	0x3c4c5b53	0.012472945
3	0x3c6e7bc8	0.014555879
4	0x3c0e22f6	0.0086753275
5	0x3a9342d8	0.0011235131
6	0x3b33a7b7	0.0027413198
7	0x3cb2e9bd	0.02183997
8	0x3bfc78d0	0.0077048317
9	0x3c93bc4f	0.018034128
10	0xbd48f381	-0.04906035

indicator_time_mixing.0.time_mixing.U2.11 f4 [1, 12]
0	0x3b5236e5	0.0032076177
1	0x3b3a8d15	0.002846544
2	0x3af54b39	0.0018714435
3	0xbd1bacd0	-0.038006604
4	0x3c84c5e0	0.016207635
5	0x39a261c3	0.00030971886
6	0xbc00bab2	-0.007857012
7	0xbc076245	-0.008263175
8	0xbc701cb2	-0.014655279
9	0xbc07bb03	-0.008284333
10	0x3c204005	0.009780888
11	0x3b1bbf02	0.0023764973

indicator_time_mixing.0.time_mixing.U2.12 f4 [1, 13]
0	0xbb496f6c	-0.0030736579
1	0xbc22bdc6	-0.009932941
2	0x3c976edb	0.018485477
3	0x3cdef150	0.027214676
4	0xbc7fcdab	-0.015613
5	0xbb6e3bcb	-0.0036351557
6	0x3bac1e37	0.0052526253
7	0x3c8b92f1	0.01703784
8	0x3cb9fd8d	0.02270391
9	0xbb4e24c0	-0.003145501
10	0x3a99ab24	0.0011723978
11	0xbc4d39d0	-0.012525991
12	0x3cc88807	0.024478925

indicator_time_mixing.0.time_mixing.U2.13 f4 [1, 14]
0	0xbd3e1575	-0.04640718
1	0xbcf9306d	-0.030418599
2	0x3c4eaf8e	0.012615098
3	0xbc4ff56c	-0.0126927905
4	0xbc747f00	-0.014922857
5	0x3c63e19f	0.013908773
6	0x3d13e37b	0.036105614
7	0xbc547c6e	-0.0129691195
8	0xbb97da0f	-0.004634149
9	0x3d091bac	0.033473656
10	0xbd7443a9	-0.05963484
11	0x3c91a2b4	0.017777778
12	0xbd2369dd	-0.03989588
13	0x3d832303	0.06403162

indicator_time_mixing.0.time_mixing.U2.14 f4 [1, 15]
0	0xbbce0a08	-0.006287817
1	0xbc1da4b5	-0.009621789
2	0x3ccd1f72	0.025039408
3	0x3cc2456e	0.023714747
4	0x3c2ff8a7	0.010740436
5	0xbc16be06	-0.009200579
6	0x3cda4f3e	0.026649114
7	0x3bd99a1d	0.006640686
8	0x3ca79e00	0.020461082
9	0x3cbaabe1	0.022787036
10	0xbd46fd68	-0.04858151
11	0x3b4b2b72	0.0031001237
12	0xbcd7021a	-0.02624612
13	0x3d525be6	0.051357172
14	0xbba8df1e	-0.0051535508

indicator_time_mixing.0.time_mixing.U2.15 f4 [1, 16]
0	0xbc484630	-0.012223765
1	0xbbe68da8	-0.0070359297
2	0x3c141340	0.009037793
3	0x3cdf2ca2	0.027242962
4	0x3bb0ca44	0.0053952057
5	0x3b9ec8ab	0.004845699
6	0x3cdbfeb5	0.026854852
7	0xbc2dd62e	-0.010610146
8	0x3c23b982	0.009992959
9	0x3c3dc914	0.011583585
10	0x3c7dde22	0.015494855
11	0x3bcc90dc	0.0062428545
12	0xbbf07086	-0.0073376326
13	0x3cf1fbf6	0.02953909
14	0x3b9357f0	0.004496567
15	0x38b19e3d	8.469492e-05

indicator_time_mixing.0.fc.weight f4 [1, 5]
0	0xbe7a2d6b	-0.24431388
1	0xbe95b6dd	-0.29241076
2	0x3c0f1b23	0.008734497
3	0xbe78492e	-0.24246666
4	0x3ead77a8	0.33880353

indicator_time_mixing.1.indicator_mixing.W1 f4 [5, 64]
0	0x3eea3470	0.45743132
1	0xbf2be0fc	-0.67140174
2	0x3ea63902	0.32465369
3	0x3fcac22c	1.5840507
4	0xc010f7c2	-2.265122
5	0x3db4ddce	0.088313684
6	0x3e311dd4	0.17296535
7	0xbfb5fa8e	-1.4217088
8	0x3f2321f7	0.637237
9	0xbf25c9a9	-0.64760834
10	0x3e8eedc0	0.27915764
11	0x3f2f1605	0.68392974
12	0xbe4e812d	-0.20166464
13	0x3f2b566c	0.66928744
14	0xbf528371	-0.82231814
15	0x4005899c	2.086524
16	0xbe9cf550	-0.3065591
17	0xbe7210cb	-0.23639219
18	0xbfaaf60b	-1.3356336
19	0xbd4540cc	-0.0481575
20	0xbee9a6d3	-0.4563509
21	0xbcc4a2f1	-0.024003478
22	0x3d828edf	0.06374907
23	0xc01de95e	-2.4673686
24	0xbf8e2f89	-1.1108257
25	0xbf3d6a7a	-0.73990595
26	0xbf46d3e4	-0.7766707
27	0xc02c3524	-2.6907434
28	0xbf7be465	-0.9839538
29	0xbf2f2d31	-0.6842833
30	0xbe17adf7	-0.14812456
31	0xbf8d420e	-1.1035783
32	0xbfef633d	-1.870216
33	0xbf0a6349	-0.5405775
34	0xbee54f5e	-0.44787115
35	0x3f17905b	0.59204644
36	0x3e0da34c	0.13831824
37	0xbf91a564	-1.1378598
38	0xbfb4eb04	-1.4134221
39	0x3f558b0a	0.8341528
40	0x3fb6a644	1.426949
41	0xbfd97c68	-1.6991091
42	0xbf8366f0	-1.0265789
43	0xbda8c5c3	-0.08240845
44	0xbfa1f181	-1.2651826
45	0xbfdea8b2	-1.7395232
46	0xbfa1a77e	-1.262924
47	0x3e21bf35	0.15795596
48	0x3e8dda35	0.2770554
49	0xbd339125	-0.043839592
50	0x3f279d5a	0.65474474
51	0xbe0def31	-0.13860776
52	0xbea4d4ad	-0.3219351
53	0x3f9e0ceb	1.2347692
54	0xbe831c1b	-0.2560738
55	0x3f024ab8	0.5089526
56	0xbf69d453	-0.91339606
57	0xbf98b558	-1.1930342
58	0xbe445c4c	-0.19175833
59	0x3eba208a	0.3635295
60	0xbfeb9405	-1.8404547
61	0x3f63f31d	0.89042836
62	0x3e864505	0.26224533
63	0x3f8f1661	1.1178705
64	0x3f2f1517	0.68391556
65	0x3f7112f5	0.9416955
66	0x3fb2e44f	1.3975924
67	0x3de77ce0	0.11303115
68	0x3f30b449	0.69025093
69	0xbf43235e	-0.7622584
70	0xbf103652	-0.56332886
71	0xbeac6211	-0.3366857
72	0xbf362eb1	-0.71164995
73	0xbfa35cf2	-1.276274
74	0xbf35865d	-0.7090815
75	0x3f382bf3	0.7194206
76	0xbf162355	-0.5864766
77	0x3f59a87a	0.850227
78	0x3f1ecf39	0.62034947
79	0x3f0b24c5	0.5435298
80	0x3f1e960a	0.6194769
81	0x3ed267e5	0.4109489
82	0x3f8324a6	1.0245559
83	0x3d12ce77	0.03584143
84	0x3fbc9801	1.4733888
85	0xbe7ffe38	-0.2499932
86	0x3ef8d96c	0.4860338
87	0x3eebcbfd	0.46054068
88	0xbf6cdfdc	-0.9252908
89	0xbf39a884	-0.7252276
90	0x3f36d3b5	0.7141679
91	0x3ef409bb	0.47663674
92	0xbf0b75a0	-0.54476357
93	0xbebd54a5	-0.3697864
94	0xbf34f09e	-0.7067965
95	0x3ef5abe1	0.47982696
96	0xbee98453	-0.45608768
97	0x3f2ec58d	0.6827019
98	0x3f7f0bfe	0.99627674
99	0xbf977643	-1.1832966
100	0x3fecd740	1.8503189
101	0x3f99e02d	1.2021538
102	0x3d6e283a	0.05814383
103	0xbfabcad5	-1.3421274
104	0x3fbeed4e	1.491617
105	0x3fe25374	1.7681718
106	0x3d02ec7c	0.03196381
107	0x3ea3c0b9	0.31982973
108	0xbf3cf361	-0.73808867
109	0xbf4d5547	-0.8020825
110	0x3fb18ce3	1.387112
111	0xbe800861	-0.25006393
112	0x3ee4469e	0.44585127
113	0x3ca5dd21	0.020247044
114	0xbfefbe28	-1.8729906
115	0xbfd7a211	-1.6846334
116	0xbf08109a	-0.5315033
117	0xbf400ef9	-0.75022846
118	0x3eaf0616	0.3418433
119	0xbeb8422b	-0.35987982
120	0xbf6f442e	-0.9346341
121	0x3f835014	1.0258813
122	0xbded9470	-0.11600578
123	0x3cc701aa	0.024292786
124	0xbea6b819	-0.3256233
125	0x3e8c3af8	0.2738874
126	0xbf18e058	-0.5971732
127	0xbe29a7b9	-0.16567887
128	0xbffd0f24	-1.9770246
129	0x3f992334	1.1963868
130	0x3f92133b	1.1412119
131	0xbf9e6237	-1.2373723
132	0x3feace79	1.834426
133	0xbcada5a6	-0.021197151
134	0xbfd9315a	-1.6968186
135	0xbf8f509e	-1.1196477
136	0xbdfe638e	-0.12421332
137	0xbf3587b7	-0.7091021
138	0x3e6357cf	0.22201465
139	0xbf04e86b	-0.5191714
140	0xbe78fa13	-0.24314146
141	0x3fa6b0c5	1.3022696
142	0x3f8a2ead	1.0795494
143	0x3e71aedd	0.23601861
144	0xbf60047d	-0.8750685
145	0x3fae6b3f	1.3626479
146	0xbfad34d6	-1.3531749
147	0x3dfbed70	0.12301147
148	0xbf51dba6	-0.8197578
149	0xbfc9556c	-1.5729194
150	0xbf6a72cf	-0.91581434
151	0x3e399854	0.18124515
152	0x3f984ee9	1.1899081
153	0x3f2ac29a	0.6670319
154	0xbe9e3e4b	-0.309069
155	0xbfb988e8	-1.4494905
156	0x3dbcda70	0.09221351
157	0xbd7d0dea	-0.061780848
158	0x3cfb88df	0.030704914
159	0xbff77710	-1.933321
160	0x3f8b6975	1.0891558
161	0x3ea51e74	0.32249796
162	0xbf052efc	-0.5202482
163	0x3f39d580	0.725914
164	0xbf42e448	-0.7612958
165	0xc0257107	-2.5850236
166	0x3f61b2b8	0.8816333
167	0x3f8dc4a2	1.1075633
168	0x3f15a5e4	0.58456254
169	0x3d775a7a	0.06038902
170	0x3e2b52f9	0.1673087
171	0x3f9181e2	1.1367762
172	0x3f5cbcc6	0.86225545
173	0xbf7bf75d	-0.9842432
174	0x3ec56f41	0.38561442
175	0xbfdc7795	-1.7223994
176	0x3f15850e	0.5840615
177	0xbf995b38	-1.1980963
178	0x3dca7432	0.09885444
179	0x3ee28b79	0.44247034
180	0x3d0526d7	0.032507744
181	0xbfa118c3	-1.2585682
182	0xbf50201e	-0.81299007
183	0xbfffd84b	-1.9987882
184	0x3eb375fb	0.3505095
185	0x3fba73e7	1.456662
186	0x3fb9345f	1.4469107
187	0x3f705421	0.9387837
188	0x3eb8dd8b	0.36106524
189	0x3ef3970e	0.47576183
190	0xbe0df89b	-0.13864367
191	0xbf96a64b	-1.1769499
192	0xbf9b1183	-1.2114719
193	0xbf3ba094	-0.732919
194	0xbf115f34	-0.56785893
195	0x3f1542a7	0.5830483
196	0xbeb60ff3	-0.35559043
197	0x3f2b4eaa	0.66916907
198	0x3eeb947a	0.46011716
199	0xbfb46a2e	-1.4094903
200	0xbf89bd67	-1.0760926
201	0xbeebd9b7	-0.4606454
202	0xbea03fbd	-0.31298628
203	0xbf522065	-0.8208068
204	0x4034461b	2.816779
205	0xbf39033c	-0.7227056
206	0xbd034cfa	-0.032055832
207	0x3fc4912f	1.5356807
208	0x3fec2be0	1.845089
209	0x3fd9340b	1.6969007
210	0x3ff35670	1.9010754
211	0xbf6c2158	-0.9223838
212	0xbf29d180	-0.66335297
213	0x3ed8e771	0.42364076
214	0x3e31edd4	0.1737588
215	0xbf922c14	-1.1419702
216	0xbe4336d4	-0.19063884
217	0xbe4aae8e	-0.1979315
218	0xbfe82832	-1.8137267
219	0xbe469f1b	-0.19396631
220	0xbd76e2f8	-0.060275048
221	0xbf381132	-0.7190124
222	0xbefe6533	-0.49686584
223	0x3edda8d7	0.43292877
224	0xbf45e256	-0.77298486
225	0x3a8ec0f5	0.0010891246
226	0xbf1bb34f	-0.6082048
227	0x3f2a211c	0.6645677
228	0x3f36019f	0.71096224
229	0xbe24fae9	-0.1611134
230	0x40062ad3	2.0963638
231	0xbe37041c	-0.17872661
232	0x3f267fef	0.6503896
233	0x3fc9ccaf	1.576559
234	0x3f7ead3d	0.9948309
235	0xbe1077bf	-0.1410818
236	0x3e73e423	0.23817496
237	0xc00dc8b8	-2.215376
238	0x3f2e5ef9	0.68113667
239	0x3f59e32e	0.85112274
240	0x3f82f3c3	1.023064
241	0xbf213e07	-0.6298527
242	0x3f19dc1e	0.601015
243	0x3ed66743	0.41875657
244	0xbe81c715	-0.253472
245	0x3ebc26a9	0.36748245
246	0x3f0909e7	0.53530735
247	0x3f239179	0.6389385
248	0xbdc63c6d	-0.09679494
249	0x3f8a9c63	1.0828975
250	0x3f019ba1	0.50628096
251	0xbf27c899	-0.6554046
252	0xbf3c974a	-0.7366835
253	0xbeaa70a7	-0.33289072
254	0x3ea6f852	0.32611328
255	0x3dc7546e	0.097329006

indicator_time_mixing.1.indicator_mixing.W2 f4 [64, 5]
0	0x3d5f7c92	0.05456216
1	0x3f3c8257	0.7363638
2	0xbe429da3	-0.19005446
3	0xbebc5221	-0.3678141
4	0xbfc76001	-1.5576173
5	0x3ce773af	0.028253404
6	0xbf8d2011	-1.1025411
7	0x3d80c324	0.0628722
8	0x3e853469	0.26016548
9	0x3f861c15	1.047732
10	0x3f41fcfe	0.7577666
11	0xbffb00c3	-1.9609607
12	0xbfbae2ff	-1.4600524
13	0xbd5414ed	-0.05177777
14	0x3e7c0465	0.24611051
15	0xbf843631	-1.0329038
16	0xbf85618c	-1.0420394
17	0x3f2d8395	0.67778903
18	0xbf8df3f3	-1.1090072
19	0xbe9a8cd0	-0.30185556
20	0xbf43dbe0	-0.7650738
21	0x3f4ff5e5	0.8123458
22	0x3eef57f8	0.46746802
23	0xbf028532	-0.5098449
24	0x3f5cd42b	0.8626124
25	0x3f428cf2	0.75996315
26	0xbe70cf2f	-0.23516534
27	0x3d746c09	0.059673343
28	0x3f5b67d3	0.857053
29	0xbec7f43f	-0.39053532
30	0xbf332a86	-0.6998676
31	0xbf3a7cad	-0.7284649
32	0xbf48f3db	-0.78497094
33	0xbecf8ddd	-0.4053792
34	0xbf2e477a	-0.68077815
35	0xbfd2ed0c	-1.6478591
36	0x401ff399	2.499243
37	0xbf801651	-1.000681
38	0xbf4545f8	-0.7705989
39	0x3f9b1474	1.2115617
40	0x3df84d8f	0.12124168
41	0x3f9d6e5c	1.2299304
42	0xbe028718	-0.12746847
43	0xbf8a6e96	-1.0814998
44	0x3f36f565	0.7146819
45	0x3ef1364a	0.47111732
46	0x3fce28ea	1.6106236
47	0xc00317cb	-2.0483272
48	0xbf46087d	-0.773567
49	0xbfbed78c	-1.490953
50	0xc0033600	-2.050171
51	0xbf49c04d	-0.7880905
52	0x3f02f440	0.51153946
53	0xbe935b4c	-0.2878059
54	0xbe590b58	-0.21195734
55	0xbebb87c9	-0.36627033
56	0xbe2e1d44	-0.17003351
57	0xbfba0d2d	-1.4535271
58	0x3fa81189	1.3130351
59	0xbf14b09e	-0.58081996
60	0xbfa00500	-1.2501526
61	0xbf8677d9	-1.0505325
62	0xbf5da57c	-0.86580634
63	0xbf2cf2e4	-0.6755812
64	0x3f166fe0	0.5876446
65	0x3dfcb43b	0.12339064
66	0xbeb5b3a2	-0.3548861
67	0xbfbfc652	-1.4982398
68	0x3df52636	0.11970179
69	0xbec8dd4a	-0.3923133
70	0xbfb69313	-1.4263633
71	0x3fa61d87	1.2977761
72	0x3db3cb5f	0.08779024
73	0xbf1f5ef8	-0.62254286
74	0x3eb78214	0.3584143
75	0xbf8ce34f	-1.1006869
76	0x3e7e899a	0.24857178
77	0x3e9bcbdf	0.3042898
78	0xbf8dd319	-1.1080047
79	0xbfa7e182	-1.3115695
80	0xbfe8a8f1	-1.8176557
81	0xbd40f939	-0.047112677
82	0x3ef3762d	0.47551098
83	0xbf4b2dc4	-0.7936671
84	0x3fbfe58e	1.499193
85	0x3f02d3ec	0.5110462
86	0xbd460963	-0.048348796
87	0x3f41710e	0.7556313
88	0xbe5596f7	-0.2085837
89	0x3f423c69	0.7587343
90	0xbebbfefc	-0.36717975
91	0x3f529a25	0.82266456
92	0x3e66369e	0.22481772
93	0x3fd42cfe	1.657623
94	0xbc8d1f43	-0.01722682
95	0x3f51b780	0.81920624
96	0xbfb1563d	-1.3854443
97	0x400f9ee0	2.244072
98	0xbf8c0921	-1.0940286
99	0x3f7128ea	0.94203055
100	0xc0277f28	-2.617136
101	0x3ff281ef	1.8945903
102	0x3e9801fe	0.2968902
103	0x3f97da68	1.1863527
104	0xbe524d58	-0.20537317
105	0x3ff33f62	1.9003718
106	0xbec324f3	-0.38114128
107	0xbdaae710	-0.08344853
108	0xbee14a7b	-0.44002137
109	0x3f2b3bf3	0.6688835
110	0xbfef9ad1	-1.8719121
111	0xbec72761	-0.3889723
112	0x400ce892	2.201695
113	0x3f18fed6	0.5976385
114	0xbf99a7bf	-1.2004317
115	0xbfa3fee6	-1.2812164
116	0x3e587a3d	0.2114038
117	0x3f522979	0.8209453
118	0x3fa7535d	1.3072315
119	0x3e0d06f7	0.13772188
120	0xbec56c2d	-0.38559094
121	0x3f85b87a	1.0446923
122	0x3f198b4c	0.59978175
123	0xbd093ea8	-0.03350702
124	0x3f4f32a2	0.80936635
125	0xbf2e64bf	-0.68122476
126	0xbfe4488a	-1.7834637
127	0x3fa163ef	1.2608622
128	0x3fc22190	1.5166492
129	0xc0102566	-2.2522826
130	0xbe1a3a7c	-0.15061373
131	0x3f331eeb	0.6996905
132	0xc0474ddc	-3.1141272
133	0x3f351cd1	0.70747095
134	0xbf8ba9a0	-1.091114
135	0xbefa07c8	-0.48834062
136	0xbff39627	-1.9030198
137	0xbf9a5d84	-1.2059789
138	0xbf007a95	-0.50187045
139	0xbf85e46a	-1.0460331
140	0x3fde7c62	1.7381709
141	0xbce98912	-0.028507743
142	0xbe164341	-0.14674093
143	0x3e3e22b5	0.18567927
144	0xbe3b4a64	-0.18290097
145	0x3f887347	1.066018
146	0xbf41b1db	-0.7566201
147	0xbf4a2e9c	-0.7897737
148	0x3fe99cc2	1.8250964
149	0xbf8fa61c	-1.1222568
150	0xbfaab205	-1.3335577
151	0x3f95d831	1.1706601
152	0xbfba68f4	-1.4563279
153	0x3fa62e3f	1.2982863
154	0xbe8a5ad4	-0.2702242
155	0xbe3c3e1c	-0.18383068
156	0x3dfbf788	0.12303072
157	0xbf5429eb	-0.8287646
158	0x3e6ea414	0.23304778
159	0xbf9b7167	-1.2143983
160	0x3dd10dd7	0.10207718
161	0xc01e4b7b	-2.473357
162	0xbe38ec0e	-0.18058798
163	0xbfb35c33	-1.4012512
164	0x3ef84952	0.4849344
165	0x3e36e9d6	0.17862639
166	0x3f3414b7	0.7034411
167	0xbf16e777	-0.5894694
168	0x3e77b142	0.24188712
169	0xbf81e264	-1.0147214
170	0xbf3b5dab	-0.731898
171	0xbf8b3a4f	-1.0877169
172	0x3ffc7f1a	1.9726288
173	0xbf86574c	-1.0495391
174	0xbe5097af	-0.20370363
175	0x3f4ec474	0.80768514
176	0x3fd983e2	1.6993372
177	0xbf79d167	-0.9758515
178	0xbfcf6f79	-1.6205894
179	0xbee23264	-0.4417907
180	0x3da9c775	0.082899965
181	0xbf9f872a	-1.2463124
182	0xbe3379ad	-0.17526884
183	0x3fba8ca2	1.4574168
184	0xbf05c176	-0.5224832
185	0x3f2763a7	0.6538643
186	0xbd57c6fc	-0.05268
187	0xbe8023ae	-0.2502722
188	0x3ec9fe7a	0.39451963
189	0x3e375488	0.1790334
190	0xbe8c833a	-0.27443868
191	0xbf5e7ba7	-0.8690743
192	0xbe117934	-0.14206392
193	0xbf834c7c	-1.0257716
194	0xbe79663a	-0.24355403
195	0xbf903107	-1.1264962
196	0xbf0f5c58	-0.5600028
197	0x3f45c11f	0.77247804
198	0x3fdcb65a	1.7243149
199	0xbf0275af	-0.5096082
200	0x3ee4d8bc	0.44696605
201	0x3ee5fca5	0.44919315
202	0x3ec0449b	0.37552342
203	0xbcb71c63	-0.022352403
204	0xbf88b6eb	-1.0680822
205	0xbe2885e1	-0.16457321
206	0x3ee020d0	0.43775034
207	0xbfe92d2d	-1.8216912
208	0x3dc80a2f	0.09767567
209	0xbe0544b8	-0.13014495
210	0xbffe2352	-1.9854529
211	0x3ed65614	0.41862547
212	0x3f36fa49	0.71475655
213	0x3e91fadb	0.285117
214	0x3f65be67	0.89743656
215	0xbe8e257f	-0.27762982
216	0x3f2c1309	0.67216545
217	0x3ed59bc2	0.41720396
218	0x3efbcfd9	0.49182013
219	0x3f5badb6	0.85811937
220	0x3dc4d400	0.09610748
221	0xbfb51f7e	-1.4150236
222	0x3ee063fb	0.4382628
223	0x3dd7ce29	0.10537369
224	0xc006d7ec	-2.1069288
225	0xbf596c71	-0.84931093
226	0x3e4376e9	0.1908833
227	0xbe8f0dfa	-0.2794035
228	0x3fc1802e	1.5117242
229	0xbe3354f6	-0.17512879
230	0x3f22a5d4	0.63534284
231	0xbfbaa864	-1.4582639
232	0xbf5f04fd	-0.87116987
233	0xbee71b7a	-0.4513815
234	0xbf1d2a11	-0.61392313
235	0xbfb383f9	-1.402465
236	0x3fe9c494	1.8263116
237	0x3f835a37	1.0261906
238	0xbf723528	-0.9461236
239	0xbf420cee	-0.7580098
240	0xbf999d16	-1.2001064
241	0xbe7b3421	-0.24531604
242	0xbfc6aaa9	-1.5520831
243	0x3fa9c273	1.3262466
244	0xbf179b9d	-0.5922182
245	0x3f1caa26	0.61197126
246	0xbf62ca02	-0.8858949
247	0xbf108aed	-0.56461984
248	0x3f938c8e	1.1527269
249	0x4017cff1	2.3720667
250	0xbf91e5a0	-1.1398201
251	0x3f71d9e7	0.9447312
252	0x4023edad	2.5613816
253	0xbeec2db2	-0.46128613
254	0x3facf58c	1.3512435
255	0x3f8f9a05	1.1218878

indicator_time_mixing.1.indicator_mixing.ln.weight f4 [8, 5]
0	0x3f6c4fcf	0.9230928
1	0x3f85e4c7	1.0460442
2	0x3f88beec	1.0683265
3	0x3f85d19d	1.0454594
4	0x3f775f96	0.9663023
5	0x3f7a9e17	0.97897476
6	0x3f5544b3	0.8330795
7	0x3f8179c7	1.0115288
8	0x3f70de16	0.94088876
9	0x3f7e80e1	0.99415404
10	0x3f73f91b	0.9530198
11	0x3f95e989	1.1711894
12	0x3f86dc08	1.0535898
13	0x3f8414bf	1.0318831
14	0x3f809550	1.0045567
15	0x3f7dc453	0.9912769
16	0x3f777728	0.96666193
17	0x3f827027	1.0190476
18	0x3f7232c1	0.94608694
19	0x3f7df74d	0.99205476
20	0x3f7c7e8f	0.98630613
21	0x3f565b09	0.8373266
22	0x3f83aa61	1.028637
23	0x3f7c8de3	0.98654
24	0x3f74e0b0	0.95655346
25	0x3f7abab8	0.9794116
26	0x3f692ef7	0.9108729
27	0x3f816cd9	1.0111343
28	0x3f7c161f	0.98471254
29	0x3f82ef0e	1.0229204
30	0x3f82cab1	1.0218107
31	0x3f9db9aa	1.2322285
32	0x3f82fe21	1.0233804
33	0x3f693a80	0.9110489
34	0x3f763d89	0.96187645
35	0x3f82c5d2	1.021662
36	0x3f917595	1.1364008
37	0x3f79fc3f	0.9765052
38	0x3f6e630f	0.931199
39	0x3f7f993a	0.9984318

indicator_time_mixing.1.indicator_mixing.ln.bias f4 [8, 5]
0	0x3d953502	0.07285501
1	0x3da375c5	0.07981447
2	0x3d9a3829	0.07530243
3	0x3db518b5	0.08842603
4	0x3dc3d99d	0.09562991
5	0x3cab61da	0.020920683
6	0x3cff1e14	0.031142272
7	0x3c69b194	0.014263529
8	0x3c088a2f	0.008333727
9	0x3bee6ff9	0.007276532
10	0x3d22d6ba	0.03975556
11	0xbcf006d9	-0.02930014
12	0x3d4f0fae	0.050552063
13	0x3d96b47c	0.073586434
14	0x3ca9e162	0.020737354
15	0x3a2e20e0	0.0006642472
16	0x3d3c330d	0.045947123
17	0x3cee475a	0.029086757
18	0x3b2d6110	0.002645556
19	0x3bc41e52	0.00598506
20	0x3bd72783	0.0065659895
21	0x3c9e16e6	0.019298028
22	0x3cdb3965	0.026760766
23	0x3c756770	0.014978275
24	0x3d2de3ec	0.04245369
25	0x3c3121ad	0.010811252
26	0x3cc3c9d2	0.023899946
27	0x3b8776f4	0.0041340534
28	0x3c9e0ab3	0.019292211
29	0xbc7ed38c	-0.015553366
30	0xbc8c5568	-0.017130569
31	0x3dbae284	0.09125236
32	0x3cb92a58	0.022603199
33	0xbd53ca1a	-0.05170641
34	0x3bc6a7a7	0.006062466
35	0xbceaeafd	-0.028676504
36	0xbc86c897	-0.01645307
37	0xbcbb5b5d	-0.022870714
38	0xbd3fc62d	-0.046819855
39	0xbd5efd6c	-0.0544409

indicator_time_mixing.1.time_mixing.ln.weight f4 [8, 5]
0	0x3f91076e	1.1330392
1	0x3f65b57f	0.89730066
2	0x3f9d692b	1.229772
3	0x3f681f28	0.9067254
4	0x3efdb9ce	0.4955582
5	0x3f85d179	1.0454551
6	0x3f87431a	1.0567353
7	0x3f904d00	1.1273499
8	0x3f81f87e	1.0153959
9	0x3f41f153	0.75758857
10	0x3fa5a03f	1.2939528
11	0x3f49d691	0.7884303
12	0x3fad049f	1.3517035
13	0x3f83b3fb	1.0289301
14	0x3f3eab54	0.74480176
15	0x3f89c029	1.0761768
16	0x3f707bff	0.93939203
17	0x3fc384c3	1.5274891
18	0x3f15cdaa	0.58516943
19	0x3da82163	0.08209493
20	0x3faeb1e7	1.3648041
21	0x3f486651	0.7828112
22	0x3f7f59d2	0.9974643
23	0x3f8ca5f1	1.0988141
24	0x3f0a81c6	0.5410427
25	0x3f8a8398	1.0821409
26	0x3f7a0e8f	0.97678465
27	0x3f8233cb	1.0172056
28	0x3f9fb85a	1.2478135
29	0x3f1668d4	0.58753705
30	0x3fa1bace	1.2635133
31	0x3f3d8ed9	0.74046093
32	0x3f67dc3e	0.9057044
33	0x3f8fd5f8	1.1237173
34	0x3f8394ee	1.0279825
35	0x3f68fead	0.91013604
36	0x3ff8a092	1.9424002
37	0x3f879910	1.0593586
38	0x3f630eb4	0.8869431
39	0x3f4281b8	0.75979185

indicator_time_mixing.1.time_mixing.ln.bias f4 [8, 5]
0	0x3da11a53	0.07866349
1	0xbd6b5b1a	-0.057459928
2	0x3e1ee9c1	0.15518858
3	0xbcaed7c5	-0.021343121
4	0x3f046b75	0.51726466
5	0xbda32c14	-0.079673916
6	0x3bc90990	0.006135173
7	0xbedef14d	-0.43543473
8	0xbbf2ff7e	-0.007415711
9	0x3ead69b9	0.33869722
10	0x3d9b7f0c	0.07592592
11	0xbd5a2967	-0.05326214
12	0x3e9639e8	0.29341054
13	0x3e4e28f0	0.20132804
14	0x3e8ebd54	0.2787882
15	0x3e0998eb	0.1343724
16	0xbd3f1667	-0.046652224
17	0x3f082bae	0.5319165
18	0xbd9abba7	-0.07555323
19	0xbf5b5fdb	-0.8569314
20	0xbe20832c	-0.15675038
21	0x3da43e39	0.080196805
22	0xbe586696	-0.21132883
23	0x3e04a2e0	0.12952757
24	0x3dc220d5	0.094789185
25	0x3d1be1c0	0.03805709
26	0xbdab26fc	-0.08357045
27	0xbcf1992b	-0.029491981
28	0x3e9b6e34	0.30357516
29	0xbe07b2f6	-0.13251862
30	0xbd5f1bad	-0.054469753
31	0x3e313c22	0.17308095
32	0xbd921762	-0.07133366
33	0x3d2d8c10	0.042369902
34	0x3f05ebd8	0.52312994
35	0x3e267fb7	0.16259657
36	0xbf7eb8b1	-0.99500567
37	0x3dac6bdd	0.08419011
38	0xbea7ebc1	-0.32797053
39	0xbe83734c	-0.25673902

indicator_time_mixing.1.time_mixing.U1.1 f4 [1, 2]
0	0xbe974d07	-0.29550955
1	0xbd0b8d8a	-0.03407053

indicator_time_mixing.1.time_mixing.U1.2 f4 [1, 3]
0	0xbeaaa88e	-0.33331722
1	0x3d16ae1a	0.03678713
2	0xbf40fca7	-0.75385517

indicator_time_mixing.1.time_mixing.U1.3 f4 [1, 4]
0	0xbd0ff151	-0.035142247
1	0xbe4722b0	-0.19446826
2	0x3e389339	0.18024911
3	0x3dff4222	0.12463786

indicator_time_mixing.1.time_mixing.U1.4 f4 [1, 5]
0	0xbd74a08f	-0.059723433
1	0xbeb1f73e	-0.34758943
2	0x3ea8360a	0.3285373
3	0x3e858523	0.26078138
4	0xbf08d8f7	-0.5345606

indicator_time_mixing.1.time_mixing.U1.5 f4 [1, 6]
0	0x3d8671be	0.06564663
1	0xbba99c6a	-0.0051761167
2	0xbd334b5a	-0.043773033
3	0xbe2b05d6	-0.16701445
4	0x3ca90ef5	0.020637015
5	0xbe1afe47	-0.15136062

indicator_time_mixing.1.time_mixing.U1.6 f4 [1, 7]
0	0xbd18719c	-0.03721772
1	0x3d7f7cf9	0.062375043
2	0x3ec9b083	0.3939248
3	0x3e69fcc1	0.22850324
4	0xbebe7d73	-0.37205085
5	0x3e5a0fad	0.21295042
6	0xbe185ad7	-0.14878403

indicator_time_mixing.1.time_mixing.U1.7 f4 [1, 8]
0	0xbe6ce91e	-0.23135802
1	0xbc2d9de3	-0.010596725
2	0x3d377519	0.044789407
3	0x3e71c29d	0.23609395
4	0xbdea9dae	-0.11455856
5	0x3e1248f9	0.1428565
6	0xbe6168c4	-0.22012621
7	0x3df45c98	0.11931723

indicator_time_mixing.1.time_mixing.U2.1 f4 [1, 2]
0	0xbc44dcf1	-0.012015567
1	0xbe820417	-0.25393745

indicator_time_mixing.1.time_mixing.U2.2 f4 [1, 3]
0	0xbac7bc7c	-0.0015238668
1	0x3e6af13f	0.2294359
2	0x3f2cfd05	0.6757358

indicator_time_mixing.1.time_mixing.U2.3 f4 [1, 4]
0	0x3d101190	0.035173
1	0x3eaa0941	0.33210185
2	0x3f3784fc	0.71687293
3	0xbe172ffe	-0.14764401

indicator_time_mixing.1.time_mixing.U2.4 f4 [1, 5]
0	0x3daadd24	0.083429605
1	0xbd34acf8	-0.04411027
2	0xbe8def2b	-0.27721533
3	0x3e01966f	0.12655042
4	0x3efda794	0.49541914

indicator_time_mixing.1.time_mixing.U2.5 f4 [1, 6]
0	0x3c5a75e1	0.013333769
1	0x3e708588	0.23488438
2	0x3f22365a	0.63364184
3	0xbe77fac6	-0.24216756
4	0xbf317972	-0.69325936
5	0x3e5ca5ca	0.21547619

indicator_time_mixing.1.time_mixing.U2.6 f4 [1, 7]
0	0x3dad207f	0.08453464
1	0x3e497e62	0.19677117
2	0x3f172cc3	0.59052676
3	0xbe17a263	-0.1480804
4	0xbf0f0911	-0.5587321
5	0xbc893216	-0.016747516
6	0xbd91fc24	-0.0712817

indicator_time_mixing.1.time_mixing.U2.7 f4 [1, 8]
0	0xbd363e24	-0.044492856
1	0x3e44917c	0.19196123
2	0x3f1f2a7c	0.621742
3	0xbe607195	-0.21918328
4	0xbf316a4d	-0.6930283
5	0x3d82630e	0.063665494
6	0xbe95b807	-0.29241964
7	0xbe87b01b	-0.26501545

indicator_time_mixing.1.fc.weight f4 [1, 5]
0	0xbe831ea6	-0.2560932
1	0x3e78b68a	0.24288383
2	0xbd94fdce	-0.07274972
3	0x3cb9364b	0.022608897
4	0x3cb16a38	0.021657094
