weights/stockmixer_L16_H64_M40_K4_E50_s3_ReLU.pt (torch, 630786 bytes, 93 tensors)

indicator_time_mixing.0.indicator_mixing.W1 f4 [5, 64]
0	0xbd48bc46	-0.049007677
1	0x3eb5275c	0.3538159
2	0xbf40f7cc	-0.7537811
3	0x3da72686	0.08161645
4	0x3f224bf5	0.6339715
5	0xbe92d4de	-0.2867803
6	0x3fd2c4ce	1.646631
7	0xbfc6b245	-1.5523154
8	0xbd53af6b	-0.051680963
9	0xbe9ca8d9	-0.3059757
10	0x3e6bbceb	0.23021285
11	0xbe967e8b	-0.2939342
12	0x3f5ee1f1	0.8706351
13	0x3e6cab0b	0.23112123
14	0x3f09b59a	0.53792727
15	0x3ed0381e	0.40667814
16	0x3e8f4859	0.27984884
17	0x3f66c158	0.9013877
18	0xbef9ddf9	-0.48802164
19	0xbfc68951	-1.5510656
20	0x3f82caba	1.0218117
21	0x3f05ae0c	0.522187
22	0xbe465b4c	-0.19370764
23	0x3d59398d	0.0530334
24	0x3f1052c6	0.563763
25	0x400da0f9	2.21295
26	0x3ff7640c	1.9327407
27	0xbf94d7b2	-1.1628325
28	0x3f7fc44a	0.9990889
29	0x3ef7d1c8	0.48402238
30	0x401a6d56	2.4129233
31	0xbdf5d72b	-0.12003931
32	0xbeed1011	-0.4630132
33	0xbe91cb9b	-0.2847565
34	0xbeb238c3	-0.3480893
35	0x3edb9810	0.42889452
36	0x3dd9572a	0.10612328
37	0xbd8a9ebe	-0.06768559
38	0x3efb65a3	0.4910098
39	0xbf665ea3	-0.89988154
40	0xbeb798e3	-0.3585883
41	0x3e2b811f	0.16748475
42	0x3e03f2cb	0.12885587
43	0x3f300ed4	0.68772626
44	0xbf6e261d	-0.93026906
45	0x3d82eaa1	0.06392408
46	0x3f3f7312	0.7478496
47	0x3f219c55	0.6312917
48	0xbee92d54	-0.45542395
49	0x4013811a	2.3047547
50	0xbec10447	-0.37698576
51	0xbe1deaec	-0.15421647
52	0x3f1e9962	0.61952794
53	0xc012dbde	-2.2946696
54	0x3fa0116f	1.250532
55	0xbe9566c1	-0.29179958
56	0x3f7c1d6e	0.98482406
57	0xbf9e4771	-1.2365552
58	0xbfd2fc04	-1.6483159
59	0x3f6c6ade	0.92350566
60	0xbf49bac2	-0.78800595
61	0xbf079453	-0.529607
62	0x3fb0bed9	1.3808242
63	0x3fb3d410	1.4049091
64	0xbd89abf8	-0.067222536
65	0xbec88033	-0.39160308
66	0x3ede72ac	0.43446863
67	0xbe9c48b1	-0.3052421
68	0xbfcbc868	-1.5920534
69	0x3fb2b078	1.3960104
70	0xbf82c7bc	-1.0217204
71	0x3f9b8f77	1.2153157
72	0x3f0330de	0.5124644
73	0xbca292d6	-0.019845407
74	0xbf8b6e1b	-1.0892977
75	0xbec32e3c	-0.38121212
76	0xbf2a15c7	-0.6643948
77	0xbf47db14	-0.7806866
78	0xbf67ea55	-0.9059194
79	0xbfed8596	-1.8556392
80	0x3e468a2c	0.19388646
81	0xbe484d43	-0.19560723
82	0xbdab240b	-0.08356484
83	0xbf40dec6	-0.75339925
84	0x3ffa5c22	1.9559367
85	0x3eb99671	0.3624759
86	0xbfb2ab90	-1.3958607
87	0xbe232b8f	-0.15934585
88	0x3ea86e57	0.32896683
89	0x3e95c4a0	0.29251575
90	0x3e4af9b8	0.19821823
91	0xbf82ddd5	-1.0223948
92	0x3f8b1882	1.0866854
93	0x3c5c3e90	0.01344265
94	0xbf35cb5c	-0.71013427
95	0xbe9943ee	-0.2993464
96	0xbf025516	-0.5091108
97	0xbf1d1331	-0.6135741
98	0xbef47d9a	-0.47752076
99	0xbe795086	-0.24347124
100	0x3ec0decb	0.37669978
101	0x3f6b1607	0.91830486
102	0xbeac0b0d	-0.3360218
103	0x3cff78f1	0.031185599
104	0xbe8a93ac	-0.2706579
105	0x3fd6033e	1.671974
106	0x3f5f1d23	0.87153834
107	0x3f486b0e	0.7828835
108	0xbfa5784c	-1.2927337
109	0x3fa2e29d	1.2725407
110	0xbfa22ef1	-1.2670575
111	0xbf3cd8b3	-0.73768157
112	0xbec35590	-0.38151217
113	0x3ebb365c	0.3656491
114	0x3f154914	0.58314633
115	0xbc1c6763	-0.009546134
116	0x400ef1e9	2.233515
117	0xbe7cfd8f	-0.247061
118	0xbf3042a2	-0.68851674
119	0xc028c4e1	-2.6370165
120	0xbee8fbd0	-0.45504618
121	0x3dbe25f6	0.09284584
122	0x3e236676	0.15957054
123	0x3e96ec04	0.2947694
124	0x3d2b49bf	0.041818377
125	0x4016dea3	2.3573387
126	0xbf463e9c	-0.77439284
127	0x3e4b8725	0.19875772
128	0xbdef74c7	-0.116921954
129	0x3e92c8ab	0.28668723
130	0x401e1a34	2.4703493
131	0xbf86320e	-1.0484025
132	0x3fd2c392	1.6465933
133	0xbf79e950	-0.9762163
134	0xbf01072d	-0.50401574
135	0xbf5551a2	-0.83327687
136	0xbf81c651	-1.0138646
137	0xbf985242	-1.1900103
138	0x3edaca79	0.427326
139	0x3ed4b35d	0.41543093
140	0x3e478624	0.19484764
141	0xbce9b25e	-0.028527435
142	0xbdaf5cb5	-0.08562604
143	0xbf961135	-1.1724001
144	0xbf49456e	-0.78621566
145	0x3f8620ef	1.04788
146	0x3fa63be0	1.2987022
147	0x3e3fa6df	0.18716
148	0x3f987bee	1.191282
149	0xc03614e4	-2.845025
150	0xbecd852d	-0.40140668
151	0xbf9e5ce4	-1.2372098
152	0xbed1bb3b	-0.40963158
153	0xbceb86fa	-0.028750885
154	0xbef295fe	-0.4738006
155	0x3def314a	0.11679323
156	0xbf8f32f8	-1.118743
157	0xbeaa96ab	-0.33318076
158	0xbeb9266f	-0.36162135
159	0x402cce2a	2.7000833
160	0xbeec624e	-0.4616875
161	0xbf52de83	-0.82370776
162	0xbfb6bd9f	-1.4276618
163	0xbfbe62d2	-1.4873908
164	0x3ed76b08	0.42073846
165	0xbd942bb2	-0.07234897
166	0xbfbd55d0	-1.4791813
167	0xbd94b3e5	-0.07260875
168	0xbcdc4263	-0.026887124
169	0x3f64b11b	0.8933274
170	0x3b3481a5	0.0027543094
171	0xbf65c066	-0.897467
172	0x3df703aa	0.12061246
173	0xbe297de8	-0.16551936
174	0xbf01f9d4	-0.5077183
175	0xbf906478	-1.1280661
176	0xbf27cfdf	-0.6555156
177	0xbfd812c7	-1.688073
178	0xbf8633a4	-1.048451
179	0x3e9af229	0.3026288
180	0x4010d18f	2.2627904
181	0xbfac1d01	-1.3446351
182	0x4016acdf	2.3543012
183	0x3fbece8e	1.4906785
184	0xbeb62b95	-0.35580125
185	0xbf864a45	-1.0491415
186	0xbfc9cabb	-1.5764993
187	0xbf1441b6	-0.57912767
188	0x3f23f99e	0.6405276
189	0xbcd0a182	-0.025467638
190	0xbeaae5f2	-0.3337856
191	0x3ffe7eb2	1.9882414
192	0x3ea44d5f	0.3209028
193	0x3f128f13	0.57249564
194	0x3e3ccd6f	0.18437742
195	0x3fcd2c66	1.6029174
196	0x3f95a666	1.1691406
197	0xbf32ff90	-0.6992121
198	0x3ef796a5	0.4835712
199	0x3fdc7dce	1.7225893
200	0x3f1dc171	0.61623293
201	0xbf9083bf	-1.1290206
202	0xbfc2e4fa	-1.5226128
203	0xbf37abcd	-0.7174652
204	0xbec1a7c8	-0.3782332
205	0x3f9771c9	1.18316
206	0xbf1a56bd	-0.602886
207	0x40004c82	2.0046697
208	0xbff202f3	-1.890715
209	0xbef9b5cb	-0.4877151
210	0xbed5a6bb	-0.41728768
211	0x3e50b296	0.20380625
212	0x3f9b9676	1.2155292
213	0x3fb14297	1.3848447
214	0xbf07e64c	-0.5308578
215	0x3e844557	0.25834152
216	0xbf1eccdd	-0.62031347
217	0x3ef815ad	0.48454037
218	0xbeee2c34	-0.465181
219	0xbf096c72	-0.536811
220	0x402c463e	2.6917872
221	0x3ec4e9fa	0.3845976
222	0xbde750ef	-0.11294734
223	0xbeed029b	-0.4629105
224	0x3fad63a6	1.3546035
225	0x3f912229	1.133855
226	0xbeab5114	-0.33460295
227	0x3fb356e1	1.4010888
228	0x3ff7dc48	1.93641
229	0xbea0c035	-0.31396642
230	0xbf8910ad	-1.0708214
231	0x3f94805f	1.1601676
232	0xbf8debd8	-1.1087599
233	0xbebab89b	-0.36468968
234	0xbf5cc741	-0.8624154
235	0xbe27b1f4	-0.16376477
236	0x3e5f739f	0.2182145
237	0xbe59632e	-0.2122924
238	0xbee22cef	-0.44174907
239	0xbfcc3df0	-1.5956402
240	0xbf4088e6	-0.7520889
241	0xbff03e35	-1.8768984
242	0x3eb2ab39	0.34896258
243	0x3f0f12a2	0.55887806
244	0x3f6c6ffa	0.9235836
245	0x3fd355bf	1.6510543
246	0xbfb2128c	-1.391191
247	0x3fdc3ab2	1.7205412
248	0x3f8e2aa2	1.110676
249	0x3edfe0b6	0.43726128
250	0xbd8c6e73	-0.06857004
251	0xbf898619	-1.0744048
252	0xbfa4ffbe	-1.2890546
253	0x3f40fd71	0.7538672
254	0x3d1b9db5	0.037992198
255	0x3f39e5a9	0.7261606

indicator_time_mixing.0.indicator_mixing.W2 f4 [64, 5]
0	0xc010e584	-2.2640085
1	0x3f7c16a9	0.98472077
2	0xbee9d896	-0.45673054
3	0xbeb1cd35	-0.34726873
4	0xbea0bc59	-0.31393698
5	0xbf4aac82	-0.79169476
6	0xbf87c5f6	-1.0607288
7	0xbf07cad0	-0.5304384
8	0x3e78e44e	0.24305841
9	0x3e92758f	0.28605315
10	0x3e5ed2a5	0.21760042
11	0xbe9df9e7	-0.30854723
12	0x40050a0c	2.0787382
13	0xbe2f4e96	-0.17119822
14	0xbf1b5a53	-0.606847
15	0xbfb8c059	-1.44337
16	0xbf4c00a4	-0.7968848
17	0xbd582468	-0.052769095
18	0xbf124b8a	-0.57146513
19	0xbfdcf345	-1.726174
20	0x3efc89e5	0.49323955
21	0xbef4bcd9	-0.4780033
22	0xbf9f2443	-1.2432941
23	0xbe3768b5	-0.17911036
24	0x3c42fd2f	0.011901184
25	0x401b56cd	2.427173
26	0x400f9751	2.2436106
27	0xbf28c241	-0.6592141
28	0x3eb28a62	0.34871203
29	0xbef97745	-0.48723808
30	0x3e914426	0.28372306
31	0x3f331975	0.6996072
32	0x3f0e8d6a	0.5568453
33	0xbefcbcbe	-0.4936275
34	0xbe204339	-0.15650643
35	0xbef50e1b	-0.47862324
36	0x3ef540c6	0.4790098
37	0x3eee1765	0.46502224
38	0x3e56c25e	0.20972583
39	0xbe3ba2d8	-0.18323839
40	0x3f005bb9	0.5013996
41	0x3ee4aea7	0.446645
42	0x40069cf2	2.1033292
43	0xbf8d1e02	-1.1024783
44	0xbf5e1e24	-0.8676474
45	0x3f6fbf79	0.9365154
46	0xbecc0816	-0.3984992
47	0x3e7b200f	0.24523948
48	0x3f117d9c	0.5683229
49	0xbfaa39e0	-1.3298912
50	0x3f10e6fe	0.56602466
51	0xbf7b6c64	-0.98212266
52	0xbeb5a9d3	-0.35481128
53	0x3fab7ec4	1.3398061
54	0x3f2e760c	0.68148875
55	0x3ff33fb9	1.9003822
56	0x3f31cacb	0.6945006
57	0x402222d9	2.533377
58	0x3ac8a2d5	0.0015307317
59	0x3f6d8180	0.92775726
60	0x3faefdef	1.3671244
61	0x3edec6c0	0.4351101
62	0x3cd5a5ff	0.02608013
63	0x3fa3496a	1.2756779
64	0xbf427514	-0.759599
65	0xbef18948	-0.4717505
66	0x3fb78217	1.4336575
67	0xbf5c0ebf	-0.8596
68	0xbee4e8e9	-0.44708946
69	0xbe729347	-0.23688994
70	0x3fdeba71	1.7400647
71	0xbf588800	-0.8458252
72	0xbf144257	-0.57913727
73	0xbeaa2109	-0.3322833
74	0xbf058b1c	-0.5216539
75	0x3e9706f6	0.29497498
76	0x3f1655f3	0.587249
77	0x3f1cea04	0.6129458
78	0x3fdd9f84	1.7314305
79	0x3f598766	0.84972227
80	0x3fc49881	1.535904
81	0x3e463161	0.19354774
82	0xbf2ddb5e	-0.6791285
83	0x3fc0697e	1.5032194
84	0xbfe2d8ea	-1.7722447
85	0x3f732746	0.949818
86	0xbede22d0	-0.43385935
87	0xbedaf4fa	-0.42765027
88	0x3eb8bd4b	0.3608192
89	0x3fa6676b	1.3000311
90	0xbfa289a6	-1.2698257
91	0xbdf6f6d1	-0.12058795
92	0x3f71387b	0.9422681
93	0xbf6c547d	-0.9231642
94	0x3f52be72	0.82321846
95	0xbf00d7c1	-0.50329214
96	0xbffa605e	-1.9560659
97	0x3ec07b61	0.3759413
98	0xbf834caa	-1.0257771
99	0xbf3ad150	-0.72975636
100	0x3e94f0fc	0.29090106
101	0x3ff8b6e5	1.9430815
102	0x3edfd16d	0.43714467
103	0x3fdb8a05	1.7151495
104	0xbee48cf4	-0.4463879
105	0x3e4238f9	0.18967046
106	0x3e41c225	0.18921717
107	0x3eb7e5d2	0.35917526
108	0x3f6fbf38	0.9365115
109	0xbfa5b108	-1.2944651
110	0x3f340bdf	0.70330614
111	0xbf866569	-1.0499698
112	0x3eae497c	0.3404044
113	0x3f27f6ca	0.65610945
114	0xbfa4481f	-1.283451
115	0xbf23fa41	-0.6405373
116	0x3f1f3ae0	0.6219921
117	0x3dae66a2	0.085156694
118	0xbfc230b5	-1.5171114
119	0xbeef12c2	-0.46694
120	0x3f0f345c	0.5593927
121	0xbf54a458	-0.8306327
122	0xbf83ae35	-1.0287539
123	0x3ee8b67e	0.4545173
124	0xbe441ae2	-0.1915088
125	0x3f57782e	0.84167755
126	0xbf3bfcbc	-0.7343252
127	0x3e82afaa	0.25524646
128	0xbe17a840	-0.14810276
129	0xbf14517b	-0.5793683
130	0x3eb73980	0.35786057
131	0xc00ab177	-2.1670816
132	0x3e181962	0.14853433
133	0x3f41572d	0.75523645
134	0xbf95cfd8	-1.1704054
135	0x3f2ac0fd	0.66700727
136	0x3c0d4b5c	0.008623924
137	0x3e9eca43	0.31013688
138	0x3ffb420c	1.9629531
139	0xbf5daeab	-0.8659465
140	0xbed4fe1e	-0.41600126
141	0xbf6049aa	-0.876124
142	0x3fc63a84	1.5486608
143	0x3ec1533e	0.3775882
144	0xbf327363	-0.69707316
145	0x3f312c68	0.69208384
146	0xbfa258e9	-1.2683383
147	0x3fc2f734	1.523169
148	0x3efeca4d	0.49763718
149	0xbe85f70d	-0.26165047
150	0xbdcc0194	-0.099612385
151	0x3fa7caa7	1.310872
152	0xbefb63a9	-0.49099472
153	0x3f25ae9f	0.64719576
154	0xbec1b47f	-0.3783302
155	0x3f08e29d	0.53470784
156	0x3fb2c68d	1.3966843
157	0xbf6120b8	-0.8794055
158	0xbe92d782	-0.28680044
159	0xbf718aa2	-0.9435216
160	0x3f06cedf	0.5265941
161	0xbcf72efb	-0.03017377
162	0x3f752503	0.957596
163	0xbffce4a9	-1.9757282
164	0x3ce6a8c5	0.028156647
165	0x3f90fbf6	1.1326892
166	0x3d8b496c	0.068011135
167	0x3f93c63c	1.1544871
168	0x3ea379a6	0.31928748
169	0xbf83e261	-1.030346
170	0x3f58556c	0.84505343
171	0x3dc36d0f	0.09542286
172	0xbfd83776	-1.6891925
173	0x3ed35528	0.41275907
174	0xbfed142f	-1.8521785
175	0xbd5c733f	-0.053820845
176	0xbec76a59	-0.38948324
177	0x3f62673a	0.8843876
178	0x40115d4e	2.2713199
179	0x3fae65c5	1.3624808
180	0x3ea65b29	0.32491425
181	0xbfbcc7b8	-1.4748449
182	0xbf53a06b	-0.82666653
183	0xbfa03702	-1.2516787
184	0x3f767bf8	0.9628291
185	0x3fc28ab8	1.5198584
186	0xbf201bff	-0.6254272
187	0x3ec9a464	0.39383233
188	0x3fb16d5a	1.3861496
189	0xbf807d24	-1.003819
190	0x3f2ed90e	0.6829995
191	0xbf219a2b	-0.63125867
192	0x3ec9b768	0.3939774
193	0x3f29ab49	0.66276985
194	0x3ed69dcf	0.41917273
195	0x3e0760cd	0.1322052
196	0x3fb9bafb	1.4510187
197	0xbf58ea03	-0.84732074
198	0x3fbfdbd5	1.4988962
199	0xbff56af0	-1.917326
200	0x3e5e4dc7	0.21709357
201	0x3e58adcf	0.21160053
202	0x3ea3dec3	0.3200589
203	0x3dd3f3a5	0.10349206
204	0xbf4a72a6	-0.7908119
205	0x3e7d4446	0.24733075
206	0xbfecc665	-1.8498045
207	0xbb1c94cc	-0.00238924
208	0xbfb9ccba	-1.4515603
209	0xbf00ff1b	-0.5038926
210	0xbe45113d	-0.19244857
211	0x40204f7a	2.5048509
212	0xbef5a8af	-0.47980258
213	0x3bdecc15	0.006799231
214	0xbeb78342	-0.3584233
215	0x401d3a99	2.4567015
216	0xbe65d462	-0.22444299
217	0xbf601fa1	-0.8754826
218	0x3f57eb12	0.84343064
219	0x3deb3cd4	0.114862114
220	0x3cdbc50b	0.026827356
221	0xc04c3f72	-3.1913724
222	0x3e413170	0.18866515
223	0xbfb09c71	-1.3797742
224	0x3d8376d2	0.064191476
225	0x3ffd7638	1.9801702
226	0x3f580960	0.84389305
227	0xbf21b0f3	-0.6316063
228	0x3dbaea32	0.091267005
229	0xbf9c5bb8	-1.221549
230	0x3dea00bd	0.11425922
231	0x3f74b6a3	0.9559118
232	0x3fa7844c	1.3087249
233	0xbea5427c	-0.32277286
234	0x3f3b3830	0.7313261
235	0xbfa26357	-1.2686566
236	0x3e020854	0.1269849
237	0x3e82aff4	0.25524867
238	0xbe8e9982	-0.27851492
239	0x3ec2894d	0.37995377
240	0xbeb16a87	-0.34651586
241	0x3e0b0b9b	0.13578646
242	0x3fa1501b	1.2602571
243	0x3fa8c14e	1.3183992
244	0xbf2d4553	-0.67683905
245	0xbf198336	-0.59965837
246	0x3f69dadc	0.9134958
247	0x3f35580f	0.7083749
248	0x3f884179	1.0644981
249	0x3fc9b236	1.5757511
250	0x3eca5de7	0.39524767
251	0x3f1226ae	0.5709027
252	0x3de3cdd9	0.11123247
253	0xbeed8ee9	-0.46398094
254	0xc006ddf7	-2.1072977
255	0x3f428087	0.7597737

indicator_time_mixing.0.indicator_mixing.ln.weight f4 [16, 5]
0	0x3f776da8	0.966517
1	0x3f7e0f89	0.99242455
2	0x3f7fefc5	0.99975234
3	0x3f7f1f4c	0.9965713
4	0x3f7f7f95	0.9980405
5	0x3f6f21d7	0.9341101
6	0x3f7f5b7d	0.99748975
7	0x3f8288c6	1.019799
8	0x3f7b6f85	0.9821704
9	0x3f802679	1.0011741
10	0x3f809cc3	1.004784
11	0x3f7f30de	0.9968394
12	0x3f7ce09e	0.9878024
13	0x3f802e8d	1.0014206
14	0x3f7f9187	0.9983143
15	0x3f8103f4	1.0079331
16	0x3f7cf469	0.9881044
17	0x3f801920	1.0007668
18	0x3f828e7d	1.0199734
19	0x3f7d1436	0.98858964
20	0x3f79821f	0.97464174
21	0x3f7b1af2	0.9808799
22	0x3f8050c6	1.002465
23	0x3f7e3647	0.9930157
24	0x3f7fe024	0.99951386
25	0x3f76353a	0.9617497
26	0x3f82cdbb	1.0219034
27	0x3f8096db	1.0046037
28	0x3f72164d	0.9456528
29	0x3f810d5e	1.0082204
30	0x3f79ca3f	0.9757423
31	0x3f784dbd	0.9699362
32	0x3f81c203	1.0137333
33	0x3f7de457	0.99176544
34	0x3f7ef0d7	0.9958624
35	0x3f630d14	0.8869183
36	0x3f89d691	1.0768605
37	0x3f834f88	1.0258646
38	0x3f782107	0.96925396
39	0x3f7c6cc5	0.9860347
40	0x3f7b5a11	0.98184305
41	0x3f7a6e09	0.9782415
42	0x3f806fa9	1.0034076
43	0x3f7c9e7c	0.9867933
44	0x3f802ae1	1.0013086
45	0x3f7bb754	0.9832661
46	0x3f7eb40e	0.9949349
47	0x3f803012	1.001467
48	0x3f7eb458	0.9949393
49	0x3f7ec2d9	0.99516064
50	0x3f6d3791	0.9266291
51	0x3f7ab134	0.9792664
52	0x3f83876e	1.0275705
53	0x3f78b7bf	0.97155374
54	0x3f7ffd4b	0.9999587
55	0x3f81e526	1.0148056
56	0x3f7f305f	0.99683183
57	0x3f7f6309	0.9976049
58	0x3f82f26c	1.0230231
59	0x3f7e1a1d	0.99258596
60	0x3f77f580	0.9685898
61	0x3f7ea53e	0.9947089
62	0x3f7ea629	0.9947229
63	0x3f7b9144	0.9826853
64	0x3f804f99	1.0024291
65	0x3f7b8c4e	0.9826096
66	0x3f813631	1.0094663
67	0x3f806041	1.0029374
68	0x3f70ef1c	0.9411485
69	0x3f805b4d	1.0027863
70	0x3f795847	0.97400326
71	0x3f81ddee	1.0145853
72	0x3f7f0755	0.9962056
73	0x3f7a36a5	0.9773963
74	0x3f807b3a	1.0037606
75	0x3fae1915	1.3601404
76	0x3f7d8c99	0.9904266
77	0x3f6e9c4d	0.93207246
78	0x3f99a22c	1.2002616
79	0x3f77533b	0.96611375

indicator_time_mixing.0.indicator_mixing.ln.bias f4 [16, 5]
0	0xbc531a9a	-0.01288476
1	0x394e5cde	0.00019680287
2	0x3c2b9b8f	0.0104741
3	0x3b646722	0.003485151
4	0x3a0ef766	0.00054537354
5	0x3950eb2b	0.00019924033
6	0x3c7de450	0.0154963285
7	0x3a4ce505	0.0007816109
8	0x3d213dc4	0.039365545
9	0x3c28823d	0.0102849575
10	0xbbf87143	-0.007581861
11	0xbb886207	-0.0041620764
12	0xbbee7ad9	-0.007277828
13	0xbc5ef84a	-0.013609001
14	0xbb3dcfcd	-0.002896297
15	0xb9586be2	-0.00020639555
16	0x3bf36425	0.0074277096
17	0xb9caf85e	-0.0003871349
18	0xbac3017a	-0.0014877759
19	0x3aced8ba	0.0015781142
20	0xbab6c7bf	-0.0013945027
21	0x3c809dba	0.01570021
22	0x3b88588f	0.0041609476
23	0x3b94733d	0.004530339
24	0xba8e3f80	-0.0010852665
25	0x3c11d73a	0.008901412
26	0xbc17a628	-0.009255923
27	0x3c024eb8	0.007953338
28	0x3ba08542	0.004898698
29	0x3b9e9b4e	0.004840291
30	0xbb6e2b80	-0.0036341846
31	0x3cce1b30	0.025159448
32	0x3c43bd77	0.011947027
33	0x3c2ee9dd	0.010675875
34	0x3ac8aa3b	0.0015309522
35	0xbc1b4631	-0.009477184
36	0xbcbfe50e	-0.023424651
37	0xbbc8af03	-0.0061243786
38	0x3c9ad7d4	0.018901743
39	0x3cd083a7	0.025453402
40	0x3b4a1531	0.0030835385
41	0x3cc9a922	0.024616782
42	0x3c1b1bb3	0.009467053
43	0x3a86e71b	0.0010292263
44	0x3b05c37a	0.0020410703
45	0xbc227fc5	-0.009918158
46	0x38cc7e53	9.751008e-05
47	0x3c048a5b	0.008089627
48	0xbc66b520	-0.0140812695
49	0xbb2139cb	-0.0024601098
50	0xbc9873a6	-0.018609833
51	0x3cfd3503	0.030909067
52	0x3cb22256	0.021744888
53	0x3d1874f0	0.037220895
54	0x3c476f8a	0.012172589
55	0xba7cdb20	-0.0009645689
56	0xbb8281c1	-0.003982753
57	0xbb93c44c	-0.0045094844
58	0xbc8f1d35	-0.017469982
59	0xbbd58a12	-0.0065167034
60	0xbc2a4720	-0.010392934
61	0xbb3bef8c	-0.0028676717
62	0xbb030950	-0.0019994564
63	0xbc09d360	-0.008412212
64	0xb9b115e7	-0.0003377639
65	0x3bb0cbdc	0.0053953957
66	0xbb7ac7e6	-0.0038266121
67	0x3c06d1a5	0.008228694
68	0xba766e2a	-0.0009400571
69	0x3b854818	0.004067432
70	0x3c0a7dbf	0.008452832
71	0xb8e28280	-0.00010800827
72	0x3b4b6339	0.0031034483
73	0x3d0fd889	0.035118613
74	0x3c3b4f05	0.011432414
75	0x3dfb3fca	0.12268026
76	0xbc3df26d	-0.011593443
77	0xbd9fdfce	-0.07806359
78	0xbdca7e8a	-0.09887417
79	0xbcb3ccde	-0.021948274

indicator_time_mixing.0.time_mixing.ln.weight f4 [16, 5]
0	0x3f7ee4cd	0.9956787
1	0x3f8260a7	1.0185746
2	0x3f7f6cda	0.9977547
3	0x3fbaf9f8	1.4607534
4	0x3f7d7fa6	0.990229
5	0x3f691e60	0.91061974
6	0x3f8827b5	1.0637118
7	0x3f896629	1.0734302
8	0x3f89c1c5	1.0762259
9	0x3f8148b3	1.0100311
10	0x3f62a85a	0.88538134
11	0x3f89e690	1.0773487
12	0x3f8ec182	1.1152804
13	0x3f8e9ead	1.1142174
14	0x3f804704	1.0021672
15	0x3f71cddb	0.94454736
16	0x3f82c290	1.0215626
17	0x3f82d1a3	1.0220226
18	0x3f878563	1.0587581
19	0x3f81bea5	1.0136305
20	0x3f779807	0.9671635
21	0x3f845ee6	1.0341461
22	0x3f808c8b	1.004289
23	0x3f945efb	1.1591486
24	0x3f820289	1.0157024
25	0x3f7e2a0f	0.99282926
26	0x3f874e17	1.0570706
27	0x3f8037ca	1.0017025
28	0x3f8e0c25	1.1097456
29	0x3f8236b3	1.0172943
30	0x3f834598	1.0255613
31	0x3f8213c6	1.0162284
32	0x3f7d0e80	0.9885025
33	0x3f8b7742	1.089577
34	0x3f81f42f	1.0152644
35	0x3f7da5b0	0.99080944
36	0x3f8649a7	1.0491227
37	0x3f8155e3	1.0104336
38	0x3f70489a	0.9386078
39	0x3f813301	1.009369
40	0x3f7695e6	0.96322477
41	0x3f86d5db	1.0534014
42	0x3f81c092	1.0136893
43	0x3f92a179	1.1455528
44	0x3f812160	1.008831
45	0x3f782dd8	0.9694495
46	0x3f8648cf	1.049097
47	0x3f82b073	1.0210098
48	0x3f8b11ba	1.0864785
49	0x3f82e24f	1.0225314
50	0x3f7cbcf6	0.9872583
51	0x3f865f24	1.0497785
52	0x3f83528b	1.0259565
53	0x3f8b4b5a	1.088237
54	0x3f8263d4	1.0186715
55	0x3f5f9a39	0.873447
56	0x3f89a44c	1.0753264
57	0x3f8667ac	1.0500388
58	0x3f8ccdb1	1.1000272
59	0x3f844961	1.0334893
60	0x3f642b59	0.89128643
61	0x3f87ed1b	1.0619234
62	0x3f89dadf	1.0769919
63	0x3f9200fa	1.1406548
64	0x3f82cee0	1.0219383
65	0x3f71130f	0.94169706
66	0x3f850c2e	1.0394342
67	0x3f889b20	1.067234
68	0x3fb89028	1.4418993
69	0x3f7b92bf	0.9827079
70	0x3f83ade1	1.0287439
71	0x3f779eed	0.96726876
72	0x3f82b412	1.0211203
73	0x3fd41770	1.6569653
74	0x3f6cc91e	0.9249438
75	0x3f86190b	1.0476393
76	0x3f6e3467	0.9304871
77	0x3f92097e	1.1409147
78	0x3ff40480	1.9063873
79	0x3f6a8d6e	0.91622055

indicator_time_mixing.0.time_mixing.ln.bias f4 [16, 5]
0	0xbd0406b8	-0.03223297
1	0x3b1ec4d8	0.0024226215
2	0x3d778024	0.06042494
3	0x3cd5f5e7	0.026118232
4	0xbbca9cc2	-0.006183238
5	0xbd7bcb53	-0.061473202
6	0xbc3804ce	-0.011231614
7	0x3db57513	0.08860221
8	0x3d5b7f38	0.053588122
9	0xbb83acef	-0.004018418
10	0xbdb4486e	-0.08802877
11	0xbcb34e35	-0.021887878
12	0x3deafd69	0.114741154
13	0x3ddf6cd3	0.109094284
14	0x3c0b69c5	0.008509104
15	0xbd1b7e27	-0.037962105
16	0x3b1de986	0.002409549
17	0x3d9e9b3e	0.07744454
18	0x3d325f75	0.043548066
19	0xbbc5ed00	-0.0060402155
20	0xbce38b0c	-0.027776264
21	0xbcf36d13	-0.029715097
22	0x3dabb8a1	0.083848245
23	0x3d829b69	0.063772984
24	0x3a5afe5b	0.0008353942
25	0xbc5bd9e6	-0.01341865
26	0xbd272563	-0.04080714
27	0x3d6e8d49	0.05824021
28	0x3d9464c1	0.0724578
29	0x3c841273	0.016122079
30	0xbc88e60e	-0.016711261
31	0xbcd4e6ea	-0.025989015
32	0x3d8a85b7	0.06763785
33	0x3d7fb70a	0.06243042
34	0x3b0ac64c	0.0021175323
35	0xbd0c327c	-0.034227833
36	0xbd81c0ec	-0.06335625
37	0x3dba0121	0.090822466
38	0x3dbaacc2	0.09114982
39	0x3c2aa308	0.010414846
40	0xbce99ac9	-0.02851619
41	0xbb699d8e	-0.0035646888
42	0x3d9ee782	0.07759
43	0x3d89affc	0.067230195
44	0xbbbcd8a7	-0.0057631317
45	0xbc8eab0d	-0.017415548
46	0xbba6be64	-0.0050886143
47	0x3d7e09f0	0.062021196
48	0x3da9460e	0.08265315
49	0xbbde9c86	-0.0067935614
50	0xbc523fa7	-0.012832559
51	0xbbc3880d	-0.0059671463
52	0x3d6de90f	0.05808359
53	0x3de8557e	0.11344431
54	0xbb99a5d4	-0.0046889577
55	0xbd94ebeb	-0.0727156
56	0x3c46899e	0.012117771
57	0x3d653d2c	0.05596654
58	0x3d4df6e0	0.050284266
59	0xbc07bad3	-0.008284288
60	0xbd444a0c	-0.04792218
61	0x3c558e48	0.013034411
62	0xbb84b91c	-0.004050387
63	0xbc9d985b	-0.019237688
64	0x3b0f35bf	0.0021852104
65	0xbcc59285	-0.024117718
66	0x3ce9cb9f	0.028539477
67	0xbd0eeeab	-0.03489558
68	0xbda0aed9	-0.078458495
69	0x3d0f6021	0.035003785
70	0xbc953581	-0.01821399
71	0x3d39f392	0.045398302
72	0xbd5c75fd	-0.05382346
73	0xbe485bf1	-0.19566323
74	0x3d543425	0.05180754
75	0xbd387c34	-0.045040324
76	0x3de46305	0.11151699
77	0xbcbe8088	-0.023254648
78	0xbdc0b3f0	-0.0940932
79	0x3d326fbe	0.043563597

indicator_time_mixing.0.time_mixing.U1.1 f4 [1, 2]
0	0xb91b06f3	-0.0001478454
1	0xb9a0c76c	-0.0003066616

indicator_time_mixing.0.time_mixing.U1.2 f4 [1, 3]
0	0xbbc60955	-0.006043593
1	0x3be7e0a5	0.0070763403
2	0x3a8784c4	0.001033925

indicator_time_mixing.0.time_mixing.U1.3 f4 [1, 4]
0	0xbd31fb77	-0.043452706
1	0x3c333ea4	0.010940228
2	0x3ccca012	0.024978671
3	0x3cb5d074	0.022194125

indicator_time_mixing.0.time_mixing.U1.4 f4 [1, 5]
0	0x3c6d32b6	0.014477422
1	0x3bd4ede5	0.006498086
2	0xbcb6c05b	-0.02230852
3	0xbcab177a	-0.020885218
4	0xbcab960e	-0.020945575

indicator_time_mixing.0.time_mixing.U1.5 f4 [1, 6]
0	0xbb31d71f	-0.0027136279
1	0xbb29e763	-0.002592527
2	0xbbac8a11	-0.0052654822
3	0xbbf3c63a	-0.007439402
4	0x3c04a7b2	0.008096622
5	0x3c86a667	0.016436769

indicator_time_mixing.0.time_mixing.U1.6 f4 [1, 7]
0	0xbbaabe52	-0.005210676
1	0xbba875ab	-0.0051409802
2	0x3b979bb2	0.0046267146
3	0x3bbaf920	0.0057059675
4	0xbafaf16d	-0.0019145437
5	0x3c398e9f	0.011325507
6	0xbc91496c	-0.017735206

indicator_time_mixing.0.time_mixing.U1.7 f4 [1, 8]
0	0x3c9aa0f9	0.018875586
1	0xbc46fb07	-0.0121448105
2	0xbcb5f056	-0.022209328
3	0xbd71ac92	-0.059002466
4	0xbd9cbb60	-0.076529264
5	0xbdb0f8af	-0.08641183
6	0xbd94085f	-0.07228159
7	0xbd724721	-0.059149865

indicator_time_mixing.0.time_mixing.U1.8 f4 [1, 9]
0	0xbc0edea2	-0.008720072
1	0x3c749376	0.014927736
2	0x3bafd77f	0.0053662653
3	0xbc68f8c9	-0.014219471
4	0x3c0c5bed	0.008566839
5	0xbad87933	-0.0016515612
6	0xbb99162a	-0.0046718316
7	0x3b43d386	0.0029880716
8	0xbbf3e373	-0.0074428855

indicator_time_mixing.0.time_mixing.U1.9 f4 [1, 10]
0	0xbcafd536	-0.021463972
1	0x3ca84371	0.020539971
2	0xbb8a3709	-0.0042179865
3	0xbc121515	-0.008916159
4	0x3af2f145	0.0018535039
5	0xbc92f7eb	-0.017940482
6	0xbc447e73	-0.0119930385
7	0xbaf68122	-0.0018806795
8	0x3c3f42eb	0.011673669
9	0x3c828a34	0.015935041

indicator_time_mixing.0.time_mixing.U1.10 f4 [1, 11]
0	0x3bd05c79	0.00635868
1	0x3be1cf84	0.006891193
2	0xbb9c7103	-0.0047742142
3	0xbbb7633c	-0.0055965465
4	0x3b68e200	0.0035535097
5	0x3bc99ec8	0.0061529614
6	0x3d1bdb60	0.03805101
7	0x3c791585	0.015202885
8	0xbc1bf9c0	-0.009519994
9	0xbd2b7927	-0.041863587
10	0xbc81dcaa	-0.015852291

indicator_time_mixing.0.time_mixing.U1.11 f4 [1, 12]
0	0xbcc66461	-0.024217786
1	0xbc8f9a25	-0.017529557
2	0x393b5ef8	0.00017869088
3	0x3c399190	0.011326209
4	0x3c97ec78	0.018545374
5	0x3ab4eb6f	0.0013803075
6	0xbbb175c1	-0.0054156487
7	0x3c2c0b8a	0.010500798
8	0x3c0d06d5	0.008607586
9	0xbba7bbfa	-0.005118844
10	0xbc9e6364	-0.019334503
11	0x3ca074bd	0.019586915

indicator_time_mixing.0.time_mixing.U1.12 f4 [1, 13]
0	0x3a997d3d	0.0011710298
1	0x3c66adad	0.0140794935
2	0x39d3f86d	0.00040430148
3	0x3ada3ca2	0.001665015
4	0xbcf39b92	-0.029737268
5	0xba96a626	-0.0011493608
6	0xbcb7b6c9	-0.022426026
7	0xbbd384bc	-0.006455032
8	0x3ccf97dd	0.025340969
9	0xbc160f55	-0.009158929
10	0xbc86e7c1	-0.01646793
11	0x3bca9f9b	0.0061835772
12	0x3cc47315	0.023980657

indicator_time_mixing.0.time_mixing.U1.13 f4 [1, 14]
0	0xbdc6be5c	-0.09704277
1	0xbe147ba5	-0.14500292
2	0xbe3650ab	-0.1780421
3	0xbe41ecae	-0.18937942
4	0xbe125afe	-0.14292523
5	0xbde45ad5	-0.11150137
6	0xbdce4c15	-0.10073105
7	0xbdefffe1	-0.11718727
8	0xbe32d137	-0.17462622
9	0xbe627a64	-0.22117001
10	0xbe53f774	-0.20699865
11	0xbe7a4d29	-0.24443497
12	0xbe6cf5de	-0.23140666
13	0xbe830a80	-0.25593948

indicator_time_mixing.0.time_mixing.U1.14 f4 [1, 15]
0	0x3b38df14	0.0028209137
1	0x3b9b8aa3	0.0047467514
2	0x3bd8e930	0.006619595
3	0x3b88b8e8	0.004172433
4	0xb97f93e2	-0.00024373786
5	0xbbf1af8c	-0.007375663
6	0x3bd719b5	0.006564344
7	0x3bb9a493	0.0056653707
8	0xbbdb826f	-0.0066988985
9	0xbc610a95	-0.013735433
10	0xbbdbc5fd	-0.0067069517
11	0x3b914318	0.004433047
12	0xbb211a68	-0.002458239
13	0x3c0ee1eb	0.008720855
14	0xba303525	-0.00067217863

indicator_time_mixing.0.time_mixing.U1.15 f4 [1, 16]
0	0x3e2fc257	0.17163979
1	0x3d6c96eb	0.057761114
2	0x3d928d30	0.07155836
3	0x3d5968dd	0.05307852
4	0x3d93dac6	0.07219462
5	0x3daff7b2	0.08592166
6	0x3dcec93d	0.10096977
7	0x3da344a0	0.079720736
8	0x3d91016b	0.070803486
9	0x3d76f572	0.06029267
10	0x3d8b24d6	0.06794135
11	0xbb62813f	-0.00345619
12	0xb9edbaa5	-0.00045343224
13	0xbd185d97	-0.03719863
14	0xbe9b54ae	-0.30338043
15	0xbf0ba605	-0.545502

indicator_time_mixing.0.time_mixing.U2.1 f4 [1, 2]
0	0x3b0ac2e7	0.00211733
1	0xbc83d191	-0.01609114

indicator_time_mixing.0.time_mixing.U2.2 f4 [1, 3]
0	0xbc00ef75	-0.007869591
1	0x3c896b74	0.01677487
2	0xbc7b8c1a	-0.015353227

indicator_time_mixing.0.time_mixing.U2.3 f4 [1, 4]
0	0x3bd1c395	0.006401489
1	0x3c17f169	0.009273865
2	0xbc2ad7de	-0.010427443
3	0xbd2cce25	-0.042188782

indicator_time_mixing.0.time_mixing.U2.4 f4 [1, 5]
0	0x392ba4cf	0.00016369227
1	0x3c4cf2bd	0.012509045
2	0x3bbe52c9	0.0058082086
3	0xbbfa02a3	-0.007629709
4	0xbc8b4b5b	-0.017003706

indicator_time_mixing.0.time_mixing.U2.5 f4 [1, 6]
0	0xbb1ed2a1	-0.0024234431
1	0x3cb72414	0.02235607
2	0xbaab424f	-0.0013066026
3	0x3c3240a2	0.0108796675
4	0x3acb04dd	0.001548912
5	0xbc8f628b	-0.017503044

indicator_time_mixing.0.time_mixing.U2.6 f4 [1, 7]
0	0xbc535fff	-0.012901305
1	0xbbfc790e	-0.0077048605
2	0xbc5f1d3c	-0.01361781
3	0xbc881252	-0.016610298
4	0x388a8393	6.6048604e-05
5	0x3cf21313	0.02955011
6	0x3b712d86	0.0036800816

indicator_time_mixing.0.time_mixing.U2.7 f4 [1, 8]
0	0xbc967d17	-0.018370194
1	0xbc9719c3	-0.018444901
2	0x3d1bb752	0.038016625
3	0xbd92a577	-0.07160466
4	0xbd6902d4	-0.056887463
5	0xbaaa0c24	-0.0012973589
6	0xbd0bf1bc	-0.034166083
7	0xbe032bda	-0.12809697

indicator_time_mixing.0.time_mixing.U2.8 f4 [1, 9]
0	0x3c0cdc82	0.008597495
1	0x3cbb5f6d	0.022872651
2	0xbc477570	-0.012173995
3	0x3cc8fb20	0.024533808
4	0x3a2c07ae	0.00065624237
5	0xbc91aa83	-0.017781502
6	0xbc0705e4	-0.0082411505
7	0xbda73be2	-0.081657186
8	0x3bb5099a	0.0055248262

indicator_time_mixing.0.time_mixing.U2.9 f4 [1, 10]
0	0x3ca4eacb	0.02013149
1	0x3c8cd16e	0.017189708
2	0xbb27d5c4	-0.0025609592
3	0xbc8bd231	-0.017068
4	0xbcc46cee	-0.023977723
5	0xbc38c94d	-0.011278463
6	0xba4975f4	-0.0007685118
7	0xbcf00754	-0.02930037
8	0xbc112cb1	-0.008860753
9	0xbcf73004	-0.030174263

indicator_time_mixing.0.time_mixing.U2.10 f4 [1, 11]
0	0x3b95bda9	0.0045697284
1	0x3c94f49c	0.018183045
2	0xbad08966	-0.0015910089
3	0x3a8ff457	0.0010982853
4	0xbc5cf310	-0.013485685
5	0xbb4fa540	-0.003168419
6	0x3c0f518d	0.008747471
7	0xbd4768de	-0.048683994
8	0xbbd801f9	-0.006592032
9	0x3c6eb4b3	0.014569449
10	0x3c937b76	0.018003207

indicator_time_mixing.0.time_mixing.U2.11 f4 [1, 12]
0	0xbc45f872	-0.01208316
1	0xbc5191d9	-0.01279112
2	0xbc3cfa0e	-0.011534227
3	0xbc402d36	-0.011729529
4	0xbc7777cd	-0.015104246
5	0xbbcfd769	-0.0063428176
6	0x3b7f47ec	0.003895278
7	0xbc34692b	-0.011011402
8	0xba2403f0	-0.000625669
9	0xbbe27c4d	-0.0069117905
10	0xbc622beb	-0.013804416
11	0xbd263fe0	-0.04058826

indicator_time_mixing.0.time_mixing.U2.12 f4 [1, 13]
0	0xbb8128b8	-0.0039416216
1	0x3af0f601	0.0018383862
2	0x3b5196a3	0.0031980656
3	0x3b1f5293	0.0024310693
4	0xbc4e3f0a	-0.012588272
5	0x3c3607ee	0.011110289
6	0x3ab637a6	0.0013902083
7	0x3d853ea2	0.06506087
8	0xbc869864	-0.016430087
9	0x3b9f2f2d	0.0048579187
10	0x3af7d972	0.0018909408
11	0xbcb2b125	-0.021812985
12	0x3c144f95	0.009052177

indicator_time_mixing.0.time_mixing.U2.13 f4 [1, 14]
0	0xbc366435	-0.01113229
1	0x3c5d5707	0.0135095185
2	0xbb23866e	-0.0024951953
3	0x3b724719	0.0036968647
4	0xbc3589d5	-0.011080225
5	0x3acab3ff	0.001546502
6	0xbc5f1a3b	-0.013617094
7	0xbd44744d	-0.047962476
8	0x3b8a9d4b	0.0042301766
9	0xbc145a53	-0.009054738
10	0x3c2313f3	0.009953487
11	0x3a8743e0	0.0010319911
12	0xbcad27f4	-0.021137215
13	0xbe1c8d14	-0.15288192

indicator_time_mixing.0.time_mixing.U2.14 f4 [1, 15]
0	0xbc1a086f	-0.009401425
1	0x3a21fde0	0.0006179493
2	0xbcbd907b	-0.023140183
3	0xbbf9522a	-0.0076086717
4	0x3b1f7fe7	0.002433771
5	0xbc0335d1	-0.008008436
6	0x3c55f4d2	0.013058858
7	0xbd483c11	-0.04888541
8	0xbb051960	-0.0020309314
9	0xbc87ecd0	-0.016592413
10	0x3c1efcb2	0.009703802
11	0x3bd8c96b	0.006615808
12	0x3c46bb7a	0.012129659
13	0xbe27703a	-0.16351405
14	0xbb364647	-0.0027812885

indicator_time_mixing.0.time_mixing.U2.15 f4 [1, 16]
0	0xbb5f0738	-0.0034031402
1	0xbb7bf8ed	-0.0038447932
2	0x3bf38e87	0.007432762
3	0x3d085407	0.03328326
4	0x3d1d8282	0.03845454
5	0xbb81fa02	-0.003966571
6	0xbb825e70	-0.003978543
7	0x3deaf262	0.11472012
8	0x3996136f	0.0002862471
9	0x3b6adbc6	0.0035836562
10	0x3ca2188f	0.019787101
11	0x3cb70d76	0.022345286
12	0x3afe358f	0.0019394624
13	0x3e68f8d8	0.22751176
14	0xba9f1890	-0.0012138058
15	0xbe9481d2	-0.29005295

indicator_time_mixing.0.fc.weight f4 [1, 5]
0	0x3da6f9b1	0.081530936
1	0xbe2358a3	-0.15951781
2	0xbd7e8c78	-0.06214568
3	0x3e8728cf	0.26398322
4	0x3db52962	0.08845784

indicator_time_mixing.1.indicator_mixing.W1 f4 [5, 64]
0	0xbd834bc5	-0.06410936
1	0xbfe0a675	-1.7550799
2	0x3f880466	1.0626342
3	0x3e37f492	0.1796439
4	0x3ee59a7d	0.44844428
5	0x3f2d4b85	0.6769336
6	0xbe7f3af9	-0.2492484
7	0x3da654b0	0.081216216
8	0x40097ab4	2.1481142
9	0xbff7f486	-1.9371498
10	0xbf591131	-0.84791857
11	0x3f980051	1.1875097
12	0xbe9b8c2d	-0.30380383
13	0x3fb34b39	1.4007331
14	0xbf4c8a0e	-0.79898155
15	0x3d8a3021	0.06747461
16	0x3fd2bffe	1.6464841
17	0xbeb72d4b	-0.35776743
18	0xbfd82b16	-1.6888149
19	0x3e815716	0.25261754
20	0x3fbaefd0	1.4604435
21	0x3e8ac384	0.27102292
22	0x3ef31c70	0.47482634
23	0xbe84d7e2	-0.25945956
24	0xbff6966b	-1.9264654
25	0x3fcba7aa	1.5910542
26	0xbf4b68f7	-0.7945704
27	0xbe9991fc	-0.2999419
28	0xbf6ab50a	-0.91682494
29	0xbedaca9b	-0.427327
30	0x4022cff0	2.5439415
31	0x3f882cb3	1.0638641
32	0xbf72918a	-0.94753325
33	0x3e22e377	0.15907083
34	0xbebc0401	-0.36721805
35	0x3f4f8709	0.8106542
36	0x3f8b9043	1.09034
37	0xbf507b23	-0.8143789
38	0xbf154be1	-0.5831891
39	0xbf858591	-1.0431386
40	0x3f275d9b	0.65377206
41	0xbfbbf0ff	-1.4682921
42	0x4006e39e	2.1076427
43	0x3fd9f24d	1.7027069
44	0xbf7f7b5c	-0.99797606
45	0x3f4e6f78	0.8063884
46	0xbe77518f	-0.24152206
47	0xbf154395	-0.58306247
48	0xbf017062	-0.5056211
49	0xc0026fb3	-2.0380676
50	0x3d62d61f	0.055379983
51	0xbe944ba8	-0.2896397
52	0x3f3a7490	0.7283411
53	0xbf7d6617	-0.989839
54	0x3ed60587	0.41801092
55	0xbfbe2e35	-1.4857851
56	0xbf55fdbc	-0.8359029
57	0x3f1b73f6	0.6072382
58	0xbf03c78d	-0.51476365
59	0x400da0dd	2.2129433
60	0x3f43380c	0.76257396
61	0x3fb8e3aa	1.4444478
62	0x3ccedf8c	0.02525308
63	0x3ed89c5c	0.42306793
64	0xbf4fd43a	-0.8118321
65	0xbea918cf	-0.3302674
66	0xbedb3993	-0.42817363
67	0xbfea34c0	-1.8297348
68	0xbef5fabd	-0.4804286
69	0x3e41acf4	0.18913633
70	0x3fa5123a	1.2896187
71	0xbf09922b	-0.5373866
72	0xbedd90db	-0.43274578
73	0xbf5d9f8d	-0.8657158
74	0x3fc89268	1.566968
75	0x3e4bfee8	0.19921458
76	0xbf4a8e0f	-0.79123014
77	0xbf8d1bcc	-1.1024108
78	0x3f08fda3	0.5351202
79	0xbd7d38d2	-0.061821766
80	0x3dd51b81	0.104056366
81	0x3f16a383	0.5884325
82	0x3fdf5715	1.744845
83	0xbf3d8f82	-0.740471
84	0x3e83f189	0.25770214
85	0xbf485dc4	-0.78268075
86	0x3ee6787f	0.45013806
87	0xbe9f09bd	-0.31062117
88	0xbd5dca6d	-0.054148126
89	0xbf6c3845	-0.9227336
90	0xbd988e55	-0.07449023
91	0xbfd35823	-1.6511272
92	0xbfe656f2	-1.7995284
93	0xbe8378c8	-0.25678086
94	0x3e665f36	0.22497258
95	0xbec11a1b	-0.3771523
96	0xbe909a0d	-0.2824253
97	0x3e176e42	0.14788154
98	0x3f82a024	1.0205121
99	0x3f63724d	0.88846284
100	0xbf18f6be	-0.597515
101	0x3e55ff4e	0.20898172
102	0xbe414bec	-0.18876618
103	0x3e689195	0.22711785
104	0x3dd52fc9	0.10409505
105	0x3f19917d	0.5998762
106	0xbbf3e9c8	-0.0074436404
107	0x3f65b246	0.8972515
108	0x3f0a22cf	0.53959364
109	0x3f4d7f3d	0.80272275
110	0x3d1735d2	0.03691656
111	0xbec73e11	-0.3891454
112	0x3ecd43b1	0.40090707
113	0xbf93a43f	-1.1534499
114	0x3ed6dfd6	0.41967648
115	0xbf0b3307	-0.54374737
116	0x3f6ed12c	0.9328792
117	0xbf1cedb8	-0.6130023
118	0xbf90b146	-1.13041
119	0xbf7f25b8	-0.9966693
120	0x3f508f05	0.8146823
121	0x3ea5ba93	0.32368907
122	0xbf1739c8	-0.5907254
123	0xbf817d1b	-1.0116304
124	0x3e9e316e	0.30897087
125	0xbfd42e6a	-1.6576664
126	0xc00e519c	-2.223731
127	0x3f8e2c5e	1.110729
128	0x3f797cab	0.97455853
129	0xbf838dde	-1.027767
130	0x3ee63a4f	0.4496636
131	0xc00edce1	-2.2322314
132	0x3fade0fd	1.3584286
133	0x3e62613b	0.22107403
134	0xbfea9a3a	-1.8328316
135	0xbf083f66	-0.5322174
136	0xbe4047e5	-0.18777426
137	0x3f1d7084	0.6149981
138	0x3ea5716e	0.32313102
139	0x3f9584b7	1.1681126
140	0xbe83b755	-0.2572581
141	0x3f271e81	0.6528092
142	0x3f360673	0.7110359
143	0xbf77e0e6	-0.9682754
144	0xbe6d86c7	-0.23195945
145	0x3e6e45b7	0.23268782
146	0xbf52d075	-0.8234933
147	0x3e74008f	0.23828338
148	0x3f39d7d4	0.7259495
149	0xbd00866a	-0.031378187
150	0xbeadae8a	-0.33922225
151	0x3f70e159	0.94093853
152	0xbf7559c8	-0.9584012
153	0xbf791cfc	-0.9730985
154	0x3e11c139	0.14233865
155	0xbfde4837	-1.7365788
156	0x3f88d9c5	1.0691458
157	0x3fac5641	1.3463823
158	0x3e99b48b	0.30020556
159	0x3edabed1	0.42723706
160	0x3e80e642	0.25175673
161	0xbfb3afe7	-1.4038056
162	0x3ea5b93a	0.3236788
163	0x3f14a397	0.5806212
164	0x3e4dcd3a	0.20097819
165	0xbe87eb83	-0.2654687
166	0x3f58f90b	0.8475501
167	0xbfaba555	-1.340983
168	0x3f3b6853	0.7320606
169	0xbf89bed4	-1.0761361
170	0x3f8f2496	1.118304
171	0x3f82f588	1.023118
172	0x3f6d9e7e	0.92819965
173	0x3f1fef6b	0.624747
174	0xbefd6a77	-0.4949529
175	0x3f8bef8c	1.0932479
176	0xbf34e6e4	-0.7066481
177	0x4025ba4c	2.5894957
178	0xbfd1bc8d	-1.6385666
179	0xbdfde156	-0.12396495
180	0x3da3143f	0.07962846
181	0x3e5a4f7e	0.21319386
182	0x3fd6b13f	1.6772841
183	0x3fbe89c4	1.4885793
184	0xbe8cdcea	-0.27512294
185	0x3df8022d	0.1210979
186	0xbf6c3e54	-0.92282605
187	0x3fb47458	1.4098005
188	0x3f7ad261	0.9797726
189	0xba19eb6c	-0.00058715674
190	0xbfa9ff7a	-1.328109
191	0xbd7b6ebe	-0.06138491
192	0xbf84808e	-1.0351732
193	0x3f5f3231	0.8718596
194	0xbf9e6160	-1.2373466
195	0x3fab822a	1.3399098
196	0xbf468afa	-0.7755581
197	0x3eeebb22	0.46627146
198	0xbf332e32	-0.69992363
199	0x403ac5c0	2.9183197
200	0x3ec01a9e	0.37520307
201	0xbef4f890	-0.47845888
202	0xbf4bae91	-0.7956324
203	0xbf230000	-0.63671875
204	0x3e490252	0.19629791
205	0xbfbc924a	-1.4732144
206	0xbf8fa633	-1.1222595
207	0xbfbeb40a	-1.4898694
208	0x3f24b2b3	0.64335173
209	0x3f6c6f15	0.92357
210	0xbf94991c	-1.1609225
211	0xbe0e0201	-0.13867952
212	0xbfb2a97f	-1.3957976
213	0x3fe2efe8	1.7729464
214	0x3f3fc291	0.7490626
215	0x3d110ff9	0.035415623
216	0xbfb39246	-1.4029014
217	0x3f112053	0.5668995
218	0xbe26536c	-0.1624276
219	0x3f8ca951	1.0989171
220	0x3f41fc6c	0.7577579
221	0x3fec5bab	1.8465475
222	0x3fa6deaa	1.3036702
223	0xbe6cdf54	-0.23132068
224	0xbf858a8d	-1.0432907
225	0xbf85bfec	-1.0449195
226	0x3f4ceb8d	0.8004692
227	0x40305981	2.755463
228	0xbe9bc740	-0.30425453
229	0x3f8bd230	1.0923519
230	0x3fbdd619	1.4830962
231	0xbe5d72e2	-0.21625856
232	0x3f112d4f	0.5670976
233	0x3fc9aaaf	1.5755213
234	0xbfa0e972	-1.2571242
235	0x3f4a5e78	0.790504
236	0xbf9675b1	-1.1754667
237	0x3fd6c9d9	1.6780349
238	0x3df4b0b4	0.11947766
239	0x3fa5df5d	1.295879
240	0xbf1e3b1c	-0.61808944
241	0xbf9b05fd	-1.2111202
242	0xbf1100b1	-0.5664168
243	0xbe9cdcf4	-0.30637324
244	0x3f80524d	1.0025116
245	0xbfccd0ae	-1.6001184
246	0x3f008f79	0.5021892
247	0xbec5b912	-0.3861776
248	0x3f69cb70	0.91326046
249	0x3fbc0071	1.4687635
250	0xbf948bc3	-1.1605152
251	0x3f74c9d6	0.9562048
252	0xbf8ef0d0	-1.116724
253	0x3f99a413	1.2003196
254	0x3f88265b	1.0636705
255	0x3f8bdbd4	1.0926461

indicator_time_mixing.1.indicator_mixing.W2 f4 [64, 5]
0	0x3f33f73b	0.7029912
1	0xbfea809c	-1.8320498
2	0xc0124dac	-2.2859907
3	0xbfb3f52f	-1.4059199
4	0x400cde11	2.2010539
5	0xbf34bc22	-0.7059957
6	0x3dc0d423	0.09415462
7	0x3fa3ec0a	1.2806408
8	0xbe8afcb8	-0.27145934
9	0xbf55f67f	-0.8357925
10	0x3f3ebf5d	0.7451075
11	0x3e4c722a	0.19965425
12	0xbe6b7216	-0.22992739
13	0xbe75f139	-0.240178
14	0xbf26f29c	-0.6521394
15	0x3eaaa9e4	0.3333274
16	0xbe985492	-0.29752022
17	0x3e4335c0	0.19063473
18	0x3daff85f	0.08592295
19	0x3ef32ad6	0.4749362
20	0x3f82f501	1.0231019
21	0x3fea0c3f	1.8284987
22	0xbfb9ba73	-1.4510025
23	0xbfe144f9	-1.7599174
24	0x3f0ca4e6	0.54939115
25	0x3fc60ba8	1.5472307
26	0x3cfba639	0.03071891
27	0x3f5ac929	0.85463196
28	0xbee1ef32	-0.44127804
29	0xbf8fe85b	-1.1242784
30	0xc0094e6c	-2.1454115
31	0xbea3357d	-0.31876746
32	0x3e8877eb	0.2665399
33	0x3ed65092	0.41858345
34	0x3f6588a2	0.8966161
35	0x3f5464f9	0.8296657
36	0xbfbf62eb	-1.4952062
37	0xbf8b0b35	-1.0862795
38	0x3aa80766	0.0012819588
39	0xbf925ee7	-1.1435212
40	0xbde10b67	-0.10988503
41	0x3ea38533	0.3193756
42	0xbf3dcc5a	-0.7413994
43	0x3f0de959	0.55434185
44	0x3e02eb4b	0.1278507
45	0x3f98e9de	1.1946371
46	0x3f404c9c	0.75116897
47	0xbe7bc11b	-0.24585383
48	0x3b9b1821	0.004733101
49	0x3fa589bb	1.2932657
50	0x3f432453	0.762273
51	0xbcec9ca6	-0.02888329
52	0x3fdc9653	1.7233375
53	0xbf03bacd	-0.5145691
54	0x3ea436f8	0.32073188
55	0x3d4e3172	0.050340123
56	0x3e440809	0.1914369
57	0x3ff94dd1	1.9476873
58	0xbdc4b118	-0.096040905
59	0x3e416dc2	0.18889526
60	0x3f8da04b	1.1064543
61	0x3fbc9480	1.4732819
62	0xbfc47f49	-1.5351344
63	0xbf80f446	-1.0074546
64	0x400920c5	2.142625
65	0x3e93711d	0.28797236
66	0xbed38211	-0.4131017
67	0xbfef9bff	-1.8719481
68	0x3fae8bb2	1.3636382
69	0x3da8b7d5	0.08238188
70	0x3f13ce18	0.5773635
71	0x3f8e600c	1.1123061
72	0x3f0312bb	0.51200455
73	0x3f226ffd	0.6345213
74	0xbf825ff6	-1.0185535
75	0xbfe53d96	-1.790942
76	0x3facc15f	1.3496512
77	0xbfe4a512	-1.7862875
78	0x3f9e36a3	1.2360424
79	0x40223627	2.5345552
80	0xbe3ee2d0	-0.1864121
81	0x3f180d14	0.59394956
82	0xbdcc3ffd	-0.09973142
83	0xbd47803b	-0.048706274
84	0xbc0af145	-0.008480375
85	0x3d844535	0.06458513
86	0xbe7756a5	-0.24154146
87	0x3ff0db31	1.8816892
88	0x3fe41f1e	1.7821996
89	0xc0273023	-2.612313
90	0x3ea170c0	0.31531334
91	0xbfa8d7bb	-1.3190836
92	0x3f8c3e29	1.095647
93	0xbdca1792	-0.09867777
94	0xbdf19052	-0.11795105
95	0xbecf08ac	-0.40436304
96	0xbf81d955	-1.014445
97	0x3e859390	0.26089144
98	0xbeaa6c32	-0.3328567
99	0xbe8a9944	-0.27070057
100	0x3f9c2024	1.2197309
101	0x3deb2f14	0.11483589
102	0x3ffa7415	1.9566675
103	0xbfc22c17	-1.5169705
104	0x3f412693	0.75449485
105	0x3f0030d3	0.500745
106	0xbf9764a2	-1.1827586
107	0x3f144943	0.5792429
108	0xc0048169	-2.0703986
109	0xbe9350e4	-0.28772652
110	0x3d97f0db	0.074189864
111	0x3faa2a2a	1.3294117
112	0xbf1636bc	-0.5867727
113	0xc007681d	-2.1157296
114	0xbf412743	-0.75450534
115	0xbf0f20db	-0.5590951
116	0xbf31b77b	-0.69420594
117	0x3f458b80	0.77165985
118	0x3e3544b9	0.17701997
119	0x3ed2532c	0.4107908
120	0xbf8ad9d5	-1.0847727
121	0x3edb3449	0.42813328
122	0xbe76b9ad	-0.24094267
123	0xbf119a19	-0.5687576
124	0xbfa0f513	-1.2574791
125	0xbe419528	-0.18904555
126	0xbe2b8f78	-0.16753948
127	0x3f9ce27c	1.2256618
128	0x3f5beb1f	0.8590564
129	0xbecf8542	-0.40531355
130	0xbec39730	-0.38201284
131	0xbf76c798	-0.96398306
132	0xbf25d191	-0.647729
133	0xbf0e30f5	-0.5554345
134	0x3f64c280	0.89359283
135	0x3e88c804	0.267151
136	0x3e64fbca	0.22361675
137	0xbf0cf1a6	-0.55056226
138	0x3e63d268	0.22248232
139	0x3fa2a4c9	1.2706538
140	0xbf6de3f8	-0.9292598
141	0x3f7277f1	0.94714266
142	0x3fdbab04	1.7161565
143	0xbed3e21c	-0.41383445
144	0xc003cf29	-2.059519
145	0xbfa33353	-1.2750038
146	0x3fa250f5	1.2680956
147	0x3ff5bbb6	1.919791
148	0xbf429608	-0.7601018
149	0xbebde8a1	-0.37091544
150	0x3f35215f	0.70754045
151	0xbfbec126	-1.4902694
152	0xc00ed0ba	-2.2314897
153	0x3fca0be5	1.578488
154	0x3f84992c	1.0359244
155	0xbf91192b	-1.1335806
156	0xbfa953be	-1.3228681
157	0x3fa2ebc7	1.2728204
158	0xbcf6e504	-0.0301385
159	0x3eae3bd3	0.34030017
160	0xbf7e6e2d	-0.99386865
161	0x3f00b0b1	0.5026961
162	0x3dd5623f	0.104191296
163	0x3f511353	0.8167011
164	0x3ef39e99	0.47581938
165	0xbfdd1f5a	-1.7275193
166	0xbea3deb5	-0.3200585
167	0xbdcf10af	-0.10110604
168	0xbebf745a	-0.37393457
169	0xbf910f74	-1.1332841
170	0xbebb7e4f	-0.36619803
171	0xbf089858	-0.5335746
172	0xbf956c92	-1.1673758
173	0x3d86f5df	0.06589865
174	0xbf38976f	-0.7210607
175	0xbd28f2aa	-0.041247047
176	0x3f137036	0.57593095
177	0x3f230714	0.63682675
178	0x3e580268	0.21094668
179	0xbd986289	-0.07440669
180	0xbf93c75a	-1.1545212
181	0x3ec45886	0.38348788
182	0x3fa488bc	1.2854228
183	0xbf95789d	-1.1677433
184	0xbebe26ae	-0.37138885
185	0x401691cd	2.352649
186	0xbe5ecfa7	-0.217589
187	0xbeda00e9	-0.4257882
188	0x3f85e6a6	1.0461013
189	0x3f15fcbe	0.5858878
190	0xbfafa4c6	-1.372216
191	0x4016cc85	2.356233
192	0xbf4fd23e	-0.8118018
193	0x3e224a76	0.15848717
194	0xbad174b8	-0.001598022
195	0xbf3b3e40	-0.7314186
196	0x3e8f198c	0.27949178
197	0xbe5a87b7	-0.21340834
198	0xbf9b3ee5	-1.2128569
199	0xbe7ea790	-0.24868608
200	0x3fc08ca0	1.5042915
201	0x3f76422e	0.9619473
202	0xbddaff1b	-0.10693189
203	0xbf8757fc	-1.0573726
204	0x3f53694d	0.8258255
205	0x3efac4a5	0.48978153
206	0x3f21fdaa	0.63277686
207	0x3f3baf15	0.7331403
208	0xbf0f2372	-0.5591346
209	0x3f68c1d0	0.90920734
210	0xbcc12275	-0.023576
211	0x3ff271e2	1.8941004
212	0xbf815ceb	-1.0106481
213	0xc03bb057	-2.932638
214	0xbe4eb6d5	-0.20186932
215	0x3cf898cd	0.030346299
216	0xbfcb61b9	-1.5889198
217	0xbf288824	-0.65832734
218	0x3f7af077	0.9802317
219	0x3dcdea42	0.10054447
220	0xbf712fe9	-0.9421373
221	0xbf025603	-0.50912493
222	0xbcd720c7	-0.026260747
223	0xbe9ea961	-0.309886
224	0x3f8c44fd	1.0958554
225	0x3dfd0588	0.123545706
226	0x3f3dd5c4	0.74154305
227	0xbf04e72b	-0.51915234
228	0x3e76e810	0.24111962
229	0x3ea9be16	0.33152837
230	0xbfd61f51	-1.6728307
231	0x3f8ca3ec	1.0987525
232	0xc0063b52	-2.0973706
233	0xbfc04176	-1.5019977
234	0xbfd1c22d	-1.6387383
235	0x3fe2d3f6	1.7720935
236	0x3fae8fa7	1.3637589
237	0xbe8d9c9c	-0.27658546
238	0xbf390ea2	-0.7228795
239	0xbfbe3e7e	-1.4862821
240	0xbf28995b	-0.65859
241	0x3f2bdeba	0.6713673
242	0xbf176218	-0.59134054
243	0xbf0fbf0e	-0.561509
244	0x3f61e47b	0.8823926
245	0x3eabd32c	0.3355955
246	0xbffe7d03	-1.98819
247	0xbfb5b8b8	-1.4196997
248	0x3f998304	1.1993108
249	0xbf62e7dc	-0.8863504
250	0x3f9c209f	1.2197455
251	0x3fe1f33b	1.7652353
252	0x402f7d52	2.742024
253	0xbf3792ff	-0.71708673
254	0x3f0e1653	0.55502814
255	0xbf006e2b	-0.501681

indicator_time_mixing.1.indicator_mixing.ln.weight f4 [8, 5]
0	0x3f676081	0.9038163
1	0x3f7c39d3	0.9852573
2	0x3f74be98	0.95603323
3	0x3f815cdc	1.0106463
4	0x3f7cb702	0.9871675
5	0x3f90e440	1.1319656
6	0x3f7db076	0.99097383
7	0x3f789fbb	0.9711873
8	0x3f81f5ea	1.0153172
9	0x3f6d2356	0.92632043
10	0x3f6e535a	0.93095934
11	0x3f7dbb14	0.99113584
12	0x3f805d15	1.0028406
13	0x3f7e2be3	0.99285716
14	0x3f79da40	0.9759865
15	0x3f82466d	1.0177742
16	0x3f765eb0	0.9623823
17	0x3f6c7a56	0.9237417
18	0x3f805b01	1.0027772
19	0x3f842cca	1.0326169
20	0x3f70f4e9	0.94123703
21	0x3f7d1996	0.98867166
22	0x3f7a05dc	0.9766519
23	0x3f7d5f20	0.98973274
24	0x3f7b34e8	0.98127604
25	0x3f8904ca	1.0704587
26	0x3f6f4fa9	0.93480927
27	0x3f665039	0.8996616
28	0x3f8270d0	1.0190678
29	0x3f7fa012	0.9985362
30	0x3f732874	0.949836
31	0x3f7a0c12	0.9767467
32	0x3f7332dd	0.94999486
33	0x3f7de9be	0.9918479
34	0x3f8132f2	1.0093672
35	0x3f816d37	1.0111455
36	0x3f8f90d0	1.1216068
37	0x3f987aa8	1.1912432
38	0x3f724423	0.9463522
39	0x3f663627	0.8992638

indicator_time_mixing.1.indicator_mixing.ln.bias f4 [8, 5]
0	0x3da868b7	0.08223098
1	0x3c294852	0.010332184
2	0x3c802970	0.015644759
3	0xbb8c10a1	-0.0042744433
4	0xbc33f789	-0.01098431
5	0xbe03b11d	-0.12860532
6	0x3c98d7d6	0.018657606
7	0x39995edc	0.0002925311
8	0x3cca68c6	0.024708163
9	0xbd78c99e	-0.060739152
10	0x3d896eae	0.067105636
11	0x3b6091c0	0.0034266561
12	0x3ad9a5e4	0.0016605225
13	0xbbf76bcd	-0.0075506927
14	0xbca3faa1	-0.02001697
15	0xbc3aee3d	-0.0114093395
16	0x3a867049	0.0010256852
17	0x3bae2017	0.005313884
18	0xbac46e9b	-0.0014986576
19	0x3cac5a13	0.021039044
20	0x3d64fd92	0.055905886
21	0x3ba7f4a6	0.0051256
22	0x3a9123bb	0.001107327
23	0xbc4c3e2e	-0.012465997
24	0xbc870672	-0.016482566
25	0xbd8c3c39	-0.06847424
26	0x3bdcb581	0.006735504
27	0x3b51ab79	0.0031993075
28	0x3c8ba5b6	0.01704679
29	0x3ae13b51	0.0017183815
30	0x3d44c4ad	0.048039127
31	0x386c1146	5.628287e-05
32	0x3c403c4e	0.011733128
33	0xbc355426	-0.011067426
34	0x3c9866eb	0.018603763
35	0xbc5d9df2	-0.013526427
36	0xb9dab8ad	-0.00041717794
37	0xbc113d17	-0.008864663
38	0xbcefe03b	-0.029281726
39	0xbd7dba52	-0.061945267

indicator_time_mixing.1.time_mixing.ln.weight f4 [8, 5]
0	0x3f75d78c	0.96032023
1	0x3f84de83	1.0380405
2	0x3f75c117	0.95997757
3	0x3f6d6570	0.92732906
4	0x3f7d1f49	0.9887586
5	0x3f7c5cdc	0.9857919
6	0x3f8fdfe7	1.1240205
7	0x3f4fdea8	0.8119912
8	0x3f794f9d	0.97387105
9	0x3f7f7c4a	0.99799025
10	0x3f803e45	1.0019003
11	0x3f8ed495	1.1158625
12	0x3f5c5539	0.8606754
13	0x3f82b32e	1.0210931
14	0x3f7e78fa	0.99403346
15	0x3f7a6c7b	0.9782178
16	0x3f8a96b4	1.0827241
17	0x3f639db3	0.88912505
18	0x3f7a7106	0.9782871
19	0x3f80b7b6	1.0056064
20	0x3f7d62fe	0.98979175
21	0x3f8f9a92	1.1219046
22	0x3f5cc064	0.86231065
23	0x3f7c97d2	0.9866916
24	0x3f80d9e2	1.0066493
25	0x3f7c025f	0.9844112
26	0x3f8671b8	1.0503454
27	0x3f6f99dc	0.93594146
28	0x3f72fbf9	0.9491573
29	0x3f81e923	1.0149273
30	0x3f80e676	1.0070331
31	0x3f84088f	1.0315112
32	0x3f73c4fa	0.9522244
33	0x3f831836	1.0241764
34	0x3f800e7e	1.0004423
35	0x3f7dcf03	0.99144
36	0x3f780c22	0.96893513
37	0x3f90be71	1.1308118
38	0x3f6f2b1f	0.9342517
39	0x3f813d3d	1.0096813

indicator_time_mixing.1.time_mixing.ln.bias f4 [8, 5]
0	0x3d278220	0.04089558
1	0x3d6b3bd5	0.057430107
2	0xbd3dbb45	-0.046321172
3	0x3d85309c	0.06503412
4	0x3c1a7b38	0.009428792
5	0x3c42c4ca	0.0118877385
6	0x3e126f8a	0.14300361
7	0xbe32dfdb	-0.17468207
8	0x3c8d1bc8	0.017225161
9	0x3c31a518	0.010842584
10	0xbb9ddeb3	-0.0048178076
11	0x3ded8655	0.115978874
12	0xbe105989	-0.14096655
13	0xbc65eb8e	-0.014033211
14	0x3c572bad	0.013132972
15	0x3cc8189c	0.024425797
16	0x3dc68a56	0.09694354
17	0xbde7924b	-0.113072
18	0x3c9f8bc2	0.019475821
19	0xbba41813	-0.0050077527
20	0x3c2f33ef	0.010693534
21	0x3de6e561	0.11274219
22	0xbe06d1f4	-0.13166028
23	0x3c000f79	0.007816189
24	0xbb19885f	-0.002342723
25	0x3ca13c52	0.019682083
26	0x3d866e5e	0.065640196
27	0xbd88810d	-0.066652395
28	0x3d1b42f1	0.037905637
29	0xbc18e465	-0.009331797
30	0xbbca1a16	-0.0061676605
31	0x3d164016	0.03668221
32	0xbd3e37b1	-0.04643983
33	0xbc93986c	-0.018017016
34	0xbad99730	-0.0016600844
35	0x3cf6c22a	0.030121882
36	0xbd2b831e	-0.04187309
37	0x3dcf150e	0.10111438
38	0x3d8b7030	0.068085074
39	0xbbbd0c3d	-0.005769281

indicator_time_mixing.1.time_mixing.U1.1 f4 [1, 2]
0	0xbb6e823c	-0.0036393544
1	0x3b3bca41	0.0028654488

indicator_time_mixing.1.time_mixing.U1.2 f4 [1, 3]
0	0xbbb56990	-0.0055362657
1	0x3a2fa262	0.0006699917
2	0x3b8d24cf	0.0043073664

indicator_time_mixing.1.time_mixing.U1.3 f4 [1, 4]
0	0xbbea1105	-0.007143142
1	0x3c2b44c9	0.010453411
2	0x3cb5985b	0.022167375
3	0x3c7d3540	0.01545459

indicator_time_mixing.1.time_mixing.U1.4 f4 [1, 5]
0	0xbc99a9b0	-0.018757671
1	0xbb1b0264	-0.0023652548
2	0x3c98746a	0.018610198
3	0xbbf5fcfd	-0.007506965
4	0x3c0a5ab2	0.008444475

indicator_time_mixing.1.time_mixing.U1.5 f4 [1, 6]
0	0xbc6ef963	-0.014585826
1	0x3bc60cea	0.00604402
2	0x3d0e71ea	0.034776606
3	0xbc627d98	-0.013823889
4	0x3bfe8cc7	0.007768247
5	0xbc1f877f	-0.009736895

indicator_time_mixing.1.time_mixing.U1.6 f4 [1, 7]
0	0xbb8d3c6e	-0.0043101823
1	0xbbde09ab	-0.006776055
2	0xbbed7713	-0.007246861
3	0x3c80195b	0.01563709
4	0x3b0c740b	0.0021431472
5	0xbc555522	-0.0130207855
6	0x3c5ab372	0.013348447

indicator_time_mixing.1.time_mixing.U1.7 f4 [1, 8]
0	0xbbe3ebee	-0.0069556152
1	0x3bca46d6	0.006172995
2	0xbc37d11c	-0.011219289
3	0xbc8ace6c	-0.016944133
4	0xbb101f09	-0.0021991155
5	0xbcb95016	-0.022621196
6	0xbb8d5e94	-0.004314253
7	0xbd2e9139	-0.042618964

indicator_time_mixing.1.time_mixing.U2.1 f4 [1, 2]
0	0x3cf482d6	0.029847544
1	0xbc750ceb	-0.014956693

indicator_time_mixing.1.time_mixing.U2.2 f4 [1, 3]
0	0xba979a9c	-0.0011566463
1	0x3b1b2285	0.0023671698
2	0xbafc7774	-0.0019261674

indicator_time_mixing.1.time_mixing.U2.3 f4 [1, 4]
0	0x3bf31253	0.007417956
1	0xb9897b2c	-0.00026222446
2	0xbc14ccf5	-0.009082069
3	0xbc6cb0d3	-0.014446455

indicator_time_mixing.1.time_mixing.U2.4 f4 [1, 5]
0	0x3caf7bb3	0.02142129
1	0xbb043568	-0.0020173434
2	0xbaa33490	-0.0012451578
3	0xbb8ed5da	-0.004358989
4	0xbc3ee91e	-0.011652259

indicator_time_mixing.1.time_mixing.U2.5 f4 [1, 6]
0	0x3b396fd5	0.0028295417
1	0xbc2bacf8	-0.010478251
2	0xba438ef9	-0.0007459964
3	0x3af13caa	0.001840492
4	0xbbd6d048	-0.006555591
5	0x3bba3be5	0.0056834095

indicator_time_mixing.1.time_mixing.U2.6 f4 [1, 7]
0	0x3ae45a4b	0.0017421929
1	0xbbecdcee	-0.0072284853
2	0x3b3a92c0	0.0028468817
3	0xbbd80f5a	-0.006593627
4	0xbce5a260	-0.028031528
5	0xbc01b295	-0.007916112
6	0x3b6d4c18	0.0036208685

indicator_time_mixing.1.time_mixing.U2.7 f4 [1, 8]
0	0x3b374937	0.0027967223
1	0xbc6eb5da	-0.014569724
2	0xbb5f913b	-0.0034113664
3	0xbca445c5	-0.0200528
4	0x3b8765e9	0.0041320217
5	0x3bfff80e	0.007811553
6	0xb9d26318	-0.00040128152
7	0xbb2641d2	-0.0025368822

indicator_time_mixing.1.fc.weight f4 [1, 5]
0	0x3d6c9c6f	0.057766374
1	0xbd49990b	-0.04921822
2	0x3decddb2	0.115657225
3	0x3eb69682	0.35661703
4	0xbc766637	-0.015039018
