weights/stockmixer_wo_stock_L16_H64_M40_K4_E50_s1.pt (torch, 55610 bytes, 89 tensors)

indicator_time_mixing.0.indicator_mixing.W1 f4 [5, 64]
0	0xbe26d0ea	-0.16290632
1	0x3f663c6c	0.89935946
2	0x3bb59c22	0.005542294
3	0x3e1c632a	0.15272203
4	0xbead1a06	-0.33808917
5	0xbf791182	-0.9729234
6	0x3ec27709	0.37981442
7	0x3fb2651e	1.3937109
8	0x3fdeafaa	1.7397358
9	0xbda542be	-0.08069371
10	0x3fd9366b	1.6969732
11	0xbe1c331c	-0.15253872
12	0xbf0bfaaa	-0.5467936
13	0xbef92efe	-0.48668665
14	0xbe849e1e	-0.25901884
15	0x3ea014a1	0.3126574
16	0xbea227e6	-0.31671065
17	0x3f3cb129	0.73707825
18	0xbee3f497	-0.44522545
19	0xbfca4c07	-1.5804452
20	0xbf28c63f	-0.659275
21	0xbfa22b65	-1.2669493
22	0x3f5697a7	0.83825153
23	0xbf32346a	-0.6961123
24	0xbeac8ea9	-0.3370259
25	0x3f1430af	0.57886785
26	0xbee691e9	-0.45033196
27	0xbec8b59b	-0.39201054
28	0x3f2b100b	0.66821355
29	0xbed36071	-0.41284516
30	0xbe95e2fe	-0.29274744
31	0xbf217597	-0.6307005
32	0xbf38dcdf	-0.7221202
33	0x3e7191c6	0.23590764
34	0xbf753be5	-0.95794517
35	0xbfebed7e	-1.8431852
36	0xbffc910c	-1.9731765
37	0xbf80312b	-1.0015005
38	0x3f5b0006	0.8554691
39	0xbf88e985	-1.0696265
40	0x4000256f	2.0022848
41	0xbe9186e5	-0.2842323
42	0x3ef663ff	0.48123166
43	0xbfcb9f7d	-1.5908047
44	0x3f9f8481	1.2462312
45	0x3f49842d	0.7871731
46	0xbee53b48	-0.4477179
47	0x4008577c	2.1303396
48	0x3fa30cb5	1.2738253
49	0x3f24518b	0.64186925
50	0xbebc3891	-0.36761907
51	0xbf570104	-0.83985925
52	0xbf8a8630	-1.0822201
53	0x3df93cf4	0.12169829
54	0xbf49a7c0	-0.7877159
55	0xbd27e7a2	-0.040992387
56	0x3fb7e284	1.4366002
57	0xbf31e3c6	-0.6948818
58	0xbf1d529b	-0.6145417
59	0x3f3de7b5	0.7418168
60	0xbf988113	-1.191439
61	0xbf7088bd	-0.93958646
62	0x3faae387	1.3350686
63	0xbfc7e2e9	-1.5616122
64	0x3ec55a7f	0.38545606
65	0x3f5a9fb0	0.85399914
66	0x3ea1b736	0.3158509
67	0x3f3360a1	0.7006932
68	0x3d952026	0.072815225
69	0xbf33a312	-0.701707
70	0x3d8d8aed	0.069112636
71	0xbf80f79f	-1.0075568
72	0x3f32cefc	0.69847083
73	0x3f54cfaa	0.8312937
74	0x3fc437e1	1.5329553
75	0x3f5c9f0e	0.861802
76	0xbf648920	-0.89271736
77	0x3f484105	0.7822421
78	0x3fa4fd7f	1.2889861
79	0x3ef7a1c9	0.4836562
80	0xbec3c133	-0.38233337
81	0xbf39fa7d	-0.7264784
82	0xbf5749b7	-0.84096855
83	0xbf3d1378	-0.7385783
84	0xbeea1cac	-0.45725
85	0x3f4ad700	0.79234314
86	0x3f6c0870	0.92200375
87	0x3fab9a18	1.3406401
88	0x3f5e4372	0.86821663
89	0x3f30faba	0.6913258
90	0xbf46a095	-0.7758878
91	0x3eaec84b	0.34137186
92	0xbf3abbf8	-0.7294307
93	0xc01b8bdc	-2.4304113
94	0xc014ccfa	-2.3250108
95	0xbe3b2210	-0.18274713
96	0xbfb9337a	-1.4468834
97	0xbf4641b0	-0.7744398
98	0x3f8aba8e	1.0838182
99	0x3fd09ce9	1.6297885
100	0xbe2c4b2d	-0.16825552
101	0x3f86e419	1.053836
102	0xbf7f58e4	-0.9974501
103	0xbf83b69c	-1.0290103
104	0xbe464c12	-0.19364956
105	0x3e4e186c	0.20126504
106	0x3e3d8838	0.18508995
107	0x3fef4f3c	1.8696055
108	0xbf974f7c	-1.1821132
109	0x3fb26e80	1.3939972
110	0xbfeb2fe0	-1.8373985
111	0xbf89dbce	-1.0770204
112	0x3e1edf81	0.15514947
113	0xbefebe56	-0.4975459
114	0xbe330a5c	-0.1748442
115	0xbf058d71	-0.5216895
116	0xbcdc1be8	-0.026868775
117	0xbf1c1280	-0.6096573
118	0xbf8165b4	-1.0109162
119	0x401a479e	2.4106212
120	0xbfadb7b8	-1.3571692
121	0xbf30e6a3	-0.69101924
122	0x3f13ae7c	0.5768812
123	0xbf303c34	-0.6884186
124	0x3ead50fd	0.33850852
125	0x3fffe61f	1.9992102
126	0x3f935670	1.1510754
127	0xbfba2526	-1.4542587
128	0x3fcfb8a8	1.6228228
129	0x3fc53d17	1.5409268
130	0x3f488c12	0.7833873
131	0xbf4381c1	-0.76369864
132	0x3f2324da	0.63728106
133	0x3de011c1	0.10940886
134	0xbf765ab8	-0.96232176
135	0x3f050a97	0.51969284
136	0x3f787059	0.9704643
137	0x3f79e571	0.97615725
138	0x402a6f0a	2.6630273
139	0x3f814f65	1.0102354
140	0x3c170d42	0.0092194695
141	0xbf0c3122	-0.5476247
142	0xbf93534a	-1.1509793
143	0xbf971ea9	-1.1806232
144	0xbf1aeb8a	-0.60515654
145	0xbf9cc1ce	-1.2246644
146	0x3fec7b03	1.847504
147	0x3ee3c70d	0.444878
148	0x3fe5b9cf	1.7947329
149	0xbed12787	-0.4085047
150	0xbdddaff3	-0.10824575
151	0x3f005bfd	0.5014036
152	0xbf17ae39	-0.5925022
153	0x3e821365	0.25405422
154	0x3e239f2a	0.15978685
155	0x3ddd41d4	0.10803571
156	0x3f5ccbca	0.8624846
157	0xbeb0f46e	-0.34561485
158	0xbf3be8f3	-0.7340233
159	0xbf14ae83	-0.58078784
160	0x3f148836	0.5802034
161	0x3f07958e	0.5296258
162	0xbed8e5ab	-0.42362723
163	0xbe57d8d4	-0.21078807
164	0xbf2332ad	-0.637492
165	0x3ee62d05	0.44956222
166	0x3f18d615	0.59701663
167	0xbfa4c8a4	-1.2873731
168	0x3e0e2750	0.13882184
169	0xbf25150e	-0.6448525
170	0x3ea2f6a7	0.31828806
171	0x3f57805a	0.84180224
172	0xbfe1c86b	-1.7639288
173	0x3e5bd110	0.2146647
174	0xbfce250e	-1.6105058
175	0xbea2af92	-0.31774575
176	0xbf7ee93a	-0.99574625
177	0xbf282e8b	-0.6569602
178	0xc0105481	-2.2551577
179	0x3fb88878	1.4416647
180	0xc00a800b	-2.1640651
181	0x3e2f9d0e	0.17149755
182	0xbeb98a3d	-0.3623828
183	0x3f7aa344	0.97905374
184	0x3fdd73fa	1.7301018
185	0x3f7b8a3d	0.9825781
186	0x3d353371	0.04423851
187	0x3cbe94fb	0.023264399
188	0x3eb1d7bc	0.34734905
189	0x3ef995ec	0.48747194
190	0x3f67554b	0.9036452
191	0xbeb5509a	-0.35413057
192	0x3d89148e	0.066933736
193	0xbe8b9945	-0.27265373
194	0x3e80a8c4	0.25128758
195	0xbf4ef112	-0.80836594
196	0x3f6974b9	0.9119373
197	0x3ce23ca7	0.027616812
198	0xbeb085d2	-0.34477097
199	0x3e75d0ab	0.24005382
200	0xbe1825f1	-0.14858223
201	0x3f50b8d8	0.8153205
202	0xbf744076	-0.9541086
203	0xbeca218e	-0.39478725
204	0xbf9549d3	-1.1663154
205	0xbe271d7b	-0.1631984
206	0x3e883b8a	0.26607925
207	0xbf37490c	-0.71595836
208	0x3f649aec	0.8929889
209	0xbeb1a65a	-0.3469723
210	0xbf93eb84	-1.1556249
211	0xbf5055c1	-0.8138085
212	0x4015e8fe	2.3423457
213	0x3e4056e7	0.1878315
214	0xbda656d8	-0.08122033
215	0xbf973b55	-1.1814982
216	0x3d9560e3	0.0729387
217	0x3f6a271d	0.9146593
218	0x3faaae27	1.3334397
219	0xbefcbd3e	-0.4936313
220	0xbea30c94	-0.31845534
221	0xbf5a3bb1	-0.8524733
222	0xbe8c9c48	-0.27462983
223	0x3f5bd193	0.8586666
224	0xbf95f2fe	-1.171478
225	0xbf8d413a	-1.103553
226	0x3ecb9431	0.397615
227	0xc003cd8a	-2.05942
228	0x3fb458a7	1.4089555
229	0x3f942337	1.1573247
230	0x3f696b33	0.911792
231	0x3ff094da	1.8795426
232	0xbf2af141	-0.66774374
233	0x3d87cdd3	0.06631055
234	0x401f6154	2.4903154
235	0xbf407c25	-0.7518943
236	0xbf14fb7f	-0.5819625
237	0x3f2448f1	0.641738
238	0x3e4a9f76	0.19787392
239	0x3e1798f7	0.14804445
240	0x3eba6ec5	0.36412635
241	0xbf7c29ae	-0.985011
242	0x3d073c3f	0.03301644
243	0xbf23300b	-0.6374518
244	0x3eb7c44f	0.3589196
245	0xbe8d9835	-0.27655187
246	0xbf7e2f18	-0.9929061
247	0x3f799a10	0.97500706
248	0x3eb84902	0.359932
249	0x3f715fab	0.942866
250	0x3fcdf4ff	1.6090392
251	0xbe26b692	-0.16280583
252	0xbe9050d5	-0.2818667
253	0xbf0fc5dd	-0.5616129
254	0xbf76473c	-0.96202445
255	0xbfc0105f	-1.5004996

indicator_time_mixing.0.indicator_mixing.W2 f4 [64, 5]
0	0x3e2e96f2	0.17049769
1	0xbfbf6745	-1.495339
2	0xbf777694	-0.9666531
3	0x3f2e5c3b	0.6810948
4	0x3f1afde1	0.6054364
5	0xbfb7e62b	-1.4367117
6	0xbdfc3aef	-0.12315928
7	0x3e7b5350	0.245435
8	0x3dc1720a	0.09445579
9	0x3eb412ed	0.3517069
10	0x3d43495d	0.047677387
11	0xbe949d92	-0.29026467
12	0xbf2f5edd	-0.68504125
13	0xbf09dbb8	-0.5385089
14	0xbfac66d4	-1.3468881
15	0x3f3e45f3	0.74325484
16	0xbf835d68	-1.026288
17	0xbe83edeb	-0.25767455
18	0xbf8cda46	-1.1004112
19	0x3fb79873	1.4343399
20	0x3f9e8b62	1.2386286
21	0xbf493e13	-0.7861034
22	0x3e150c09	0.14555372
23	0xbf3228b5	-0.69593364
24	0x3e9a5c08	0.3014834
25	0x3ff4eeb3	1.9135345
26	0xc02781a2	-2.6172872
27	0xbed413a4	-0.41421235
28	0xbee0ba6c	-0.4389223
29	0xbf1ea769	-0.619742
30	0x3f43f12d	0.7653988
31	0x3ecd64dc	0.40116012
32	0xbf1981e1	-0.59963804
33	0xbec75112	-0.3892904
34	0x3eff2f95	0.4984099
35	0x3f9cc2d9	1.2246963
36	0x3fe51ae8	1.7898836
37	0x3f627a1d	0.8846758
38	0x3e0ee90b	0.13956086
39	0x3f06e749	0.52696663
40	0xbdb0dd19	-0.08635921
41	0xbe4e120c	-0.20124072
42	0x4005cd65	2.0906613
43	0x3f2bd7d9	0.6712623
44	0xbebe6946	-0.37189692
45	0xbfb3735e	-1.4019582
46	0xbf684f98	-0.9074645
47	0x3f083ef5	0.53221065
48	0x3f6ee925	0.933245
49	0x3f1cf4eb	0.61311215
50	0xbfd1c342	-1.6387713
51	0x3f8f1c07	1.1180428
52	0xbf025c3a	-0.50921977
53	0xbf269c8a	-0.6508261
54	0x3eee7a6d	0.46577778
55	0x3f89f892	1.0778983
56	0xbddb8f58	-0.107207
57	0x3ed806fe	0.42192835
58	0x3e334cbd	0.17509742
59	0xbf8b51ef	-1.0884379
60	0xbe14e2f0	-0.14539695
61	0xbfa2c456	-1.2716167
62	0x3e7cafeb	0.24676482
63	0x3ed8059b	0.42191777
64	0x3eafd662	0.3434325
65	0x3f875e5f	1.0575675
66	0xbe29c525	-0.16579111
67	0x3f404ab7	0.75114006
68	0xbf129f1d	-0.5727404
69	0x3f6e147c	0.93000007
70	0xbdef6339	-0.11688847
71	0xbeaecf19	-0.34142378
72	0xbf1ee0c3	-0.6206171
73	0x3f00fc33	0.50384825
74	0xbf24f0fc	-0.6443021
75	0xbff945cf	-1.9474429
76	0xbe87613d	-0.26441374
77	0xbf60793c	-0.8768499
78	0x3e8b9c4f	0.27267691
79	0xbe70f9f0	-0.23532844
80	0xbe1f2c51	-0.15544249
81	0x3ea3595b	0.3190411
82	0x3f1ff39a	0.6248108
83	0x3fccc93e	1.5998914
84	0x3fe481f5	1.785216
85	0xbda33acb	-0.07970198
86	0xbf89c201	-1.076233
87	0x3f0a6c09	0.540711
88	0x3f030ecd	0.5119446
89	0xbf6927b9	-0.91076237
90	0x3f535c4f	0.82562727
91	0xbedb347b	-0.42813477
92	0xbeb4d384	-0.35317624
93	0xbfba3b6f	-1.4549388
94	0x3f834efe	1.0258482
95	0x3c8c9bf2	0.017164204
96	0xc0085cd4	-2.1306658
97	0x3e00c2aa	0.12574258
98	0xbebd2d23	-0.369485
99	0x3f477c8b	0.7792441
100	0xbfa3d086	-1.2798011
101	0xbff9f3df	-1.9527549
102	0x3e1d8334	0.15382081
103	0x3eb4b112	0.35291344
104	0xbee2708f	-0.442265
105	0x3df02ca0	0.117272615
106	0xbdced857	-0.10099857
107	0x3f03f972	0.515525
108	0x3fd29142	1.6450579
109	0xbeac92c4	-0.33705723
110	0x3ebfbc2d	0.37448254
111	0xbded82d9	-0.11597223
112	0xbd6ce914	-0.057839468
113	0xbee87d11	-0.45407918
114	0xbf2fd68b	-0.6868674
115	0xbe8d5bd3	-0.2760912
116	0x3f869281	1.051346
117	0xbecff498	-0.40616298
118	0xbf79fcc3	-0.9765131
119	0xbdb43559	-0.08799238
120	0xba1a1ea6	-0.0005879201
121	0x3d44e974	0.0480742
122	0x3e62a838	0.22134483
123	0xbfa7d73e	-1.3112562
124	0xbe65a532	-0.22426298
125	0xc01af557	-2.4212244
126	0xbe81b3d3	-0.25332507
127	0x3fa98be2	1.3245814
128	0xbf213683	-0.62973803
129	0xbdd4eeea	-0.10397132
130	0x3f7846ae	0.9698285
131	0xbfe4088e	-1.7815111
132	0x3e038f86	0.12847719
133	0xbf8e2323	-1.1104473
134	0x3ecb3bd3	0.3969408
135	0xbf3be651	-0.7339831
136	0x3e01e8ed	0.1268651
137	0xc011edeb	-2.2801464
138	0xbfcd3932	-1.603308
139	0xbf64fb83	-0.89446276
140	0xbf23c604	-0.6397402
141	0x3fe0cd97	1.7562741
142	0xbfae0d75	-1.3597857
143	0xbf07f8da	-0.5311409
144	0x3f4d90d0	0.8029909
145	0x3ea1250c	0.31473577
146	0x3f2d8cf3	0.67793196
147	0x3eaa7a61	0.33296493
148	0x3f1a6e3e	0.60324466
149	0x3f98b095	1.1928889
150	0xbec8bac5	-0.39204994
151	0xbfc656e1	-1.5495263
152	0x3faa34cd	1.3297364
153	0x3fcb6368	1.5889711
154	0xbf5d8661	-0.8653317
155	0x3f5a8a11	0.8536692
156	0x3f3547c5	0.70812637
157	0xc00b6e6e	-2.178615
158	0x3ff00dfc	1.8754268
159	0xbef339f2	-0.47505146
160	0xbf99e303	-1.2022403
161	0xbf5e2fd7	-0.8679175
162	0x3fbacf07	1.459443
163	0xbf357db1	-0.70894915
164	0xbe62faa0	-0.22165918
165	0x3ef9b780	0.48772812
166	0x3d3868b3	0.045021724
167	0xbf6758f9	-0.90370136
168	0xbf568693	-0.83799094
169	0x3e50ffeb	0.20410125
170	0x3e832135	0.25611272
171	0x3ed47009	0.41491726
172	0x3ec87ee7	0.3915932
173	0x3f093011	0.5358897
174	0x3f488bf0	0.7833853
175	0x3ea9880b	0.33111605
176	0xbf3502fb	-0.7070767
177	0x3f5a71eb	0.85330075
178	0x3fc1b872	1.5134413
179	0xbdee1c2e	-0.116264686
180	0x3f9370c9	1.1518794
181	0x3e422e65	0.1896301
182	0x3f0bda5f	0.5463008
183	0x3eb22589	0.34794262
184	0xbf674e00	-0.90353394
185	0xbf9bf7cd	-1.2184998
186	0x3ece7d6c	0.40330064
187	0xbe80210e	-0.2502522
188	0xbfa4c6fc	-1.2873225
189	0xbf041197	-0.5158934
190	0xbe69ac05	-0.22819526
191	0xbf980230	-1.1875668
192	0x3fb5362d	1.4157158
193	0x3e301d7e	0.1719875
194	0x3fb8c8a9	1.4436237
195	0xbd01534d	-0.031573582
196	0x3ff5af2f	1.9194087
197	0x3fb3fc98	1.406146
198	0x3e726fef	0.23675512
199	0xbf41b498	-0.7566619
200	0xbf848016	-1.0351589
201	0x3f4ab6e4	0.7918532
202	0x3f038d30	0.5138731
203	0xbf0d0bd5	-0.5509618
204	0xbf3e4b44	-0.74333596
205	0x3e72b0ed	0.23700304
206	0x3fa21222	1.2661784
207	0x3f2ed031	0.68286425
208	0xbf351dde	-0.707487
209	0x3fb7d16c	1.4360785
210	0xbfa4b336	-1.2867191
211	0xbf89b563	-1.075848
212	0x40044443	2.0666664
213	0xbf9130e5	-1.1343046
214	0xbf2eeeb2	-0.6833297
215	0x3f869f92	1.0517447
216	0x3f9d8bd2	1.2308295
217	0x3f7c6d3c	0.9860418
218	0x3e962d67	0.29331514
219	0xbec5fafe	-0.38668054
220	0xbf8e9ce9	-1.1141635
221	0xbe551bde	-0.20811412
222	0xbf24d5dc	-0.64388824
223	0xbef00dc7	-0.4688551
224	0xbe711f91	-0.23547198
225	0x3ecb13b9	0.39663485
226	0x3ed57059	0.41687277
227	0x3f41519f	0.7551517
228	0x402a7062	2.6631093
229	0xbe0e87ac	-0.13918942
230	0x3f32b020	0.69799995
231	0xbf47ccd0	-0.78046894
232	0xbeda665b	-0.42656216
233	0xbe217c8a	-0.15770164
234	0xc023817a	-2.5547776
235	0x3f3ffedc	0.7499826
236	0xbf890050	-1.070322
237	0xbd7398ae	-0.05947178
238	0x3e8773a1	0.26455405
239	0x3d9dc315	0.077032246
240	0xbf973b39	-1.1814948
241	0xbfc03419	-1.5015899
242	0xbfb2594a	-1.3933499
243	0x3f9309d7	1.1487378
244	0x3f84add3	1.0365547
245	0xbf59e383	-0.8511278
246	0x3f9407bf	1.1564864
247	0x3f88afc6	1.0678642
248	0xbfc7bdd5	-1.5604807
249	0xbf96f633	-1.1793884
250	0xbcdcbc47	-0.026945246
251	0xbf28a2c8	-0.65873384
252	0x3e6d11aa	0.2315127
253	0xbf057eb1	-0.5214644
254	0x3d8041d5	0.062625565
255	0x3f6ea310	0.93217564

indicator_time_mixing.0.indicator_mixing.ln.weight f4 [16, 5]
0	0x3f7e3ebd	0.9931448
1	0x3f645add	0.89201146
2	0x3f814291	1.009844
3	0x3f75e043	0.9604532
4	0x3f7b4a13	0.98159903
5	0x3f7ac729	0.97960144
6	0x3f80277d	1.0012051
7	0x3f810e77	1.0082539
8	0x3f818f3f	1.012184
9	0x3f835fcb	1.0263609
10	0x3f7c46b8	0.9854541
11	0x3f7dcda4	0.9914191
12	0x3f81d804	1.0144048
13	0x3f776885	0.9664386
14	0x3f8385f3	1.0275253
15	0x3f708e5d	0.9396723
16	0x3f8964cc	1.0733886
17	0x3f81be86	1.0136268
18	0x3f7fe336	0.9995607
19	0x3f80c840	1.0061111
20	0x3f7ed4a0	0.9954319
21	0x3f79e8ba	0.9762074
22	0x3f8087d0	1.0041447
23	0x3f746b30	0.95476055
24	0x3f804cd7	1.002345
25	0x3f7a51c5	0.9778102
26	0x3f7de07a	0.9917065
27	0x3f81222e	1.0088556
28	0x3f84faaf	1.0389003
29	0x3f795753	0.9739887
30	0x3f7b7398	0.9822326
31	0x3f7bc981	0.98354346
32	0x3f845614	1.0338769
33	0x3f8443bc	1.0333171
34	0x3f793426	0.973452
35	0x3f7cc176	0.987327
36	0x3f75aa49	0.9596296
37	0x3f85c0c2	1.044945
38	0x3f868d41	1.0511857
39	0x3f7fad4d	0.9987381
40	0x3f7b2544	0.9810374
41	0x3f8178fb	1.0115045
42	0x3f85e28b	1.045976
43	0x3f827e61	1.0194818
44	0x3f77da8c	0.9681785
45	0x3f816c02	1.0111086
46	0x3f862fd5	1.0483347
47	0x3f882c3f	1.0638503
48	0x3f760ac6	0.9611019
49	0x3f8174a9	1.0113727
50	0x3f823b88	1.0174417
51	0x3f80cec7	1.0063103
52	0x3f73b038	0.95190763
53	0x3f88be10	1.0683002
54	0x3f85aff3	1.044432
55	0x3f80f276	1.0073993
56	0x3f7462ee	0.95463455
57	0x3f743bee	0.95403945
58	0x3f80b91a	1.0056489
59	0x3f80e06a	1.0068486
60	0x3f7f2f58	0.99681616
61	0x3f71d3c5	0.9446376
62	0x3f77b726	0.9676384
63	0x3f75005e	0.95703685
64	0x3f811ad8	1.0086317
65	0x3f7853f3	0.97003096
66	0x3f85d641	1.045601
67	0x3f83355b	1.0250658
68	0x3f82ca08	1.0217905
69	0x3f7934da	0.9734627
70	0x3f70db11	0.9408427
71	0x3f86b9e5	1.052548
72	0x3f85a1e2	1.0440028
73	0x3f8253a3	1.0181774
74	0x3f7bb7b3	0.9832718
75	0x3f8d1fbc	1.102531
76	0x3f7aabf8	0.97918653
77	0x3f5a8b17	0.85368484
78	0x3f711f3e	0.94188297
79	0x3f6a7d6f	0.91597646

indicator_time_mixing.0.indicator_mixing.ln.bias f4 [16, 5]
0	0xbc361fed	-0.01111601
1	0x3d0efa0a	0.034906425
2	0x3c4e1218	0.012577556
3	0xbc253cd0	-0.0100853
4	0xbd4f186a	-0.050560392
5	0xbcc00144	-0.023438103
6	0x3da5ad4f	0.080896966
7	0x3c80588d	0.015667224
8	0xbc566e45	-0.013087814
9	0x3c108fe4	0.008823369
10	0xbc8201fa	-0.015870083
11	0x3bf5176a	0.007479598
12	0x3bd0f612	0.00637699
13	0x3cc4957f	0.023997067
14	0x3be79f7f	0.007068574
15	0xbd1cc15b	-0.038270336
16	0xbd8a439e	-0.06751178
17	0x3bab056a	0.0052191513
18	0xbbd1d9ad	-0.006404123
19	0x3c2f3b43	0.010695281
20	0xbc3cdcae	-0.0115272235
21	0x3cba207e	0.022720572
22	0x3c61df8a	0.013786206
23	0x3d0df0eb	0.034653585
24	0xbcc7177c	-0.02430319
25	0xbc4ffeb4	-0.012695003
26	0xbcb3e2c9	-0.021958726
27	0xbca9da0c	-0.020733856
28	0xbd077a32	-0.03307552
29	0xbbfac3b3	-0.0076527237
30	0xbb93af5d	-0.004506989
31	0xbca49702	-0.020091537
32	0xbd32c2a8	-0.04364267
33	0xbcd96cf1	-0.026541205
34	0x3c4ef8a4	0.012632523
35	0x3c32bb6b	0.010908942
36	0x3d410ea5	0.047133107
37	0xbd35f42c	-0.044422314
38	0xbd1a7043	-0.037704717
39	0x3d052047	0.032501485
40	0xbaf87c59	-0.0018957957
41	0xbb83ad67	-0.004018474
42	0xbd37c4aa	-0.044865288
43	0xbc24db79	-0.010062092
44	0x3c635fb6	0.0138778
45	0x3d0a92cd	0.033831406
46	0x3b202dd0	0.002444137
47	0xbd7335c7	-0.059377458
48	0x3d48ec28	0.04905334
49	0x3d44cfe8	0.048049837
50	0xbb91dc3b	-0.0044513023
51	0x3d399e23	0.045316827
52	0x3d2aa3cd	0.04166012
53	0xbd90f324	-0.070776254
54	0x3d085f1a	0.03329382
55	0xbc932532	-0.017962072
56	0xbc19f9e7	-0.00939796
57	0x3d1ac404	0.03778459
58	0xbc6fb840	-0.014631331
59	0xbb857083	-0.0040722503
60	0xbced0a83	-0.028935676
61	0x3c34775a	0.011014784
62	0x3cddc9d3	0.027073776
63	0x3cfdcdbf	0.030981896
64	0xbc787817	-0.01516535
65	0xba227029	-0.0006196523
66	0x3b98c145	0.0046617114
67	0xbca82b0b	-0.020528337
68	0xbc77699f	-0.015100866
69	0x3cc50962	0.024052326
70	0xbcce9250	-0.025216252
71	0x3d80b862	0.06285168
72	0xbcf5471b	-0.029941132
73	0xbc5b0eb2	-0.013370203
74	0xbbc2ae14	-0.005941162
75	0x3d1bb703	0.03801633
76	0xbe9b0a5e	-0.30281347
77	0x3dd1bc97	0.10241049
78	0x3d4f3473	0.05058713
79	0xbe304077	-0.17212091

indicator_time_mixing.0.time_mixing.ln.weight f4 [16, 5]
0	0x3f3ddcef	0.7416524
1	0x3f84d86b	1.0378546
2	0x3f510967	0.8165497
3	0x3f55a5db	0.834562
4	0x3f9ed975	1.2410113
5	0x3f437d25	0.7636283
6	0x3f903bde	1.126827
7	0x3f5476f7	0.82994026
8	0x3f59cc0e	0.8507699
9	0x3f9d68cc	1.2297606
10	0x3f409d7f	0.7524032
11	0x3f8ca59e	1.0988042
12	0x3f53b1b0	0.82693005
13	0x3f597d73	0.84957045
14	0x3f9e3049	1.2358485
15	0x3f3e4453	0.74323004
16	0x3f8b9a95	1.090655
17	0x3f508ac7	0.8146176
18	0x3f579af9	0.84220845
19	0x3f9a9a25	1.2078291
20	0x3f3df798	0.74205923
21	0x3f8c645c	1.0968127
22	0x3f5257de	0.82165325
23	0x3f584e7a	0.84494746
24	0x3f9e55d0	1.2369938
25	0x3f347c9d	0.70502645
26	0x3f8d9b5d	1.1063038
27	0x3f523500	0.8211212
28	0x3f5fe661	0.87460905
29	0x3fa45beb	1.2840551
30	0x3f4303ac	0.7617748
31	0x3f8d6191	1.10454
32	0x3f5450c8	0.8293576
33	0x3f5c0ba8	0.85955286
34	0x3f9aedb4	1.2103791
35	0x3f46c508	0.77644396
36	0x3f8f185c	1.1179309
37	0x3f568381	0.8379441
38	0x3f5eb9e4	0.87002397
39	0x3f94333d	1.1578137
40	0x3f4c5c2d	0.7982815
41	0x3f924e83	1.143021
42	0x3f55267c	0.8326185
43	0x3f5c6270	0.86087704
44	0x3f9313f8	1.1490469
45	0x3f51c6df	0.8194408
46	0x3f94c6c1	1.1623155
47	0x3f585b26	0.8451408
48	0x3f5d4043	0.8642618
49	0x3f8dc8d9	1.1076919
50	0x3f4027aa	0.7506052
51	0x3f8ff664	1.1247067
52	0x3f4e8eb6	0.8068651
53	0x3f54fa9e	0.8319491
54	0x3f9ce0fc	1.225616
55	0x3f3a6ad2	0.72819245
56	0x3f8addf9	1.0848991
57	0x3f48de50	0.7846422
58	0x3f53ee4b	0.8278548
59	0x3f9ce500	1.2257385
60	0x3f417472	0.75568306
61	0x3f8bf29c	1.0933414
62	0x3f4cbf47	0.79979366
63	0x3f539a93	0.82657737
64	0x3f96a0c7	1.1767815
65	0x3f549cdb	0.8305184
66	0x3f91fab2	1.1404631
67	0x3f543185	0.8288806
68	0x3f594b54	0.84880567
69	0x3f8bf5cf	1.093439
70	0x3f5fd2df	0.8743114
71	0x3f919d6d	1.1376168
72	0x3f5a1335	0.8518556
73	0x3f5e9035	0.8693879
74	0x3f881e2b	1.0634207
75	0x3f5a437f	0.8525924
76	0x3f80364d	1.0016571
77	0x3f590b1b	0.8478257
78	0x3f627524	0.8845999
79	0x3f875e0d	1.0575577

indicator_time_mixing.0.time_mixing.ln.bias f4 [16, 5]
0	0x3e37ed49	0.17961611
1	0xbe3e3c7b	-0.18577759
2	0xbe3c81c3	-0.18408875
3	0xbe3fe555	-0.18739827
4	0x3e3d7564	0.18501812
5	0x3e2d7ae1	0.16941406
6	0xbe38c905	-0.18045433
7	0xbe311ae5	-0.17295416
8	0xbe363b7b	-0.17796127
9	0x3e2e35ce	0.17012712
10	0x3e3438fa	0.1759986
11	0xbe3df0b9	-0.1854886
12	0xbe393df6	-0.18090042
13	0xbe3d4368	-0.18482745
14	0x3e385008	0.1799928
15	0x3e3b5b74	0.18296605
16	0xbe4108da	-0.18851033
17	0xbe3caf47	-0.18426238
18	0xbe3fb43d	-0.18721099
19	0x3e3d8687	0.1850835
20	0x3e366114	0.1781047
21	0xbe485140	-0.19562244
22	0xbe3bb432	-0.18330458
23	0xbe42407b	-0.1896991
24	0x3e3a86cf	0.18215488
25	0x3e2cf54c	0.16890448
26	0xbe35f840	-0.17770481
27	0xbe2c4552	-0.16823319
28	0xbe3319dd	-0.17490335
29	0x3e282f82	0.16424373
30	0x3e2edf47	0.17077361
31	0xbe34ec42	-0.1766825
32	0xbe30a4f0	-0.17250419
33	0xbe384a62	-0.17997125
34	0x3e2e8012	0.17041042
35	0x3e260e24	0.16216332
36	0xbe25f55d	-0.1620688
37	0xbe22d345	-0.15900905
38	0xbe29ef6d	-0.1659524
39	0x3e1ffefa	0.1562461
40	0x3e278463	0.16359095
41	0xbe2639d4	-0.16232997
42	0xbe2602d2	-0.16212013
43	0xbe2a48e4	-0.16629368
44	0x3e23ac59	0.15983714
45	0x3e209d1e	0.15684935
46	0xbe20c26a	-0.15699163
47	0xbe1b0b1b	-0.15140955
48	0xbe224010	-0.1584475
49	0x3e16bba1	0.14720012
50	0x3e4f9352	0.20271042
51	0xbe585214	-0.2112506
52	0xbe497694	-0.1967414
53	0xbe57e84a	-0.21084705
54	0x3e4971e7	0.19672357
55	0x3e504741	0.20339681
56	0xbe4594c5	-0.19295032
57	0xbe5357de	-0.20638987
58	0xbe5f9e16	-0.21837649
59	0x3e4c0ed4	0.19927531
60	0x3e4a8ca2	0.1978021
61	0xbe41b4f8	-0.1891669
62	0xbe49d315	-0.19709428
63	0xbe5ce62c	-0.21572179
64	0x3e466d08	0.1937753
65	0x3e2eff48	0.1708957
66	0xbe23068f	-0.1592047
67	0xbe2a1d97	-0.1661285
68	0xbe3cc2b1	-0.18433644
69	0x3e235d1e	0.1595349
70	0x3e127755	0.14303334
71	0xbe0979fa	-0.13425437
72	0xbe10065f	-0.1406493
73	0xbe2a02b8	-0.166026
74	0x3e0b85af	0.13625215
75	0x3dffe6d1	0.124951966
76	0xbde53c09	-0.111930914
77	0xbe068b36	-0.13139042
78	0xbe35a82a	-0.17739931
79	0x3dfe0aa6	0.12404375

indicator_time_mixing.0.time_mixing.U1.1 f4 [1, 2]
0	0x3ae78f76	0.0017666656
1	0xbaa10487	-0.0012284674

indicator_time_mixing.0.time_mixing.U1.2 f4 [1, 3]
0	0xba2fcd9a	-0.0006706357
1	0x3bae195f	0.005313083
2	0xbb9f95fb	-0.004870174

indicator_time_mixing.0.time_mixing.U1.3 f4 [1, 4]
0	0x3aa8b92e	0.0012872571
1	0xbbb7f741	-0.0056141918
2	0x3bccf368	0.006254602
3	0xba7b9ba8	-0.0009598085

indicator_time_mixing.0.time_mixing.U1.4 f4 [1, 5]
0	0xba056bef	-0.0005089631
1	0xbb32941c	-0.0027248925
2	0x3bafc71a	0.005364311
3	0x3b4a9007	0.00309086
4	0xbb8d732b	-0.0043167076

indicator_time_mixing.0.time_mixing.U1.5 f4 [1, 6]
0	0x3b67f73f	0.0035395173
1	0xbb440367	-0.0029909255
2	0xbb6759ca	-0.0035301321
3	0xbb518f0d	-0.0031976134
4	0x3c0a8a05	0.008455758
5	0xb93b9d3d	-0.00017892286

indicator_time_mixing.0.time_mixing.U1.6 f4 [1, 7]
0	0xbb12d08d	-0.0022402138
1	0x3bce9d7b	0.006305394
2	0xbb27c253	-0.0025598004
3	0x3abe2a0c	0.001450838
4	0xbb507773	-0.0031809479
5	0xbbc0a764	-0.0058793295
6	0x3baeabdd	0.0053305463

indicator_time_mixing.0.time_mixing.U1.7 f4 [1, 8]
0	0xbb1420cd	-0.0022602559
1	0x3adf3ff7	0.0017032613
2	0xbb9fb8c0	-0.004874319
3	0x3b8cb4b8	0.0042940043
4	0xbb375143	-0.002797202
5	0x3ada74b9	0.0016666866
6	0xb982615a	-0.00024868065
7	0x3b445e75	0.0029963527

indicator_time_mixing.0.time_mixing.U1.8 f4 [1, 9]
0	0xbb09a459	-0.00210025
1	0x3ba6c303	0.005089165
2	0x3baab36b	0.0052093766
3	0xba930900	-0.0011217892
4	0x3bc7e218	0.0060999505
5	0xbc28316c	-0.010265689
6	0x3b5096d5	0.0031828184
7	0xbba8e62d	-0.005154392
8	0xbb89cffa	-0.004205701

indicator_time_mixing.0.time_mixing.U1.9 f4 [1, 10]
0	0xba8e0b26	-0.0010837063
1	0xbb986b38	-0.0046514533
2	0xbb9dd1f3	-0.0048162877
3	0x3c227172	0.009914743
4	0x3b3004c7	0.0026858316
5	0xba454515	-0.00075252476
6	0x3b82e79a	0.003994894
7	0xba8709cc	-0.0010302602
8	0x3aabc773	0.0013105705
9	0x39ae9954	0.00033302105

indicator_time_mixing.0.time_mixing.U1.10 f4 [1, 11]
0	0x3c05ad0f	0.008158936
1	0x3ba63d2c	0.00507321
2	0xbc1ede17	-0.009696505
3	0x3c38d0e2	0.01128027
4	0xb825ebd2	-3.955869e-05
5	0xbc0fb6e8	-0.008771636
6	0xba534db4	-0.000806059
7	0xba6c130a	-0.00090055226
8	0xb9fa24f2	-0.00047711242
9	0xbbe96746	-0.007122907
10	0xba9b4259	-0.0011845335

indicator_time_mixing.0.time_mixing.U1.11 f4 [1, 12]
0	0xbc2673e2	-0.010159465
1	0xbc03f0e3	-0.008053037
2	0x3c0b74b8	0.008511715
3	0x3c185bf6	0.009299269
4	0xb9da7960	-0.00041670632
5	0x3ba89ba8	0.005145509
6	0xbb8f86fd	-0.0043801055
7	0x3b913e05	0.004432442
8	0x399f56f0	0.00030391617
9	0xbb6daa7a	-0.0036264942
10	0x3b238e7b	0.002495675
11	0xbb89de8c	-0.004207438

indicator_time_mixing.0.time_mixing.U1.12 f4 [1, 13]
0	0xbbcb21c3	-0.006199093
1	0x3c2978f3	0.010343778
2	0xbb409eab	-0.0029391448
3	0xbc452c89	-0.012034544
4	0xbbae4fe0	-0.0053195804
5	0x3b80642b	0.003918191
6	0xbb965eb9	-0.0045889285
7	0x3c3d3497	0.011548183
8	0x3bf25b2b	0.007396122
9	0x3c3b4676	0.011430373
10	0xbb68ceb6	-0.00355236
11	0xba97b2bb	-0.0011573652
12	0xb75de5dd	-1.3226146e-05

indicator_time_mixing.0.time_mixing.U1.13 f4 [1, 14]
0	0x3c08656b	0.008324961
1	0x3b87eb9a	0.004147959
2	0x3a8bdd64	0.0010670838
3	0xbba5e669	-0.0050628674
4	0x3b3f9a5e	0.0029236297
5	0xbbbb1251	-0.0057089706
6	0x3c1c7437	0.009549192
7	0xbb6cb100	-0.0036116242
8	0xbc00094f	-0.007814719
9	0xbbb957f3	-0.0056562363
10	0x3b61f6ec	0.0034479452
11	0xb817565f	-3.6081645e-05
12	0x38e06ebd	0.00010701779
13	0xbbabfbb3	-0.0052485107

indicator_time_mixing.0.time_mixing.U1.14 f4 [1, 15]
0	0xbafc12f6	-0.0019231725
1	0x3c75fea5	0.015014325
2	0x3c6d078e	0.014467133
3	0xbc8c3d21	-0.017118992
4	0x3b94e3ff	0.004543781
5	0x3bbbb195	0.0057279565
6	0xbc894332	-0.016755674
7	0xbb8e56b1	-0.0043438305
8	0x3b4bac72	0.0031078127
9	0xbc01e10c	-0.0079271905
10	0x3c182b85	0.00928772
11	0xbb5d1fd6	-0.00337409
12	0x3b9a9808	0.0047178306
13	0xbc03106e	-0.007999523
14	0xbb68d307	-0.0035526173

indicator_time_mixing.0.time_mixing.U1.15 f4 [1, 16]
0	0x3c28f610	0.010312572
1	0x3bb2772b	0.005446335
2	0x3c3140fb	0.010818715
3	0xbc69bfc1	-0.014266909
4	0xbc0f9c5d	-0.008765307
5	0x3bb9b4ad	0.00566729
6	0xbaec40ec	-0.0018024719
7	0xbc6bf438	-0.014401488
8	0xbbceabcc	-0.006307101
9	0x3a16a76c	0.00057469937
10	0x3c2de219	0.010612988
11	0x3bfa7334	0.007643128
12	0x3a8e9401	0.0010877849
13	0xbc1fbf53	-0.009750205
14	0xbbd35a25	-0.006449955
15	0xb846afbe	-4.737055e-05

indicator_time_mixing.0.time_mixing.U2.1 f4 [1, 2]
0	0xbc3e6625	-0.011621033
1	0x3b965d23	0.0045887395

indicator_time_mixing.0.time_mixing.U2.2 f4 [1, 3]
0	0x3c162b31	0.009165571
1	0xbbe7226a	-0.007053663
2	0x3b7fba38	0.0039020907

indicator_time_mixing.0.time_mixing.U2.3 f4 [1, 4]
0	0x3b12a05a	0.002237341
1	0x3bce3c38	0.0062937997
2	0x3c345b6f	0.011008128
3	0xbc0d274b	-0.008615325

indicator_time_mixing.0.time_mixing.U2.4 f4 [1, 5]
0	0xbae97123	-0.0017810207
1	0x3853fb76	5.054051e-05
2	0x3ad9d415	0.0016618992
3	0x3c3833f4	0.011242855
4	0xbad0b0ff	-0.001592189

indicator_time_mixing.0.time_mixing.U2.5 f4 [1, 6]
0	0x3bea8706	0.0071572093
1	0xbc5cbe32	-0.0134730805
2	0xbbc08b79	-0.0058760014
3	0xbba3476a	-0.0049828785
4	0x3bfaed7d	0.0076577053
5	0xbbef3d84	-0.0073010344

indicator_time_mixing.0.time_mixing.U2.6 f4 [1, 7]
0	0x3c5c0ee2	0.013431283
1	0x3a390fb1	0.0007059528
2	0x3ca96814	0.020679511
3	0x3be1f94e	0.0068961745
4	0x35ff754e	1.9033121e-06
5	0xbc42f21b	-0.011898543
6	0x3c5b64e4	0.013390753

indicator_time_mixing.0.time_mixing.U2.7 f4 [1, 8]
0	0xbc172717	-0.009225628
1	0xbc6fb884	-0.014631394
2	0xbc090974	-0.00836407
3	0xbcfa0201	-0.030518534
4	0x3bba7b44	0.005690964
5	0xba34eeda	-0.0006902047
6	0xbc02dbb5	-0.007986953
7	0xbaefcbd2	-0.0018294996

indicator_time_mixing.0.time_mixing.U2.8 f4 [1, 9]
0	0x3b47a1aa	0.003046135
1	0x3b9a4b65	0.0047086948
2	0x3a615907	0.0008596335
3	0xba5f99cd	-0.0008529693
4	0x3c033853	0.008009034
5	0xbc1aa779	-0.009439343
6	0xbc9aa89c	-0.018879227
7	0xbc296026	-0.010337865
8	0x3b4a9b81	0.0030915441

indicator_time_mixing.0.time_mixing.U2.9 f4 [1, 10]
0	0x3a593a8e	0.00082866184
1	0x3bb0c445	0.005394491
2	0x3ba207a4	0.0049447585
3	0xbc97c953	-0.018528616
4	0xbbf4fd1b	-0.0074764616
5	0x3a15157f	0.0005687102
6	0xbc0b7752	-0.008512335
7	0x3c45f9b8	0.012083463
8	0x3c3319a8	0.01093141
9	0x3c168324	0.00918654

indicator_time_mixing.0.time_mixing.U2.10 f4 [1, 11]
0	0xbbeed989	-0.007289116
1	0x3b9cc09e	0.004783704
2	0x3adbdb0d	0.0016773656
3	0x3ad98614	0.0016595745
4	0x3c8049c3	0.015660172
5	0xbb58bcdc	-0.0033071553
6	0xba99f286	-0.0011745251
7	0x3943a1d5	0.00018656936
8	0xbbc30ac1	-0.0059522097
9	0xbc932c31	-0.017965408
10	0xbbaf4b47	-0.00534955

indicator_time_mixing.0.time_mixing.U2.11 f4 [1, 12]
0	0x3b95ac2a	0.0045676427
1	0x3971c18d	0.00023055654
2	0x3b40b0b4	0.0029402198
3	0xbb62dc35	-0.0034616117
4	0x3c046a00	0.008081913
5	0xbb1830df	-0.0023222489
6	0x3b2e49f9	0.0026594384
7	0xbcb7b9a1	-0.022427382
8	0x3bd4599e	0.0064804098
9	0x3c2ae9e3	0.0104317395
10	0xbbc8aada	-0.0061238827
11	0xbc3c8fc5	-0.011508887

indicator_time_mixing.0.time_mixing.U2.12 f4 [1, 13]
0	0x3b97075a	0.0046090307
1	0x3ba75028	0.005105991
2	0x3b7f65e6	0.0038970648
3	0x3bf8fb53	0.0075983196
4	0xbbb24efd	-0.005441545
5	0x3b89f20c	0.0042097624
6	0xbb310ac0	-0.0027014464
7	0x3ccc6581	0.024950745
8	0x3b9a0c23	0.004701154
9	0x3c02065a	0.007936085
10	0xbbbfd8ea	-0.0058547156
11	0xbb6a6d3d	-0.0035770677
12	0xbc254fc6	-0.01008982

indicator_time_mixing.0.time_mixing.U2.13 f4 [1, 14]
0	0xbbd9345c	-0.006628556
1	0x3cb479df	0.022030769
2	0x3ca0e2db	0.019639423
3	0x3bef5208	0.00730348
4	0xbb913af0	-0.0044320747
5	0x386db1ab	5.667067e-05
6	0x3c08b1e7	0.0083431965
7	0xbbaa8690	-0.0052040294
8	0x3bf4e2d4	0.007473329
9	0x3a9cf5d1	0.0011975114
10	0xbbc309e9	-0.005952109
11	0x3b187c1f	0.0023267341
12	0xbbfd4359	-0.0077289757
13	0x3c32e1b4	0.01091807

indicator_time_mixing.0.time_mixing.U2.14 f4 [1, 15]
0	0xbb2ca61b	-0.0026344124
1	0x3a99e649	0.0011741604
2	0xbc0263ed	-0.0079583945
3	0x3c874d32	0.016516302
4	0x3c4de958	0.0125678405
5	0xbc2d35f1	-0.010571943
6	0x3b98561b	0.0046489364
7	0x3a96006b	0.0011444216
8	0xbc79d73a	-0.015249068
9	0x3bd372cd	0.0064528943
10	0xbb990e4e	-0.0046708947
11	0xbc98684c	-0.01860442
12	0xbab3d55c	-0.0013720202
13	0x3bb48760	0.005509302
14	0x3adc8d79	0.001682683

indicator_time_mixing.0.time_mixing.U2.15 f4 [1, 16]
0	0x3adb0803	0.0016710762
1	0x3c042274	0.008064855
2	0x3c5a4da5	0.013324176
3	0xba99157f	-0.001167938
4	0xbc43be7a	-0.011947269
5	0xbcbfe7f9	-0.023426043
6	0xbb2a2e66	-0.0025967597
7	0x3c1567bb	0.00911897
8	0xbbbd8c6d	-0.0057845623
9	0x3c9cac59	0.01912515
10	0x3bc12a5f	0.0058949436
11	0xbb1dd80b	-0.002408507
12	0x3a7c5b9e	0.0009626689
13	0x3c39ad85	0.011332874
14	0x3a5aab19	0.00083415356
15	0xb9ca69b1	-0.0003860719

indicator_time_mixing.0.fc.weight f4 [1, 5]
0	0xbe6c8499	-0.23097457
1	0x3e46a2ea	0.19398084
2	0x3e77fb57	0.24216972
3	0x3ebfe328	0.37477994
4	0xbe62c6d4	-0.2214616

indicator_time_mixing.1.indicator_mixing.W1 f4 [5, 64]
0	0x3fd7a455	1.6847025
1	0xbf1b40d6	-0.60645807
2	0x40172847	2.3618333
3	0xbd750d71	-0.05982727
4	0x3f74102c	0.95337176
5	0xbfac7482	-1.3473055
6	0xbf3a5af9	-0.72795063
7	0x3eef3f6c	0.46728075
8	0xbe651c4d	-0.22374077
9	0x3f39f311	0.72636515
10	0xbf3d2222	-0.7388021
11	0x3fdb156e	1.7115915
12	0x3f9c9c2c	1.223516
13	0x3f5e0504	0.86726403
14	0x3e26f6fc	0.16305155
15	0x3ecc7688	0.39934182
16	0xbf89c9d4	-1.0764718
17	0x3d3495ee	0.044088297
18	0x3f188ebc	0.59592795
19	0xbd8359c3	-0.06413605
20	0x3fa22a4f	1.2669162
21	0xbf058fc2	-0.5217248
22	0x3fed8ef9	1.8559257
23	0xbe34008d	-0.17578335
24	0xbe195319	-0.14973105
25	0xbe72b04a	-0.23700061
26	0x3ddb1960	0.10698199
27	0x3eaa3484	0.3324319
28	0x3f47c690	0.7803736
29	0xbe7cd589	-0.24690832
30	0x3f8bebd1	1.093134
31	0xbfa0c45d	-1.2559925
32	0x3de16c75	0.11007015
33	0xbf7eb11a	-0.99488986
34	0x3f19c9f3	0.60073775
35	0x402974db	2.6477573
36	0x3f8115e3	1.0084804
37	0xbea03e8d	-0.31297722
38	0x3f7a5342	0.9778329
39	0xbeed8ccb	-0.4639648
40	0x3f4783cf	0.779355
41	0xbec77582	-0.3895684
42	0xbfa0b050	-1.2553806
43	0x3ed58da5	0.4170963
44	0x3eb70129	0.35743073
45	0xbf317ec6	-0.69334066
46	0xbe94f7f3	-0.2909542
47	0xbf027640	-0.50961685
48	0xbf9e9044	-1.2387776
49	0xbe68cb91	-0.22733904
50	0x3f17290d	0.59047014
51	0x3efb727c	0.49110782
52	0x3f0fc163	0.5615446
53	0xbea635e6	-0.32462996
54	0xbff8866d	-1.9416023
55	0x3e84455a	0.2583416
56	0x3e772772	0.24136141
57	0xbf877804	-1.0583501
58	0xbe8ecadb	-0.2788914
59	0xbf843789	-1.0329448
60	0x3f18d800	0.5970459
61	0x3f448cfb	0.7677762
62	0x3e78cfcf	0.24298023
63	0x3f6fbbef	0.9364614
64	0x3ea04001	0.3129883
65	0x3f8c0863	1.094006
66	0xbe0bc1e1	-0.13648178
67	0x3ef8ac82	0.48569113
68	0x3fbb021f	1.4610022
69	0x3f16146b	0.58624905
70	0x3fea514c	1.830606
71	0xbf76a45d	-0.9634455
72	0xbfd71df6	-1.6806018
73	0xbf9a79ce	-1.2068422
74	0xbf5849e6	-0.8448776
75	0xbf91eda0	-1.1400642
76	0x3f8f1fa8	1.1181536
77	0xbe989417	-0.29800484
78	0x3fba360e	1.4547746
79	0xbfb919fc	-1.4461055
80	0xbf0c0da6	-0.54708326
81	0x3f02a832	0.51037896
82	0xbeccca55	-0.39998117
83	0x3ee5797c	0.44819248
84	0xbf87324b	-1.0562223
85	0x3f8a5238	1.0806341
86	0xbf770f44	-0.9650767
87	0xbf9e8260	-1.2383537
88	0x3fa4fe1e	1.289005
89	0x3f2ccc68	0.674994
90	0xbe4a85d5	-0.19777615
91	0x3f1046db	0.56358117
92	0x3e50825a	0.20362225
93	0xbf12ab38	-0.5729251
94	0xbf196de5	-0.5993331
95	0xbeace849	-0.3377097
96	0x3fc3229a	1.5244935
97	0x3f8a2b8d	1.0794541
98	0x3eef2cb0	0.4671378
99	0x3f1b1ac7	0.60587734
100	0xc0069bfa	-2.10327
101	0xbfd67d05	-1.6756903
102	0x3f125e99	0.57175595
103	0x3edce399	0.43142393
104	0xbfff3d39	-1.9940559
105	0x3e7b590b	0.24545686
106	0xbea45e8e	-0.3210339
107	0x3fd64528	1.6739855
108	0x3d812868	0.06306535
109	0x3ecb1da8	0.39671063
110	0x3f8870d2	1.065943
111	0xbf38ece7	-0.72236484
112	0x3d38b6f0	0.045096338
113	0x3e162d31	0.14665677
114	0xbf98414d	-1.1894928
115	0x3fa80548	1.3126612
116	0xbe0df407	-0.1386262
117	0xbebc003e	-0.36718935
118	0xbeca89ce	-0.39558262
119	0x3d0df3d3	0.034656357
120	0xbf6c14ff	-0.9221954
121	0x3d576aca	0.052592076
122	0x3fb5d895	1.420672
123	0xbf81589c	-1.0105166
124	0xbdf4d03c	-0.1195378
125	0xbefa98dc	-0.48944747
126	0xbfb44ff7	-1.4086903
127	0xbfdaefd7	-1.7104443
128	0x3fa4ae41	1.2865678
129	0xbfa740ac	-1.3066611
130	0x3e0851a1	0.13312389
131	0xbfc7ab13	-1.5599083
132	0x3fb7e48f	1.4366626
133	0xbda6545c	-0.08121559
134	0xbdcf6c29	-0.10128052
135	0x3ecfee1a	0.40611345
136	0x3f83f367	1.0308656
137	0xbd9e9bc5	-0.077445544
138	0x3fcfe3b6	1.6241367
139	0x3f154012	0.5830089
140	0xbf860f28	-1.0473375
141	0x3ed0a179	0.40748194
142	0x3f10494e	0.56361854
143	0xbd9d43e2	-0.07678963
144	0x3df7e38a	0.121039465
145	0xbf203499	-0.6258026
146	0x3d8da004	0.06915286
147	0xbfa8747a	-1.3160546
148	0x3fd08a8e	1.6292284
149	0xbf279d82	-0.6547471
150	0xbfbaa029	-1.4580127
151	0x3ff72910	1.9309406
152	0xbfe2797c	-1.7693324
153	0xc00fbc30	-2.245861
154	0x3f260c73	0.64862746
155	0x3e519c3b	0.20469753
156	0x3f37eef0	0.71848965
157	0xbed4f0e5	-0.41590038
158	0x3f4727f7	0.77795357
159	0xbec4761f	-0.3837137
160	0xbfc313bd	-1.5240399
161	0xbff31d9f	-1.8993415
162	0x3d17e387	0.03708222
163	0xbf00fc10	-0.50384617
164	0x3f6820fa	0.9067532
165	0x3dc845e0	0.097789526
166	0x3fa3d9a7	1.2800797
167	0xbe264e45	-0.16240795
168	0x3fc880d2	1.5664313
169	0xbfc8ed84	-1.5697484
170	0xbf29a14e	-0.66261756
171	0x3eb76804	0.35821545
172	0xbd0d9ffa	-0.034576394
173	0x3fcd213e	1.602577
174	0x3fd5c2bc	1.6700053
175	0x4001db0b	2.0289943
176	0xbdfd5f63	-0.12371709
177	0x3f4ab233	0.7917816
178	0xbec67545	-0.38761345
179	0xbf6f2f1d	-0.93431264
180	0xbf8a8863	-1.0822872
181	0xbfe11522	-1.7584574
182	0xbc774d03	-0.015094045
183	0x3f9a0d31	1.2035276
184	0xbed9c2c4	-0.42531407
185	0xbf21848d	-0.6309288
186	0x3c13b2d5	0.009014805
187	0x3f2a4b0b	0.66520756
188	0x3e2d0e81	0.16900064
189	0xbf915f86	-1.1357276
190	0xbf8fc101	-1.1230775
191	0xbe900b63	-0.28133687
192	0xbb199e74	-0.0023440393
193	0xbfae580d	-1.3620621
194	0x3ec1ded3	0.37865314
195	0x3f8cb19d	1.0991703
196	0x3f2fedcb	0.6872222
197	0xc0008576	-2.0081458
198	0xbcf33973	-0.02969048
199	0xbf2043e4	-0.6260359
200	0x3e355c05	0.17710884
201	0xbfca32e3	-1.5796779
202	0xbcd5ea24	-0.026112624
203	0x3f092d38	0.53584623
204	0xbf513e77	-0.8173594
205	0x3f409de7	0.7524094
206	0x3f5c5669	0.8606935
207	0x3e7b1847	0.2452098
208	0xbf961eb9	-1.1728126
209	0xbf7a79ec	-0.9784229
210	0xbc53ba77	-0.012922875
211	0x3f53465e	0.82529247
212	0x402cef15	2.7020924
213	0x3fa8efc7	1.3198174
214	0x3f90756c	1.1285834
215	0x3f938595	1.1525141
216	0xbe8eb509	-0.27872494
217	0xbf7c88bc	-0.9864614
218	0x3f87a2c5	1.0596548
219	0xbfe516a5	-1.7897536
220	0xbfb5c821	-1.42017
221	0xbf056bae	-0.5211743
222	0x3f8baf0c	1.0912795
223	0x3e5e92e7	0.21735726
224	0xbf374b4a	-0.71599257
225	0x3ecd8b2a	0.40145236
226	0x3f63d205	0.8899234
227	0x3f885320	1.0650368
228	0xbe2c5466	-0.1682907
229	0x3f0973ef	0.53692526
230	0x3f0a83bb	0.54107255
231	0x3e0c43be	0.13697717
232	0x3fb24a97	1.3929013
233	0xbf317208	-0.6931462
234	0xbfd93e87	-1.6972207
235	0x3fdc4401	1.7208253
236	0xbe414514	-0.18874007
237	0x3f0c732c	0.5486324
238	0xbf98a6d2	-1.192591
239	0xbfd86aac	-1.6907554
240	0xbdf7139e	-0.120642886
241	0x3e7fe71d	0.24990506
242	0x3e7f8eee	0.24956867
243	0x3d990813	0.07472243
244	0x3f55ec29	0.83563477
245	0x3f981469	1.1881229
246	0x3fa041e7	1.2520112
247	0x3fc51377	1.5396565
248	0xbe7056a6	-0.23470554
249	0xbe09fb2a	-0.13474718
250	0xbe000a45	-0.12503918
251	0x3f07df11	0.5307475
252	0x3f78eb32	0.9723388
253	0xbfc01ea9	-1.5009357
254	0xbece4ad4	-0.40291464
255	0x3ee1fdc2	0.44138914

indicator_time_mixing.1.indicator_mixing.W2 f4 [64, 5]
0	0xbe8fa539	-0.28055742
1	0xbfab5d41	-1.3387834
2	0x3fa585b6	1.293143
3	0x3f542b3b	0.82878464
4	0xbef3fe8f	-0.4765515
5	0xbe9b8ef0	-0.3038249
6	0xbd83c15c	-0.06433365
7	0xbf3bdc81	-0.7338334
8	0xbeb3735e	-0.35048956
9	0xbe8e86f0	-0.27837324
10	0x3f3686a9	0.71299225
11	0xbd931003	-0.07180788
12	0xbcb1e4a5	-0.021715472
13	0x3f2e44d1	0.68073756
14	0x3c8975d8	0.016779825
15	0x3d2e2e35	0.042524535
16	0xbf7535a7	-0.9578499
17	0x3f0db92f	0.5536069
18	0x3f8dfa80	1.1092072
19	0xbf2651f4	-0.649688
20	0x3eb12ca4	0.3460437
21	0xbc4e1bc9	-0.012579867
22	0xbfd0c846	-1.6311119
23	0x3f82eb9b	1.0228151
24	0x3f2853ac	0.65752673
25	0x3ec29113	0.38001308
26	0xbf05f384	-0.523247
27	0xbec7cd68	-0.390239
28	0x3eeaa146	0.45826167
29	0x3fe5d4aa	1.7955525
30	0x3df4474b	0.119276606
31	0xbed0d0ae	-0.4078421
32	0xbed1e58e	-0.4099545
33	0x3e4c9be1	0.19981338
34	0x400d6bde	2.2097087
35	0xbf05786c	-0.52136874
36	0xbed79d7f	-0.42112347
37	0xbedefa19	-0.43550184
38	0xbeaea59c	-0.34110725
39	0x3d0fa921	0.035073403
40	0x3f88b0b2	1.0678923
41	0xbee9945f	-0.4562101
42	0xbf8b33fa	-1.0875237
43	0xc024773b	-2.5697773
44	0x3d896cfe	0.06710242
45	0xbf138ac2	-0.576336
46	0x3e0216a6	0.12703952
47	0x3fda6f25	1.7065169
48	0xbf94dabb	-1.1629251
49	0x3d70f0d7	0.058823433
50	0xbf7e2671	-0.99277407
51	0xbecd8f70	-0.40148497
52	0xbf262dc7	-0.649136
53	0xbf998074	-1.1992326
54	0x3e2e9be7	0.1705166
55	0x3f009af2	0.5023643
56	0xbd57105b	-0.052505832
57	0x3f931c96	1.1493099
58	0x3f720f00	0.9455414
59	0x40232320	2.5490189
60	0xbda4eb7c	-0.080527276
61	0xbf9e47d5	-1.2365671
62	0xbe22a8ef	-0.15884756
63	0x3e60fc75	0.21971305
64	0x3f75bea9	0.9599405
65	0x3f593327	0.8484368
66	0x3b65ece7	0.0035083832
67	0x3fe13929	1.7595569
68	0xbd737ab9	-0.05944321
69	0x3f415945	0.7552684
70	0x3f0b629a	0.5444733
71	0xbed04ce1	-0.40683654
72	0xbf39f78a	-0.7264334
73	0xbeeb6584	-0.45975888
74	0xbf8c4da6	-1.0961196
75	0x3ed282aa	0.41115314
76	0x3fb40dfc	1.4066768
77	0xbe10260a	-0.14077011
78	0xbea0f4c4	-0.3143674
79	0x3f063ea6	0.52439344
80	0x3f3442b0	0.7041426
81	0x3f2caf87	0.67455333
82	0xbe9c11e4	-0.304824
83	0x3e305628	0.17220366
84	0x3f7c1df8	0.9848323
85	0xbfd836f4	-1.689177
86	0x3ffaa9a2	1.9583018
87	0x3f08d8fa	0.5345608
88	0x3ccf9f69	0.025344567
89	0x4004ed6c	2.076991
90	0x3e22d994	0.15903312
91	0xbfbf0d63	-1.492596
92	0xbebe9145	-0.37220207
93	0x3e3f7d43	0.18700127
94	0xbf7636d4	-0.9617741
95	0x3ead9d24	0.3390895
96	0xbfe933a6	-1.8218887
97	0xbf662ffa	-0.89916956
98	0x3ff35814	1.9011254
99	0xbf54c09b	-0.8310639
100	0x3fe47565	1.7848326
101	0xbf9710bb	-1.1801981
102	0x3eb62dd1	0.3558183
103	0xc00e0c1e	-2.2194896
104	0x3e83381a	0.2562874
105	0x3f98c308	1.1934519
106	0xbff5a0c9	-1.9189693
107	0x3ecc1749	0.39861515
108	0xbe8f1602	-0.27946478
109	0x3dae319d	0.08505557
110	0x3f9596e6	1.1686676
111	0x3f528140	0.8222847
112	0x3f8b7228	1.0894213
113	0x3f3c2355	0.7349141
114	0xbf2393f7	-0.6389765
115	0x3ce6f3c0	0.028192401
116	0xbf0b108c	-0.54322124
117	0xbf7e9af7	-0.9945521
118	0x3d56e40e	0.052463584
119	0xbf9bdd94	-1.2176995
120	0x3e1cacea	0.15300336
121	0xbe9f05ff	-0.31059262
122	0x3ebbbf63	0.36669454
123	0xbe2f3e40	-0.1711359
124	0xbfd3a340	-1.6534195
125	0x3fd8948b	1.6920332
126	0xbf3a2b95	-0.7272275
127	0x3fcf3c3a	1.6190255
128	0xbf41a9db	-0.75649804
129	0x3f12284e	0.5709275
130	0x3effabaf	0.49935672
131	0xbe255650	-0.16146207
132	0x3e82f395	0.25576463
133	0x3ea9b15f	0.33143136
134	0x3e05a0d6	0.13049635
135	0xbf9f9037	-1.2465886
136	0xbe18d94f	-0.14926647
137	0x3fa21417	1.2662381
138	0x3ea7aa9e	0.32747358
139	0xbfcce1ae	-1.6006372
140	0x3ee489fa	0.44636518
141	0x3e8540e9	0.26026085
142	0xbeccfd17	-0.40036842
143	0xbfb7a497	-1.4347104
144	0x3fcef963	1.6169857
145	0x3d105b42	0.03524328
146	0x3e8f7715	0.2802054
147	0x3ee6f57d	0.45109168
148	0x3b4aee4d	0.0030964792
149	0x3f5af804	0.8553469
150	0xbec2eb5f	-0.380702
151	0xbe8bf2c7	-0.27333662
152	0xbe0c3f0c	-0.13695925
153	0x3e1a91f7	0.15094744
154	0xbf01cf79	-0.50707203
155	0x3d8bc571	0.06824768
156	0xbe41872a	-0.18899217
157	0x3ee8683c	0.45392025
158	0xbf43169c	-0.76206374
159	0x3eb6d780	0.35711288
160	0x3e37a18f	0.17932723
161	0x3f1bc3b6	0.60845506
162	0x3f5d3ff7	0.8642573
163	0x3fa732a7	1.3062333
164	0x3f7f6196	0.9975828
165	0xbee5784d	-0.44818345
166	0x3fb70424	1.4298139
167	0xbfaa2f1d	-1.3295628
168	0xbdd33e27	-0.10314589
169	0xbf85b894	-1.0446954
170	0x3f1e8379	0.6191936
171	0xbee65431	-0.44986108
172	0xbfb1f953	-1.3904213
173	0xbe036611	-0.12831904
174	0x3ea4ff88	0.32226205
175	0x3fdbe32c	1.7178702
176	0xbf2e56ed	-0.6810139
177	0x3e33c561	0.17555763
178	0x3f8f40a3	1.11916
179	0x3fb6f9e2	1.4295008
180	0xbf5805d5	-0.843839
181	0x3f48f296	0.78495157
182	0x3fb18cd5	1.3871104
183	0xbea23c2b	-0.3168653
184	0x3e602ddb	0.21892492
185	0xbfaf5f23	-1.3700908
186	0xbf8ee398	-1.1163206
187	0xbf7aab30	-0.9791746
188	0xbe9bb564	-0.30411828
189	0x3fa658b3	1.2995819
190	0xbfcec14e	-1.6152742
191	0x3f063d3c	0.52437186
192	0x4008249f	2.1272352
193	0x3f6dd722	0.9290639
194	0xc00ea28c	-2.228671
195	0xbf10196e	-0.562888
196	0xbf9d9187	-1.2310036
197	0x3eda3f5e	0.4262647
198	0x3eff3181	0.49842456
199	0x3ec26d8d	0.37974206
200	0xbf8084ed	-1.0040566
201	0xbf4fee4a	-0.81222975
202	0x3eb7a436	0.3586747
203	0x3ee5c129	0.44873932
204	0xbe541604	-0.20711523
205	0xbf811ab2	-1.0086272
206	0xbff70a98	-1.9300108
207	0xbdc357f8	-0.09538263
208	0xbf17fdc1	-0.5937157
209	0x3ff844d6	1.9396007
210	0xbe88870d	-0.26665536
211	0x3da17d9d	0.07885287
212	0xbf3b052a	-0.73054755
213	0x3f9d921d	1.2310215
214	0x3fb4167a	1.4069359
215	0x3f8d229d	1.1026188
216	0xbfef5338	-1.8697271
217	0x3fa9d865	1.3269163
218	0xbf33cb77	-0.7023234
219	0x3fb3ae97	1.4037656
220	0xbf91993a	-1.1374886
221	0xbf944b16	-1.1585414
222	0x3dac283c	0.084061116
223	0x3e93cea4	0.28868592
224	0x3fb19b0b	1.387544
225	0x3f785a78	0.97013044
226	0x3d929d5f	0.071589224
227	0x3f34d4af	0.7063703
228	0xbf1020b3	-0.56299895
229	0x3fbf5885	1.4948889
230	0xbf18db8f	-0.5971002
231	0xbfc8d236	-1.5689151
232	0xbe9535c5	-0.29142585
233	0x3f599796	0.84996927
234	0xbe8a4621	-0.2700663
235	0x3f9b12c2	1.21151
236	0x3fbf4951	1.4944249
237	0xbf339f10	-0.70164585
238	0xbe3af67d	-0.1825809
239	0xbf74858f	-0.95516294
240	0x3fa54f7d	1.2914883
241	0x3f2c86c4	0.67393136
242	0xbeca1ef6	-0.39476746
243	0xbfffd1d4	-1.998591
244	0x3e878b7f	0.26473615
245	0x3fc0a2c6	1.5049675
246	0xbf03f5f3	-0.51547164
247	0x3f97a41a	1.1846955
248	0xbfad61c4	-1.3545461
249	0x3edb4516	0.42826146
250	0x3efcece3	0.4939948
251	0x3e0730d5	0.13202222
252	0x3f81af7d	1.013168
253	0x3ea8190d	0.32831612
254	0xbf3a5d94	-0.7279904
255	0x3fe42bb6	1.782584

indicator_time_mixing.1.indicator_mixing.ln.weight f4 [8, 5]
0	0x3f768e52	0.96310914
1	0x3f7bedbf	0.98409647
2	0x3f82a5c5	1.0206839
3	0x3f7b4db4	0.9816544
4	0x3f7ffe6e	0.99997604
5	0x3f7f2a2b	0.9967372
6	0x3f829b3c	1.0203624
7	0x3f7c9721	0.98668104
8	0x3f7c1945	0.9847606
9	0x3f7826fa	0.96934474
10	0x3f7a6f94	0.97826505
11	0x3f831cca	1.0243161
12	0x3f7aa40d	0.9790657
13	0x3f79ef67	0.97630924
14	0x3f6cfb65	0.925711
15	0x3f821200	1.0161743
16	0x3f8487b6	1.0353916
17	0x3f7f7828	0.9979272
18	0x3f7e7254	0.993932
19	0x3f80fd7c	1.0077357
20	0x3f55086f	0.83215994
21	0x3f703e99	0.93845516
22	0x3f806884	1.0031896
23	0x3f74e4bd	0.95661527
24	0x3f86f6ef	1.0544108
25	0x3f7e0b76	0.9923624
26	0x3f831f4b	1.0243925
27	0x3f7e42be	0.9932059
28	0x3f7cee39	0.98801
29	0x3f8a81cb	1.082086
30	0x3f80df66	1.0068176
31	0x3f7d50af	0.9895124
32	0x3f7d5f10	0.9897318
33	0x3f805f08	1.0029001
34	0x3f87e018	1.0615263
35	0x3f80681c	1.0031772
36	0x3f823e48	1.0175257
37	0x3f7da9d6	0.99087274
38	0x3f7f25e1	0.99667174
39	0x3f69d45a	0.9133965

indicator_time_mixing.1.indicator_mixing.ln.bias f4 [8, 5]
0	0xbcea6ea8	-0.028617218
1	0x3c33d22d	0.010975403
2	0xbcffc2cd	-0.031220818
3	0x3c835722	0.01603276
4	0xbd370470	-0.044681966
5	0xbbb8f9c6	-0.0056450097
6	0x3ce482b0	0.027894348
7	0x3c215be2	0.009848567
8	0x3c66dd54	0.014090855
9	0x3d811674	0.06303111
10	0xbccff048	-0.02538313
11	0x3ca0bc49	0.019621031
12	0x3ccda2a4	0.025101967
13	0x3cd22800	0.02565384
14	0x3dba852b	0.09107431
15	0x3c75f3ba	0.015011722
16	0x3d0225b3	0.031774234
17	0x37a1aee5	1.9274137e-05
18	0x3ba38091	0.0049896915
19	0xbccaad3d	-0.02474081
20	0xbe38d666	-0.18050537
21	0xbd7570a3	-0.059921872
22	0xbc0eafb8	-0.008708887
23	0x3d6bdc9e	0.057583444
24	0x3c3c726d	0.011501891
25	0xbbfff1b9	-0.007810798
26	0x3c79f652	0.015256481
27	0x3beb39d0	0.0071785226
28	0x3c0efd09	0.0087273205
29	0xbd4216bf	-0.047384974
30	0x3c0879e3	0.008329841
31	0xbc7c6b57	-0.015406451
32	0x3c25a10e	0.010109199
33	0xbb77f412	-0.0037834686
34	0xbd045b3b	-0.032313567
35	0xbb0c96e7	-0.002145225
36	0x3aa85c97	0.0012844977
37	0x3cd63d24	0.026152201
38	0x3ba51c1e	0.005038752
39	0x3d61c290	0.05511719

indicator_time_mixing.1.time_mixing.ln.weight f4 [8, 5]
0	0x3f7d1284	0.9885638
1	0x3f848ccc	1.0355468
2	0x3f85a353	1.0440468
3	0x3f7665e0	0.962492
4	0x3f87e4a4	1.061665
5	0x3f70881b	0.9395768
6	0x3f85e30d	1.0459915
7	0x3f7d702c	0.98999286
8	0x3f6dfe4a	0.9296614
9	0x3f835daf	1.0262965
10	0x3f6ad6b1	0.91733843
11	0x3f824edd	1.0180317
12	0x3f7c1bd3	0.98479956
13	0x3f6a6c94	0.9157193
14	0x3f827879	1.0193015
15	0x3f72f294	0.94901395
16	0x3f83f31a	1.0308564
17	0x3f7df7f1	0.99206454
18	0x3f6e2d9b	0.9303834
19	0x3f83a0cb	1.0283445
20	0x3f6e4223	0.93069667
21	0x3f837e8a	1.0272992
22	0x3f808b4a	1.0042508
23	0x3f60bf83	0.87792224
24	0x3f813831	1.0095273
25	0x3f730719	0.94932705
26	0x3f828d2b	1.0199331
27	0x3f7f07f0	0.99621487
28	0x3f65da11	0.8978587
29	0x3f82da88	1.022294
30	0x3f773012	0.96557724
31	0x3f845328	1.0337877
32	0x3f7e0b22	0.9923574
33	0x3f6ff17c	0.9372785
34	0x3f8442c9	1.0332881
35	0x3f7bc337	0.9834475
36	0x3f82648a	1.0186932
37	0x3f7e64e6	0.9937271
38	0x3f712dad	0.9421032
39	0x3f819de2	1.0126307

indicator_time_mixing.1.time_mixing.ln.bias f4 [8, 5]
0	0x3d58171c	0.052756414
1	0xbd16fb27	-0.03686061
2	0x3d3db2ef	0.046313222
3	0xbd5eb615	-0.054372866
4	0x3d56ed46	0.052472375
5	0x3d51ab4e	0.05118876
6	0xbd317d26	-0.04333224
7	0xbc8c5329	-0.017129498
8	0xbd701711	-0.058615748
9	0x3d49aaf5	0.049235303
10	0x3d5e2d04	0.05424215
11	0xbbfebf36	-0.007774259
12	0xbc834957	-0.016026182
13	0xbd944ca7	-0.07241183
14	0x3d4ee414	0.05051048
15	0x3d4a14d7	0.04933628
16	0xbcbbb667	-0.022914125
17	0xbc45131b	-0.012028481
18	0xbd804643	-0.06263401
19	0x3d41ff1d	0.047362436
20	0x3d468fd9	0.048477028
21	0xbcc5b203	-0.024132734
22	0x3c0574ac	0.0081454925
23	0xbd6e4999	-0.058175657
24	0x3d3907c3	0.045173418
25	0x3d5c09a6	0.05372014
26	0xbc454d73	-0.012042391
27	0xbb55b453	-0.0032608702
28	0xbd8ec634	-0.06971398
29	0x3d4be85e	0.04978215
30	0x3d58261f	0.05277073
31	0xbc926562	-0.017870609
32	0xbbf2d230	-0.00741031
33	0xbd819ed7	-0.063291244
34	0x3d515ece	0.051115803
35	0x3d381127	0.044938233
36	0xbbfb7a0c	-0.007674461
37	0xbbd12f04	-0.0063837785
38	0xbd736cb4	-0.05942984
39	0x3d252bee	0.040325098

indicator_time_mixing.1.time_mixing.U1.1 f4 [1, 2]
0	0x3ca770c6	0.020439517
1	0xbc9a2477	-0.018816216

indicator_time_mixing.1.time_mixing.U1.2 f4 [1, 3]
0	0x3c01cd8f	0.007922544
1	0xbb5dc453	-0.0033838942
2	0xbb285f85	-0.00256917

indicator_time_mixing.1.time_mixing.U1.3 f4 [1, 4]
0	0xbc8294b8	-0.015940055
1	0x3b82aa7a	0.0039876075
2	0xb905b8b5	-0.00012752677
3	0x3c2f84ff	0.010712861

indicator_time_mixing.1.time_mixing.U1.4 f4 [1, 5]
0	0xbc97ee64	-0.01854629
1	0x3c09a8bf	0.008402049
2	0xbad25b78	-0.0016048988
3	0x3b9432b1	0.0045226444
4	0x3a50b9b9	0.0007962245

indicator_time_mixing.1.time_mixing.U1.5 f4 [1, 6]
0	0x3b24fb34	0.0025174143
1	0x3b908dcc	0.0044114348
2	0x3b8d9026	0.0043201623
3	0xbc27d0ef	-0.010242685
4	0xbb73546a	-0.0037129172
5	0x37557054	1.2721943e-05

indicator_time_mixing.1.time_mixing.U1.6 f4 [1, 7]
0	0x3c0909dd	0.008364168
1	0xbb802f70	-0.003911905
2	0x3b114ae9	0.0022169894
3	0xbabf914f	-0.0014615449
4	0xbb8ff8f5	-0.0043936917
5	0x3a8a9681	0.0010573418
6	0x3a784159	0.0009470187

indicator_time_mixing.1.time_mixing.U1.7 f4 [1, 8]
0	0xbb959b6e	-0.004565648
1	0xbc5ce88d	-0.013483179
2	0x3c4aebf5	0.012385358
3	0x3b693f76	0.0035590804
4	0xbb6e6ae6	-0.0036379634
5	0x3aec0499	0.0018006741
6	0x3bb69f1b	0.005573166
7	0xbb0cddfd	-0.002149462

indicator_time_mixing.1.time_mixing.U2.1 f4 [1, 2]
0	0xbb98ba3a	-0.004660872
1	0xbb91846f	-0.004440836

indicator_time_mixing.1.time_mixing.U2.2 f4 [1, 3]
0	0x3b3a1a5a	0.0028397054
1	0x3ba9149e	0.0051599285
2	0x3bd0d2b0	0.006372772

indicator_time_mixing.1.time_mixing.U2.3 f4 [1, 4]
0	0xbb207d7b	-0.0024488855
1	0x3c0bcf3e	0.008533297
2	0x3bf588a7	0.007493097
3	0x39d33614	0.00040285347

indicator_time_mixing.1.time_mixing.U2.4 f4 [1, 5]
0	0x3cba97b7	0.022777421
1	0xbd95c36f	-0.073126666
2	0xbb7bcd7a	-0.0038422034
3	0xbcb3336d	-0.021875108
4	0x3d56ea01	0.052469257

indicator_time_mixing.1.time_mixing.U2.5 f4 [1, 6]
0	0x3befdf08	0.0073202886
1	0x3c5f9b0a	0.013647804
2	0x3b68a108	0.0035496373
3	0x3c116a82	0.008875491
4	0x3c323000	0.010875702
5	0x3bb4e5be	0.0055205515

indicator_time_mixing.1.time_mixing.U2.6 f4 [1, 7]
0	0xbb6bf27a	-0.0036002682
1	0x3bee836b	0.00727885
2	0x3bd1341f	0.006384387
3	0x3b3d1b3d	0.0028855347
4	0xbc522e56	-0.01282843
5	0x3c721c24	0.014777217
6	0xbc8b7a7c	-0.017026179

indicator_time_mixing.1.time_mixing.U2.7 f4 [1, 8]
0	0x3bd3c483	0.006462635
1	0xbc6c1f75	-0.014411797
2	0x3ba88448	0.0051427223
3	0x3aa9c3d3	0.0012952037
4	0x3b90ddfe	0.004420995
5	0x3b948878	0.00453287
6	0xbba01604	-0.004885437
7	0xb99ee8c5	-0.00030309535

indicator_time_mixing.1.fc.weight f4 [1, 5]
0	0x3e85a051	0.26098874
1	0xbda0e3c2	-0.07855941
2	0x3c00006f	0.007812603
3	0xbebcce0a	-0.36875945
4	0x3e6c1e0c	0.23058337
