weights/stockmixer_L32_H64_M20_K3_E100_s1.pt (torch, 696506 bytes, 138 tensors)

indicator_time_mixing.0.indicator_mixing.W1 f4 [5, 64]
0	0xbfafd887	-1.3737954
1	0xbf05a493	-0.52204245
2	0xbefccba6	-0.4937412
3	0xbfe412d4	-1.7818246
4	0xbea5f8ea	-0.3241647
5	0xbf25a13f	-0.64699167
6	0xbfaa8600	-1.3322144
7	0xbfb76711	-1.4328328
8	0xbf7db14c	-0.9909866
9	0x3ed0f780	0.40813828
10	0xbf128d87	-0.57247204
11	0xbea34843	-0.3189107
12	0x3cce461a	0.025179911
13	0x3fe562c7	1.792077
14	0x3ebc1d5f	0.36741158
15	0x3e5b07fd	0.21389766
16	0xbf120eff	-0.5705413
17	0xbf602b95	-0.875665
18	0x3f61b74b	0.8817031
19	0x3e6641df	0.22486065
20	0x3f800922	1.0002787
21	0x3ea489ca	0.32136375
22	0xbec84e4b	-0.39122233
23	0x3f7dfe0b	0.99215764
24	0x3f96fbcc	1.1795592
25	0xbcb99577	-0.022654278
26	0xc00351ef	-2.0518758
27	0xbfaf2bf0	-1.3685284
28	0x3e590087	0.21191607
29	0xbf5663e1	-0.83746153
30	0xbf7c3b8b	-0.98528355
31	0xbe32b3f9	-0.17451467
32	0x4003915a	2.0557466
33	0x3e44fe28	0.19237578
34	0xbdc9ddee	-0.09856783
35	0xbf2fb8ea	-0.6864153
36	0x3ee08666	0.43852538
37	0xbdd8fdf3	-0.10595312
38	0x3e3004ed	0.17189379
39	0xbf2cbf6d	-0.6747959
40	0xbe9896e2	-0.29802614
41	0x3ca05cff	0.019575594
42	0xbb9a2dd4	-0.00470517
43	0xbda25f34	-0.07928315
44	0x401f11eb	2.4854686
45	0xbf942869	-1.1574832
46	0x3fd834ee	1.6891153
47	0xbec579aa	-0.38569385
48	0xbf2310c9	-0.6369749
49	0x3eb82734	0.3596741
50	0x3e908d93	0.28233013
51	0xbe7eb0ca	-0.24872127
52	0x3f0a244c	0.53961635
53	0x3e809d43	0.2511998
54	0x3fce41eb	1.6113867
55	0x40010e29	2.0164893
56	0x3f111a02	0.5668031
57	0x3f8df162	1.1089289
58	0xbde0c6ea	-0.1097544
59	0xbf74fbeb	-0.95696896
60	0x3fad6ef1	1.3549482
61	0xbf455493	-0.77082175
62	0xc04539bd	-3.081649
63	0xbf6fc484	-0.93659234
64	0x3cf19cdb	0.02949374
65	0xbf646cb6	-0.8922838
66	0xbf082a28	-0.53189325
67	0xbf8c9922	-1.0984232
68	0xbea5bdda	-0.32371408
69	0xbc8825f9	-0.01661967
70	0x3fa86595	1.3156
71	0x3e391948	0.1807605
72	0xbf5df76d	-0.86705667
73	0x3d440bec	0.047862932
74	0xbf601093	-0.8752529
75	0xbf500f90	-0.81273746
76	0xbe61848b	-0.22023217
77	0xbf058bed	-0.52166635
78	0x3f0ad0e4	0.5422499
79	0xbf8a3665	-1.079785
80	0xbed6507b	-0.41858277
81	0x3e904703	0.28179178
82	0xbefd70f1	-0.4950023
83	0x3f1c4c57	0.61053985
84	0xbfac8d12	-1.3480551
85	0xbef09458	-0.46988177
86	0x3ea2f106	0.3182451
87	0xbe087afa	-0.13328162
88	0x3ecaf22e	0.39637893
89	0xbef0fb42	-0.47066694
90	0xbf78457b	-0.9698102
91	0x3f3f4b14	0.74723935
92	0xbf81a363	-1.0127987
93	0xbf0efc21	-0.5585347
94	0x3e2fea9a	0.17179337
95	0x3ff9d1c5	1.9517142
96	0x3f325116	0.6965498
97	0x3fa8a7f9	1.3176261
98	0x3f20e1fa	0.6284481
99	0xbf4500a7	-0.7695412
100	0x3fc24e73	1.5180191
101	0xbf6190c9	-0.8811155
102	0xbf44fcb2	-0.7694808
103	0x3f7a1fcc	0.9770477
104	0x3f950892	1.164324
105	0x3eee004f	0.4648461
106	0x3dcb8bed	0.09938798
107	0xbe3df99d	-0.18552251
108	0xc0030cfb	-2.0476673
109	0xbf33ba55	-0.70206195
110	0xbfb27f91	-1.394518
111	0xbf7a3423	-0.97735804
112	0x3f8852aa	1.0650227
113	0xbf2a7df4	-0.6659844
114	0x3fb1d0d5	1.3891855
115	0x3f816774	1.0109696
116	0x3db41b15	0.08794228
117	0x3ea62227	0.3244793
118	0x3f738a60	0.9513302
119	0xbefd3200	-0.4945221
120	0x403689f6	2.8521705
121	0x3c1bbcba	0.009505445
122	0x3d3b4358	0.04571852
123	0x3fd63f7f	1.6738127
124	0xc00434bb	-2.0657184
125	0x3fe83f7b	1.8144373
126	0x3ea51f32	0.32250363
127	0x3e4c91ac	0.19977444
128	0x3f34125a	0.703405
129	0xbffb9096	-1.9653499
130	0x3e93978e	0.28826565
131	0x3f9af088	1.2104654
132	0xbe45940d	-0.19294758
133	0xbfe085a6	-1.7540786
134	0x3f7b4551	0.98152643
135	0xbf77c372	-0.967826
136	0xbfbc1d75	-1.469649
137	0xbfded5bc	-1.7408977
138	0x3eeccb68	0.46248937
139	0x3f1992cf	0.5998964
140	0x4002b9ed	2.042598
141	0x3f329fc8	0.69775057
142	0x3fc8e1d6	1.569392
143	0xbfd64daa	-1.6742451
144	0xbfb7ae56	-1.4350078
145	0xbf8b6c37	-1.08924
146	0x3faf5566	1.3697937
147	0x3f5bf569	0.8592134
148	0x3ecdc18f	0.40186736
149	0xbef39801	-0.47576907
150	0x3edcc4fe	0.43119043
151	0xbfddb266	-1.7320068
152	0x3ed937e9	0.4242547
153	0x3d6f2003	0.058380138
154	0x3e4435a7	0.19161092
155	0x3fb633a8	1.4234514
156	0x3fe09629	1.7545825
157	0x3fe7b19f	1.8101081
158	0xbf28bc6b	-0.65912503
159	0x40265cfd	2.5994256
160	0x3eb1d9bd	0.34736434
161	0xbe5d30c5	-0.21600635
162	0xbf462045	-0.7739299
163	0xbf02e8d2	-0.51136506
164	0xbf435bb1	-0.76311785
165	0xbf662479	-0.898994
166	0x3f33cf7c	0.7023847
167	0x3f90a1d9	1.1299392
168	0x3f30a124	0.6899588
169	0x3fd0d798	1.6315794
170	0x3f776386	0.96636236
171	0xbfee6907	-1.8625802
172	0xbefaaab1	-0.48958352
173	0xbf643f45	-0.8915904
174	0xbdbcae99	-0.09212989
175	0xbe643daf	-0.22289155
176	0x3f6390aa	0.88892615
177	0x3fa3a09c	1.2783389
178	0x3ec6b8d7	0.38812897
179	0x3fa88725	1.3166243
180	0xbf690480	-0.9102249
181	0x3d3dd1b2	0.04634256
182	0xbf153933	-0.58290404
183	0xbee243d5	-0.44192377
184	0x3fb06558	1.3780928
185	0xbf13b284	-0.5769427
186	0x3e639b34	0.22227174
187	0x3fb60196	1.4219234
188	0x3e22e0db	0.15906088
189	0x3f8c3af7	1.0955495
190	0xbf04bf97	-0.5185484
191	0x3f87134b	1.0552763
192	0xbf2d133c	-0.67607474
193	0x3f41f53b	0.75764817
194	0x3fcf97e5	1.621823
195	0xbd5bf6bd	-0.053702105
196	0x3f2457b5	0.6419633
197	0xbfed9980	-1.856247
198	0xc0246947	-2.5689256
199	0xbf292849	-0.66077095
200	0xbee5adf1	-0.4485927
201	0x3f1a821b	0.60354775
202	0xbf7f15b9	-0.9964252
203	0x3eff7707	0.49895498
204	0xbfdd5b90	-1.7293568
205	0xbe6c570c	-0.23080081
206	0x3f184ed2	0.5949527
207	0x3d86c4ac	0.06580481
208	0x3f2fae97	0.6862578
209	0x3f34530e	0.7043923
210	0xbf2c1a97	-0.6722807
211	0x3f79fa0d	0.9764717
212	0x3e24f046	0.16107282
213	0x3fe41529	1.7818958
214	0x3fd76205	1.6826788
215	0x3fa5382a	1.2907765
216	0xbf86b63f	-1.0524367
217	0x3f97e2b2	1.1866057
218	0x3f8a6450	1.0811863
219	0xbf22fb0c	-0.6366432
220	0x3df0c72c	0.11756739
221	0xbec89f69	-0.3918412
222	0x3fd7656c	1.6827826
223	0x3fd33a88	1.6502237
224	0x3fc93bcf	1.5721377
225	0xbefce717	-0.49395058
226	0xbe2df79f	-0.16988991
227	0xbfc6f9b7	-1.5544957
228	0x3f8f9b4f	1.1219271
229	0x3fb2b99a	1.3962891
230	0x3ef1b994	0.47211897
231	0x3f2e4f5f	0.6808986
232	0xbe6a54a9	-0.22883858
233	0x3f3552e5	0.7082961
234	0x3f527196	0.8220457
235	0xbfa2ab06	-1.2708442
236	0x3fc8cdd3	1.5687813
237	0xc0103584	-2.2532663
238	0xbf70673c	-0.93907523
239	0x3d94f8ca	0.07274015
240	0xbdf33786	-0.11875825
241	0x3f89c474	1.0763078
242	0x3faa638b	1.3311628
243	0xbf30f220	-0.69119453
244	0xbf22c250	-0.6357775
245	0xbd988c2a	-0.07448609
246	0xbef7de00	-0.4841156
247	0xbcd4342f	-0.02590379
248	0x3f0e9b5b	0.55705804
249	0xbf60d408	-0.87823534
250	0xbf2a92dc	-0.6663034
251	0x3f9e5817	1.2370633
252	0xbca544c9	-0.0201744
253	0xbf96dcff	-1.1786193
254	0xbe833a99	-0.25630644
255	0x3f47a2fd	0.77983075

indicator_time_mixing.0.indicator_mixing.W2 f4 [64, 5]
0	0x3f523df0	0.8212576
1	0xbf7493bf	-0.9553794
2	0x3e79bb27	0.24387799
3	0xbf113fa3	-0.56737727
4	0x3f9ae98e	1.2102525
5	0x3f03bf2d	0.51463586
6	0xbf2b3eec	-0.66892886
7	0xbf5a1f05	-0.8520358
8	0x3f4b4b91	0.7941218
9	0x3f2f5f79	0.68505055
10	0xbf3f542f	-0.7473783
11	0xbf58e5eb	-0.84725827
12	0xbf10ae3e	-0.5651587
13	0x3f1b1dae	0.6059216
14	0xbe38a7ab	-0.1803271
15	0x3fa04d13	1.2523521
16	0xbf2d1819	-0.67614895
17	0xbecd6884	-0.40118802
18	0xbf34d646	-0.70639455
19	0xbded4e04	-0.11587146
20	0x3f4c7173	0.7986061
21	0x3e1cb149	0.15302004
22	0x3e50ee25	0.20403345
23	0xc01a9036	-2.415052
24	0x3e879851	0.26483396
25	0xbcd958f2	-0.02653167
26	0x3f93c47f	1.1544341
27	0x3f4b914a	0.7951857
28	0x3f37c35a	0.7178246
29	0x3f8661fe	1.0498655
30	0xbf1940a3	-0.5986425
31	0xc00bf835	-2.1870244
32	0xbd89d750	-0.06730521
33	0x3f95d17a	1.1704552
34	0x3f62722d	0.8845547
35	0xbfdf519f	-1.7446784
36	0xbf3103af	-0.69146246
37	0xbfae427a	-1.3614037
38	0x3fc70826	1.5549362
39	0xbdc42e04	-0.09579089
40	0x3f638cfe	0.8888701
41	0x3d71b40f	0.059009608
42	0xbfde74ff	-1.7379454
43	0x3f5fa12d	0.8735531
44	0xc02edc3a	-2.7321916
45	0xbea3a7c7	-0.3196394
46	0x3e97cfd5	0.2965075
47	0x3f817400	1.0113525
48	0xbef3b1e5	-0.4759666
49	0x3f848caf	1.0355433
50	0x3e07962b	0.13240878
51	0xbfbbdcd2	-1.4676764
52	0xbf535698	-0.82554007
53	0x3f1bfcf8	0.60932875
54	0x3f82db89	1.0223247
55	0xbf3c1cb8	-0.7348132
56	0x3f9c6e95	1.2221247
57	0xbe4c85ea	-0.19972959
58	0xbea3770a	-0.31926757
59	0xbf33e04b	-0.7026412
60	0x3f602f9a	0.87572634
61	0x3ed6c674	0.41948283
62	0xbf4aa03b	-0.7915074
63	0x3f3b82a4	0.73246217
64	0xbf4cefe5	-0.8005355
65	0xbf0c5e73	-0.5483162
66	0x3fb70d2a	1.4300892
67	0xbfdc21d1	-1.719782
68	0x3f904d90	1.127367
69	0xbeaae9cf	-0.33381507
70	0x3fbcfb58	1.4764204
71	0x3e9f92d2	0.31166703
72	0xbe1161d1	-0.1419747
73	0x3fd9505c	1.6977649
74	0xbe2afcc5	-0.16697986
75	0x3cd25d47	0.025679244
76	0xbf02ec10	-0.5114145
77	0xbf1772dd	-0.5915964
78	0xbeeaac7d	-0.45834723
79	0xc0058bb3	-2.0866516
80	0x3f15c185	0.5849841
81	0xbfc0e7ab	-1.50707
82	0xbf73e8ee	-0.952773
83	0xbdc31ba9	-0.0952676
84	0xbec7f2a6	-0.39052314
85	0x3ea68315	0.32521883
86	0xbe8df801	-0.27728274
87	0xbda6af5a	-0.081389144
88	0xbf2f7da7	-0.68551105
89	0x3f8cf9e2	1.1013758
90	0x3ee21261	0.44154647
91	0xbf0bb2d1	-0.5456973
92	0xbf803a47	-1.0017785
93	0x3e945340	0.28969765
94	0xbf177d81	-0.5917588
95	0xbe89e827	-0.2693493
96	0xbeff9b61	-0.49923232
97	0x3ee54346	0.44777888
98	0xbef53cb2	-0.4789787
99	0x3f039368	0.513968
100	0xbe508cd0	-0.20366216
101	0xc020d6af	-2.5131032
102	0xbf968b00	-1.176117
103	0xbe3933b7	-0.18086134
104	0xbe413a8f	-0.18869995
105	0xc0037239	-2.0538466
106	0x3f0debb9	0.5543781
107	0x3f201596	0.6253294
108	0xbea57cce	-0.3232178
109	0x3f09e359	0.5386253
110	0x3f2d7cda	0.67768633
111	0x400b7fd1	2.1796763
112	0x3f85b03a	1.0444405
113	0x3fa7fc57	1.3123883
114	0x3fad779b	1.3552126
115	0x3dbb99f7	0.09160226
116	0xbfd633e8	-1.673459
117	0xbe4e76bb	-0.2016248
118	0x3eae0518	0.3398826
119	0x3f2bb749	0.67076546
120	0x3f3499aa	0.7054697
121	0xbe6c006c	-0.23047036
122	0x3cddc6a1	0.027072253
123	0xbebbc390	-0.3667264
124	0xbeabfc63	-0.33590993
125	0xbf79d828	-0.97595453
126	0x3fed8e40	1.8559036
127	0xbfd859f6	-1.6902454
128	0xbe3a3b46	-0.18186674
129	0x3d9659ba	0.07341333
130	0x3f05aae8	0.5221391
131	0x3e49dd30	0.19713283
132	0xbe8f0a8c	-0.27937734
133	0x3f530b5a	0.82439196
134	0x3fdaa7bc	1.7082438
135	0xbfa4c068	-1.2871218
136	0x3f1e644f	0.6187181
137	0x3e51291b	0.20425837
138	0xbfb914f9	-1.4459525
139	0x3fe2c750	1.7717075
140	0xc048d60c	-3.1380644
141	0x3ebe5a38	0.37178206
142	0xc001b35f	-2.026573
143	0xbfcdd77c	-1.6081386
144	0x3f7cb266	0.98709714
145	0x3fb9e2ea	1.4522374
146	0x3ee24ba3	0.4419833
147	0x3f66dd7b	0.901817
148	0x3f8b9b41	1.0906755
149	0xbec58aa3	-0.38582334
150	0xbe110c0c	-0.14164752
151	0x3f08d42e	0.5344876
152	0xbd59215c	-0.05301033
153	0xbf5960d6	-0.84913385
154	0xbec76d24	-0.38950455
155	0xbdf76407	-0.120796256
156	0xbdd51781	-0.10404874
157	0xbeac8165	-0.3369247
158	0xbf936376	-1.1514728
159	0x3e9b88e0	0.30377865
160	0xbe83ba51	-0.25728086
161	0xbd91598a	-0.07097156
162	0xbf19ea60	-0.6012325
163	0xbf1e4eb8	-0.61838865
164	0x3f36b25b	0.713659
165	0x3f174280	0.59085846
166	0xbe965220	-0.2935953
167	0xbed73a92	-0.42036873
168	0xbfb8c8a9	-1.4436237
169	0xbf342519	-0.70369107
170	0xbfa3ec95	-1.2806574
171	0x3fa1b7a4	1.2634168
172	0xc00de4e2	-2.217095
173	0x3ea0de5d	0.3141965
174	0xbe443a0a	-0.19162765
175	0xc028417a	-2.6289964
176	0xbfd8432b	-1.6895498
177	0x3e0953fc	0.13410944
178	0xbd6088dc	-0.05481802
179	0x3fbdedbc	1.4838176
180	0x3e628bfc	0.22123712
181	0xbe9ff599	-0.31242064
182	0x3d7eaf53	0.06217892
183	0xbeea1845	-0.4572164
184	0x3f8e6663	1.1124996
185	0x3f7c0a59	0.9845329
186	0x3f14d006	0.5812992
187	0x3f2b813e	0.6699408
188	0xbf104e5e	-0.5636958
189	0x3df4fcd8	0.119622886
190	0x3f003784	0.5008471
191	0xbf320bf4	-0.6954949
192	0x3f232146	0.63722646
193	0x3f9aa9e2	1.2083094
194	0xbeb598a4	-0.35468018
195	0x3f2e216d	0.68019754
196	0xbf29400a	-0.6611334
197	0x3f8ae69c	1.0851626
198	0xbf491045	-0.7854045
199	0xbfee25da	-1.8605301
200	0xbdf09e2e	-0.117489204
201	0x3fa7be56	1.3104961
202	0xbfeae37e	-1.8350675
203	0x3e5ba2b1	0.2144878
204	0x3f099904	0.5374911
205	0x3f0a3bb5	0.53997356
206	0xbf6c0551	-0.9219561
207	0xbe2558be	-0.16147134
208	0x3e5c7678	0.21529567
209	0xbf49081d	-0.78528005
210	0x3f692276	0.9106821
211	0x3f956fcc	1.1674743
212	0x3ebfdd8d	0.37473717
213	0x3f83901d	1.0278355
214	0xbe0a803b	-0.13525479
215	0xbf132765	-0.57481986
216	0xbfa34ce5	-1.2757841
217	0xbe9537f3	-0.29144248
218	0x3fc6bfb3	1.5527252
219	0xbe8e4cf1	-0.27793077
220	0xbfb2846c	-1.3946662
221	0x3f5710f9	0.84010273
222	0x3f8e6759	1.1125289
223	0x3eb7fcd6	0.35935086
224	0x3e8d84ad	0.27640286
225	0x3faa9a4f	1.3328341
226	0x3d8ca3bd	0.06867168
227	0xc0119f45	-2.275346
228	0x3f0f03ed	0.55865365
229	0xbf0c93f6	-0.5491327
230	0x3f26b2c7	0.6511654
231	0x3dda70c4	0.106660396
232	0xbeac5063	-0.3365508
233	0x3f4fe1f1	0.81204134
234	0x3ea1eec0	0.31627464
235	0xbf389609	-0.72103935
236	0xbf093fc4	-0.53612924
237	0x3ff2397f	1.8923796
238	0x3f769043	0.96313876
239	0x3f1155f8	0.567718
240	0xbf4cb7b3	-0.799678
241	0xbf6cfc81	-0.9257279
242	0x3efd91a6	0.49525183
243	0xbf0295b8	-0.510097
244	0x3fa78fd5	1.3090769
245	0x3f826e67	1.0189942
246	0xbf067c05	-0.5253299
247	0xbedda236	-0.4328782
248	0xbf1d70a0	-0.6149998
249	0xbd84e1c7	-0.06488376
250	0xbf1b7be0	-0.60735893
251	0x3e8338e6	0.25629348
252	0x3f57e666	0.84335935
253	0x3f55ef3f	0.83568186
254	0x3ed1f1a6	0.41004676
255	0x3ebc6fd7	0.36804077

indicator_time_mixing.0.indicator_mixing.ln.weight f4 [32, 5]
0	0x3f9143ef	1.1348857
1	0x3f87e635	1.0617129
2	0x3f39d5ae	0.72591674
3	0x3f8f9702	1.1217959
4	0x3f5f213d	0.8716009
5	0x3f54ef8a	0.8317801
6	0x3f7ec3db	0.995176
7	0x3f9e7bc8	1.2381525
8	0x3f8ad90b	1.0847486
9	0x3f794c03	0.9738161
10	0x3f647c1b	0.8925187
11	0x3f82b8e2	1.0212672
12	0x3fac5189	1.3462383
13	0x3f9869ca	1.1907284
14	0x3f454546	0.7705883
15	0x3f5c2729	0.85997254
16	0x3f81b1db	1.0132402
17	0x3f93baa0	1.1541328
18	0x3f850884	1.0393224
19	0x3f72c7cb	0.9483611
20	0x3f84bd4a	1.0370266
21	0x3f7f04e9	0.9961687
22	0x3f2b27df	0.66857713
23	0x3f7275b8	0.94710875
24	0x3f83aaf0	1.0286541
25	0x3f860636	1.0470645
26	0x3f81be7b	1.0136255
27	0x3f36f277	0.7146372
28	0x3f6b3bbc	0.9188802
29	0x3f75827d	0.95902234
30	0x3f86dd65	1.0536314
31	0x3f85f0c6	1.0464103
32	0x3f441dc6	0.7660793
33	0x3f6d6a67	0.9274048
34	0x3f849d86	1.0360572
35	0x3f622b43	0.8834726
36	0x3f770205	0.96487457
37	0x3f9f6a7f	1.2454375
38	0x3f850d2d	1.0394646
39	0x3f86fac2	1.0545275
40	0x3f71baab	0.9442546
41	0x3f7bae0e	0.9831246
42	0x3f8761b5	1.0576693
43	0x3f7ca4d8	0.9868903
44	0x3f78101a	0.9689957
45	0x3f7f1249	0.99637276
46	0x3f84b660	1.0368156
47	0x3f1bea8b	0.6090476
48	0x3f69277d	0.9107588
49	0x3f74fa29	0.95694214
50	0x3f7c322a	0.98514044
51	0x3f82fefd	1.0234066
52	0x3f29ac66	0.66278684
53	0x3f6deccb	0.9293944
54	0x3f740417	0.9531874
55	0x3f6fe84b	0.93713826
56	0x3f7f7df6	0.99801576
57	0x3f272cbf	0.6530265
58	0x3f7212f0	0.94560146
59	0x3f7566f3	0.95860213
60	0x3f662688	0.89902544
61	0x3f72dba4	0.94866395
62	0x3f317e3c	0.69333243
63	0x3f7c532f	0.9856443
64	0x3f715949	0.94276863
65	0x3f690764	0.910269
66	0x3f7e6fce	0.9938935
67	0x3fa4dcf7	1.2879933
68	0x3f87191f	1.0554541
69	0x3f86fd10	1.0545979
70	0x3f7aece9	0.98017746
71	0x3f77dbd5	0.9681981
72	0x3f4e6643	0.8062479
73	0x3f790b62	0.97282994
74	0x3f717a33	0.94327086
75	0x3f822844	1.0168538
76	0x3f87e9b3	1.0618194
77	0x3f3d227e	0.73880756
78	0x3f8d3cce	1.1034181
79	0x3f641930	0.89100933
80	0x3f71b9b4	0.94423985
81	0x3f79908c	0.97486186
82	0x3f5d6c84	0.86493707
83	0x3f7218b8	0.9456897
84	0x3f7aa40c	0.97906566
85	0x3f6c4eb8	0.92307615
86	0x3f80cedf	1.0063132
87	0x3fa069ba	1.2532265
88	0x3f8b8810	1.0900898
89	0x3f7adf8d	0.9799736
90	0x3f9896c6	1.1921012
91	0x3f9b99ba	1.2156289
92	0x3f3e24f3	0.7427513
93	0x3fb70b81	1.4300386
94	0x3f6d0b37	0.9259524
95	0x3f83170d	1.024141
96	0x3f838713	1.0275596
97	0x3f382ba9	0.7194162
98	0x3f709cc6	0.9398922
99	0x3f70e35e	0.94096935
100	0x3f7d9a72	0.9906379
101	0x3f82cd37	1.0218877
102	0x3f8c2e9b	1.0951723
103	0x3f92661c	1.1437411
104	0x3f6f14a5	0.93390876
105	0x3f698983	0.9122545
106	0x3f7ea8eb	0.994765
107	0x3f9216a2	1.1413157
108	0x3f868812	1.0510275
109	0x3f731e6c	0.94968295
110	0x3f856c08	1.0423594
111	0x3f87653f	1.0577773
112	0x3f49ef92	0.7888118
113	0x3f755e49	0.9584699
114	0x3f7824f7	0.96931404
115	0x3f74d3d8	0.9563575
116	0x3f879fa0	1.0595589
117	0x3f8387a0	1.0275764
118	0x3f87b59a	1.0602295
119	0x3f82c0ca	1.0215085
120	0x3f87cc9b	1.0609316
121	0x3f92e367	1.1475648
122	0x3f410524	0.7539847
123	0x3f8b452c	1.0880485
124	0x3f71b750	0.9442034
125	0x3f82a0c9	1.0205318
126	0x3f837b3c	1.0271983
127	0x3f3987df	0.7247295
128	0x3f6fbd99	0.9364868
129	0x3f71673c	0.9429815
130	0x3f8ed68b	1.1159223
131	0x3f907981	1.128708
132	0x3f71d412	0.9446422
133	0x3f9187bb	1.1369547
134	0x3f640da1	0.89083296
135	0x3f7c29b0	0.9850111
136	0x3f7ee16f	0.99562734
137	0x3f7194ac	0.9436748
138	0x3f813d7e	1.0096891
139	0x3f71aefa	0.9440762
140	0x3f7ff75a	0.99986804
141	0x3f806ca8	1.0033159
142	0x3f719612	0.94369614
143	0x3f843a56	1.0330303
144	0x3f779881	0.9671708
145	0x3f63994f	0.88905805
146	0x3f777acd	0.96671754
147	0x3f9cbb7c	1.2244716
148	0x3f928bb2	1.1448882
149	0x3f0afa5d	0.54288274
150	0x3f592235	0.8481782
151	0x3f814b21	1.0101053
152	0x3fa6ab84	1.3021092
153	0x3f86689e	1.0500677
154	0x3f80c5a2	1.0060313
155	0x3f8ec08d	1.1152512
156	0x3f7a5937	0.9779238
157	0x3f3e10cd	0.74244386
158	0x3f59630f	0.84916776
159	0x3f81e83f	1.0149001

indicator_time_mixing.0.indicator_mixing.ln.bias f4 [32, 5]
0	0xbdf6934c	-0.120398134
1	0xbcda05e3	-0.026614135
2	0xbce3c3da	-0.02780335
3	0x3e14b052	0.14520386
4	0x3dd0a2b8	0.10187286
5	0xbcb9ab78	-0.02266477
6	0xbda48125	-0.08032445
7	0xbe24d2b2	-0.16095999
8	0x3d85a640	0.0652585
9	0xbb32a70b	-0.002726021
10	0xbd3d94a8	-0.046284348
11	0xbdd26743	-0.10273602
12	0xbe3e4beb	-0.18583648
13	0x3e06d893	0.13168554
14	0x3d167c76	0.03673979
15	0x3b259bf1	0.002526995
16	0xbdb1b530	-0.08677137
17	0xbe3f5dac	-0.18688077
18	0xbb1e8d9d	-0.0024193295
19	0x3d36bfb3	0.044616412
20	0x3c9646d4	0.01834432
21	0x3d53ab6a	0.051677145
22	0x3db2774c	0.0871416
23	0xbc9c8558	-0.019106552
24	0xbcbcaa21	-0.023030343
25	0x3a17ad4b	0.00057860155
26	0x3d4f0eba	0.050551154
27	0x3e0cdb00	0.13755417
28	0xbcd188f8	-0.025578007
29	0x3d1f6787	0.03891709
30	0x3cb6112d	0.022224987
31	0x3cf2a7e5	0.029621074
32	0x3e830c54	0.25595343
33	0xbc69f594	-0.014279742
34	0xbcd06933	-0.025440788
35	0xbc9ebbec	-0.019376718
36	0xbcad7905	-0.02117587
37	0xbde63ba3	-0.112418436
38	0x3c7e0b13	0.01550557
39	0xbd57eb7f	-0.05271482
40	0xbdbdae65	-0.09261779
41	0xbd6870b4	-0.056748107
42	0xbdf6dab9	-0.12053437
43	0xbcff3013	-0.031150853
44	0x3c305e51	0.010764674
45	0x3d201ea9	0.03909174
46	0x3d193c3f	0.03741097
47	0x3e37d66d	0.1795289
48	0xbd240208	-0.040041
49	0x3d56d6fa	0.05245111
50	0x3d40b72f	0.047049697
51	0x3d2fae6a	0.042890944
52	0x3e1f4b8b	0.15556161
53	0xbcc6ae46	-0.024253022
54	0x3cd78442	0.026308183
55	0x3dc0ce41	0.0941434
56	0x3d82190a	0.06352432
57	0x3e3d2062	0.18469384
58	0xbc253f17	-0.010085843
59	0x3c699795	0.014257331
60	0x3e03ce31	0.12871625
61	0x3d232075	0.039825875
62	0x3d3f4ccf	0.04670411
63	0xba859c44	-0.0010193666
64	0x3d84f75c	0.064924926
65	0xbd24fc83	-0.040279876
66	0xbd9b7afb	-0.07591816
67	0xbe37516c	-0.17902154
68	0x3d0eec92	0.03489358
69	0xbd3a32aa	-0.045458473
70	0x3d76726e	0.060167722
71	0x3d961ce1	0.07329727
72	0x3e11d07f	0.14239691
73	0x39093f90	0.00013089017
74	0x3c9c3f90	0.019073278
75	0x3d1fa4fd	0.038975704
76	0xbd7ac7b9	-0.061225627
77	0x3d5b0bf0	0.05347818
78	0x3e00db8c	0.1258375
79	0x3d424930	0.04743308
80	0xbe0dccc0	-0.13847637
81	0xbd4ed2a4	-0.05049385
82	0xbe02be30	-0.12767863
83	0xbd35711f	-0.044297334
84	0x3cb8e338	0.022569284
85	0xbd73746f	-0.05943721
86	0xbdaac006	-0.08337407
87	0xbe440ac2	-0.19144729
88	0x3d87a6dd	0.066236235
89	0xbd131a11	-0.03591353
90	0xbe9f8ee1	-0.31163695
91	0xbeacb3eb	-0.33731017
92	0xbebf72ec	-0.37392366
93	0x3ed5d657	0.4176509
94	0x3d8805e7	0.06641751
95	0x3c560ea9	0.013065019
96	0x3ccdb971	0.02511284
97	0x3d979b07	0.07402616
98	0xbceaf08c	-0.028679155
99	0x3d67966e	0.056539945
100	0xbde82f01	-0.1133709
101	0xbe066b29	-0.13126816
102	0xbe656202	-0.22400668
103	0x3ddb3a28	0.10704452
104	0x3d8df7fd	0.06932066
105	0xbcdbb13f	-0.026817916
106	0xbdcb8d41	-0.099390514
107	0xbe95ac87	-0.2923319
108	0x3be1a13f	0.006885677
109	0x3c2a250c	0.010384809
110	0x3d52b456	0.051441513
111	0x3c24b07d	0.010051844
112	0x3e26485d	0.16238542
113	0x3b1b0d34	0.0023658993
114	0x3d838136	0.064211294
115	0xbcf09580	-0.029368162
116	0xbe18b657	-0.14913307
117	0xbe875862	-0.26434618
118	0x3d2bbe83	0.041929733
119	0xbcc0fb61	-0.023557367
120	0xbd7c8c97	-0.061657514
121	0xbdf7cdd0	-0.120998025
122	0xbdc677a9	-0.09690792
123	0x3db63cf9	0.08898348
124	0x3d2f9b7f	0.042872902
125	0x3d90b468	0.0706566
126	0x3d384a6d	0.044992853
127	0x3e0b6a77	0.13614832
128	0xbc9ed4a6	-0.019388508
129	0x3da4f1f7	0.08053964
130	0xbe71172d	-0.23543997
131	0xbe7717e4	-0.24130207
132	0xbe62b32d	-0.22138663
133	0x3e0141f2	0.12622812
134	0x3d9107cd	0.07081566
135	0xbe0dcdf9	-0.13848104
136	0xbd88c37b	-0.0667791
137	0xbe55dc3a	-0.20884791
138	0x3bcb3916	0.0062018735
139	0x3cfab005	0.03060151
140	0xbdb858f3	-0.09001341
141	0xbdb55024	-0.08853176
142	0xbe3b4891	-0.182894
143	0x3c851f04	0.016250141
144	0x3be01a45	0.006839069
145	0xbdf74431	-0.12073553
146	0xbdb2310b	-0.087007605
147	0xbe5c3bc6	-0.21507177
148	0x3d55b5a4	0.05217518
149	0x3dbd3331	0.092382796
150	0x3c4ad0da	0.012378896
151	0xbdae7431	-0.085182555
152	0xbe6c0b8a	-0.23051277
153	0x3c272bb7	0.0102032935
154	0xbd8872ca	-0.06662519
155	0xbd6ed7b6	-0.058311187
156	0x3da56462	0.08075787
157	0x3e170f9d	0.1475205
158	0xbdc81fbe	-0.09771679
159	0x3d6bd959	0.057580326

indicator_time_mixing.0.time_mixing.ln.weight f4 [32, 5]
0	0x3f86f67b	1.054397
1	0x3f557b3a	0.83391154
2	0x3f6680d0	0.900403
3	0x3f791353	0.9729511
4	0x3f86356d	1.0485054
5	0x3f83df76	1.030257
6	0x3f4d34cb	0.8015868
7	0x3f690230	0.9101896
8	0x3f71dd21	0.9447804
9	0x3f871002	1.055176
10	0x3f8abd8a	1.0839093
11	0x3f4ba5bd	0.7954977
12	0x3f49b03a	0.78784525
13	0x3f74e526	0.9566215
14	0x3f91a6d3	1.1379036
15	0x3f8bbb90	1.0916615
16	0x3f52c1d3	0.82327
17	0x3f72b7c3	0.9481165
18	0x3f64db8d	0.8939751
19	0x3f8cb85a	1.099376
20	0x3f8a3a12	1.0798972
21	0x3f47c4c6	0.7803463
22	0x3f52ca3d	0.8233984
23	0x3f638038	0.8886752
24	0x3f8fc079	1.1230613
25	0x3f90c7a7	1.1310929
26	0x3f500928	0.8126397
27	0x3f707d8d	0.93941575
28	0x3f6720c9	0.902844
29	0x3f933c0d	1.1502701
30	0x3f90eef6	1.1322925
31	0x3f4fdf7a	0.81200373
32	0x3f4c8b02	0.7989961
33	0x3f57e033	0.84326476
34	0x3f9c7e02	1.2225955
35	0x3f93003f	1.148445
36	0x3f54b51d	0.83088857
37	0x3f82c4d7	1.0216321
38	0x3f582974	0.8443825
39	0x3f941d6b	1.1571478
40	0x3f8bcb47	1.092141
41	0x3f5c2ee8	0.86009073
42	0x3f7bee2d	0.984103
43	0x3f62abba	0.88543284
44	0x3f93feb4	1.1562104
45	0x3f90a3f0	1.130003
46	0x3f52e0d8	0.82374334
47	0x3f7aa8c0	0.9791374
48	0x3f816826	1.0109909
49	0x3f92ad26	1.1459091
50	0x3f8fd061	1.1235467
51	0x3f4faaff	0.81120294
52	0x3f77eb07	0.96843
53	0x3f7962d9	0.97416455
54	0x3f9243bd	1.1426922
55	0x3f924a1b	1.1428865
56	0x3f53e1c1	0.8276635
57	0x3f815fb3	1.010733
58	0x3f6ec77e	0.9327315
59	0x3f923c8a	1.1424725
60	0x3f90e9f2	1.1321394
61	0x3f54dbf3	0.83148116
62	0x3f892215	1.0713526
63	0x3f7a339d	0.97735006
64	0x3f8bc10a	1.0918286
65	0x3f95f23c	1.1714549
66	0x3f509541	0.81477743
67	0x3f8bc867	1.0920533
68	0x3f6e0a0a	0.9298407
69	0x3f9796de	1.1842916
70	0x3f93f3ed	1.1558815
71	0x3f4f44cb	0.80964345
72	0x3f8aecf8	1.0853567
73	0x3f6be3af	0.9214429
74	0x3f96b97b	1.1775354
75	0x3f8f779c	1.1208377
76	0x3f4a4700	0.7901459
77	0x3f8f2ee6	1.1186187
78	0x3f856e5b	1.0424303
79	0x3f9859e6	1.1902435
80	0x3f91e0d3	1.1396736
81	0x3f7a5206	0.9778141
82	0x3f83cdfa	1.0297234
83	0x3f6da7f4	0.928344
84	0x3f84a34e	1.0362337
85	0x3f94dc88	1.1629801
86	0x3f750b37	0.9572024
87	0x3f7af768	0.9803376
88	0x3f6f2ceb	0.93427914
89	0x3f8609fd	1.0471798
90	0x3f922065	1.1416136
91	0x3f75a2eb	0.9595172
92	0x3f54debb	0.8315236
93	0x3f72022b	0.9453456
94	0x3f836efc	1.0268245
95	0x3f697793	0.9119808
96	0x3f6e5f7b	0.9311444
97	0x3f8bf08c	1.0932784
98	0x3f723ede	0.9462718
99	0x3f93e918	1.155551
100	0x3f5b5b7a	0.8568646
101	0x3f6ac395	0.91704684
102	0x3f7cc824	0.9874289
103	0x3f809c17	1.0047635
104	0x3f94d07b	1.1626123
105	0x3f6316cc	0.8870666
106	0x3f6638fd	0.8993071
107	0x3f68dcb5	0.9096177
108	0x3f81adc4	1.0131154
109	0x3f94a47c	1.1612697
110	0x3f646c71	0.8922797
111	0x3f68096f	0.90639395
112	0x3f7b54f4	0.98176503
113	0x3f83ee7f	1.0307158
114	0x3f9a54d3	1.2057136
115	0x3f5b3524	0.8562796
116	0x3f6127e3	0.8795149
117	0x3f76e7b5	0.96447307
118	0x3f88deea	1.0693028
119	0x3f97ea41	1.1868364
120	0x3f6affc7	0.91796535
121	0x3f63db1d	0.89006215
122	0x3f6a577c	0.9153974
123	0x3f8a6d59	1.081462
124	0x3f781adc	0.96915984
125	0x3f7697c7	0.96325344
126	0x3f5ce1e6	0.86282194
127	0x3f886561	1.0655938
128	0x3f93d707	1.1549996
129	0x3f678deb	0.90450925
130	0x3f663d39	0.8993717
131	0x3f625271	0.88407046
132	0x3f7bdc5a	0.98383105
133	0x3f9314b0	1.1490688
134	0x3f5b5e46	0.85690725
135	0x3f699f0f	0.9125833
136	0x3f807df4	1.0038438
137	0x3f91f3fe	1.1402586
138	0x3fa6d8a7	1.3034867
139	0x3f3dd617	0.741548
140	0x3f6a2428	0.9146142
141	0x3f60d5b6	0.87826097
142	0x3f9d25fd	1.2277218
143	0x3fa42b40	1.2825699
144	0x3f4ea51b	0.8072068
145	0x3f6883b8	0.90825987
146	0x3f9d758c	1.2301497
147	0x3f9d6454	1.2296243
148	0x3f937e7a	1.1522973
149	0x3f356ca9	0.7086893
150	0x3f590afd	0.8478239
151	0x3f9e1a8d	1.2351853
152	0x3f8085f4	1.0040879
153	0x3f9c321e	1.2202795
154	0x3f4aa590	0.7915888
155	0x3f635411	0.8880015
156	0x3f81ae0e	1.0131242
157	0x3f714f7e	0.9426192
158	0x3f7be93d	0.9840277
159	0x3f620103	0.88282794

indicator_time_mixing.0.time_mixing.ln.bias f4 [32, 5]
0	0xbd04f1a6	-0.032457016
1	0xbdfeba58	-0.12437886
2	0xbd4959f0	-0.049158037
3	0x3dc18f9f	0.09451222
4	0x3d7dde9f	0.061979886
5	0xbbe5b779	-0.007010397
6	0xbe1dd112	-0.15411785
7	0xbd2f8dfa	-0.04286001
8	0x3dc0d682	0.09415914
9	0x3d962743	0.07331707
10	0xbd66613a	-0.056245066
11	0xbe157d0f	-0.14598487
12	0xbdbd2544	-0.092356235
13	0x3e0b5aa1	0.13608791
14	0x3e00857e	0.12550923
15	0xbdac0699	-0.08399696
16	0xbe26335e	-0.16230533
17	0xbddb0165	-0.10693625
18	0x3e106550	0.14101148
19	0x3dfad39f	0.12247395
20	0xbcde00be	-0.027099963
21	0xbe256e93	-0.16155462
22	0xbda572ae	-0.08078514
23	0x3df93447	0.12168174
24	0x3de6045d	0.11231301
25	0xbda96f5d	-0.08273194
26	0xbe1d1d88	-0.15343297
27	0xbddcf687	-0.10789209
28	0x3e1a3ea5	0.1506296
29	0x3e034e11	0.12822749
30	0xbd5efedf	-0.054442283
31	0xbe182fcf	-0.14861988
32	0xbda69a7e	-0.08134936
33	0x3e03eccd	0.12883301
34	0x3de5372b	0.11192163
35	0xbda1bf6d	-0.0789784
36	0xbe247b8d	-0.16062756
37	0xbdfa080b	-0.12208565
38	0x3e1fb04c	0.15594596
39	0x3e103db5	0.1408604
40	0xbcf969c3	-0.030445939
41	0xbe3ceee3	-0.18450503
42	0xbde4cec3	-0.11172249
43	0x3e1ae114	0.15124923
44	0x3e19dd50	0.1502583
45	0xbdcc1d74	-0.09966555
46	0xbe2a464e	-0.16628382
47	0xbdec6b26	-0.115438744
48	0x3e27475c	0.16335815
49	0x3e051157	0.12994896
50	0xbda8458c	-0.0821639
51	0xbe2f4c40	-0.17118931
52	0xbdce815f	-0.10083269
53	0x3e0ef6b4	0.13961297
54	0x3dddf90f	0.1083852
55	0xbdc8360f	-0.09775936
56	0xbe4443ce	-0.1916649
57	0xbde331ce	-0.11093484
58	0x3e2545e2	0.1613994
59	0x3e019ab3	0.1265667
60	0xbdef7411	-0.1169206
61	0xbe38dd54	-0.1805318
62	0xbde4a623	-0.111645006
63	0x3e1e6533	0.15468292
64	0x3dda329d	0.10654185
65	0xbe0e315b	-0.13886015
66	0xbe3c0661	-0.18361808
67	0xbe265366	-0.16242751
68	0x3e3fa3dc	0.18714851
69	0x3e22d861	0.15902855
70	0xbdefe269	-0.11713106
71	0xbe2e5de9	-0.17028011
72	0xbe1c04ce	-0.15236208
73	0x3e48e621	0.19619037
74	0x3e387c4b	0.18016164
75	0xbde4be56	-0.11169116
76	0xbe335aec	-0.17515153
77	0xbe402c21	-0.18766834
78	0x3e61fd71	0.22069336
79	0x3e4f0258	0.20215738
80	0xbdc89725	-0.097944535
81	0xbcf030e7	-0.029320193
82	0xbd827bd2	-0.06371273
83	0x3e153858	0.14572275
84	0x3c234e97	0.009967468
85	0xbe0824e2	-0.1329532
86	0xbd26d6e7	-0.04073229
87	0xbdbd8fcd	-0.092559434
88	0x3e2f02de	0.17090937
89	0x3cc23513	0.023706948
90	0xbe096922	-0.13419011
91	0xbd6634d1	-0.056202713
92	0xbdb06dad	-0.08614669
93	0x3e2a79b9	0.16647996
94	0x3c8c5980	0.01713252
95	0x3de440d7	0.1114518
96	0xbda4ac21	-0.080406435
97	0xbc2e9908	-0.010656603
98	0x3d72c4fa	0.059269883
99	0x3db6c8cf	0.0892502
100	0x3e1aa82f	0.1510322
101	0xbdcaea37	-0.09907954
102	0x3c8cc87f	0.017185448
103	0x3da76d8b	0.081751905
104	0x3e014559	0.1262411
105	0x3df3572d	0.11881862
106	0xbdceb95c	-0.10093948
107	0x3cabb75c	0.020961456
108	0x3d8c94ce	0.0686432
109	0x3ddc3a0d	0.1075326
110	0x3e129b2a	0.14317003
111	0xbdbb9555	-0.09159342
112	0x3aad8a22	0.0013240019
113	0x3de31b9d	0.11089251
114	0x3df53234	0.11972466
115	0x3e1c4f36	0.15264592
116	0xbdd271d5	-0.10275618
117	0xbd84d9c7	-0.0648685
118	0x3e0b1211	0.1358111
119	0x3e06d7ae	0.13168213
120	0x3d9a49a6	0.075335786
121	0xbdd18a18	-0.102314174
122	0x3d96e6aa	0.073682144
123	0xbcf3255b	-0.029680898
124	0xbd8a252b	-0.067453705
125	0x3d5621ee	0.05227845
126	0xbdbf570a	-0.09342773
127	0x3db3fb3d	0.08788154
128	0xbd332ffe	-0.04374694
129	0xbdfb0b2e	-0.12257992
130	0x3d97c85f	0.07411265
131	0xbddc5b39	-0.10759587
132	0x3dbad04f	0.09121763
133	0xbd1a1ea7	-0.03762689
134	0xbdf395ab	-0.11893781
135	0x3dc57469	0.09641344
136	0xbd08bca1	-0.033383016
137	0x3dfbbc55	0.12291781
138	0xbdeb35fa	-0.114849046
139	0xbe8a5515	-0.27018037
140	0x3d8f5973	0.06999483
141	0xbd90c27e	-0.070683464
142	0x3dc334a4	0.09531525
143	0xbda24ffb	-0.07925411
144	0xbe4ba725	-0.1988798
145	0x3d838ec9	0.064237185
146	0x3e6afe1f	0.22948502
147	0x3e476f96	0.1947616
148	0xbe2c3e14	-0.16820556
149	0xbe6c1bdc	-0.23057503
150	0x3e030cda	0.12797871
151	0x3e568a7c	0.20951265
152	0x3e857fe5	0.26074138
153	0xbe76968f	-0.24080871
154	0xbe946f8f	-0.28991362
155	0x3dc1d4c4	0.0946441
156	0x3ca4c4f3	0.020113444
157	0x3de14e6a	0.110012844
158	0xbdfe0b8d	-0.12404547
159	0xbe045968	-0.12924731

indicator_time_mixing.0.time_mixing.U1.1 f4 [1, 2]
0	0xbc9de62f	-0.0192748
1	0xbc30e452	-0.010796623

indicator_time_mixing.0.time_mixing.U1.2 f4 [1, 3]
0	0xbd2d4595	-0.042302687
1	0xbd2a467d	-0.04157113
2	0x3d0ffdb3	0.035154056

indicator_time_mixing.0.time_mixing.U1.3 f4 [1, 4]
0	0xbc760941	-0.015016855
1	0x3bad776c	0.005293777
2	0xbc2ff8b9	-0.010740452
3	0x3ca975fe	0.020686146

indicator_time_mixing.0.time_mixing.U1.4 f4 [1, 5]
0	0x3cb554b0	0.022135109
1	0xba9e0cd5	-0.0012058268
2	0xbc986a02	-0.018605236
3	0xbcc67242	-0.024224404
4	0x3da92b97	0.08260267

indicator_time_mixing.0.time_mixing.U1.5 f4 [1, 6]
0	0x3c9e9362	0.019357387
1	0xbc9da45c	-0.019243412
2	0xbc98176c	-0.018565856
3	0xbc0642bd	-0.008194623
4	0x3d639d68	0.055570036
5	0x3d6f6b1b	0.058451753

indicator_time_mixing.0.time_mixing.U1.6 f4 [1, 7]
0	0xbc3622e9	-0.011116722
1	0x3c31c8c9	0.010851094
2	0x3b425c08	0.0029656906
3	0x3cfcf4d4	0.030878462
4	0xbc96cac5	-0.018407235
5	0xbce9d31e	-0.028543051
6	0xbdcdf4dc	-0.10056469

indicator_time_mixing.0.time_mixing.U1.7 f4 [1, 8]
0	0xbccde43f	-0.02513325
1	0xbbc73dad	-0.0060803504
2	0x3b8745a0	0.004128173
3	0x3cf3fff3	0.029785132
4	0xbd373dca	-0.04473666
5	0xbd69afb3	-0.057052325
6	0xbdbfbc74	-0.093621165
7	0xbc4838bc	-0.012220558

indicator_time_mixing.0.time_mixing.U1.8 f4 [1, 9]
0	0xbd8567e0	-0.06513953
1	0xbd5c2182	-0.053742893
2	0xbdbeae0a	-0.09310539
3	0xbd8931ca	-0.0669895
4	0xbd301a5f	-0.0429939
5	0xbd8996d2	-0.0671822
6	0xbd22c0ab	-0.039734524
7	0xbd9bfd04	-0.07616618
8	0xbd8df171	-0.06930817

indicator_time_mixing.0.time_mixing.U1.9 f4 [1, 10]
0	0x3ccd1085	0.025032291
1	0x3b11c79e	0.0022244225
2	0x3c9e80b3	0.019348478
3	0x3c3f250e	0.011666549
4	0x3d0dd3bd	0.034625757
5	0x3c672c9d	0.014109758
6	0x3d63393f	0.055474516
7	0x3ceadc1e	0.028669413
8	0x3b2fb4e6	0.0026810705
9	0x3d42cfe3	0.047561537

indicator_time_mixing.0.time_mixing.U1.10 f4 [1, 11]
0	0x3cb41b1c	0.021985583
1	0x3ca0ef44	0.01964534
2	0xbd3c2077	-0.0459294
3	0x3b4396e4	0.0029844576
4	0x3c402317	0.011727116
5	0x3c5a7b95	0.013335128
6	0x3cb72057	0.022354288
7	0x3c295307	0.010334737
8	0x39494c8e	0.00019197373
9	0x3c09c58b	0.008408914
10	0x3d32cd54	0.043652847

indicator_time_mixing.0.time_mixing.U1.11 f4 [1, 12]
0	0xbb615740	-0.003438428
1	0x3cbf1bcf	0.02332869
2	0xbd6e1f3c	-0.058135256
3	0xbbc65d9a	-0.0060536386
4	0x3cd7682b	0.026294788
5	0x3cb5b934	0.022183038
6	0x3d09555a	0.033528663
7	0xbc26e838	-0.010187201
8	0xb9bab486	-0.00035611185
9	0x3d0b64f0	0.03403181
10	0x3ca3bcb9	0.01998745
11	0x3d31b275	0.04338308

indicator_time_mixing.0.time_mixing.U1.12 f4 [1, 13]
0	0xba3c60ec	-0.00071860733
1	0xbc470fd0	-0.012149766
2	0x3d8bcfa1	0.068267114
3	0xbaa5f46a	-0.0012661342
4	0xbc257ed2	-0.010101037
5	0x3b9f6f8a	0.0048655914
6	0xbc7c995c	-0.015417423
7	0x3c7f716f	0.0155910095
8	0xbcb97a55	-0.02264134
9	0xbb6f43ee	-0.0036508995
10	0x3c320912	0.01086642
11	0xbc90048f	-0.017580299
12	0xbc407a99	-0.01174798

indicator_time_mixing.0.time_mixing.U1.13 f4 [1, 14]
0	0x3a71b477	0.0009220312
1	0xbc90d31b	-0.017678788
2	0x3d20429d	0.039126027
3	0xbc5eae94	-0.013591427
4	0xbca91c11	-0.020643266
5	0xbcf0034f	-0.029298453
6	0xbc65713b	-0.014004047
7	0xbc9a70b6	-0.018852573
8	0xbc622a35	-0.013804008
9	0xbcb5d046	-0.02219404
10	0xbce877c4	-0.028377421
11	0xbd19f0c9	-0.037583146
12	0xbd0e62a9	-0.03476206
13	0x3d869948	0.06572205

indicator_time_mixing.0.time_mixing.U1.14 f4 [1, 15]
0	0xbde2bec6	-0.110715434
1	0xbdb96a83	-0.090535186
2	0xbe40d208	-0.1883012
3	0xbdf482d4	-0.11939016
4	0xbdd42ef3	-0.10360517
5	0xbddc0a9e	-0.107442126
6	0xbda5573a	-0.08073278
7	0xbdc8f2a6	-0.098119065
8	0xbde2f6cf	-0.11082231
9	0xbd8b664d	-0.06806622
10	0xbda12634	-0.07868615
11	0xbd88011b	-0.06640836
12	0xbdeb6d99	-0.114955135
13	0xbdd91b50	-0.106009126
14	0xbdd4db3e	-0.1039338

indicator_time_mixing.0.time_mixing.U1.15 f4 [1, 16]
0	0x3def7c15	0.11693589
1	0x3def6a3f	0.11690187
2	0x3e46e5bd	0.19423576
3	0x3e0f118f	0.13971542
4	0x3dfd9966	0.12382774
5	0x3df0f4eb	0.117654644
6	0x3e067daa	0.13133875
7	0x3dfe2a67	0.12410431
8	0x3dfcd417	0.123451404
9	0x3de5eda3	0.11226966
10	0x3de21575	0.11039249
11	0x3dd66bd5	0.10469786
12	0x3dc01f46	0.09380965
13	0x3e391a40	0.1807642
14	0x3e1d2404	0.1534577
15	0x3e2de6b8	0.16982543

indicator_time_mixing.0.time_mixing.U1.16 f4 [1, 17]
0	0xbb829fdc	-0.003986342
1	0xbd032a53	-0.032022785
2	0xbbb94359	-0.0056537804
3	0x3cc04327	0.02346952
4	0xbd6c1490	-0.057636797
5	0xbcce45e6	-0.025179815
6	0xbd2a7483	-0.04161502
7	0xbd0e00ec	-0.034668848
8	0xbcee8ff6	-0.02912138
9	0xbd79c0a9	-0.06097475
10	0xbd4b7369	-0.04967061
11	0xbda3bf72	-0.079955
12	0xbd979f8c	-0.07403478
13	0xbcce817c	-0.025208227
14	0xbd8bae79	-0.068203874
15	0xbd24d797	-0.040244665
16	0xbd8e6195	-0.06952206

indicator_time_mixing.0.time_mixing.U1.17 f4 [1, 18]
0	0xbd64b3b9	-0.05583546
1	0xbd310c5a	-0.04322467
2	0xbc331365	-0.010929917
3	0x3c99b6ac	0.018763863
4	0xbd2df4b0	-0.04246968
5	0xbd8ef1cf	-0.06979715
6	0xbd46c657	-0.048528995
7	0xbd5496f7	-0.051901784
8	0x3ab82245	0.0014048299
9	0xbd2d59e1	-0.042322043
10	0xbd54195a	-0.05178199
11	0xbd933f51	-0.07189811
12	0xbd990ebb	-0.07473513
13	0xbd07d07f	-0.03315782
14	0xbd78134e	-0.060565285
15	0xbd1a3f96	-0.037658297
16	0xbd2010f9	-0.039078686
17	0xbc3b55ce	-0.011434032

indicator_time_mixing.0.time_mixing.U1.18 f4 [1, 19]
0	0xbe16c007	-0.1472169
1	0xbe113a21	-0.1418233
2	0xbdc7f946	-0.09764342
3	0xbe2fc247	-0.17163955
4	0xbe220724	-0.15823036
5	0xbe394fc2	-0.18096831
6	0xbe18807d	-0.14892764
7	0xbe190410	-0.14942956
8	0xbe17c78f	-0.1482222
9	0xbe2e3401	-0.17012025
10	0xbe21359b	-0.15743105
11	0xbe2515e0	-0.16121626
12	0xbe2d1941	-0.16904165
13	0xbdffc8bc	-0.12489459
14	0xbe2398a7	-0.15976201
15	0xbde7f32e	-0.1132568
16	0xbe11bfb9	-0.14233293
17	0xbe019733	-0.12655334
18	0xbd7db743	-0.06194235

indicator_time_mixing.0.time_mixing.U1.19 f4 [1, 20]
0	0xbd5d0b67	-0.053965952
1	0xbd3eb3b7	-0.04655811
2	0xbc3db7f8	-0.011579506
3	0xbd02b841	-0.031914
4	0xbcfc94d6	-0.03083269
5	0xbd0d5010	-0.03450018
6	0x3ccff204	0.025383957
7	0xbc5737b7	-0.013135842
8	0xbb9a1d02	-0.004703165
9	0xbca03ce0	-0.019560277
10	0x3c1861e0	0.009300679
11	0xbc9f41b8	-0.019440517
12	0xbcc1ae1b	-0.02364259
13	0x3d330502	0.043705948
14	0xbbecef69	-0.0072306884
15	0x3afdfd47	0.0019377851
16	0x3bffd970	0.007807903
17	0xb98c02ac	-0.00026704872
18	0x39eba59f	0.0004494609
19	0xb9e0dade	-0.00042887678

indicator_time_mixing.0.time_mixing.U1.20 f4 [1, 21]
0	0x3b509aca	0.0031830543
1	0x3a9e6612	0.0012084863
2	0xbc016c6a	-0.007899383
3	0x3a97070d	0.0011522487
4	0x3d1137e0	0.035453677
5	0x3c1f6744	0.00972921
6	0x3d3d69cd	0.046243478
7	0xbb182204	-0.0023213634
8	0xbce1a32c	-0.027543627
9	0x3d86d2b6	0.06583159
10	0x3d908bda	0.070579246
11	0x3d57232c	0.052523777
12	0x3d64d159	0.055863712
13	0xbad63886	-0.001634375
14	0x3d096d4d	0.033551503
15	0x3b5b715d	0.0033484318
16	0x3c5ef9a7	0.013609326
17	0x3b55bbb2	0.0032613096
18	0xbc454a18	-0.012041591
19	0x3cded56f	0.027201382
20	0xbcefe7a8	-0.029285267

indicator_time_mixing.0.time_mixing.U1.21 f4 [1, 22]
0	0xbcd1e843	-0.025623446
1	0x3ca06fc5	0.019584546
2	0xbd6f5d5b	-0.05843864
3	0x3b6a4e91	0.0035752396
4	0x3cfb90ed	0.030708754
5	0x3d05adf9	0.032636616
6	0x3c9b66f7	0.018969996
7	0x3d36c78d	0.0446239
8	0xba926379	-0.0011168561
9	0x3c4ac6d1	0.012376503
10	0x3ce48a1b	0.027897885
11	0x3cb9817a	0.022644747
12	0x3c21aa68	0.009867288
13	0x3d3911fc	0.045183167
14	0x3bc9a8af	0.006154142
15	0x3be0357e	0.0068423143
16	0x3d697a73	0.057001542
17	0x3d230c8e	0.039806895
18	0xb9ddd127	-0.00042308235
19	0x3c074724	0.008256707
20	0xbc980ac2	-0.018559817
21	0x3cbb80a3	0.022888487

indicator_time_mixing.0.time_mixing.U1.22 f4 [1, 23]
0	0x3d1ebecc	0.038756177
1	0x3ca731a1	0.020409407
2	0xbce43a4e	-0.027859833
3	0x3cafbafe	0.02145147
4	0x3d0832c0	0.033251524
5	0x3d1c781d	0.038200486
6	0x3bc42366	0.005985665
7	0x3c5e4206	0.013565546
8	0x3cd02625	0.025408814
9	0x3d4bfe5a	0.049803115
10	0x3d23f857	0.040031757
11	0x3d175d1d	0.036954034
12	0x3d072d23	0.03300203
13	0x3caaf73e	0.020869847
14	0x3ceb9705	0.028758535
15	0x3ce68d6c	0.028143607
16	0x3ca1115b	0.019661596
17	0x3c3442cf	0.011002257
18	0x3c9492a5	0.018136332
19	0x3d83079d	0.063979365
20	0x3d165143	0.03669859
21	0x3d14ee3e	0.036360018
22	0x3dc42d99	0.095790096

indicator_time_mixing.0.time_mixing.U1.23 f4 [1, 24]
0	0x3ddb46db	0.10706874
1	0x3d86b303	0.065771125
2	0x3dc83221	0.09775186
3	0x3d618c37	0.05506536
4	0x3deef208	0.116672575
5	0x3ddb1a57	0.10698383
6	0x3e3ecd5d	0.18633027
7	0x3dea7495	0.114480175
8	0x3e0e5c36	0.13902363
9	0x3e0ebeff	0.13940047
10	0x3e07a02b	0.13244693
11	0x3de132d9	0.109960265
12	0x3dd3436d	0.10315595
13	0x3e0c24a9	0.1368586
14	0x3df7605b	0.12078925
15	0x3e0432c2	0.12909988
16	0x3df250fa	0.11831851
17	0x3dd8cb47	0.10585647
18	0x3dec12cc	0.11527023
19	0x3e321511	0.17390849
20	0x3e0bd651	0.13655974
21	0x3e03f37c	0.1288585
22	0x3e2678f5	0.16257079
23	0x3e180ebd	0.14849372

indicator_time_mixing.0.time_mixing.U1.24 f4 [1, 25]
0	0xbd14122f	-0.036150154
1	0xbcdfcdbd	-0.027319783
2	0x3b0bda75	0.0021339927
3	0xbaea0e22	-0.0017856995
4	0xbdb60def	-0.08889376
5	0xbd8e9f0b	-0.06963929
6	0xbdaeb5c7	-0.08530765
7	0xbd2f8cd8	-0.04285893
8	0xbcf1b067	-0.02950306
9	0xbd9780ed	-0.073976375
10	0xbdc1ebd6	-0.0946881
11	0xbd88bacc	-0.06676254
12	0xbd298510	-0.041386664
13	0x3ba87702	0.00514114
14	0xbd7be9db	-0.06150232
15	0xbbe813b9	-0.0070824292
16	0xbd278bcd	-0.04090481
17	0x3c9fce51	0.019507559
18	0x3d248abb	0.040171366
19	0xbdcda0b0	-0.10040414
20	0x3a0d7812	0.0005396615
21	0x3ce24058	0.027618572
22	0xbd86d12c	-0.06582865
23	0x3cc52fc4	0.024070628
24	0x3c69205f	0.014228909

indicator_time_mixing.0.time_mixing.U1.25 f4 [1, 26]
0	0xbca4aa6f	-0.0201008
1	0xbd57a414	-0.05264671
2	0xbd4eb184	-0.05046226
3	0xbd262f33	-0.040572356
4	0xbc958427	-0.018251492
5	0xbc0c0b3b	-0.008547599
6	0x3ceb25de	0.02870458
7	0xbbd011ae	-0.006349764
8	0xbc775564	-0.015096042
9	0x3c3562aa	0.011070887
10	0x3c0991e0	0.008396596
11	0x3c75a41d	0.014992741
12	0xbd1c48b5	-0.038155276
13	0x3c5c21e7	0.013435817
14	0xbc0b0137	-0.008484176
15	0x3b8d3194	0.0043088887
16	0xbd161ff3	-0.036651563
17	0xbcac283a	-0.021015275
18	0x3c9defc5	0.01927937
19	0xbc0ef736	-0.008725932
20	0xbb2ccd4a	-0.002636748
21	0xbc4cc967	-0.01249919
22	0x3bb5bd33	0.005546236
23	0x3cb22204	0.021744736
24	0x3c99dad8	0.01878111
25	0xbccc9a29	-0.024975853

indicator_time_mixing.0.time_mixing.U1.26 f4 [1, 27]
0	0x3d2b7302	0.041857727
1	0x3bee0965	0.0072643035
2	0xbc057c41	-0.0081473
3	0x3c9ebb92	0.01937655
4	0x3d841bc1	0.06450606
5	0x3d7e7a22	0.062128194
6	0x3dd342c6	0.103154704
7	0x3da988e6	0.082780644
8	0x3d7783a4	0.060428277
9	0x3d836d62	0.064173475
10	0x3d9848b6	0.074357435
11	0x3d97b7ee	0.07408129
12	0x3d37e68c	0.0448976
13	0x3d0f4799	0.03498039
14	0x3d6d2f2c	0.057906315
15	0x3cad5eb8	0.02116333
16	0x3d845fa7	0.06463557
17	0x3cb617b8	0.022228107
18	0x3c713069	0.014721015
19	0x3dc71468	0.09720689
20	0x3d160242	0.036623247
21	0x3d7a283e	0.061073534
22	0x3d92fc2e	0.07177006
23	0x3d91e9f2	0.071247
24	0x3d6de68b	0.05808119
25	0x3de096a0	0.109662294
26	0x3c7cbc08	0.0154256895

indicator_time_mixing.0.time_mixing.U1.27 f4 [1, 28]
0	0xbc9cdabd	-0.019147271
1	0xbc66c124	-0.014084134
2	0x3d08b2bc	0.03337358
3	0x3c01c67d	0.007920858
4	0xbdabf6c2	-0.08396675
5	0xbd8d201c	-0.0689089
6	0xbdbd3d67	-0.09240227
7	0xbc87ecc4	-0.01659239
8	0xbcba5f72	-0.02275059
9	0xbd9e6999	-0.07734985
10	0xbd852acc	-0.065023035
11	0xbd5adcbe	-0.053433172
12	0xbd424655	-0.047430355
13	0xbc7bbc5d	-0.0153647335
14	0xbd15b852	-0.036552735
15	0x3c94ddc7	0.018172158
16	0xbd3d20b9	-0.046173785
17	0xbc57c842	-0.013170304
18	0x3d7a2ef5	0.061079938
19	0xbda5b4f6	-0.08091156
20	0x3ccf6f8f	0.02532175
21	0x3c8a9e13	0.016921079
22	0xbd3bacdc	-0.04581915
23	0x3c39e0db	0.011345114
24	0xbc75026f	-0.0149541935
25	0xbdcf09a0	-0.10109258
26	0x3b676fe2	0.003531449
27	0xbe1847c7	-0.14871131

indicator_time_mixing.0.time_mixing.U1.28 f4 [1, 29]
0	0x3c349b0d	0.011023295
1	0xbbb4fc70	-0.005523257
2	0x3d4faca5	0.050701756
3	0xbbe81814	-0.0070829485
4	0xbd91b239	-0.071140714
5	0xbd724adb	-0.05915342
6	0xbd824ea1	-0.063626535
7	0xbcc3a893	-0.023884093
8	0xbcd68301	-0.026185514
9	0xbd92722c	-0.07150683
10	0xbd6bbd10	-0.05755335
11	0xbbff4a9d	-0.007790877
12	0xbcab434c	-0.020906113
13	0xbc8e0bb3	-0.017339563
14	0x391ceae7	0.00014964827
15	0x3cf07a28	0.029355124
16	0xbd523e48	-0.051328927
17	0xbc041f12	-0.008064048
18	0x3d1caa93	0.03824861
19	0xbda3c0b9	-0.07995743
20	0x3d0e53e1	0.034747962
21	0xbc0b7127	-0.008510864
22	0xbca9b714	-0.020717181
23	0x3ca43c6e	0.020048346
24	0x3bd1dc75	0.0064044544
25	0xbdb84122	-0.08996798
26	0x3ba91841	0.005160362
27	0xbdc896df	-0.097944014
28	0xbdc2020c	-0.09473047

indicator_time_mixing.0.time_mixing.U1.29 f4 [1, 30]
0	0xbc0037a8	-0.0078257695
1	0xba86d68a	-0.0010287326
2	0x3b11f874	0.0022273334
3	0x3c731739	0.01483708
4	0xbc865e3b	-0.016402354
5	0xbc85a13c	-0.016312234
6	0xbc2f5bd4	-0.010703046
7	0x3c0888a9	0.008333364
8	0xbc3ca410	-0.011513725
9	0xbba22021	-0.0049476777
10	0xbbaa7202	-0.005201579
11	0x3cbf9ec2	0.023391131
12	0x3b8a1203	0.004213573
13	0x3c13b356	0.009014925
14	0xbc9f05c7	-0.019411935
15	0x3c53f34a	0.012936423
16	0x3c32bd9e	0.010909466
17	0x3d197975	0.037469346
18	0x3c7a8585	0.015290623
19	0xbd086b84	-0.03330566
20	0x3b34362e	0.0027498114
21	0x3c1c218c	0.009529483
22	0xbce2157b	-0.027598133
23	0xbcb61231	-0.022225471
24	0x3ba84c2d	0.005136034
25	0xbd60974b	-0.054831784
26	0xbbe39d3c	-0.006946234
27	0xbcc63631	-0.024195762
28	0xbd14bce9	-0.03631297
29	0x3caa3de1	0.02078146

indicator_time_mixing.0.time_mixing.U1.30 f4 [1, 31]
0	0x3c28e88d	0.010309351
1	0x3d0a3d5b	0.03374992
2	0xbc70695f	-0.01467356
3	0x3c46b667	0.012128449
4	0x3d6c10f2	0.057633348
5	0x3d94e2dc	0.072698325
6	0x3d8b349d	0.067971446
7	0x3ce455b4	0.027872898
8	0x3d18a8d6	0.03727039
9	0x3dc6a693	0.0969974
10	0x3dbdff6f	0.09277236
11	0x3d9eb383	0.07749083
12	0x3dc4a45e	0.09601663
13	0xbc76e2be	-0.015068708
14	0x3d124a72	0.035715528
15	0xbc1c27d8	-0.009530984
16	0x3dc6fdf0	0.097164035
17	0x3b14e8a8	0.0022721682
18	0xbd78fd1b	-0.060788255
19	0x3dd63414	0.10459152
20	0xbce2aac6	-0.027669322
21	0xbb421d39	-0.002961947
22	0x3d9a34ec	0.07529625
23	0xbb1791bb	-0.0023127634
24	0x3d3d1ac8	0.04616812
25	0x3e572d09	0.21013273
26	0x3d5bacfd	0.05363177
27	0x3e57d5fd	0.21077724
28	0x3e578155	0.2104543
29	0x3e1ba36b	0.15199058
30	0x3e941ef6	0.2892987

indicator_time_mixing.0.time_mixing.U1.31 f4 [1, 32]
0	0xbc94e310	-0.018174678
1	0x3abbfad2	0.0014341718
2	0xbcc04d05	-0.023474226
3	0x3c86f371	0.016473504
4	0x3cc4b039	0.02400981
5	0x3c3d873b	0.011567886
6	0x3c9c8b88	0.019109502
7	0x3bc65c72	0.006053501
8	0x3c05c780	0.00816524
9	0x3cb95f09	0.022628324
10	0x3cee823c	0.029114835
11	0x3ca2614c	0.019821785
12	0x3c7a3f84	0.015273932
13	0x3c1281aa	0.008942047
14	0x3cf8959e	0.03034478
15	0x3b7c4778	0.0038494747
16	0x3c767275	0.015041937
17	0xbb89af18	-0.004201781
18	0x3cea0a96	0.0285695
19	0x3c1df29a	0.00964036
20	0xbc4c81aa	-0.012482086
21	0x3c9dc48d	0.019258762
22	0x3b81e22b	0.003963729
23	0x3c7000da	0.0146486405
24	0x3c9558b1	0.018230768
25	0x3ccf5c66	0.025312614
26	0x3ca50400	0.020143509
27	0x3b9819b8	0.004641738
28	0x3cae5e9b	0.021285346
29	0xbd897312	-0.06711401
30	0xbcb9e0a7	-0.02269013
31	0x3c19ef6a	0.00939546

indicator_time_mixing.0.time_mixing.U2.1 f4 [1, 2]
0	0xbd263982	-0.040582187
1	0x3cb10951	0.021610888

indicator_time_mixing.0.time_mixing.U2.2 f4 [1, 3]
0	0xbc251024	-0.010074649
1	0xbd62d06a	-0.05537454
2	0x3e367931	0.17819668

indicator_time_mixing.0.time_mixing.U2.3 f4 [1, 4]
0	0xbd389ecf	-0.045073327
1	0x3c496f11	0.012294547
2	0xbcbb5104	-0.02286578
3	0x3be6a050	0.0070381537

indicator_time_mixing.0.time_mixing.U2.4 f4 [1, 5]
0	0xbb2c1b68	-0.0026261453
1	0x3c943eee	0.018096413
2	0x3bc0adfd	0.005880116
3	0x3d02aecc	0.03190498
4	0xbcc80fab	-0.024421534

indicator_time_mixing.0.time_mixing.U2.5 f4 [1, 6]
0	0x3c268358	0.010163151
1	0xbc24b579	-0.010053032
2	0x3d14326f	0.03618091
3	0x3b888899	0.0041666743
4	0xbbac879d	-0.00526519
5	0xbb6cf1ec	-0.003615494

indicator_time_mixing.0.time_mixing.U2.6 f4 [1, 7]
0	0x3cd29ef4	0.02571056
1	0xbb688189	-0.00354776
2	0x3da20553	0.07911172
3	0xbb25eec5	-0.002531932
4	0x3c1e41f4	0.009659279
5	0xbc773099	-0.01508727
6	0xbc8a236c	-0.016862594

indicator_time_mixing.0.time_mixing.U2.7 f4 [1, 8]
0	0xbd09c612	-0.03363616
1	0x3d234684	0.03986217
2	0xbdcb6dae	-0.09933029
3	0x3c8fed79	0.01756929
4	0xbc8bc5ca	-0.017062087
5	0xbd2539eb	-0.040338438
6	0x3c8c651b	0.017138055
7	0x3d5b9ce2	0.053616412

indicator_time_mixing.0.time_mixing.U2.8 f4 [1, 9]
0	0xbde8eb1b	-0.11372968
1	0x3e0f3cc1	0.1398802
2	0xbdd62929	-0.104570694
3	0x3d8b8bec	0.06813797
4	0xbe045f02	-0.12926868
5	0xbe041612	-0.12899044
6	0x3deaecba	0.11470933
7	0x3e0bd3ca	0.1365501
8	0x3e00855f	0.12550877

indicator_time_mixing.0.time_mixing.U2.9 f4 [1, 10]
0	0x3c21b775	0.0098704
1	0xbbbaecb7	-0.005704488
2	0x3d178b11	0.03699786
3	0x3c086519	0.008324885
4	0xbbe34de4	-0.0069367755
5	0x3babaf3e	0.0052393964
6	0xbcb07fec	-0.021545373
7	0xbb1c45e7	-0.0023845376
8	0x3ad626dc	0.0016338485
9	0x3cd3afc9	0.025840657

indicator_time_mixing.0.time_mixing.U2.10 f4 [1, 11]
0	0x3c41928f	0.011814727
1	0x3cc98593	0.024599826
2	0x3d05211f	0.03250229
3	0x3c442850	0.011972502
4	0xbc400da9	-0.011722007
5	0xbc6efad8	-0.014586173
6	0xbca71abd	-0.020398492
7	0xbbc1af7f	-0.0059108133
8	0xbbdd80d7	-0.0067597437
9	0xba95e150	-0.0011434946
10	0xbcb3b75d	-0.02193802

indicator_time_mixing.0.time_mixing.U2.11 f4 [1, 12]
0	0xba6bb1b9	-0.00089910213
1	0xbc37afb3	-0.011211324
2	0x3c9fc5c9	0.019503491
3	0x3bc32793	0.0059556453
4	0x3b075113	0.002064769
5	0xbc3ce5bc	-0.011529382
6	0xbbe3edad	-0.0069558234
7	0xbca681a2	-0.020325486
8	0xbbc72741	-0.0060776775
9	0x3c57d4f5	0.0131733315
10	0xbb815b36	-0.003947641
11	0xbcaef405	-0.021356592

indicator_time_mixing.0.time_mixing.U2.12 f4 [1, 13]
0	0x3ca6f4d8	0.020380422
1	0x3bed6929	0.007245202
2	0xbd4b11d4	-0.04957755
3	0xbcd34aae	-0.025792446
4	0x3c4f69c5	0.012659495
5	0x3caa818d	0.020813728
6	0xbc8fbcd6	-0.017546099
7	0xbc96c004	-0.018402107
8	0x3dc5f3fc	0.09665677
9	0x3bef7277	0.0073073464
10	0x3d89b5b4	0.0672411
11	0x3d88ae88	0.06673914
12	0xbda59e10	-0.08086789

indicator_time_mixing.0.time_mixing.U2.13 f4 [1, 14]
0	0xbd2eddc6	-0.04269197
1	0x3d04a173	0.032380532
2	0xbca8d515	-0.020609418
3	0x3beab78d	0.0071629942
4	0xbd0fe1ab	-0.035127323
5	0xbd18f7e3	-0.03734578
6	0x3cb98b51	0.022649439
7	0x3cd47f36	0.025939565
8	0x3c2e06b2	0.0106217135
9	0xbd28af8e	-0.041183047
10	0x3c4d75b7	0.012540272
11	0x3b0eaa1e	0.0021768878
12	0xbcd13427	-0.025537563
13	0xbc932c3f	-0.017965434

indicator_time_mixing.0.time_mixing.U2.14 f4 [1, 15]
0	0x3a6c2b09	0.0009009098
1	0xbb91b4ab	-0.004446586
2	0xbd3e2641	-0.0464232
3	0x3bade5d3	0.005306938
4	0xbca82ef7	-0.020530207
5	0x3b13d369	0.002255643
6	0x3c9fc61f	0.019503651
7	0xbc75ef5d	-0.015010682
8	0x3d79b451	0.06096298
9	0x3b0583b7	0.0020372698
10	0xbb486ab6	-0.0030581183
11	0x3c1695a8	0.009190954
12	0xbd20ffaf	-0.03930634
13	0xbcd0e3e9	-0.025499301
14	0x3d35e26b	0.044405382

indicator_time_mixing.0.time_mixing.U2.15 f4 [1, 16]
0	0xbc8924a2	-0.0167411
1	0xbc24e1b1	-0.010063575
2	0x3e3a58b8	0.18197906
3	0xbcd360f6	-0.02580307
4	0xbd370e5f	-0.04469144
5	0xbd595144	-0.053056017
6	0xbcc5967f	-0.024119614
7	0x3cd783ff	0.026308058
8	0xbd031435	-0.032001693
9	0x3c97e9cd	0.018544102
10	0xbd9aca44	-0.0755811
11	0xbd8c36c2	-0.06846382
12	0x3d961551	0.073282845
13	0x3dcc9692	0.099896565
14	0x3d294f11	0.04133517
15	0x3daf1e90	0.08550751

indicator_time_mixing.0.time_mixing.U2.16 f4 [1, 17]
0	0xbd0ee95d	-0.03489052
1	0x3d1668a7	0.036720898
2	0xbddfeb83	-0.10933592
3	0x3c808ed6	0.01569311
4	0xbd328fad	-0.04359405
5	0xbd0ae2bc	-0.033907637
6	0x3daecb97	0.085349254
7	0x3dc78de1	0.09743858
8	0x3e397177	0.1810969
9	0xbdd8761a	-0.10569401
10	0x3e1b5e31	0.1517265
11	0x3d9ee451	0.07758392
12	0xbe1a61a1	-0.15076305
13	0xbdad0303	-0.0844784
14	0x3e2c030e	0.1679804
15	0xbdc4b6d4	-0.09605184
16	0x3e145896	0.14486918

indicator_time_mixing.0.time_mixing.U2.17 f4 [1, 18]
0	0xbd1869f5	-0.037210423
1	0x3d22587c	0.039635167
2	0x3c4f7684	0.012662534
3	0xbc111fd8	-0.00885769
4	0x3bf68db8	0.0075242184
5	0xbb852f94	-0.0040645096
6	0x3c416174	0.01180302
7	0x3d058d3a	0.032605387
8	0xbc026dab	-0.007960717
9	0xbc88f9a7	-0.016720606
10	0x3bbfdd48	0.005855236
11	0x3c4f8adc	0.012667384
12	0xbb4bcf11	-0.0031098763
13	0x3c9aff99	0.018920707
14	0x3c18b3f2	0.009320246
15	0x3d772ebf	0.060347315
16	0x3d00de45	0.031461973
17	0x3d2483d4	0.040164784

indicator_time_mixing.0.time_mixing.U2.18 f4 [1, 19]
0	0x3d17abea	0.037029184
1	0xbdcf22fd	-0.10114095
2	0x3f116502	0.5679475
3	0xbd188d34	-0.037244037
4	0xbd49b4a7	-0.04924455
5	0xbd823429	-0.06357605
6	0x3d6bfcca	0.057614125
7	0x3d6c487a	0.057686307
8	0xbef3d4b9	-0.47623232
9	0x3d09a36b	0.033603113
10	0xbeeacb90	-0.4585843
11	0xbec2412f	-0.37940356
12	0x3eab9fa6	0.3352024
13	0x3ea2ef8a	0.3182338
14	0xbec60f23	-0.38683423
15	0x3f0342a5	0.51273566
16	0xbb11b332	-0.0022232053
17	0x3bd67621	0.006544844
18	0xbee6b5af	-0.4506049

indicator_time_mixing.0.time_mixing.U2.19 f4 [1, 20]
0	0xbc32389f	-0.010877757
1	0x3c8da251	0.017289313
2	0x3d2b9e65	0.041899104
3	0xbbefae3f	-0.007314473
4	0xbd38f890	-0.045158923
5	0xbd3e9f91	-0.046538893
6	0x3d097e93	0.033567976
7	0x3d8af78c	0.06785497
8	0x3afe39dd	0.0019395907
9	0xbd6acd46	-0.05732467
10	0xbcc91fea	-0.02455135
11	0xbc663ade	-0.014052121
12	0x3ce278a6	0.02764542
13	0x3ca1352d	0.019678677
14	0x3c8d8cd8	0.017279074
15	0xbba9182f	-0.0051603536
16	0x3c752c17	0.014964125
17	0x3b7c0478	0.0038454812
18	0x3d3c6331	0.045993034
19	0x3c916def	0.017752616

indicator_time_mixing.0.time_mixing.U2.20 f4 [1, 21]
0	0xbd0fb2f6	-0.03508278
1	0xba1518c2	-0.0005687588
2	0x3d886713	0.06660285
3	0xbc24dd2f	-0.0100625
4	0xbcdbbfb8	-0.026824817
5	0xbd082351	-0.033236805
6	0x3d0770cb	0.033066552
7	0x3cc6013a	0.024170507
8	0xbd31ecb5	-0.043438632
9	0xbd2cd350	-0.04219371
10	0xbd1f2d51	-0.038861576
11	0xbcd4d208	-0.025979057
12	0x3ccee66e	0.025256362
13	0x3d3514b2	0.04420919
14	0xbcb245a7	-0.021761728
15	0x3dce2d76	0.10067265
16	0x3d3891b6	0.045060836
17	0x3d3e1720	0.046408772
18	0xbcc6d46c	-0.024271213
19	0x3d5123a8	0.051059395
20	0xbce5fad9	-0.028073715

indicator_time_mixing.0.time_mixing.U2.21 f4 [1, 22]
0	0xbb7d8ff6	-0.0038690544
1	0x3cb14084	0.021637209
2	0x3adbf499	0.001678127
3	0xbc6d2254	-0.0144735165
4	0xbc5c9483	-0.013463142
5	0xbd19dede	-0.03756606
6	0x3d09ac99	0.033611868
7	0x3d2c722d	0.042101074
8	0x3c3ff1d1	0.011715368
9	0xbcb832ab	-0.022485098
10	0x3c988e93	0.018622672
11	0x3c390abc	0.011294063
12	0x3bcc9573	0.0062434017
13	0xbce8483b	-0.028354755
14	0x3cb76d36	0.022390943
15	0x3d216c37	0.039409842
16	0x3d8752c4	0.06607583
17	0x3d9ec8f2	0.07753171
18	0x3cd28581	0.025698425
19	0x3cf22675	0.029559353
20	0xbcd8dcb4	-0.026472427
21	0x3c862402	0.016374592

indicator_time_mixing.0.time_mixing.U2.22 f4 [1, 23]
0	0x3c3ae74b	0.011407684
1	0xbc3995f3	-0.011327255
2	0x3dc02706	0.09382443
3	0x3bbbd4ee	0.0057321703
4	0xbd31edc9	-0.04343966
5	0xbc09c0a0	-0.008407742
6	0x3cf7f0b3	0.030266142
7	0x3c9e3e0c	0.019316696
8	0xbd3fa670	-0.046789587
9	0xbcf8df75	-0.03037999
10	0xbca83655	-0.02053372
11	0xbd87e8fb	-0.066362344
12	0x3d4a2c6e	0.049358778
13	0x3d828848	0.0637365
14	0xbca046d2	-0.01956502
15	0x3d7f24b4	0.062290862
16	0x3b9e5e89	0.004833047
17	0x3a6298fd	0.0008644013
18	0xbcbc8755	-0.02301375
19	0x3d821b22	0.063528314
20	0xbc73a938	-0.014871888
21	0xbd34aa36	-0.04410764
22	0xbd76b558	-0.060231537
