weights/stockmixer_L16_H64_M10_K3_E100_s1.pt (torch, 358146 bytes, 82 tensors)

indicator_time_mixing.0.indicator_mixing.W1 f4 [5, 64]
0	0xbfc174f6	-1.5113819
1	0xbf53544e	-0.82550514
2	0xbf511cdd	-0.81684667
3	0xbfe02937	-1.7512578
4	0x3e590742	0.21194175
5	0xbf3487b8	-0.7051959
6	0xbf72d84c	-0.9486129
7	0xbff84a3c	-1.9397655
8	0xbf32f78c	-0.69908977
9	0x3dbbbd29	0.09166939
10	0xbf3ad4c8	-0.7298093
11	0xbea89f03	-0.32933816
12	0xbe872144	-0.26392567
13	0x3fcbf74e	1.5934846
14	0x3e50ec15	0.20402558
15	0x3f02f05e	0.5114802
16	0xbf223f53	-0.63377875
17	0xbf803560	-1.0016289
18	0x3f2b354a	0.6687819
19	0xbdb6ce64	-0.08926085
20	0x3f6f7aed	0.93546945
21	0x3ea62020	0.32446384
22	0xbf11f00b	-0.570069
23	0x3f4b04ed	0.7930439
24	0x3f8d32ad	1.103109
25	0xbf235d2a	-0.6381403
26	0xc01aeabd	-2.4205773
27	0xbfb71311	-1.4302694
28	0x3e27a67c	0.16372102
29	0xbf366dca	-0.71261275
30	0xbf118591	-0.5684443
31	0xbe5af50c	-0.2138254
32	0x3fe6dbc0	1.8035812
33	0x3d32175a	0.0434793
34	0x3e2f6d74	0.17131597
35	0xbf2f2b30	-0.68425274
36	0x3c22cc6d	0.009936434
37	0xbc90aafb	-0.017659655
38	0x3dcd119a	0.10013123
39	0xbee3833a	-0.44436055
40	0xbdf6a162	-0.120425
41	0x3e82f809	0.2557986
42	0xbe641aeb	-0.22275893
43	0xbdcfc14d	-0.10144291
44	0x40267165	2.600671
45	0xbf93f0b3	-1.155783
46	0x3fc79ee8	1.5595369
47	0xbf080b46	-0.531422
48	0xbf66886c	-0.90051913
49	0x3ee7320d	0.45155373
50	0xbe2de578	-0.16982067
51	0xbec1e302	-0.37868506
52	0x3f3dee39	0.74191624
53	0x3ec26b4c	0.37972486
54	0x3f9a4eda	1.2055314
55	0x40051240	2.079239
56	0x3dda7e5d	0.10668633
57	0x3f86b98b	1.0525373
58	0xbe18ff75	-0.14941199
59	0xbf58a2cd	-0.84623414
60	0x3fb76db8	1.4330359
61	0xbf5bfe46	-0.85934865
62	0xc0498d36	-3.1492438
63	0xbf3a77f5	-0.7283929
64	0x3c2aa92b	0.010416309
65	0xbf83da20	-1.0300941
66	0xbefbed13	-0.4920431
67	0xbf933e78	-1.1503439
68	0xbe3d8f4d	-0.18511696
69	0x3c6ab22d	0.014324707
70	0x3fd97135	1.6987673
71	0x3d904359	0.070440955
72	0xbf42d6d4	-0.7610905
73	0xbd7707c9	-0.06031016
74	0xbf792f23	-0.9733755
75	0xbf6c6a1a	-0.923494
76	0xbee63712	-0.4496389
77	0xbf0f9e42	-0.5610086
78	0x3ec271db	0.3797749
79	0xbf62a0e5	-0.88526756
80	0xbecb8a3b	-0.397539
81	0x3e59c5fd	0.21266933
82	0xbf248ea3	-0.64280146
83	0x3f3b00af	0.7304792
84	0xbfb383e4	-1.4024625
85	0xbee66429	-0.4499829
86	0x3dbbef0c	0.09176454
87	0xbb9a4198	-0.0047075264
88	0x3e7ec7e4	0.2488094
89	0xbed2755b	-0.4110516
90	0xbf7e855f	-0.9942226
91	0x3f434b88	0.76287127
92	0xbf87fe35	-1.0624453
93	0xbeecbade	-0.46236318
94	0x3efa986f	0.48944423
95	0x3fff77f6	1.9958484
96	0x3f05c1db	0.52248925
97	0x3fa8e3b8	1.3194494
98	0x3f754995	0.958154
99	0xbf644b7b	-0.89177674
100	0x3fb411ab	1.4067892
101	0xbf48c287	-0.78421825
102	0xbf768000	-0.9628906
103	0x3f8ecd23	1.1156353
104	0x3fb1f925	1.3904158
105	0x3f19522b	0.59891003
106	0xbe2ae452	-0.1668866
107	0xbd9587ce	-0.07301293
108	0xc00b8b2a	-2.180369
109	0xbf22b7fe	-0.63562
110	0xbfbb5336	-1.4634769
111	0xbf7c4bbe	-0.98553073
112	0x3f693528	0.91096735
113	0xbf1f10c0	-0.62134933
114	0x3fa862b9	1.3155128
115	0x3f5a4ff7	0.85278267
116	0x3e8fe7ee	0.28106636
117	0x3ea38179	0.31934717
118	0x3ef4d91d	0.47821894
119	0xbefb0689	-0.49028423
120	0x40210c0d	2.5163605
121	0xbe851ee7	-0.2600014
122	0xb9d117e1	-0.00039881378
123	0x3ff050c8	1.8774652
124	0xc0000e0b	-2.000857
125	0x3ff0d74b	1.8815702
126	0xbd87a275	-0.06622783
127	0x3e95bfd7	0.29247925
128	0x3f30539f	0.68877596
129	0xbfe1360f	-1.7594622
130	0x3e8f4561	0.2798262
131	0x3f9ef89d	1.2419621
132	0xbe624ca5	-0.2209955
133	0xbfe1094f	-1.7580966
134	0x3f1c64bb	0.610912
135	0xbf5d82d5	-0.8652776
136	0xbfc4d89b	-1.5378603
137	0xc008bde8	-2.136591
138	0x3f06ac01	0.5260621
139	0x3f2fa9dc	0.6861856
140	0x40138db3	2.3055236
141	0x3f2da721	0.67833143
142	0x3fdd253e	1.727699
143	0xbfec9fa4	-1.8486218
144	0xbfa634ff	-1.2984923
145	0xbf5fa6ea	-0.87364066
146	0x3fc3d2bf	1.529869
147	0x3f1f7efe	0.6230315
148	0x3eea1dd3	0.4572588
149	0xbed60bb4	-0.41805804
150	0x3f14260c	0.57870555
151	0xbfc9a61c	-1.5753818
152	0x3f0c2ec1	0.5475884
153	0xbcc5ec01	-0.024160387
154	0x3e3722c8	0.17884362
155	0x3fa6b597	1.3024167
156	0x3fe10b73	1.7581619
157	0x3fec0a31	1.844061
158	0xbf3301c4	-0.6992457
159	0x4022b2af	2.542156
160	0x3ee2cfe3	0.4429923
161	0xbe535f28	-0.20641768
162	0xbf76918e	-0.9631585
163	0xbedef8a3	-0.4354907
164	0xbf348279	-0.70511585
165	0xbf82421b	-1.0176424
166	0x3f645520	0.8919239
167	0x3f804c9b	1.0023378
168	0x3e9d8b7e	0.30770487
169	0x3fc4178c	1.5319686
170	0x3f9cc90a	1.2248852
171	0xbfef93a7	-1.8716935
172	0xbe9b7747	-0.3036444
173	0xbf72712b	-0.9470393
174	0x3b40d012	0.0029420895
175	0xbdeee99b	-0.116656505
176	0x3f5239ca	0.8211943
177	0x3f99b436	1.2008121
178	0x3ef6a311	0.48171285
179	0x3fccae85	1.5990759
180	0xbf794351	-0.9736834
181	0x3e165a08	0.14682782
182	0xbe1f10eb	-0.15533797
183	0xbeb2ac6e	-0.34897178
184	0x3fdbd924	1.7175641
185	0xbe9c2c45	-0.30502525
186	0x3e61bace	0.22043917
187	0x3fa8ed43	1.3197407
188	0x3de13633	0.10996666
189	0x3f8b6390	1.0889759
190	0xbe36a2a4	-0.1783548
191	0x3f79ff04	0.9765475
192	0xbf0bec09	-0.54657036
193	0x3f6db6b0	0.92856884
194	0x3fefca53	1.873362
195	0xbe44a56d	-0.1920373
196	0x3e967994	0.29389632
197	0xbfe61d8f	-1.797777
198	0xc039e26f	-2.9044454
199	0xbee071c0	-0.43836784
200	0xbf17e88a	-0.593392
201	0x3f943c0d	1.1580826
202	0xbf60d1e0	-0.87820244
203	0x3f06e44a	0.5269209
204	0xbfc5fc23	-1.5467571
205	0xbe1aaeba	-0.15105715
206	0x3f36ce50	0.7140856
207	0x3d4115d0	0.047139943
208	0x3f5803d8	0.84380865
209	0x3f6da3cb	0.92828053
210	0xbf07b1c5	-0.5300563
211	0x3fbbf25e	1.468334
212	0x3e719487	0.23591815
213	0x3ff03efc	1.8769221
214	0x3fe4d7fa	1.7878411
215	0x3fb117a8	1.3835344
216	0xbf8055cc	-1.0026183
217	0x3fc542a1	1.5410959
218	0x3fa4aac9	1.286462
219	0xbf01a3bd	-0.5064047
220	0x3e40d8de	0.18832728
221	0xbf0b9772	-0.5452796
222	0x3fa44253	1.283274
223	0x3fe81a1d	1.8132969
224	0x3fdb57b8	1.7136145
225	0xbefe7ffa	-0.49707013
226	0xbe59e663	-0.21279292
227	0xbfb99424	-1.4498334
228	0x3fa783f3	1.3087143
229	0x3fa9e058	1.3271589
230	0x3ec3d137	0.38245556
231	0x3eb7f2a8	0.3592732
232	0xbd739d8c	-0.05947642
233	0x3eab9ae3	0.33516607
234	0x3f72923d	0.9475439
235	0xbfa7286d	-1.3059212
236	0x3fc58f0a	1.5434277
237	0xc015aae5	-2.3385556
238	0xbf6fa7c8	-0.9361539
239	0x3e98174a	0.29705268
240	0x3e66e6d0	0.22548985
241	0x3f6b4e60	0.91916466
242	0x3fcaf492	1.5855887
243	0xbf0d636f	-0.5522985
244	0xbf3c4ad4	-0.7355168
245	0xbe425a58	-0.18979776
246	0xbe8189cc	-0.25300443
247	0xbcc74d9e	-0.024329003
248	0x3ec5513c	0.3853854
249	0xbf1c92fc	-0.6116178
250	0xbf0f6302	-0.5601045
251	0x3f8a922e	1.082586
252	0xbda63e67	-0.08117371
253	0xbf98fb8e	-1.1951768
254	0xbe9b8382	-0.3037377
255	0x3f056a31	0.5211516

indicator_time_mixing.0.indicator_mixing.W2 f4 [64, 5]
0	0x3f330c8c	0.6994102
1	0xbf543175	-0.82887965
2	0xbd68cd19	-0.05683622
3	0xbe94fd67	-0.2909958
4	0x3fadbeeb	1.3573889
5	0x3f0fc511	0.56160074
6	0xbf1f2a6a	-0.62174094
7	0xbf4ca4c8	-0.79938936
8	0x3f590321	0.847704
9	0x3f1c7132	0.6111022
10	0xbf8585bd	-1.0431439
11	0xbf53e268	-0.82767344
12	0xbf3296b7	-0.6976122
13	0x3f3a6723	0.72813624
14	0x3b9a2a42	0.0047047446
15	0x3f97d4bc	1.1861796
16	0xbf077650	-0.52914906
17	0xbf264c6f	-0.6496038
18	0xbefac1f5	-0.48976102
19	0xbda3b942	-0.079943195
20	0x3f3e06a6	0.74228895
21	0x3e2daf23	0.1696134
22	0x3dda7914	0.10667625
23	0xc014e1f5	-2.3262913
24	0x3eaea94b	0.34113535
25	0x3ec96ae1	0.39339355
26	0x3f9b4de2	1.2133143
27	0x3faf2edb	1.3686174
28	0x3e03e9a6	0.12882099
29	0x3f1d9b34	0.61564946
30	0xbec6352c	-0.38712442
31	0xbff55921	-1.9167825
32	0x3e7ba452	0.24574402
33	0x3f5f37a0	0.8719425
34	0x3f1c3fce	0.6103486
35	0xbfe1a872	-1.762953
36	0xbf4462fb	-0.7671353
37	0xbfc0f324	-1.5074201
38	0x3fd04462	1.6270869
39	0xbd49a38b	-0.049228232
40	0x3f5b6fc8	0.8571744
41	0x3d62fdb5	0.055417735
42	0xbfea4c02	-1.8304446
43	0x3f6112c3	0.87919253
44	0xc02e1f0f	-2.7206457
45	0xbe5cab4e	-0.21549723
46	0x3eb07cd6	0.34470242
47	0x3f866135	1.0498415
48	0xbf113d48	-0.5673413
49	0x3f74344e	0.9539231
50	0x3cd282db	0.025697162
51	0xbfae15b0	-1.3600368
52	0xbf818ceb	-1.012113
53	0x3f54cbbe	0.83123386
54	0x3f931f3b	1.1493906
55	0xbf5946e5	-0.848738
56	0x3fb2c314	1.3965783
57	0xbee577c5	-0.4481794
58	0xbdcf521a	-0.101230815
59	0xbf2a3b54	-0.6649678
60	0x3f31d046	0.69458425
61	0x3edc78c6	0.43060893
62	0xbf7e8530	-0.9942198
63	0x3f7f0ac0	0.9962578
64	0xbf12142d	-0.57062036
65	0xbe55c643	-0.20876412
66	0x3fbaedcd	1.4603821
67	0xbf99c118	-1.2012053
68	0x3f402ff8	0.75073195
69	0xbf1d8012	-0.61523545
70	0x3fa2d321	1.2720681
71	0x3f0441df	0.5166301
72	0xbe8576f7	-0.26067325
73	0x3fee68f8	1.8625784
74	0xbd41191d	-0.04714309
75	0xbd60fdf6	-0.054929696
76	0xbf15a37d	-0.5845259
77	0xbf4615ac	-0.7737682
78	0xbec637e3	-0.38714513
79	0xc00419f5	-2.0640843
80	0x3e9f0eae	0.31065887
81	0xbfd1a0cb	-1.6377195
82	0xbf3476d9	-0.7049385
83	0xbe00c871	-0.12576462
84	0xbe4433f2	-0.1916044
85	0x3dc59335	0.09647218
86	0xbeb41172	-0.3516956
87	0x3e320438	0.17384422
88	0xbf2ecf1d	-0.6828478
89	0x3fa02f39	1.2514411
90	0x3f1bbef1	0.6083823
91	0xbee8c3e7	-0.45461962
92	0xbf67eb8b	-0.90593785
93	0x3e8c6e27	0.2742779
94	0xbf2dce08	-0.67892504
95	0xbf0dcfd7	-0.55395263
96	0xbeee5e85	-0.46556488
97	0x3e99d9cb	0.30048975
98	0xbeb9a5a2	-0.3625918
99	0x3f31f814	0.6951916
100	0xbec01b1e	-0.3752069
101	0xc01a1036	-2.4072394
102	0xbf9d75ce	-1.2301576
103	0xbd7f4b55	-0.0623277
104	0xbdc672db	-0.09689876
105	0xc0165484	-2.3489084
106	0x3f0632ce	0.5242127
107	0x3f11f990	0.5702143
108	0xbe771978	-0.2413081
109	0x3f39d0f9	0.7258449
110	0x3ec33f33	0.38134155
111	0x400db5d3	2.2142227
112	0x3f7320cb	0.94971913
113	0x3fb1c806	1.3889167
114	0x3fc5eea7	1.5463456
115	0x3db18280	0.08667469
116	0xbfd03522	-1.6266215
117	0xbdea4fa8	-0.114409745
118	0x3e69d016	0.22833285
119	0x3f2219ea	0.6332079
120	0x3f38d25d	0.7219599
121	0xbe44ff65	-0.1923805
122	0x3e26fb99	0.16306914
123	0xbeea40ea	-0.4575265
124	0xbeb0c268	-0.3452332
125	0xbfa8b540	-1.3180313
126	0x3fee2119	1.8603851
127	0xbfe0db55	-1.7566935
128	0xbd82b707	-0.06382566
129	0x3ea172c9	0.31532887
130	0x3e56c234	0.2097252
131	0x3e43926f	0.19098829
132	0xbe8e95cc	-0.2784866
133	0x3f69b27e	0.9128798
134	0x3ff6d3f0	1.9283428
135	0xbf874f65	-1.0571104
136	0x3f4bd834	0.79626775
137	0x3e3dfcef	0.18553518
138	0xbfb62d1b	-1.4232515
139	0x3fd5d68d	1.6706101
140	0xc0506254	-3.2560015
141	0x3efa51f2	0.48890644
142	0xc005d4f7	-2.0911233
143	0xbfbe7c65	-1.4881712
144	0x3f872fd7	1.0561475
145	0x3fb96347	1.4483422
146	0x3f0455db	0.51693505
147	0x3f5e0d90	0.86739445
148	0x3f978787	1.1838235
149	0xbeb41d8f	-0.351788
150	0xbee60f5b	-0.4493359
151	0x3ef9f897	0.48822471
152	0x3cc2d0b7	0.023781164
153	0xbf4bf7d2	-0.7967502
154	0xbe30d500	-0.17268753
155	0xbf0876e4	-0.5330641
156	0x3e27dceb	0.16392867
157	0xbf1dc70d	-0.6163185
158	0xbf5fc82a	-0.874148
159	0x3f19ff1e	0.601549
160	0xbeb54069	-0.35400704
161	0xba449ed8	-0.0007500476
162	0xbf2b1258	-0.66824865
163	0xbf1f8593	-0.62313193
164	0x3f316e55	0.6930898
165	0x3f407740	0.7518196
166	0xbeb8491c	-0.35993278
167	0xbf1fab41	-0.6237069
168	0xbfb7fa0a	-1.4373181
169	0xbf4a94cd	-0.791333
170	0xbf95eb78	-1.1712484
171	0x3fac0e05	1.3441778
172	0xc0126306	-2.287294
173	0x3e9c3873	0.30511817
174	0xbe60c086	-0.21948442
175	0xc021a12e	-2.5254626
176	0xbfc978f2	-1.5740035
177	0x3e72ccbc	0.23710912
178	0xbe094190	-0.13403916
179	0x3fb568da	1.4172623
180	0x3e1d6350	0.15369916
181	0xbea7a8db	-0.32746014
182	0x3e0d7160	0.1381278
183	0xbf09dd50	-0.5385332
184	0x3f8c0d46	1.0941551
185	0x3f2cfbcb	0.67571706
186	0x3f078417	0.5293593
187	0x3f2a6c45	0.66571456
188	0xbef93a75	-0.48677412
189	0x3ea6998b	0.3253902
190	0x3ea3183c	0.31854427
191	0xbf0a0a49	-0.53921944
192	0x3f003588	0.5008168
193	0x3fae70a8	1.362813
194	0xbe864beb	-0.26229796
195	0xbca70e8d	-0.02039268
196	0xbdda76bc	-0.10667178
197	0x3ed88ee8	0.4229653
198	0xbe28da34	-0.16489488
199	0xbfa647f0	-1.2990704
200	0x3d32d3de	0.043659084
201	0x3fb81425	1.4381148
202	0xbfe6ce8e	-1.8031785
203	0x3e0cca76	0.13749108
204	0x3edade04	0.4274751
205	0x3ea785d2	0.32719284
206	0xbf2d479f	-0.6768741
207	0xbe8420ea	-0.2580636
208	0x3ebc3fbd	0.36767378
209	0xbf2b2109	-0.6684728
210	0x3f3fe379	0.7495647
211	0x3fae2c1b	1.360721
212	0x3e3ba466	0.18324432
213	0x3f99b9bc	1.2009807
214	0xbd97a627	-0.07404738
215	0xbe959ff0	-0.29223585
216	0xbf5512f7	-0.83232063
217	0x3db951a2	0.09048773
218	0x3f910895	1.1330744
219	0xbf0a4b5a	-0.5402123
220	0xbfd233b0	-1.6422024
221	0x3f56c7bf	0.8389854
222	0x3f9e2248	1.2354212
223	0x3eb9c03c	0.36279476
224	0x3ed29807	0.41131613
225	0x3f94c387	1.162217
226	0x3cad60d8	0.021164343
227	0xc011c53d	-2.2776635
228	0x3f215793	0.6302425
229	0xbebb2dce	-0.36558384
230	0x3ecc859a	0.3994568
231	0x3ead80fb	0.33887467
232	0xbf0d82e9	-0.5527788
233	0x3f8c5538	1.0963507
234	0x3f0ed285	0.5578998
235	0xbf6303a6	-0.8867744
236	0xbee3cf56	-0.44494122
237	0x3fce71be	1.6128461
238	0x3f996bdb	1.198604
239	0x3f2c77bd	0.67370206
240	0xbf1715b5	-0.590175
241	0xbf58bb4b	-0.84660786
242	0x3f06de3c	0.5268285
243	0xbf12d52f	-0.5735654
244	0x3f9503ca	1.1641781
245	0x3f52d7c1	0.82360464
246	0xbeb740a6	-0.3579151
247	0xbf068d96	-0.52559793
248	0xbef8e806	-0.4861452
249	0x3cd4b029	0.025962906
250	0xbf4e1e5e	-0.80515087
251	0x3e977bc0	0.295866
252	0x3f5b4dc4	0.85665536
253	0x3f574eba	0.841045
254	0x3f03d01e	0.51489437
255	0x3ee989e4	0.45613015

indicator_time_mixing.0.indicator_mixing.ln.weight f4 [16, 5]
0	0x3f7ca810	0.98693943
1	0x3f7c1a38	0.98477507
2	0x3f801b89	1.0008403
3	0x3f80d756	1.0065715
4	0x3f82780b	1.0192884
5	0x3f846295	1.0342585
6	0x3f8733a3	1.0562633
7	0x3f781f3d	0.96922666
8	0x3f801384	1.0005956
9	0x3f7f9955	0.9984334
10	0x3f835e3d	1.0263134
11	0x3f7ef19a	0.99587405
12	0x3f7b71c3	0.9822046
13	0x3f7f78e3	0.99793833
14	0x3f801b3d	1.0008312
15	0x3f84dd78	1.0380087
16	0x3f8ba792	1.0910513
17	0x3f766057	0.9624075
18	0x3f80f44c	1.0074553
19	0x3f8263b9	1.0186683
20	0x3f8169f9	1.0110465
21	0x3f75aeb9	0.9596973
22	0x3f7e82d4	0.9941838
23	0x3f8215a0	1.016285
24	0x3f735a0d	0.9505928
25	0x3f7f514d	0.9973343
26	0x3f77adea	0.96749747
27	0x3f7f46e7	0.99717563
28	0x3f8284e7	1.0196809
29	0x3f734678	0.950294
30	0x3f82b20e	1.0210588
31	0x3f7c6344	0.9858897
32	0x3f7cf796	0.98815286
33	0x3f7fd3d8	0.9993262
34	0x3f7f2e46	0.9967998
35	0x3f74c2c9	0.9560972
36	0x3f7c1bf7	0.9848017
37	0x3f805ea1	1.0028878
38	0x3f82c084	1.0215001
39	0x3f6c6faf	0.92357916
40	0x3f71a778	0.9439616
41	0x3f7eb797	0.99498886
42	0x3f7f48a3	0.9972021
43	0x3f81f930	1.0154171
44	0x3f6cbda6	0.9247688
45	0x3f83c114	1.0293298
46	0x3f80fba6	1.0076797
47	0x3f78e22b	0.97220105
48	0x3f73912c	0.9514339
49	0x3f8f7551	1.1207677
50	0x3f7b3075	0.98120815
51	0x3f8090db	1.0044206
52	0x3f7e5188	0.99343157
53	0x3f808a79	1.0042259
54	0x3f772b30	0.96550274
55	0x3f7e8122	0.9941579
56	0x3f79ca44	0.9757426
57	0x3f7ec9d7	0.99526733
58	0x3f8c19b4	1.0945344
59	0x3f6d3b57	0.9266867
60	0x3f7df1d5	0.9919713
61	0x3f84fb38	1.0389166
62	0x3f6e0d59	0.92989117
63	0x3f874427	1.0567673
64	0x3f566b2d	0.8375729
65	0x3f7251b3	0.94655913
66	0x3f7b5089	0.9816976
67	0x3f81f739	1.0153571
68	0x3f74d820	0.9564228
69	0x3f8434ea	1.0328648
70	0x3f776cb7	0.9665026
71	0x3f79a529	0.9751764
72	0x3f8cd3a7	1.1002091
73	0x3f66a514	0.9009564
74	0x3f9b3117	1.2124356
75	0x3f79a63b	0.9751927
76	0x3f8031a7	1.0015153
77	0x3f84251e	1.0323827
78	0x3f76b244	0.9636576
79	0x3f855233	1.041571

indicator_time_mixing.0.indicator_mixing.ln.bias f4 [16, 5]
0	0x3c42a669	0.011880496
1	0xba3f1802	-0.0007289649
2	0xbc18d07c	-0.00932705
3	0xbbfcf2fa	-0.0077193948
4	0xbc3b71ba	-0.011440689
5	0x3d0212eb	0.031756323
6	0xbcfcf3f2	-0.030878041
7	0xbceeb464	-0.029138751
8	0x3cebf29b	0.028802207
9	0x3cfd380f	0.03091052
10	0x3c2d47e1	0.010576219
11	0xbbc0c605	-0.005882981
12	0xbcd46c78	-0.025930628
13	0x3b4ce154	0.0031262236
14	0xb9e8bc75	-0.000443909
15	0x3d36f22f	0.044664558
16	0xbd42cbe7	-0.047557738
17	0xbcafd0c5	-0.021461854
18	0x3d193821	0.037407044
19	0x3d49b1f5	0.04924198
20	0xbbe4b4f7	-0.0069795805
21	0x3c327237	0.010891489
22	0xbc128f84	-0.00894535
23	0xbcf7e47b	-0.030260315
24	0xbcb5dc4a	-0.022199769
25	0xbc2e6e9a	-0.010646487
26	0x3bbc11ba	0.005739418
27	0xbc0be309	-0.008538016
28	0xbce57bbd	-0.028013105
29	0xbca76711	-0.020434888
30	0xb9ff75ce	-0.00048725161
31	0xbc7836de	-0.0151498
32	0xbcdcd7ed	-0.02695843
33	0x3bc9a768	0.0061539896
34	0xbc216ec2	-0.009853067
35	0xbc96ac65	-0.018392751
36	0x3c582454	0.013192255
37	0x3c1f146e	0.009709461
38	0xbd0904cc	-0.03345184
39	0xbcd5ddc1	-0.026106717
40	0xbc82d811	-0.01597217
41	0x3c42ef7d	0.011897919
42	0x3b605326	0.0034229248
43	0xbcae45c6	-0.021273505
44	0xbcf7dc74	-0.030256487
45	0x3d82f90b	0.063951574
46	0xbd90bcde	-0.070672736
47	0xbd1b6f37	-0.03794786
48	0x3d84e905	0.064897574
49	0x3d1c4628	0.038152844
50	0x3b440214	0.0029908465
51	0xbbab8942	-0.0052348683
52	0xbbf1b19d	-0.0073759095
53	0xbb776c49	-0.0037753752
54	0xbbaf17cc	-0.005343413
55	0xbceca849	-0.028888838
56	0x3d18f108	0.03733924
57	0xba4f6251	-0.00079110736
58	0xbdb8131e	-0.08988021
59	0xbd36616d	-0.044526506
60	0xbca2bff9	-0.01986693
61	0xbb762829	-0.0037560558
62	0xbd4fe6a6	-0.050757073
63	0xbd13091d	-0.035897363
64	0xbd5c336b	-0.053759973
65	0x3b88e35f	0.0041774954
66	0xbc7ed773	-0.015554297
67	0x3c374214	0.011185188
68	0x3d00b27c	0.031420216
69	0x3c5f7fc0	0.013641298
70	0x3be8ea9d	0.007108046
71	0x3d283fc4	0.041076437
72	0x3d9aa83b	0.07551619
73	0x3d6e46fc	0.058173165
74	0x3d7783d0	0.06042844
75	0x3b44dc95	0.0030038704
76	0x399995ff	0.0002929419
77	0x3d4a5c34	0.049404338
78	0x3cb30f6c	0.02185794
79	0x3d149747	0.03627708

indicator_time_mixing.0.time_mixing.ln.weight f4 [16, 5]
0	0x3f750742	0.957142
1	0x3f842f00	1.0326843
2	0x3f6ff6f2	0.93736184
3	0x3f7544bc	0.95808005
4	0x3f811017	1.0083035
5	0x3f717ffe	0.94335926
6	0x3f86222f	1.0479182
7	0x3f7ac8cf	0.9796266
8	0x3f805dbb	1.0028604
9	0x3f825aac	1.0183921
10	0x3f71a8c5	0.94398147
11	0x3f8343b7	1.025504
12	0x3f789e4d	0.9711655
13	0x3f742ab9	0.9537769
14	0x3f849a8a	1.0359662
15	0x3f75e637	0.96054405
16	0x3f83db4b	1.0301298
17	0x3f68cb76	0.90935457
18	0x3f700b40	0.93767166
19	0x3f859af8	1.0437918
20	0x3f7ce342	0.9878427
21	0x3f8db6e2	1.1071436
22	0x3f6d234b	0.9263198
23	0x3f7450aa	0.95435584
24	0x3f8a16aa	1.0788167
25	0x3f7accc5	0.97968704
26	0x3f8264e7	1.0187043
27	0x3f7b7a13	0.98233145
28	0x3f7e908a	0.994393
29	0x3f848930	1.0354366
30	0x3f806217	1.0029935
31	0x3f7c6280	0.985878
32	0x3f8214ca	1.0162594
33	0x3f8ae532	1.0851195
34	0x3f833c09	1.0252696
35	0x3f741512	0.9534465
36	0x3f8349b5	1.0256869
37	0x3f680a70	0.90640926
38	0x3f70a27f	0.9399795
39	0x3f8330d7	1.024928
40	0x3f748720	0.95518684
41	0x3f9127ba	1.1340249
42	0x3f6df85e	0.92957103
43	0x3f74e9b0	0.9566908
44	0x3f8abd70	1.0839062
45	0x3f737067	0.9509339
46	0x3f889f1c	1.0673556
47	0x3f814719	1.0099822
48	0x3f80128c	1.000566
49	0x3f891d58	1.071208
50	0x3f797a7d	0.9745253
51	0x3f8bed6c	1.093183
52	0x3f7d6a4b	0.98990315
53	0x3f7b7300	0.9822235
54	0x3f8a3842	1.0798419
55	0x3f798783	0.974724
56	0x3f8240b7	1.0175999
57	0x3f83f592	1.0309317
58	0x3f7fd4bb	0.99933976
59	0x3f85cb24	1.0452619
60	0x3f7bed6f	0.9840917
61	0x3f8e3814	1.1110864
62	0x3f829231	1.0200864
63	0x3f81f443	1.0152668
64	0x3f8bdeae	1.0927331
65	0x3f803e64	1.001904
66	0x3f8b69d3	1.089167
67	0x3f822c01	1.0169679
68	0x3f87fda6	1.0624282
69	0x3f901753	1.1257118
70	0x3f72372f	0.94615453
71	0x3f71b0b1	0.94410235
72	0x3f872b59	1.0560104
73	0x3f85366b	1.0407232
74	0x3f7d9ad3	0.9906437
75	0x3f755306	0.9582981
76	0x3f7ffa0c	0.99990916
77	0x3f833daa	1.0253193
78	0x3f7f92c4	0.9983332
79	0x3f82416a	1.0176213

indicator_time_mixing.0.time_mixing.ln.bias f4 [16, 5]
0	0xbd1539f1	-0.03643221
1	0xbce35795	-0.027751723
2	0x3d5f8b6b	0.05457632
3	0xbcfc5c5f	-0.030805765
4	0x3d1134d6	0.03545078
5	0xbd161bca	-0.036647595
6	0xbd28775e	-0.041129462
7	0x3d6b1353	0.057391476
8	0xbd140601	-0.03613854
9	0x3d19e26b	0.037569445
10	0xbd5a0cde	-0.053234927
11	0xbd4477be	-0.047965758
12	0x3d390ca5	0.045178074
13	0xbd4fa588	-0.050694972
14	0x3d587692	0.052847452
15	0xbd4f0812	-0.050544806
16	0xbd2747d9	-0.040840004
17	0x3dc8808b	0.097901426
18	0xbd3c8013	-0.04602058
19	0x3d42af8d	0.0475307
20	0xbcd4b472	-0.02596495
21	0xbc78b33b	-0.015179451
22	0x3d84a959	0.06477613
23	0xbcac08c0	-0.021000266
24	0x3cc0c528	0.023531511
25	0xbd127c5f	-0.03576314
26	0xbcde4926	-0.02713449
27	0x3d884eb0	0.066556334
28	0xbd008928	-0.031380802
29	0x3d08b1d6	0.033372723
30	0xbcbe0aad	-0.02319845
31	0xbc2bedf6	-0.010493746
32	0x3d8dc5fc	0.06922528
33	0xbc838823	-0.016056126
34	0x3ca669ea	0.020314176
35	0xbd3bceb1	-0.045851413
36	0xbd198228	-0.037477642
37	0x3d9290d6	0.071565315
38	0xbd3c98a9	-0.046044026
39	0x3d2db0f5	0.042405088
40	0xbd229e8b	-0.03970198
41	0xbd570b7d	-0.05250119
42	0x3cd7cab5	0.026341775
43	0xbd40a6a6	-0.04703393
44	0x3d2a7b0f	0.041621264
45	0xbd3d1b96	-0.046168886
46	0xbd7235f7	-0.059133496
47	0xbbff4b59	-0.0077909646
48	0xbd5765b1	-0.052587215
49	0x3d465ab6	0.048426352
50	0xbd0e7918	-0.034783453
51	0xbd2fda3c	-0.042932734
52	0xbaea3a56	-0.0017870169
53	0xbd29cbd3	-0.041454148
54	0x3d12239f	0.035678502
55	0xbd1f4224	-0.038881436
56	0xbd3f0928	-0.04663959
57	0xbaad89cf	-0.0013239923
58	0xbd3cacaa	-0.046063103
59	0x3d1ef64a	0.0388091
60	0xbd1f1840	-0.038841486
61	0xbd53b796	-0.051688753
62	0x3b8f107c	0.0043659788
63	0xbd5031c0	-0.050828695
64	0x3d21763b	0.039419394
65	0xbd19b392	-0.037524767
66	0xbd5be108	-0.053681403
67	0x3cec8afb	0.028874865
68	0xbd52c220	-0.051454663
69	0x3d17e4ea	0.037083544
70	0xbd9183f3	-0.071052454
71	0xbda6e87a	-0.0814981
72	0x3d700cd6	0.05860599
73	0xbda4d0b3	-0.08047619
74	0x3d92f293	0.071751736
75	0xbd5c70ec	-0.05381863
76	0xbd4ff120	-0.050767064
77	0x3d3cda2f	0.046106514
78	0xbd49d101	-0.049271587
79	0x3d50149c	0.050800905

indicator_time_mixing.0.time_mixing.U1.1 f4 [1, 2]
0	0x3b25f8a7	0.002532521
1	0xb9a0f00f	-0.00030696436

indicator_time_mixing.0.time_mixing.U1.2 f4 [1, 3]
0	0xba47a0b1	-0.00076151924
1	0xba4eba8d	-0.00078860746
2	0x3abf1e98	0.0014581261

indicator_time_mixing.0.time_mixing.U1.3 f4 [1, 4]
0	0xbc1ca58d	-0.009560955
1	0xbc7560d3	-0.014976698
2	0x3c267101	0.010158778
3	0x3c97a632	0.018511865

indicator_time_mixing.0.time_mixing.U1.4 f4 [1, 5]
0	0x3be301a9	0.006927688
1	0x3be0865a	0.0068519535
2	0x3b8aa6c3	0.0042313053
3	0xbc3520bf	-0.011055171
4	0xbc315c4d	-0.010825229

indicator_time_mixing.0.time_mixing.U1.5 f4 [1, 6]
0	0x3d07b3ca	0.033130445
1	0x3cab7576	0.020930033
2	0x3c8f59bf	0.017498849
3	0x3c233a7c	0.009962674
4	0xbd5174f3	-0.051136922
5	0xbd15fb3e	-0.036616556

indicator_time_mixing.0.time_mixing.U1.6 f4 [1, 7]
0	0xbc53a946	-0.012918776
1	0xbca66820	-0.020313323
2	0xbc6e8c55	-0.014559825
3	0x3b4db214	0.003138666
4	0x3cd8450c	0.026400112
5	0x3c439745	0.011937921
6	0xbab7ae0f	-0.0014013665

indicator_time_mixing.0.time_mixing.U1.7 f4 [1, 8]
0	0xbd1020f9	-0.035187695
1	0xbd32fdb6	-0.04369899
2	0xbcda79eb	-0.026669463
3	0x3ab1f15c	0.0013575959
4	0x3ccec517	0.025240464
5	0x3b3a91d1	0.002846826
6	0x3cfb4c5b	0.030676058
7	0xbbf242d2	-0.0073932195

indicator_time_mixing.0.time_mixing.U1.8 f4 [1, 9]
0	0xba44ddf8	-0.00075098826
1	0x3cc6cb47	0.024266852
2	0x3c8d5563	0.01725263
3	0x3b3cf1da	0.0028830678
4	0x3b96db07	0.004603747
5	0xbc83ca54	-0.016087689
6	0xbbf2a407	-0.0074048075
7	0xba8ee7cf	-0.0010902825
8	0x3cc0c0bf	0.023529408

indicator_time_mixing.0.time_mixing.U1.9 f4 [1, 10]
0	0xbc3c1b2a	-0.011481086
1	0xbd768d48	-0.06019333
2	0xbcb45875	-0.022014836
3	0x3bb61ff1	0.005558007
4	0x3d75fc32	0.060054965
5	0x3d185549	0.03719071
6	0x3d9e7ef1	0.07739056
7	0xbbc85195	-0.006113241
8	0xbd90e695	-0.0707523
9	0xbdbf32f9	-0.09335894

indicator_time_mixing.0.time_mixing.U1.10 f4 [1, 11]
0	0x3c980987	0.01855923
1	0x3cf08afe	0.029363152
2	0x3a0c700b	0.0005357272
3	0xbb6a15c8	-0.003571855
4	0xbd2da13f	-0.042390104
5	0xbd07238b	-0.03299288
6	0xbd4027cd	-0.046912957
7	0x3bad777e	0.0052937856
8	0x3cf3a055	0.029739538
9	0x3ca7ca5e	0.020482238
10	0x3d8d709c	0.06906244

indicator_time_mixing.0.time_mixing.U1.11 f4 [1, 12]
0	0xbbda3eb5	-0.0066603073
1	0x3d1e640f	0.038669642
2	0xbc0615f6	-0.008183947
3	0xbc4eab81	-0.012614132
4	0xbd1b2767	-0.037879374
5	0xbd14ee68	-0.036360174
6	0xbd397132	-0.045273967
7	0xbc0ebfb9	-0.008712702
8	0x3d076c11	0.033062045
9	0x3d5535bf	0.05205321
10	0x3d69fcf8	0.057126015
11	0x3d726a59	0.059183452

indicator_time_mixing.0.time_mixing.U1.12 f4 [1, 13]
0	0x3c9c39d3	0.019070541
1	0x3bf632a0	0.007513359
2	0x3c83ad8a	0.01607396
3	0xbc244e9b	-0.010028507
4	0xbd28b6ae	-0.041189842
5	0xbcde60e4	-0.02714581
6	0xbd7737e7	-0.060356047
7	0x3b27ed68	0.0025623683
8	0x3b561dbf	0.0032671539
9	0x3d2d21e8	0.042268664
10	0x3d8519d5	0.06499068
11	0x3ca3208b	0.019912979
12	0x3d77a0f3	0.060456228

indicator_time_mixing.0.time_mixing.U1.13 f4 [1, 14]
0	0x3cc28daf	0.0237492
1	0xbd39efe9	-0.04539481
2	0xbb9ab77e	-0.004721581
3	0x3c52bbc7	0.012862152
4	0x3d962f2e	0.073332176
5	0x3d5c6a23	0.053812157
6	0x3dcb8c9f	0.09938931
7	0x3b93489c	0.0044947397
8	0xbd8b421d	-0.067997195
9	0xbd9f6ca1	-0.07784391
10	0xbde280ce	-0.11059724
11	0xbd8e6b4e	-0.069540605
12	0xbe05b914	-0.13058883
13	0xbe3700c3	-0.17871384

indicator_time_mixing.0.time_mixing.U1.14 f4 [1, 15]
0	0x3cd2b849	0.02572264
1	0x3c087a9c	0.008330014
2	0x3ca85e7e	0.02055287
3	0x3d0b204f	0.03396636
4	0x3d85d1fa	0.065341905
5	0x3d5a32ef	0.05327123
6	0x3e029182	0.1275082
7	0x3ca10440	0.019655347
8	0xbd8ca05d	-0.06866524
9	0xbd0e39d7	-0.03472313
10	0xbdc47a22	-0.095936075
11	0xbd207042	-0.039169557
12	0xbe05c5dc	-0.13063759
13	0xbe00134e	-0.12507364
14	0x3bb36ec6	0.0054758517

indicator_time_mixing.0.time_mixing.U1.15 f4 [1, 16]
0	0xbce8cfb8	-0.02841936
1	0xbc252a87	-0.01008094
2	0xbcc856e7	-0.0244555
3	0xbc0d9f7d	-0.008643982
4	0xbd031ff5	-0.0320129
5	0xbd09fbee	-0.033687524
6	0xbd3d67b6	-0.046241485
7	0xbc90a31b	-0.0176559
8	0xbb9fdecf	-0.004878856
9	0x3c0c5ff1	0.008567796
10	0x3c31dd12	0.01085593
11	0x3b14d505	0.0022709977
12	0x3c9bc6a7	0.019015623
13	0x3d4e3af2	0.050349183
14	0x3d10401b	0.035217386
15	0x3cd2c267	0.025727464

indicator_time_mixing.0.time_mixing.U2.1 f4 [1, 2]
0	0x3c07e9f8	0.008295529
1	0xbb82fa44	-0.003997119

indicator_time_mixing.0.time_mixing.U2.2 f4 [1, 3]
0	0x3c0a0911	0.008425013
1	0xbc1215ce	-0.008916331
2	0xbd14ad98	-0.036298364

indicator_time_mixing.0.time_mixing.U2.3 f4 [1, 4]
0	0xbc175459	-0.009236419
1	0x3a9cc259	0.0011959776
2	0xbac2df22	-0.0014867524
3	0x3ce3cc86	0.027807485

indicator_time_mixing.0.time_mixing.U2.4 f4 [1, 5]
0	0xbc176ffc	-0.009243008
1	0xbc7c2969	-0.015390732
2	0xbbabedfb	-0.0052468753
3	0x3ba75d23	0.0051075383
4	0x3b637dd8	0.003471246

indicator_time_mixing.0.time_mixing.U2.5 f4 [1, 6]
0	0xbc615165	-0.013752316
1	0xbc03ec93	-0.008052009
2	0xbc82f0a7	-0.015983893
3	0xb9d976a1	-0.0004147785
4	0xbc3a4a23	-0.011370215
5	0x3cefb179	0.02925943

indicator_time_mixing.0.time_mixing.U2.6 f4 [1, 7]
0	0xbc40323f	-0.01173073
1	0xbaa81d77	-0.0012826164
2	0x3cc24fc5	0.023719678
3	0xbbb74ad6	-0.005593638
4	0x3b6334f6	0.0034669018
5	0x3d0b5ab2	0.03402204
6	0xbce7e376	-0.028306704

indicator_time_mixing.0.time_mixing.U2.7 f4 [1, 8]
0	0x3c6dbc20	0.0145101845
1	0x3c822100	0.015884876
2	0x3c9b97ec	0.01899334
3	0xbb30a51a	-0.0026953877
4	0x3c5e6006	0.013572698
5	0xbc88dcb3	-0.0167068
6	0x3c82cdef	0.015967337
7	0xbbe25e15	-0.006908188

indicator_time_mixing.0.time_mixing.U2.8 f4 [1, 9]
0	0xbc15da53	-0.009146291
1	0x3c019a69	0.007910349
2	0x3c0cc85c	0.008592691
3	0x3b1dc755	0.002407511
4	0x3be3264e	0.0069320565
5	0x3ba2925f	0.0049612965
6	0xba8e4c04	-0.0010856395
7	0x3cc0bf5f	0.023528753
8	0xbccea22e	-0.025223818

indicator_time_mixing.0.time_mixing.U2.9 f4 [1, 10]
0	0x3c3f6f20	0.011684209
1	0xbbe8fd06	-0.007110241
2	0x3c052295	0.008125921
3	0xbb94f301	-0.00454557
4	0x3b035bf6	0.0020043827
5	0xbd4905eb	-0.04907791
6	0x3c3889d7	0.011263332
7	0x3ce94c7a	0.02847885
8	0x3b567fc9	0.0032729974
9	0x3d60abda	0.05485139

indicator_time_mixing.0.time_mixing.U2.10 f4 [1, 11]
0	0xbc3291d4	-0.010899026
1	0x3931afa4	0.00016945467
2	0xbbb939be	-0.0056526354
3	0x3b545b07	0.003240289
4	0xbb9002be	-0.004394858
5	0xbc975220	-0.018471777
6	0x3c8ab6b2	0.016932819
7	0x3cdda975	0.027058342
8	0xbc3d30f3	-0.011547315
9	0x3d28ce96	0.04121264
10	0xbcf5bf66	-0.029998492

indicator_time_mixing.0.time_mixing.U2.11 f4 [1, 12]
0	0xbb72b25b	-0.0037032578
1	0x3b33da27	0.0027443261
2	0x3d02a7bd	0.03189825
3	0xbcaff95c	-0.021481209
4	0x3c2b2a09	0.010447034
5	0x3cdf5432	0.027261827
6	0xbc664bfc	-0.014056202
7	0xbcac5a7f	-0.021039246
8	0xbc584d7f	-0.01320207
9	0xbd3f40c3	-0.04669262
10	0x3d1bf079	0.03807113
11	0xba7d3d10	-0.0009660283

indicator_time_mixing.0.time_mixing.U2.12 f4 [1, 13]
0	0xbb105c5d	-0.002202771
1	0xbc623ac8	-0.01380796
2	0x3c8ae008	0.01695253
3	0x3caec40d	0.021333719
4	0x3b0de146	0.0021649166
5	0xbc589dd4	-0.013221223
6	0x3b5c563c	0.0033620736
7	0x3c8ae842	0.016956452
8	0x3bb4767f	0.00550729
9	0x3ca4d4be	0.020120975
10	0xbc75aed2	-0.014995294
11	0xbb6fd415	-0.0036594917
12	0x3cd6d18f	0.026222972

indicator_time_mixing.0.time_mixing.U2.13 f4 [1, 14]
0	0xbc2bfc5a	-0.010497177
1	0x3c0ca151	0.008583383
2	0x3c1227ea	0.008920649
3	0xba2e9d9f	-0.00066610606
4	0xbb952ce0	-0.0045524687
5	0xbc367c81	-0.0111380825
6	0x3af0b7c8	0.0018365318
7	0x3d344f54	0.044020966
8	0xbcec5c16	-0.028852504
9	0x3d829d39	0.06377644
10	0xbce2e02e	-0.027694788
11	0xbd34d121	-0.044144753
12	0xbd382005	-0.04495241
13	0x3e6bb03c	0.23016447

indicator_time_mixing.0.time_mixing.U2.14 f4 [1, 15]
0	0xbc2df3ee	-0.010617239
1	0x3b43ba6d	0.0029865757
2	0x3c1d765a	0.009610737
3	0xbc04b6cb	-0.008100222
4	0x3c35dfd7	0.011100731
5	0x3caf41f5	0.021393755
6	0x3b50c92a	0.0031858184
7	0xbc136752	-0.008996801
8	0xbc4beb22	-0.012446197
9	0xbcd594fc	-0.026072018
10	0x3bdb07a2	0.0066842595
11	0xbb954411	-0.0045552333
12	0x3bdb4db2	0.0066926116
13	0x3c07f62e	0.00829844
14	0xbc058c6e	-0.008151157

indicator_time_mixing.0.time_mixing.U2.15 f4 [1, 16]
0	0xbc3cfa33	-0.0115342615
1	0xbc627982	-0.013822915
2	0xbc2afd96	-0.010436436
3	0x3c4897ab	0.012243192
4	0x3b536542	0.00322564
5	0x3b8a0206	0.004211667
6	0x3d132551	0.03592426
7	0xbba1c343	-0.004936607
8	0xbc39d0be	-0.011341272
9	0xbbf9d7ac	-0.007624587
10	0x3c3bea68	0.011469461
11	0x3cbc48cd	0.022983933
12	0x3cade558	0.021227524
13	0x3d6de13f	0.05807614
14	0x3d9cf274	0.07663432
15	0xbbc3b551	-0.0059725423

indicator_time_mixing.0.fc.weight f4 [1, 5]
0	0xbe8d1732	-0.2755676
1	0xbe544903	-0.20730977
2	0x3bc1ccac	0.0059142914
3	0xbe3b2b0e	-0.18278143
4	0x3ec4fe78	0.38475394

indicator_time_mixing.1.indicator_mixing.W1 f4 [5, 64]
0	0x3eebe816	0.46075505
1	0xbee9dd95	-0.45676866
2	0x3ebe2cac	0.37143457
3	0x3fcdca6d	1.60774
4	0xc0138f52	-2.3056226
5	0x3e3333ce	0.1750023
6	0x3e1ac0bf	0.1511259
7	0xbfb47dc1	-1.4100877
8	0x3f09d06c	0.5383365
9	0xbf3d0fd7	-0.73852295
10	0x3e6b90e5	0.23004492
11	0x3f101c6b	0.5629336
12	0xbcb16e45	-0.021659026
13	0x3f265d19	0.64985806
14	0xbf687589	-0.90804344
15	0x40077ea9	2.1171057
16	0xbe9445a5	-0.28959385
17	0xbe2ca780	-0.16860771
18	0xbfaebb4c	-1.3650908
19	0xbd9432f7	-0.07236283
20	0xbf10e585	-0.5660022
21	0xbcf41063	-0.02979297
22	0x3d216cdd	0.03941046
23	0xc02a310e	-2.659244
24	0xbf9240bf	-1.1426009
25	0xbf3ba5dd	-0.7329996
26	0xbf664080	-0.8994217
27	0xc01e04b8	-2.469038
28	0xbf6f216d	-0.9341038
29	0xbf2cad31	-0.6745177
30	0xbe1ffcad	-0.15623732
31	0xbf993384	-1.1968846
32	0xbfe41cc9	-1.7821285
33	0xbf0f29b7	-0.55923027
34	0xbeed542c	-0.4635328
35	0x3f47a289	0.77982384
36	0xbdb269da	-0.08711596
37	0xbf7bb331	-0.983203
38	0xbfaf5f99	-1.3701049
39	0x3f5a3e0f	0.85250944
40	0x3fada9b8	1.3567419
41	0xbfe3edf9	-1.7806998
42	0xbf899546	-1.074868
43	0xbe348cf7	-0.17631899
44	0xbf9af44e	-1.2105806
45	0xbfeb4e6e	-1.838331
46	0xbf96c27c	-1.1778102
47	0x3e39de9d	0.18151326
48	0x3e64a973	0.22330265
49	0x3eb9a68a	0.36259872
50	0x3f1c1f33	0.60985106
51	0xbdbea290	-0.0930835
52	0xbeabc228	-0.33546567
53	0x3f9df9f7	1.2341908
54	0xbeda2066	-0.42602843
55	0x3f071478	0.5276561
56	0xbf54bfdc	-0.83105254
57	0xbf981d31	-1.1883909
58	0xbde5bcd9	-0.112176605
59	0x3ee2007e	0.44141
60	0xc000444a	-2.004168
61	0x3f4fd082	0.8117753
62	0x3e344648	0.17604935
63	0x3f913f59	1.1347457
64	0x3f33d5ae	0.70247924
65	0x3f550fdf	0.8322734
66	0x3fb6d724	1.4284406
67	0x3d1444b0	0.036198318
68	0x3f27d4fd	0.6555937
69	0xbf2024b5	-0.6255601
70	0xbf2bd72d	-0.6712521
71	0xbf03d379	-0.51494557
72	0xbf3242cf	-0.6963319
73	0xbfb2f6cf	-1.398157
74	0xbf425868	-0.7591615
75	0x3f400d42	0.7502023
76	0xbf2e87f0	-0.68176174
77	0x3f598293	0.84964865
78	0x3f21a5d5	0.63143665
79	0x3f142179	0.57863575
80	0x3f1ab137	0.6042666
81	0x3edcdfad	0.431394
82	0x3f85bccf	1.0448245
83	0x3e268b24	0.16264015
84	0x3fcade07	1.5849007
85	0xbe816d42	-0.2527867
86	0x3f05d52e	0.5227841
87	0x3f146c5e	0.57977855
88	0xbf650925	-0.8946708
89	0xbf2c7bee	-0.673766
90	0x3f5fdd2d	0.8744686
91	0x3efb6a81	0.49104694
92	0xbf11206e	-0.5669011
93	0xbea3a7a2	-0.3196383
94	0xbf2d9505	-0.6780551
95	0x3eca1d32	0.394754
96	0xbeda9416	-0.42691106
97	0x3f2bbe64	0.6708739
98	0x3f85c707	1.0451363
99	0xbf89173d	-1.0710217
100	0x3ffadda5	1.959889
101	0x3f8ed5a0	1.1158943
102	0x3db0a3a7	0.08624964
103	0xbf904040	-1.1269608
104	0x3fd3dedc	1.6552386
105	0x3fde1ea5	1.7353102
106	0x3d46ea7e	0.048563473
107	0x3ea7cd8f	0.32774016
108	0xbf365662	-0.7122556
109	0xbf35312b	-0.7077815
110	0x3fb27dce	1.3944643
111	0xbe7e6d14	-0.24846298
112	0x3eedc148	0.46436524
113	0x3ecf8756	0.4053294
114	0xbff4d122	-1.9126322
115	0xbfe01ea9	-1.7509357
116	0xbf10a4b6	-0.5650133
117	0xbf40b81d	-0.75280935
118	0x3dbe463a	0.092907384
119	0xbeaeb0a9	-0.34119156
120	0xbf5e78da	-0.86903155
121	0x3f849633	1.0358337
122	0xbe132b8d	-0.14372082
123	0xbd98b893	-0.0745708
124	0xbe913df5	-0.28367582
125	0x3e31dbeb	0.17369048
126	0xbf0801c7	-0.5312771
127	0xbe18636e	-0.1488168
128	0xbffb51ce	-1.963434
129	0x3f71efd8	0.945066
130	0x3f87afc4	1.0600514
131	0xbf9efa08	-1.2420053
132	0x3feedd6a	1.866132
133	0xbcbf0b28	-0.02332075
134	0xbfd59d28	-1.6688585
135	0xbf6e671d	-0.9312609
136	0xbb5b413b	-0.0033455628
137	0xbf214d89	-0.63008934
138	0x3e69b0bc	0.22821325
139	0xbecc3fad	-0.3989233
140	0xbef16d73	-0.47153816
141	0x3fa859c1	1.3152391
142	0x3f8b203a	1.086921
143	0x3e72491d	0.23660703
144	0xbf5e449c	-0.8682344
145	0x3fab6cc2	1.3392565
146	0xbfa35b23	-1.2762188
147	0x3e801b08	0.25020623
148	0xbf241cee	-0.64106643
149	0xbfcac38e	-1.5840929
150	0xbf619ea2	-0.8813268
151	0x3d548397	0.051883306
152	0x3f8cee66	1.1010253
153	0x3f392e61	0.72336394
154	0xbe3d1514	-0.18465072
155	0xbfe58e38	-1.7934027
156	0x3e0d159d	0.13777776
157	0xbdfeff86	-0.12451081
158	0x3d140643	0.036138784
159	0xbfe7fd2e	-1.8124139
160	0x3f887ad0	1.0662479
161	0x3e478029	0.19482483
162	0xbf0d2bc1	-0.5514489
163	0x3f08191b	0.5316331
164	0xbf3bb29f	-0.7331943
165	0xc030918b	-2.7588832
166	0x3f6d98fa	0.9281155
167	0x3f93d951	1.1550695
168	0x3f298f0c	0.662339
169	0x3e0072df	0.1254382
170	0x3e178b25	0.14799173
171	0x3fa13ab5	1.2596041
172	0x3f59495e	0.84877574
173	0xbf57bcf0	-0.8427267
174	0x3ecb3269	0.39686897
175	0xbfdce541	-1.7257463
176	0x3f0f499d	0.559717
177	0xbfb1af27	-1.3881577
178	0x3e7334e8	0.23750651
179	0x3ee64520	0.44974613
180	0x3d96d117	0.073640995
181	0xbfa1da06	-1.264466
182	0xbf24c883	-0.64368457
183	0xbffcf5f8	-1.9762564
184	0x3e8cb080	0.2747841
185	0x3fb97548	1.4488916
186	0x3fb46710	1.4093952
187	0x3f4ed225	0.80789405
188	0x3eeca073	0.46216163
189	0x3ec7df05	0.39037338
190	0xbddea3fc	-0.10871121
191	0xbf979aca	-1.1844113
192	0xbf9f3829	-1.2439014
193	0xbf0e4aa8	-0.55582666
194	0xbf1ceb8c	-0.61296916
195	0x3f1b74b6	0.6072496
196	0xbecb6140	-0.39722633
197	0x3f3c3193	0.73513144
198	0x3ee9d459	0.4566982
199	0xbfaae234	-1.3350282
200	0xbf97c740	-1.1857681
201	0xbeee3b10	-0.46529436
202	0xbebe9d54	-0.37229407
203	0xbf4a679f	-0.79064363
204	0x4027c397	2.6213129
205	0xbf6108fa	-0.8790432
206	0xbd9ffd42	-0.07811977
207	0x3fc09ba2	1.5047495
208	0x3feb4f85	1.8383642
209	0x3fdd6ebf	1.7299422
210	0x3ff08121	1.8789407
211	0xbf856c78	-1.0423727
212	0xbf47397c	-0.7782209
213	0x3ed16c06	0.40902728
214	0x3e0131b2	0.12616614
215	0xbfa201e7	-1.265683
216	0xbe8236f2	-0.25432545
217	0xbe3e992f	-0.18613122
218	0xbff614d2	-1.9225104
219	0xbe903354	-0.2816416
220	0xbc4b4ea4	-0.012408886
221	0xbf4b4777	-0.7940592
222	0xbf165ff9	-0.5874019
223	0x3eb6441f	0.35598847
224	0xbf3a748b	-0.7283408
225	0xbbf1b9d6	-0.0073768897
226	0xbf252dbb	-0.64522904
227	0x3f0626ae	0.5240277
228	0x3f2f45af	0.68465704
229	0xbc650bcb	-0.013979862
230	0x40066857	2.1001184
231	0xbd6ff0e8	-0.058579355
232	0x3f0f7cc3	0.56049746
233	0x3fc102d6	1.507899
234	0x3f755d28	0.9584527
235	0xbdeb2191	-0.11481012
236	0x3e887c92	0.2665754
237	0xc00e3038	-2.221693
238	0x3f3f56fb	0.74742097
239	0x3f602dac	0.8756969
240	0x3f7738ec	0.9657123
241	0xbd90f93c	-0.07078788
242	0x3f74ff3d	0.9570196
243	0x3ee3bfc9	0.44482258
244	0xbe931d81	-0.28733447
245	0x3ec7bfab	0.3901342
246	0x3f0aa5be	0.5415915
247	0x3f2632a9	0.6492105
248	0xbe08841e	-0.13331649
249	0x3f94976c	1.160871
250	0x3f1091e5	0.5647262
251	0xbf1405ed	-0.5782154
252	0xbf5d68fe	-0.8648833
253	0xbf124297	-0.5713286
254	0x3beb50bd	0.0071812556
255	0x3dd09f5a	0.10186644

indicator_time_mixing.1.indicator_mixing.W2 f4 [64, 5]
0	0x3e01bd5f	0.12669896
1	0x3f2a0ed6	0.6642889
2	0xbe13fd38	-0.14452064
3	0xbe49c8b8	-0.19705474
4	0xbfe198fe	-1.7624815
5	0x3e4ca892	0.1998618
6	0xbfa32279	-1.2744895
7	0x3e4ba969	0.19888844
8	0x3f0fe5de	0.56210124
9	0x3f232353	0.63725775
10	0x3f6fa5c3	0.9361231
11	0xc0091b5c	-2.142295
12	0xbfa887cc	-1.3166442
13	0x3e75a78e	0.23989698
14	0xbe0fe0fd	-0.1405067
15	0xbf815000	-1.0102539
16	0xbf88071e	-1.0627172
17	0x3f344001	0.7041016
18	0xbf8f6a44	-1.1204305
19	0xbe8c3295	-0.2738234
20	0xbf3970a3	-0.72437495
21	0x3f4511cc	0.7698028
22	0x3efe9227	0.4972088
23	0xbec77bfb	-0.38961777
24	0x3f2d0418	0.6758437
25	0x3f411813	0.7542736
26	0xbe6ad7d2	-0.22933891
27	0x3d787fcc	0.06066875
28	0x3f5a4a7a	0.8526989
29	0xbeaeac55	-0.34115854
30	0xbf3aa45e	-0.72907054
31	0xbf320409	-0.6953741
32	0xbf4e922e	-0.806918
33	0xbf05f08c	-0.5232017
34	0xbf0cae08	-0.5495305
35	0xbfcaa8c5	-1.5832754
36	0x401c0a46	2.438127
37	0xbf7505aa	-0.9571177
38	0xbf1f035b	-0.62114495
39	0x3f76d942	0.9642526
40	0x3e34a1a7	0.1763979
41	0x3f961039	1.1723701
42	0xbd81184f	-0.063034646
43	0xbf831d03	-1.0243229
44	0x3f2d5bf9	0.67718464
45	0x3e8d177c	0.2755698
46	0x3fe91b02	1.8211367
47	0xc00dfeb0	-2.21867
48	0xbf8dacdc	-1.1068377
49	0xbf92e1fd	-1.1475216
50	0xbffee418	-1.9913359
51	0xbf58298e	-0.8443841
52	0x3f171dfd	0.59030133
53	0xbea04e8d	-0.3130993
54	0xbe2ed8cb	-0.17074887
55	0xbef636d1	-0.48088697
56	0xbd58fe8c	-0.05297713
57	0xbfc89cf4	-1.5672898
58	0x3fa125ab	1.258962
59	0xbee3faca	-0.44527274
60	0xbf9eac19	-1.239627
61	0xbf8b9340	-1.0904312
62	0xbf420f2b	-0.75804394
63	0xbf12a14c	-0.5727737
64	0x3f0a0ef1	0.5392905
65	0x3e62cffb	0.22149651
66	0xbee9d3e4	-0.45669472
67	0xbfb6cd72	-1.4281447
68	0x3ea450f1	0.32093003
69	0xbf2ca222	-0.67434895
70	0xbfb25856	-1.3933208
71	0x3fa171e6	1.2612884
72	0x3de96e66	0.1139801
73	0xbef9c433	-0.487825
74	0x3e1137a0	0.14181376
75	0xbf94d817	-1.1628445
76	0x3e9f092f	0.31061694
77	0x3e850642	0.25981337
78	0xbf9e5f00	-1.2372742
79	0xbf92c9fa	-1.1467888
80	0xbfe18fcd	-1.762201
81	0xbdd2b9e7	-0.10289364
82	0x3f02561c	0.5091264
83	0xbf3f76c9	-0.74790627
84	0x3fbb8932	1.4651244
85	0x3f13e522	0.57771504
86	0xbdf287bf	-0.11842298
87	0x3f52c3a0	0.8232975
88	0xbe015494	-0.1262992
89	0x3f2a7b16	0.66594064
90	0xbe95879a	-0.29205018
91	0x3f3f784a	0.7479292
92	0x3e9197c2	0.28436095
93	0x3fe23d76	1.7675006
94	0xbe077483	-0.1322804
95	0x3f48ca9b	0.7843415
96	0xbfad292b	-1.3528188
97	0x400d486e	2.2075458
98	0xbf89a422	-1.0753214
99	0x3f615cc9	0.88032204
100	0xc0237f26	-2.5546355
101	0x3fea1cfc	1.8290095
102	0x3ead6c46	0.3387167
103	0x3fb1e8e2	1.3899195
104	0xbee70d79	-0.45127466
105	0x3ff7504d	1.9321381
106	0xbed2a8fc	-0.4114455
107	0xbd75d72b	-0.060019653
108	0xbecfa18d	-0.4055294
109	0x3f2194c4	0.63117623
110	0xbfd8845e	-1.6915395
111	0xbf115596	-0.5677122
112	0x40170e3e	2.3602443
113	0x3f4fb233	0.81131285
114	0xbfb78521	-1.4337503
115	0xbfb1793f	-1.3865126
116	0x3ea17b64	0.31539452
117	0x3f357890	0.7088709
118	0x3fa0bf0f	1.2558306
119	0x3e273bd1	0.16331412
120	0xbe80be35	-0.25145116
121	0x3f689dda	0.9086586
122	0x3f3fe358	0.74956274
123	0x3d930bd5	0.07179991
124	0x3f2fdc37	0.68695396
125	0xbf28ccce	-0.6593751
126	0xbfe75687	-1.8073281
127	0x3fa36b84	1.2767186
128	0x3fd0f613	1.6325096
129	0xc01b0230	-2.4220085
130	0xbd0db127	-0.034592774
131	0x3f152196	0.58254373
132	0xc03f3cfb	-2.988097
133	0x3f3d5d6e	0.7397069
134	0xbf936d62	-1.1517756
135	0xbeea2e9f	-0.45738694
136	0xbff751ab	-1.9321798
137	0xbf993398	-1.196887
138	0xbebec8a2	-0.37262446
139	0xbfa31871	-1.2741834
140	0x3fdb0a1c	1.711246
141	0xbb7dc521	-0.0038722234
142	0xbe011c1f	-0.12608384
143	0x3d53f41a	0.051746465
144	0xbd237572	-0.039906926
145	0x3f8765cc	1.0577941
146	0xbf3fbf8c	-0.7490165
147	0xbf4ffe59	-0.8124748
148	0x3ff4f29d	1.913654
149	0xbf9fe3e9	-1.2491428
150	0xbfa769d5	-1.3079172
151	0x3f9345dc	1.1505694
152	0xbfb7309b	-1.4311708
153	0x3fa1a181	1.2627412
154	0xbe66a3ad	-0.22523375
155	0xbdf947b1	-0.12171877
156	0x3d8ad52e	0.06778942
157	0xbf449d2a	-0.76802313
158	0x3e4ec550	0.20192456
159	0xbf9b70df	-1.214382
160	0x3d44af3b	0.048018675
161	0xc01b0605	-2.4222424
162	0xbe79c936	-0.24393162
163	0xbfa9f9dd	-1.3279377
164	0x3eb6b5b0	0.35685492
165	0x3e40c6f2	0.18825892
166	0x3f30c8c6	0.69056356
167	0xbf103f82	-0.56346905
168	0x3e69cc2e	0.22831795
169	0xbf8356d7	-1.0260876
170	0xbf359da9	-0.70943695
171	0xbf8df307	-1.1089791
172	0x3ffd9694	1.9811578
173	0xbf6d8789	-0.92784935
174	0xbeb5a9e1	-0.3548117
175	0x3f5e83e9	0.8692003
176	0x3fd16340	1.6358414
177	0xbf65642a	-0.89605963
178	0xbfc794f8	-1.5592337
179	0xbeed12ff	-0.46303555
180	0xbd18b55d	-0.037282337
181	0xbf8fac76	-1.1224506
182	0xbe9de8a3	-0.3084155
183	0x3fa7d646	1.3112266
184	0xbed7e95e	-0.42170233
185	0x3f69f400	0.9138794
186	0xbe9f6c58	-0.31137347
187	0xbc429e58	-0.011878572
188	0x3f329b48	0.6976819
189	0xbe29ede2	-0.16594651
190	0xbe5f9f3c	-0.21838087
191	0xbf6d5a4c	-0.9271591
192	0xbd57b05e	-0.05265843
193	0xbf87f08c	-1.0620284
194	0xbe45398a	-0.1926023
195	0xbf85c1d7	-1.044978
196	0xbf242876	-0.6412424
197	0x3f60344c	0.875798
198	0x3fdad714	1.7096887
199	0xbef0f34d	-0.47060624
200	0x3eee5182	0.4654656
201	0x3ed88b9b	0.4229401
202	0x3ed39080	0.41321182
203	0x3d7b959d	0.06142198
204	0xbf94f64f	-1.1637667
205	0xbe184509	-0.14870085
206	0x3ed70dd8	0.4200275
207	0xbfe6b89e	-1.8025091
208	0x3df25b42	0.11833812
209	0xbe346a0b	-0.17618577
210	0xbffc555a	-1.9713547
211	0x3ecdde53	0.40208682
212	0x3f49c8d5	0.7882207
213	0x3e1549f3	0.1457899
214	0x3f8a555d	1.0807301
215	0xbe904dca	-0.28184348
216	0x3f2c4b90	0.673028
217	0x3ece478a	0.40288955
218	0x3f13125c	0.5744989
219	0x3f3b7e9f	0.73240083
220	0x3e12c6b5	0.14333613
221	0xbfbb6605	-1.4640509
222	0x3ef5b2cc	0.47987974
223	0x3e70540e	0.23469564
224	0xc01216ed	-2.2826493
225	0xbf27891a	-0.65443575
226	0xbc03f2d8	-0.008053504
227	0xbe1ab5af	-0.1510837
228	0x3fd3f035	1.655768
229	0xbf06b8ed	-0.52625924
230	0x3f28069a	0.65635073
231	0xbfbdcb31	-1.4827634
232	0xbf5a7683	-0.85337085
233	0xbebc754c	-0.3680824
234	0xbf4192af	-0.75614446
235	0xbfaf4072	-1.3691542
236	0x3fe5c1bc	1.7949748
237	0x3f8743b0	1.0567532
238	0xbf7081fc	-0.9394834
239	0xbf41c7e6	-0.75695646
240	0xbf95c1cc	-1.1699767
241	0xbe8f5636	-0.2799546
242	0xbfbd9db0	-1.4813747
243	0x3f9c48da	1.2209733
244	0xbeed8dce	-0.4639725
245	0x3e892865	0.2678863
246	0xbf0aa3c1	-0.5415612
247	0xbf570446	-0.83990896
248	0x3f2162d5	0.6304143
249	0x403ad9b8	2.9195385
250	0xbf76c966	-0.9640106
251	0x3f459f48	0.7719617
252	0x402ef8e7	2.7339418
253	0xbe8942c3	-0.26808748
254	0x3fa07ab7	1.253745
255	0x3f94dc40	1.1629715

indicator_time_mixing.1.indicator_mixing.ln.weight f4 [8, 5]
0	0x3f8e76d5	1.1130015
1	0x3f931031	1.1489316
2	0x3f96bd0b	1.1776441
3	0x3f93c0b8	1.1543188
4	0x3f7a1cd2	0.97700226
5	0x3f818d21	1.0121194
6	0x3f8130a9	1.0092975
7	0x3f7a6121	0.97804457
8	0x3f7ca4c4	0.9868891
9	0x3f8d2fa8	1.1030169
10	0x3f7ad934	0.97987676
11	0x3f82e7f1	1.0227033
12	0x3f826dec	1.0189795
13	0x3f7e6299	0.993692
14	0x3f6bd483	0.9212114
15	0x3f80ef0a	1.0072949
16	0x3f7a0840	0.9766884
17	0x3f763f12	0.9618999
18	0x3f807e02	1.0038455
19	0x3f8949c2	1.0725634
20	0x3f802cda	1.0013688
21	0x3f8240fb	1.017608
22	0x3f851697	1.0397519
23	0x3f839737	1.0280522
24	0x3f60b5eb	0.87777585
25	0x3f828dd9	1.0199538
26	0x3f7a35e8	0.97738504
27	0x3f769d2c	0.96333575
28	0x3f7dafb6	0.9909624
29	0x3f8c0d6e	1.0941598
30	0x3f72d374	0.948539
31	0x3f7fddd1	0.9994784
32	0x3f809ca3	1.0047802
33	0x3f7fc078	0.9990306
34	0x3f72bfce	0.9482392
35	0x3f881dbb	1.0634073
36	0x3f790bf5	0.9728387
37	0x3f7a7b8b	0.9784476
38	0x3f81eda9	1.0150653
39	0x3f8ee1b2	1.1162627

indicator_time_mixing.1.indicator_mixing.ln.bias f4 [8, 5]
0	0x3e0e7c3b	0.13914578
1	0xbe46c722	-0.194119
2	0xbdc1c1f3	-0.09460821
3	0x3e364119	0.1779827
4	0xbefdc8b5	-0.4956719
5	0x3c846dbf	0.016165612
6	0xbb242860	-0.002504848
7	0xbbabb654	-0.005240241
8	0xbbe59265	-0.007005977
9	0x3d6112d0	0.05494958
10	0x3c35713e	0.011074362
11	0xbcfcbcc3	-0.030851727
12	0x3b072643	0.002062217
13	0x3bbcce7f	0.005761921
14	0xbc5d628c	-0.013512265
15	0xbc3791aa	-0.011204163
16	0x3cbd1bbc	0.023084514
17	0xb92f75fa	-0.0001673325
18	0xbb8e7331	-0.004347228
19	0x3c64f68e	0.013974799
20	0x3c82f023	0.015983647
21	0xbd172732	-0.036902614
22	0xbc1b9d01	-0.009497882
23	0x3cf18687	0.029483093
24	0xbdcc0d52	-0.09963478
25	0x3a951513	0.0011374078
26	0x3cd1d857	0.025615854
27	0xbb996b52	-0.004681983
28	0xbbc42bad	-0.005986652
29	0x3d358f7b	0.044326287
30	0xbc87a331	-0.016557308
31	0xbc12f0ef	-0.008968576
32	0x3c858035	0.016296485
33	0xbc3e5edc	-0.011619296
34	0xbd467e3b	-0.048460227
35	0x3c8c0257	0.01709096
36	0x3caa017d	0.020752663
37	0xbc83eb0c	-0.01610329
38	0x3cd1beb6	0.025603633
39	0x3d2275e8	0.039663225

indicator_time_mixing.1.time_mixing.ln.weight f4 [8, 5]
0	0x3f80bc02	1.0057375
1	0x3f8134f4	1.0094285
2	0x3f83ae86	1.0287635
3	0x3f8157f2	1.0104964
4	0x3f8878df	1.0661887
5	0x3f75abfe	0.95965564
6	0x3f73bbf6	0.9520868
7	0x3f852bac	1.0403953
8	0x3f79d1c3	0.97585696
9	0x3f781fd1	0.9692355
10	0x3f6a6c03	0.9157106
11	0x3f6a004a	0.9140669
12	0x3f8f2083	1.1181797
13	0x3f72af61	0.94798857
14	0x3f7116bf	0.9417533
15	0x3f67e237	0.9057955
16	0x3f69392c	0.9110286
17	0x3f8c4e14	1.0961328
18	0x3f6f9bbc	0.93597007
19	0x3f6e1e49	0.9301496
20	0x3f78a270	0.9712286
21	0x3f7bb22b	0.9831874
22	0x3f83ab43	1.028664
23	0x3f7ab4bf	0.97932047
24	0x3f77c682	0.96787274
25	0x3f7b21b2	0.9809829
26	0x3f7a4695	0.9776395
27	0x3f81f4e8	1.0152864
28	0x3f800bce	1.0003603
29	0x3f7d21c4	0.9887965
30	0x3f79e5f4	0.97616506
31	0x3f7de082	0.99170697
32	0x3f83b6ed	1.02902
33	0x3f7b4f43	0.9816782
34	0x3f78fd30	0.97261333
35	0x3f750727	0.9571404
36	0x3f77a825	0.96740943
37	0x3f836123	1.0264019
38	0x3f7d7111	0.9900065
39	0x3f7be5f2	0.98397744

indicator_time_mixing.1.time_mixing.ln.bias f4 [8, 5]
0	0xb77b4ff3	-1.49793805e-05
1	0x3aa8a77f	0.00128673
2	0x3bef7d8d	0.007308668
3	0xbc23c817	-0.009996436
4	0x3ce98cc4	0.028509505
5	0x3d578086	0.052612804
6	0xbd4e450c	-0.050358817
7	0x3d57ca48	0.052683145
8	0x3d162dbf	0.03666472
9	0xbd2dd294	-0.04243715
10	0x3dd3178d	0.10307226
11	0xbdd08f75	-0.10183612
12	0x3dd1bcbc	0.10241076
13	0x3d8dc25c	0.06921837
14	0xbd89db0c	-0.06731233
15	0x3dc55a22	0.09636332
16	0xbdc6f27c	-0.09714219
17	0x3dc83fb4	0.097777754
18	0x3d75d94c	0.060021684
19	0xbda554a4	-0.080727845
20	0x3cd1eb49	0.025624888
21	0xbce357db	-0.027751854
22	0x3cafb311	0.02144769
23	0x3cd2afa3	0.025718516
24	0xbd2d412c	-0.04229848
25	0x3c939dc0	0.018019557
26	0xbc7f1e8a	-0.015571246
27	0x3c9cb7f0	0.019130677
28	0x3bd9d330	0.00664749
29	0xbc5eef30	-0.013606831
30	0x3cd1ddd9	0.02561848
31	0xbcd35060	-0.025795162
32	0x3cc3e367	0.023912145
33	0x3ca452fb	0.0200591
34	0xbca95de1	-0.020674648
35	0x3d0ee624	0.034887448
36	0xbd0e12da	-0.034685947
37	0x3cf9ac76	0.030477744
38	0x3b57a8ac	0.0032906933
39	0xbc51fca7	-0.012816585

indicator_time_mixing.1.time_mixing.U1.1 f4 [1, 2]
0	0xbb286c23	-0.002569922
1	0x3bbdfb26	0.0057977615

indicator_time_mixing.1.time_mixing.U1.2 f4 [1, 3]
0	0xbae3c2f8	-0.0017376831
1	0x3ac53918	0.0015046922
2	0x3ba1b0c1	0.004934401

indicator_time_mixing.1.time_mixing.U1.3 f4 [1, 4]
0	0x3b833c99	0.0040050265
1	0xbc770a63	-0.01507816
2	0x3ab118af	0.0013511385
3	0x3c35a51a	0.011086727

indicator_time_mixing.1.time_mixing.U1.4 f4 [1, 5]
0	0xbc006a44	-0.007837836
1	0xbcae3dea	-0.021269757
2	0xbc0094ea	-0.007848004
3	0x3ba172b8	0.0049270056
4	0x3cccc004	0.024993904

indicator_time_mixing.1.time_mixing.U1.5 f4 [1, 6]
0	0xbb66abf7	-0.0035197714
1	0xbc0945dd	-0.008378473
2	0x3cb2d423	0.02182967
3	0xbb32c081	-0.0027275386
4	0x3c2ae2e4	0.0104300715
5	0xbca4d667	-0.020121766

indicator_time_mixing.1.time_mixing.U1.6 f4 [1, 7]
0	0x3c7e511b	0.015522267
1	0x3c0ff653	0.008786756
2	0x3c440ecf	0.011966421
3	0xbc009855	-0.007848819
4	0xbc8be5a9	-0.017077284
5	0xbb95bcce	-0.0045696264
6	0x3cae7cf1	0.021299811

indicator_time_mixing.1.time_mixing.U1.7 f4 [1, 8]
0	0xbbed8416	-0.007248412
1	0x3b0a50ca	0.0021105283
2	0x3b98acc5	0.0046592676
3	0xbc1ac6dc	-0.009446826
4	0xbba2c1d5	-0.0049669542
5	0x3c5c1b28	0.013434209
6	0x3bc97b92	0.006148764
7	0x3bab42e7	0.0052264812

indicator_time_mixing.1.time_mixing.U2.1 f4 [1, 2]
0	0xbc689df6	-0.014197817
1	0xbcd83e98	-0.026397035

indicator_time_mixing.1.time_mixing.U2.2 f4 [1, 3]
0	0x3b8aa615	0.0042312243
1	0xbbdfb651	-0.0068271537
2	0x3affab09	0.0019505929

indicator_time_mixing.1.time_mixing.U2.3 f4 [1, 4]
0	0xbc293bf0	-0.010329232
1	0x3c2e6a2d	0.0106454315
2	0xbc34542a	-0.011006394
3	0x3c286d2e	0.010279937

indicator_time_mixing.1.time_mixing.U2.4 f4 [1, 5]
0	0x3d10d541	0.035359625
1	0xbc652634	-0.013986159
2	0xbc443979	-0.011976593
3	0xbc323898	-0.010877751
4	0xbcd13316	-0.025537055

indicator_time_mixing.1.time_mixing.U2.5 f4 [1, 6]
0	0x3b80c261	0.003929422
1	0xbaabdada	-0.0013111487
2	0xbc0f2cd8	-0.008738719
3	0xbcac82f2	-0.021058533
4	0xbc9d9205	-0.019234667
5	0x3ba2109a	0.0049458267

indicator_time_mixing.1.time_mixing.U2.6 f4 [1, 7]
0	0xbc316a28	-0.010828532
1	0xbc83bc59	-0.016081022
2	0xbca64f60	-0.02030152
3	0xbc58710a	-0.013210544
4	0xbbd3fa71	-0.006469064
5	0x3cbf65a0	0.023363888
6	0x3ae4f368	0.001746756

indicator_time_mixing.1.time_mixing.U2.7 f4 [1, 8]
0	0x3bf27458	0.007399123
1	0xbc0b24c6	-0.008492654
2	0x3c432198	0.011909865
3	0xbbf71228	-0.007540006
4	0xbc2ec285	-0.010666494
5	0x3c2fdeaf	0.010734244
6	0xbc0cc27b	-0.00859129
7	0xbae79710	-0.0017668922

indicator_time_mixing.1.fc.weight f4 [1, 5]
0	0xbe6f53fa	-0.23371878
1	0x3e38055d	0.17970796
2	0xbe2831db	-0.16425268
3	0x3c72548e	0.014790667
4	0xbcad0780	-0.02112174
