weights/stockmixer_L16_H64_M40_K4_E50_s1_GELU.pt (torch, 630786 bytes, 93 tensors)

indicator_time_mixing.0.indicator_mixing.W1 f4 [5, 64]
000000 ac 06 ce bf ab 6a 55 bf c7 7c 2e bf e5 e9 cd bf
       -1.6095786 -0.8336589 -0.68159145 -1.6087004
000010 7f b6 0d be b8 9c 40 bf 5d b0 61 bf dd 6b d4 bf
       -0.13839148 -0.75239134 -0.88159734 -1.6595417
000020 92 11 39 bf ed e4 50 3e fe bf 3a bf ff 5e 8a be
       -0.72292435 0.20399828 -0.72949207 -0.270256
000030 cb b6 d3 be a1 d2 dc 3f 12 e7 94 3e 4a 3c f8 3e
       -0.41350397 1.7251779 0.29082543 0.48483497
000040 34 20 4b bf 98 4c 8d bf ad 21 40 3f 49 de 05 3e
       -0.79346013 -1.1039 0.75051385 0.13073076
000050 9e e8 54 3f 25 a1 57 3e ce a6 0f bf 62 80 32 3f
       0.83167446 0.21057566 -0.561139 0.69727147
000060 f4 75 b2 3f 0a 2a 40 be c5 d1 0d c0 5a 86 b9 bf
       1.3942246 -0.18766037 -2.2159283 -1.4494126
000070 48 7b ee 3c da 32 3a bf 3c 14 57 bf 20 ce 15 bf
       0.02911152 -0.72733843 -0.8401525 -0.58517647
000080 c1 51 ec 3f 38 84 2c 3e dc ac eb 3d 47 eb 4f bf
       1.8462449 0.16847312 0.1150758 -0.8121838
000090 09 53 65 3e ae bd a8 3d 3b c3 47 3e 67 66 07 bf
       0.22394957 0.082393035 0.19508068 -0.5289063
0000a0 18 a4 91 be 16 fe 17 3f ba b4 5e bd 26 11 07 be
       -0.28445506 0.5937208 -0.054371573 -0.13190135
0000b0 f3 14 11 40 f9 cd 91 bf b2 1e cc 3f c5 e8 25 bf
       2.2669036 -1.1390983 1.5946867 -0.64808303
0000c0 fc 38 6e bf 2f 56 14 3f 11 92 ac bd 9d a5 19 bf
       -0.930557 0.57944006 -0.084262975 -0.6001833
0000d0 6e 24 47 3f 41 a1 01 3f 08 4f 8b 3f 04 db fe 3f
       0.7778996 0.5063668 1.0883493 1.9910588
0000e0 77 ab 8d bd 4d dc 63 3f e1 26 97 bd d3 1b 69 bf
       -0.0691747 0.8900803 -0.073804624 -0.9105808
0000f0 06 de c7 3f bb 21 5f bf 6f 78 48 c0 6e 7f 18 bf
       1.5614631 -0.87160844 -3.1323507 -0.5956944
000100 69 a2 ab 3d 14 08 75 bf 1c 38 10 bf f5 17 83 bf
       0.08380587 -0.9571545 -0.56335616 -1.0241686
000110 b0 1f 33 be 22 89 e1 3d f1 58 d1 3f aa 6c 49 bd
       -0.17492557 0.11012484 1.6355268 -0.049175896
000120 06 d8 33 bf cf 15 f2 bd ca 83 81 bf 8c b9 54 bf
       -0.702515 -0.11820566 -1.0118344 -0.8309562
000130 9f 40 9f be 1d c3 19 bf 60 9d a9 3e cc 53 7e bf
       -0.3110399 -0.60063344 0.3312788 -0.99346614
000140 cb c9 de be 21 4c 9a 3d 31 4b 32 bf c0 e6 47 3f
       -0.4351333 0.07534052 -0.69645983 0.7808647
000150 be 74 b3 bf 36 4a f1 be 1c 3d e4 3d 19 fd ca bd
       -1.4020002 -0.4712693 0.11144468 -0.09911556
000160 a1 b9 ab 3d 71 04 04 bf bc 3d 86 bf e9 50 5d 3f
       0.08385015 -0.5156928 -1.048759 0.86451584
000170 d7 3e 83 bf a9 5d c4 be 6c 58 9a 3e dc b7 10 40
       -1.0253552 -0.38352707 0.30145586 2.261222
000180 cd 74 31 3f 5b f7 81 3f ec e2 58 3f f2 75 49 bf
       0.6931885 1.0153612 0.84721255 -0.78695595
000190 ca 59 aa 3f cc bd 57 bf 61 15 75 bf 63 a4 9a 3f
       1.3308651 -0.8427398 -0.95735747 1.2081417
0001a0 bf f4 b8 3f ac a6 a7 3e 15 3e 09 be e3 09 85 bd
       1.444969 0.32744348 -0.13402589 -0.06496026
0001b0 0b e6 01 c0 d1 02 0c bf 33 cd bf bf 8a d0 8d bf
       -2.0296657 -0.546918 -1.4984497 -1.1079266
0001c0 31 61 65 3f 29 87 13 bf cf 80 af 3f 2a 73 73 3f
       0.8960143 -0.57628113 1.3711184 0.950976
0001d0 b1 bd 6a 3e 3d c5 97 3e 47 91 0b 3f 2f 6d ce be
       0.22923924 0.29642668 0.5451855 -0.40317675
0001e0 6a f5 26 40 11 47 59 be 0f 07 98 bd a1 47 06 40
       2.608729 -0.21218516 -0.07423221 2.098122
0001f0 d3 13 00 c0 fa 39 d6 3f 9d b8 a8 3d fd 6e 0c 3e
       -2.00121 1.6736443 0.08238337 0.13714214
000200 be 10 29 3f 24 c1 ec bf a8 cc b7 3e 2f b9 83 3f
       0.6604117 -1.8496442 0.35898328 1.0290889
000210 76 cd d7 be 8d 3f d8 bf 52 20 23 3f 7f db 34 bf
       -0.42148942 -1.6894394 0.6372119 -0.70647424
000220 ac 78 c5 bf 62 24 ec bf 55 f4 02 3f a6 94 1e 3f
       -1.5427451 -1.8448603 0.5115407 0.6194557
000230 7e c7 10 40 9c 5b 2d 3f 8a 09 cb 3f de 41 e6 bf
       2.262176 0.6771791 1.5862286 -1.7988851
000240 a9 29 af bf e8 03 9e bf b1 d3 ba 3f 75 d9 1c 3f
       -1.3684589 -1.2344942 1.4595853 0.61269313
000250 ba ef f9 3e 8b 68 d6 be 24 66 00 3f d3 df c6 bf
       0.4881571 -0.41876635 0.50155854 -1.5537056
000260 4c fa 95 3e 02 a4 ca bd 22 50 44 3e 9f 95 9e 3f
       0.29292524 -0.09894563 0.19171193 1.2389411
000270 0c b9 e0 3f 99 1f df 3f 83 68 59 bf 70 66 15 40
       1.7556472 1.7431518 -0.849251 2.3343773
000280 f8 3b d6 3e 52 fc 18 bf 1e d6 2e bf db 49 0b bf
       0.41842628 -0.5976001 -0.68295467 -0.5440957
000290 e4 54 6a bf af d1 7d bf 86 12 5d 3f 24 86 7e 3f
       -0.9153578 -0.99148077 0.8635639 0.9942343
0002a0 d6 d3 f4 3e 85 de af 3f c6 09 91 3f 4c b1 d0 bf
       0.47817868 1.3739783 1.1331108 -1.6304107
0002b0 64 a8 da be f3 64 77 bf d0 95 0e bd bd 5b a2 bd
       -0.42706597 -0.9663841 -0.03481084 -0.07927654
0002c0 c3 96 3d 3f 6b ab 9d 3f f4 4f be 3e ec 43 be 3f
       0.7405817 1.2317938 0.37170374 1.4864478
0002d0 e2 4b 6f bf 76 64 8e 3c ba 6b 10 be 0b ff b0 be
       -0.93475163 0.017381888 -0.14103594 -0.34569582
0002e0 57 60 d2 3f 22 b6 91 be 9a 3e 8f 3e 61 6e a6 3f
       1.643565 -0.2845927 0.2797745 1.3002435
0002f0 13 fe bb 3d 6b e0 7d 3f dd 06 65 be a3 26 3c 3f
       0.0917932 0.9917056 -0.223659 0.73496455
000300 a5 28 0c bf 32 d9 44 3f 6c 18 dc 3f 33 d9 41 be
       -0.5474952 0.76893914 1.7194953 -0.18930511
000310 18 f3 f3 3e cb 02 fa bf 1e 98 32 c0 04 e4 bb be
       0.47646403 -1.9532102 -2.7905345 -0.366974
000320 3d 13 07 bf 8f 4e 4c 3f 32 49 67 bf a1 bd 11 3f
       -0.5276373 0.7980737 -0.9034606 0.56929976
000330 fa b3 d7 bf 88 97 d2 bd 82 48 60 3f ba 3f d9 3d
       -1.68518 -0.102828085 0.8761064 0.10607858
000340 d2 fc 53 3f 7b 1e 88 3f 86 36 ee be 69 c8 a4 3f
       0.8280765 1.0634302 -0.46525973 1.287366
000350 c1 12 30 3e 90 5e ed 3f 48 c0 f2 3f 07 8d 9e 3f
       0.17194654 1.8544483 1.896493 1.2386788
000360 cb cd 2f bf cb 33 a4 3f 0b 26 9d 3f a2 d5 1a bf
       -0.6867339 1.2828306 1.2277235 -0.6048223
000370 00 1f 30 3e 30 2e 27 bf d8 fa bb 3f 01 f0 b2 3f
       0.17199326 -0.6530485 1.4685926 1.3979493
000380 e8 89 cb 3f 6e 14 08 bd 4e 6b 9f be c6 35 c8 bf
       1.5901461 -0.03322261 -0.31136554 -1.564141
000390 80 ea 9a 3f 0b b4 aa 3f 86 38 e5 3e f0 c8 c8 3e
       1.2102814 1.3336195 0.44769686 0.39215803
0003a0 96 31 27 be 0f 99 42 3f 6a eb 82 3f e6 6b c0 bf
       -0.1632751 0.760148 1.0228093 -1.5032928
0003b0 bf d4 cf 3f 62 1d 1c c0 b6 67 60 bf 6f c8 6e 3e
       1.62368 -2.4392934 -0.8765825 0.23318647
0003c0 a0 af 3b 3e 64 07 78 3f 58 9b a9 3f 7c c0 31 bf
       0.18328714 0.9688628 1.3250532 -0.6943433
0003d0 e1 a2 3c bf 21 87 26 be 0a a1 ac be d4 9f 5c bd
       -0.73686033 -0.16262485 -0.33716613 -0.05386336
0003e0 4c 77 85 3e 20 ea 30 bf f9 79 09 bf 60 05 3a 3f
       0.2606758 -0.69107246 -0.5370174 0.7266445
0003f0 cd b5 4d bd 84 24 90 bf 21 88 45 bc a0 06 63 3f
       -0.050222207 -1.1261144 -0.012056381 0.88681984

indicator_time_mixing.0.indicator_mixing.W2 f4 [64, 5]
000000 ba 63 2d 3f 95 24 58 bf 6f 6a c7 bd b1 18 9b be
       0.67730296 -0.8443082 -0.097370975 -0.30292276
000010 f4 e4 af 3f 31 38 09 3f 53 35 24 bf bc f1 6b bf
       1.3741746 0.53601366 -0.64143866 -0.9216573
000020 00 8b 55 3f 41 f1 24 3f 78 83 76 bf dc c7 40 bf
       0.8341522 0.64430624 -0.96294355 -0.7530496
000030 67 ad 01 bf 23 04 4c 3f 25 55 8d bd 69 d3 90 3f
       -0.50655216 0.7969381 -0.06901006 1.1314517
000040 83 1d 15 bf e6 e3 da be 38 fe 0a bf 34 b0 f8 bc
       -0.58248156 -0.42751998 -0.5429416 -0.030357458
000050 ae 9c 1e 3f b2 20 44 3d 14 f2 b5 bd e1 67 1c c0
       0.61957824 0.047882743 -0.08884063 -2.4438403
000060 7e 1f e8 3e 65 94 b9 3e da 6e 95 3f f6 26 a3 3f
       0.45336527 0.3624603 1.1674454 1.2746265
000070 5c 2c b3 3d 9b 2c 24 3f 23 ab d1 be 36 d3 f8 bf
       0.08748695 0.6413056 -0.4095088 -1.9439456
000080 db de 79 3e 84 69 59 3f bc 54 23 3f d1 b7 dd bf
       0.24401419 0.8492663 0.6380117 -1.7321721
000090 34 24 3b bf e9 de bb bf 0e 1d d5 3f ff 17 ad bd
       -0.73102117 -1.4677402 1.6649492 -0.084518425
0000a0 f6 9d 27 3f f3 8d 08 be 7b be 01 c0 6c c0 2f 3f
       0.65475404 -0.133354 -2.027251 0.6865299
0000b0 65 30 21 c0 b7 fa 30 be 42 2a cc 3e f5 b8 7f 3f
       -2.5185788 -0.1728314 0.3987599 0.998916
0000c0 7d e7 03 bf a5 35 68 3f c6 d9 e6 bc 84 8f b5 bf
       -0.515251 0.90706855 -0.028180014 -1.4184422
0000d0 db 71 55 bf f2 31 44 3f ec 7c 9a 3f 91 32 6c bf
       -0.83376855 0.7663871 1.2069373 -0.9226466
0000e0 7c 5e a9 3f 91 07 21 be df 93 32 be da 47 17 bf
       1.3231959 -0.15725543 -0.17439221 -0.5909401
0000f0 8f 67 17 3f d2 56 a4 3e 39 cd 7a bf 32 1c 64 3f
       0.5914239 0.3209749 -0.97969395 0.8910552
000100 6a aa f0 be 33 cd f1 bd 59 78 c5 3f c5 cc a8 bf
       -0.47005016 -0.11806717 1.5427352 -1.3187491
000110 7d 45 57 3f cc 0b 33 bf db 1d b1 3f 1e b5 1b 3f
       0.84090406 -0.69939876 1.3837236 0.6082324
000120 51 1b ae 3e 1f 69 f9 3f f3 88 20 be e0 94 87 bd
       0.34005216 1.9485205 -0.15677242 -0.066201925
000130 6f d6 16 bf 06 9a 1b bf b0 50 cb be d6 37 03 c0
       -0.5892095 -0.60781896 -0.39709997 -2.050283
000140 94 d9 db 3e 2f 50 c2 bf 5e 0d 86 bf a0 14 07 bc
       0.42939436 -1.518072 -1.0472829 -0.0082446635
000150 b6 94 9c be 24 57 24 3e 21 52 91 be b8 01 65 be
       -0.30582207 0.16048867 -0.28382972 -0.22363937
000160 72 71 1d bf f2 19 98 3f a9 a1 1f 3f 97 07 e5 be
       -0.6150123 1.1882918 0.6235605 -0.44732353
000170 71 6d 52 bf 04 30 92 3e 75 e8 30 bf db 37 a9 be
       -0.82198244 0.28552258 -0.691047 -0.33050427
000180 28 5c 80 be a9 ee 45 3f 06 ea 21 be ce f8 f0 3e
       -0.2507031 0.7731729 -0.15811929 0.47064823
000190 5b 0b b0 be c3 ba 18 c0 bb b8 83 bf 11 a6 2d bd
       -0.34383664 -2.386399 -1.029075 -0.0423947
0001a0 4c 79 f2 bd 8d 56 10 c0 6e 72 1d 3f f7 19 1d 3f
       -0.11839542 -2.2552826 0.6150273 0.61367744
0001b0 de 14 1c be f5 03 24 3f d6 b0 e7 3e 3d 03 12 40
       -0.15242335 0.6406854 0.45252103 2.2814476
0001c0 c0 d5 86 3f 6d 0d ba 3f 8b bf bc 3f bc 70 56 3e
       1.0533981 1.4535347 1.4745954 0.20941442
0001d0 87 66 bf bf 09 c9 df bd 62 c6 b5 3e dd bb 03 3f
       -1.4953164 -0.10927016 0.35502917 0.5145853
0001e0 35 66 53 3f 53 1a ce bd f2 cf 8a 3e 6a 1d b8 be
       0.8257783 -0.10063615 0.27111775 -0.3595994
0001f0 12 da e4 be f6 25 9d bf 58 67 f9 3f 0b 67 e2 bf
       -0.44697624 -1.227721 1.9484663 -1.7687696
000200 8c 78 a5 3c b0 a0 6c 3e 82 bf 92 3e d7 70 87 3e
       0.020199083 0.23108172 0.28661734 0.26453277
000210 32 d4 e3 be b6 c3 7b 3f ac 6a ed 3f 33 97 7c bf
       -0.4449783 0.98345506 1.8548179 -0.9866821
000220 70 a0 5d 3f 7b 2d 85 3e 18 05 ad bf d8 b6 cc 3f
       0.86572933 0.2601126 -1.351718 1.59933
000230 0d 99 50 c0 31 e8 f3 3e 9d 8f f2 bf b8 01 c0 bf
       -3.2593415 0.47638085 -1.8950077 -1.5000525
000240 5a 07 88 3f f1 63 9f 3f fd f6 9d 3e 87 b6 53 3f
       1.0627244 1.2452375 0.308525 0.8270039
000250 5a ad 7a 3f 60 fc 1b be 4c a1 0a bf 08 95 c8 3e
       0.97920763 -0.15232992 -0.5415237 0.39176202
000260 3d 2f a5 be 50 81 62 bf 77 c8 af bd 06 ca aa 3e
       -0.32262602 -0.88478565 -0.085831575 0.33357257
000270 5e 16 86 3f 5a 2f 7f be 4c 71 e0 bb 19 9c 84 be
       1.0475576 -0.24920407 -0.0068494435 -0.25900343
000280 c5 7a ab be cc 39 5d 3c 47 c3 a1 be 7b fb 1c bf
       -0.33492103 0.013502549 -0.31594297 -0.6132123
000290 eb dc 2d 3f c5 7f 4f 3f 95 52 99 be d5 a3 78 be
       0.6791522 0.81054336 -0.29945818 -0.24281247
0002a0 75 d8 b0 bf 25 d1 5b bf 8e 27 9f bf d9 6b a2 3f
       -1.3816057 -0.85866004 -1.2433946 1.2689162
0002b0 03 ed 0a c0 fa bc 6b 3e fa 10 1d be 96 37 21 c0
       -2.170716 0.23021308 -0.15338507 -2.5190177
0002c0 52 0d c9 bf 34 a8 4d 3e 45 dd 00 be 6a 23 b4 3f
       -1.570719 0.20083696 -0.12584408 1.4073308
0002d0 0f 07 b4 3e af 90 05 be 4a ec bd 3e b4 df b1 be
       0.35161635 -0.13043474 0.37094337 -0.34740984
0002e0 05 c9 65 3f 7e e5 43 3f c4 bb 1d 3f c6 62 18 3f
       0.89759856 0.7652205 0.6161463 0.59525716
0002f0 f2 f9 cc be 74 02 7a 3e 5d ca 9e 3e 59 17 0e bf
       -0.40034443 0.24414998 0.31013766 -0.55504376
000300 1a af 41 3f e4 e6 ab 3f 91 f1 7c be a7 a7 3a bd
       0.7565781 1.3429837 -0.24701525 -0.045570042
000310 5d 3c 04 be 97 84 00 3f e0 db 3f be 93 a3 a3 bf
       -0.12913652 0.50202316 -0.1873622 -1.2784294
000320 f8 ae 5c bd 57 b7 aa 3f d9 cf d8 bf 54 75 15 3d
       -0.0538778 1.3337201 -1.693843 0.036488846
000330 8f b9 04 3f 5c 81 cb 3e 2c 06 1f bf fc 60 02 3e
       0.5184564 0.3974713 -0.6211879 0.12732309
000340 94 e5 d7 3e 19 7b 3c bf a7 25 2c 3f a9 4a a4 3f
       0.42167342 -0.7362533 0.6724495 1.2835284
000350 c2 be b3 3e e2 11 90 3f d1 7a 30 ba d5 b9 9d be
       0.35106474 1.1255457 -0.0006732168 -0.3080584
000360 09 89 5b bf 19 0f 08 3d 60 25 8e 3f 88 55 07 bf
       -0.85755974 0.033217523 1.1105156 -0.52864885
000370 9f 38 c3 bf 57 b5 71 3f c4 ab 9f 3f bb 4d f0 3e
       -1.5251654 0.9441733 1.2474294 0.46934304
000380 bf cf 9c 3e 60 22 90 3f 16 6c ed bc eb a6 1c c0
       0.30627248 1.126049 -0.028982203 -2.4476879
000390 73 7c 16 3f f9 e7 aa be 76 a8 db 3e d9 08 b9 3e
       0.58783644 -0.33380106 0.42901963 0.36139563
0003a0 0e ba d9 be 7e 30 8f 3f a0 a7 09 3f df 07 5a bf
       -0.4252476 1.1186674 0.537714 -0.8516826
0003b0 b4 df cf be 8f 6c fb 3f 96 42 9d 3f 8b 2b 25 3f
       -0.4060036 1.9642504 1.2285945 0.64519566
0003c0 9b ec 11 bf 9c 41 52 bf ed 27 0c 3f df 0f 0c bf
       -0.57001656 -0.8213136 0.5474842 -0.5471172
0003d0 2d 05 92 3f 5c 2d 56 3f 1b c2 b6 be 4d 4a 4a be
       1.140783 0.8366296 -0.35694966 -0.19754906
0003e0 eb f0 f9 be 6d b7 9d 3c c4 80 48 bf ef 69 a1 3e
       -0.48816618 0.019252503 -0.7832148 0.31526133
0003f0 62 02 55 3f c3 ce 5c 3f 88 d5 fa 3e ab 95 14 3f
       0.8320676 0.86252993 0.48991036 0.58040875

indicator_time_mixing.0.indicator_mixing.ln.weight f4 [16, 5]
000000 73 eb 83 3f 9f 30 83 3f ca ea 8f 3f e7 cf 88 3f
       1.0306228 1.0249213 1.1243527 1.0688447
000010 4b d8 55 3f a2 b1 7a 3f 2b 32 76 3f 3c 00 80 3f
       0.8353316 0.97927296 0.961703 1.0000072
000020 e1 7d 81 3f e0 d3 5b 3f a1 6f 8e 3f 96 d7 91 3f
       1.011654 0.8587017 1.1127816 1.1393917
000030 9d 60 cb 3f de ab 8f 3f b1 c9 67 3f 73 e9 79 3f
       1.5888859 1.1224325 0.9054213 0.9762184
000040 e9 3c 8c 3f 80 4c 93 3f 57 ab 7a 3f 64 1e 86 3f
       1.0956088 1.1507721 0.97917694 1.0478024
000050 f6 4a 77 3f 06 bc 68 3f ad 23 67 3f d8 3b 76 3f
       0.96598756 0.909119 0.9028881 0.96185064
000060 55 d9 7b 3f 78 e9 82 3f 3e ff 82 3f 0a be 5b 3f
       0.983785 1.0227499 1.0234144 0.8583685
000070 c3 99 86 3f 59 06 6f 3f b1 f3 7f 3f fc 34 7e 3f
       1.0515674 0.9336906 0.9998122 0.992996
000080 45 4c 79 3f 4b c0 74 3f 26 87 7a 3f d9 c2 81 3f
       0.97382003 0.95605916 0.9786247 1.0137588
000090 05 15 7d 3f 64 ab 66 3f 16 e1 7e 3f a8 da 80 3f
       0.988602 0.9010527 0.99562204 1.0066729
0000a0 e0 63 73 3f a7 42 6c 3f 81 9d 7b 3f 3e 09 7b 3f
       0.9507427 0.92289203 0.98287207 0.9806098
0000b0 b3 12 78 3f 82 d8 80 3f b9 35 80 3f de a7 88 3f
       0.9690353 1.0066073 1.0016395 1.0676229
0000c0 53 11 7f 3f 71 1d 76 3f 12 12 82 3f f1 9e 80 3f
       0.9963581 0.96138674 1.0161765 1.0048505
0000d0 b5 95 62 3f be f1 82 3f 88 38 79 3f 56 11 7c 3f
       0.88509685 1.0230024 0.97351885 0.9846395
0000e0 d6 34 7d 3f bf 67 6d 3f 9c 62 80 3f 17 df 7f 3f
       0.98908746 0.9273643 1.0030093 0.99949783
0000f0 50 27 7f 3f 9e 95 77 3f 30 c0 85 3f 46 57 79 3f
       0.9966936 0.9671267 1.0449276 0.97398794
000100 27 71 80 3f e6 aa 95 3f be 44 84 3f de 1b e1 3f
       1.0034531 1.1692779 1.0333478 1.7586629
000110 a8 1a 88 3f 23 7b 7d 3f fb f6 7e 3f 11 30 82 3f
       1.0633135 0.99016017 0.9959561 1.0170919
000120 12 d9 5c 3f 88 e9 82 3f db af 6b 3f 1e 23 7b 3f
       0.86268723 1.0227518 0.9206521 0.9810046
000130 bb fc 78 3f b8 e1 55 3f 8e 45 82 3f 49 db 81 3f
       0.97260636 0.83547544 1.0177476 1.0145046

indicator_time_mixing.0.indicator_mixing.ln.bias f4 [16, 5]
000000 69 83 52 3d 8c 9b 58 bd e3 22 ac bd 4a 92 7a 3d
       0.051394854 -0.052882716 -0.084050916 0.06117467
000010 0f ec 2b bd 65 df a5 bb c8 07 0a 3d 29 87 da 3a
       -0.04197317 -0.005062031 0.033698827 0.0016672361
000020 e0 b1 78 3c 48 0b e3 bc 44 db e0 3d a1 af 0e be
       0.015179127 -0.02771534 0.109793216 -0.13934185
000030 17 3d 35 bd 0e 94 03 3e 5f 2a 9f 3d f4 2e d1 bc
       -0.044247713 0.12849447 0.077717535 -0.025535084
000040 15 c4 bf bd 8c 0a 80 3c 37 49 a8 3c c2 37 bc 3c
       -0.093635716 0.01563003 0.020542724 0.022975806
000050 e1 08 2c bd d2 fc af 3d 22 b9 f2 3c 35 a5 e8 bc
       -0.042000655 0.085931435 0.029629294 -0.02839909
000060 dc 84 d5 3b 94 a4 8f 3d 09 43 e5 bc 71 40 ac bd
       0.006516082 0.07013813 -0.027986066 -0.08410729
000070 02 0f 01 ba b8 6f d0 3c 99 a5 50 3c 4a 77 f3 3b
       -0.0004923196 0.025443897 0.012734794 0.007429992
000080 6a 30 1d 3d 4e 08 03 bd 40 fc 8c 3d 72 eb 39 3c
       0.03837625 -0.03199034 0.0688405 0.011347638
000090 9c df 4d 3c fa d9 1d 3c ae 6e 96 bc 72 85 34 3c
       0.01256552 0.009634489 -0.018363323 0.011018144
0000a0 cc 59 ab bc c2 12 ab 3d ca 55 7c 3c ba f2 4a bb
       -0.020916842 0.08353187 0.015401313 -0.003096743
0000b0 cb c4 ae bc dd ee 02 3c ae d9 10 3b 7c fe 0b 3c
       -0.021334073 0.00799152 0.0022102403 0.0085445605
0000c0 65 14 98 3c c8 a3 a4 bc d5 23 00 3d b6 a5 28 bc
       0.018564412 -0.020097628 0.031284172 -0.010293415
0000d0 f2 68 cb bc 1a 31 0a bc 12 1f 11 3d d6 1f a8 bb
       -0.024830315 -0.008434558 0.03543002 -0.0051307483
0000e0 59 34 e7 3b 05 f7 4a bb 26 71 aa bc 30 f1 5d 38
       0.007055801 -0.003096999 -0.020805907 5.291513e-05
0000f0 b4 77 50 3b 72 cf 1e 3d 97 02 d7 3c ac 6d 6e 3b
       0.003180963 0.038772054 0.026246352 0.0036381288
000100 9e e7 11 bc cd 88 e7 3d 02 69 cb bc 4a 53 ed 3d
       -0.0089053195 0.113053896 -0.024830345 0.11588152
000110 f7 6d ec 3d e7 52 37 3e 49 69 a9 3a 4c 17 e1 bc
       0.11544412 0.17902718 0.0012925054 -0.02747693
000120 ca c2 bb bb 7e ad 7c bb 84 4b 61 ba cf ca 82 bc
       -0.005730008 -0.0038555558 -0.00085943216 -0.015965847
000130 05 6f 91 3c bc d4 04 3d 37 64 b8 bb 20 13 23 bd
       0.017753134 0.03242944 -0.005627181 -0.03981316

indicator_time_mixing.0.time_mixing.ln.weight f4 [16, 5]
000000 78 7b 77 3f 8f 33 77 3f 3a 56 76 3f c9 96 7d 3f
       0.96672773 0.9656305 0.9622532 0.99058205
000010 31 52 7e 3f cc b4 7d 3f bd e2 78 3f a8 f7 70 3f
       0.99344164 0.99104 0.97220975 0.94127893
000020 77 93 7c 3f db c2 7d 3f 91 55 7b 3f d9 ed 79 3f
       0.98662513 0.9912545 0.9817744 0.9762855
000030 66 44 7b 3f 01 f2 77 3f c5 3a 81 3f fa b2 77 3f
       0.9815124 0.96853644 1.009606 0.9675747
000040 82 d2 75 3f 2a a1 7a 3f 4f 2c 79 3f 7b d4 78 3f
       0.96024334 0.97902167 0.97333235 0.9719922
000050 59 6f 76 3f 72 b8 70 3f c1 23 80 3f c0 a1 77 3f
       0.96263653 0.9403144 1.0010911 0.96731186
000060 6e 05 7a 3f a5 35 70 3f ea fb 72 3f 61 20 7e 3f
       0.97664535 0.93831855 0.9491564 0.99268156
000070 69 3d 7c 3f 11 6e 76 3f a5 ba 70 3f 18 d1 70 3f
       0.98531204 0.962617 0.94034797 0.9406905
000080 89 1f 80 3f fc 7b 77 3f 45 84 7a 3f 9b 94 71 3f
       1.0009624 0.9667356 0.9785808 0.9436738
000090 47 34 6e 3f 77 5e 7d 3f c9 75 77 3f 1d 6a 79 3f
       0.9304852 0.98972267 0.966641 0.9742754
0000a0 40 29 79 3f dd 37 76 3f 69 80 7e 3f df 55 7a 3f
       0.9732857 0.9617899 0.9941469 0.9778728
0000b0 61 19 7d 3f c3 78 74 3f 2c 06 72 3f d4 dd 80 3f
       0.9886685 0.9549677 0.9454067 1.0067697
0000c0 5b 94 77 3f 70 c3 7d 3f d1 cb 74 3f 24 5b 78 3f
       0.9671075 0.9912634 0.956235 0.9701407
0000d0 53 f4 73 3f 17 82 7e 3f 19 e2 79 3f d5 e5 76 3f
       0.95294684 0.9941725 0.9761062 0.96444446
0000e0 96 3b 77 3f 82 15 7a 3f fc 6e 7e 3f 61 cd 7d 3f
       0.96575296 0.9768907 0.993881 0.9914151
0000f0 7f 71 70 3f 54 c3 7d 3f 5d f3 80 3f 17 4c 80 3f
       0.9392318 0.9912617 1.0074269 1.0023221
000100 c4 a2 7d 3f a9 90 7e 3f 26 39 70 3f b3 6a 84 3f
       0.99076486 0.99439484 0.938372 1.0345062
000110 cb 03 76 3f ab 6d 83 3f b0 fc 76 3f 71 78 78 3f
       0.9609954 1.0267843 0.9647932 0.9705878
000120 20 22 7d 3f 33 ef 78 3f 9a ff 81 3f 3a 69 79 3f
       0.98880196 0.9723999 1.0156128 0.9742619
000130 41 3b 7d 3f 81 65 7e 3f cb 19 7c 3f c6 ca 80 3f
       0.9891854 0.9937363 0.98476857 1.0061882

indicator_time_mixing.0.time_mixing.ln.bias f4 [16, 5]
000000 b6 03 f3 3c a8 61 ed bc 48 0e e4 3c bf de cc bc
       0.029664855 -0.02897723 0.027838841 -0.025008557
000010 02 d2 76 3c ef e9 9f 3a d2 92 bb bc ec 66 85 3d
       0.015064718 0.0012200455 -0.022897158 0.065137714
000020 d3 8d b1 bc 02 06 76 3c 63 37 73 3c 80 90 f5 bc
       -0.021674072 0.015016081 0.014844748 -0.02997613
000030 71 11 c9 3c 2e 80 d9 bc a7 d9 6d 3c 2c 05 f1 3c
       0.02454445 -0.026550379 0.014517224 0.029421411
000040 59 af 02 bd ea 09 e9 3c 05 05 e9 bc fe 07 44 3c
       -0.031905506 0.02844711 -0.028444776 0.011964796
000050 02 e9 04 3d e1 81 27 bd c1 57 5a bb d3 75 12 bd
       0.032448776 -0.040895347 -0.0033316466 -0.035756897
000060 81 8e 7d 3c fa ff 73 3d c9 40 cf bc 09 c9 0d 3c
       0.01547587 0.05957029 -0.025299447 0.008653888
000070 74 ed bf bc d8 2c 20 37 28 79 67 3d 04 6f 23 bd
       -0.023428656 9.547184e-06 0.056512028 -0.039900795
000080 60 fa c4 3b 5e f3 0c bd 71 ef 3c 3c 18 e5 69 3d
       0.0060112923 -0.03441178 0.011531697 0.057103246
000090 8a fb 2a bd ae fd 3f 3c 79 ba 16 bd 0b c3 22 3c
       -0.041743793 0.011718197 -0.036798928 0.009934197
0000a0 23 14 cb 3c 05 50 da bc 26 fe d1 3b ec 94 bf bc
       0.024789875 -0.026649484 0.0064084707 -0.023386441
0000b0 be d9 29 3c a6 b0 2f 3d ec 20 2e bd 2b 6c fb bb
       0.010366855 0.042893074 -0.042511865 -0.0076728067
0000c0 8c 72 15 bd 65 a1 79 3c cc 4a 2b 3d 91 6d 4b bc
       -0.036486194 0.015236233 0.04181938 -0.012416259
0000d0 0d 79 3a 3d 9d e3 31 bc b0 89 d7 bb b5 bf 06 3d
       0.0455256 -0.01085749 -0.006577693 0.03289767
0000e0 cf 61 c3 bc dd b4 0c 3d 86 45 ad bc dd 3c ae ba
       -0.02385035 0.034352172 -0.021151315 -0.0013293285
0000f0 cd e7 5d 3d a1 62 74 bb 66 ad 45 3a 8d f1 c6 b9
       0.05417614 -0.0037290233 0.0007540792 -0.00037945472
000100 81 21 5b bc f5 77 b8 3b 8e 7d 71 bd 7f 7f 5b bd
       -0.013374687 0.0056295344 -0.05895763 -0.053588387
000110 63 a3 5a bd de d1 2e 3d 67 6d 0a 3d 74 d5 10 bd
       -0.053378474 0.042680614 0.03379574 -0.035359815
000120 62 12 0a 3c 8f 59 05 bd 8b 98 78 3c bb e8 a1 3c
       0.008427234 -0.032556113 0.015173088 0.019764295
000130 8c 04 6d bc ef 35 98 3a 89 52 7a bc 91 ad ad 3b
       -0.014466416 0.0011612753 -0.015278467 0.0053002317

indicator_time_mixing.0.time_mixing.U1.1 f4 [1, 2]
000000 08 f9 b6 bb b0 db bd bb
       -0.005583886 -0.005794011

indicator_time_mixing.0.time_mixing.U1.2 f4 [1, 3]
000000 ec 85 b1 3b e7 28 22 3a 0d 36 cd bc
       0.005417576 0.00061859045 -0.025050187

indicator_time_mixing.0.time_mixing.U1.3 f4 [1, 4]
000000 5e d9 ee 3b 0d 28 73 bc 4e 0f 41 3c 39 02 d9 3b
       0.007289096 -0.014841092 0.011783434 0.0066225794

indicator_time_mixing.0.time_mixing.U1.4 f4 [1, 5]
000000 62 00 fa 3b e2 8e 47 3b 1d 8a 7f bb fd 59 76 ba
       0.00762944 0.0030450155 -0.0038992234 -0.00093975646
000010 cf 9e be 3b
       0.0058172713

indicator_time_mixing.0.time_mixing.U1.5 f4 [1, 6]
000000 53 71 46 3b 52 f2 59 bc 38 d1 48 3c 17 c7 33 3c
       0.003027995 -0.013302403 0.012256913 0.01097276
000010 e0 d3 d7 bb 5c 12 8b bb
       -0.0065865368 -0.004244132

indicator_time_mixing.0.time_mixing.U1.6 f4 [1, 7]
000000 c6 a4 5c bc 3c f9 b9 bb b1 79 66 ba 61 2c c4 3b
       -0.013467019 -0.005675463 -0.0008791937 0.0059867357
000010 28 74 07 3c a2 11 c3 3b 08 cd 33 bc
       0.00826744 0.0059530297 -0.010974176

indicator_time_mixing.0.time_mixing.U1.7 f4 [1, 8]
000000 00 6f a8 3a 93 2f c1 3a de d8 b9 bb f7 f5 12 3c
       0.0012850463 0.001473891 -0.0056716045 0.008969775
000010 8a f3 6c 3c 32 15 19 3a 08 89 01 3c 41 c7 14 3c
       0.014462361 0.0005839645 0.007906206 0.009080709

indicator_time_mixing.0.time_mixing.U1.8 f4 [1, 9]
000000 41 c1 e7 bb 63 df f9 ba 5d ae 4b 3c db bf e8 ba
       -0.007072598 -0.0019063767 0.012431708 -0.0017757373
000010 70 6f 48 3c fe c0 2f bb 22 e5 7f ba d3 fb 9c 3b
       0.0122336 -0.0026817913 -0.00097616215 0.004790762
000020 75 33 fb b9
       -0.0004791279

indicator_time_mixing.0.time_mixing.U1.9 f4 [1, 10]
000000 dd 24 f8 3b d5 05 14 bc be a0 08 bc c5 64 b9 3a
       0.007572754 -0.009034594 -0.008339105 0.0014144412
000010 ce 1b 1b 3b 19 97 b4 bb f5 9a 8a 3b 66 2e 16 bb
       0.0023667696 -0.0055111763 0.004229898 -0.002291584
000020 23 97 3e 3b c3 c0 d7 b9
       0.0029081784 -0.00041151614

indicator_time_mixing.0.time_mixing.U1.10 f4 [1, 11]
000000 83 98 52 3b 4b 6f 9a ba d0 a9 eb 39 72 c6 df b9
       0.003213436 -0.0011782435 0.00044949213 -0.00042681728
000010 a8 90 4d 3b ab c0 21 bb bb 77 04 bb eb fa 4b 3c
       0.003136674 -0.002468149 -0.0020212966 0.01244996
000020 b8 4e 8d bb 62 ba 84 bb 56 af 97 3b
       -0.0043123625 -0.004050539 0.004629056

indicator_time_mixing.0.time_mixing.U1.11 f4 [1, 12]
000000 bc 72 cf bb 37 75 87 3c 7c 9a ee 3b 58 23 5d bb
       -0.006330816 0.016535385 0.0072815996 -0.003374299
000010 52 74 a1 3b dd 7d 0b 3c 40 c6 8c 3b 8e 7d 0e bb
       0.0049271965 0.008513895 0.004296094 -0.0021742317
000020 d6 d3 b6 bb f6 e4 be 3b 25 f9 3c bc 91 ab 64 3b
       -0.005579452 0.005825634 -0.01153401 0.00348923

indicator_time_mixing.0.time_mixing.U1.12 f4 [1, 13]
000000 78 50 d1 bb ed c1 28 bc b5 dc 57 3a 7c 0d 97 bb
       -0.0063877665 -0.010300142 0.0008234487 -0.0046097618
000010 d3 5f b3 3b b4 34 c9 3c d2 d5 35 3b 23 a9 75 3c
       0.0054740696 0.024561264 0.0027745855 0.014993939
000020 38 ed ac bc 46 2d a1 3b 2b 7b 1e 3c 05 57 86 3b
       -0.021109208 0.004918727 0.00967292 0.004099729
000030 c6 c0 07 bb
       -0.0020714267

indicator_time_mixing.0.time_mixing.U1.13 f4 [1, 14]
000000 b1 19 f3 3c 64 b0 de 3b 2f 9c 24 bb bf 83 0b 3b
       0.029675337 0.0067959297 -0.0025117507 0.0021288244
000010 48 2a 6b 3c ad af 9e bb a0 d9 d9 3b ca b9 8c 3b
       0.014353342 -0.0048427195 0.0066482574 0.0042946087
000020 ea 4d ad 3b f7 76 fa 3a fd 70 89 bc 89 f8 8a bb
       0.005288829 0.0019108941 -0.01677751 -0.0042410535
000030 93 e6 8d bc 24 7a d3 3b
       -0.01732186 0.0064537693

indicator_time_mixing.0.time_mixing.U1.14 f4 [1, 15]
000000 45 5f bf 3a 2b bf 8d 3c c4 64 89 bc fb ea bc bb
       0.0014600536 0.01730307 -0.016771682 -0.0057653165
000010 21 16 3b bc cc 1d 48 bc 81 25 e3 39 4f d0 42 3c
       -0.01141885 -0.012214135 0.00043324757 0.011890485
000020 fa c4 d3 3b a3 e1 6f 3b e6 5e 80 bb 02 f6 7b 3a
       0.0064626904 0.0036602996 -0.003917563 0.0009611548
000030 c7 0f 8f bc c8 8e d4 3b c9 be e6 bb
       -0.017463578 0.0064867474 -0.0070417863

indicator_time_mixing.0.time_mixing.U1.15 f4 [1, 16]
000000 e8 5f b9 bb b7 51 09 3b 46 e8 3b 3c 70 3b 8d 3c
       -0.005657185 0.0020953247 0.0114689525 0.017240256
000010 f3 ce 89 3b 26 1b 43 3b 76 30 97 bb 32 7a bc 3b
       0.0042055785 0.002977082 -0.0046139313 0.0057518715
000020 73 52 5a 3b 29 99 67 ba 71 66 49 bc 3d 0c 3a bc
       0.0033313304 -0.00088347733 -0.01229249 -0.011355457
000030 55 4d 79 bc b9 da 29 3c 0d f9 0f 3c 1f 1c 0f 3c
       -0.015216191 0.010367089 0.008787406 0.008734732

indicator_time_mixing.0.time_mixing.U2.1 f4 [1, 2]
000000 7e 6f e4 3b 1d 0c 3c 3d
       0.0069712987 0.04590999

indicator_time_mixing.0.time_mixing.U2.2 f4 [1, 3]
000000 5a c7 52 bd da 7c 7f bd a0 84 43 3e
       -0.051459648 -0.062374927 0.19093561

indicator_time_mixing.0.time_mixing.U2.3 f4 [1, 4]
000000 0f 46 c8 3b 4a 02 21 3d 6f cc 0c bb 6a 7d 39 3d
       0.0061118673 0.039308824 -0.0021484157 0.04528562

indicator_time_mixing.0.time_mixing.U2.4 f4 [1, 5]
000000 4b 4f d4 3c e2 ce 87 3d 30 8b 48 3d e4 44 80 3d
       0.025916716 0.06631257 0.048960865 0.0626314
000010 c2 7c 6e 3d
       0.058224447

indicator_time_mixing.0.time_mixing.U2.5 f4 [1, 6]
000000 4e 71 4d bd 8a b7 0a bd c6 f3 c8 3d 51 f9 d3 3b
       -0.050156884 -0.033866443 0.09812121 0.00646893
000010 4c 01 3b bc 4d 6a 0c 3c
       -0.011413883 0.008570266

indicator_time_mixing.0.time_mixing.U2.6 f4 [1, 7]
000000 2a de 4b bc cb 20 16 3c 9b ea ac 3d 1e 6e b7 3c
       -0.012443105 0.009163092 0.08443185 0.022391375
000010 ad 02 1f 3d ca 8b 47 3d 01 a7 4e 3c
       0.03882091 0.048717298 0.012613059

indicator_time_mixing.0.time_mixing.U2.7 f4 [1, 8]
000000 7d 8f 7f 3a da 20 02 3d 6d ea 04 3d 54 47 f1 3b
       0.00097488594 0.03176961 0.03245013 0.0073632393
000010 df 12 23 3c 11 74 d0 3c a6 e3 d2 3c a3 e5 15 3a
       0.00995323 0.02544597 0.025743317 0.00057181175

indicator_time_mixing.0.time_mixing.U2.8 f4 [1, 9]
000000 8b fb e0 bb 92 20 42 3d 82 ab fc 3c fb 19 ca 3c
       -0.0068659238 0.047394343 0.0308435 0.024670592
000010 63 d7 32 3d 98 04 c0 3c d7 4a 13 3d 5b 80 46 3d
       0.04366244 0.02343969 0.035960045 0.048462253
000020 93 22 2a 3c
       0.01038422

indicator_time_mixing.0.time_mixing.U2.9 f4 [1, 10]
000000 db cb 2a 3c 52 dc 90 3c 63 37 2d 3c 51 cc 75 3a
       0.0104245795 0.017683182 0.010572287 0.0009376454
000010 84 46 d8 38 5c 26 c9 bb c7 c1 d8 3c 42 a7 a2 3b
       0.00010312817 -0.006138606 0.026459588 0.0049637863
000020 23 f6 90 3c 66 be e5 3a
       0.017695492 0.0017528057

indicator_time_mixing.0.time_mixing.U2.10 f4 [1, 11]
000000 1b 41 14 bd f9 0e bc bb 71 41 34 3d e0 43 93 3c
       -0.036194902 -0.0057390896 0.044007722 0.017976701
000010 d2 08 db 3b 2e 81 b2 3c 64 d0 d8 3c 08 b6 0e 3d
       0.006684401 0.021790113 0.026466556 0.034841567
000020 89 3b b5 3b e8 d4 60 3c ea d2 36 bc
       0.005530779 0.013722636 -0.011158684

indicator_time_mixing.0.time_mixing.U2.11 f4 [1, 12]
000000 73 78 63 3b 38 ab be 3c 17 53 15 3d 38 9f ca 3a
       0.0034709245 0.023275003 0.036456194 0.0015458828
000010 ec fe db 3c 81 9c b9 3c 11 1e 07 3d 96 d0 91 3c
       0.026854955 0.022657635 0.032987658 0.017799657
000020 92 b6 b5 39 b0 94 0b 3c 4b fa 25 3c 8f 9b 3c 3b
       0.00034659036 0.008519337 0.010130475 0.0028779244

indicator_time_mixing.0.time_mixing.U2.12 f4 [1, 13]
000000 d8 ee 67 bb 1d d4 26 3d d1 c8 18 3d 3a be 66 3d
       -0.0035390165 0.04072963 0.03730089 0.056333758
000010 14 05 02 3d a3 d0 13 3d 9a d6 25 3d 4b d8 2e 3d
       0.031743124 0.036087643 0.040487863 0.04268674
000020 ab af e9 3c d0 88 a6 bb fe aa 42 3c 3d 2e ec 3b
       0.028526148 -0.0050822273 0.011881588 0.0072076605
000030 20 95 06 3d
       0.03285706

indicator_time_mixing.0.time_mixing.U2.13 f4 [1, 14]
000000 71 01 1a bd 2a 50 96 bc fe f3 3c 3d a7 87 f8 bc
       -0.03759903 -0.018348772 0.046131127 -0.030338122
000010 09 f8 6b bc bd 30 c1 3c 6f 39 8a 3d dc f7 7b ba
       -0.014402398 0.02358281 0.06749236 -0.0009611824
000020 88 bc 16 bc 64 5a 63 3c 58 5d d2 bb 25 12 3a bc
       -0.009200223 0.013876531 -0.006419819 -0.011356865
000030 67 af 92 bb 65 4d 9f 3d
       -0.004476476 0.07778434

indicator_time_mixing.0.time_mixing.U2.14 f4 [1, 15]
000000 0b 2d c7 bb 55 00 d6 bb 37 2c 66 3d 8f 93 27 bb
       -0.0060783676 -0.0065308013 0.05619451 -0.002557013
000010 16 06 8f 3b af 76 98 ba 28 e8 1b 3d 4e 37 37 3c
       0.004364739 -0.001163205 0.0380632 0.011182619
000020 d2 e8 b4 3b 7a 6c 11 3c 1e 45 a5 bc 04 64 ee bc
       0.0055209184 0.0088759605 -0.02017456 -0.029100426
000030 55 86 43 3b e8 f2 7e 3d ad db 01 bc
       0.0029834707 0.062243372 -0.00792591

indicator_time_mixing.0.time_mixing.U2.15 f4 [1, 16]
000000 fc dc 4d bc 38 9a b3 38 02 3c 5c 3c 29 69 71 3a
       -0.012564894 8.5641106e-05 0.013442041 0.00092090905
000010 72 3e 51 3c e2 ad 63 3c cd c7 1a 3d ae 4e 27 3b
       0.012771236 0.013896437 0.0377882 0.0025529074
000020 32 e3 21 3b dd 42 5d ba d2 5e cd 3b a5 d1 9d 3b
       0.002470207 -0.00084404444 0.006267407 0.0048162513
000030 1d 7c ab 3a 91 26 28 3d 12 c4 2f 3b c8 a5 b5 39
       0.0013083253 0.041052405 0.0026819748 0.00034646527

indicator_time_mixing.0.fc.weight f4 [1, 5]
000000 3f 9f 4f be 69 fd 88 be 28 2a 2b bc cd f9 56 be
       -0.20275591 -0.26755837 -0.010447063 -0.20993729
000010 e4 08 77 3e
       0.24124485

indicator_time_mixing.1.indicator_mixing.W1 f4 [5, 64]
000000 63 c0 87 3e 6a 38 25 bf 29 e9 ae 3e dd a6 a5 3f
       0.26513967 -0.64539206 0.34162262 1.2941548
000010 c6 0b 12 c0 4c 92 12 3e 92 bd 89 3e dc c7 b6 bf
       -2.2819686 0.1431362 0.26902443 -1.4279742
000020 25 a6 12 3f 42 97 2c bf 50 d7 9f 3e cd 71 1f 3f
       0.57284766 -0.674183 0.31218958 0.6228302
000030 d0 38 d4 3c 71 c9 32 3f 99 30 57 bf 72 58 0a 40
       0.025905997 0.69838625 -0.8405853 2.1616483
000040 5d 6e 82 be 8e c0 5a be d0 57 a6 bf bc c8 67 bb
       -0.25474826 -0.21362516 -1.2995548 -0.003536745
000050 43 1b ce be a4 7d e7 bc 52 8f 93 bb d8 da 1e c0
       -0.40255174 -0.028258152 -0.004503169 -2.4821072
000060 9e b0 90 bf b3 94 35 bf 04 da 49 bf 8c 7c 26 c0
       -1.1303899 -0.7093002 -0.7884829 -2.6013517
000070 de c8 78 bf 70 78 2d bf 61 5e da bd 5e 3f 89 bf
       -0.971815 -0.677619 -0.106625326 -1.0722463
000080 69 d2 eb bf 9a 91 0e bf a8 6d de be 3c 80 3b 3f
       -1.8423587 -0.5569092 -0.43443036 0.73242545
000090 e3 88 e6 bc 7c ca 8e bf ab 7c aa bf 9f df 5c 3f
       -0.028141445 -1.1155543 -1.3319296 0.8627872
0000a0 fd bf b2 3f 37 c8 de bf 21 6c 86 bf dd ca e6 bd
       1.396484 -1.7404851 -1.0501748 -0.11269162
0000b0 44 f3 9d bf f5 6d d1 bf bd e4 9d bf 93 bb 63 3e
       -1.2339864 -1.6361681 -1.233543 0.22239523
0000c0 c6 13 86 3e ac 49 ce 3e 04 9a 18 3f 86 71 44 be
       0.2618696 0.40290582 0.5961001 -0.19183931
0000d0 61 62 96 be 24 30 b4 3f e8 7e 92 be 24 61 3f 3f
       -0.29371932 1.4077191 -0.28612447 0.747576
0000e0 2d 83 5d bf b3 c6 95 bf 4b a9 2d be eb 56 b3 3e
       -0.86528283 -1.1701263 -0.16959111 0.3502725
0000f0 94 7e eb bf 58 ff 5f 3f 59 32 6f 3e 24 37 ad 3f
       -1.8398004 0.87499 0.2335905 1.3532453
000100 51 d8 5d bc 53 15 6f 3f 4e 81 ac 3f a4 ff 91 3e
       -0.013540343 0.93391913 1.3476961 0.2851535
000110 63 24 37 3f b5 9a 25 bf 5c d2 22 bf 81 ee ed be
       0.71539897 -0.6468919 -0.6360223 -0.46471027
000120 25 bb 23 bf a1 27 a9 bf ab e9 2e bf 6d f0 2e 3f
       -0.63957435 -1.3215219 -0.683253 0.6833561
000130 09 dc 27 bf b5 60 47 3f 8b 6b 23 3f f2 45 8c 3e
       -0.6557012 0.7788194 0.6383597 0.27397114
000140 4d 55 04 3f 77 a1 d2 3e 57 f3 81 3f 57 00 bf 3a
       0.5169266 0.41138813 1.0152386 0.0014572245
000150 24 e7 c0 3f 15 48 a3 be dc 97 20 3f 8f 33 fc 3e
       1.5070539 -0.31890932 0.6273172 0.49258086
000160 c4 b7 66 bf 51 1f 3e bf 4d b6 4f 3f 6c 03 00 3f
       -0.90124154 -0.74266535 0.81137544 0.5000522
000170 a7 2a 0f bf 72 66 cf be e8 c7 24 bf 8a 7e 0f 3f
       -0.5592446 -0.40507847 -0.6436753 0.5605246
000180 e3 0a f0 be 54 76 2e 3f 88 ae 80 3f b3 6c 90 bf
       -0.46883306 0.68149304 1.0053263 -1.1283172
000190 a2 0e 02 40 25 c6 92 3f f8 9e 70 3d ec c1 a5 bf
       2.032143 1.1466719 0.058745354 -1.2949805
0001a0 b0 d3 d3 3f 76 e6 e2 3f dd 5c 57 3d c7 85 af 3e
       1.6548977 1.7726581 0.052578796 0.34281752
0001b0 3b 18 41 bf 4b ba 22 bf 0a 90 ae 3f 6e 37 55 be
       -0.754276 -0.6356551 1.3637707 -0.20821926
0001c0 52 5a f8 3e b7 1f 19 3f a3 c1 de bf a7 3c e3 bf
       0.4850641 0.5981402 -1.7402843 -1.7752885
0001d0 c1 fa 0a bf b5 b8 b8 be 50 82 78 3e ac 6d ea 3d
       -0.5428887 -0.3607842 0.2426846 0.114466995
0001e0 26 33 6f bf fc 65 83 3f 75 68 0a be af dd 23 3d
       -0.9343742 1.0265498 -0.1351641 0.040006336
0001f0 cc 2d 98 be 0e cf d0 3e ea 63 c0 be 4c 60 a2 3d
       -0.2972244 0.4078297 -0.37576228 0.079285234
000200 44 4f 02 c0 7b 4f 97 3f 22 ff 91 3f 19 3c 5b bf
       -2.036088 1.182113 1.1405985 -0.85638577
000210 53 6f ea 3f c4 12 ce bc 7d 26 e9 bf 63 0e 91 bf
       1.8315223 -0.025155433 -1.8214871 -1.1332515
000220 95 d9 58 3d 4a c1 2e bf a7 ec 2d 3e 5f 41 eb be
       0.052941877 -0.68263686 0.16984807 -0.45948312
000230 f7 6b 10 bf 19 81 a3 3f f7 34 8a 3f 28 78 41 3e
       -0.5641474 1.2773772 1.0797414 0.18893492
000240 ea 1f 7d bf 82 c5 ac 3f 37 a7 b5 bf ae df b6 3d
       -0.9887682 1.3497775 -1.4191655 0.08929382
000250 de 93 67 bf 36 c3 c7 bf 11 b6 56 bf 7d a5 34 3e
       -0.9046 -1.5606449 -0.8387156 0.17641254
000260 57 22 98 3f 3e e5 24 3f ca 24 96 be ed fb bf bf
       1.188548 0.64412296 -0.29324943 -1.4998757
000270 da 27 c9 3d c0 a8 93 bd 2a 83 7d bc 55 28 f7 bf
       0.09822054 -0.07209921 -0.0154731665 -1.9309183
000280 d7 3c 8a 3f a1 9d a8 3e d5 43 09 bf 95 54 1d 3f
       1.0799817 0.3293276 -0.5361913 0.61457187
000290 fb 3d 2a bf 73 2e 27 c0 76 86 53 3f 4e c3 85 3f
       -0.66500825 -2.61221 0.82627046 1.0450227
0002a0 4b a1 1a 3f 09 18 dc 3d c4 e6 33 3e 28 76 92 3f
       0.60402364 0.10746772 0.17568499 1.1442308
0002b0 df ad 58 3f 80 b3 89 bf 58 b4 bc 3e 68 01 ec bf
       0.84640306 -1.0757904 0.3685634 -1.8437929
0002c0 35 a8 16 3f 26 88 bb bf 97 67 81 3e be d7 00 3f
       0.58850414 -1.4650924 0.25274345 0.50329196
0002d0 78 81 a6 3c f8 f7 a1 bf 4d 11 4a bf ab b6 fe bf
       0.020325407 -1.2653799 -0.7893265 -1.9899496
0002e0 82 a1 9c 3e 40 a6 b9 3f 53 bc b8 3f 30 2d 6f 3f
       0.3059197 1.450386 1.4432472 0.93428326
0002f0 74 11 af 3e 27 5e 93 3e 53 9a 0d be 54 99 b1 bf
       0.34193003 0.2878277 -0.13828401 -1.3874917
000300 5f 4f f8 bf a1 17 3b bf 52 d0 13 bf 4d 64 64 3f
       -1.9399222 -0.7308293 -0.57739747 0.89215547
000310 5b 0d bd be 9a 46 3f 3f 78 ae da 3e ed 06 b3 bf
       -0.36924252 0.74717104 0.42711234 -1.3986489
000320 17 b9 43 bf 57 5c c6 be 53 c9 ab be 4f 4a 5a bf
       -0.764543 -0.38742325 -0.33552036 -0.85269636
000330 c9 f2 1e 40 6c fb 48 bf 16 42 38 bd 6f 7d cf 3f
       2.4835684 -0.7850864 -0.0449849 1.6210154
000340 47 dd dc 3f b9 35 da 3f 36 be e8 3f 95 a1 72 bf
       1.7255028 1.7047645 1.8183048 -0.94777805
000350 56 e9 34 bf 97 6b d5 3e 00 aa 87 3e bf da 91 bf
       -0.7066854 0.41683647 0.26496887 -1.1394881
000360 b7 53 50 be 92 d0 34 be 7d 6d e9 bf 12 ee 67 be
       -0.20344435 -0.17657688 -1.8236538 -0.2264941
000370 ae 6f 5b bd a8 21 59 bf 0b 74 ef be 54 1b 08 3f
       -0.053573303 -0.8481698 -0.4676822 0.531667
000380 af a3 43 bf 3c bc 0e bc 8c 51 37 bf 5a 6f 0b 3f
       -0.76421636 -0.008711871 -0.71608806 0.54466784
000390 ed 6b 2c 3f 18 9a 07 be c1 75 05 40 8f 45 01 be
       0.6735218 -0.13242376 2.0853121 -0.12624191
0003a0 90 80 0a 3f 05 44 c9 3f 64 30 7e 3f ad f2 21 be
       0.5410242 1.5723883 0.9929259 -0.1581523
0003b0 2d 0a 84 3e 5e a1 06 c0 6c 74 2d 3f 2f b0 3c 3f
       0.25789014 -2.103599 0.6775577 0.73706335
0003c0 c6 96 81 3f 81 72 7c bd 28 41 60 3f e2 9e e7 3e
       1.0124137 -0.061632637 0.8759942 0.45238405
0003d0 5a ad 46 be c5 83 fe 3e 6f ff 05 3f 3a 01 59 3f
       -0.19402066 0.49709907 0.52342886 0.84767497
0003e0 ef db 39 be 1d 2c 93 3f ee 40 04 3f 01 06 2a bf
       -0.18150304 1.1497837 0.51661575 -0.6641541
0003f0 4d 00 40 bf f4 97 29 bf d7 2a 9e 3d 5b cf 27 3d
       -0.7500046 -0.6624749 0.07723015 0.040969234

indicator_time_mixing.1.indicator_mixing.W2 f4 [64, 5]
000000 3c 30 05 bf 3d 97 aa 3f e3 0a 2e bf b1 60 91 bf
       -0.52026725 1.3327404 -0.6798536 -1.1357633
000010 6d 3b 4a bf 9f 75 e2 3c 15 66 8b bf e0 05 46 3d
       -0.78996927 0.027643977 -1.0890528 0.048345447
000020 9e 25 73 3e 9f af 87 3f 79 e4 41 3f 7f 8a f9 bf
       0.23744819 1.060047 0.75739247 -1.9495391
000030 b7 c4 bc bf b7 dc b4 bd 4c 3e 72 3e 60 e7 2d bf
       -1.4747533 -0.088311605 0.23656577 -0.67931175
000040 a7 46 b5 bf 34 ca 87 3f 3c de 29 bf 53 6d 32 bf
       -1.4162186 1.0608582 -0.6635473 -0.69698066
000050 84 84 42 bf 08 d8 51 3f 67 c2 e9 3e 63 42 03 bf
       -0.7598345 0.8197026 0.4565613 -0.51273173
000060 75 47 5c 3f 5e ad 36 3f bf f0 46 be 24 9a cc 3c
       0.86046535 0.7135829 -0.19427775 0.024975844
000070 6e df 4d 3f 73 5f ab be c5 ee 2f bf bf 7d 3f bf
       0.8041905 -0.3347126 -0.6872371 -0.7480125
000080 c4 ad 3b bf 47 68 ce be 66 51 29 bf b3 28 d4 bf
       -0.7331202 -0.40313932 -0.6613983 -1.657492
000090 3f 5d 20 40 1a 05 80 bf d8 d0 55 bf be 50 a1 3f
       2.5056913 -1.0001557 -0.83521795 1.2602766
0000a0 66 e2 76 3e a1 ba 8b 3f f3 27 d2 bc 7a cd 5c bf
       0.24109802 1.091633 -0.025653815 -0.8625103
0000b0 f7 b9 e8 3e fa 85 05 3f cd 58 c7 3f b4 75 fd bf
       0.4545438 0.52157557 1.5573975 -1.9801545
0000c0 59 df 37 bf fe b9 c3 bf 95 6f fd bf 41 73 59 bf
       -0.71825176 -1.5291135 -1.9799677 -0.8494149
0000d0 c9 ae 0d 3f e5 ee 4c be ad b5 a9 be 39 8e ad be
       0.55344826 -0.20013006 -0.3314642 -0.3389757
0000e0 1b 07 53 be fc 59 b5 bf f1 95 b3 3f 37 a7 1e bf
       -0.2060818 -1.4168086 1.4030133 -0.619739
0000f0 ef fd 8e bf ff f9 9d bf 4a d8 26 bf ce 3f ac be
       -1.1171244 -1.2341918 -0.6517378 -0.3364243
000100 1a e9 69 3e d2 d2 06 3e b0 e0 b3 be b5 00 c1 bf
       0.22842827 0.13166359 -0.3513236 -1.5078341
000110 b4 7d 9f 3d 21 5c cc be 55 89 b5 bf ec a6 a6 3f
       0.07787648 -0.3991404 -1.4182535 1.301969
000120 38 4d a3 3d 25 93 20 bf 4b da b3 3e 68 85 65 bf
       0.07973713 -0.62724525 0.35127482 -0.89656687
000130 4d c9 dd 3c 57 63 05 3f 1c e1 67 bf 9d 92 be bf
       0.027073527 0.52104706 -0.90577865 -1.4888493
000140 c7 f5 d8 bf 19 43 40 be 9f 2b 12 3f 92 95 28 bf
       -1.6950005 -0.18775596 0.5709781 -0.65853226
000150 ae ad a6 3f 3f cb 01 3f 0c 21 f9 bc c9 8d 3d 3f
       1.3021753 0.50700754 -0.030411266 0.7404447
000160 1e 20 76 be 3d 9d 47 3f aa 42 98 be 97 74 3e 3f
       -0.24035689 0.779743 -0.2973836 0.7439665
000170 30 68 92 3e c2 5a e1 3f 9d 4f 22 be bb b3 5e 3f
       0.28595114 1.7605822 -0.15850683 0.86992997
000180 3f e8 b6 bf fa 21 11 40 79 60 85 bf 16 1d 59 3f
       -1.4289626 2.2676988 -1.0420066 0.84810007
000190 72 97 22 c0 2c 35 e7 3f 0e cd b5 3e 61 d0 a8 3f
       -2.5404935 1.8063102 0.35508007 1.3188592
0001a0 2a 33 c1 be 36 30 f5 3f ee 35 cd be 29 e6 83 bd
       -0.37734348 1.9155338 -0.40080208 -0.06440384
0001b0 31 d9 c6 be 5f 9c 21 3f 7f 0e f5 bf 58 7a b3 be
       -0.3883758 0.6312923 -1.9145049 -0.35054278
0001c0 06 fb 09 40 87 21 26 3f c3 76 a2 bf 30 f1 a4 bf
       2.1559463 0.6489491 -1.2692493 -1.2886105
0001d0 32 49 6c 3e 4e 18 4e 3f 3f 5a a7 3f ef ff 26 3e
       0.23074797 0.80505836 1.3074416 0.16308568
0001e0 78 b9 c0 be a1 14 86 3f f8 c4 16 3f 3d 8f e1 bc
       -0.376415 1.0475045 0.588943 -0.027534122
0001f0 e5 ed 4a 3f c1 86 2e bf f0 bf e2 bf a4 39 9f 3f
       0.7926925 -0.6817437 -1.7714825 1.2439466
000200 67 5d c3 3f 43 73 10 c0 6f 99 d3 bd 64 89 28 3f
       1.5262879 -2.257035 -0.103319995 0.6583464
000210 5c 8d 45 c0 ae ad 42 3f f5 76 94 bf 81 7f 01 bf
       -3.086753 0.76046264 -1.1598803 -0.5058518
000220 07 32 f1 bf be 71 9b bf 56 4b 01 bf 39 90 77 bf
       -1.8843392 -1.2144086 -0.5050558 -0.9670444
000230 2b 30 e1 3f d1 0a 24 bd 48 92 19 be c5 a7 56 3e
       1.7592825 -0.040049378 -0.14997208 0.20962436
000240 86 23 6f be 62 5d 8a 3f 8a 03 44 bf 6d bb 49 bf
       -0.23353395 1.0809748 -0.765679 -0.78801614
000250 e2 4a f0 3f d5 22 94 bf 23 a1 a2 bf 75 1d 8e 3f
       1.8772852 -1.157313 -1.2705425 1.110274
000260 15 fd b4 bf eb 20 b5 3f b3 d0 b0 be 7b 51 21 be
       -1.4139735 1.4150671 -0.34534225 -0.15753739
000270 e4 05 ba 3d f5 13 4d bf 2d 5d 36 3e 20 3e 9a bf
       0.09083155 -0.80108577 0.17808981 -1.2050209
000280 a4 6e ca 3d dc 4c 1d c0 76 d9 4b be 86 0d b4 bf
       0.09884384 -2.4578161 -0.19907174 -1.4066627
000290 50 32 fb 3e 65 19 45 3e 4b 23 33 3f f1 65 17 bf
       0.49061823 0.19247968 0.6997573 -0.59139925
0002a0 90 07 81 3e fe 77 86 bf b6 d1 27 bf 48 08 97 bf
       0.25201082 -1.0505369 -0.6555437 -1.1799402
0002b0 c1 c8 03 40 e0 35 70 bf c8 14 b5 be a3 72 4d 3f
       2.059128 -0.93832207 -0.35367417 0.80253047
0002c0 bb 2a db 3f 06 cf 7a bf a1 2e d7 bf ec dd c8 be
       1.7122415 -0.9797214 -1.6811105 -0.39231813
0002d0 87 71 23 3d 17 91 9a bf 86 59 5b be ec 29 a7 3f
       0.03990319 -1.2075528 -0.21420869 1.3059669
0002e0 f7 c6 d2 be 2b 76 20 3f 62 0c d2 bc 94 85 8c be
       -0.41167423 0.6268031 -0.02564067 -0.27445662
0002f0 55 60 bf 3e 77 3b 48 3e cb 13 89 be b5 46 5d bf
       0.37378183 0.19553934 -0.26772913 -0.86436015
000300 52 c8 19 be 23 2f 83 bf 6e d1 85 be 57 d2 8c bf
       -0.15017822 -1.024876 -0.26136345 -1.1001691
000310 73 0f 13 bf 1d 17 44 3f ac 13 de 3f 04 bb 0f bf
       -0.5744545 0.7659777 1.7349753 -0.5614474
000320 99 09 ed 3e c8 8e d1 3e 2f 80 d9 3e 0e 76 34 3d
       0.46296385 0.40929246 0.4248061 0.0440579
000330 0b 43 96 bf b9 a0 27 be 48 b9 e4 3e a1 a5 e9 bf
       -1.173921 -0.16369905 0.44672608 -1.8253671
000340 9b eb b7 3d 8d 7a e9 bd 7d 07 fc bf 8c a4 d3 3e
       0.08980485 -0.11400328 -1.9689785 0.41336477
000350 92 44 37 3f 7a 40 9e 3e 21 c8 5e 3f 7b 68 88 be
       0.71589005 0.30908567 0.8702412 -0.26642212
000360 bd 06 2d 3f 67 6b d2 3e fd 6f f1 3e 9c 3f 60 3f
       0.67588407 0.41097566 0.47155753 0.8759706
000370 19 e7 b8 3d e9 d4 b2 bf 43 47 d6 3e 0f d8 da 3d
       0.090284534 -1.3971225 0.41851243 0.10685741
000380 a6 5f 06 c0 cb 39 27 bf 11 9e 80 bc 8c 3d 11 be
       -2.099588 -0.6532256 -0.015700372 -0.14183635
000390 92 83 cc 3f 01 d6 f9 be 5f 7a 21 3f b9 ae b8 bf
       1.5977652 -0.48796085 0.6307735 -1.4428321
0003a0 ce 71 62 bf 6e b2 ee be 05 47 1c bf 5b 00 a9 bf
       -0.884549 -0.46620506 -0.6104587 -1.3203233
0003b0 3e d8 de 3f b2 7d 8e 3f 1d cc 5a bf 00 00 4d bf
       1.7409742 1.1132109 -0.854677 -0.80078125
0003c0 39 06 97 bf 2a b1 83 be 5c 80 c5 bf 9a 19 a9 3f
       -1.1798774 -0.25721103 -1.5429797 1.3210938
0003d0 cb bc 23 bf ad d2 a5 3e 37 2d 1c bf 4c 7e 46 bf
       -0.6395995 0.32387295 -0.6100649 -0.77536464
0003e0 95 4d 4e 3f 88 37 2e 40 63 38 81 bf a0 09 52 3f
       0.8058713 2.7221394 -1.0095333 0.82045937
0003f0 76 f9 2a 40 2a 7f 97 be cd ee 9e 3f c8 cb 92 3f
       2.671476 -0.29589206 1.2416626 1.1468439

indicator_time_mixing.1.indicator_mixing.ln.weight f4 [8, 5]
000000 b8 17 66 3f 25 a8 96 3f f0 d3 84 3f 9e c0 71 3f
       0.8987994 1.1770064 1.0377178 0.94434536
000010 18 61 83 3f 6e 6a 72 3f 3e de 6c 3f 43 dc 7d 3f
       1.0264006 0.9469365 0.92526615 0.9916422
000020 c6 09 61 3f 1e b8 77 3f d3 9b 7d 3f b9 50 54 3f
       0.8790554 0.96765316 0.99065894 0.82935673
000030 6c 00 88 3f 39 f9 80 3f 71 44 8c 3f ac b0 84 3f
       1.0625129 1.0076057 1.0958387 1.0366416
000040 99 0f 83 3f db ef 77 3f 86 28 87 3f db bd 7a 3f
       1.0239135 0.96850365 1.0559242 0.97945946
000050 04 b7 71 3f af f3 83 3f 58 dc 85 3f 49 7b 82 3f
       0.94419885 1.0308741 1.0457869 1.0193874
000060 6b a2 6f 3f d4 e4 64 3f 6c f9 4c 3f d7 eb 7c 3f
       0.93607205 0.89411664 0.8006809 0.98797363
000070 be b5 6a 3f b5 24 7d 3f 00 77 88 3f 84 f7 d9 3f
       0.91683567 0.98884135 1.0661316 1.7028661
000080 43 c6 72 3f 44 f0 93 3f be c8 79 3f 7f 3f 65 3f
       0.94833773 1.1557698 0.97571933 0.8955001
000090 70 af 5e 3f 16 c7 7a 3f 6e fb 71 3f c5 45 85 3f
       0.86986446 0.9796003 0.94524276 1.0411917

indicator_time_mixing.1.indicator_mixing.ln.bias f4 [8, 5]
000000 49 2b f0 3d 96 3e 86 bc 01 8b 6c 3d f8 1d 81 3d
       0.11727006 -0.016387265 0.057749752 0.06304544
000010 a7 fd 0d 3e b9 57 0b 3d af 25 1d 3d 8d 93 36 bc
       0.13866292 0.034019206 0.038366016 -0.011143577
000020 0b b1 49 bc 9f a6 af 3c d1 81 fc 3c f3 d3 0f 3e
       -0.012310277 0.021441756 0.03082362 0.14045696
000030 3d f5 5d 3d c7 0e 89 3d 19 d8 f1 bd 38 a4 4d bd
       0.054188956 0.06692272 -0.118087955 -0.05020544
000040 6e ad 24 bd 42 de 3e bc 9f b5 1d bb c5 25 dc 3c
       -0.040204458 -0.01164967 -0.0024064553 0.026873479
000050 de 88 09 3d 23 9f c3 3b 61 f0 22 3d 29 a5 19 3c
       0.033577792 0.0059698983 0.039780024 0.009377756
000060 6c 84 78 3d e1 90 e5 3d 7b 4d 04 3e 4f 8e ac bc
       0.060673162 0.11209274 0.12920181 -0.021063952
000070 3d 81 ed 3b 01 b8 d7 bc 9a 5b 5f bd 14 c3 59 be
       0.0072480724 -0.026332857 -0.054530717 -0.21265823
000080 00 55 5f bd 2f 1d e9 bd 26 45 87 3e 2f bf b8 3d
       -0.05452442 -0.113825195 0.26419944 0.090208404
000090 6c 15 5e 3d 4b 00 a8 bc 66 60 ee 3c 78 0c a4 bd
       0.05421965 -0.020507952 0.0290987 -0.08010191

indicator_time_mixing.1.time_mixing.ln.weight f4 [8, 5]
000000 b3 4a 95 3f 16 a6 5f 3f 59 50 8b 3f 35 98 62 3f
       1.1663421 0.873628 1.0883895 0.885135
000010 e4 ce 31 3f 1a 7d 9d 3f 2a e9 6f 3f 11 17 81 3f
       0.69456315 1.2303803 0.93715155 1.0085164
000020 35 b4 83 3f ea f3 40 3f 1b 36 aa 3f 22 0e 4a 3f
       1.028937 0.75372183 1.3297762 0.78927815
000030 6d ce 99 3f de b0 2a 3f 13 bd c7 3e 3c 0b 7a 3f
       1.2016121 0.6667613 0.3901144 0.9767339
000040 3a bd 85 3f 02 39 90 3f 82 e0 80 3f b2 d0 97 3f
       1.0448372 1.1267397 1.0068514 1.1860564
000050 bd 8e a1 3f a0 d5 5e 3f 4f f6 7d 3f 79 4f 68 3f
       1.2621685 0.87044716 0.9920396 0.90746266
000060 e7 98 a8 3e a4 b5 98 3f 19 f9 65 3f 9a 18 8e 3f
       0.32929155 1.1930432 0.8983322 1.1101258
000070 71 01 51 3f 3d 3c 40 3f 4b 28 a4 3f ee 79 62 3f
       0.81642824 0.75091916 1.2824796 0.884673
000080 77 40 91 3f 33 3f 64 3f da 97 ad 3e 82 1b 8c 3f
       1.1347798 0.89158934 0.33904916 1.0945895
000090 8d 9a 69 3f 2a 6b 21 3f 1d f1 85 3f 20 67 87 3f
       0.9125145 0.63054144 1.0464207 1.0578346

indicator_time_mixing.1.time_mixing.ln.bias f4 [8, 5]
000000 7d fb b0 3d e4 fa 94 bd 27 42 5f 3d d0 10 75 bb
       0.086417176 -0.07274416 0.054506447 -0.0037394054
000010 a0 60 d5 bc 26 d8 9d bd 92 1a 84 3d 83 b9 ee bd
       -0.026047051 -0.07707243 0.064503804 -0.11656477
000020 48 14 40 bc ea ea b2 3d 04 d4 a1 3d 9f 94 7b bd
       -0.011723585 0.087362126 0.07901767 -0.061421033
000030 c0 24 e3 3d fc 1a 26 ba aa a3 a3 bd 6b aa 25 3d
       0.11090994 -0.00063364184 -0.07990201 0.040445726
000040 15 f0 cc bc 91 bf b2 3d f7 14 29 bd f4 16 34 bd
       -0.025016824 0.08727945 -0.04127976 -0.043967202
000050 b8 e0 c6 bd e3 28 9a 3d 00 ce 3f be ee 07 20 3d
       -0.097108305 0.0752733 -0.18730927 0.039070062
000060 b7 f0 08 3e 44 ef 2c 3c 99 a8 d0 3b 56 4a 8e 3d
       0.13373075 0.010555092 0.0063677547 0.06947772
000070 79 63 23 bd 8e 7f 4e bd 09 d3 81 bd 13 6f 6a 3d
       -0.039889786 -0.050414614 -0.0633908 0.057234835
000080 69 fb 95 bd 3d 9a 94 3c c1 45 ce 3d 46 f6 37 be
       -0.07323343 0.018139953 0.10071898 -0.1796504
000090 9d 4e 09 3e 52 c3 f0 be 91 0c f7 3d 48 12 69 3e
       0.13408895 -0.47024018 0.12062944 0.2276088

indicator_time_mixing.1.time_mixing.U1.1 f4 [1, 2]
000000 20 35 03 be 7d df ae bc
       -0.12813234 -0.021346802

indicator_time_mixing.1.time_mixing.U1.2 f4 [1, 3]
000000 8b 1c 0a 3e d7 b8 bf be ba 2c 87 3e
       0.13487451 -0.3744571 0.2640131

indicator_time_mixing.1.time_mixing.U1.3 f4 [1, 4]
000000 12 c3 fa 3d fb 02 91 be 48 d4 8a 3e 2c 1e 36 3e
       0.12244238 -0.28322586 0.27115083 0.17784947

indicator_time_mixing.1.time_mixing.U1.4 f4 [1, 5]
000000 c9 d8 cf 3c 61 c7 05 bf b1 df 9a 3e b1 bc 1e 3e
       0.025371926 -0.52257353 0.30248788 0.15501668
000010 ec a6 a8 be
       -0.3293985

indicator_time_mixing.1.time_mixing.U1.5 f4 [1, 6]
000000 d8 cb 3c be e5 39 c0 bc 9f a3 c9 be 51 43 80 be
       -0.18437135 -0.023465106 -0.39382645 -0.25051358
000010 c6 43 53 3d b0 59 8c be
       0.051578306 -0.27412176

indicator_time_mixing.1.time_mixing.U1.6 f4 [1, 7]
000000 ae 99 80 bd 61 dd d4 3c d5 7e 09 be f9 4f 94 bc
       -0.06279312 0.025984468 -0.13427289 -0.01810454
000010 44 c5 28 3d 7d 4e 36 3d 1b 72 f9 3d
       0.041203752 0.044508446 0.12179967

indicator_time_mixing.1.time_mixing.U1.7 f4 [1, 8]
000000 53 69 0d bd 41 e2 ce be 95 67 ad 3e 9a 95 61 3e
       -0.034524273 -0.40406993 0.3386809 0.22029725
000010 0e a4 9e be 3b e2 96 3e ae d4 c5 be 07 25 e8 bd
       -0.3098454 0.29469475 -0.38638824 -0.113351874

indicator_time_mixing.1.time_mixing.U2.1 f4 [1, 2]
000000 36 db 2f 3c 3a b4 9a 3b
       0.010733416 0.0047211917

indicator_time_mixing.1.time_mixing.U2.2 f4 [1, 3]
000000 fb 0d 95 bc 82 ca ac 3d c6 98 a4 be
       -0.018195143 0.08437063 -0.32147807

indicator_time_mixing.1.time_mixing.U2.3 f4 [1, 4]
000000 7d 90 5b 3d 96 d7 5c 3e 1c a0 12 bf 11 ed 11 bf
       0.05360459 0.21566615 -0.5727556 -0.5700236

indicator_time_mixing.1.time_mixing.U2.4 f4 [1, 5]
000000 6f f0 f8 3d f7 fd 67 3c c7 22 a3 3d 5e 9e 6d 3e
       0.12155234 0.014159671 0.079656176 0.23204944
000010 55 ec 1b 3e
       0.15226872

indicator_time_mixing.1.time_mixing.U2.5 f4 [1, 6]
000000 11 90 2b 3e f9 95 13 3e be 98 d4 be 11 01 34 bf
       0.16754176 0.14412679 -0.41522783 -0.7031413
000010 74 0b dc be 86 f3 a3 3e
       -0.42977488 0.3202173

indicator_time_mixing.1.time_mixing.U2.6 f4 [1, 7]
000000 be 47 fb 3d e5 72 fd 3d 99 dc 1e bf ff e1 0a bf
       0.12269543 0.1237543 -0.62055355 -0.5425109
000010 73 90 43 bf bb eb 08 bd bb b3 a1 3e
       -0.76392287 -0.033427935 0.31582436

indicator_time_mixing.1.time_mixing.U2.7 f4 [1, 8]
000000 67 a8 ad 3d 90 61 7b 3d 3e 30 d7 be bf fb 19 bf
       0.08479386 0.06137234 -0.42028993 -0.6014976
000010 7d 6b cf be f8 29 a0 3e 01 5c 80 3d 38 80 00 bf
       -0.40511695 0.3128202 0.06267548 -0.50195646

indicator_time_mixing.1.fc.weight f4 [1, 5]
000000 fe 2f 6a be 76 d4 59 3e 3f bd 3d bd 05 8d 95 bd
       -0.2286987 0.21272454 -0.046323057 -0.07302288
000010 ce da 57 ba
       -0.00082342036
