weights/stockmixer_L16_H64_M40_K4_E50_s3_Hardswish.pt (torch, 631912 bytes, 93 tensors)

indicator_time_mixing.0.indicator_mixing.W1 f4 [5, 64]
0	0xbd3776ef	-0.04479116
1	0x3eb5d03a	0.35510427
2	0xbf40db1b	-0.7533433
3	0x3d8189a5	0.06325082
4	0x3f225696	0.6341337
5	0xbe32cb45	-0.17460354
6	0x3fd33916	1.6501796
7	0xbfcca0fd	-1.598663
8	0xbe930579	-0.28715113
9	0xbe815acd	-0.25264588
10	0x3e5725d1	0.2101052
11	0x3da0c872	0.07850732
12	0x3f61ba5a	0.88174975
13	0x3e695e11	0.2278979
14	0x3f0b9ba8	0.5453439
15	0x3ed4c89f	0.41559312
16	0x3e9d1e84	0.30687344
17	0x3f612f68	0.8796296
18	0xbef7717e	-0.48328775
19	0xbfd0911a	-1.6294281
20	0x3f82b0a7	1.021016
21	0x3ef81e73	0.4846073
22	0xbe4c5dc1	-0.1995764
23	0x3cbffd21	0.023436131
24	0x3f121cbf	0.57075113
25	0x400f3f5f	2.2382429
26	0x3fecd984	1.850388
27	0xbf9d0042	-1.2265704
28	0x3f80f4f9	1.007476
29	0x3ee2fd21	0.44333747
30	0x401ab12c	2.4170637
31	0xbe088b17	-0.13334309
32	0xbef6393e	-0.48090547
33	0xbe8ad3fc	-0.27114856
34	0xbe983f53	-0.29735813
35	0x3eca07ba	0.3945902
36	0x3d44384d	0.047905255
37	0xbdb28f1e	-0.08718704
38	0x3ed3155c	0.41227233
39	0xbf61de29	-0.88229614
40	0xbe6a19c9	-0.22861399
41	0x3e3369ca	0.17520824
42	0x3e229e55	0.15880711
43	0x3f2d5ecf	0.6772279
44	0xbf72429d	-0.94632894
45	0x3ced2783	0.028949505
46	0x3f306250	0.6890001
47	0x3f59fdfd	0.8515318
48	0xbef55274	-0.4791447
49	0x400e69eb	2.2252147
50	0xbf081840	-0.53162
51	0xbe11d43c	-0.14241117
52	0x3f1d1ed4	0.61375165
53	0xc0130803	-2.297364
54	0x3f9db58b	1.2321028
55	0xbe8a93dd	-0.27065936
56	0x3f7b27f7	0.98107857
57	0xbfa65884	-1.2995763
58	0xbfc93d07	-1.5721749
59	0x3f5b4542	0.85652554
60	0xbf4bc63d	-0.7959936
61	0xbef2c2b6	-0.47414178
62	0x3fb0f1f0	1.3823833
63	0x3fb35ba5	1.4012343
64	0xbd5167d4	-0.05112441
65	0xbed36324	-0.41286576
66	0x3edf907d	0.43664923
67	0xbe718a00	-0.23587799
68	0xbfcca63a	-1.5988228
69	0x3fa582c5	1.2930533
70	0xbf82ad62	-1.0209162
71	0x3f95c888	1.1701822
72	0x3ee5bf1c	0.44872367
73	0xbc9a6ebe	-0.018851634
74	0xbf8e4b61	-1.1116754
75	0xbee47b00	-0.44625092
76	0xbf236fbf	-0.63842386
77	0xbf462c9f	-0.77411836
78	0xbf6b6d86	-0.91963995
79	0xbff2394c	-1.8923736
80	0x3e68edb1	0.22746922
81	0xbe576c93	-0.21037512
82	0xbd96a608	-0.07355887
83	0xbf37620f	-0.71634
84	0x3ffd865a	1.9806626
85	0x3eae0f91	0.3399625
86	0xbfb454b4	-1.4088349
87	0xbe4ae433	-0.19813614
88	0x3eb4ba81	0.3529854
89	0x3eada4ac	0.33914697
90	0x3ea1fb94	0.3163725
91	0xbf7f07ac	-0.9962108
92	0x3f8fea32	1.1243346
93	0xbcc4c4b6	-0.02401958
94	0xbf2c8cce	-0.6740235
95	0xbe9df860	-0.30853558
96	0xbf038d58	-0.5138755
97	0xbf1879e0	-0.59560966
98	0xbf09ba07	-0.5379948
99	0xbe901927	-0.2814419
100	0x3ecf86f8	0.4053266
101	0x3f65058b	0.8946158
102	0xbe99023f	-0.29884526
103	0x3cf9e099	0.030502604
104	0xbea850d4	-0.32874167
105	0x3fd180da	1.6367447
106	0x3f5f0cec	0.8712909
107	0x3f2ccd7d	0.6750105
108	0xbf9fc878	-1.2483053
109	0x3f9e3509	1.2359935
110	0xbfa24277	-1.2676533
111	0xbf664998	-0.89956045
112	0xbed34548	-0.41263795
113	0x3eeca936	0.46222848
114	0x3f026ab4	0.50944066
115	0xbc5e664a	-0.013574192
116	0x400eb6a3	2.2298973
117	0xbe9a55a2	-0.30143458
118	0xbf3903b4	-0.72271276
119	0xc0287eaf	-2.6327322
120	0xbee823c0	-0.45339775
121	0x3d90a2a9	0.07062275
122	0x3e6397f3	0.22225933
123	0x3ed97ae9	0.42476586
124	0x3cecb7b6	0.028896194
125	0x40160d18	2.3445492
126	0xbf496a22	-0.7867757
127	0x3e479359	0.19489802
128	0xbe155f4f	-0.14587139
129	0x3e98f61c	0.29875267
130	0x401d2d33	2.4558837
131	0xbf90004f	-1.1250094
132	0x3fd5682c	1.6672416
133	0xbf5dfa8f	-0.8671045
134	0xbf033610	-0.5125437
135	0xbf403656	-0.7508291
136	0xbf78eb6d	-0.9723423
137	0xbf96d9aa	-1.1785176
138	0x3eddbdc8	0.43308854
139	0x3f0049b4	0.5011246
140	0x3e358ce4	0.17729527
141	0xbd6367cf	-0.05551892
142	0xbd80e34e	-0.06293355
143	0xbf926905	-1.14383
144	0xbf5235ec	-0.8211353
145	0x3f898d12	1.0746176
146	0x3fa47f09	1.2851268
147	0x3e0951c5	0.13410099
148	0x3f95b8f8	1.1697073
149	0xc035680e	-2.834476
150	0xbec1b10f	-0.37830397
151	0xbf9bf81f	-1.2185096
152	0xbeddcff9	-0.43322733
153	0xbd5bf3e7	-0.0536994
154	0xbf0d96d2	-0.5530826
155	0x3dbe31a9	0.09286816
156	0xbf96fd71	-1.1796094
157	0xbe962a3e	-0.29329103
158	0xbed58a02	-0.41706854
159	0x402c5a57	2.693014
160	0xbedfcefb	-0.437126
161	0xbf5d08f3	-0.8634178
162	0xbfa74b4f	-1.3069857
163	0xbfb7603b	-1.4326242
164	0x3ec2b5c7	0.3802931
165	0xbd83f0aa	-0.064423874
166	0xbfc28dbb	-1.5199503
167	0xbdb8998d	-0.090136625
168	0x3d2a42ed	0.04156773
169	0x3f6c352f	0.9226865
170	0xbb8df46c	-0.004332116
171	0xbf4ff479	-0.8123241
172	0x3d960274	0.07324687
173	0xbdf667bc	-0.120315045
174	0xbf019df8	-0.50631666
175	0xbf7a4944	-0.97768044
176	0xbf20ba8f	-0.62784666
177	0xbfd9f60f	-1.7028216
178	0xbf7df767	-0.9920563
179	0x3ea1ad81	0.31577685
180	0x40112ecb	2.268481
181	0xbfa31e37	-1.2743596
182	0x40180078	2.3750286
183	0x3fbfea62	1.4993403
184	0xbebd6375	-0.36989942
185	0xbf8481ef	-1.0352153
186	0xbfd28cfe	-1.6449277
187	0xbf3384e3	-0.70124644
188	0x3f255354	0.64580274
189	0x3be3afcd	0.0069484473
190	0xbea84548	-0.32865357
191	0x3ffceda7	1.9760026
192	0x3ea1c382	0.31594473
193	0x3f11a10c	0.56886363
194	0x3e40a639	0.18813409
195	0x3fca5c18	1.5809355
196	0x3f95315a	1.1655686
197	0xbf51f156	-0.82008874
198	0x3ef63a46	0.48091334
199	0x3fe3ab45	1.7786642
200	0x3f2f96f6	0.68589723
201	0xbf935e17	-1.1513089
202	0xbfbca81e	-1.4738805
203	0xbf51c02a	-0.81933844
204	0xbece6816	-0.40313786
205	0x3f98005e	1.1875112
206	0xbf1b41bb	-0.6064717
207	0x400184b2	2.023724
208	0xbff93460	-1.9469109
209	0xbef719ec	-0.48261964
210	0xbed77171	-0.42078736
211	0x3e67aada	0.22623768
212	0x3f995100	1.1977844
213	0x3fb447c4	1.4084401
214	0xbf06297b	-0.52407044
215	0x3e8fcb3d	0.28084746
216	0xbf219570	-0.6311865
217	0x3eda5a85	0.42647186
218	0xbecef8a2	-0.40424067
219	0xbf0870ca	-0.532971
220	0x402b5ccf	2.6775396
221	0x3ed5935f	0.41713998
222	0xbe2a9115	-0.16656907
223	0xbee54129	-0.44776276
224	0x3fae91cf	1.3638247
225	0x3f8ed403	1.1158451
226	0xbebb3aab	-0.36568198
227	0x3fb825ab	1.4386495
228	0x3ff64df4	1.924254
229	0xbe95463f	-0.29155156
230	0xbf756e11	-0.95871073
231	0x3f942f1f	1.157688
232	0xbf9c6793	-1.2219108
233	0xbe999993	-0.2999998
234	0xbf6e0406	-0.9297489
235	0xbd2f74dc	-0.042836055
236	0x3e419286	0.1890355
237	0xbe5cb39f	-0.21552895
238	0xbef76d68	-0.48325658
239	0xbfdcee72	-1.7260268
240	0xbf3d3ba2	-0.7391912
241	0xbfe19a93	-1.7625297
242	0x3ecda708	0.40166497
243	0x3f0b4b18	0.5441146
244	0x3f6d0c7b	0.9259717
245	0x3fd6538f	1.674425
246	0xbfae6579	-1.3624717
247	0x3fdb1e67	1.7118653
248	0x3f8e3f2b	1.1113027
249	0x3efde143	0.49585924
250	0xbe0194ae	-0.12654373
251	0xbf75a859	-0.95960003
252	0xbfa0a1e3	-1.2549404
253	0x3f3c5985	0.73574096
254	0x3d258a56	0.04041513
255	0x3f3c0ded	0.7345875

indicator_time_mixing.0.indicator_mixing.W2 f4 [64, 5]
0	0xc0108f9d	-2.2587655
1	0x3f7bfddb	0.9843423
2	0xbef0d8a1	-0.47040275
3	0xbeae6d10	-0.34067583
4	0xbe9f477f	-0.31109235
5	0xbf5f8024	-0.873049
6	0xbf797e1e	-0.97458065
7	0xbee065a0	-0.43827534
8	0x3e2609ca	0.16214672
9	0x3e4eee28	0.20208037
10	0x3e6b6e2f	0.2299125
11	0xbea3f628	-0.3202374
12	0x400434d3	2.0657241
13	0xbe23ff3d	-0.16015334
14	0xbf189bd2	-0.5961276
15	0xbfb80ca3	-1.4378856
16	0xbf4deb58	-0.8043723
17	0xbd51e4e7	-0.05124369
18	0xbf10fb69	-0.5663362
19	0xbfdccb2f	-1.7249507
20	0x3f014c57	0.5050711
21	0xbefa5692	-0.48894173
22	0xbfa07d81	-1.2538301
23	0xbe2d2480	-0.16908455
24	0x3ca2986b	0.01984807
25	0x40167de7	2.3514345
26	0x40150f1e	2.3290477
27	0xbf10b3ae	-0.5652417
28	0x3e8b9501	0.27262118
29	0xbf10df49	-0.56590706
30	0x3e91c225	0.28468433
31	0x3f33c7ae	0.7022656
32	0x3f0dec3d	0.55438596
33	0xbefcf1c3	-0.494032
34	0xbe248450	-0.16066098
35	0xbf011b3f	-0.504322
36	0x3f00fcaf	0.50385565
37	0x3efdfb2f	0.496057
38	0x3e3d8958	0.18509424
39	0xbe59793d	-0.21237655
40	0x3eed9ba3	0.46407804
41	0x3ef9000a	0.48632842
42	0x4009a0aa	2.1504312
43	0xbf92122a	-1.1411793
44	0xbf690f24	-0.9103873
45	0x3f69828c	0.91214824
46	0xbebe75d6	-0.37199277
47	0x3e8d1002	0.27551275
48	0x3f0af365	0.5427764
49	0xbfadc567	-1.3575867
50	0x3f16a906	0.5885166
51	0xbf8165ed	-1.010923
52	0xbeb9ed2f	-0.3631377
53	0x3facf8a5	1.351338
54	0x3f329f76	0.6977457
55	0x3ff2da6e	1.897291
56	0x3f32b963	0.6981413
57	0x402279d7	2.5386865
58	0xbba179bd	-0.0049278424
59	0x3f6c2397	0.92241806
60	0x3fae5f5d	1.3622853
61	0x3ee26f8e	0.44225734
62	0x3d0e5a79	0.03475425
63	0x3fa21f88	1.2665873
64	0xbf44eb3a	-0.7692143
65	0xbef6122c	-0.4806074
66	0x3fb8fc93	1.445208
67	0xbf59b5c4	-0.8504298
68	0xbee934f0	-0.455482
69	0xbe80bc4b	-0.25143656
70	0x3fddfc43	1.7342609
71	0xbf56105a	-0.836187
72	0xbf13396b	-0.5750949
73	0xbeadf3ee	-0.33975166
74	0xbf07edd2	-0.5309726
75	0x3ea64bfd	0.3247985
76	0x3f0d728a	0.552529
77	0x3f1740be	0.59083164
78	0x3fe149a9	1.7600604
79	0x3f603129	0.8757501
80	0x3f9b1245	1.211495
81	0x3f06e8a9	0.5269876
82	0xbeb40237	-0.3515794
83	0x3f96403a	1.173835
84	0xc006d24d	-2.1065857
85	0x3f728cc6	0.94746053
86	0xbedbf44e	-0.42959827
87	0xbed8e7b6	-0.4236428
88	0x3eb5e0b9	0.35523012
89	0x3fa5b65a	1.2946274
90	0xbfa10e7b	-1.2582544
91	0xbe06a626	-0.13149318
92	0x3f6e2db8	0.9303851
93	0xbf69e50a	-0.9136511
94	0x3f553717	0.83287185
95	0xbf05b2a9	-0.5222574
96	0xbff7a889	-1.9348308
97	0x3ec95f37	0.39330456
98	0xbf8560ef	-1.0420207
99	0xbf40a268	-0.7524781
100	0x3eaf7546	0.3426916
101	0x3ff0b98d	1.8806626
102	0x3ec7dae2	0.39034182
103	0x3fe1e7b1	1.7648832
104	0xbec8a7dd	-0.3919057
105	0x3e6faa99	0.23404922
106	0x3e107245	0.1410609
107	0x3e9dc970	0.30817747
108	0x3f7b4816	0.9815687
109	0xbf9f992d	-1.246862
110	0x3f353221	0.70779616
111	0xbf867437	-1.0504216
112	0x3ea9961e	0.33122343
113	0x3f290d82	0.66036236
114	0xbfa4263a	-1.2824166
115	0xbf2f7288	-0.68534136
116	0x3f2b4c54	0.6691334
117	0x3e0d38ca	0.13791195
118	0xbfc81ae5	-1.5633208
119	0xbf0439de	-0.516508
120	0x3f0ad723	0.5423452
121	0xbf501197	-0.8127684
122	0xbf80f9a9	-1.007619
123	0x3edf457b	0.43607697
124	0xbe58b980	-0.21164513
125	0x3f55ffd0	0.83593464
126	0xbf39b36a	-0.7253939
127	0x3e870f41	0.26378825
128	0xbe20a447	-0.15687667
129	0xbf1730bf	-0.59058756
130	0x3e8965a6	0.26835364
131	0xc003b626	-2.0579925
132	0x3e6b8d71	0.23003174
133	0x3f2af99a	0.6678711
134	0xbfa1f9aa	-1.2654316
135	0x3f2fcf43	0.6867563
136	0xbc4eb3e2	-0.01261613
137	0x3e944fe6	0.28967208
138	0x3ffda78d	1.9816757
139	0xbf59ba21	-0.85049635
140	0xbed6d3ec	-0.4195856
141	0xbf602872	-0.87561715
142	0x3fc8bc54	1.5682473
143	0x3ebe622f	0.37184283
144	0xbf34f805	-0.7069095
145	0x3f2e2375	0.68022853
146	0xbfa093f6	-1.2545154
147	0x3fc535fb	1.5407099
148	0x3ef7c37e	0.48391336
149	0xbe8e1df4	-0.27757227
150	0xbdba02ec	-0.090825886
151	0x3fa6ae28	1.3021898
152	0xbefc4c5d	-0.4927701
153	0x3f26bba8	0.6513009
154	0xbec01cc2	-0.3752194
155	0x3f0d3c78	0.55170393
156	0x3fb0a91c	1.3801608
157	0xbf654d44	-0.89571023
158	0xbe8baff1	-0.2728267
159	0xbf6de9ef	-0.9293508
160	0x3ef58baf	0.47958133
161	0x3c94c03c	0.01815807
162	0x3f81b943	1.0134662
163	0xc00157fb	-2.020995
164	0xbce5944f	-0.02802482
165	0x3f8dc814	1.1076684
166	0x3dbc5d5a	0.09197493
167	0x3f986106	1.1904609
168	0x3e968c32	0.29403836
169	0xbf880237	-1.0625676
170	0x3f500e37	0.8127169
171	0x3e047557	0.12935387
172	0xbfd3433a	-1.6504891
173	0x3ec20a3c	0.37898433
174	0xbff1b624	-1.888371
175	0x3d1c663a	0.03818343
176	0xbefb7cc4	-0.49118626
177	0x3f503ed5	0.81345874
178	0x4016ec03	2.358155
179	0x3fb98efe	1.4496763
180	0x3e99fa8b	0.30073962
181	0xbfb96c6c	-1.4486213
182	0xbf4d0ac4	-0.8009455
183	0xbfa2df66	-1.2724426
184	0x3f6f4816	0.9346937
185	0x3fc0d451	1.5064794
186	0xbf1c940a	-0.6116339
187	0x3ed240c3	0.41065034
188	0x3faf959b	1.3717531
189	0xbf82805a	-1.019542
190	0x3f0088af	0.5020856
191	0xbed8c62b	-0.4233869
192	0x3f11203e	0.5668982
193	0x3ef7a12e	0.48365158
194	0x3e679f12	0.22619274
195	0x3dc34ded	0.095363475
196	0x3fbf2535	1.493323
197	0xbf4fbc9e	-0.8114718
198	0x3fbb8e27	1.4652756
199	0xbffafe5d	-1.9608876
200	0x3e33a1a1	0.17542125
201	0x3e84143f	0.25796697
202	0x3ebbcf7a	0.3668173
203	0x3d794177	0.060853448
204	0xbf56744f	-0.8377122
205	0x3e87fe17	0.26561043
206	0xbfefc615	-1.8732325
207	0xbc8146b3	-0.015780782
208	0xbfb811c8	-1.4380426
209	0xbef97d77	-0.48728535
210	0xbe820385	-0.2539331
211	0x4024fa11	2.5777628
212	0xbed59484	-0.4171487
213	0xbd650b95	-0.05591925
214	0xbedac343	-0.42727098
215	0x3fe083f1	1.7540265
216	0x3f00ba41	0.502842
217	0xbe37760f	-0.1791613
218	0x3e17f00b	0.14837663
219	0xbf171e13	-0.59030265
220	0x3cdf2b50	0.027242333
221	0xc04c529b	-3.1925418
222	0x3e421efb	0.1895713
223	0xbfb076b0	-1.378622
224	0x3d7b23cb	0.06131343
225	0x3ffd927e	1.9810331
226	0x3f57d5d7	0.8431067
227	0xbf215ea6	-0.6303505
228	0x3dbaf622	0.09128977
229	0xbf9c6b48	-1.222024
230	0x3e8310c9	0.25598744
231	0x3f4b7559	0.79475933
232	0x3f9a1339	1.2037116
233	0xbe1aea5c	-0.15128464
234	0x3f5d15d9	0.8636146
235	0xbfa45a43	-1.2840046
236	0x3e148657	0.14504372
237	0x3e8c320e	0.2738194
238	0xbe96aadd	-0.29427233
239	0x3eb9254e	0.36161274
240	0xbeb3ae46	-0.35093898
241	0x3e0fa301	0.14027025
242	0x3fa23054	1.2670999
243	0x3fa81015	1.3129908
244	0xbf2ed403	-0.68292254
245	0xbf4b9f92	-0.7954036
246	0x3f900c11	1.1253682
247	0x3f67ba20	0.9051838
248	0x3f5e4c1f	0.868349
249	0x3fafa9b1	1.3723661
250	0x3eb256d3	0.34831867
251	0x3f1ee18a	0.62062895
252	0x3e2ce858	0.16885507
253	0xbf032629	-0.512301
254	0xc00a3cd5	-2.159963
255	0x3f410c1d	0.7540911

indicator_time_mixing.0.indicator_mixing.ln.weight f4 [16, 5]
0	0x3f80712c	1.0034537
1	0x3f7e092e	0.9923276
2	0x3f7cbee0	0.9872875
3	0x3f817233	1.0112976
4	0x3f7efc80	0.99604034
5	0x3f7a1da0	0.97701454
6	0x3f82f843	1.0232013
7	0x3f852bec	1.0404029
8	0x3f7be638	0.9839816
9	0x3f7fe112	0.99952805
10	0x3f7ebec0	0.9950981
11	0x3f7b2713	0.981065
12	0x3f7b27a5	0.9810737
13	0x3f7e32a9	0.9929605
14	0x3f7d6864	0.9898741
15	0x3f7dd9c7	0.99160427
16	0x3f7c469e	0.98545253
17	0x3f7bf1a2	0.9841558
18	0x3f7e4179	0.99318653
19	0x3f7e2556	0.9927572
20	0x3f7c009e	0.9843844
21	0x3f8065a5	1.003102
22	0x3f80e2d9	1.0069228
23	0x3f7e323b	0.99295396
24	0x3f7f1fbb	0.9965779
25	0x3f7aa645	0.9790996
26	0x3f821ed6	1.016566
27	0x3f808cf3	1.0043014
28	0x3f7cd512	0.9876262
29	0x3f80ccd8	1.0062513
30	0x3f7dfb38	0.99211454
31	0x3f80644c	1.0030608
32	0x3f824640	1.0177689
33	0x3f7dc95f	0.9913539
34	0x3f7eb2b9	0.9949146
35	0x3f79b88f	0.9754724
36	0x3f825d4c	1.0184722
37	0x3f83d058	1.0297956
38	0x3f7986d5	0.9747136
39	0x3f79223b	0.97317857
40	0x3f7fe1f7	0.9995417
41	0x3f811489	1.0084392
42	0x3f7d7bce	0.99017036
43	0x3f808997	1.0041989
44	0x3f7f7acb	0.9979674
45	0x3f7f5014	0.99731565
46	0x3f7f2c03	0.9967653
47	0x3f7c27a8	0.9849801
48	0x3f80524b	1.0025114
49	0x3f7fecb2	0.99970543
50	0x3f7a7ee1	0.9784985
51	0x3f805ce9	1.0028354
52	0x3f8256b7	1.0182713
53	0x3f7da833	0.99084777
54	0x3f7f7bbe	0.9979819
55	0x3f81fddc	1.0155597
56	0x3f7f5b76	0.99748933
57	0x3f7fae98	0.99875784
58	0x3f80217d	1.001022
59	0x3f7face7	0.99873203
60	0x3f7d67ae	0.9898633
61	0x3f7cb388	0.9871144
62	0x3f7d8c9d	0.99042684
63	0x3f7c387d	0.98523694
64	0x3f7f3013	0.9968273
65	0x3f7ace0c	0.9797065
66	0x3f7fe1b3	0.99953765
67	0x3f7f31b0	0.9968519
68	0x3f7bbba8	0.98333216
69	0x3f7eac7f	0.9948196
70	0x3f78914d	0.9709671
71	0x3f812afc	1.0091243
72	0x3f7e5a5f	0.99356645
73	0x3f7f6b4b	0.9977309
74	0x3f7f52f4	0.9973595
75	0x3f92bf6d	1.1464669
76	0x3f71b15f	0.9441127
77	0x3f810f3d	1.0082775
78	0x3f7f4c94	0.99726224
79	0x3f77bb2d	0.9676998

indicator_time_mixing.0.indicator_mixing.ln.bias f4 [16, 5]
0	0x3b946a8b	0.0045293025
1	0x3c309dbb	0.010779793
2	0xbc0baccf	-0.0085250875
3	0xbad87bdf	-0.0016516409
4	0xb9fe2426	-0.00048473588
5	0xbc86b0cd	-0.016441727
6	0xbd1b5eec	-0.03793232
7	0x3d13ab45	0.036052007
8	0xbc77bf81	-0.015121342
9	0x3c0283ca	0.007965991
10	0x3c26827b	0.010162945
11	0x3caf8206	0.021424305
12	0xbc397f03	-0.011321786
13	0x3b865408	0.004099373
14	0x3be7b529	0.0070711565
15	0x3b1f35a3	0.0024293445
16	0x3c801aa4	0.015637703
17	0xbc03c934	-0.008043576
18	0x3bd7ff26	0.0065916954
19	0x3b3e8f86	0.0029077246
20	0xbc030c58	-0.007998548
21	0xbbe91e4e	-0.0071142083
22	0x3c3474d7	0.011014185
23	0x3a8e7b37	0.0010870461
24	0x3b0f3d03	0.0021856434
25	0xbbec5808	-0.0072126426
26	0xbc8ec971	-0.01743004
27	0x3b964c74	0.0045867506
28	0xbc31f381	-0.0108612785
29	0x3b22fbdd	0.002486936
30	0xbbcc88fd	-0.006241916
31	0xbc0d6738	-0.008630566
32	0x3c91f327	0.01781614
33	0x3c09b39d	0.00840464
34	0x3b5f8aa9	0.0034109748
35	0x3baee9b6	0.005337919
36	0xbcac8e16	-0.021063846
37	0x3cd30edf	0.025763927
38	0xbcc7ff1b	-0.024413636
39	0x3d3404ba	0.04394982
40	0x3b1a7f00	0.0023574233
41	0xbb9da6e1	-0.0048111533
42	0xbc18f35b	-0.009335364
43	0xbbd99e7f	-0.0066412087
44	0x3b2a45d8	0.0025981572
45	0xba0e5158	-0.0005428991
46	0x3b868bf1	0.004106038
47	0xbc2b01b0	-0.010437414
48	0x3b08ebfe	0.0020892615
49	0xbb0939f1	-0.0020939077
50	0xbc19df03	-0.009391549
51	0xbc61d70f	-0.013784184
52	0x3cb86e21	0.022513451
53	0xbc227972	-0.00991665
54	0x3ba9836d	0.005173138
55	0x3bd6f513	0.006559977
56	0x3bd48ce8	0.006486524
57	0xbb391412	-0.0028240723
58	0x3c0292b4	0.007969547
59	0xba4cc1cf	-0.0007810862
60	0x3b4b1a58	0.0030991044
61	0x3c6a0d87	0.014285452
62	0xbba13d4d	-0.0049206377
63	0xbb2a3736	-0.002597285
64	0x3b140fe6	0.0022592484
65	0x3b1e6ec2	0.0024174904
66	0xba466624	-0.0007568321
67	0x3af2ba45	0.0018518647
68	0x39c669eb	0.00037844418
69	0x3bc4b447	0.006002936
70	0xbc1c379f	-0.0095347455
71	0xbc58871c	-0.013215806
72	0x3adf1dfa	0.0017022484
73	0xbc2a00da	-0.01037618
74	0x3b3153f5	0.00270581
75	0x3d6600ec	0.056153223
76	0x3da8f6f0	0.082502246
77	0xbc857c1a	-0.016294528
78	0x3d62fb9d	0.05541574
79	0x3b80a5b7	0.0039260047

indicator_time_mixing.0.time_mixing.ln.weight f4 [16, 5]
0	0x3f84c9de	1.0374105
1	0x3f86d97e	1.0535123
2	0x3f79ddb9	0.97603947
3	0x3f72b8b1	0.94813067
4	0x3f813b29	1.0096179
5	0x3f8541d4	1.0410714
6	0x3f83de20	1.0302162
7	0x3f7d553f	0.989582
8	0x3f7311ac	0.9494884
9	0x3f805b47	1.0027856
10	0x3f87d013	1.0610374
11	0x3f842ece	1.0326784
12	0x3f7c9293	0.98661155
13	0x3f6bdfca	0.9213835
14	0x3f800633	1.0001892
15	0x3f837aa0	1.0271797
16	0x3f8373e0	1.0269737
17	0x3f7c2eff	0.9850921
18	0x3f714a39	0.9425388
19	0x3f82041f	1.0157508
20	0x3f84963c	1.0358348
21	0x3f8625da	1.0480301
22	0x3f7aaa2e	0.97915924
23	0x3f69fb3a	0.91398966
24	0x3f824a4b	1.0178922
25	0x3f823c77	1.0174702
26	0x3f8546ec	1.0412269
27	0x3f7c19d4	0.9847691
28	0x3f6ca866	0.92444456
29	0x3f83919a	1.0278809
30	0x3f818808	1.0119638
31	0x3f87cdac	1.0609641
32	0x3f79c21d	0.9756182
33	0x3f5d4520	0.864336
34	0x3f86d493	1.0533623
35	0x3f835eec	1.0263343
36	0x3f829f13	1.0204796
37	0x3f7eec16	0.9957899
38	0x3f6b3df1	0.9189139
39	0x3f82b7d3	1.0212349
40	0x3f8185a5	1.011891
41	0x3f81f221	1.0152017
42	0x3f7eb439	0.9949375
43	0x3f72d5a0	0.94857216
44	0x3f82028d	1.0157028
45	0x3f7ec1b5	0.99514323
46	0x3f803833	1.0017151
47	0x3f7b59ce	0.98183906
48	0x3f800d00	1.0003967
49	0x3f7fafe7	0.9987778
50	0x3f82e7b4	1.022696
51	0x3f8100e0	1.0078392
52	0x3f7d88e4	0.99037004
53	0x3f73f21c	0.95291305
54	0x3f8038db	1.0017351
55	0x3f79a411	0.9751597
56	0x3f824038	1.0175848
57	0x3f786538	0.9702945
58	0x3f79d95f	0.97597307
59	0x3f81f498	1.0152769
60	0x3f75214a	0.9575392
61	0x3f80f600	1.0075073
62	0x3f77e1f3	0.96829146
63	0x3f81c85e	1.0139272
64	0x3f819cce	1.0125978
65	0x3f73fce9	0.95307785
66	0x3f73b06b	0.9519107
67	0x3f7ce3d1	0.9878512
68	0x3fa55efe	1.2919614
69	0x3f650a65	0.89468986
70	0x3f821afb	1.0164484
71	0x3f703626	0.93832624
72	0x3f7d930f	0.9905252
73	0x3f9f8335	1.2461916
74	0x3f623d3c	0.88374686
75	0x3f8ce12b	1.1006216
76	0x3f69e537	0.9136538
77	0x3f81b562	1.0133479
78	0x3fba4290	1.4551563
79	0x3f4d47d8	0.8018775

indicator_time_mixing.0.time_mixing.ln.bias f4 [16, 5]
0	0x3c351ab4	0.01105373
1	0x3b372dba	0.002795084
2	0xbc037bd8	-0.008025132
3	0x3b99c80c	0.004693037
4	0x3a9d7545	0.0012013098
5	0x3c0bf549	0.008542367
6	0x3c02b05b	0.007976617
7	0xbba3eb53	-0.005002418
8	0x3ab3e091	0.0013723542
9	0xbb28cb48	-0.002575593
10	0x3c57cf01	0.013171912
11	0x3c188e08	0.009311207
12	0xbc1aff72	-0.009460317
13	0x3b9d701b	0.004804624
14	0x3a171bec	0.00057643536
15	0x3b63eacb	0.0034777399
16	0x3c8dc69a	0.017306615
17	0xba8885fb	-0.0010415906
18	0xbb4134bf	-0.0029480902
19	0xbbcb7357	-0.006208818
20	0x3c5a3290	0.013317719
21	0x3c0b8308	0.008515127
22	0xbc1d3a0c	-0.009596359
23	0x3bc638d1	0.0060492535
24	0x3b002cb0	0.0019557886
25	0x3baf663f	0.005352765
26	0x3c75aeec	0.014995318
27	0xbb33e677	-0.00274506
28	0xba8cb5cd	-0.0010735333
29	0xbb87dec3	-0.0041464283
30	0x3c9c847c	0.019106142
31	0x3bd36bdc	0.006452067
32	0xbc5570a2	-0.013027342
33	0x3c1500af	0.009094401
34	0x3b49f81d	0.0030818053
35	0x3bdddb00	0.0067704916
36	0x3c70a7bd	0.014688429
37	0xbb85e4d0	-0.0040861145
38	0xb93f9075	-0.00018268994
39	0xbb4ae567	-0.0030959488
40	0x3b3823d1	0.002809752
41	0x3c817157	0.015801115
42	0xbb8d4e21	-0.004312292
43	0xbab66e89	-0.001391844
44	0xbab66614	-0.001391592
45	0x3a28eadb	0.00064436876
46	0x3cced294	0.025246896
47	0xbc1317b9	-0.008977824
48	0x3a1a8093	0.0005893793
49	0x3b8aad15	0.004232059
50	0x3bd02349	0.0063518626
51	0x3c90c9dd	0.01767438
52	0xbc1c3a05	-0.009535317
53	0x3b5f858f	0.0034106707
54	0x3b83c916	0.004021774
55	0xbbd6e077	-0.00655752
56	0x3cc018df	0.02344936
57	0xbbd4494d	-0.0064784647
58	0xbb1bcac6	-0.0023771985
59	0x3bfc2469	0.00769477
60	0xbc34964c	-0.011022162
61	0x3cd26666	0.025683593
62	0xbc082035	-0.00830846
63	0xbac43a02	-0.0014970901
64	0x3c41dba8	0.011832155
65	0x3c552e01	0.0130114565
66	0xbd214c1c	-0.039379224
67	0xbcf4d431	-0.029886337
68	0x3cf4f598	0.029902264
69	0x3d334c27	0.043773796
70	0x3b87e798	0.004147481
71	0xbceff8c6	-0.02929343
72	0xbc963f67	-0.01834078
73	0x3c9694f9	0.018381583
74	0x3ce64ec3	0.028113728
75	0x3c400881	0.0117207775
76	0xbd3fa099	-0.046784017
77	0xbccee5c3	-0.025256043
78	0x3ce92209	0.028458612
79	0x3d290eb3	0.041273784

indicator_time_mixing.0.time_mixing.U1.1 f4 [1, 2]
0	0x3dc4a57b	0.096018754
1	0x3d89bb54	0.06725183

indicator_time_mixing.0.time_mixing.U1.2 f4 [1, 3]
0	0xbd3e9d78	-0.046536893
1	0xbccb6be9	-0.024831729
2	0xbc9d1cf2	-0.019178841

indicator_time_mixing.0.time_mixing.U1.3 f4 [1, 4]
0	0xbd169a9e	-0.03676855
1	0xbd087198	-0.033311456
2	0xbcbe29c2	-0.023213271
3	0xbca61c6a	-0.02027722

indicator_time_mixing.0.time_mixing.U1.4 f4 [1, 5]
0	0xbbc3e516	-0.005978237
1	0x394fe2a5	0.0001982549
2	0xbcacf2a0	-0.021111786
3	0xbbacd061	-0.005273864
4	0xbc19d720	-0.009389669

indicator_time_mixing.0.time_mixing.U1.5 f4 [1, 6]
0	0xbc0f8529	-0.008759775
1	0xbc216e99	-0.009853029
2	0xbb3f9a88	-0.0029236395
3	0xbb4af81e	-0.0030970643
4	0x3c4366e8	0.01192639
5	0x3c90c2d4	0.017671026

indicator_time_mixing.0.time_mixing.U1.6 f4 [1, 7]
0	0x3cd02865	0.025409887
1	0x3c25b27e	0.010113357
2	0x3d0d79f6	0.03454014
3	0x3d46a47b	0.048496705
4	0x3cee4121	0.02908379
5	0x3d0b1061	0.033951167
6	0x3c4dd51e	0.012563018

indicator_time_mixing.0.time_mixing.U1.7 f4 [1, 8]
0	0xbcd321d8	-0.025772974
1	0xbc92f5c7	-0.017939461
2	0xbc21e16d	-0.009880406
3	0xbb39e40e	-0.002836469
4	0xbb5c2bc6	-0.0033595427
5	0xbbfc8a13	-0.0077068894
6	0x3bbd617d	0.005779444
7	0xba2b6074	-0.0006537505

indicator_time_mixing.0.time_mixing.U1.8 f4 [1, 9]
0	0x3d29e433	0.041477393
1	0x3d66eadd	0.056376327
2	0x3d44641b	0.04794703
3	0x3cd1c37c	0.02560591
4	0x3d38eb6c	0.04514639
5	0x3d13e8e1	0.036110763
6	0x3d0f037a	0.034915425
7	0x3d0f5f58	0.035003036
8	0x3cd19da5	0.025587866

indicator_time_mixing.0.time_mixing.U1.9 f4 [1, 10]
0	0xbbc281f9	-0.005935904
1	0x3cdde4d4	0.027086653
2	0x3c145232	0.0090528
3	0x3bac5cb3	0.005260074
4	0x3c6ae2da	0.014336312
5	0x3ad1ef23	0.0016016703
6	0x3c2084c2	0.009797277
7	0x3c8bbd91	0.017058166
8	0x3c9ff254	0.01952473
9	0x3c926410	0.01786998

indicator_time_mixing.0.time_mixing.U1.10 f4 [1, 11]
0	0xbc660668	-0.014039613
1	0x3cce0eb6	0.0251535
2	0x3d361dbe	0.044461958
3	0x3d8a6059	0.06756658
4	0x3d8aaaca	0.06770857
5	0x3d55e5d7	0.052221145
6	0x3d837f6c	0.06420788
7	0x3c34dea6	0.011039412
8	0xbcb533e8	-0.022119477
9	0xbd53630c	-0.05160813
10	0xbc71f62d	-0.014768166

indicator_time_mixing.0.time_mixing.U1.11 f4 [1, 12]
0	0xba27429f	-0.0006380472
1	0xbc676ffb	-0.014125819
2	0x3a771e9a	0.0009426862
3	0xba0f40dc	-0.0005464682
4	0x3b0bfb13	0.0021359369
5	0xbc4a1e66	-0.012336349
6	0xbc925859	-0.017864393
7	0x38c4ee69	9.390416e-05
8	0xbb7750f6	-0.0037737465
9	0xbc878887	-0.016544593
10	0xbc737ee9	-0.014861801
11	0x3c8a518f	0.016884593

indicator_time_mixing.0.time_mixing.U1.12 f4 [1, 13]
0	0x3d009a27	0.03139701
1	0x3d2b3c19	0.04180536
2	0x3d028ddb	0.031873565
3	0x3d16d674	0.036825612
4	0x3a8a1e2a	0.0010537554
5	0x3cd585e1	0.026064815
6	0x3c39b575	0.011334767
7	0x3c2aa216	0.010414621
8	0x3d40ce85	0.047071952
9	0x3bedb061	0.007253692
10	0x398235f0	0.0002483572
11	0x3cb8aa49	0.022542136
12	0x3d232285	0.039827842

indicator_time_mixing.0.time_mixing.U1.13 f4 [1, 14]
0	0x3d4668da	0.048439838
1	0x3d3645f2	0.0445003
2	0x3cc142fc	0.023591511
3	0x3cc07e3d	0.023497695
4	0x3cd6e034	0.026229955
5	0x3c5dddb2	0.013541626
6	0x3d141c1c	0.03615962
7	0x3bee8775	0.0072793313
8	0x3cb93fed	0.02261349
9	0x3cb7b7dc	0.022426538
10	0xbc06413d	-0.008194265
11	0x3c5a31bd	0.013317523
12	0x3b8d70bf	0.004316419
13	0x3b8018ea	0.00390922

indicator_time_mixing.0.time_mixing.U1.14 f4 [1, 15]
0	0x3db6f08f	0.08932602
1	0x3d9e8c16	0.07741563
2	0x3da05ddc	0.07830402
3	0x3d9ddb16	0.07707803
4	0x3d64c1bd	0.055848826
5	0x3d4f15ea	0.05055801
6	0x3d70c817	0.05878457
7	0x3cf46aa6	0.02983601
8	0xbadee1fe	-0.0017004607
9	0xbc84af35	-0.016196826
10	0x3cf027ef	0.029315917
11	0x3cc83ee9	0.02444406
12	0x3ba33579	0.0049807397
13	0xbc167403	-0.009182933
14	0xbdd1a5c9	-0.10236699

indicator_time_mixing.0.time_mixing.U1.15 f4 [1, 16]
0	0x3e267893	0.16256933
1	0x3e20c8c3	0.15701585
2	0x3e158a54	0.14603549
3	0x3decf3ad	0.11569915
4	0x3e025155	0.12726338
5	0x3de557e0	0.111984015
6	0x3df62c3d	0.120201565
7	0x3dae1f3d	0.08502052
8	0x3d0bc6c0	0.03412509
9	0x3c92a517	0.017900987
10	0x3d8b7f31	0.06811369
11	0x3cd575fc	0.026057236
12	0x3cdee035	0.02720652
13	0xbd07315a	-0.03300605
14	0xbddf38c8	-0.10899502
15	0xbec78fc1	-0.38976863

indicator_time_mixing.0.time_mixing.U2.1 f4 [1, 2]
0	0x3d4f0682	0.050543316
1	0x3da81148	0.08206421

indicator_time_mixing.0.time_mixing.U2.2 f4 [1, 3]
0	0xbc796c26	-0.0152235385
1	0xbd97cfde	-0.074126944
2	0x3ce31d4c	0.02772393

indicator_time_mixing.0.time_mixing.U2.3 f4 [1, 4]
0	0x3bd293a2	0.0064262906
1	0xbd26d85c	-0.04073368
2	0xbb257032	-0.0025243876
3	0x3bb0fde6	0.005401361

indicator_time_mixing.0.time_mixing.U2.4 f4 [1, 5]
0	0x3cce15ba	0.025156844
1	0x3dd6d6da	0.104901984
2	0xbd117253	-0.03550942
3	0xbca8c29d	-0.020600611
4	0xbc118057	-0.008880696

indicator_time_mixing.0.time_mixing.U2.5 f4 [1, 6]
0	0x3c33f89c	0.010984566
1	0x3d6d3e79	0.057920907
2	0xbcf1bd58	-0.029509231
3	0xbc6ef0d7	-0.014583788
4	0xbbc814e3	-0.0061060055
5	0xbbc40d4e	-0.0059830314

indicator_time_mixing.0.time_mixing.U2.6 f4 [1, 7]
0	0x3c29e75a	0.0103701
1	0x3d77aaa6	0.060465477
2	0xbd40081a	-0.046882726
3	0xbcbb0d3a	-0.022833455
4	0x3c384155	0.011246045
5	0x3c71eaca	0.014765451
6	0x3bd673fb	0.0065445877

indicator_time_mixing.0.time_mixing.U2.7 f4 [1, 8]
0	0x3d3169b0	0.043313682
1	0x3d3511f1	0.044206563
2	0xbc774875	-0.015092959
3	0xbd36f772	-0.044669576
4	0xbd12eb07	-0.03586867
5	0x3afca9cd	0.0019276679
6	0x3cec7176	0.028862696
7	0xbb72d1fb	-0.0037051428

indicator_time_mixing.0.time_mixing.U2.8 f4 [1, 9]
0	0x3c04f2c8	0.008114524
1	0x3d48f252	0.04905922
2	0xbc7132c9	-0.014721581
3	0x3c91977e	0.017772432
4	0x3c917ead	0.017760599
5	0xbbbbfb8f	-0.005736775
6	0xbc14c8bb	-0.009081061
7	0x3c62b501	0.0138371
8	0x3d096fae	0.03355377

indicator_time_mixing.0.time_mixing.U2.9 f4 [1, 10]
0	0x3a97144d	0.0011526436
1	0xbd50812b	-0.050904434
2	0x3ccdbea5	0.02511532
3	0x3bff2059	0.0077858386
4	0xbba53676	-0.0050418926
5	0x3bdb7144	0.006696852
6	0xbb89b325	-0.004202264
7	0xb99b22eb	-0.0002958992
8	0xbd227240	-0.03965974
9	0xbce6e168	-0.028183654

indicator_time_mixing.0.time_mixing.U2.10 f4 [1, 11]
0	0x3d12ea79	0.03586814
1	0x3dbfff40	0.09374857
2	0xbd359103	-0.044327747
3	0xbce796d3	-0.02827016
4	0xbc827249	-0.015923636
5	0xbc4fa707	-0.0126741
6	0x3ce5a3a8	0.028032139
7	0xbc21b893	-0.009870666
8	0x3d824a14	0.063617855
9	0x3c6692be	0.014073072
10	0x3d4fc2ef	0.050723013

indicator_time_mixing.0.time_mixing.U2.11 f4 [1, 12]
0	0xbd19fb2c	-0.03759305
1	0xbdf7cc55	-0.1209952
2	0x3d1d354c	0.038380906
3	0x3cfda830	0.030963987
4	0x3bd47786	0.006483975
5	0x3c30a48f	0.010781421
6	0xbb85b61e	-0.004080548
7	0x3c746886	0.014917498
8	0xbd3c8491	-0.046024863
9	0xbb81ee97	-0.0039652097
10	0x3d074e04	0.033033386
11	0xbc2364e8	-0.009972788

indicator_time_mixing.0.time_mixing.U2.12 f4 [1, 13]
0	0x3b5017c0	0.0031752437
1	0x3b72c83c	0.0037045619
2	0xbbc216d8	-0.0059231333
3	0x3cc152fb	0.023599138
4	0x3b90d159	0.0044194874
5	0xbc764bf4	-0.015032757
6	0xbc8738e5	-0.016506622
7	0xbb5ad56c	-0.003339137
8	0xbd2e5add	-0.042567123
9	0xbb17a2a1	-0.0023137706
10	0xbd8ba13f	-0.068178646
11	0xbbd8fe56	-0.006622116
12	0xbbc6e488	-0.0060697235

indicator_time_mixing.0.time_mixing.U2.13 f4 [1, 14]
0	0x3a679e5e	0.0008835549
1	0x3d3e98d9	0.046532486
2	0xbc8b42c0	-0.016999602
3	0xbb8173e7	-0.003950584
4	0xbc0da2fd	-0.0086448165
5	0xbc12873e	-0.008943377
6	0xbca0b7a5	-0.019618819
7	0xbc16eeb8	-0.009212188
8	0x3cbbbe69	0.022917943
9	0xbc3dc8b9	-0.011583501
10	0x3c88a0ff	0.016678331
11	0x3a29b807	0.00064742606
12	0xbca0dade	-0.019635614
13	0x3bf65940	0.0075179636

indicator_time_mixing.0.time_mixing.U2.14 f4 [1, 15]
0	0x3c842fb9	0.016136037
1	0x3dc39355	0.09549586
2	0xbd6aaaa3	-0.057291638
3	0xbd09c8eb	-0.033638876
4	0x3835347e	4.320265e-05
5	0xbc80a17f	-0.015702007
6	0x3cca35cc	0.024683855
7	0xbb8df8f2	-0.004332655
8	0x3d510135	0.05102654
9	0xbc8131e7	-0.015770866
10	0x3c3ab434	0.011395503
11	0xbc91eca2	-0.01781303
12	0x3cfde0e7	0.03099103
13	0x3c736a3e	0.014856873
14	0x3d38d0bf	0.04512095

indicator_time_mixing.0.time_mixing.U2.15 f4 [1, 16]
0	0xbda24b7f	-0.07924556
1	0xbe02caa7	-0.12772618
2	0x3d9b4a29	0.07582504
3	0x3d750ac7	0.05982473
4	0x3d47a551	0.048741642
5	0xbcd5b7d4	-0.026088633
6	0xbd5dcaac	-0.05414836
7	0x3cdd43ca	0.027009863
8	0xbde79228	-0.11307174
9	0xbd18312b	-0.037156265
10	0xbd678eb0	-0.05653256
11	0x3d0f46b9	0.034979556
12	0xbd537f63	-0.051635157
13	0xbd1abcc8	-0.037777692
14	0xbdcd20ea	-0.100160435
15	0xbec2aca8	-0.3802235

indicator_time_mixing.0.fc.weight f4 [1, 5]
0	0x3daa0872	0.08302392
1	0xbe1e90b7	-0.15484892
2	0xbd926dbc	-0.071498364
3	0x3ea36bf6	0.31918305
4	0x3dbb4d5f	0.09145617

indicator_time_mixing.1.indicator_mixing.W1 f4 [5, 64]
0	0xbea52f39	-0.3226259
1	0xbfe6fc23	-1.8045696
2	0x3f8b7528	1.0895128
3	0x3e6ebeaf	0.23314928
4	0x3ef1b98e	0.4721188
5	0x3f37326d	0.7156132
6	0xbe45353b	-0.19258587
7	0x3e100c8f	0.1406729
8	0x4009ec6e	2.1550555
9	0xbff280e4	-1.8945584
10	0xbf5af7e6	-0.85534513
11	0x3f983246	1.1890342
12	0xbea92c3d	-0.33041564
13	0x3fb761be	1.4326704
14	0xbf5fa123	-0.8735525
15	0x3dbef382	0.09323789
16	0x3fd6eab5	1.6790377
17	0xbea32471	-0.3186374
18	0xbfd3114a	-1.6489651
19	0x3e39ea23	0.18155722
20	0x3fae8792	1.3635123
21	0x3e7cef41	0.24700643
22	0x3f00de0d	0.5033882
23	0xbe96e92b	-0.29474768
24	0xbffb990c	-1.9656081
25	0x3fcdca98	1.6077452
26	0xbf5443a5	-0.8291572
27	0xbe6f3ffc	-0.23364252
28	0xbf774b02	-0.9659883
29	0xbef1dedf	-0.4724035
30	0x4023d412	2.5598187
31	0x3f85fc18	1.0467558
32	0xbf6a1924	-0.9144461
33	0x3ddf8cca	0.10915525
34	0xbecedd0a	-0.40403014
35	0x3f5769e4	0.8414595
36	0x3f8e97c5	1.1140066
37	0xbf46f7ce	-0.7772187
38	0xbf1ed92a	-0.62050116
39	0xbf896fa0	-1.073719
40	0x3f4debf0	0.8043814
41	0xbfc0381b	-1.5017122
42	0x3fffbe47	1.9979943
43	0x3fd5b316	1.6695278
44	0xbf803f8c	-1.0019393
45	0x3f466927	0.775042
46	0xbe4df36d	-0.20112391
47	0xbf2050ff	-0.6262359
48	0xbf07b563	-0.5301115
49	0xbffeb000	-1.9897461
50	0xbccabc02	-0.024747852
51	0xbea11139	-0.31458452
52	0x3f6fc247	0.9365582
53	0xbf78a833	-0.9713165
54	0x3ec9f907	0.39447805
55	0xbfb90419	-1.4454376
56	0xbf4c1eed	-0.7973469
57	0x3f407a00	0.7518616
58	0xbe766168	-0.24060595
59	0x401037d3	2.2534072
60	0x3f45d77b	0.7728192
61	0x3fba2bea	1.4544652
62	0x3d1cac6c	0.03825037
63	0x3ec82541	0.39090922
64	0xbf8b5114	-1.0884118
65	0xbeb40008	-0.35156274
66	0xbeca1384	-0.39468014
67	0xbfe8eca4	-1.8197217
68	0xbf03bf05	-0.5146335
69	0x3e346947	0.17618285
70	0x3fa70d39	1.305091
71	0xbf060112	-0.52345383
72	0xbecbc23a	-0.3979662
73	0xbf5e1880	-0.86756134
74	0x3fceb2e3	1.6148342
75	0x3e5dc5ef	0.21657537
76	0xbf56c653	-0.8389637
77	0xbf8d93c9	-1.1060725
78	0x3f0f7a3a	0.5604588
79	0xbe113f05	-0.14184196
80	0x3df2b615	0.11851136
81	0x3f2c9c57	0.67426056
82	0x3fe5c117	1.7949551
83	0xbf31a840	-0.69397354
84	0x3e2a3394	0.16621238
85	0xbf572265	-0.84036857
86	0x3e628900	0.22122574
87	0xbe96ec97	-0.2947738
88	0xbdbd7d05	-0.09252361
89	0xbf7787c1	-0.9669152
90	0xbe0778a1	-0.1322961
91	0xbfd00715	-1.6252161
92	0xbfeaccbc	-1.834373
93	0xbe987370	-0.29775572
94	0x3e3f7cc7	0.18699943
95	0xbea6054c	-0.32425916
96	0xbe60d0f6	-0.21954712
97	0x3e82e083	0.25561914
98	0x3f794225	0.97366554
99	0x3f705978	0.9388652
100	0xbf2b7d5d	-0.66988164
101	0x3e8032d4	0.2503878
102	0xbe67e250	-0.22644925
103	0x3e379a96	0.17930064
104	0xbe63a822	-0.22232106
105	0x3f0c6c47	0.5485272
106	0xbdf9e9ea	-0.12202819
107	0x3f6d7c94	0.92768216
108	0x3f0cf114	0.55055356
109	0x3f3fe32b	0.74956006
110	0x3cb8b633	0.022547817
111	0xbee206d7	-0.44145843
112	0x3eb1b147	0.34705564
113	0xbf8d4d38	-1.103919
114	0x3ed87a0a	0.42280608
115	0xbf162718	-0.586534
116	0x3f36f356	0.7146505
117	0xbf3d799e	-0.740137
118	0xbf9b0e4e	-1.211374
119	0xbf732bce	-0.94988716
120	0x3f58df6b	0.8471591
121	0x3e06d982	0.1316891
122	0xbd939bbf	-0.072074406
123	0xbf853b4d	-1.0408722
124	0x3e821358	0.25405383
125	0xbfc8aa32	-1.567694
126	0xc00b8cdd	-2.1804726
127	0x3f85d3dc	1.0455279
128	0x3f32c469	0.6983095
129	0xbf8777f5	-1.0583483
130	0x3ef378e0	0.47553158
131	0xc00eeb94	-2.2331285
132	0x3faaff40	1.3359146
133	0x3e6acfc1	0.22930814
134	0xbfe4a652	-1.7863257
135	0xbf00c38b	-0.50298375
136	0xbe1d36ff	-0.1535301
137	0x3f240405	0.64068633
138	0x3ea0ce00	0.31407166
139	0x3f9ab3f7	1.2086171
140	0xbe8b8d9e	-0.27256483
141	0x3f2c844c	0.6738937
142	0x3f1ee6c3	0.62070864
143	0xbf7d029a	-0.98832095
144	0xbe325657	-0.17415749
145	0x3e988b92	0.29793984
146	0xbf4aa753	-0.79161566
147	0x3e48f0f1	0.19623162
148	0x3f1dd714	0.6165631
149	0xbd6314d3	-0.05543978
150	0xbf08a225	-0.5337241
151	0x3f6856d4	0.9075749
152	0xbf7979d8	-0.97451544
153	0xbf7ee73d	-0.9957159
154	0x3debb103	0.11508372
155	0xbfda6465	-1.7061888
156	0x3f8573b1	1.0425931
157	0x3fa9dda1	1.3270761
158	0x3e8fc515	0.2808005
159	0x3f004a17	0.5011305
160	0x3e9275dc	0.28605545
161	0xbfa8cb85	-1.3187109
162	0x3e9bb4bd	0.3041133
163	0x3f17e66c	0.5933597
164	0x3dfcee0c	0.12350091
165	0xbe822ef2	-0.2542644
166	0x3f56723e	0.8376807
167	0xbfad892f	-1.355749
168	0x3efba047	0.4914572
169	0xbf8ca111	-1.0986654
170	0x3f807a48	1.0037317
171	0x3f813d7d	1.009689
172	0x3f75ecf6	0.960647
173	0x3f10cd24	0.5656302
174	0xbec45c4d	-0.3835167
175	0x3f88826f	1.0664805
176	0xbf3a3f2e	-0.72752655
177	0x402843ad	2.6291306
178	0xbfc50fd7	-1.5395459
179	0xbe0c5fbd	-0.13708396
180	0xbdb3954e	-0.08768712
181	0x3e25c10e	0.16186926
182	0x3fcf2670	1.6183605
183	0x3fc1cf1b	1.5141329
184	0xbe85bb94	-0.26119673
185	0xbe587daf	-0.21141694
186	0xbf063846	-0.52429616
187	0x3fbc4fee	1.4711893
188	0x3f6e47a1	0.9307805
189	0x3d9f0c80	0.07766056
190	0xbfa68220	-1.3008461
191	0xbdedab64	-0.11604956
192	0xbf80dfb0	-1.0068264
193	0x3f6a0ac2	0.91422665
194	0xbfa133b8	-1.2593908
195	0x3fa6a644	1.301949
196	0xbf4a7d16	-0.79097116
197	0x3ed4b91a	0.4154747
198	0xbf454350	-0.77055836
199	0x40372752	2.861775
200	0x3eb5da0c	0.3551792
201	0xbf0552a3	-0.5207922
202	0xbf46a1cf	-0.7759065
203	0xbf276e54	-0.6540272
204	0x3e5e728b	0.21723382
205	0xbfc3b7bf	-1.529045
206	0xbf875e1e	-1.0575597
207	0xbfc4c411	-1.5372335
208	0x3f1c2de7	0.6100754
209	0x3f638785	0.8887866
210	0xbf98cdcd	-1.1937805
211	0xbd944bfd	-0.07241056
212	0xbfa61b88	-1.2977152
213	0x3fe50fb0	1.7895412
214	0x3f20bdc5	0.62789565
215	0x3d67b64c	0.056570336
216	0xbfaf17f9	-1.3679191
217	0x3f0c83de	0.54888713
218	0xbe078aee	-0.13236591
219	0x3f83cb31	1.0296384
220	0x3f4dc6b8	0.80381346
221	0x3ff1e281	1.8897249
222	0x3fa3ef5e	1.2807424
223	0xbe64e078	-0.22351253
224	0xbf88df99	-1.0693237
225	0xbf81380a	-1.0095227
226	0x3f55a9c0	0.8346214
227	0x402ec57d	2.7308037
228	0xbea1384c	-0.31488264
229	0x3f8775be	1.0582807
230	0x3fc24983	1.5178684
231	0xbe438ab7	-0.19095884
232	0x3eca4d6f	0.39512202
233	0x3fcd4a1b	1.603824
234	0xbfa0fba7	-1.2576798
235	0x3f526134	0.8217957
236	0xbf90c0bc	-1.1308818
237	0x3fdb2800	1.7121582
238	0x3dd74f1e	0.10513137
239	0x3fab026a	1.3360112
240	0xbf19b130	-0.6003599
241	0xbfa11e95	-1.2587458
242	0xbf080727	-0.53135914
243	0xbe92da04	-0.28681958
244	0x3f487ccf	0.7831544
245	0xbfcca10d	-1.5986649
246	0x3f047278	0.51737165
247	0xbed925bb	-0.424116
248	0x3f613cf4	0.8798363
249	0x3fa76b5e	1.3079641
250	0xbfaf8896	-1.3713558
251	0x3f68db33	0.9095947
252	0xbf8f5f6f	-1.1200999
253	0x3f97965e	1.1842763
254	0x3f87fa2c	1.0623221
255	0x3f8f77dd	1.1208454

indicator_time_mixing.1.indicator_mixing.W2 f4 [64, 5]
0	0x3f169626	0.5882286
1	0xbfdb57ed	-1.7136208
2	0xc01a0eb3	-2.4071472
3	0xbfc39dc7	-1.5282525
4	0x400528f1	2.0806239
5	0xbf3c539e	-0.7356509
6	0x3e01a86a	0.12661901
7	0x3fa03736	1.2516849
8	0xbe9b5cea	-0.30344325
9	0xbf640963	-0.89076823
10	0x3f401abb	0.7504079
11	0x3e49e30c	0.19715518
12	0xbe6dee46	-0.23235425
13	0xbe72ed61	-0.23723365
14	0xbf2114cb	-0.6292235
15	0x3e9da78f	0.307919
16	0xbe8acee0	-0.27110958
17	0x3e284d47	0.16435729
18	0x3d6a66bd	0.057226885
19	0x3ee7b6aa	0.4525655
20	0x3f86e526	1.053868
21	0x3fe6511a	1.79935
22	0xbfb67c3a	-1.4256661
23	0xbfdd9442	-1.731087
24	0x3f1a4d02	0.60273755
25	0x3fc58fa4	1.5434461
26	0x3d10af8a	0.035323657
27	0x3f5a85da	0.8536049
28	0xbee36358	-0.4441173
29	0xbf927bf8	-1.1444082
30	0xc00a2961	-2.1587756
31	0xbe9ba2f9	-0.30397776
32	0x3e8243c9	0.2544234
33	0x3ece9838	0.4035051
34	0x3f5a6e57	0.85324615
35	0x3f4e038e	0.80474174
36	0xbfbbf158	-1.4683027
37	0xbf8e1e2d	-1.1102959
38	0xbcd0cac5	-0.025487313
39	0xbf97f4e7	-1.1871613
40	0xbdd6812d	-0.10473857
41	0x3ea1850c	0.3154682
42	0xbf3d40b9	-0.73926884
43	0x3f0f04d8	0.55866766
44	0x3e120ae8	0.14261973
45	0x3f93d8c3	1.1550525
46	0x3f4b37e6	0.7938217
47	0xbe919321	-0.28432563
48	0xbd17bb12	-0.03704364
49	0x3f9cf143	1.2261127
50	0x3f45fe51	0.7734118
51	0xbd198700	-0.03748226
52	0x3fdebaa1	1.7400705
53	0xbf00307d	-0.5007399
54	0x3e89ebf6	0.26937836
55	0x3d67b0ea	0.056565203
56	0x3e3ebc90	0.18626618
57	0x3ffa14c7	1.9537591
58	0xbdb80fd1	-0.08987392
59	0x3e43a07d	0.1910419
60	0x3f8997f3	1.0749496
61	0x3fc0ddf0	1.506773
62	0xbfc8ada1	-1.5677987
63	0xbf856474	-1.0421281
64	0x4006ffb2	2.1093564
65	0x3e25692f	0.16153406
66	0xbe905eb3	-0.2819725
67	0xc0008125	-2.0078824
68	0x3f9dedf4	1.2338243
69	0xbcf409c2	-0.02978981
70	0x3f1cb363	0.6121122
71	0x3f8983e3	1.0743374
72	0x3f19a69f	0.6001987
73	0x3f33689d	0.700815
74	0xbfa0f421	-1.2574502
75	0xbffe1351	-1.9849645
76	0x3fc622db	1.5479387
77	0xbffe9087	-1.9887856
78	0x3f841f9a	1.0322144
79	0x40161bd4	2.3454485
80	0xbe46f490	-0.1942923
81	0x3f1a3ded	0.6025074
82	0xbdd52fdf	-0.10409521
83	0xbd62ec32	-0.055401035
84	0xbd12e6ba	-0.03586457
85	0x3d5c14f8	0.053730935
86	0xbe695f1f	-0.22790192
87	0x3fefe286	1.8741004
88	0x3fe2c444	1.7716146
89	0xc02a171e	-2.657661
90	0x3ea0008d	0.3125042
91	0xbfa81442	-1.3131182
92	0x3f8c7e5a	1.097606
93	0xbdcdd548	-0.10050446
94	0xbe3d38b0	-0.18478656
95	0xbecb4e38	-0.39708114
96	0xbf82e471	-1.0225965
97	0x3e8b8fb2	0.27258068
98	0xbea679f8	-0.3251493
99	0xbe8b6991	-0.27228978
100	0x3f83391b	1.0251802
101	0x3ea10fc8	0.31457353
102	0x3fe041f5	1.7520128
103	0xbfdb9745	-1.7155539
104	0x3f13c433	0.5772125
105	0x3ef6ca27	0.48201105
106	0xbf94c105	-1.1621405
107	0x3f0f4b21	0.5597401
108	0xc005df07	-2.0917375
109	0xbe9fe77d	-0.312313
110	0x3f072ae3	0.52799815
111	0x3f5fa804	0.87365746
112	0xbdab9cd2	-0.083795205
113	0xbfd128e1	-1.63406
114	0xbf41c76d	-0.75694925
115	0xbf160339	-0.5859867
116	0xbf2a5cd9	-0.66547924
117	0x3f440fcd	0.7658661
118	0x3e23bc73	0.15989856
119	0x3e7884ec	0.24269456
120	0xbf8f929b	-1.1216615
121	0x3eeff69a	0.4686783
122	0xbe8e453a	-0.2778719
123	0xbf1bdd6f	-0.60884756
124	0xbfaa00a2	-1.3281443
125	0xbdfffa87	-0.12498956
126	0xbe6f2d0d	-0.2335703
127	0x3fa5d465	1.2955443
128	0x3f6ce4b1	0.92536455
129	0xbeba29af	-0.36359927
130	0xbed4bef2	-0.4155193
131	0xbf6d409e	-0.92676723
132	0xbf2e501c	-0.6809099
133	0xbf177ad6	-0.5917181
134	0x3f5465bc	0.82967734
135	0x3e6b0bcc	0.22953719
136	0x3e863686	0.26213473
137	0xbf16291a	-0.58656466
138	0x3e3a5fc6	0.18200597
139	0x3f9bdf94	1.2177606
140	0xbf766eb4	-0.9626267
141	0x3f7b8c78	0.98261213
142	0x3fd7715e	1.6831472
143	0xbee61d06	-0.44944018
144	0xc006edeb	-2.1082714
145	0xbfa6fcb7	-1.3045872
146	0x3fa67644	1.3004842
147	0x3ff23a25	1.8923994
148	0xbf4a77ce	-0.7908906
149	0xbedbfa25	-0.42964283
150	0x3f3501b4	0.70705724
151	0xbfbecfd3	-1.4907173
152	0xc00e9db6	-2.228376
153	0x3fca2313	1.5791954
154	0x3f82eb71	1.0228101
155	0xbf91ef19	-1.1401092
156	0xbfa833da	-1.3140824
157	0x3fa1e9aa	1.2649434
158	0xbd18ac06	-0.03727343
159	0x3ea9cd43	0.33164415
160	0xbf837afc	-1.0271907
161	0x3f09e38e	0.53862846
162	0x3d90d77d	0.07072351
163	0x3f47ef8b	0.7809989
164	0x3ed7ae3b	0.42125115
165	0xbfc52970	-1.5403271
166	0xbf01a00d	-0.50634843
167	0x3d91f35a	0.07126494
168	0xbe4333d2	-0.19062737
169	0xbf6270d8	-0.88453436
170	0xbec58e04	-0.38584912
171	0xbf02e2c2	-0.51127255
172	0xbf97cf4b	-1.1860136
173	0x3d3786e8	0.04480639
174	0xbf4474b9	-0.76740605
175	0xbd625114	-0.055253103
176	0x3f1788b9	0.59193
177	0x3f1fb172	0.62380135
178	0x3e4861b2	0.19568518
179	0xbde7c59f	-0.1131699
180	0xbf9876c0	-1.191124
181	0x3ed7fc46	0.42184657
182	0x3fa02ad4	1.251307
183	0xbf9a1115	-1.2036463
184	0xbedc121e	-0.42982572
185	0x4014d4f4	2.3254976
186	0xbe408b0e	-0.18803045
187	0xbee740e9	-0.4516671
188	0x3f823649	1.0172817
189	0x3f085745	0.5325816
190	0xbfb37748	-1.4020777
191	0x4018ddd6	2.3885398
192	0xbf571992	-0.8402339
193	0x3e020f2b	0.12701099
194	0xbd663120	-0.056199193
195	0xbf427db3	-0.7597305
196	0x3e9ee7e2	0.31036288
197	0xbe77c9d7	-0.2419809
198	0xbf9f378c	-1.2438827
199	0xbe97380d	-0.2953495
200	0x3fedb26d	1.8570076
201	0x3f1c4c52	0.61053956
202	0x3e938082	0.2880898
203	0xbf2e340a	-0.68048155
204	0x3ecfa23d	0.40553465
205	0x3eecad79	0.462261
206	0x3f299e1a	0.6625687
207	0x3f34de68	0.70651865
208	0xbf16acfc	-0.58857703
209	0x3f5bf787	0.8592457
210	0xbe3b4f0b	-0.18291871
211	0x4003bf2a	2.0585427
212	0xbf973a1e	-1.1814611
213	0xc0462662	-3.0960927
214	0xbeae5b8d	-0.34054223
215	0x3d27ee85	0.040998954
216	0xbfcc825c	-1.5977283
217	0xbf26c14a	-0.65138686
218	0x3f7d5253	0.9895374
219	0x3dfa8ce1	0.12233902
220	0xbf69c9d0	-0.91323566
221	0xbf0ae6ed	-0.54258615
222	0x3d70b530	0.058766544
223	0xbe7e6b63	-0.24845652
224	0x3f575799	0.8411804
225	0x3e090de2	0.13384202
226	0x3f3bccb9	0.73359257
227	0xbf02c596	-0.5108274
228	0x3e7f743d	0.24946685
229	0x3ea6c2b5	0.32570425
230	0xbfafdbea	-1.3738987
231	0x3f45eff1	0.77319247
232	0xbfd760e7	-1.6826447
233	0xbf920432	-1.140753
234	0xbfe62313	-1.7979454
235	0x3fdef3f1	1.7418195
236	0x3fb2d13a	1.3970101
237	0xbe9c4b07	-0.3052599
238	0xbf413808	-0.7547612
239	0xbfc5908a	-1.5434735
240	0xbf2f020b	-0.6836249
241	0x3f32d697	0.6985869
242	0xbf1e1275	-0.61746913
243	0xbf16e112	-0.5893718
244	0x3f58a852	0.84631836
245	0x3e97eb95	0.29671922
246	0xbff9004e	-1.9453218
247	0xbfba877a	-1.4572594
248	0x3f9448a8	1.1584673
249	0xbf762c1b	-0.9616105
250	0x3f816b3c	1.011085
251	0x3ffd2c84	1.977921
252	0x40220099	2.5312865
253	0xbf6eb594	-0.93245816
254	0x3ea768fe	0.3269729
255	0xbf08d7e4	-0.5345442

indicator_time_mixing.1.indicator_mixing.ln.weight f4 [8, 5]
0	0x3f7c971b	0.9866807
1	0x3f7f794a	0.9979445
2	0x3f7ebbb2	0.9950515
3	0x3f7f6e8b	0.9977805
4	0x3f81d85b	1.0144151
5	0x3f7b8060	0.9824276
6	0x3f81392e	1.0095575
7	0x3f7e891d	0.9942797
8	0x3f7d163f	0.9886207
9	0x3f77b0c1	0.9675408
10	0x3f7fdbd3	0.999448
11	0x3f819e17	1.012637
12	0x3f807298	1.0034971
13	0x3f7fa0c1	0.99854666
14	0x3f7fd078	0.99927473
15	0x3f7cb9ac	0.9872081
16	0x3f79d291	0.97586924
17	0x3f771020	0.9650898
18	0x3f806cf3	1.0033249
19	0x3f81559a	1.0104249
20	0x3f7ee069	0.9956117
21	0x3f80331a	1.0015595
22	0x3f7c0cc0	0.98456955
23	0x3f800fb4	1.0004792
24	0x3f7ee524	0.9956839
25	0x3f7b55d9	0.9817787
26	0x3f7a6dfb	0.97824067
27	0x3f78fa9d	0.97257406
28	0x3f801945	1.0007712
29	0x3f7ff3d6	0.9998144
30	0x3f7eecbe	0.9957999
31	0x3f7fb69a	0.99888
32	0x3f7bc0ef	0.9834127
33	0x3f7ff4c4	0.9998286
34	0x3f7eadd1	0.9948397
35	0x3f835cfe	1.0262754
36	0x3f86c415	1.052859
37	0x3f88a3a9	1.0674945
38	0x3f7d55d9	0.9895912
39	0x3f77f1b4	0.96853185

indicator_time_mixing.1.indicator_mixing.ln.bias f4 [8, 5]
0	0x3c453b93	0.012038129
1	0x3b820fac	0.0039691534
2	0x3b7a503b	0.0038194794
3	0xbb8035f6	-0.0039126826
4	0x3bee27e2	0.007267938
5	0x3cb2cc8c	0.021826051
6	0x3b001e2f	0.001954924
7	0x3c8d731b	0.0172668
8	0xbc0328c2	-0.008005323
9	0xbc944fae	-0.0181044
10	0x3a9cb9d4	0.0011957237
11	0x3bbba71a	0.005726707
12	0xbbf3fd41	-0.0074459617
13	0x368f77f6	4.2756974e-06
14	0xbb6aadb0	-0.0035809092
15	0x3c42d954	0.011892635
16	0xbbb92c06	-0.005651
17	0xba010259	-0.00049213093
18	0x3aaf561b	0.0013377102
19	0x3c41575c	0.011800613
20	0x3ba00ad4	0.0048841033
21	0x3b2067c9	0.0024475923
22	0xbbe3547d	-0.006937562
23	0x3a6df57b	0.0009077412
24	0xbb7c812f	-0.0038529148
25	0x3c8bfc38	0.01708804
26	0xbbb32213	-0.0054667084
27	0x3c060572	0.008180009
28	0x3a305e33	0.0006727904
29	0x3c24ee2d	0.010066551
30	0x3c120a3e	0.008913575
31	0x3ae6d568	0.0017611207
32	0xb980f8a7	-0.00024599323
33	0x3907557d	0.0001290645
34	0xbb736ba6	-0.003714302
35	0xbcbeebe5	-0.023305843
36	0x3baf0023	0.0053405925
37	0xbb5dca2c	-0.0033842428
38	0xbb123f79	-0.0022315665
39	0xbc5a9e30	-0.013343379

indicator_time_mixing.1.time_mixing.ln.weight f4 [8, 5]
0	0x3f7498d3	0.9554569
1	0x3f7653ca	0.962216
2	0x3f841816	1.031985
3	0x3f72f192	0.9489986
4	0x3f79bb85	0.9755176
5	0x3f7fe1fa	0.9995419
6	0x3f7fc785	0.9991382
7	0x3f7fe961	0.9996548
8	0x3f7d19fc	0.98867774
9	0x3f8007ac	1.0002341
10	0x3f7fad35	0.9987367
11	0x3f7f7702	0.99790967
12	0x3f801d67	1.0008973
13	0x3f7ed7bc	0.99547935
14	0x3f7eebea	0.99578726
15	0x3f7d6c86	0.9899372
16	0x3f7db586	0.9910511
17	0x3f816ba7	1.0110978
18	0x3f7f17ea	0.99645865
19	0x3f7d6c8d	0.9899376
20	0x3f7d801d	0.9902361
21	0x3f7deb58	0.9918723
22	0x3f80eec8	1.007287
23	0x3f7d7a66	0.9901489
24	0x3f7d4c9c	0.9894502
25	0x3f7fe2dd	0.9995554
26	0x3f7fad61	0.9987393
27	0x3f7ff889	0.9998861
28	0x3f7f43ab	0.9971263
29	0x3f7f1262	0.99637425
30	0x3f7f9a84	0.9984515
31	0x3f7f038c	0.9961479
32	0x3f8090a5	1.0044142
33	0x3f7f8fd0	0.99828815
34	0x3f7f62f8	0.9976039
35	0x3f7dd945	0.9915965
36	0x3f7d7190	0.9900141
37	0x3f81741a	1.0113556
38	0x3f7c1d61	0.9848233
39	0x3f7e151f	0.9925098

indicator_time_mixing.1.time_mixing.ln.bias f4 [8, 5]
0	0x3d0a8be4	0.033824816
1	0xbd0f4d2e	-0.034985714
2	0x3d11227b	0.035433274
3	0x3d0c363e	0.034231417
4	0x3d00bc77	0.031429734
5	0x3b471427	0.0030377002
6	0xbb486cc0	-0.0030582398
7	0x3b20c633	0.0024532198
8	0x3b39dc3f	0.0028360037
9	0x3bd05b43	0.0063585355
10	0x3ac7fe5c	0.00152583
11	0xbacd8209	-0.0015679012
12	0x3a90ca8e	0.0011046694
13	0x3ab46f95	0.0013766164
14	0x3b879f78	0.004138883
15	0x3c09fdab	0.008422296
16	0xbc0ec020	-0.008712798
17	0x3c132b9f	0.008982568
18	0x3c0af527	0.0084813
19	0x3bcd5b8e	0.0062670177
20	0x3bf7c31d	0.007561101
21	0xbbfb9468	-0.0076776035
22	0x3be9d1ae	0.0071355915
23	0x3bf23bbb	0.0073923743
24	0x3c26bca1	0.010176809
25	0x39778a3f	0.00023607256
26	0xb97b92ab	-0.00023991863
27	0xb97084da	-0.00022937675
28	0x38b66dcd	8.698888e-05
29	0x3b40ecce	0.0029438022
30	0x3b3b74c8	0.0028603543
31	0xbb3e6a9c	-0.0029055243
32	0x3b5e09ef	0.0033880433
33	0x3b4404a4	0.0029909993
34	0xb8c525cf	-9.4007344e-05
35	0x3c76e675	0.015069594
36	0xbc7519d3	-0.01495977
37	0x3c69a490	0.014260426
38	0x3c7bfa4d	0.015379501
39	0x3c981eea	0.018569428

indicator_time_mixing.1.time_mixing.U1.1 f4 [1, 2]
0	0x3b82dbd4	0.0039934907
1	0xba90594c	-0.0011012941

indicator_time_mixing.1.time_mixing.U1.2 f4 [1, 3]
0	0xbba103f1	-0.0049138
1	0xb9d842f6	-0.0004124862
2	0x3b60c8ad	0.00342993

indicator_time_mixing.1.time_mixing.U1.3 f4 [1, 4]
0	0xbc43d7fd	-0.011953351
1	0xbaec28ef	-0.001801757
2	0x3bc3a429	0.005970497
3	0x3be2c66c	0.0069206264

indicator_time_mixing.1.time_mixing.U1.4 f4 [1, 5]
0	0xbb418bcd	-0.002953279
1	0xb935cb52	-0.00017337248
2	0x3ba0c09b	0.004905773
3	0xba754273	-0.000935591
4	0x3b576bac	0.0032870574

indicator_time_mixing.1.time_mixing.U1.5 f4 [1, 6]
0	0xbc671115	-0.014103194
1	0x3a3a00c5	0.00070954516
2	0x3c811d11	0.01576093
3	0xbc7833b9	-0.01514905
4	0xba600efc	-0.0008547155
5	0x3badbce5	0.005302059

indicator_time_mixing.1.time_mixing.U1.6 f4 [1, 7]
0	0xbb200961	-0.0024419653
1	0xbbe4f6d6	-0.006987433
2	0xbc341e44	-0.010993544
3	0x3c8aad32	0.01692829
4	0xb8f70a90	-0.00011779845
5	0xbc2a03eb	-0.010376911
6	0x3c65c0ed	0.014023048

indicator_time_mixing.1.time_mixing.U1.7 f4 [1, 8]
0	0x3c5289ff	0.012850284
1	0x3c51b0e6	0.0127985235
2	0xbc89042a	-0.016725618
3	0xbbc1b2d7	-0.005911212
4	0xbab2b12f	-0.0013633127
5	0xbb100a68	-0.002197886
6	0x3c0ae13a	0.00847655
7	0xbb7b6ce9	-0.0038364476

indicator_time_mixing.1.time_mixing.U2.1 f4 [1, 2]
0	0x3d08da92	0.03341157
1	0xbc6323c0	-0.013863504

indicator_time_mixing.1.time_mixing.U2.2 f4 [1, 3]
0	0x3bdb1626	0.00668599
1	0x3b92c5b9	0.004479137
2	0x3aa5f180	0.0012660474

indicator_time_mixing.1.time_mixing.U2.3 f4 [1, 4]
0	0x3c03c2db	0.008042063
1	0xba6090fe	-0.00085665274
2	0xbc03712c	-0.008022588
3	0xbc901c81	-0.017591717

indicator_time_mixing.1.time_mixing.U2.4 f4 [1, 5]
0	0x3cbfe759	0.023425745
1	0xbb560fc1	-0.0032663199
2	0xbad24a9b	-0.0016043963
3	0x3a95d35c	0.0011430788
4	0xbc8af202	-0.016961101

indicator_time_mixing.1.time_mixing.U2.5 f4 [1, 6]
0	0xbb6e6324	-0.003637501
1	0xbc770b6e	-0.015078409
2	0xba50e5e4	-0.00079688267
3	0xbc1383f4	-0.009003628
4	0xbc1158f3	-0.008871305
5	0x3bff6912	0.007794508

indicator_time_mixing.1.time_mixing.U2.6 f4 [1, 7]
0	0x3b3bda39	0.0028664006
1	0xbbda5df7	-0.0066640335
2	0x3b9ce32c	0.004787823
3	0xbbc515af	-0.006014548
4	0xbc241ddd	-0.010016886
5	0x39d93fbe	0.00041436957
6	0x39731f95	0.00023186051

indicator_time_mixing.1.time_mixing.U2.7 f4 [1, 8]
0	0x3be094b0	0.0068536624
1	0xbc7d8511	-0.01547362
2	0xbb9b4307	-0.004738215
3	0xbc158410	-0.009125724
4	0x3b880041	0.004150421
5	0x3be3ffdf	0.0069579924
6	0xb950b96f	-0.00019905505
7	0xb8be6f8c	-9.080683e-05

indicator_time_mixing.1.fc.weight f4 [1, 5]
0	0x3dc9b196	0.09848325
1	0xbdb7822f	-0.089603774
2	0x3dc75b32	0.09734191
3	0x3ec1f56b	0.37882552
4	0x3b941c53	0.004519978
