weights/stockmixer_L16_H64_M40_K4_E100_s2.pt (torch, 630154 bytes, 93 tensors)

indicator_time_mixing.0.indicator_mixing.W1 f4 [5, 64]
00000000: e9d8 82bf 43e2 763f 0ff9 a7bf 6d97 8cbf
00000010: d8fe 9abf 5f35 923f 1be1 85bf 4afc 2dbe
00000020: ba99 69bf aa1a e83e 5610 14bf f551 5fbe
00000030: 78b4 873f 4a18 4ebf 5e5c 4cbe 408d 2fbf
00000040: 3bcb bfbf c654 febe 2391 52bf d838 0b3f
00000050: 487d 933c ec33 31bd 719d 8e3f c3c6 533f
00000060: b96c e53e ffc1 edbe 896d e63d fcb9 3140
00000070: 6d34 f23d 466b 893f dda5 a33e 3dbf d43f
00000080: cc27 49bf 5ada eb3f 6446 b6be 183d aebe
00000090: 72cb a1bf 532c f9bc 207e 7dbe 90db 0bbf
000000a0: 11fb 933f e6c2 cd3e 2ca8 99bf 61ff 47bf
000000b0: d5e1 6fbf 606a 5ebf e8c2 77bf 37c0 92bd
000000c0: 1a63 80bf e706 9d3e 5501 ccbf 5d8d f23f
000000d0: 90f0 993d 9389 c53f 3fff 18bf 77e8 913f
000000e0: b9b5 3f3f 004e 97bf 9d4d 0fbf f9a7 e9be
000000f0: d17d f8bf f0d1 303f 6813 43bf a003 e6bd
00000100: a3aa 923f 81fb 1cbf 07a1 bbbf e0d4 5abe
00000110: c986 60bf a7f6 ce3f ed0e 72be 5418 683f
00000120: 241a 0640 3f58 77bf 69ff 3a3e 86a5 03be
00000130: 2b5c 77be 3405 9b3e a1df 6b3e 4f42 f13f
00000140: 2879 593f da2d 453d 27ba 50bd 4d0c 543f
00000150: b38c 093f f840 48bf a7ec c83e e3f2 d33d
00000160: 5ab6 0540 f9df 893f f37c 8d3c f2a0 913f
00000170: d989 bebf 1a2b 82be 919e 84bf d98b d2bf
00000180: c3e6 c63d 69cc b5be 4979 483e 3b7a 163f
00000190: 89a8 633f 59ba 70bf 76b1 323e 2af2 953f
000001a0: 2783 01bf 4dc1 0dbf 0f8f 08bf 3f3e 29bf
000001b0: 37fc ab3c 7c97 f4be 08c1 8bbd 5857 9e3f
000001c0: 5168 0a3f 819c 5abe 595f 163f cb7e 413f
000001d0: fe32 053f 50bb b73f bf10 01bf 2aec 723f
000001e0: 01ff 1ebf c3cb 8dbf 460d 883e 382b 3dbf
000001f0: 39dd 67bf de3c e83f a087 823f f8a1 b7bf
00000200: 40a2 a4bd 3d1a 8c3e 4fc5 183f 6dcc b6bf
00000210: 03ea 523f e965 81be 9ee4 333f 2bab 14be
00000220: 6cf7 18be 3f79 7f3b df96 36bd 7150 a83e
00000230: a954 993d 1346 4b3e 664b b2bf a523 bcbf
00000240: 90d7 823f 3bb0 f4bf 687b 2fbe 7393 dc3f
00000250: a012 0e40 ee66 29bf 4c16 a43f 9c90 babe
00000260: 8368 123f a07d e73c a951 8c3e 28a1 583f
00000270: 158f 2240 5cf3 a63b 2b3a a4be 93fc 56bf
00000280: 7447 6e3c e536 c13f 8f96 a73e 1f4c a5bd
00000290: 6aec 023f 7ae2 c4bf aee3 273f 91fc a3bf
000002a0: 256f 1a3f 445b 9b3f 896b 9d3f 14f4 91bc
000002b0: e98c 8abf a869 843f 7f5f 433e b670 2b3b
000002c0: d35d b13e 319a a83e 209f 67bf f04c 2fbf
000002d0: da9a 173f 8bec 06be afd2 11bf 108a a03f
000002e0: 45a9 ab3d 368b 953f 897e e53f 9a50 b6bf
000002f0: fd0f 7ebe 94f7 60bf 65d7 b8bf 5024 203f
00000300: 2a75 773f a7e5 283f 8118 96be c4ec 403f
00000310: 8492 a4bf 2046 453e 1ddc 09bf c3e2 96bf
00000320: b5a4 d63f 6884 c13f 1ff3 533f d5b7 cf3e
00000330: 99d2 1d3f b47d 4dbf b3c3 babf 715c 0440
00000340: 1de3 68bf ed22 e5be 9930 5cbe 85d4 7f3f
00000350: eb76 98bf cc3c ee3e 129d 103f 366d 503f
00000360: 9d17 f4be cbae 4d3f 0c60 d1be 6f11 62be
00000370: f98b 92be 2152 1d3f 6d95 1fbe c1b4 97bf
00000380: 0e24 51bf bcde 38bf 7a65 11be 4e3f 1ec0
00000390: 2ae2 80bf fd99 b0be 1b3b a2bd 8b11 353e
000003a0: 749f 46bf 39fd 463d 20f5 423f fc75 fb3d
000003b0: 8ecf a93f 6f69 1a3f 83ae 9a3f 7118 ad3f
000003c0: fb7b 60be 3d4d 253f bba1 8a3e 32a0 33be
000003d0: 219f c5bf 9384 bd3f c340 aa3f d5f8 8a3e
000003e0: 259c 473f c734 c03f 3fd5 d63e fa82 4f3d
000003f0: 5b90 c0bf c6f2 823e 7463 953f b3ad bdbf
-1.0222446 0.96439 -1.3122882 -1.0983711 -1.2109022 1.1422538 -1.0459322 -0.16990772
-0.91250193 0.45332843 -0.57837427 -0.21808608 1.060195 -0.8050581 -0.1995711 -0.68574905
-1.4983896 -0.49674052 -0.8225271 0.5438361 0.018004075 -0.043262407 1.1141797 0.8272516
0.4480951 -0.4643707 0.11251361 2.7769766 0.11826406 1.0735862 0.3196248 1.6620861
-0.7857635 1.8426011 -0.3560058 -0.34030986 -1.2640212 -0.030416643 -0.24755144 -0.546319
1.1560994 0.40187758 -1.2004447 -0.7812405 -0.9370397 -0.86881065 -0.9678178 -0.07165568
-1.0030243 0.3066933 -1.5937907 1.8949391 0.07516587 1.5432609 -0.59764475 1.1399068
0.7488666 -1.1820679 -0.55977803 -0.45635965 -1.9413396 0.6907034 -0.76201487 -0.1123116
1.1458324 -0.61321265 -1.4658517 -0.21370268 -0.87705666 1.6169022 -0.23638506 0.9066212
2.0953455 -0.9661903 0.18261494 -0.12856111 -0.24156253 0.30277407 0.23034526 1.8848361
0.84950495 0.04813943 -0.05095878 0.8283127 0.53730315 -0.78224134 0.3924305 0.10349061
2.0892549 1.0771476 0.017271494 1.1377242 -1.4885818 -0.2542351 -1.0360891 -1.6448928
0.09711983 -0.35507515 0.19577517 0.5878026 0.8892904 -0.94034344 0.17450508 1.1714528
-0.5059075 -0.5537308 -0.5334329 -0.66110605 0.020994289 -0.47771823 -0.06823927 1.2370405
0.54065424 -0.21348764 0.5873924 0.75584096 0.5203093 1.4354038 -0.5041618 0.9489161
-0.62107855 -1.1077808 0.26572627 -0.7389407 -0.90571934 1.8143575 1.019764 -1.4346304
-0.08038759 0.27363768 0.5967607 -1.4281136 0.82388324 -0.25273064 0.7027072 -0.1451842
-0.14938134 0.003898218 -0.044577476 0.32873872 0.07486851 0.1985095 -1.392926 -1.4698378
1.0222034 -1.9116281 -0.1713692 1.7232498 2.2198868 -0.66172683 1.2819304 -0.36438453
0.5719072 0.028258145 0.27406052 0.84620905 2.539983 0.0050949287 -0.3207563 -0.8397915
0.014543403 1.5094877 0.32732055 -0.080711596 0.5114199 -1.5381615 0.65581787 -1.2811452
0.60325843 1.2137227 1.2298442 -0.01781658 -1.0824252 1.0344744 0.19079398 0.002615971
0.34641895 0.3293014 -0.9047718 -0.6847677 0.5922066 -0.13176171 -0.569621 1.2542133
0.08381895 1.1683109 1.792924 -1.4243348 -0.24810787 -0.87877774 -1.4440733 0.6255541
0.96663153 0.6597542 -0.2931557 0.75361276 -1.2857213 0.19265032 -0.5385149 -1.1787952
1.6769015 1.5118532 0.8279285 0.4056994 0.6164947 -0.8026993 -1.4590973 2.0681422
-0.9097155 -0.4475321 -0.21502914 0.99933654 -1.1911291 0.4653076 0.5648967 0.8141664
-0.47674266 0.8034484 -0.4089359 -0.22076963 -0.28622416 0.61453444 -0.15584345 -1.1852037
-0.8169564 -0.72214866 -0.14198866 -2.4726138 -1.006902 -0.34492484 -0.0792143 0.17682473
-0.77587056 0.048581336 0.7615528 0.12278363 1.3266466 0.6031713 1.2084507 1.3523084
-0.21922295 0.6457098 0.27076516 -0.17541578 -1.5439187 1.4806083 1.3301014 0.2714297
0.7797263 1.5016106 0.4195957 0.05066202 -1.5044054 0.25575846 1.1670976 -1.4818634

indicator_time_mixing.0.indicator_mixing.W2 f4 [64, 5]
00000000: e821 64bf a40e 253f 9bb7 7e3f 3135 bcbf
00000010: 2948 febe 0da1 1c3d d033 693f 7159 62bf
00000020: 1a5b 57bd 5288 4fbe d9ee 933f 55dc 5b3d
00000030: 05c5 a8bf 720a 8cbe 612b 0f3d b367 dcbd
00000040: 1ff6 af3f 3e18 a93b fb1d c53f 22b2 87bf
00000050: 44e7 16be 1d28 053e fa76 753d 3b24 f2bf
00000060: bc11 ccbf 9c60 ea3e b039 533f d415 5cbe
00000070: f85f 1740 bd47 44be 7b88 a53f 8795 2fbf
00000080: 063a a23e e103 7d3f 4a81 4cbc ba57 7cbf
00000090: 3ceb aebf 6a48 af3d 495d e7bf e5c5 92be
000000a0: c2f8 9bbd 6217 203f f3b8 1740 8fda b13f
000000b0: ea4b 4ebf af21 2ebf e02d b7bf e242 313f
000000c0: f683 673e eb64 863e 644f 3ebf ba57 a13e
000000d0: dbb9 833d dc54 2f3f dc22 de3e 1655 4fbf
000000e0: ecd0 c73e ab46 653f 8652 723e 3fef 14bf
000000f0: a72e edbf 0c0a 8a3f e927 0c3f e3a8 babf
00000100: 2569 903f 13e2 adbf 020c 873f 62b5 c83e
00000110: b097 09bf 0e7a 873f c416 523e b4ea 613e
00000120: 57ee 663e 406c b6be 43af b3bd 7c37 253f
00000130: 2f56 f3be 5b7b e43e c85b 09bf 68ed 12c0
00000140: 1b07 503f ae41 a5bf 5b09 363e 8978 3340
00000150: a48a fabd 3684 a9bf 20be 28bf 7f7d 5ebe
00000160: 17e7 54be f582 67bf 286b 9d3f dbe4 043f
00000170: d3e8 ad3d 46c2 863f b070 413e c516 813e
00000180: d213 6ebf 7129 ef3d 586f fcbc 896d 4cbf
00000190: a7dd d3bf dcb9 3d3e 0f7b 0140 d818 683f
000001a0: 04d4 86bf 1a7d f73f 4b53 d4be 1172 94be
000001b0: 3616 d03f 21f8 96bd bd9a 2a3f 2241 d3be
000001c0: 5821 ecbe 6fb5 69bf 730b c3be 66b8 943f
000001d0: 9aa6 0240 9498 1a3f 14ed c73e 1d5c 29bf
000001e0: 995b eb3f b2ea 043f 6a25 59bf 1452 05c0
000001f0: 4e91 063f 241f afbe f6c7 e0be 8e3c 04be
00000200: 584b 8abe 1735 14bf 1ea5 5e3d d47a b73f
00000210: 8f4e 79bf 218c 34bb 9590 8c3f 7428 4bbf
00000220: 4b00 f43c 5485 62be fe2d 843f 2457 34bf
00000230: f64d 54be c28b 71bf b0dc 1c3f 5083 813f
00000240: 250f 203f 171b 173f e3b1 96bf 6fe9 09bf
00000250: 9806 613f c8f3 79bf ded9 ce3e b9a3 abbf
00000260: f0bb aebf 8f51 683e d0e6 783e 8fd3 e93e
00000270: 24e6 843e a4fe 3d3f 5018 89be 27c9 12bf
00000280: 9354 87bf 5115 1c40 56e1 7ebd bd41 67bf
00000290: 0847 ff3e ade5 963f b903 ff3f 9b97 983f
000002a0: d5e9 f23e 2586 36bf ce57 8d3f e81d 0ec0
000002b0: 9fe7 9cbe 9b68 783f 8753 5f3f 6a67 553f
000002c0: b8a8 293c 7692 47be d1d8 843b 3ae5 5f3f
000002d0: 1c02 1fbf 017f 1c40 ae9c aa3f fb95 2a3f
000002e0: d47b 663f 3195 b2be 6963 133f 9839 d23e
000002f0: 1876 c33f bc10 13bf 1afa 6ebf da36 c53e
00000300: 4cbb 77bf bcc6 403e b74f 0dbf 24bd 8a3e
00000310: 0ee8 a23e 9026 eb3e 6167 2540 66c5 b93f
00000320: b313 3240 3d03 28bf 8596 223f 0ec1 8b3d
00000330: ac26 0b40 86fd 05c0 89d8 413f f22d 423c
00000340: 442d c33f 1fb6 6b3b 596e dfbe 81cd 953f
00000350: f21a b2bf 7ebb db3e b101 a43f 25ce 15c0
00000360: 32d0 e03f a327 1bbf 2293 993f 46c7 3040
00000370: 3da6 8f3e f110 70bf b288 5e3f 172c fa3f
00000380: e875 283f f317 203f 31b6 653f fc29 d6bf
00000390: 21c2 0cbf bcbf 59bf 9949 45bf 0f99 95bf
000003a0: adf9 16bf a430 cabf bd89 923f fdb6 143d
000003b0: 8848 ffbf 98a5 bdbf b186 f13c 8569 9b3e
000003c0: af04 263f b2ee 0ebf f5fa cc3f 2c05 ebbc
000003d0: 7504 313e cbf7 83bd a5e2 90bf 9359 163f
000003e0: e8a6 b33f 72e7 22bf f372 623f ec50 01bf
000003f0: 2962 b5be 8648 a33f 7550 2dbf 77c0 d0bf
-0.89114237 0.64475465 0.9949891 -1.4703733 -0.4966443 0.038239527 0.91094685 -0.88417727
-0.052577116 -0.20266846 1.1557266 0.053676922 -1.3185126 -0.2735172 0.03495348 -0.107619666
1.3746985 0.0051603606 1.5399774 -1.0601237 -0.14736658 0.13003583 0.059927918 -1.8917307
-1.5942912 0.45776832 0.825099 -0.21492702 2.3652325 -0.19167991 1.2932276 -0.68587536
0.31684893 0.98834044 -0.012481997 -0.9857136 -1.3665538 0.08558734 -1.8075343 -0.28666607
-0.07615806 0.6253568 2.3706634 1.3894824 -0.80584586 -0.6802015 -1.4310875 0.6924268
0.22608933 0.2624887 -0.7433989 0.31512243 0.064319335 0.6848886 0.4338597 -0.80989206
0.39026582 0.89560956 0.23664293 -0.5817756 -1.8529862 1.0784316 0.547484 -1.458279
1.1282088 -1.3584617 1.055054 0.39200884 -0.5374708 1.0584123 0.20516497 0.22062188
0.22551857 -0.35629463 -0.08773663 0.6453779 -0.4752669 0.44625363 -0.5365567 -2.2957401
0.8126084 -1.2910669 0.17777006 2.804232 -0.12233475 -1.3243473 -0.6591511 -0.2172756
-0.20791279 -0.904342 1.2298326 0.51911706 0.08491673 1.0528038 0.18890643 0.25212684
-0.92998993 0.11677826 -0.030814812 -0.7985464 -1.6552018 0.18527931 2.023136 0.9066291
-1.0533452 1.9335053 -0.41469797 -0.28993276 1.6256778 -0.073715456 0.6664236 -0.4126063
-0.4611919 -0.9129247 -0.38094673 1.1618774 2.0414186 0.60389066 0.39048064 -0.6615618
1.8387328 0.51920617 -0.84822714 -2.0831347 0.5256547 -0.34203446 -0.43902558 -0.12913725
-0.27010608 -0.5789351 0.054356687 1.4334359 -0.97385496 -0.0027549344 1.0981623 -0.793586
0.029785296 -0.22121173 1.0326536 -0.70445466 -0.20732865 -0.9435388 0.6127424 1.0118198
0.6252311 0.5902571 -1.1773037 -0.53871816 0.87900686 -0.97637606 0.40400594 -1.3409339
-1.3651104 0.22687362 0.24306798 0.4566922 0.25956833 0.74216676 -0.2677636 -0.57338184
-1.0572685 2.438801 -0.062226616 -0.90334684 0.4985888 1.1788841 1.9923011 1.1921266
0.47444025 -0.7129844 1.1042421 -2.2205753 -0.30645463 0.97034615 0.8723683 0.8336092
0.010355167 -0.19489464 0.004054167 0.87459147 -0.62112594 2.4452517 1.3329065 0.666351
0.90032697 -0.3487945 0.5757356 0.41059566 1.5270414 -0.5744741 -0.93350375 0.3851841
-0.9677017 0.18825811 -0.5519976 0.27097428 0.3181767 0.45927858 2.5844347 1.4513366
2.7824523 -0.6562994 0.63510925 0.06823932 2.1742353 -2.0935988 0.7572103 0.0118517745
1.5248189 0.0035966707 -0.43638876 1.170334 -1.3914473 0.42916483 1.2813016 -2.340707
1.7563536 -0.60607356 1.1998026 2.7621627 0.28056517 -0.9377585 0.8692733 1.9544705
0.6580491 0.62536544 0.8973113 -1.6731563 -0.5498372 -0.8505819 -0.77065426 -1.1687335
-0.58974725 -1.5796094 1.1448284 0.036307324 -1.994401 -1.481616 0.029483171 0.30353943
0.64850897 -0.5583297 1.6014086 -0.02868899 0.17286856 -0.06443747 -1.1319166 0.5873043
1.4035311 -0.6363441 0.8845665 -0.505141 -0.35426453 1.2756507 -0.6770089 -1.6308736

indicator_time_mixing.0.indicator_mixing.ln.weight f4 [16, 5]
00000000: a993 803f 8a11 7d3f b5c7 803f 31c1 7d3f
00000010: 7836 8b3f f4a8 7b3f a14a 863f 057c 723f
00000020: fd59 743f 979a 6b3f 9431 7e3f 9e5b 863f
00000030: 2bcf 7e3f 75bb 813f 476d 5b3f c56b 7f3f
00000040: 8931 833f bbc2 7c3f 3f23 833f a297 a43f
00000050: d92b 833f 2b2b 813f 2910 813f cb44 843f
00000060: b1bc 933f 779c 7d3f 5fef 7f3f 663d 7e3f
00000070: 2b26 753f 442b 843f 1d7d 7e3f e74c 7a3f
00000080: d797 813f 9c9c 803f c1e1 853f 5163 803f
00000090: 5216 703f e9ac 873f 6a38 813f 332f 6f3f
000000a0: 18a4 7e3f 26a2 7e3f 750b 813f e339 733f
000000b0: 0ddd 923f b634 823f 856a 833f 7fa0 813f
000000c0: 83e2 733f f151 703f 295f 7b3f 364f 853f
000000d0: 12d4 763f 4c87 7b3f fde2 5a3f 78e3 813f
000000e0: 5df2 733f 1f66 853f d2b3 7a3f 1a8c 7b3f
000000f0: 5505 803f a2ac 733f 2557 833f 67e8 7c3f
00000100: d218 853f 9651 823f 2a24 813f db6d 763f
00000110: 64ae 683f 6f72 6c3f 4752 7b3f ba6b 833f
00000120: 5df3 803f d3d8 883f b5b9 a93f 347b 7a3f
00000130: 2307 813f 687a 803f eeda 833f c924 973f
1.0045062 0.9885489 1.0060946 0.9912291 1.0875998 0.98304677 1.0491525 0.9472049
0.9544981 0.9203276 0.992944 1.0496709 0.99534863 1.0135332 0.8571362 0.9977382
1.0249492 0.98734635 1.0245131 1.2858775 1.0247756 1.0091299 1.0083057 1.0333494
1.1541959 0.9906687 0.99974626 0.99312437 0.95761365 1.0325704 0.9940966 0.97773594
1.0124463 1.0047793 1.045952 1.0030309 0.9378406 1.0599643 1.0095341 0.93431395
0.9946914 0.9946617 1.0081621 0.95010203 1.1473709 1.0172336 1.0266882 1.0127105
0.95267504 0.9387503 0.9819208 1.0414798 0.96417344 0.9825332 0.85502607 1.0147543
0.9529169 1.042179 0.97930634 0.98260653 1.0001627 0.9518529 1.0260969 0.9879212
1.03982 1.0181148 1.0089161 0.96261376 0.908911 0.9236211 0.9817242 1.026725
1.0074269 1.069117 1.3259798 0.97844243 1.0080303 1.0037355 1.0301187 1.1808101

indicator_time_mixing.0.indicator_mixing.ln.bias f4 [16, 5]
00000000: c124 bcbb fb08 333c 14cb e83b 9944 4dbb
00000010: c5a4 893d 8a1e 2e3c 47e4 efbc 99c1 48bd
00000020: ef80 0d3d 69a3 92bd 9c4d a43b 0722 bcbc
00000030: b1f2 61bb 50c0 ad3c d66b c4bd 3061 25bb
00000040: 1a5a 09bd b3b8 c2bb 3355 98bc 48b9 743e
00000050: 536c dcbc 373d 29bc 888f 463c 455d 9fbc
00000060: aab4 bd3d ee57 2fbb c7a5 c1bb d2ed 713c
00000070: 52b0 08bc 8b54 32bd d095 9d3b 634f 833c
00000080: c430 773c 022b 84bc 9d56 293d e896 3dbb
00000090: 6af2 6f3d f1cc 553d 0263 f3bc c5cf b33c
000000a0: 880c 1abc ad8f ed39 e932 e33c a8a5 a3bc
000000b0: 7e3d a83d e63e abbc a28f d13c fda6 c8bb
000000c0: 11a1 c43c ce13 923c bd05 513c 8d70 8dbc
000000d0: 5bd5 15bd 2c51 ab3c 54e2 71bd 78a7 5dbc
000000e0: ad7b 443d 9647 243d 562d b4bc 713b 873c
000000f0: 06f6 613b e551 2d3d 6a13 c93c e417 c2bc
00000100: 1ae9 703d 4bb5 87bc 496d 8c3c 5b41 29bd
00000110: d829 003d 807d 01bd 33f2 3b3c ee2f d7bc
00000120: 77de 2a3c 8293 e9bc d7d5 8d3e a29a 803c
00000130: 6e40 4fbc f511 fc3b 293b 87bc cdc3 593e
-0.005741686 0.010927434 0.007104287 -0.0031321405 0.067208804 0.010627398 -0.029283656 -0.049012754
0.03454679 -0.07160074 0.0050141346 -0.022965444 -0.003447693 0.021209866 -0.095908806 -0.002523493
-0.033533193 -0.005942428 -0.018595314 0.23898804 -0.026907122 -0.010329536 0.012119181 -0.019453654
0.092629746 -0.002675529 -0.005909655 0.014766173 -0.008342819 -0.043537658 0.004809119 0.016029065
0.01508731 -0.016133789 0.041342366 -0.0028929058 0.058580793 0.0521974 -0.029710297 0.021949658
-0.009402402 0.0004531121 0.027734237 -0.019976452 0.08214854 -0.020904016 0.025581185 -0.006123422
0.024002584 0.01783171 0.012757716 -0.017265582 -0.036580425 0.02091273 -0.059053734 -0.013528697
0.04796951 0.040107332 -0.021994274 0.016507836 0.0034478917 0.04231443 0.02454539 -0.023693033
0.058816053 -0.01656594 0.017141955 -0.041322093 0.031289905 -0.031613827 0.011471319 -0.026267972
0.010429016 -0.02851272 0.2770221 0.015698735 -0.012649639 0.0076925703 -0.016507702 0.21266098

indicator_time_mixing.0.time_mixing.ln.weight f4 [16, 5]
00000000: f042 713f ca4e 753f 943e 903f bee4 853f
00000010: c2fa 763f 9d5e 733f a46d 723f 57aa 913f
00000020: e14f 8c3f 59bb 5f3f fbfc 5b3f 33ed 5e3f
00000030: 06f5 923f ee5d 8d3f 08fc 693f 84d3 723f
00000040: 464f 763f 7968 8c3f 8c1e 863f 7e75 783f
00000050: 7388 6b3f 5566 723f 8af7 8a3f 5283 8b3f
00000060: a686 773f 4d2a 7f3f f3e8 833f b3a7 a93f
00000070: 36e8 873f e8b1 773f 0a44 6c3f 2f19 743f
00000080: 8367 8e3f e7ba 8a3f efd0 753f 827e 723f
00000090: 4c49 753f d488 8d3f c93c 823f d740 733f
000000a0: 8c67 823f febb 853f 9106 a43f 44de 8a3f
000000b0: d6c2 743f 3bbf 663f a8cb 6d3f 81a2 903f
000000c0: 27df 8a3f e815 6e3f a4ec 6a3f 7dea 6b3f
000000d0: 15d8 8b3f a54a 8b3f 2214 663f acc4 6c3f
000000e0: 73df 703f 44ba 953f 9b5e 873f e2c9 6e3f
000000f0: fbf2 6c3f e998 6e3f c1e9 8a3f 2e4f 8a3f
00000100: f075 6b3f b4d0 763f ac0d 773f 5390 843f
00000110: 87d4 823f 0e07 783f aef9 803f 9000 803f
00000120: a107 7f3f cc83 813f 43db 7a3f b2f5 7d3f
00000130: c0a0 7e3f 3990 803f 8c63 803f 8fcd 7e3f
0.94242764 0.9582335 1.1269097 1.0460432 0.96476376 0.95066243 0.9469855 1.1380109
1.0961877 0.87395245 0.8593289 0.8708069 1.1481025 1.104429 0.91400194 0.94854
0.9621471 1.0969383 1.0478072 0.9705428 0.9200508 0.94687396 1.0856793 1.0899451
0.9668983 0.9967392 1.0305465 1.3254303 1.061774 0.9675584 0.9229132 0.9535093
1.1125339 1.0838288 0.9602193 0.94724286 0.9581497 1.1057382 1.01748 0.9502081
1.018785 1.0447996 1.2814504 1.084908 0.95609796 0.90135545 0.9288888 1.1299592
1.0849351 0.93002176 0.91767335 0.92154676 1.0925318 1.0882155 0.8987447 0.924876
0.94090956 1.1697469 1.0575746 0.932768 0.9255826 0.9320207 1.0852586 1.0805414
0.91976833 0.96412206 0.96505237 1.0356544 1.0221108 0.96885765 1.0076196 1.0000172
0.99621016 1.0118346 0.97990817 0.99203026 0.99464035 1.0044013 1.0030379 0.9953241

indicator_time_mixing.0.time_mixing.ln.bias f4 [16, 5]
00000000: ca3c 22bd 21b9 27bd 0f8a 24bd acc2 e6bc
00000010: 471a 263d 5691 95bd 507e 97bd 9ccc ecbd
00000020: 5ee7 ccbd 6ad1 1c3e 5787 e3bd 9c4c dfbd
00000030: 114d e0bd 6866 dbbd 0387 dd3d 1bec 24bd
00000040: 6189 2cbd 7f84 2cbd ddce edbc 3564 303d
00000050: 3a6e 60bd 60b3 69bd 68b8 6abd 3bbd 2cbd
00000060: 64e8 6e3d 4713 1bbd 0089 23bd efef 1dbd
00000070: 0b11 b8bc 0c63 223d dc2d 56bd c755 53bd
00000080: a368 2dbd ae93 1abd 18c4 433d dcd3 33bd
00000090: 7369 32bd 82c6 10bd a006 f1bc 93c1 243d
000000a0: 1245 dcbc d377 dcbc 7a88 75bc 6e9f 40bc
000000b0: 57a2 c63c b1cf 93bd 320f 94bd 77fe 85bd
000000c0: 13ea 64bd 187d 883d 9da3 b2bd ef5d adbd
000000d0: d434 ddbd 27c8 cabd 2131 f83d b206 5dbd
000000e0: a8f5 6dbd bd1e 90bd ddb1 59bd e2c9 893d
000000f0: 4794 8abd 8a59 8cbd eaa6 a2bd 8ae1 8dbd
00000100: d5c4 a63d 3215 15bd 7425 0cbd 0438 0ebd
00000110: da26 03bd 916d 0c3d 3003 71bb ee3b 55bb
00000120: bb74 2ebc 49a5 58bb ec03 503c 6ba1 d5bb
00000130: a3c1 d5bb a6eb cbbb 9561 7dbb 3ef1 ec3b
-0.039608754 -0.040948037 -0.040170725 -0.028168999 0.040552404 -0.07303111 -0.07397139 -0.11562464
-0.10005067 0.1531426 -0.111097984 -0.10903284 -0.10952199 -0.10712892 0.10816767 -0.04026423
-0.042123202 -0.042118546 -0.029029304 0.043064315 -0.05479262 -0.05705583 -0.05730477 -0.04217265
0.058327094 -0.03786018 -0.039925575 -0.038558897 -0.022469064 0.03964524 -0.05228983 -0.051595476
-0.042336117 -0.037738495 0.04779443 -0.043903217 -0.043557595 -0.03534556 -0.029422104 0.04022367
-0.026888404 -0.026912605 -0.014986152 -0.011756761 0.024247332 -0.07217348 -0.07229461 -0.06542676
-0.055887293 0.06664485 -0.08722613 -0.08465182 -0.10801092 -0.09901457 0.121187456 -0.053961463
-0.058095604 -0.07037113 -0.05314814 0.06727959 -0.06766563 -0.06853016 -0.079419926 -0.06927784
0.081430115 -0.036397167 -0.034215406 -0.03472139 -0.032019474 0.03428418 -0.0036775582 -0.0032536942
-0.010647948 -0.0033057502 0.012696248 -0.0065194867 -0.0065233274 -0.00622316 -0.00386629 0.0072309067

indicator_time_mixing.0.time_mixing.U1.1 f4 [1, 2]
00000000: c3d8 ed3b 8937 8fbc
0.007258506 -0.017482536

indicator_time_mixing.0.time_mixing.U1.2 f4 [1, 3]
00000000: 2863 7abc cda5 063d 5336 983c
-0.01528243 0.032872964 0.018580591

indicator_time_mixing.0.time_mixing.U1.3 f4 [1, 4]
00000000: 4f4d 53bb f6e3 cf3c 1d54 01bc 5d45 47bb
-0.0032242124 0.025377255 -0.007893589 -0.0030406334

indicator_time_mixing.0.time_mixing.U1.4 f4 [1, 5]
00000000: 45ab 863c eb0d 033b 7ca0 f0bb 4426 6cbb
00000010: 71a5 0ebc
0.01643909 0.001999731 -0.00734335 -0.003603355 -0.0087064365

indicator_time_mixing.0.time_mixing.U1.5 f4 [1, 6]
00000000: eedd 0dbd ded1 eb3c 5403 f239 8709 2ebd
00000010: d044 afbc 9c83 adbd
-0.034635477 0.028786596 0.00046160317 -0.042489555 -0.021395117 -0.08472368

indicator_time_mixing.0.time_mixing.U1.6 f4 [1, 7]
00000000: 9d04 a2bb ba1e 0e3b 373f 23bc 533b a9bc
00000010: 9d08 2cbc c03c 353d a461 803b
-0.0049443976 0.0021685795 -0.009963802 -0.02065817 -0.0105001 0.04424739 0.0039178897

indicator_time_mixing.0.time_mixing.U1.7 f4 [1, 8]
00000000: 68a4 f6bb e995 c8bb 2f1c d1bc 1b9a b43b
00000010: 1038 913b 26ce d43c c1e0 fbbb bb3e b4bb
-0.007526923 -0.0061213863 -0.025526134 0.005511535 0.004431732 0.025977205 -0.007686705 -0.005500642

indicator_time_mixing.0.time_mixing.U1.8 f4 [1, 9]
00000000: a4e8 983c 4c4e e63b bd39 a83b d278 ba3a
00000010: 0f3d ec38 91e6 06bc 27bf 04bc ac71 663b
00000020: e485 7abc
0.01866562 0.0070283767 0.005133836 0.0014226681 0.0001126473 -0.008233682 -0.008102215 0.0035162969
-0.015290711

indicator_time_mixing.0.time_mixing.U1.9 f4 [1, 10]
00000000: 4629 073d 54ad 76bd 04e5 86bb 5a03 3a3d
00000010: c717 c03c 7bca 053e be7b f43c ccdb fc3c
00000020: 6ea4 063e ec53 f23b
0.032998346 -0.060223892 -0.0041166563 0.045413353 0.023448838 0.13065521 0.029844161 0.030866526
0.13148662 0.007395258

indicator_time_mixing.0.time_mixing.U1.10 f4 [1, 11]
00000000: aed3 81bc fbed 863b 17da 873b 8091 e8b8
00000010: 737a d0ba 5823 ad3b b271 ab3a fa04 423b
00000020: 9319 0a3b abbd c33b 1f13 cbba
-0.015848007 0.004117725 0.0041458714 -0.000110897236 -0.0015905633 0.0052837543 0.0013080148 0.0029605017
0.0021072372 0.005973538 -0.001549337

indicator_time_mixing.0.time_mixing.U1.11 f4 [1, 12]
00000000: c2e2 1abc fe3f be3b 2355 c23c aa84 7dbc
00000010: 42d5 dabc 4810 39bd 1e69 58bb f5cc e53b
00000020: 0b53 27bd 68e3 0d3c b280 d93c e973 edba
-0.009453477 0.0058059683 0.023722237 -0.015473524 -0.026713017 -0.045181543 -0.003302164 0.007012958
-0.04085068 0.008660175 0.026550625 -0.0018116209

indicator_time_mixing.0.time_mixing.U1.12 f4 [1, 13]
00000000: 82ed fabb 4067 683c f1a2 c53c 1082 2d3b
00000010: 9b1c 3bba 25f3 33bd 3f6a a73b ab04 cb3b
00000020: ae45 0dbd 8e25 933c 2745 f23c 8b37 c63c
00000030: 809a 573c
-0.0076577077 0.014184773 0.024125548 0.0026475228 -0.00071377464 -0.043933053 0.005109101 0.006195625
-0.03449028 0.017962243 0.02957399 0.024196407 0.013159394

indicator_time_mixing.0.time_mixing.U1.13 f4 [1, 14]
00000000: ca5e 433c e7e8 feba 9aa2 d53b aa32 f03b
00000010: 0e66 5a3b 06d4 59ba f349 82bc c19f 5cbc
00000020: be6c 53b9 5407 71bc 717f 0b3c a0fa 7aba
00000030: 429c c03a 6766 273c
0.011924455 -0.0019448072 0.0065196278 0.0073302584 0.003332499 -0.0008309487 -0.015904402 -0.013465823
-0.00020163038 -0.01471122 0.008514271 -0.0009574089 0.0014695006 0.010217286

indicator_time_mixing.0.time_mixing.U1.14 f4 [1, 15]
00000000: 7a81 793c 9442 1bbc e102 3e3b a391 233c
00000010: ee72 12ba b6bf 353d afe9 2dbc 727f d2b9
00000020: 1bf3 543c 31b5 97bc f007 5bbc 69f7 1a3c
00000030: c58e 3ebc cf0a 08bc d1a5 b0bc
0.0152286235 -0.009476323 0.0028993415 0.009983453 -0.0005586584 0.044372283 -0.010614797 -0.00040149275
0.012997414 -0.018519016 -0.013368592 0.009458401 -0.011630719 -0.008303358 -0.021563442

indicator_time_mixing.0.time_mixing.U1.15 f4 [1, 16]
00000000: 59b1 90bc 5252 893a 446b d93a d1ae 663c
00000010: 91ed 063c 40f9 bbbc 6a1e 4d3c d8d1 ac39
00000020: b0bc a13b ee20 2cbb 877d 873c ceb6 283b
00000030: 0739 a43a 2126 4c3c e154 65bc 25db b1bb
-0.017662691 0.0010476804 0.0016587754 0.014079765 0.008235351 -0.022946 0.012519458 0.00032962742
0.0049358234 -0.0026264745 0.016539348 0.0025743726 0.0012529203 0.0124602625 -0.0139972875 -0.0054277354

indicator_time_mixing.0.time_mixing.U2.1 f4 [1, 2]
00000000: 40ce de38 1fbb b93c
0.00010624202 0.022672234

indicator_time_mixing.0.time_mixing.U2.2 f4 [1, 3]
00000000: a7a4 993c 05b5 1b3d d514 c9bc
0.01875527 0.03801443 -0.024546066

indicator_time_mixing.0.time_mixing.U2.3 f4 [1, 4]
00000000: 49a3 af3c d06e 18bb 02f6 aebc 384a 4a3b
0.021440165 -0.0023259409 -0.02135754 0.0030866992

indicator_time_mixing.0.time_mixing.U2.4 f4 [1, 5]
00000000: 5008 be3c 6bbc 7a3d 0302 debd 342e 2abc
00000010: a1e0 29bd
0.023197323 0.061214846 -0.108402275 -0.010386992 -0.04147399

indicator_time_mixing.0.time_mixing.U2.5 f4 [1, 6]
00000000: fcf0 8dbc 22b4 3cbb 9cdf 323c 0de5 8b3c
00000010: 64e9 443c 604a 5b3d
-0.017326824 -0.002879389 0.01091757 0.017076993 0.012018535 0.053537726

indicator_time_mixing.0.time_mixing.U2.6 f4 [1, 7]
00000000: a574 51bb b17b 233b 7622 c43b 6943 123c
00000010: 0a2d 23b9 0515 163c 3a85 d4bb
-0.0031960395 0.0024945552 0.0059855534 0.008927205 -0.0001556167 0.009160285 -0.0064856084

indicator_time_mixing.0.time_mixing.U2.7 f4 [1, 8]
00000000: 6aaa d13c ca7d 913c 659c 9bbd d99a 603c
00000010: ecfb b8bc 243a 65bd 37c6 e43c 90a4 943c
0.025593955 0.017760176 -0.07598189 0.013708794 -0.022581063 -0.05596365 0.027926547 0.018144876

indicator_time_mixing.0.time_mixing.U2.8 f4 [1, 9]
00000000: ccf3 99bb 3661 573a 37a2 803d 9bd4 3f3c
00000010: a283 ea3b 17a8 973d 34f6 1fbd c236 c1bc
00000020: b013 803c
-0.0046982523 0.00082160847 0.0628094 0.011708404 0.007156805 0.074051075 -0.039053157 -0.02358568
0.015634388

indicator_time_mixing.0.time_mixing.U2.9 f4 [1, 10]
00000000: 0bc7 de3c 9323 583d 8288 15be f4e9 12bd
00000010: 1a7c 90bc f879 4abe bf04 b03d 0378 6d3d
00000020: 6a0c ca3c 7615 5b3e
0.02719452 0.0527683 -0.14602855 -0.035867646 -0.017637301 -0.1977309 0.08594655 0.05797578
0.024664123 0.21394905

indicator_time_mixing.0.time_mixing.U2.10 f4 [1, 11]
00000000: 9426 19bb 50a4 823c 9a60 4ebc b4c0 b3bc
00000010: 5e92 01bb a76c 06bd 4ece f73c 3079 ac3b
00000020: 39fe 85bc da47 143d 6eec b6bb
-0.0023368942 0.01594749 -0.012596274 -0.021942474 -0.001977108 -0.032818463 0.03024974 0.00526347
-0.016356574 0.036201335 -0.005582384

indicator_time_mixing.0.time_mixing.U2.11 f4 [1, 12]
00000000: b5b7 9f3c e6a4 523c 83a4 c8bc dfdd d8bb
00000010: 9e7e a6bc 4590 6cbc 5891 193c 93d8 e73a
00000020: 77ef 033c f9f2 a73c 000b 9fbc c457 75bc
0.019496778 0.012856698 -0.024492508 -0.006618246 -0.020324048 -0.014438693 0.009373032 0.0017688446
0.008052698 0.0205016 -0.019414425 -0.014974538

indicator_time_mixing.0.time_mixing.U2.12 f4 [1, 13]
00000000: f8bd d33b aa14 8bbb f69d 26bc 4828 29bc
00000010: 6267 883b c49d 0cbc 6171 02bb dc6d f83b
00000020: 257a 90bc 13aa 673b 94a8 193c 9063 193c
00000030: 98fb ed3b
0.006461855 -0.0042444067 -0.010169497 -0.010324545 0.004162715 -0.008582536 -0.0019904005 0.0075814556
-0.017636368 0.0035349175 0.009378571 0.009362116 0.0072626583

indicator_time_mixing.0.time_mixing.U2.13 f4 [1, 14]
00000000: 2743 673b 39b5 de3c 44de 42bd d1c2 44bc
00000010: baea 5d3b 71bd a1bd 87ae 163c caf7 9a3c
00000020: 053d 743b 2ae8 d23d ecd8 dcbb f49b 86bd
00000030: 8d7a 1bbd 2ab9 263c
0.0035287829 0.027186023 -0.04757525 -0.0120093385 0.0033861832 -0.07897461 0.009196884 0.018916983
0.0037267816 0.10298188 -0.0067397263 -0.065727144 -0.03795867 0.0101759825

indicator_time_mixing.0.time_mixing.U2.14 f4 [1, 15]
00000000: 2083 bc3b 414b 953c 1a98 58bd 7539 b9bc
00000010: f771 0dbc 2f14 43bd 91a1 223d 85b1 6b3d
00000020: 726c 2b3c 8c0d 9f3d dd35 0abd 64a9 9bbd
00000030: cff5 8ebd 8f10 d03c 30c9 f83b
0.005752936 0.01822436 -0.05287943 -0.022610405 -0.008633128 -0.04762667 0.039704863 0.057542343
0.010462867 0.07766256 -0.033742774 -0.07600668 -0.06980478 0.02539852 0.007592343

indicator_time_mixing.0.time_mixing.U2.15 f4 [1, 16]
00000000: 4731 163c 7a6f 8bbc d2eb 3fbc 6f01 d0bb
00000010: adb5 bbbb 13dd 243d 2db9 1cbc 82d3 30bc
00000020: 95cc b7bb d9bf ddbc 2a89 8fba 2dc3 f83c
00000030: 4568 6e3c 63c0 13bc 76eb 5cbc 1ce3 2c38
0.009167022 -0.01702093 -0.011713939 -0.006347827 -0.0057284446 0.040249895 -0.009565634 -0.010792615
-0.005609105 -0.02706902 -0.0010950912 0.030366505 0.014551227 -0.009018037 -0.013483873 4.1219508e-05

indicator_time_mixing.0.fc.weight f4 [1, 5]
00000000: 7b4b 25be 5501 b4bd 3bdf acbe 6d30 2bbd
00000010: 0ce2 9b3e
-0.16142075 -0.087893166 -0.3376406 -0.04179423 0.30445898

indicator_time_mixing.1.indicator_mixing.W1 f4 [5, 64]
00000000: 0978 cd3e 277d ee3f f0fb b63d cdbb c6bb
00000010: ddc6 68bf bb55 903f fd33 f03e 4e01 c6bd
00000020: d7d2 993e efb8 86bf ab77 7f3f de05 75bf
00000030: c194 de3f dbe9 80bf 0ae0 13bf a23a 7bbe
00000040: 6582 0dbf d198 1b3f 8748 b33f 8d6a 2bbf
00000050: 62b4 5c3f 1a8e cc3f a32d 3340 b4c7 33bf
00000060: 3123 2abf 5fd4 b9bf 37b7 8ebf b5c0 ddbe
00000070: 14c9 bbbe 9165 2f3f a61b cb3e 4891 60be
00000080: 0b9c c4be f75f e63e 47c3 4bbf 91fc 9f3f
00000090: ef0d 22bf a25d 7f3f 458d 9dbf cbe1 733f
000000a0: 8ba4 603f 7939 cdbf 4bc5 8c3f 0eb9 2cbc
000000b0: 06f2 34be 924c d3be e5af cfbe e07d 543f
000000c0: 57ef 25bf 779a e33f 9845 5e3e 94b1 dfbf
000000d0: c776 813f 07ed 473e 76df 933f cbf4 383f
000000e0: d327 873f 1eb0 0bbe ab69 dc3f d990 593f
000000f0: b349 a4be 4c94 9e3f 5c06 ee3e 69bf ba3e
00000100: 7775 eb3f 59ec 80be 9303 d23f cd5a 2f3f
00000110: b1ab 603f 53e9 d2be 19c3 a0be 85a0 b73e
00000120: 3ca4 ea3f 7431 33bf 0826 8f3f c672 02bf
00000130: 8eb3 a73f 3afb 83bf 61a5 c2bd 5f16 21be
00000140: d54b 303f 3b10 dbbf 416f eabe aec0 343f
00000150: f293 f3be 4cbf 2abf 6d9c 7b3f ddea 113f
00000160: d47d 90be 1b7c 323e d02a 9a3f 05c8 36be
00000170: c59f a0bf bc5a c83f 4125 833f 5872 04be
00000180: 8877 d2bf c0b6 f83e ee89 973f e4e4 e9bf
00000190: a590 b7bd d7ff 0a3f 7cbf e03e 9ea0 98bd
000001a0: 9325 0b3f d7a8 5b3f 4645 923e 2b57 ccbc
000001b0: 4c05 a23f 8131 9ebf a35a d83e 6067 953e
000001c0: e1cd 47bf 34d2 1ebf 8b64 7c3f 1024 9c3f
000001d0: 2c19 40bf ac3b 43bd d6e1 ef3e 1ba0 693f
000001e0: 1645 a3bb b10f 5e3f 0396 a2bf 4929 99bf
000001f0: 0f2d b73f 0129 083e f724 18bf ba7f 583f
00000200: cb99 4b3f e681 c73d 2390 e4bf c101 403e
00000210: d69c d0be 9449 94be cb7f 953f 8c1e 95bf
00000220: c2aa 3fbf 3868 d03e b346 a8bf 6258 bc3f
00000230: 1edd df3e 4773 95bf 7f81 dc3f cb1e 3b3f
00000240: 0620 d5bf fe89 2e3e f575 473f 7e4d 87be
00000250: b340 18c0 3b71 c3be 1459 ffbf b6e2 2abf
00000260: 30be 53be 3fda 223f dd31 a73e 3ce4 fc3f
00000270: 60ec 74bd f048 573c 13f1 dfbe 0f08 17be
00000280: 285a ec3f 14ad 5dbf 0a6a 663e 29ce f5bf
00000290: a7af 3c3e 6385 f9bf 2367 383e 283d 7cbe
000002a0: 5e28 0dc0 77a2 90bf 626e 033c 8aee 3ebe
000002b0: e3b4 2bbf 8875 b8bf 13a9 0abf d5e8 febd
000002c0: 4fda d6bf 6883 1dbe 19a9 15c0 901e be3e
000002d0: 7bed 72be 90dc d33f b7a4 8c3e 05dd 4cbf
000002e0: d068 663f 95ae 1c3f d2a3 3abf a22c a53d
000002f0: 84df 9cbf 48a5 963e 9f31 3440 c8e4 5c3f
00000300: 8d0e 84be 92df b9be 6aae 98bf d46d 37bf
00000310: 344d 38bf 8c77 1b40 4cd9 f93f 55b2 c5be
00000320: 900c a93f 2fa8 c83e 9735 9d3f e836 11bf
00000330: 5daf 8b3e f237 79be 1b1d e8bd 1540 383e
00000340: 3abd 5d3f 8fcf 9fbe a60c 5d3f 6203 c43f
00000350: 933b 66be fc4a a03f dc93 453f 9bd8 5e3f
00000360: 9917 643f fdeb 513f c5ae 23bf d918 2e3f
00000370: c301 3b3f b444 0f40 427b 6ebe 52ef a2be
00000380: 3f8a f33d 5845 70bf 579e 37bf 5262 9fbf
00000390: 43c6 94be 2877 9a3e 406b 6f3e 3eb6 b23e
000003a0: 61ca 1ec0 9d10 10bf 198d c4be 99b1 963e
000003b0: 2527 89bf 2517 713b 1f7b ebbe c814 dd3e
000003c0: 690d 88bf 46aa 4a3e 9eb6 c3be 6c0b 20c0
000003d0: 1bb7 453e a62a b5bf 2634 a53e 1d8b dabf
000003e0: acb3 adbe 816b e93e 6482 89be 1e1d ef3d
000003f0: ff18 d13d ce7b 183f 81a8 b03f 2924 9bbd
0.40130642 1.8631943 0.08934772 -0.006064868 -0.9092844 1.1276163 0.46914664 -0.096682176
0.3004367 -1.0525187 0.99791974 -0.9571208 1.7389146 -1.0071367 -0.5776373 -0.24534085
-0.5527709 0.60780054 1.4006509 -0.6695946 0.8621274 1.5980866 2.7996604 -0.702266
-0.6645995 -1.4517936 -1.1149663 -0.43311086 -0.36676848 0.68514353 0.39669532 -0.2193042
-0.384003 0.4499509 -0.79594845 1.2498952 -0.6330251 0.9975225 -1.2308737 0.9526641
0.8775107 -1.6033164 1.0997709 -0.010542167 -0.1767045 -0.41269356 -0.40563884 0.8300457
-0.6481833 1.7781514 0.21706235 -1.7476068 1.0114373 0.19524013 1.155257 0.72248524
1.0559028 -0.13641402 1.7219747 0.84986645 -0.32087478 1.2389007 0.46489227 0.3647416
1.8395222 -0.2518032 1.6407341 0.68497926 0.8776198 -0.41193637 -0.31398848 0.35864654
1.833137 -0.69997334 1.1183481 -0.5095638 1.3101671 -1.0311043 -0.095042 -0.1573119
0.6886571 -1.7114328 -0.45788005 0.70606506 -0.4757381 -0.66698146 0.9828556 0.56999
-0.28221 0.17430155 1.2044315 -0.17849739 -1.2548758 1.565269 1.0245744 -0.12934244
-1.6442728 0.48576927 1.1838968 -1.8272977 -0.08963136 0.5429663 0.4389609 -0.0745251
0.5435421 0.85804504 0.28568476 -0.024943909 1.2657866 -1.2358857 0.4225665 0.2918043
-0.7804852 -0.62039495 0.98590916 1.2198505 -0.7503841 -0.04766433 0.46851987 0.91259927
-0.004982601 0.86742693 -1.270203 -1.1965724 1.4310626 0.13296892 -0.59431404 0.84569895
0.79531544 0.09741573 -1.7856487 0.18750669 -0.40744656 -0.28962386 1.1679624 -1.1649947
-0.7486993 0.40704513 -1.3146576 1.4714472 0.43723387 -1.1675805 1.7227019 0.7309386
-1.6650398 0.17044827 0.77914363 -0.2642631 -2.378949 -0.38172325 -1.994906 -0.66752183
-0.2067802 0.6361427 0.3265523 1.9757152 -0.059795737 0.013139948 -0.43738613 -0.14749168
1.8465014 -0.8659222 0.22501388 -1.920354 0.18426381 -1.9493831 0.18008094 -0.24632704
-2.2055888 -1.129958 0.008021923 -0.18645683 -0.67072886 -1.4410868 -0.54164237 -0.12446753
-1.6785372 -0.15382159 -2.338446 0.37132692 -0.23723404 1.6551685 0.27469417 -0.8002475
0.9000368 0.6120389 -0.7290622 0.08065154 -1.2255712 0.29422975 2.8155286 0.8628659
-0.2579235 -0.36303383 -1.1928227 -0.7165196 -0.719928 2.4291716 1.9519439 -0.3861262
1.3206959 0.39190814 1.2281979 -0.56724405 0.2728223 -0.24337748 -0.113336764 0.17993195
0.8661686 -0.31213042 0.86347425 1.5313532 -0.22483663 1.2522883 0.7717874 0.87049264
0.8909851 0.82000715 -0.6393855 0.68006665 0.73049563 2.2385683 -0.23289207 -0.31823212
0.11891603 -0.9385581 -0.7172598 -1.245188 -0.29057512 0.30169034 0.23380756 0.34904665
-2.4811022 -0.5627535 -0.383889 0.2943237 -1.0715071 0.0036787477 -0.4599237 0.43179917
-1.0629092 0.19791517 -0.38225263 -2.5006971 0.1930813 -1.415364 0.3226635 -1.7073704
-0.3392614 0.4558983 -0.26857293 0.116754755 0.10209846 0.5956391 1.3801423 -0.075752564

indicator_time_mixing.1.indicator_mixing.W2 f4 [64, 5]
00000000: 70a3 9abf 15da c93e 1d86 b33f 0334 3f3f
00000010: 2b04 873f ad8c b73e e445 ac3e 3340 91bf
00000020: 4799 febf ff55 9f3f 98eb 1bc0 1c51 b83e
00000030: 98b1 b0be c041 03be 2d0a cd3f b3eb 2bbd
00000040: 3eac 02bf 1586 0d40 0ee0 133d 155d b83e
00000050: c4ef 603f 3424 09be c2b1 0a3f 12b8 bcbe
00000060: 9d61 1dbf 08a2 b03f 53a3 fcbe b731 8d3f
00000070: e0b9 80bc b09d 4d3e d2a3 e43f 967c ce3e
00000080: 15d3 4ebf 7de6 d63e 192d 23be dafb 483f
00000090: 231e 54bf b5d2 413f 9ffe 3abf fbc3 88bf
000000a0: 2cde a7be 3133 98bf 28ad a1bb 29ff 62bf
000000b0: bd15 1dbf ac1e 6bbe 66db 0d3f 8fd2 94be
000000c0: a355 64bf 2d63 b63f 2476 a93e b85a 063f
000000d0: 72eb 5c3f d458 5abc e705 efbd 5f26 063f
000000e0: faf6 7e3e 3420 0cbe fc40 2cbf 4b37 2b40
000000f0: a455 2cbe ac85 2f3f 4f42 003c 4d18 c23e
00000100: be99 133f 6fb8 7ebf ff8b bfbe cef0 96bf
00000110: 1cba bd3e 464d 14be c9a1 c1bf 3a0a ed3f
00000120: b68e cf3e e724 b63e 808e d63f 9bdf 09bf
00000130: 3d88 4e3e ac28 e8be c331 c2bf e499 b4bf
00000140: 3f21 3dc0 1a98 b03f 58b2 14bf 6a85 41bc
00000150: 32da 13be 3a0c ffbe 3535 13bd fc60 e8bf
00000160: 8d39 3abe 060e 28bf 47fb ed3d 7cad 81bd
00000170: 786d dfbe 3c28 b33f 8de7 3a3f d315 a73e
00000180: ed9f c9be 7cfa ffbe 9514 0c3f 5538 793f
00000190: a499 b7bb d49f d93f a0a9 22bf 4cb8 1040
000001a0: 0018 b9bf 5c9f 7ebc 6ef0 8cbe a5fd a5bf
000001b0: c828 3a3f a9de c4bf 8c41 4abd b371 0a40
000001c0: 5675 ef3f ab1f 2bbe 2f1d 1a3f bdce 27bf
000001d0: e8b3 ee3e 61eb 453f c265 13bf cd39 28bf
000001e0: 40ed 1b3f 9934 c13f 1116 883f c914 d23e
000001f0: 0ab4 533f 8445 a8bf e22f 4c3e ef33 d7bf
00000200: f370 92bf c5e7 0540 b8cb 0fc0 0fb2 3bbf
00000210: a48c 863f af05 ee3f 5a09 7a3f 4a50 96be
00000220: e726 1c3f debe 1fbe 3717 0b3f 55e3 90be
00000230: b91f ecbe da1c f7bc 89af 83bf 42ad 9cbf
00000240: df40 1940 8e94 68bf 557d 8fbf a32d 9fbe
00000250: 97fd 3e3f 1452 683f 29ab 22bf aabd debd
00000260: 6df0 dfbf 4587 c0bf aabc efbb 4409 e3be
00000270: b6ef 0bbf e986 70bf 7138 853f 70f6 5d3e
00000280: 534a 1f40 7bf2 c1bf 7e67 233f 2638 e0be
00000290: 74d9 d2be 8b54 aabf 3e32 b63f aed4 293e
000002a0: 23d2 233d fa88 783f 91e4 853e 6232 2bbb
000002b0: 7fa1 943f c736 b8bf 0e7d 1c40 96ee c13f
000002c0: 93dc 94bf 1b85 1bbe cffd a4be 7555 83be
000002d0: b1d6 e3bf 8703 72be 32b9 06c0 4c01 d93f
000002e0: c5bb 303f 5a30 c53e efaf b0be 41a2 c9be
000002f0: b9d8 c2be 0fa4 253d 9aa9 0640 7034 b1bf
00000300: 3da6 bdbf fb0f 6fbf b427 c0be b6a4 f3be
00000310: ac75 3b3f 1d20 86bf 844d ec3e 75bc 3bbf
00000320: cb01 43bf dee0 173f c78a 71bc 04cc 05be
00000330: 1464 dbbf 0aa8 fe3e b178 87bf 30e0 63bf
00000340: 8cea a8bf b8e4 0d3f a98a d13f 78f1 7c3e
00000350: c91f b03f 8b64 dc3e 83ab 86bf f3d5 283f
00000360: 1a0e 93bf 6d40 f6bd 9fad 923f 05d3 cc3f
00000370: 1d00 403f 4bed a6be 6441 d5bf 90fe 833f
00000380: 6bc6 a3bf a2e9 15c0 2968 cc3f f6b0 2ebf
00000390: 94dd ccbf c262 22be 32b0 b73e 03e9 973f
000003a0: 8574 04bf e479 08c0 bb5e 7b3e de42 dc3f
000003b0: 5688 1c3f f305 c5be 7b03 9a3e 39d8 5e3e
000003c0: 8fde 2bbf f343 813f b3aa 2ebf b6b6 133f
000003d0: 818a 4d3f 70b3 5cbf 03b8 18bf 607b 733f
000003e0: 1e9f 0f3f 2b15 a53e 508c 0f3e 0b09 4f3f
000003f0: 3948 9b3f bbad 7c3f 8fde 543d 25b2 c9be
-1.2081127 0.39424196 1.4025303 0.7468874 1.0548147 0.35849515 0.33647072 -1.1347717
-1.9890527 1.2448119 -2.4362545 0.35999382 -0.34510493 -0.1281805 1.601873 -0.041972827
-0.5104407 2.2113087 0.036102347 0.36008516 0.87865853 -0.13392717 0.54177487 -0.36859185
-0.6147707 1.3799448 -0.49343356 1.1030797 -0.015713632 0.20079684 1.7862494 0.40329427
-0.80790836 0.41972724 -0.15935172 0.78509295 -0.82858485 0.7571214 -0.7304477 -1.0684808
-0.3278669 -1.1890622 -0.004933972 -0.88670594 -0.61361295 -0.22960919 0.554129 -0.29066893
-0.8919317 1.4249016 0.33097947 0.52482176 0.8629676 -0.013326842 -0.11671048 0.524023
0.24898902 -0.1368416 -0.6728666 2.6752498 -0.16829544 0.6856334 0.007828309 0.37909165
0.57656467 -0.99500173 -0.37411496 -1.1792238 0.37056053 -0.14482602 -1.5127498 1.8518746
0.40538567 0.3557503 1.6762238 -0.5385682 0.20169158 -0.4534353 -1.5171436 -1.4109464
-2.9551542 1.3796418 -0.5808463 -0.011811594 -0.14438704 -0.49814016 -0.035939414 -1.8154597
-0.18186016 -0.656464 0.11620193 -0.06331918 -0.43638206 1.3996654 0.7300957 0.32633838
-0.39379826 -0.49995792 0.54718906 0.9735158 -0.005603032 1.7001901 -0.6354008 2.2612486
-1.4460449 -0.015540924 -0.27527183 -1.2968031 0.7271848 -1.538045 -0.049378917 2.1631896
1.8707683 -0.16711299 0.6020078 -0.6554983 0.46621633 0.77312285 -0.57577145 -0.65713197
0.6090889 1.5094177 1.0631734 0.41031483 0.8269659 -1.3146214 0.19940141 -1.6812724
-1.1440719 2.092271 -2.246809 -0.7331857 1.051167 1.8595484 0.9767052 -0.2935813
0.6099686 -0.15600154 0.543323 -0.2829844 -0.46117952 -0.030165125 -1.0287944 -1.2240374
2.3945844 -0.90851676 -1.1210123 -0.31089506 0.746057 0.9075024 -0.6354242 -0.10876019
-1.7495247 -1.5041281 -0.0073161917 -0.44343007 -0.54662645 -0.93955857 1.040785 0.2167604
2.4889114 -1.5152124 0.6382979 -0.43792838 -0.4118153 -1.330705 1.4234083 0.16585037
0.039995324 0.9708401 0.26150945 -0.002612256 1.1611785 -1.4391717 2.4451327 1.5150936
-1.1629814 -0.15187494 -0.3222489 -0.25651136 -1.7799894 -0.23634158 -2.1050534 1.6953521
0.69036514 0.38513452 -0.34509227 -0.39381602 -0.3805597 0.04043966 2.1041017 -1.3844128
-1.4816357 -0.9338376 -0.3753029 -0.47586602 0.7322643 -1.047855 0.4615289 -0.7333444
-0.7617461 0.59327495 -0.01474256 -0.13066107 -1.7139916 0.4973758 -1.0583707 -0.8901396
-1.3196578 0.5542712 1.6370441 0.24701488 1.37597 0.43045458 -1.0521091 0.6595146
-1.1488678 -0.12024007 1.1459235 1.6001898 0.7500017 -0.32602915 -1.6660581 1.0312061
-1.2794927 -2.3423848 1.5969287 -0.6823877 -1.600512 -0.15857986 0.35876614 1.1867985
-0.51740295 -2.1324396 0.24547856 1.7207906 0.6114553 -0.384811 0.3008078 0.2176217
-0.6713647 1.0098861 -0.68229216 0.5770067 0.80289465 -0.862113 -0.5965578 0.9511013
0.5610217 0.32242712 0.14018369 0.80873173 1.2131416 0.9870259 0.05197006 -0.39393726

indicator_time_mixing.1.indicator_mixing.ln.weight f4 [8, 5]
00000000: 89cb 6e3f 5356 7b3f eb52 803f f6b1 763f
00000010: d848 663f 0934 8d3f 378e 813f 0306 8c3f
00000020: 89fc 803f 7b99 773f 3801 703f ce77 673f
00000030: 6ae4 723f ba72 823f 69b8 803f 1055 7e3f
00000040: 0841 803f 768f 823f baab 733f 4f93 653f
00000050: 2754 8c3f 4b9d 5f3f b1f5 7c3f 24a8 743f
00000060: cf92 793f 8d05 723f c09b 8e3f 9f18 6e3f
00000070: 3c22 7e3f d8d6 823f 2f98 803f 2346 763f
00000080: 94d7 863f 9533 723f c78e 5e3f 71b9 733f
00000090: 59d3 803f cdf0 6e3f 8cff 7b3f 0465 863f
0.9327932 0.98178595 1.0025305 0.96365297 0.899549 1.1031505 1.0121526 1.0939335
1.0077068 0.9671857 0.9375186 0.9041718 0.9487978 1.0191262 1.0056278 0.99348545
1.0019846 1.0200031 0.9518391 0.896779 1.0963181 0.87349385 0.98812395 0.9556906
0.9748964 0.9453972 1.1141281 0.9300632 0.9927099 1.0221815 1.0046443 0.9620077
1.0534539 0.9460996 0.8693661 0.95204836 1.0064498 0.9333618 0.9843681 1.0499578

indicator_time_mixing.1.indicator_mixing.ln.bias f4 [8, 5]
00000000: e499 553d f9ff f0bc 5b0e b8bc bbd0 9bbc
00000010: 3ab1 933c a7a1 dabd 02b8 693c 3799 f53c
00000020: c988 0a3c ddda 04bd 354d 5b3d e05a b4bc
00000030: 05e1 b0bc e5a8 cdbc df37 683c 3046 153c
00000040: d9f0 a3bc b2fb c0bc abd1 5bbd 50c5 663c
00000050: e929 5abd 8862 3fbc a305 bcbc e674 00bd
00000060: 3d00 c93c 0b57 1a3d 6b29 83bc 53c9 4abc
00000070: 8951 4a3c 5c01 103d f813 51bc 30cd c1bc
00000080: cfc1 66bc 8cb6 14bd ef93 dc3b 900f 303d
00000090: b060 bcbc d5db 8fbc 0dcb f738 1c26 193d
0.052148715 -0.029418932 -0.022467783 -0.019020429 0.018028844 -0.10675364 0.014265062 0.029980285
0.008455464 -0.032435287 0.053540427 -0.022015989 -0.021591673 -0.02510495 0.014173477 0.009110972
-0.020012306 -0.023557518 -0.05366675 0.014085129 -0.053262625 -0.0116812065 -0.022951907 -0.031361483
0.024536246 0.037680667 -0.01601096 -0.012377101 0.012348541 0.035157546 -0.012761109 -0.023657411
-0.0140842935 -0.036306903 0.0067315022 0.04298359 -0.022995323 -0.017560879 0.00011815699 0.03738986

indicator_time_mixing.1.time_mixing.ln.weight f4 [8, 5]
00000000: 0f01 9b3f a2a4 823f 9be2 583f 5d20 7b3f
00000010: befa 8d3f 4941 543f b700 aa3f ea6f 843f
00000020: 26e4 833f 42a7 813f e903 bb3f fda0 0e3f
00000030: 108d 583f a3cd 633f 4cfb 873f 4674 6b3f
00000040: b05b 863f 3ec7 7f3f 86da 853f 5b0e 7b3f
00000050: 9245 6e3f 7259 a53f 0cb6 893f 71de 8e3f
00000060: 9ec4 6c3f 609a 923f b209 663f 4967 4b3f
00000070: 3d01 5e3f df71 933f 9639 9d3f 38d0 793f
00000080: 556f 4f3f 8342 713f 044f 903f e63d 703f
00000090: 1ab6 963f acdf 793f 547f 803f 1a36 843f
1.2109698 1.0206492 0.8472077 0.9809626 1.1092145 0.8291212 1.3281468 1.0346653
1.0304 1.0129168 1.4610568 0.557144 0.84590244 0.8898565 1.0623565 0.91974294
1.0496731 0.99913394 1.0457313 0.9806878 0.93074906 1.2917922 1.0758681 1.1161634
0.92487514 1.1453362 0.89858544 0.79454476 0.8672064 1.1519126 1.2283199 0.9758334
0.81029254 0.94242114 1.1274114 0.9384445 1.1774323 0.9760692 1.0038857 1.032901

indicator_time_mixing.1.time_mixing.ln.bias f4 [8, 5]
00000000: bc37 f4bc 5902 80bc 8da8 4d3c 57bb 993c
00000010: 96b2 cf3c 15de 0c3c ea6f 2f3c 338b a1bc
00000020: 01db 21bc 629d cf3b 0601 973d a29c a63d
00000030: d5a9 94bd 2ab7 a3bd 83c2 d5bd 9661 453d
00000040: c1f2 0e3d 0a66 5fbd 496f 32bd ecad a2bc
00000050: 7c74 9b3b ce7f 1b3b 0fec 6cbc 1011 acbb
00000060: 2d02 663c b0bd 25bc 097e 85bc 328f 5d3a
00000070: 2aef 3c3c 43a8 163d 034a 7abb 9138 9abc
00000080: 47f5 ecba 3015 4b3c 521b 2b3d adc7 dd3b
00000090: 7ccf 5cbb 4732 1abc dd54 b2b9 c26b 9d3c
-0.029811732 -0.01562612 0.012552393 0.018766088 0.025353711 0.00859787 0.010707835 -0.019719696
-0.009878875 0.0063359 0.07373242 0.08135344 -0.072589554 -0.0799392 -0.10437491 0.04818877
0.034899477 -0.05454067 -0.04356316 -0.019858323 0.0047441106 0.00237273 -0.014460578 -0.0052510574
0.014038605 -0.010116026 -0.01629545 0.0008451819 0.0115316305 0.03678156 -0.0038191087 -0.018825801
-0.001807847 0.012395188 0.0417741 0.006768188 -0.0033693006 -0.009411401 -0.00034014034 0.019216422

indicator_time_mixing.1.time_mixing.U1.1 f4 [1, 2]
00000000: ca87 573e 9e36 d93d
0.21047893 0.106061205

indicator_time_mixing.1.time_mixing.U1.2 f4 [1, 3]
00000000: 1a92 003e dd45 963d 9893 3dbd
0.12555733 0.07337544 -0.046283334

indicator_time_mixing.1.time_mixing.U1.3 f4 [1, 4]
00000000: 5f4c 803c 2884 1e3c 9179 f5ba 73ee a13c
0.015661417 0.009675063 -0.0018728246 0.019767022

indicator_time_mixing.1.time_mixing.U1.4 f4 [1, 5]
00000000: 154b 143e d3ab bc3d c171 9cbd 87b1 fc3c
00000010: 16ce bc3b
0.14481767 0.0921246 -0.07638884 0.03084637 0.005761872

indicator_time_mixing.1.time_mixing.U1.5 f4 [1, 6]
00000000: bc65 f83d 9950 a73d 0474 70bd a8a3 7d3c
00000010: a381 a13c 746f de3d
0.12128779 0.0816967 -0.05870439 0.015480913 0.019715136 0.10861102

indicator_time_mixing.1.time_mixing.U1.6 f4 [1, 7]
00000000: e18a 4a3e a796 d73d 0e68 a5bd 104d 8f3d
00000010: 63e5 4c3d 91d5 273e 50a0 313e
0.1977954 0.105267815 -0.080764875 0.069971204 0.050023448 0.16390063 0.1734631

indicator_time_mixing.1.time_mixing.U1.7 f4 [1, 8]
00000000: 475a 113e 093d a43d 88c0 94bd 04ad 5c3d
00000010: b024 a83c 1cc2 023e 3b26 f23d 24d0 983d
0.14194594 0.08019454 -0.07263285 0.053875938 0.020525306 0.1276936 0.11823698 0.07461575

indicator_time_mixing.1.time_mixing.U2.1 f4 [1, 2]
00000000: 86c8 abbd 1f65 aa3d
-0.08387856 0.083200686

indicator_time_mixing.1.time_mixing.U2.2 f4 [1, 3]
00000000: 586e 4a3e b325 1abe cd69 dbbd
0.19768655 -0.15053444 -0.10713539

indicator_time_mixing.1.time_mixing.U2.3 f4 [1, 4]
00000000: ada3 f23d 5e76 13be 5692 c5bd c3d9 03bd
0.11847625 -0.14400622 -0.09647052 -0.032190096

indicator_time_mixing.1.time_mixing.U2.4 f4 [1, 5]
00000000: 11ae 803d 49c2 b8bd 240c c9bd 79d1 94bb
00000010: 4342 cfbd
0.062832005 -0.09021432 -0.09816769 -0.0045415726 -0.1012006

indicator_time_mixing.1.time_mixing.U2.5 f4 [1, 6]
00000000: e44b 213d 73cc 21bd 9043 40bc 0e7b 9a3b
00000010: 4f74 c1bc 98c2 f0bc
0.039379016 -0.03950162 -0.011734858 0.0047143763 -0.02361503 -0.029389665

indicator_time_mixing.1.time_mixing.U2.6 f4 [1, 7]
00000000: 2c1f cb3d f66a e0bd b190 bdbd 2a3e 5dbc
00000010: ec24 ebbd 7c60 c1bd b458 fdbd
0.09918055 -0.10957901 -0.09256113 -0.013503591 -0.11481652 -0.09442231 -0.123704344

indicator_time_mixing.1.time_mixing.U2.7 f4 [1, 8]
00000000: e006 be3d 1bb9 02be 1667 b7bd 7231 10bc
00000010: 70c3 ddbd d236 aabd 8cc3 09be 32f1 cfbd
0.09278655 -0.12765925 -0.08955209 -0.008800851 -0.10828292 -0.083112374 -0.13453501 -0.10153426

indicator_time_mixing.1.fc.weight f4 [1, 5]
00000000: 86ae d83c ed65 703e 3769 66bd 2326 d1be
00000010: 77e1 8abe
0.026450407 0.23476382 -0.056252684 -0.40849409 -0.2712514
