weights/stockmixer_L16_H64_M40_K4_E50_s3_Sigmoid.pt (torch, 631692 bytes, 93 tensors)

indicator_time_mixing.0.indicator_mixing.W1 f4 [5, 64]
00000000: 2f52 81bd 54f5 a83e d021 53bf b66d ac3d
00000010: 86b5 563f 5516 d6be f680 d73f 4e2c cabf
00000020: a260 09bd 56db 64be 72b7 543e efbf 08be
00000030: 8e3a 603f 7a34 583e b40b 093f b96e 033f
00000040: 12a4 c83e f0b1 643f bc55 06bf ac5c d4bf
00000050: 3274 823f bf57 023f 74a9 63be bcea 423d
00000060: 32d3 173f 9755 1040 e5c9 fa3f 367b 9dbf
00000070: 12a6 7b3f 85a1 de3e cd8b 1c40 5a9d 13be
00000080: 3023 f9be 4586 48be f21f a8be 69ca a43e
00000090: 7285 843c 2f53 d6bd d519 cc3e c27f 60bf
000000a0: 447a 68be fc82 0b3e 276b 313e 8389 2e3f
000000b0: a4f8 72bf dde7 a93d c46c 2c3f 0219 3d3f
000000c0: 323d f0be 1c03 2840 139b b8be 0121 08be
000000d0: 134f 2f3f bba5 09c0 f38c a13f f413 3c3f
000000e0: e408 803f 3602 9ebf f8b2 dabf 09ad 713f
000000f0: f696 51bf 2783 1cbf 84e1 b33f dec8 b13f
00000100: 0b15 15be bacc c2be fc4b d03e fe62 7dbe
00000110: 1ef2 c5bf ac59 b83f d75a 87bf 98f3 8e3f
00000120: 943a 013f 543d 56bb 6c45 8fbf 116d c0be
00000130: 0e11 20bf fec3 4fbf 5972 5cbf 16a0 e8bf
00000140: d526 503e f5d5 3abe 0838 e3bd d071 3abf
00000150: 8c95 fb3f 4993 b73e 9e5e acbf 3cee 31be
00000160: 95cb af3e ca7e bc3e 5c73 9f3e f6d1 7cbf
00000170: 5fe7 903f d65e bb3b 1d0e 2dbf a987 a0be
00000180: 3e1c 1bbf a828 c9be c555 f5be 1bd8 8ebe
00000190: bf39 b43e b7c6 6c3f 657d 86be 1aeb 8f3d
000001a0: a4a4 abbe 5815 d23f 6b74 5e3f 2f50 353f
000001b0: 5cca 9cbf d976 a43f a66c a1bf 0eb3 6abf
000001c0: 083d bdbe 16e6 043f d2e9 143f a5d1 c4bc
000001d0: 607c 1040 635d ddbd cd6c 3bbf fee5 27c0
000001e0: a808 00bf f1b2 b63d 05da 073e 6067 ca3e
000001f0: 4d1e 243c 8992 1640 6fe5 52bf 44a6 383e
00000200: ef21 2ebd 487c 863e ef5e 1d40 777e 8dbf
00000210: 38d6 d43f 41f1 83bf f26c f0be ac7c 31bf
00000220: b673 82bf 67f1 97bf 5000 e73e 7737 d23e
00000230: 1969 363e 9f18 263d e42b d9bd 6f66 93bf
00000240: 9073 5dbf fde4 8a3f eb5c a53f cbcc 5d3e
00000250: 0a08 983f 58e3 34c0 0418 ebbe 28ad 9fbf
00000260: 12dd ecbe 2a40 abbd 93ec 1cbf ef4e 323d
00000270: 9de2 92bf d4b3 acbe d8c2 e5be 6ea7 2b40
00000280: 8e15 c7be 1ed8 85bf 7584 b0bf 8f96 b8bf
00000290: 4113 f03e 6c8b dabd 5bc8 c7bf 5860 2dbe
000002a0: 5d57 773d 9b70 643f 6368 383c f2e3 57bf
000002b0: 4983 bd3d 0ae6 e9bd 1fd2 02bf f36f 6bbf
000002c0: 3cd0 2bbf fb52 f1bf 0e49 88bf 5ca8 b03e
000002d0: b47b 1340 eb65 b1bf d2f6 1b40 ac67 bd3f
000002e0: 2978 99be a120 83bf 6727 c1bf 3c01 3cbf
000002f0: 0344 253f 696f 02bd 8a04 97be cdfb f93f
00000300: 6c0e b83e da9d 0f3f 015c 503e 83c5 cc3f
00000310: af98 8a3f ae50 21bf cf90 f13e b99b e53f
00000320: b17d 193f 142b 99bf 46a5 bdbf e0b5 45bf
00000330: c2db d2be 78ab 963f 4d14 1dbf 15ef f23f
00000340: 0546 eebf 5fed f4be 0e11 ccbe 65e9 5a3e
00000350: ae25 983f a945 b53f 5877 02bf 5a6f 873e
00000360: 9cfb 25bf 138a c43e baeb f0be ae72 04bf
00000370: 7e16 2c40 437b d03e 4c76 26be b4b1 f3be
00000380: 297c b33f b74f 6c3f eba1 b8be b201 bf3f
00000390: 37fc f63f 4ab7 94be ed25 72bf 2cca 933f
000003a0: 7ffb 99bf 5382 70be 2af4 68bf 133b 28bd
000003b0: 3c4d e73d 46ee 59be d33b eabe 6d16 d6bf
000003c0: b081 42bf bd23 01c0 b858 aa3e a037 0b3f
000003d0: 2095 5f3f 7272 c43f 8d3d b0bf 3c53 8c3f
000003e0: 2772 8d3f dee6 e43e d159 2cbc 970e 80bf
000003f0: 3ca0 9bbf eb29 513f d324 3b3d afdb 373f
-0.063145034 0.3299967 -0.8247347 0.08419363 0.8387073 -0.41813913 1.6836231 -1.5794771
-0.03353942 -0.22349295 0.20773104 -0.13354467 0.8758935 0.21113768 0.5353348 0.51340824
0.39187676 0.8933401 -0.5247457 -1.6590781 1.019171 0.5091514 -0.2223261 0.04758714
0.59306633 2.255224 1.9592863 -1.2303226 0.9830028 0.43482605 2.4460328 -0.14415494
-0.48659658 -0.1958247 -0.32836872 0.32185677 0.016176913 -0.10465085 0.39863458 -0.8769494
-0.2270289 0.13624185 0.17326032 0.68178576 -0.94910645 0.082961775 0.67353463 0.73866284
-0.46921688 2.6251898 -0.36055812 -0.1329384 0.6848003 -2.1507404 1.2621139 0.73467946
1.0002713 -1.2344425 -1.7085867 0.94404656 -0.81870973 -0.6113762 1.4053197 1.3889425
-0.14558809 -0.3804682 0.4068297 -0.24744794 -1.5464513 1.4402366 -1.0574597 1.1168089
0.5048001 -0.0032690363 -1.1193061 -0.3758321 -0.62526023 -0.81158435 -0.8611198 -1.8173854
0.20327313 -0.1824568 -0.110946715 -0.72829914 1.9655013 0.35854557 -1.3466375 -0.17376035
0.34335008 0.36815482 0.311427 -0.98757875 1.1320609 0.0057180924 -0.6759966 -0.313535
-0.6058997 -0.3928883 -0.47917 -0.2789925 0.35200307 0.92490715 -0.26267543 0.07027264
-0.33524048 1.6412764 0.8689639 0.70825475 -1.2249255 1.284877 -1.2611282 -0.91679466
-0.36960626 0.51913583 0.5816928 -0.024025748 2.2575912 -0.10808828 -0.7321289 -2.6234126
-0.5001321 0.08920849 0.13266762 0.39531994 0.01001699 2.3526938 -0.8238134 0.18032175
-0.04251283 0.26266694 2.4589193 -1.1054219 1.6627874 -1.0308 -0.4695812 -0.6933086
-1.0191562 -1.1870545 0.45117426 0.4105794 0.17813529 0.040550824 -0.106040746 -1.1515635
-0.8650446 1.0851132 1.2918981 0.21660154 1.1877453 -2.826376 -0.4591676 -1.2474718
-0.46262413 -0.08361848 -0.61298484 0.04353231 -1.1475407 -0.33730948 -0.44875216 2.682094
-0.38883632 -1.0456579 -1.3790423 -1.4420947 0.4688969 -0.10671124 -1.5608019 -0.16931283
0.06038605 0.8923432 0.0112553565 -0.8433219 0.09253556 -0.114208296 -0.5110187 -0.91967696
-0.67114615 -1.8853449 -1.0647295 0.34503448 2.3044252 -1.3859228 2.4369397 1.4797263
-0.29974487 -1.0244333 -1.509015 -0.73439384 0.645569 -0.03184453 -0.2949565 1.9529969
0.35948503 0.5610024 0.20347597 1.5997776 1.0827845 -0.6301373 0.47180793 1.7938148
0.59957415 -1.1966271 -1.4816062 -0.77230644 -0.41183287 1.1771078 -0.613591 1.8979212
-1.8615118 -0.4783735 -0.39856762 0.21378095 1.1886499 1.4161884 -0.50963354 0.26452142
-0.6483705 0.38386592 -0.47054845 -0.5173749 2.6888728 0.4071904 -0.16256064 -0.47596514
1.4022266 0.92309135 -0.36061034 1.4922392 1.929572 -0.29046088 -0.9458912 1.1546073
-1.2029876 -0.23487215 -0.90997565 -0.041071963 0.11294028 -0.212823 -0.45748767 -1.6725594
-0.7597914 -2.0178063 0.33270812 0.5438175 0.8733692 1.5347426 -1.3768784 1.0962901
1.1050462 0.44707388 -0.010519461 -1.0004452 -1.2158275 0.81704587 0.045689415 0.71819586

indicator_time_mixing.0.indicator_mixing.W2 f4 [64, 5]
00000000: e2ae 14c0 c530 863f 7526 d3be d588 cdbe
00000010: 6c7e bdbe 5378 60bf 334a 79bf 4362 e8be
00000020: 5bf3 233e 01cb 543e b74e 433e 0fd4 90be
00000030: 6904 0640 97f1 48be 0ef8 20bf d20c b7bf
00000040: 182e 51bf ce18 a0bd eeb0 0dbf 6d1f dabf
00000050: 5367 f13e 0442 eabe c9b3 9dbf 0e41 4cbe
00000060: 44d9 d6bb 3052 1a40 4a36 1040 6cd5 28bf
00000070: ad33 ad3e 2024 fbbe 84e3 8a3e 0d69 363f
00000080: 2483 0d3f c3a7 00bf 3ef0 28be e4a4 eebe
00000090: 0064 eb3e 0435 e13e a775 6a3e a671 24be
000000a0: 3bca ff3e 04cf e33e 91cf 0540 8afb 8cbf
000000b0: 83ef 5bbf 9935 6e3f 8455 ccbe d9e7 6e3e
000000c0: a072 113f 6f43 a9bf c20d 193f 0343 83bf
000000d0: 1b66 c9be 93ac ae3f c9cb 373f 8b47 f13f
000000e0: 802e 353f cb56 2240 d0cf 61bc 7cde 6a3f
000000f0: 7a87 ae3f 192d e03e 231a 903c 4ccd a23f
00000100: 1063 42bf adc7 03bf 5a2b bd3f b2c8 53bf
00000110: 3cf9 f8be f691 8ebe 1754 db3f 496b 51bf
00000120: 9f5a 11bf 5272 b6be 4a3a 0bbf 9415 8e3e
00000130: cf63 193f 58d8 1e3f e679 db3f 4978 563f
00000140: aef7 9d3f 9a0e fd3e d3cf cabe cf86 9a3f
00000150: 0335 04c0 bf4c 713f 4ca4 dabe dae0 dcbe
00000160: ad5c b53e f1fe a53f 4a4e a5bf 46d5 ccbd
00000170: 15cf 733f c793 71bf 5452 4e3f eea7 0ebf
00000180: 0273 f3bf db87 d53e 5f6c 89bf a991 47bf
00000190: 25eb a93e c369 f23f 8dd8 c93e 6d9d e03f
000001a0: 5102 ccbe 0b42 4f3e c658 313e eacb ac3e
000001b0: 8c5a 733f 312f a3bf a452 293f 67c6 80bf
000001c0: afd6 bb3e d724 1e3f fc2d a9bf 885a 27bf
000001d0: e3aa 213f 2bab a73d 996c c3bf 7af7 efbe
000001e0: 2111 0b3f 7ced 51bf 4fec 83bf 9076 e33e
000001f0: d701 48be fb7f 583f 16fc 3cbf 7081 753e
00000200: 192d 11be 0f29 12bf d4f4 9b3e 97b1 06c0
00000210: 8411 2d3e 7e18 373f 8fd1 9abf 80cd 253f
00000220: f317 c33c 68d2 a13e 141a f93f cbb3 61bf
00000230: 0345 b5be 548a 72bf de25 bd3f b8e2 e23e
00000240: 8ecd 1fbf 0b9d 2f3f 6f00 a2bf 329f c13f
00000250: a8dd fd3e 88b6 83be 5760 82bd 2134 a23f
00000260: 473e 0bbf 03ce 2f3f 75f9 a9be f004 063f
00000270: 83f5 b33f 2645 61bf 8262 98be 7f4b 73bf
00000280: 5346 f33e d2c3 a53c bc39 803f 3873 01c0
00000290: cf6d afbc 734b 8f3f 8a32 9d3d 507d 943f
000002a0: f908 9e3e ddfc 84bf 4658 573f dc48 c03d
000002b0: 320c dabf 67f3 d33e 69e2 ebbf 352f cc3d
000002c0: da57 0fbf f696 393f 5e23 1b40 3b95 c33f
000002d0: ccf5 863e ee9d b4bf 007f 45bf 8961 a7bf
000002e0: 9015 673f 37d8 bf3f 6cd8 1bbf d098 cc3e
000002f0: 5959 af3f 1bd2 81bf 29b2 063f fe5a e9be
00000300: a2da 053f 8b39 043f 4484 883e fb18 8a3d
00000310: bb77 c23f 7f66 4bbf 486b b83f 508e fdbf
00000320: 1103 353e ed4c 803e 546e af3e 12b1 8b3d
00000330: a97e 52bf f37d 863e 9883 efbf b344 b4bc
00000340: 2203 b8bf 39d2 f7be 5e13 80be a94c 2440
00000350: 6a26 e1be 64c8 37bd b615 d2be c756 e33f
00000360: 731c f23e 2cc6 64be dc19 373e 563e 0dbf
00000370: 3442 3bbb 1f90 4ac0 ec7b 533e 1dda b3bf
00000380: d486 223d 7822 f83f f1d5 613f ae73 1abf
00000390: 12fc 593d ec61 a0bf ce63 a33e dc05 393f
000003a0: 7475 8d3f 97fc a5bd ea55 723f a7c3 9dbf
000003b0: 38fe a83d 15c6 473e 23cc 6cbe 7e89 de3e
000003c0: 4073 b5be 8d8f 0d3e a6fc 9f3f e771 a83f
000003d0: c404 2cbf 5911 12bf d830 5e3f e8cf 213f
000003e0: b48c 8f3f c103 d23f 01c3 c93e 8b6a 113f
000003f0: ce3d c83d 2084 ecbe 9c3e 06c0 fcdb 353f
-2.323174 1.0483633 -0.41240278 -0.40143457 -0.37010515 -0.876836 -0.97378844 -0.45387468
0.16010801 0.20780565 0.19072996 -0.28286788 2.0940192 -0.19623409 -0.628785 -1.4300787
-0.8171096 -0.07817231 -0.553481 -1.704084 0.47149143 -0.4575349 -1.2320491 -0.19946691
-0.006556662 2.4112663 2.2533135 -0.65950656 0.33828488 -0.49051 0.27126706 0.71254045
0.5527823 -0.50255984 -0.16497895 -0.46610177 0.4597473 0.4398576 0.22896443 -0.16058978
0.49958977 0.44493878 2.0907938 -1.1014264 -0.8591234 0.93050534 -0.39908993 0.2333063
0.5681553 -1.3223704 0.5978662 -1.0254825 -0.39335713 1.3646415 0.71795326 1.8849958
0.7077408 2.5365474 -0.0137824565 0.91745734 1.3635094 0.43784407 0.017590588 1.2718902
-0.7593241 -0.51476556 1.4778855 -0.8272811 -0.4862765 -0.27845734 1.7135037 -0.8180433
-0.567789 -0.35634094 -0.5438582 0.27750838 0.5991792 0.62048864 1.7146575 0.8377729
1.2341211 0.49425203 -0.39611682 1.207239 -2.0657356 0.9425773 -0.42703474 -0.43140298
0.35422269 1.2968427 -1.2914517 -0.10001616 0.9523786 -0.94366115 0.8059437 -0.5572499
-1.9019473 0.41705212 -1.0736197 -0.77956635 0.33187214 1.8938526 0.39423028 1.7548043
-0.39845517 0.20240037 0.1731902 0.33749324 0.9506004 -1.2748777 0.66141725 -1.0060548
0.36687228 0.61774963 -1.3217158 -0.65372515 0.6315138 0.081869446 -1.5267516 -0.46868497
0.5432301 -0.82003 -1.0306491 0.44426394 -0.19531952 0.8457028 -0.7382215 0.23975158
-0.1417736 -0.570939 0.30460227 -2.1045892 0.16901213 0.7152175 -1.2095202 0.64766693
0.02381513 0.3160584 1.9461083 -0.8816497 -0.35404214 -0.9474232 1.4777181 0.44313598
-0.62423027 0.68599004 -1.2656382 1.5126708 0.49583173 -0.25725198 -0.063660316 1.2672158
-0.543919 0.68673724 -0.33198133 0.52351284 1.4059299 -0.8799614 -0.29762655 -0.9503707
0.4751459 0.020234976 1.0017619 -2.0226574 -0.021414666 1.11949 0.07675655 1.1600742
0.3086622 -1.0389668 0.8411907 0.09388897 -1.7034972 0.4139664 -1.842847 0.099699415
-0.55993426 0.72495973 2.4240336 1.5279917 0.26359403 -1.4110696 -0.7714691 -1.307664
0.90267277 1.4987859 -0.6087711 0.39960337 1.3699142 -1.0142244 0.526156 -0.45577234
0.5228673 0.51650304 0.2666341 0.06743046 1.5192789 -0.7945327 1.440774 -1.9809055
0.17676951 0.2505869 0.3426386 0.06820883 -0.8222452 0.26267967 -1.8712034 -0.022005415
-1.4375956 -0.48402575 -0.25014776 2.567179 -0.4397462 -0.04486884 -0.4103219 1.7760857
0.4728733 -0.22341222 0.17880958 -0.5517324 -0.0028573396 -3.1650465 0.20652741 -1.4050938
0.039679363 1.9385519 0.88217074 -0.60332763 0.05321891 -1.2529883 0.31912082 0.72274566
1.1051469 -0.08104818 0.94662344 -1.2325333 0.082516134 0.19509156 -0.23124747 0.43464273
-0.3543949 0.13824292 1.2498977 1.315976 -0.6719477 -0.5705772 0.8679328 0.63207865
1.1214814 1.6407396 0.3940659 0.56803197 0.09777413 -0.46194553 -2.0975714 0.71038795

indicator_time_mixing.0.indicator_mixing.ln.weight f4 [16, 5]
00000000: d1cc 7b3f f865 873f 6526 8e3f 84f7 633f
00000010: a82c 813f 42f0 783f 1a04 6f3f 4cc2 6d3f
00000020: 8d36 973f 6cd5 793f 05f1 813f 044d 823f
00000030: d435 803f dd4b 6e3f f4fa 813f f0a9 733f
00000040: 9f63 853f 7978 8a3f 631c 683f 79d6 823f
00000050: d3d7 6f3f ccb5 733f 8c7b 843f 93eb 793f
00000060: f843 7f3f 0323 7a3f c8f4 743f 1306 803f
00000070: cb0c 883f 3b96 7b3f c707 743f 659b 763f
00000080: 1197 7b3f 84fb 813f 4d3c 7c3f cddb 823f
00000090: 2690 363f 973b 8a3f af6b 973f 9862 523f
000000a0: a5a0 7a3f c2be 773f adbd 813f a651 7d3f
000000b0: e085 7d3f 7e19 743f 1da3 7a3f 1147 943f
000000c0: 7257 683f 03a9 813f 2176 7e3f d0e7 8b3f
000000d0: 5967 793f 6947 793f 5313 763f 3b72 7b3f
000000e0: 04cd 7f3f c61f 883f e131 6c3f acd9 803f
000000f0: 47e1 6c3f 413b 833f 3181 8c3f fba1 643f
00000100: 4304 823f 0985 733f 1bd8 843f 0345 873f
00000110: add9 5f3f 1479 7e3f dfae 693f b081 7d3f
00000120: 5c8f 8f3f 0980 683f 564f 813f be8a ba3f
00000130: d3f5 833f f2b5 413f 9987 bd3f 46dd 623f
0.983594 1.0577993 1.1105467 0.89049554 1.0091753 0.97241604 0.93365633 0.928746
1.1813523 0.9759128 1.0151678 1.0179753 1.0016427 0.9308451 1.015471 0.9518118
1.0421027 1.0818015 0.90668315 1.0221702 0.93688697 0.95199275 1.0350204 0.9762508
0.9971309 0.97709674 0.95686007 1.0001854 1.0628904 0.9827611 0.9532437 0.96330863
0.98277384 1.0154881 0.9852951 1.0223328 0.71313703 1.0799435 1.1829737 0.8218169
0.97901374 0.9677545 1.013601 0.9895271 0.990324 0.953514 0.9790514 1.1584188
0.9075843 1.0129703 0.99399 1.0930119 0.9742332 0.9737459 0.96123236 0.98221177
0.99922204 1.0634696 0.9226361 1.0066428 0.92531246 1.0252458 1.0976926 0.8930966
1.015755 0.9512487 1.037845 1.0567936 0.8744152 0.994035 0.9128246 0.9902601
1.1215625 0.90820366 1.0102336 1.4573591 1.0309395 0.7566825 1.4807006 0.88618886

indicator_time_mixing.0.indicator_mixing.ln.bias f4 [16, 5]
00000000: d983 2c3c 499c 45bd 2abd c63d cfac e23c
00000010: 7486 47bc e2af 97bc 8aba 173d 936a 4bbd
00000020: 2f15 dd3b 6ff6 323c c75d c93b 688f 64bb
00000030: 4ac3 8abc eb96 26ba 752a f8b9 619e 803b
00000040: 1613 f7bc c7f6 6b3d e8b1 e93c 8afa 103a
00000050: 86e5 2bbc 7d67 dc3c a3cd 063d 3e7b 793c
00000060: a708 5c3b 744c b83b 49fc 553c 8eb1 ee3c
00000070: 7258 b43c 4318 113c 954c efbb cb73 873c
00000080: 57b5 41bc ac5f 973c 1e49 e43b 6909 983d
00000090: bd11 b73e 05ca c83d bd3c 6abe 3bfb 2f3e
000000a0: a8bc 623c 555b 143c d4ab 1c3d dce0 683c
000000b0: 3f03 0f3c 66cd b0ba 83b6 a9bb 5d39 243e
000000c0: 9a52 1a3d 3ee3 3abc ce25 1aba ecfb 03be
000000d0: 086c b2bc b853 e33c acdd 023d f021 ab3b
000000e0: f714 86bc 8b54 4d3d 31d5 0e3d 7f44 58bb
000000f0: c169 14bc fe8c cebc df08 bd3d ccac b63c
00000100: bc5a 04bc d173 78ba a981 81bd 2328 6d3d
00000110: f37b 823c dc84 243c df7f 35ba 8913 0ebc
00000120: 8848 f53d 965f 8e3c 8e91 cf3a ee1d 253d
00000130: ef15 ecbc aa1b 77be bafa aabe b0c2 8f3c
0.010529482 -0.04824475 0.09704049 0.027670292 -0.012178052 -0.018516485 0.037043132 -0.049662184
0.00674691 0.010923012 0.0061452123 -0.0034875516 -0.016938824 -0.0006354886 -0.0004733388 0.0039251302
-0.030160468 0.057608392 0.028527215 0.00055304973 -0.010491734 0.026904816 0.032910954 0.015227137
0.0033574493 0.0056243483 0.013060638 0.029137399 0.02201483 0.008855882 -0.0073028305 0.016534707
-0.01182302 0.018478237 0.006966724 0.0742367 0.3575572 0.09804157 -0.22874732 0.1718568
0.0138389245 0.009054978 0.038249806 0.014213767 0.008728801 -0.0013488948 -0.005179228 0.16037507
0.03767643 -0.011406718 -0.0005880267 -0.1288907 -0.021780029 0.027749881 0.031949684 0.0052225515
-0.016367419 0.050129455 0.034871284 -0.0032999811 -0.009058417 -0.025213715 0.09230208 0.022299193
-0.008078273 -0.0009477707 -0.06323559 0.057899605 0.015928244 0.010041442 -0.00069236563 -0.00867165
0.11976725 0.017379563 0.0015836225 0.040311746 -0.028819053 -0.24131647 -0.33394414 0.017548889

indicator_time_mixing.0.time_mixing.ln.weight f4 [16, 5]
00000000: 23c0 873f bacd 843f a7c7 7a3f 3ed4 863f
00000010: 9b67 7a3f 2b64 833f 2ef1 833f 484f 7a3f
00000020: 37d8 843f f32d 7d3f c109 823f fac1 813f
00000030: ef9f 7f3f 6065 823f 0ce5 803f 1025 843f
00000040: 9ab4 843f 079d 793f 81c9 843f 0dd2 7b3f
00000050: eb6a 823f 3477 813f ec17 803f a7c5 813f
00000060: ad99 803f 2344 843f 76d2 833f 6cfa 7b3f
00000070: d5b2 833f 4874 7d3f 42c4 813f 2a68 813f
00000080: 9648 803f aaaf 803f 0f7c 813f 0078 823f
00000090: 6ee2 813f 6cd5 803f 0de4 7e3f 1815 813f
000000a0: 3b64 863f 75aa 853f 48bd 793f 96c7 843f
000000b0: 5daf 793f 001b 863f 69c2 843f 940d 7f3f
000000c0: 95a1 833f e476 7e3f 6568 873f b3a9 873f
000000d0: 0311 783f 30cf 853f b098 793f 33f0 843f
000000e0: a530 833f 533f 813f 64ed 813f 711d 7f3f
000000f0: cd9f 843f 2f01 853f 1f82 7d3f 3e71 833f
00000100: 0898 7c3f 0d43 803f 0eea 833f fbf5 7e3f
00000110: eed1 813f a977 803f 6522 793f dc2c 833f
00000120: 866d 7d3f 6f28 803f a6c3 803f c612 7d3f
00000130: 471f 503f 736e 963f ac48 653f af14 913f
1.060551 1.0375283 0.97960895 1.0533521 0.9781434 1.0264944 1.0307977 0.97777224
1.0378484 0.9889824 1.0159227 1.0137322 0.99853414 1.0187187 1.00699 1.032381
1.0367615 0.9750523 1.0373994 0.9836739 1.0188879 1.0114503 1.00073 1.0138444
1.0046898 1.0333294 1.0298603 0.9842899 1.028895 0.99005556 1.0138018 1.0109913
1.0022151 1.0053608 1.0115985 1.0192871 1.0147226 1.0065131 0.9956673 1.0084562
1.0499338 1.0442644 0.97554445 1.0373409 0.9753321 1.047699 1.0371829 0.99630094
1.0283686 0.9940016 1.0578734 1.0598663 0.9690096 1.0453854 0.9749861 1.0385803
1.024922 1.009745 1.0150571 0.996543 1.0361267 1.0390986 0.99026674 1.0268934
0.9866948 1.0020462 1.0305803 0.99594086 1.014219 1.0036517 0.97318107 1.0248065
0.98995245 1.0012339 1.0059707 0.9885677 0.81297725 1.1752456 0.89564013 1.1334437

indicator_time_mixing.0.time_mixing.ln.bias f4 [16, 5]
00000000: 3c42 403d 94c4 2abd a6d5 edbc d1f6 233d
00000010: 0bb1 0e3d dc93 fc3c 8e08 bebc b690 2fbc
00000020: ffdd b53c 377a 7a3c fcab 753c 381b d1bb
00000030: ea1a 963b 25b6 c73b 7978 42ba d587 093d
00000040: 9390 ddbc e24d 75bc 82ab d33c 4f36 a53c
00000050: f961 683c a5ff abbb 856c 373b b25d a43b
00000060: 1f85 bf39 083c f43c dfb3 afbc 39a0 45bc
00000070: 0a1e aa3c 5e37 843c f55f 2a3c 0944 26ba
00000080: 9618 c23b 2835 233a 13a9 55bb 49ee 6f3c
00000090: c844 bbbb bd3f 3a3b f9a5 af3b 6465 b23a
000000a0: d4e8 2f3d c327 16bd 30b6 d9bc 60b5 0e3d
000000b0: e1d7 053d 80fc 183d 9dfc f6bc f3a9 7fbc
000000c0: 300d e83c 1980 bd3c c5b9 533d 3756 38bd
000000d0: 7e96 01bd 1ef8 303d f2db 203d 93d1 c83c
000000e0: df06 91bc cb82 9cbb 81cd 7a3c d3a1 5f3c
000000f0: ea18 013d a30a cfbc 3d94 73bc 10a2 bb3c
00000100: 2105 b63c d0da 393c d470 30bb f535 d13b
00000110: e3d6 b1b9 2d39 c33a fedd 36ba 86f9 043c
00000120: 7d58 703c dcd4 34bc aa42 10bc 7ca0 e7bd
00000130: cdf2 e93d ce9d c33d ac64 debd 0ee0 dabd
0.046938166 -0.041691378 -0.02903254 0.040030304 0.03483681 0.030832224 -0.023197439 -0.010715654
0.022200583 0.015287927 0.014994618 -0.0063814186 0.004580845 0.0060947114 -0.00074184645 0.033576805
-0.027046477 -0.014972182 0.025838617 0.020167498 0.014183515 -0.005248981 0.0027988267 0.005016052
0.00036529542 0.029813781 -0.021448074 -0.012062126 0.020766277 0.016139682 0.0103988545 -0.00063425355
0.005923341 0.00062258774 -0.0032601997 0.014644214 -0.0057149865 0.0028419339 0.0053603617 0.0013610539
0.04294665 -0.036659013 -0.026576132 0.03484094 0.03267658 0.037350178 -0.030149752 -0.015604484
0.0283266 0.02313237 0.051690836 -0.045004096 -0.03163766 0.043205373 0.039272256 0.024513995
-0.017703472 -0.004776334 0.015307785 0.013649422 0.0315179 -0.025273627 -0.014866886 0.022904426
0.022219243 0.011343673 -0.002692272 0.006384606 -0.00033920174 0.0014894359 -0.00069758284 0.008116132
0.014669535 -0.011037078 -0.008804956 -0.11309907 0.11423264 0.09551583 -0.108590454 -0.10687266

indicator_time_mixing.0.time_mixing.U1.1 f4 [1, 2]
00000000: eaf4 15be 0143 13be
-0.14644209 -0.14381029

indicator_time_mixing.0.time_mixing.U1.2 f4 [1, 3]
00000000: 5c88 87bd 1124 51bd 8c35 5fbd
-0.06617805 -0.051059786 -0.054494426

indicator_time_mixing.0.time_mixing.U1.3 f4 [1, 4]
00000000: 32bb eabd c011 d6bd fa0b c6bd 7969 b6bd
-0.11461486 -0.10452604 -0.09670253 -0.08906836

indicator_time_mixing.0.time_mixing.U1.4 f4 [1, 5]
00000000: e39e 96bd c7d0 80bd a2bc b5bd b02f 9ebd
00000010: 5313 9ebd
-0.07354524 -0.06289821 -0.088738695 -0.077239394 -0.077185296

indicator_time_mixing.0.time_mixing.U1.5 f4 [1, 6]
00000000: 78d1 82bd d8e1 89bd c549 84bd b53d 8dbd
00000010: 8bfa 41bd 8731 2fbd
-0.06387609 -0.067325294 -0.06459383 -0.06896535 -0.047358077 -0.042771842

indicator_time_mixing.0.time_mixing.U1.6 f4 [1, 7]
00000000: 917f dbbd 2ef8 febd dc19 dfbd 2f09 cfbd
00000010: 2bf3 e6bd 2538 cdbd 9e27 fdbd
-0.10717691 -0.1244968 -0.10893604 -0.101091735 -0.11276849 -0.10020474 -0.12361072

indicator_time_mixing.0.time_mixing.U1.7 f4 [1, 8]
00000000: e78c c2bd 3968 bdbd 08a6 cabd 8431 b2bd
00000010: 5ae2 d1bd 5c64 c9bd 732e c8bd 582a 91bd
-0.09499531 -0.092483945 -0.09894949 -0.087008506 -0.10248251 -0.09833595 -0.097744845 -0.070881546

indicator_time_mixing.0.time_mixing.U1.8 f4 [1, 9]
00000000: 5599 22be bd19 e7bd 8838 d1bd b893 1abe
00000010: 57f7 d4bd bc40 03be 9ad8 dfbd bd29 e5bd
00000020: 8050 16be
-0.15878804 -0.11284206 -0.102158606 -0.15095413 -0.10398739 -0.12817663 -0.10929985 -0.111896016
-0.14679146

indicator_time_mixing.0.time_mixing.U1.9 f4 [1, 10]
00000000: 1904 94bd a6e1 0ebd bbec 66bd 4873 8abd
00000010: 91f4 3fbd 6875 82bd 1293 53bd f367 3dbd
00000020: d068 5ebd 040f 70bd
-0.07227344 -0.034883164 -0.056378108 -0.067602694 -0.046864096 -0.0637005 -0.05165393 -0.04624171
-0.054299176 -0.05860807

indicator_time_mixing.0.time_mixing.U1.10 f4 [1, 11]
00000000: 54af f7bd 5c00 d8bd 9376 dcbd 6bf5 d8bd
00000010: dae8 cabd 65de d4bd 38b5 a5bd 560a d1bd
00000020: a931 00be be97 0fbe b81c f6bd
-0.12093988 -0.105469435 -0.10764804 -0.10593685 -0.09907694 -0.10393981 -0.08091205 -0.102070495
-0.12518944 -0.14022729 -0.120171964

indicator_time_mixing.0.time_mixing.U1.11 f4 [1, 12]
00000000: 3531 65bd fd89 6cbd 4ff2 32bd 49fe 55bd
00000010: 6778 35bd c19a 80bd 80a8 87bd fac8 35bd
00000020: b05c 88bd 9e3e acbd 5245 b5bd 111c 60bd
-0.05595513 -0.057748783 -0.043688115 -0.05224446 -0.044304278 -0.06279517 -0.06623936 -0.04438112
-0.06658304 -0.08410381 -0.088511124 -0.054714266

indicator_time_mixing.0.time_mixing.U1.12 f4 [1, 13]
00000000: 5a0c 8bbd 08f8 36bd 59f3 4fbd 020d 4ebd
00000010: 05b4 9cbd 211a 5bbd d787 88bd 3f86 82bd
00000020: 7149 0cbd 6495 99bd f4fe afbd 9c1a 8cbd
00000030: c97b 2cbd
-0.06789465 -0.044670135 -0.050769184 -0.050305374 -0.076515235 -0.053491715 -0.066665344 -0.06373262
-0.034249727 -0.07499197 -0.0859355 -0.06841013 -0.04211024

indicator_time_mixing.0.time_mixing.U1.13 f4 [1, 14]
00000000: e8e6 f6bd f36b dfbd cca4 00be 5113 fbbd
00000010: a1be ebbd 46df ffbd c8d8 dabd b1c7 f8bd
00000020: 61ef f4bd e643 f2bd 3986 11be 61a2 f2bd
00000030: 917e e6bd 6203 d6bd
-0.120557606 -0.109092616 -0.12562865 -0.12259544 -0.11510969 -0.12493758 -0.10685879 -0.12147463
-0.119597204 -0.11829357 -0.14211358 -0.118473776 -0.112546094 -0.10449864

indicator_time_mixing.0.time_mixing.U1.14 f4 [1, 15]
00000000: b6e9 a5bd bb20 9dbd 93b3 91bd 4e61 8ebd
00000010: f689 9fbd 24cb a9bd ec4a a0bd e6aa 83bd
00000020: cd76 a6bd 61a0 b1bd 5cfa 98bd 0745 95bd
00000030: 13bb a3bd 83e1 8cbd 313e 9fbd
-0.081012174 -0.076722585 -0.07114329 -0.06952153 -0.07789986 -0.08290699 -0.0782679 -0.06429081
-0.08128128 -0.08673168 -0.07469627 -0.072885565 -0.07994666 -0.068789504 -0.07775534

indicator_time_mixing.0.time_mixing.U1.15 f4 [1, 16]
00000000: ede5 9dbd c6a9 aebd fb4e c5bd b045 b5bd
00000010: ff29 d4bd 866d bfbd 1347 e3bd 6a16 92bd
00000020: c386 adbd 0552 b2bd 1dc8 c1bd 53c5 e7bd
00000030: 76bf cbbd 4c60 dabd a192 96bd fba3 253e
-0.077098705 -0.085284755 -0.09634205 -0.088511825 -0.103595726 -0.09347062 -0.11097541 -0.071331814
-0.084729694 -0.0870705 -0.09461997 -0.113169335 -0.09948628 -0.106628984 -0.07352186 0.16175835

indicator_time_mixing.0.time_mixing.U2.1 f4 [1, 2]
00000000: 4d8a 973c 013f 09bc
0.018498564 -0.008376838

indicator_time_mixing.0.time_mixing.U2.2 f4 [1, 3]
00000000: be49 c7bb 1ff8 503c 8ed4 57bc
-0.006081789 0.012754469 -0.013173236

indicator_time_mixing.0.time_mixing.U2.3 f4 [1, 4]
00000000: 0420 1a3a 1f02 e4bb 4e42 b5bc a1ed a0bc
0.00058794045 -0.0069582607 -0.022126343 -0.01964456

indicator_time_mixing.0.time_mixing.U2.4 f4 [1, 5]
00000000: 3097 e93b 694c 973c 76ea 123c f63e 243b
00000010: b46b ab3b
0.0071286187 0.018469052 0.008967033 0.0025061942 0.005231345

indicator_time_mixing.0.time_mixing.U2.5 f4 [1, 6]
00000000: 34f6 423c c021 a93c 52cd 423c 3b5f 7c3c
00000010: 1b35 603c b119 1a3c
0.01189952 0.020645976 0.0118897725 0.015403564 0.013684536 0.009405539

indicator_time_mixing.0.time_mixing.U2.6 f4 [1, 7]
00000000: 9883 d8ba 43af 113a 9f00 c9bb e826 633b
00000010: 667f 043d 4885 e73c 82c1 243c
-0.001651871 0.0005557427 -0.0061341072 0.003466064 0.03234806 0.028261796 0.0100559015

indicator_time_mixing.0.time_mixing.U2.7 f4 [1, 8]
00000000: 58d0 053e c650 f63d e78c 253e caec f93d
00000010: f1c0 093e 4eb7 0d3e 1bb9 063e b98e 093e
0.13067758 0.12027125 0.16167031 0.12203367 0.13452508 0.13839456 0.1315655 0.1343335

indicator_time_mixing.0.time_mixing.U2.8 f4 [1, 9]
00000000: 7ed6 c23c 8fae c93c c7f6 8e3c bfb3 143d
00000010: e944 f43c 732c 2e3c 62ae e53a b546 e73c
00000020: b82a 133d
0.023783918 0.024619369 0.017451657 0.03630423 0.029818015 0.010630715 0.0017523284 0.028231958
0.03592941

indicator_time_mixing.0.time_mixing.U2.9 f4 [1, 10]
00000000: 4219 093c 67a0 e5ba 282b 33bc 5756 a1bc
00000010: f7d7 dabc 7387 81bb 5eed 11bc 21c4 8bbc
00000020: 12fc 5dbc 35ad e2bc
0.008367838 -0.0017519117 -0.010935582 -0.01969449 -0.026714308 -0.0039529144 -0.00890669 -0.017061295
-0.013548868 -0.027670482

indicator_time_mixing.0.time_mixing.U2.10 f4 [1, 11]
00000000: acc5 843c b4f2 813c efbe 0a3c 6b01 4c3c
00000010: cb13 853c eb41 7fbb 48ee 953c 5496 6b3c
00000020: bd0a 253c c37a 2f3c 4fba c43c
0.016207539 0.0158628 0.008468374 0.01245151 0.01624479 -0.0038949202 0.018302098 0.014379103
0.010073361 0.010710421 0.02401462

indicator_time_mixing.0.time_mixing.U2.11 f4 [1, 12]
00000000: 4198 6fbc 5da9 dbbc 08b5 27bc eb01 27bb
00000010: bce6 40bc 9a09 f73b f6f3 313b d94d 99bb
00000020: 7b60 153b 13b3 083c c538 d93b 7d64 08bd
-0.0146237025 -0.026814157 -0.010236032 -0.002548332 -0.011773761 0.0075389864 0.0027153469 -0.0046784696
0.0022793103 0.008343476 0.006629082 -0.033298958

indicator_time_mixing.0.time_mixing.U2.12 f4 [1, 13]
00000000: 8d72 40bc b756 2ebc a3e8 c9bb f5f8 803c
00000010: 0a1d 3aba e5c8 48bc 7738 02bc 8a8b 8b3a
00000020: 6c9b 11bd 14f4 e8bb e81d 8fbc 2cd7 13bc
00000030: 1b4b 44bc
-0.011746061 -0.010640792 -0.0061617657 0.015743712 -0.0007099664 -0.012254928 -0.007948033 0.0010646444
-0.035548612 -0.0071091745 -0.017470315 -0.009023469 -0.011980797

indicator_time_mixing.0.time_mixing.U2.13 f4 [1, 14]
00000000: a256 bcbb 770e 103c 23e6 c93b 7921 b93b
00000010: dc13 993b 61c8 043b 67ba 54bc 4afa db3b
00000020: 458e 103c 6545 9cbb f4e3 a93c 4f7b 203c
00000030: 648b a2bc b14c 9a3b
-0.005747632 0.008792511 0.0061614676 0.005649742 0.004671557 0.0020261037 -0.012983895 0.0067131864
0.008822982 -0.0047690147 0.02073858 0.009795024 -0.019841857 0.0047088494

indicator_time_mixing.0.time_mixing.U2.14 f4 [1, 15]
00000000: d9eb 08bc c2c7 df3b 2176 b6bc 4dc1 46bc
00000010: 7e1e 6e3c 5627 7bbc c35e 623c cd86 e43b
00000020: 26bb 88b8 c239 d2bc a1b4 893b 1142 b3bb
00000030: b2a8 0a3c 7bcc 5c3b 77c1 1fbb
-0.008357012 0.006829233 -0.022273125 -0.012131047 0.014533637 -0.015329203 0.013816538 0.0069740773
-6.5198445e-05 -0.025662307 0.004202441 -0.005470522 0.008463072 0.0033691216 -0.0024376789

indicator_time_mixing.0.time_mixing.U2.15 f4 [1, 16]
00000000: 5482 e83a 8b9e 823c e028 283d 43cb fb3c
00000010: 9229 f63c 355c 8e3c 9154 1e3c 14e9 ee3c
00000020: a509 b239 7c08 ba3c bf35 993c 7404 053d
00000030: 8ee4 b23c ae04 543c ec63 a03c 2020 6d3c
0.0017739036 0.01594474 0.041054606 0.030736571 0.03004912 0.017377952 0.009663717 0.029163875
0.0003395799 0.022709124 0.018702386 0.03247495 0.021837499 0.012940569 0.019578896 0.014472991

indicator_time_mixing.0.fc.weight f4 [1, 5]
00000000: 4a79 6b3d e07e 0fbe 5030 a1bd 7e11 a63e
00000010: dff2 df3d
0.057488717 -0.14013243 -0.07870543 0.3243522 0.10934996

indicator_time_mixing.1.indicator_mixing.W1 f4 [5, 64]
00000000: 96ed 85be c96e e9bf 2df2 863f a1b2 843e
00000010: dd6b ef3e 9cda 2d3f e58a 48be 7eec b93d
00000020: b758 0840 5194 ecbf 1bb3 5abf 544a 993f
00000030: d0c8 a1be f9a9 af3f 04e3 65bf ea0a 7f3d
00000040: b2b9 d23f 360d b3be 22e7 d7bf 68a4 533e
00000050: 663a bc3f b96a 813e a2ea 033f d406 a7be
00000060: 295f f9bf 03cd ce3f 39a0 4cbf 5a53 3ebe
00000070: 9e98 7cbf 071b e7be 2003 2440 85ff 863f
00000080: c107 6fbf 8b92 0e3e 6184 bfbe 1802 4e3f
00000090: d74b 8e3f 813f 4cbf e9e4 1abf 4131 89bf
000000a0: 0c31 513f 0a30 bcbf 3408 0740 e018 db3f
000000b0: 8cdf 77bf 0a1b 4e3f 1fbf 2cbe 2e6a 18bf
000000c0: ec7c 04bf d412 f7bf a350 b13b 95b7 96be
000000d0: 527d 753f 3cd4 6dbf 761c d13e d343 bbbf
000000e0: e549 54bf 9742 443f f843 4ebe 21dd 0d40
000000f0: 9e22 543f 48b0 b73f 1db3 563d 1e4d cd3e
00000100: 3bb9 84bf cb7d b0be 8e67 01bf 1c0c e5bf
00000110: 1bfe ecbe 6397 323e 2d91 ad3f 2011 04bf
00000120: 4e46 f1be 1cc6 7fbf 3b4d ca3f 6ed2 2e3e
00000130: ce17 52bf 8203 8ebf 6ac4 083f 8b5d dabd
00000140: dadb 153e db3d 2d3f 777e e53f e04f 2ebf
00000150: 1baf 7f3e bb7a 53bf 2f60 633e 974a a6be
00000160: c45b 37bd b9db 66bf 1808 e5bd d496 d5bf
00000170: dee0 d3bf a51e b1be a7c8 ed3c 0a6a cfbe
00000180: c025 6abe e34d 213e b0cb 703f f3d3 693f
00000190: 98bf 19bf c573 8d3e 9ae7 88be 8d87 533e
000001a0: 1424 48be 5532 153f 1f32 00bc e55d 3f3f
000001b0: 669c 153f 275d 403f 3964 c43c a99b f2be
000001c0: de48 c73e 9d17 99bf ddd1 be3e 01f3 10bf
000001d0: a920 403f 04a9 4cbf c74f 96bf 5606 79bf
000001e0: a14d 5a3f 9a88 0b3e b168 64be 1bc4 89bf
000001f0: 9def 683e 259b cfbf 3ac0 0cc0 fca4 873f
00000200: 1ec8 4a3f b7d7 99bf cb0b 933e 180c 0ac0
00000210: 24a8 ae3f b672 3e3e 2c5d ecbf 5ab6 c2be
00000220: 2777 6fbe 9d9a 303f a1b2 a33e 38fc 913f
00000230: f029 85be 1cd9 5f3f 81fd 133f 40ac 75bf
00000240: 0d1c 76be 1868 823e 4b6b 4dbf 4b80 4c3e
00000250: 1e4e 123f 9167 c4bd 8319 0fbf ab15 5c3f
00000260: e316 7abf b791 76bf 6b95 0c3e af6a d6bf
00000270: 1f44 7a3f 3f81 9f3f e74d 823e 3e0c ca3e
00000280: 173c 783e 62fe b2bf ec8c 8b3e 3bc7 e83e
00000290: 68d3 4c3e 8161 2fbe 0422 3b3f d387 afbf
000002a0: 259a 013f 0c4a abbf d898 743f e692 7f3f
000002b0: 6c73 803f 3638 133f efd4 cbbe 8a7a 833f
000002c0: 48b2 36bf d0b1 3040 8afa dfbf 498f 01be
000002d0: 9372 33bd b148 b93d 27da d43f 678d c13f
000002e0: b806 90be cb5b 5ebe 07a9 1abf f012 b23f
000002f0: eabd 6d3f 495e e83b e09a a1bf b3ba 20be
00000300: 2ec7 89bf b2fb 763f f8d1 9fbf 262e a03f
00000310: ee65 4bbf 324e e23e 98f0 3cbf a1a6 3840
00000320: a977 c73e afa4 1ebf c39d 51bf cea0 27bf
00000330: 14a8 613e 6c8f bcbf f7dc 85bf ba7c c1bf
00000340: 79c7 2c3f f0c3 6a3f 2e5c 97bf 567c 9cbd
00000350: 4c59 b4bf 73b9 e63f 6812 213f 0260 9b3d
00000360: e516 acbf 2967 083f 980f 14be 0234 7d3f
00000370: c5cd 5a3f 4798 ef3f 637e 9d3f 69c1 62be
00000380: 50a0 87bf f949 84bf d07e 4e3f 28ad 2e40
00000390: 938c a9be b78a 893f f1d6 c03f 417a 32be
000003a0: 5604 d03e e5d4 ce3f 1651 a1bf 41a5 3c3f
000003b0: 5c07 94bf b829 d73f 00cc b33d 032f a73f
000003c0: 43c4 16bf 09d6 adbf 864e 08bf 973a 92be
000003d0: 841f 453f 71fe d1bf 4448 063f e4a5 d6be
000003e0: d2bc 663f 8177 a63f 2dd8 b2bf ac94 703f
000003f0: f467 98bf fc64 9d3f acda 823f f9b5 8f3f
-0.26157826 -1.8236934 1.0542656 0.25917533 0.4676198 0.67911696 -0.19584234 0.090783104
2.1304147 -1.8482763 -0.85429543 1.1975808 -0.3159852 1.3723747 -0.89799523 0.062266268
1.646292 -0.34971017 -1.6867411 0.20668185 1.4705322 0.25276735 0.51529896 -0.32622397
-1.9482166 1.6156315 -0.7993198 -0.18586484 -0.98670375 -0.45137808 2.5626907 1.0546728
-0.93371207 0.13923089 -0.37405685 0.80471945 1.1116894 -0.797844 -0.6050554 -1.0718156
0.81715465 -1.470216 2.1098757 1.7116966 -0.9682548 0.8051001 -0.16869782 -0.5953702
-0.51753116 -1.9302621 0.005411224 -0.29436937 0.9589435 -0.9290197 0.40842026 -1.4630073
-0.82925254 0.7666411 -0.20143116 2.2166216 0.8286532 1.4350672 0.05241691 0.40097898
-1.0369028 -0.34470972 -0.50548637 -1.789432 -0.46287617 0.17440562 1.3559929 -0.5158863
-0.4712395 -0.99911666 1.5804819 0.1707246 -0.82067573 -1.109482 0.53424704 -0.10662373
0.14634648 0.6767251 1.7929219 -0.6809063 0.24969141 -0.82609147 0.2220466 -0.32478783
-0.04476525 -0.9017902 -0.111831844 -1.6686654 -1.6552999 -0.34593692 0.029026343 -0.4051059
-0.22865963 0.15752368 0.940608 0.91339034 -0.60057974 0.27627388 -0.26739198 0.20657177
-0.19545013 0.58279926 -0.00782445 0.74752647 0.5844177 0.7514214 0.023973571 -0.47384384
0.3892278 -1.1960331 0.37269488 -0.56620795 0.75049835 -0.799454 -1.1743096 -0.9727529
0.852747 0.13626328 -0.22305562 -1.0762972 0.22747655 -1.6219221 -2.1992326 1.0597224
0.79211605 -1.2018956 0.28719935 -2.1569881 1.3645062 0.18598446 -1.8465934 -0.38029748
-0.23385297 0.6898592 0.3197222 1.1405096 -0.26008558 0.8744066 0.5780869 -0.9596596
-0.24034138 0.25470042 -0.8024184 0.19970815 0.5715045 -0.09590066 -0.558983 0.8597056
-0.9769117 -0.96316093 0.13728873 -1.6751307 0.97760195 1.2461318 0.2545006 0.39462465
0.24241672 -1.3983881 0.27255952 0.454645 0.2000252 -0.17127039 0.7309878 -1.3713325
0.5062583 -1.3381972 0.9554572 0.99833524 1.0035224 0.57507646 -0.39810893 1.0271771
-0.71365786 2.7608528 -1.7498333 -0.12652315 -0.04381044 0.09047068 1.6629075 1.5121278
-0.28130126 -0.21714704 -0.60414165 1.3912029 0.9286791 0.007091318 -1.2625389 -0.1569622
-1.076391 0.96477807 -1.2485952 1.2514083 -0.7945241 0.44200283 -0.73804617 2.8851702
0.3895848 -0.6197004 -0.8188135 -0.65479743 0.22036773 -1.4731269 -1.0458058 -1.5116189
0.6749187 0.91705227 -1.1825006 -0.07640903 -1.4089751 1.8025345 0.6291871 0.075866714
-1.3444487 0.5328241 -0.14459074 0.9890748 0.8547023 1.8718346 1.2304195 -0.22144093
-1.0595798 -1.0335075 0.8066225 2.7293186 -0.33115062 1.0745457 1.5065595 -0.17429449
0.40628308 1.615872 -1.260287 0.7368966 -1.1564746 1.6809607 0.08779144 1.3061222
-0.5889322 -1.3580943 -0.5324482 -0.28560326 0.77001214 -1.6405774 0.5245402 -0.4192344
0.90131867 1.300522 -1.3972222 0.93976855 -1.1906724 1.2296443 1.0222983 1.1227409

indicator_time_mixing.1.indicator_mixing.W2 f4 [64, 5]
00000000: e836 1a3f f8d9 dcbf de80 18c0 ec25 c1bf
00000010: ddd7 f93f 9647 36bf 1d71 d93d 177b a33f
00000020: 37fa 8dbe 0747 7fbf cc2a 373f e7ce 763e
00000030: 2e1e 56be 2fd1 80be 23b7 68bf 3587 863e
00000040: e2fb 61be 1045 0a3e aad9 9e3c e17b 673e
00000050: 3de3 853f 4c82 e73f c9f4 b5bf 03dc ddbf
00000060: d634 e43e be10 c83f c454 993c 0872 603f
00000070: 9fb4 d7be bb92 a1bf c15b 0bc0 441e 90be
00000080: 86b1 7e3e 8049 c83e 49a4 293f 4f99 4e3f
00000090: 5be2 bbbf bf39 8dbf 858c a1bc 360b aabf
000000a0: dfb8 08be d600 b43e b3c2 3abf 0dda 0a3f
000000b0: add1 28bc eefb 963f 9592 453f e58b 84be
000000c0: e592 33bc 4a17 923f 602c 4c3f 86b8 75bd
000000d0: 7e06 e23f 6115 f3be 0baa 3d3e aa57 553d
000000e0: e712 453e 769f f93f aa01 bebd 9dc4 de3d
000000f0: 6e18 8a3f 79c3 c03f 7585 c7bf 106b 84bf
00000100: cc6e fc3f 7e98 7e3e 8440 b5be 8d5d e7bf
00000110: 8907 ae3f 55c7 8cbe 6932 2a3f d100 833f
00000120: b808 263f dfbc 403f 416e a1bf b881 fdbf
00000130: 6c3c c63f 0ef5 fbbf e299 853f 11bf 0d40
00000140: 5781 58be 3db5 203f 8a62 babd 28f9 7abd
00000150: 7678 6bbe 22ce b53d 7286 85be 9152 f43f
00000160: 3278 e73f 7ef6 2fc0 6484 ba3e d762 aebf
00000170: bad6 923f 41cc 44bd d1c3 6dbe 4d17 dabe
00000180: 4ac5 7dbf e2ca 7e3e ba4f b3be 9a63 ddbe
00000190: 7805 993f 43f7 193e e7d8 fd3f ddf5 c2bf
000001a0: 692c 013f 7d20 f13e a4f7 92bf 4d40 0e3f
000001b0: ac4d 06c0 ead8 f4be f88e 083f f45f 5f3f
000001c0: 0c5a 90bd 26de cfbf bbd9 66bf 4ed2 01bf
000001d0: 052f 3ebf 59d3 543f eeff 703e 1991 943e
000001e0: 5c57 8abf b962 dc3e 87ef 73be c810 11bf
000001f0: acec b2bf d0b4 55be 7457 10be a6d9 9e3f
00000200: 9749 5a3f 91b6 1cbf 4d39 c2be 50ca 75bf
00000210: eb10 25bf 98c7 0dbf 8bd9 3e3f 8e29 413e
00000220: 3338 9e3e ba08 1dbf c846 173e 4b17 803f
00000230: fddc 73bf a888 793f 5800 d93f dda5 dfbe
00000240: 559f 0ec0 b1d9 a2bf 8095 a23f d633 f63f
00000250: 7fd3 41bf 5395 04bf 85e1 2a3f 0c83 b8bf
00000260: 0b01 0fc0 588a c63f 36ee 5a3f a40c 90bf
00000270: f1a7 a9bf 39a6 a53f f263 7fbc 2a4b 4a3e
00000280: 6a14 83bf a07e 093f bf24 9b3d d637 493f
00000290: 3337 a83e 5573 c6bf 10fd fbbe 3d85 933d
000002a0: 71b7 47be 9e99 83bf 984c bdbe d77d 06bf
000002b0: ed63 95bf 138d 823d 0d5f 63bf dddc 78bd
000002c0: 225e 193f 5b85 1f3f 325f 463e 0a27 88be
000002d0: 47ed 93bf 07c1 c83e 7873 a73f 0661 94bf
000002e0: 349f 0bbf 8aec 1540 2f72 4fbe 1445 ddbe
000002f0: 0fbe 843f dff0 d43e 73e5 b0bf fdba 1740
00000300: a799 51bf 6e06 193e ef20 2abe f69b 3ebf
00000310: 39c0 983e a2fd 63be 71d9 9cbf 8991 d6be
00000320: 474e ee3f 29d5 1b3f dd21 983e 001a 2cbf
00000330: 0010 913e 4a92 f23e f764 273f 71d2 383f
00000340: d0e7 12bf fb5d 3b3f 6572 83bd 111d f93f
00000350: 0fc4 7fbf 1b22 3dc0 ff3e e5be 6464 983b
00000360: 1148 c7bf 7ab8 29bf 9a9b 763f 7564 f1bd
00000370: c342 5abf 9eda 19bf 54de e63d 10e3 41be
00000380: 3064 5d3f f9a2 c43d 1fcf 453f cb7c 09bf
00000390: 6cad 5e3e 4234 e73d 18a9 a2bf 4a00 2d3f
000003a0: f1f0 cbbf 4f2e 85bf 5404 e1bf 1e00 e33f
000003b0: 110e af3f e359 8cbe 45b2 38bf fe5d d1bf
000003c0: 9dad 2ebf c925 333f 0b45 1cbf 1d90 15bf
000003d0: 4c38 353f 844b 9d3e c120 fabf 58d2 b8bf
000003e0: edcd 953f 5eb7 82bf 1eef 813f 5c5a fd3f
000003f0: 8f58 2340 8bb8 6bbf bb81 233e cb35 09bf
0.6024003 -1.7254019 -2.3828654 -1.5089698 1.9519001 -0.7120298 0.10617278 1.2771939
-0.2772996 -0.99717754 0.7154968 0.24102364 -0.2090995 -0.25159594 -0.90904444 0.2627503
-0.22068742 0.13502908 0.0193909 0.2260585 1.0459973 1.8086638 -1.4215328 -1.7332767
0.4457156 1.5630109 0.018717177 0.87674 -0.4212999 -1.2622904 -2.1774752 -0.2814809
0.24872407 0.39118576 0.66266304 0.8070268 -1.4678453 -1.1033248 -0.019720325 -1.3284671
-0.13351773 0.35156888 -0.7295334 0.5423897 -0.010303897 1.1795633 0.7717679 -0.2588798
-0.010960315 1.1413357 0.7975521 -0.05999043 1.7658231 -0.47477248 0.18521897 0.052085556
0.19245492 1.9501789 -0.09277661 0.10877345 1.0788705 1.5059654 -1.5587603 -1.0345173
1.9721313 0.24862859 -0.35400784 -1.8075424 1.359605 -0.27495828 0.6648317 1.0234624
0.64857054 0.75288194 -1.2611772 -1.9805212 1.5487189 -1.968416 1.0437586 2.2147868
-0.21143089 0.6277655 -0.09100826 -0.06127277 -0.22995171 0.08877207 -0.26079136 1.9087697
1.8083556 -2.7494197 0.3642913 -1.3623914 1.1471779 -0.048046354 -0.2321923 -0.42595902
-0.99129164 0.24882081 -0.35021764 -0.43240052 1.1954794 0.15035729 1.9831818 -1.5231282
0.5045839 0.470951 -1.1481824 0.55566865 -2.0984907 -0.47821742 0.53343153 0.8725579
-0.07048425 -1.6239669 -0.9017598 -0.50711524 -0.74290496 0.8313499 0.2353513 0.2901695
-1.080791 0.4304407 -0.23821841 -0.5666623 -1.3978477 -0.20869756 -0.1409586 1.2410171
0.8526854 -0.61216074 -0.37934342 -0.9601183 -0.6447894 -0.5538268 0.74550694 0.18863508
0.30902252 -0.6134144 0.14773095 1.0007108 -0.95259076 0.97474146 1.695323 -0.4368123
-2.2284749 -1.2722684 1.2701874 1.9234569 -0.7571334 -0.5179035 0.66750365 -1.4414992
-2.2344387 1.5510969 0.8551973 -1.1253858 -1.3254377 1.2941352 -0.015587794 0.19755235
-1.0240605 0.5370884 0.07575368 0.78600824 0.32854614 -1.5503947 -0.4921651 0.072031476
-0.19503571 -1.0281255 -0.369725 -0.52535766 -1.167112 0.06374564 -0.8881691 -0.060757507
0.5990926 0.6231286 0.19372252 -0.26592284 -1.1556786 0.39209768 1.3082113 -1.1592109
-0.545398 2.3425622 -0.20258401 -0.43216765 1.0370501 0.4159002 -1.3820022 2.3707879
-0.8187508 0.14943859 -0.16614126 -0.7445673 0.29834154 -0.22264722 -1.2253858 -0.4190791
1.8617638 0.6087213 0.29713336 -0.6722717 0.2833252 0.47377235 0.65388435 0.7219611
-0.5738497 0.7319028 -0.064183034 1.9461995 -0.99908537 -2.9552066 -0.44774625 0.0046506394
-1.5568868 -0.66297114 0.9633118 -0.11786739 -0.8525812 -0.6009921 0.112728745 -0.18934274
0.86481 0.09601397 0.77269167 -0.53706044 0.21745843 0.11289264 -1.2707853 0.67578566
-1.5932904 -1.0404757 -1.7579446 1.7734411 1.3676168 -0.27412328 -0.7214702 -1.6356809
-0.6823366 0.6997953 -0.6104285 -0.58423024 0.7078903 0.30721676 -1.9541246 -1.4439192
1.1703469 -1.0212209 1.0151098 1.97932 2.5522802 -0.92078465 0.15967457 -0.53597707

indicator_time_mixing.1.indicator_mixing.ln.weight f4 [8, 5]
00000000: ec12 7f3f 8cc6 7d3f 56c0 843f fdb9 803f
00000010: bd7e 7f3f c9b8 933f 969a 563f 6b55 a33f
00000020: ebac 8d3f 0a82 843f aa83 763f bd53 843f
00000030: 9d8a 823f 4324 833f d1f8 773f fb88 823f
00000040: a624 7e3f 64fe 753f da28 7d3f 40e9 823f
00000050: d869 733f dd27 843f 2e2a 723f d480 7b3f
00000060: cdc5 7a3f ee13 863f fd41 7c3f 4296 823f
00000070: bd05 7f3f b896 843f bdfd 703f 0ba6 7f3f
00000080: 3302 793f 3353 7a3f f67a 813f 9692 753f
00000090: b833 873f 60db 7c3f bcb5 7d3f 7271 803f
0.9963825 0.99131083 1.0371196 1.0056759 0.9980276 1.1540767 0.8382963 1.2760442
1.1068395 1.0352185 0.96294653 1.0338055 1.0198551 1.0245441 0.9686404 1.0198053
0.9927467 0.96091294 0.9889046 1.0227432 0.9508338 1.0324665 0.9459561 0.9824345
0.9795807 1.0474832 0.9853819 1.0202105 0.9961813 1.0358496 0.94137174 0.99862736
0.9726898 0.977832 1.011565 0.959268 1.0562658 0.9877224 0.9910543 1.0034621

indicator_time_mixing.1.indicator_mixing.ln.bias f4 [8, 5]
00000000: 29f6 1fbc 914b 723b a457 10bc da82 11bc
00000010: 474d c93b 5631 46be 256c 31bd 407e 8abd
00000020: 7aa2 aa3d 6cd4 0e3a 3636 5b3d b553 7c3b
00000030: 8603 c6bc ed04 943c da1c 42bc 570a 6fbc
00000040: 2723 073d b0fd d23c 7abb 18bc 2a15 df3c
00000050: 6582 983d 147e 2d3d 52c5 b63c d00b c2bc
00000060: 23d6 a83c e08f 7fbd cf75 b03b 0c4c c23a
00000070: f8ab 553b eb83 c23b d76a 7f3d 65c1 273d
00000080: 6c99 d03c 9f4f b9bc e173 973c c1f4 213d
00000090: 0a30 49bd a1f2 ea3b 7921 793c cbf6 ecbb
-0.009763279 0.003697131 -0.008809958 -0.008881295 0.0061432454 -0.19354758 -0.043316025 -0.067623615
0.08331771 0.00054485234 0.053518496 0.0038502042 -0.024171602 0.018068755 -0.011847699 -0.014589868
0.03299251 0.025755733 -0.009322042 0.027231771 0.07446746 0.042356566 0.022310887 -0.023687273
0.02060992 -0.06239307 0.0053851376 0.0014823689 0.0032603722 0.005936136 0.06235775 0.04095592
0.025463782 -0.022620974 0.018487873 0.039540056 -0.04911808 0.007170037 0.015205734 -0.0072315685

indicator_time_mixing.1.time_mixing.ln.weight f4 [8, 5]
00000000: 5eb8 893f 280c 8b3f 203e 593f ba84 8d3f
00000010: baba 593f 3633 8c3f 787d 8e3f d166 563f
00000020: d271 903f 7061 603f b5b6 8f3f e334 8f3f
00000030: 8cb9 523f 52ad 903f 5ec7 5e3f c5b0 893f
00000040: 43e6 883f a3c5 5e3f f25a 8b3f cc7b 633f
00000050: 0336 913f 8f1a 8e3f 27ff 503f 948f 8f3f
00000060: 312a 633f 90a0 933f e10c 933f 9e20 493f
00000070: 4ea2 943f dd1a 623f cce2 8a3f 2fd8 8b3f
00000080: 1561 5c3f aa87 8c3f c09f 753f 5412 893f
00000090: 3b67 8b3f a8de 593f 9f89 903f 30a9 6a3f
1.0759389 1.0863085 0.8486042 1.105613 0.8505055 1.0953128 1.113204 0.83750635
1.1284735 0.8764868 1.1227633 1.1188015 0.8231437 1.1302893 0.8702296 1.0757071
1.069527 0.8702032 1.0887129 0.88860774 1.1344608 1.1101855 0.8163933 1.1215692
0.88736254 1.1533375 1.1488305 0.78565395 1.1612031 0.8832224 1.0850463 1.0925349
0.86085635 1.0978901 0.95946884 1.0708718 1.0890878 0.8510537 1.1291999 0.9166441

indicator_time_mixing.1.time_mixing.ln.bias f4 [8, 5]
00000000: 13f8 d9bd 7f4d ce3d 9c17 11be 73be f6bd
00000010: ff84 153e 855d 03be 59ac fe3d 275f 1fbe
00000020: 91af 0ebe da34 fb3d 63b2 0bbe e749 063e
00000030: f8f5 2dbe efe6 18be 3646 f83d dba5 b7bd
00000040: 3b68 ac3d 55bc f9bd cd80 cfbd b720 dc3d
00000050: 7146 06be d17e 003e 1816 32be c683 16be
00000060: 9771 db3d 36ef 2bbe aa18 243e ba34 52be
00000070: 996b 3ebe e8d9 cd3d 786c d3bd 09f5 c93d
00000080: 5924 02be dfe3 efbd 0124 ed3c 6a98 ecbd
00000090: d1e1 df3d 4d08 14be 8e01 0dbe 6157 8e3d
-0.106430195 0.10073375 -0.14169163 -0.12048044 0.14601515 -0.12828644 0.124352165 -0.15563641
-0.13934161 0.1226594 -0.13642268 0.13114129 -0.16988361 -0.14931844 0.12122767 -0.08967181
0.08418318 -0.121941246 -0.10131989 0.10748427 -0.13112809 0.12548377 -0.1739124 -0.14698705
0.10715025 -0.1679047 0.16025034 -0.20527926 -0.18595733 0.10051328 -0.10323423 0.0986119
-0.12709178 -0.11713385 0.028947832 -0.11552508 0.10931743 -0.14456291 -0.13770124 0.0695026

indicator_time_mixing.1.time_mixing.U1.1 f4 [1, 2]
00000000: a448 f43c d2b3 f73c
0.029819794 0.030237112

indicator_time_mixing.1.time_mixing.U1.2 f4 [1, 3]
00000000: 5170 293e aab3 383e 0fee 3a3e
0.16546752 0.18037286 0.18254875

indicator_time_mixing.1.time_mixing.U1.3 f4 [1, 4]
00000000: ef69 083c 602e b83c 8ad8 e13c e2d0 e23c
0.008326038 0.02248305 0.027569074 0.027687494

indicator_time_mixing.1.time_mixing.U1.4 f4 [1, 5]
00000000: 453c bf3d 4952 da3d c38f e03d 3553 ce3d
00000010: d778 de3d
0.093376674 0.10660226 0.1096492 0.10074464 0.10862892

indicator_time_mixing.1.time_mixing.U1.5 f4 [1, 6]
00000000: c529 023e 50b3 193e 943a 263e a5af fb3d
00000010: 716a 143e 69a9 1d3e
0.12711246 0.15009809 0.16233283 0.12289361 0.14493729 0.15396656

indicator_time_mixing.1.time_mixing.U1.6 f4 [1, 7]
00000000: 4f42 0b3d d34c f83c 2403 e03c 0b5d 583d
00000010: 884b 203d 9a32 e03c f812 3d3d
0.033998784 0.03031007 0.027345248 0.052823108 0.039134532 0.027367879 0.046160668

indicator_time_mixing.1.time_mixing.U1.7 f4 [1, 8]
00000000: d6d4 013e e283 063e c868 cc3d 8928 d73d
00000010: ce7e e83d 57b6 f13d 860e fb3d 2fe3 e93d
0.12678847 0.13136247 0.09980923 0.10505778 0.11352311 0.11802357 0.122586295 0.11420285

indicator_time_mixing.1.time_mixing.U2.1 f4 [1, 2]
00000000: 1106 28bd 9534 89bd
-0.04102141 -0.06699482

indicator_time_mixing.1.time_mixing.U2.2 f4 [1, 3]
00000000: f8c9 b4bb 7d85 aeba 5821 83bc
-0.0055172406 -0.0013314929 -0.01600711

indicator_time_mixing.1.time_mixing.U2.3 f4 [1, 4]
00000000: 6004 f63c 154e 063d 070d 563c da1b 8a3c
0.030031383 0.03278931 0.013064629 0.016858984

indicator_time_mixing.1.time_mixing.U2.4 f4 [1, 5]
00000000: 70e3 493d 641a 013d 6318 9e3c 4edb 163d
00000010: aa04 363c
0.049289167 0.03151931 0.019298738 0.03683024 0.01110951

indicator_time_mixing.1.time_mixing.U2.5 f4 [1, 6]
00000000: 93a4 31bc 7df2 77bc 4079 aa3b 2887 88bc
00000010: 13dd 333a c589 2a3c
-0.01084246 -0.015133497 0.0052024424 -0.01666601 0.0006861251 0.010408823

indicator_time_mixing.1.time_mixing.U2.6 f4 [1, 7]
00000000: c7f7 b63c 48db 583c 5fbe 023d 48f1 893c
00000010: aae1 403c 74a4 893c 9c1c 0e3d
0.022334946 0.0132358745 0.031919833 0.016838685 0.0117725525 0.01680205 0.034695253

indicator_time_mixing.1.time_mixing.U2.7 f4 [1, 8]
00000000: 56df 1c3c 2e98 0bbc 34ed 19bc d7fe a33b
00000010: 3764 6c3b 5598 5e3b e53a 3abc ed53 413b
0.009574732 -0.008520169 -0.009394933 0.0050047445 0.0036070475 0.0033965309 -0.011366581 0.0029499487

indicator_time_mixing.1.fc.weight f4 [1, 5]
00000000: 06f9 ad3d d0c7 94bd 31f3 f33d c67f c43e
00000010: 58df acbc
0.08494763 -0.07264674 0.119116195 0.38378733 -0.021102592
