weights/stockmixer_wo_indicator_L16_H64_M40_K4_E50_s1.pt (torch, 609770 bytes, 74 tensors)

time_mixing.0.ln.weight f4 [16, 5]
000000 ef c3 95 3f b7 9f 85 3f 07 1d 97 3f d1 c5 91 3f
       1.1700419 1.0439366 1.1805733 1.1388494
000010 f8 24 80 3f 34 42 87 3f 9f 09 85 3f ae 3d 97 3f
       1.0011282 1.0567079 1.0393561 1.1815698
000020 2d 78 91 3f fa a0 87 3f 64 a8 7b 3f 48 c8 83 3f
       1.13648 1.0596001 0.9830382 1.0295496
000030 ce aa 97 3f 2e 4e 8b 3f cb 17 84 3f e3 6d 99 3f
       1.1849 1.0883234 1.0319761 1.198666
000040 ef e6 a0 3f 75 3c bc 3f b7 c3 a5 3f 0f 5b 78 3f
       1.2570475 1.470595 1.2950352 0.97013944
000050 8e 4e 8e 3f 60 28 95 3f 1f b2 c9 3f 77 21 ab 3f
       1.1117723 1.1652946 1.5757483 1.3369588
000060 0a df 5a 3f 9b 78 83 3f 3d cf 98 3f 5b d1 94 3f
       0.8549658 1.0271181 1.1938244 1.162639
000070 71 c3 91 3f 38 99 83 3f c4 07 8f 3f 74 75 a2 3f
       1.1387769 1.0281134 1.1174245 1.2692094
000080 ec ad aa 3f 24 34 a4 3f 49 d8 71 3f 62 a9 94 3f
       1.3334327 1.2828412 0.9447065 1.1614192
000090 71 94 aa 3f be 52 a6 3f 0a 60 a8 3f d6 dd 84 3f
       1.3326551 1.2994001 1.3154309 1.0380199
0000a0 36 50 88 3f af ae ac 3f 4c 55 a3 3f c9 1d a9 3f
       1.0649478 1.3490809 1.2760406 1.3212215
0000b0 5d ef a7 3f 8e cf 9f 3f c4 31 9b 3f b5 bf b0 3f
       1.3119923 1.2485216 1.2124562 1.3808504
0000c0 a0 02 a8 3f 2e 13 69 3f 46 06 90 3f 8f ba aa 3f
       1.3125801 0.9104489 1.1251915 1.3338183
0000d0 77 b0 bf 3f 9c d6 c2 3f 25 3a 91 3f 1e 29 99 3f
       1.4975728 1.5221744 1.1345869 1.1965673
0000e0 13 4a 90 3f 78 a3 a4 3f 4f 7f 9d 3f 32 82 87 3f
       1.1272606 1.2862387 1.2304476 1.0586607
0000f0 9d 39 a2 3f 3e 79 85 3f 44 8d 6d 3f ec d3 8a 3f
       1.2673832 1.0427625 0.9279368 1.0845923
000100 91 c6 76 3f 07 ba 87 3f 89 34 7c 3f fd 5a 7d 3f
       0.9639674 1.0603646 0.9851766 0.9896696
000110 30 a7 75 3f 0a 11 82 3f 69 63 83 3f 6d 61 7e 3f
       0.9595823 1.016145 1.0264713 0.9936741
000120 74 31 7f 3f e3 6a 77 3f 91 42 81 3f eb 9d 63 3f
       0.99684834 0.9664747 1.009844 0.8891284
000130 be d3 7c 3f ee 5e 7c 3f f6 33 7c 3f f4 1a 84 3f
       0.9876059 0.9858235 0.98516786 1.0320725

time_mixing.0.ln.bias f4 [16, 5]
000000 26 c6 b7 bd ac a9 e9 3d c8 ea 12 3e 0f d3 da 3d
       -0.08973341 0.114093155 0.14347374 0.106847875
000010 65 7f 0e 3d 90 95 03 bd 3d 21 0e 3e 9c 96 03 3e
       0.03478946 -0.032125056 0.13879867 0.12850422
000020 c2 8a df 3d 73 e1 1c 3d d7 97 da bb 68 12 0e 3e
       0.10915138 0.038300943 -0.0066709328 0.13874209
000030 8a cd f7 3d fb 1b c8 3d b6 01 0d 3d 60 59 9b be
       0.1209975 0.09770962 0.03442546 -0.30341625
000040 e0 46 16 3e 53 b1 db 3e 3a 16 bf 3e 66 65 13 3e
       0.14675474 0.42908725 0.37321645 0.14394149
000050 50 b8 2f be 68 08 14 3e e7 db 06 3f ae 6e cf 3e
       -0.17160153 0.14456332 0.52679294 0.4051413
000060 7f 2f 28 3e 70 31 55 bd a5 5f 1e 3e 2c 37 0b 3e
       0.16424368 -0.0520491 0.15466173 0.13595265
000070 d9 fd e9 3d ff ca 52 3d cb b3 ad bd 9a 8a 40 3e
       0.11425371 0.051463123 -0.084815584 0.18802872
000080 e7 92 a0 3e e3 72 7e 3e d0 cc df 3d 30 7f 23 be
       0.31362078 0.24848513 0.10927737 -0.15966487
000090 7b a2 01 3e 69 53 8c 3e 1d 98 7d 3e 7f 3e 0f 3e
       0.12659638 0.27407387 0.24765058 0.13988684
0000a0 d6 d5 c2 bd df ec ee 3d 51 03 66 3e 35 d7 63 3e
       -0.09513442 0.11666273 0.22462203 0.22250064
0000b0 3c 6a 1e 3e 30 8b 2c be 47 5b 13 3e fd 16 b3 3e
       0.15470213 -0.16849971 0.14390288 0.34978476
0000c0 a1 27 86 3e 40 6f 0b 3e 16 22 fa bd e0 ae f9 3d
       0.2620211 0.13616657 -0.122135326 0.12191558
0000d0 f1 22 e8 3e 5a dd c8 3e 2a 63 86 3e 1b 2b 4a be
       0.45339158 0.39231378 0.2624753 -0.19743006
0000e0 44 29 47 bd 57 44 81 3e 5b e4 28 3e 59 fa f7 3d
       -0.04862334 0.25247452 0.1649336 0.12108297
0000f0 3d 2a 3a be a0 d8 9a bd a7 9d 83 bd 31 3f 1e 3d
       -0.18180175 -0.07560849 -0.06426554 0.038634483
000100 22 04 39 3d 71 d8 bd 3c 5b e0 8f 3c cf 8d e3 bc
       0.045169957 0.023174496 0.017563036 -0.02777758
000110 e3 55 d8 bc db 62 69 bc 73 81 da 3c 96 eb 01 3c
       -0.026408141 -0.01424476 0.026673054 0.007929703
000120 a0 b4 83 bc 11 64 53 bc e4 1c e1 bb 75 00 50 3c
       -0.01607734 -0.012902276 -0.006869899 0.012695421
000130 8b 16 8a 3c ed 66 74 bc 6d 24 81 bc 4e f4 87 bc
       0.016856452 -0.014917118 -0.01576444 -0.016595986

time_mixing.0.U1.1 f4 [1, 2]
000000 16 de 07 bc da c4 7b bc
       -0.0082926955 -0.015366757

time_mixing.0.U1.2 f4 [1, 3]
000000 da 38 b3 3b 3a 21 98 bb 93 4b 0c bb
       0.0054694237 -0.004642633 -0.002140735

time_mixing.0.U1.3 f4 [1, 4]
000000 79 a7 af bb fb 48 8c 3c d3 0f 45 3a 92 15 58 bc
       -0.0053605405 0.017124644 0.00075173116 -0.0131887365

time_mixing.0.U1.4 f4 [1, 5]
000000 55 28 a7 bb be aa b0 3b 9d 8d 64 3b 9a f7 21 bc
       -0.0051012435 0.005391448 0.0034874447 -0.009885693
000010 f4 bd 03 3c
       0.008040894

time_mixing.0.U1.5 f4 [1, 6]
000000 a6 f6 ff bc e1 f4 0b bd f7 84 fd bc 8f d2 29 bd
       -0.03124554 -0.03416908 -0.030947192 -0.04146057
000010 01 22 b7 bc 77 f2 b0 3c
       -0.022355082 0.021599991

time_mixing.0.U1.6 f4 [1, 7]
000000 25 c4 3f bd ee 77 8c bc 32 c2 2a bd 95 15 2a bb
       -0.046817917 -0.01714703 -0.041689105 -0.0025952805
000010 9a be 9c bc 5f d5 ab 3c b3 b2 cd 3c
       -0.019133855 0.020975767 0.025109624

time_mixing.0.U1.7 f4 [1, 8]
000000 de 1f 79 3d 78 f2 4c 3d d8 2f 41 3d f3 e4 55 3d
       0.060821407 0.050035924 0.047164768 0.052220296
000010 62 79 51 3d fa f6 42 3c fc cc 36 3d cc 1f d8 3c
       0.05114115 0.011899704 0.044629082 0.02638235

time_mixing.0.U1.8 f4 [1, 9]
000000 95 f1 a9 3d 65 68 63 3d f3 79 4b 3d e0 f8 e1 3d
       0.08298031 0.05551948 0.049676847 0.11033797
000010 19 70 b5 3d 97 e0 ee 3d 58 55 b3 3d b9 9e 04 3e
       0.088592716 0.11663931 0.087565124 0.12951173
000020 e1 65 09 3e
       0.1341777

time_mixing.0.U1.9 f4 [1, 10]
000000 8c 62 58 3b 4b b1 d9 b8 7b 59 36 bc c9 a2 35 bb
       0.0033017723 -0.0001038039 -0.011129732 -0.0027715436
000010 19 3a e2 3b f1 46 af ba 28 67 9e bb dc d9 45 bc
       0.0069038984 -0.0013372583 -0.0048340745 -0.0120758675
000020 2e 16 80 3c af 36 24 3b
       0.015635576 0.0025057008

time_mixing.0.U1.10 f4 [1, 11]
000000 71 da 6f 3e 27 0c 76 3e 43 84 61 3e de 40 94 3e
       0.23423173 0.24028073 0.2202311 0.2895574
000010 14 6e 8f 3e 95 fb 6e 3e d6 77 81 3e 7f 4b 91 3e
       0.2801367 0.23338158 0.2528674 0.2837791
000020 38 42 98 3e 18 3f 87 3e d1 bf a7 3e
       0.2973802 0.26415324 0.32763532

time_mixing.0.U1.11 f4 [1, 12]
000000 2b 48 01 3e fd 14 13 3e 13 2b 06 3e f1 e3 28 3e
       0.12625186 0.14363475 0.13102369 0.16493203
000010 82 88 39 3e cf 98 1a 3e f5 f4 20 3e 03 0d 2c 3e
       0.1811848 0.15097354 0.15718444 0.16801839
000020 ed 13 11 3e 42 72 29 3e 21 79 2d 3e 75 bf 16 3e
       0.14167757 0.16547492 0.16940738 0.14721473

time_mixing.0.U1.12 f4 [1, 13]
000000 d2 7d cb bc 35 45 e4 bc ce 3c 4c bb 15 d6 02 bd
       -0.02484027 -0.027865032 -0.0031164172 -0.031942446
000010 af 61 fc bb 35 30 2e bd e9 c0 c3 bc a0 74 68 bd
       -0.0077020745 -0.042526443 -0.023895698 -0.056751847
000020 1e cb 55 bd 14 e6 80 bd fe 1b 13 bd 17 78 2d bd
       -0.05219566 -0.06293884 -0.035915367 -0.042350855
000030 f5 b6 a6 bc
       -0.020350913

time_mixing.0.U1.13 f4 [1, 14]
000000 48 22 da 3b 48 cc 8d bb eb f0 1c 3c 1d 2b 4a 3c
       0.0066569187 -0.0043273307 0.009578924 0.012339381
000010 72 01 e5 ba dd a1 24 3c 8c 8d 71 3c 66 8c 37 3c
       -0.0017471744 0.010048357 0.01474322 0.011202907
000020 eb e7 c4 bc e8 06 f8 3b 98 ca 00 bc 53 76 a8 bc
       -0.024036368 0.0075691827 -0.007860802 -0.020564234
000030 39 a9 2d 3b ea 82 65 bc
       0.002649857 -0.014008263

time_mixing.0.U1.14 f4 [1, 15]
000000 e6 3e c3 bc ab db b0 bc f5 69 84 bb da 41 67 3b
       -0.023833703 -0.02158912 -0.0040409514 0.0035287053
000010 3a 18 66 bc 49 d7 98 3c ad 63 2c bc 38 fd a4 3b
       -0.014043862 0.018657343 -0.010521811 0.005035069
000020 32 e9 8c 3b aa bb 01 3b cd 39 20 3c e4 61 69 3c
       0.00430026 0.0019795694 0.009779406 0.01424453
000030 bf bc 48 39 cc 14 d2 3b e1 c5 5d 3c
       0.000191438 0.0064111706 0.013535948

time_mixing.0.U1.15 f4 [1, 16]
000000 1d 2d be 3b 96 ea 4e 3c c0 ff 8f 3c 12 31 6c bb
       0.0058037178 0.012629172 0.017578006 -0.003603999
000010 2a ba b8 bb 2d 8f 04 bb af f2 16 bb 54 05 83 ba
       -0.005637427 -0.002022694 -0.0023032834 -0.0009996095
000020 2a 5f cc 3a b1 10 e1 bb c6 ac 03 bc 50 02 09 3c
       0.0015592326 -0.006868445 -0.008036798 0.008362368
000030 bd 15 14 bb 57 64 49 bc dc 91 58 ba ba 00 d4 3b
       -0.0022595965 -0.012291989 -0.0008261481 0.006469813

time_mixing.0.U2.1 f4 [1, 2]
000000 b9 93 bd 3c d4 d7 ec ba
       0.023141729 -0.0018069693

time_mixing.0.U2.2 f4 [1, 3]
000000 82 42 09 bc 99 10 8a 3c ea cd 5b bb
       -0.008377673 0.016853618 -0.0033539482

time_mixing.0.U2.3 f4 [1, 4]
000000 ae f9 9c bb b6 63 9f bc c6 cc e8 3b 2c 1d 1f 3a
       -0.0047905063 -0.019456726 0.007104489 0.00060697156

time_mixing.0.U2.4 f4 [1, 5]
000000 81 ea 32 bb 43 1e 43 3c d6 5d 11 ba bb 89 5c 3c
       -0.002730042 0.01190907 -0.00055452937 0.013460572
000010 c4 f5 1e ba
       -0.00060638436

time_mixing.0.U2.5 f4 [1, 6]
000000 82 df 41 bb 99 4b 6b bc c1 28 93 3c 91 7b 34 3c
       -0.0029582684 -0.014361286 0.017963769 0.011015789
000010 8d 32 25 bb 8f d6 89 bc
       -0.0025207133 -0.016825942

time_mixing.0.U2.6 f4 [1, 7]
000000 50 a7 6f 3c a3 36 70 bc 1c 90 02 3c 01 4c 0b bc
       0.014627293 -0.014661464 0.007968929 -0.008502007
000010 af 0a cc 3b c9 8e 06 ba 3a 0f 9a 39
       0.0062268595 -0.0005132971 0.00029384514

time_mixing.0.U2.7 f4 [1, 8]
000000 1e 13 07 ba 64 8b a6 3a da 79 0f bc 03 77 65 ba
       -0.000515269 0.0012706337 -0.008757079 -0.0008753391
000010 80 c6 95 b9 a3 0b 0f bb 10 03 ba bc f4 6d f2 bb
       -0.0002856739 -0.0021827004 -0.022706538 -0.0073983613

time_mixing.0.U2.8 f4 [1, 9]
000000 7e a1 6f 3a b8 5a 48 bc f0 a4 1f 3a 32 62 cc 3b
       0.00091411907 -0.01222866 0.0006089946 0.0062372917
000010 37 54 87 bb ae ff 3c bc 2b 1d be ba ae 17 82 3b
       -0.0041299122 -0.011535568 -0.0014504542 0.003970108
000020 21 df fc b9
       -0.0004823143

time_mixing.0.U2.9 f4 [1, 10]
000000 64 fe 42 3c 2b f6 11 3b 17 2a 1d 3b 04 38 2a bc
       0.011901472 0.0022271972 0.0023981386 -0.010389332
000010 84 24 2d bb ad a4 59 3c 1e b8 16 bc 3f f5 14 bb
       -0.002641947 0.013283891 -0.00919917 -0.0022729186
000020 2b 30 b5 3b b0 e3 f9 ba
       0.0055294237 -0.0019065049

time_mixing.0.U2.10 f4 [1, 11]
000000 6f aa 23 bc f9 7f 02 bc 9e 56 b1 3b 20 92 2d 3c
       -0.009989365 -0.007965081 0.005411937 0.010593921
000010 00 89 ff 3b f1 b9 11 bc ec ec 64 bc 37 35 b3 3b
       0.007798314 -0.00889443 -0.013972502 0.00546899
000020 ab b2 a4 3b ce b7 c3 bb 76 73 df 3b
       0.0050261817 -0.005972839 0.006819184

time_mixing.0.U2.11 f4 [1, 12]
000000 3c eb a0 3b dc b0 bc 3a 53 3f 8d bc b8 ce cb bb
       0.0049108546 0.001439597 -0.01724211 -0.006219711
000010 02 b7 7b 3a 42 49 ff 3a ae 91 59 bc 82 4b aa 3b
       0.00096021604 0.0019476789 -0.013279362 0.0051969895
000020 a5 3f 5e 3c f1 6f 92 3c 9d e1 e2 3a 04 07 5a bb
       0.013564979 0.017875643 0.001730967 -0.0033268342

time_mixing.0.U2.12 f4 [1, 13]
000000 99 75 e8 3d c1 c4 21 bf e2 78 09 3e c4 54 87 3e
       0.11350555 -0.6319085 0.1342502 0.2643186
000010 50 82 f2 bd 7e c3 4a bf c9 de 0d bf d5 68 59 3f
       -0.118412614 -0.7920455 -0.5541807 0.84925586
000020 32 6a 91 3f 97 d1 37 bd 0e c2 9d 3f 7a 1b 82 3f
       1.1360533 -0.044877615 1.2324846 1.0164635
000030 88 3f 23 bf
       -0.63768816

time_mixing.0.U2.13 f4 [1, 14]
000000 29 ec ac bb f4 55 e0 3c 89 83 15 bc 32 4b a1 bb
       -0.005277176 0.027384736 -0.009125599 -0.004922294
000010 58 16 aa 3c 13 f7 9f 3c bd 65 d8 3c c1 b6 47 3c
       0.020762607 0.019526994 0.0264157 0.012189568
000020 53 3c 85 3c 13 69 6b 3c 9b 14 b8 3b 86 6f d2 bc
       0.016264116 0.014368313 0.0056176907 -0.025687944
000030 ca 03 8d bc 7c 76 d5 bc
       -0.01721372 -0.026057474

time_mixing.0.U2.14 f4 [1, 15]
000000 1e 28 36 ba de ae 7f 3c 49 28 83 bc cf 7a a1 3c
       -0.0006948727 0.015605656 -0.01601042 0.01971188
000010 2b 2c 29 bc 82 8c 92 bc b4 d7 56 bc 42 8a dc 3c
       -0.010325472 -0.017889265 -0.013112951 0.026921395
000020 84 33 8b 3d f5 ea ab 3c cc a8 ae 3d d6 07 14 be
       0.06796935 0.02098606 0.08528289 -0.14456114
000030 d8 ac 17 3b 83 7c 35 bb 10 da 72 39
       0.0023143794 -0.0027692623 0.00023160153

time_mixing.0.U2.15 f4 [1, 16]
000000 26 f4 4c bc 06 58 5f 3c 7d d9 ac bb 77 7a 3a 3c
       -0.012509381 0.013631826 -0.00527495 0.011381737
000010 91 36 9f 3b ca 43 99 3a 1e 54 60 3c 15 68 09 bc
       0.0048587997 0.0011693176 0.01369193 -0.0083866315
000020 43 4a 70 3c 95 7c c9 3b da 81 cb 3b 9a 9b 1b bb
       0.014666143 0.0061488845 0.006210548 -0.0023743869
000030 76 d9 45 bc 98 f6 01 3b 7f 6e ef b9 b4 f8 79 b7
       -0.0120757725 0.001983082 -0.00045667958 -1.4899462e-05

time_mixing.1.ln.weight f4 [8, 5]
000000 fa 2f 26 3f ef 49 7b 3f f6 06 70 3f f8 54 80 3f
       0.64916956 0.9815969 0.9376062 1.002593
000010 43 15 80 3f 93 0d 8a 3f 6f d7 76 3f f4 64 76 3f
       1.0006489 1.0785393 0.96422476 0.9624779
000020 ea 57 87 3f b7 76 78 3f 33 d0 72 3f b9 64 81 3f
       1.0573704 0.97056144 0.94848937 1.0108863
000030 ee 63 85 3f 3e f4 8b 3f b8 46 85 3f 00 e1 7e 3f
       1.0421121 1.0933912 1.0412207 0.9956207
000040 46 6c 6b 3f 82 31 69 3f 6d 27 85 3f 8b c3 6b 3f
       0.9196209 0.9109117 1.0402657 0.9209525
000050 11 27 82 3f 65 80 70 3f 27 68 74 3f 71 6b 86 3f
       1.0168172 0.93945915 0.95471424 1.0501539
000060 33 48 70 3f 45 9c 58 3f 74 0e 82 3f 3a f1 83 3f
       0.9386017 0.8461345 1.0160661 1.0307992
000070 15 3d 8c 3f 22 da 84 3f af b0 a2 3f 4b 96 75 3f
       1.0956141 1.0379069 1.271017 0.95932454
000080 d1 e0 7a 3f 7c d9 7e 3f bf cc 77 3f 98 b2 93 3f
       0.9799929 0.99550605 0.9679679 1.1538877
000090 1c 21 7c 3f 88 b4 7c 3f 3d 54 86 3f 2d 0c 7c 3f
       0.9848802 0.9871297 1.0494457 0.9845608

time_mixing.1.ln.bias f4 [8, 5]
000000 7f 72 c8 bd 0b 93 19 bd 73 b0 79 3d aa 5f 5a 3d
       -0.097874634 -0.037493747 0.06095929 0.05331389
000010 a0 86 13 3d dc f3 41 bd 8a 60 06 bd c0 5c 11 3d
       0.03601706 -0.047351703 -0.03280691 0.035488844
000020 ad 37 0c 3d 3f bd e8 3c 9f da eb 39 96 96 a7 bc
       0.034232784 0.028410552 0.00044985578 -0.020457547
000030 e0 f5 56 3c 0e be 71 3c f3 32 96 3c a4 1d 08 be
       0.013120145 0.014754785 0.018334841 -0.13292557
000040 11 03 94 bd 49 0d a7 3d cf fe 9f 3d 7f 09 8c 3d
       -0.07227147 0.08156831 0.07812273 0.06837749
000050 6b 4e 83 bd 0d 81 51 bd 30 72 47 3d 63 80 4a 3d
       -0.064114414 -0.051148463 0.048692882 0.049438845
000060 4a e2 45 3d 01 f2 11 bc 49 a4 a6 bc 22 44 56 3c
       0.04831151 -0.008907796 -0.02034201 0.013077768
000070 cf f3 81 3c 00 51 8c 3c cd ef 39 bd bf 32 f1 bc
       0.015863327 0.017128468 -0.045394707 -0.029443143
000080 2d 5c e5 3c 3d db f7 3c c8 75 ae 3c de 06 ab 3c
       0.027998054 0.030255908 0.021296397 0.020877298
000090 d9 af 31 bc 4e 62 03 3c 1d e7 0f 3c 0d 79 1e 3c
       -0.010845148 0.008019043 0.008783129 0.009672415

time_mixing.1.U1.1 f4 [1, 2]
000000 85 19 cf bb 9a e3 28 3c
       -0.006320181 0.010308171

time_mixing.1.U1.2 f4 [1, 3]
000000 e4 42 ab bc a0 70 b0 3c 16 f6 e4 3c
       -0.02090592 0.021538079 0.027949374

time_mixing.1.U1.3 f4 [1, 4]
000000 42 8e 7c bb c3 8a b8 ba 95 54 70 bd 7b c8 19 bc
       -0.003853694 -0.001407944 -0.058674414 -0.009386177

time_mixing.1.U1.4 f4 [1, 5]
000000 a1 94 7c 3c 26 2b 91 bb 47 8b 89 bc 5e 28 49 bb
       0.015416295 -0.0044301925 -0.016790045 -0.0030694227
000010 eb b7 7a bb
       -0.0038256596

time_mixing.1.U1.5 f4 [1, 6]
000000 f8 21 bf 3b 60 d6 b1 3a 36 72 7a bb 1f 74 63 39
       0.005832907 0.0013567917 -0.0038215048 0.00021691665
000010 3d 76 04 3c 71 f3 10 bc
       0.008084831 -0.008847103

time_mixing.1.U1.6 f4 [1, 7]
000000 83 33 92 bc 79 9a 91 3c 39 44 33 3d 48 ce 75 3c
       -0.017846828 0.017773854 0.043766234 0.015002795
000010 80 61 b4 3c 47 1c 32 3d 6b 38 ab 3c
       0.022019148 0.043484 0.020900926

time_mixing.1.U1.7 f4 [1, 8]
000000 b7 bf b4 3c 27 75 0c bc 13 5e 6c ba b3 91 66 bc
       0.022064073 -0.008572853 -0.00090167037 -0.014072823
000010 a0 6b 0a bc de 4c 9e bb 24 13 9d 3c f9 3f ba bb
       -0.008448511 -0.0048309406 0.019174166 -0.0056838957

time_mixing.1.U2.1 f4 [1, 2]
000000 56 13 06 b8 a4 5a ef 3b
       -3.1966098e-05 0.0073045064

time_mixing.1.U2.2 f4 [1, 3]
000000 9d e8 c0 bb b3 5a e9 3b e2 d4 38 bc
       -0.0058871047 0.007121408 -0.011281224

time_mixing.1.U2.3 f4 [1, 4]
000000 9d d7 99 3c 77 2f 25 bc 5f 7f a2 3c fb 04 41 bd
       0.01877957 -0.010082117 0.019836126 -0.04712389

time_mixing.1.U2.4 f4 [1, 5]
000000 e3 e8 3d 3b 99 46 9e bb b3 ab 94 3b 95 ed 5d bc
       0.0028977923 -0.0048301932 0.0045370697 -0.0135454135
000010 43 00 38 3c
       0.011230531

time_mixing.1.U2.5 f4 [1, 6]
000000 f4 0e bf bb 33 b7 09 bc 04 48 df bb 6d a4 db 3b
       -0.00583064 -0.0084054945 -0.006814005 0.0067029507
000010 9f c2 e3 bb e8 f8 ac bb
       -0.006950691 -0.0052786954

time_mixing.1.U2.6 f4 [1, 7]
000000 0f 9b 4d b9 b7 63 c9 3b f3 cc ae bc 54 b2 76 3d
       -0.00019608087 0.00614592 -0.021337962 0.06022866
000010 8a 98 a9 3c 3e 34 90 3b 5a 09 21 bd
       0.02070262 0.004400759 -0.03931556

time_mixing.1.U2.7 f4 [1, 8]
000000 7e 7f 10 bc e6 ff 7f bc f5 c1 b8 bc bb 38 6c 3c
       -0.008819459 -0.015624976 -0.022553423 0.0144178225
000010 a2 5e 29 bc 6b 49 0a bb f2 34 93 bc 77 50 83 39
       -0.010337504 -0.002110089 -0.017969582 0.00025046218

time_mixing.2.ln.weight f4 [4, 5]
000000 1b 98 85 3f c7 de 7f 3f de 79 80 3f 04 20 80 3f
       1.0437044 0.99949306 1.0037191 1.000977
000010 60 21 80 3f 40 2b 72 3f 87 ca 78 3f ae a6 79 3f
       1.0010185 0.94597244 0.9718403 0.9751996
000020 e1 e8 77 3f ac d3 82 3f 11 e1 88 3f 30 6e 87 3f
       0.9683972 1.0220847 1.0693685 1.0580502
000030 75 07 83 3f ec 1c 84 3f c1 96 80 3f cd 7a 7f 3f
       1.0236651 1.0321326 1.0046006 0.99796754
000040 0d cc 7d 3f 50 ea 7d 3f a0 d1 7d 3f 9e 2c 81 3f
       0.9913948 0.9918566 0.9914799 1.0091741

time_mixing.2.ln.bias f4 [4, 5]
000000 9e ab 0a bc 7f 40 fb ba 7e 72 74 3b 8b a3 72 3b
       -0.008463768 -0.0019169002 0.0037299688 0.0037023749
000010 4f d7 0b 3b 9e 05 4a bd 72 58 20 bd 2a ff 21 3d
       0.002133805 -0.049321763 -0.039146848 0.039549984
000020 83 8e 20 3d dd cd 07 3d c9 5c 32 bd 65 1a ba bc
       0.03919841 0.03315531 -0.043545518 -0.022717664
000030 9c d2 cc 3c 90 85 b8 3c 74 b2 91 3c 84 ea 9c bb
       0.02500277 0.022524625 0.017785288 -0.0047886986
000040 97 4f 0d bc dd 07 09 3c be c0 08 3c 0a d9 0c 3c
       -0.008624933 0.008363691 0.008346735 0.008596668

time_mixing.2.U1.1 f4 [1, 2]
000000 64 88 75 bb 49 2f 67 3b
       -0.0037465328 0.0035275987

time_mixing.2.U1.2 f4 [1, 3]
000000 2d ec 5d 3d 4a f0 d8 bb c8 78 48 bd
       0.054180313 -0.0066204416 -0.04894331

time_mixing.2.U1.3 f4 [1, 4]
000000 27 1f 10 bc 49 24 32 3c c7 b1 37 bc 5d 0c 2f 3c
       -0.00879649 0.010872909 -0.011211819 0.0106841

time_mixing.2.U2.1 f4 [1, 2]
000000 ca c3 49 3c 43 87 ed 3c
       0.012314746 0.028995162

time_mixing.2.U2.2 f4 [1, 3]
000000 27 48 2c 3c a6 e8 e8 bb bc ee 67 3d
       0.010515249 -0.007107812 0.05662416

time_mixing.2.U2.3 f4 [1, 4]
000000 47 24 c8 3b 8e 46 62 3c 7c 4d a5 bc 10 ad 15 3a
       0.00610784 0.013810767 -0.020178549 0.0005709687

time_mixing.3.ln.weight f4 [2, 5]
000000 10 ee cf 3f 19 2f 6c 3f 97 b3 98 3f 9f 63 8d 3f
       1.6244526 0.92259365 1.1929806 1.1046027
000010 c7 78 7f 3f b6 8b 1d 40 30 d9 89 3f 00 5e b0 3f
       0.99793667 2.4616523 1.0769405 1.3778687
000020 8f b5 92 3f 89 82 8e 3f
       1.1461657 1.1133586

time_mixing.3.ln.bias f4 [2, 5]
000000 fe b0 10 3d 51 f4 1e bd bf ee 0b 3e f9 00 ab 3d
       0.035325043 -0.038807217 0.13665293 0.08349795
000010 c6 a8 3a 3d 1e 7a b5 3d 0a 48 14 3c ff 92 08 be
       0.04557111 0.08861183 0.009050379 -0.13337325
000020 4b ee 99 bd 09 38 97 bc
       -0.07516154 -0.018459337

time_mixing.3.U1.1 f4 [1, 2]
000000 82 b9 03 3f 81 41 0a bf
       0.5145494 -0.540062

time_mixing.3.U2.1 f4 [1, 2]
000000 fb 5b 44 ba aa 67 2c bf
       -0.0007490513 -0.6734568

conv1d.0.weight f4 [5, 5, 1]
000000 ee 9e 70 3b 1c 3e 50 be 5d 02 1c 3f d1 4a 0f 3f
       0.0036715823 -0.20336193 0.60941106 0.55973536
000010 00 5f 2d 3d 3d 7d 5d be 31 0a 55 be 9e bf b9 3d
       0.042326927 -0.21629806 -0.20804669 0.09069751
000020 7f 11 12 bd 0c 37 32 3e ac 61 ea 3d 14 29 96 be
       -0.035661217 0.17403811 0.11444411 -0.29328215
000030 08 75 43 3e 39 97 30 3e 44 2f 13 3e 57 e9 ab be
       0.19087613 0.17245187 0.14373499 -0.33576462
000040 67 97 54 3e dd 8e 53 3e 9f 51 6e 3d bb 77 e7 bd
       0.2076088 0.20659967 0.05818331 -0.11302134
000050 90 ae a5 3c 4c 70 5f be 44 8f ab 3e e6 4d b7 3e
       0.02022484 -0.21820182 0.3350774 0.3580162
000060 68 04 43 bd
       -0.047611624

conv1d.0.bias f4 [5]
000000 b5 9a 40 bf 01 24 97 3e ee e2 85 3e b9 d7 90 3e
       -0.75236064 0.29519656 0.26149696 0.28289583
000010 85 26 9f be
       -0.31084076

conv1d.1.weight f4 [5, 5, 2]
000000 f0 01 76 bd ff de 76 be a9 9a f7 be 2c 53 c2 be
       -0.06006044 -0.24108504 -0.48360184 -0.3795408
000010 76 d6 04 3d 58 d2 f9 3c 22 a7 87 be 52 5c 56 3e
       0.03243109 0.030495808 -0.264947 0.20933655
000020 ea 19 a6 bd 5a a6 96 3d 1d 23 10 3e 5a c5 a0 bd
       -0.081104115 0.07355948 0.14075895 -0.07850142
000030 dc f4 32 3e a1 b7 5a 3e 80 8b 16 3e 5e e1 7c be
       0.17476219 0.21359111 0.14701653 -0.24695346
000040 dd 11 d4 bd a6 a7 82 3e 16 d3 33 3e 33 ab 32 3e
       -0.1035497 0.2551853 0.17560992 0.1744812
000050 aa 8a 9c bd a8 f9 ab bc 5d 71 2f be b5 89 f9 bd
       -0.076436356 -0.020993069 -0.17133088 -0.12184469
000060 32 2e 8c 3e 17 a3 64 be c9 79 bc bd 54 f0 6f 3d
       0.27378994 -0.22327839 -0.09202916 0.058578804
000070 aa 45 8d bd f1 4c f8 3d 60 89 21 bb d2 98 26 3e
       -0.06898053 0.121240504 -0.0024648532 0.16269234
000080 9d 55 40 be f1 2a c0 3d fa 24 86 be 86 c0 68 3e
       -0.18782659 0.093831904 -0.26200086 0.22729692
000090 c1 ac 96 3e 9d 2a f7 bd d8 69 1a 3e 74 c0 fc bd
       0.29428676 -0.12068675 0.15079439 -0.12341395
0000a0 b7 cb 27 be 78 f2 07 be b8 87 e7 bd 76 4b bb 3d
       -0.16386305 -0.13276088 -0.11305183 0.091452524
0000b0 75 12 98 bc 80 e4 1b 3d d2 65 7c be b9 8f 51 be
       -0.018563488 0.03805971 -0.24648216 -0.20464982
0000c0 d4 c4 5a be 6f 03 4a be
       -0.21364146 -0.19727872

conv1d.1.bias f4 [5]
000000 28 ce 85 3e 1e 83 f8 3d cf 17 9b be f2 71 5f bd
       0.26133847 0.121343836 -0.30291602 -0.054552026
000010 74 c0 a5 3c
       0.02023337

conv1d.2.weight f4 [5, 5, 4]
000000 e3 a2 0c 3e 03 35 ae 3e fa ff e1 3e 99 a6 32 3f
       0.13734011 0.3402482 0.44140607 0.6978546
000010 68 87 cf b7 89 3d 17 3e 48 06 5b 3e 10 fc f9 3e
       -2.4739376e-05 0.14769568 0.21389115 0.4882512
000020 c3 74 66 3e 8e f6 82 3e c6 b3 0b 3f 54 0a 9f 3e
       0.22505479 0.2557873 0.5457119 0.31062567
000030 3b 3d 83 bd 01 1b c8 3d ef a5 db 3e 74 1a f3 3d
       -0.06408163 0.097707756 0.42900035 0.1187028
000040 85 1c 98 3e 41 f3 bf bd 21 5c 46 3e 82 ef 4a 3f
       0.2970926 -0.09372569 0.19371082 0.7927171
000050 0f 16 90 bc d1 0a 41 bd dd 84 28 3e 59 eb 75 3e
       -0.017588643 -0.047129456 0.16456933 0.2401556
000060 76 2d 66 3e fe ca ed 3d be 75 f4 3c 6c 7b 70 3e
       0.2247828 0.11610983 0.0298413 0.23484582
000070 6b 23 36 3e 48 07 d5 bd 7f 48 04 3e a5 10 84 3d
       0.17786948 -0.104017794 0.1291828 0.06448487
000080 77 5a c4 bd 3a c4 3e bd 1f 08 f5 bc 11 aa 01 be
       -0.09587567 -0.046573855 -0.029911099 -0.12662531
000090 a7 3d 1a bd 09 b2 c4 3d 36 13 84 3e 71 ba 47 3e
       -0.037656453 0.0960427 0.25795907 0.19504716
0000a0 a3 07 56 be 3a dd c3 3d 53 21 21 be a2 53 41 3d
       -0.2090135 0.0956368 -0.15735368 0.0471989
0000b0 79 ae 63 be d0 4e 9b bd eb 15 da 3d 0c 14 84 ba
       -0.22234525 -0.07583392 0.10648712 -0.0010076775
0000c0 7b 32 da bd c2 ef 53 be 62 fd 65 bd 0c 84 2a 3c
       -0.1065416 -0.20696929 -0.056149848 0.010407459
0000d0 66 dd 36 be fb 65 47 be 72 31 3b bd 6b 08 d6 bd
       -0.17857894 -0.19472496 -0.04570145 -0.10450824
0000e0 14 3d 8d 3d be ec 79 be 65 42 47 be 81 ec f1 be
       0.06896415 -0.24406716 -0.19458921 -0.4725075
0000f0 e0 bf c7 bc 31 24 07 be 2b e2 ad bb c2 2f a3 be
       -0.024383485 -0.131974 -0.0053065023 -0.31872374
000100 5a a3 38 be c4 79 15 be 13 0b 81 be 83 1f 6d 3d
       -0.18031064 -0.14597231 -0.2520376 0.05789138
000110 97 c0 da bc 6c ab 09 be 59 dd e5 3d 0c 39 ea bd
       -0.026703162 -0.13444299 0.11223859 -0.11436662
000120 4f 84 f9 3d 25 42 9a bd b5 13 64 be 5d f0 c4 38
       0.12183439 -0.07532147 -0.22273143 9.3907795e-05
000130 d2 8b a0 3d 11 3a 79 be 14 96 f1 bd e1 75 63 be
       0.078391686 -0.24338557 -0.11796203 -0.22212936
000140 31 79 a1 3c 67 22 b0 bc 2e 20 ec bd 92 0b 7c be
       0.019711109 -0.02150078 -0.11529575 -0.24613789
000150 5c a3 ab 3c 57 1e 30 be 25 60 68 be 95 dd 00 be
       0.02095192 -0.17199074 -0.22692926 -0.12584527
000160 a8 de 23 be 8d 80 5c 3d fe f3 fe 3d 48 f7 04 3e
       -0.16002905 0.053833533 0.124488816 0.12984955
000170 4b a2 13 be 26 f4 e1 3d 6a c3 04 3e 5b 49 06 bd
       -0.14417379 0.11032896 0.1296517 -0.0327848
000180 43 0f 72 3d 71 7c eb 3d c6 4f c6 3d c1 1c c8 bc
       0.059096586 0.11498345 0.09683184 -0.024427773

conv1d.2.bias f4 [5]
000000 30 39 1d 3f db 64 4a bd 2a 32 5b be 75 6e 37 be
       0.61415386 -0.04941259 -0.21405855 -0.1791323
000010 25 0c 12 3e
       0.14262445

conv1d.3.weight f4 [5, 5, 8]
000000 eb b3 c4 bd 43 19 bf bc 2d 5b 4c be 1d a4 2c bd
       -0.09604629 -0.023327475 -0.19956656 -0.042148698
000010 7e ef c1 bc eb 3e 8a bd 73 f5 db 3d 8f 3b d3 bd
       -0.02367377 -0.06750282 0.10740175 -0.10314094
000020 4c 37 cb bd c8 b1 5e bd a4 67 4e be 85 86 84 3d
       -0.099226564 -0.054368764 -0.20156723 0.0647097
000030 68 7a 96 bc f4 b9 e6 3d 08 46 81 3d 59 37 f5 3d
       -0.018368915 0.112659365 0.063121855 0.11973447
000040 91 fc 11 bd 54 7c 95 3d f2 cb a7 3d 43 5e f1 bb
       -0.035641257 0.07299104 0.08193196 -0.007365973
000050 f6 be 34 bc ff 00 83 bc a0 14 a9 bc 80 69 88 3b
       -0.011031857 -0.015991686 -0.020639718 0.004162967
000060 51 6e 3f be f9 65 db 3d ae 82 04 bc 8f 29 22 be
       -0.18694426 0.10712809 -0.008087797 -0.15836166
000070 2c 55 c3 3d db 69 15 3e a4 eb c5 3c dc c0 a1 3d
       0.095377296 0.14591162 0.024160214 0.07898113
000080 cd 3b b3 bd 27 a2 51 be e1 b6 9c bd 16 2b ff 3c
       -0.087516405 -0.20472012 -0.07652069 0.031148475
000090 67 a5 3d bd f0 e0 4f 3e 57 6c 46 3e b7 37 31 3e
       -0.046300318 0.2030065 0.19377266 0.1730641
0000a0 43 77 43 bc 86 19 6b 3d 2d 77 f9 bd 87 66 ad 3d
       -0.01193029 0.057397388 -0.12180934 0.08466821
0000b0 56 3f c0 3d 47 7b 9a 3d f0 de 12 3e 5e 5d 30 bc
       0.0938708 0.075430445 0.14342856 -0.010764448
0000c0 b4 44 07 be 4b 64 09 bc 44 b7 7e bd 50 4a 2b 3d
       -0.13209802 -0.008385728 -0.062186494 0.041818917
0000d0 5e f9 ff 3d 1d dc c1 bd 88 25 b7 bb ca 6e 14 3e
       0.12498735 -0.094658114 -0.005589191 0.14495388
0000e0 08 c0 1a be 10 2e 45 bd 0a b1 06 3e d2 0d ba 3d
       -0.15112317 -0.04813963 0.13153473 0.09084667
0000f0 a4 84 01 3d 0f 65 a7 bd dc 90 06 bd 37 db 21 be
       0.031620637 -0.08173572 -0.032852992 -0.1580628
000100 42 0b 2e be b8 da 29 be f1 74 07 3e af 76 db 3d
       -0.16996482 -0.16587341 0.13228203 0.107159965
000110 08 84 4a 3d 40 b7 59 bd c6 7d ef 3d ee 87 78 bd
       0.04944232 -0.053153276 0.11693911 -0.060676508
000120 48 ea c9 3d b8 e0 c5 bc a9 19 c7 bd b5 02 93 bd
       0.09859139 -0.024155006 -0.09721691 -0.07178251
000130 b8 47 4c bd a1 1e 16 be dd 62 76 3d e5 37 41 bc
       -0.049873084 -0.14660122 0.060152877 -0.011793111
000140 01 21 7a 3d bf bd a9 3d 1e 69 08 bd b8 99 94 3d
       0.06106663 0.08288144 -0.033303373 0.07255882
000150 c0 3d ba 3c 71 e4 c5 3d 6d 11 dd bd 72 d9 3e bd
       0.022734523 0.09662712 -0.10794339 -0.04659409
000160 68 e2 3b bd be e9 09 3e f5 3d 13 be a8 65 c5 bd
       -0.045870215 0.13468072 -0.14379103 -0.0963853
000170 f2 97 1f bb f6 6e f1 3d cb fb c3 3d fb 25 2b be
       -0.002435204 0.11788742 0.0956951 -0.16713707
000180 aa 59 bf bd 13 2d 26 3e c6 a3 0f 3d 5e 2c 04 be
       -0.09343274 0.16228132 0.035068296 -0.1290755
000190 45 28 67 bd b3 48 76 3d c9 6f f2 bc ad a5 f9 bd
       -0.05643489 0.060127925 -0.029594319 -0.12189803
0001a0 b8 4b b8 bd bb ad a6 bd 7c 8c 50 ba a5 fd 81 3d
       -0.08998817 -0.08138605 -0.0007955504 0.06347207
0001b0 02 e3 87 3d 2a 1f b1 bd 16 a6 a9 bc f1 e5 ed bd
       0.06635095 -0.08648522 -0.020709079 -0.116161235
0001c0 1f b7 e4 3d e2 d0 26 3e 51 51 2c 3e ab 5f b7 3d
       0.1116774 0.1629062 0.16827895 0.08953794
0001d0 f2 ab 16 bd dc 55 2f bd 1f 10 9b bc d4 18 8b be
       -0.036785074 -0.04280649 -0.018928586 -0.2716738
0001e0 e7 2b 1e 3c e9 6c 09 be 0b 9d 1f be 9e 1f 5c 39
       0.009654022 -0.13420452 -0.15587251 0.00020992613
0001f0 38 56 47 bd 50 85 c8 bd 06 bc 08 3d 8e f1 ba bb
       -0.04866621 -0.09791052 0.033382438 -0.005705065
000200 dd 86 17 3d 10 02 ad bd 14 68 18 be 05 bc b0 3b
       0.03699385 -0.08447659 -0.14883453 0.0053935074
000210 7b 8e 94 bd 2f 1b 7f bd 8a d6 f0 3d 32 be b2 3c
       -0.072537385 -0.062281784 0.1175967 0.021819208
000220 ba 0e bf 3d 61 79 fa bc a2 9e df bd 6d 9d 31 3d
       0.09328981 -0.030575456 -0.10918929 0.043363024
000230 88 b5 d3 bd 73 1c 9f 3c 2b e0 e6 bd 92 83 02 3e
       -0.10337359 0.019422745 -0.112732254 0.12745503
000240 9e b3 c1 bd c9 ae 13 3e 5e 3d fb 3d 57 6f 02 3e
       -0.094580874 0.14422144 0.12267564 0.12737785
000250 ec bf bf 3d f0 7c 11 3d ca fe 8c 3b 5c 6d 24 3c
       0.09362778 0.03551954 0.004302834 0.010035839
000260 51 88 78 bd cc 0e 09 be e0 61 28 3e ce d8 1e 3d
       -0.060676876 -0.13384551 0.16443586 0.03878098
000270 96 81 aa 3d 7c 81 49 bc 84 f1 b8 b9 dc 24 3f be
       0.08325498 -0.012298938 -0.00035275158 -0.18666404
000280 af a6 e8 bd b5 cc 00 3e 23 bb 8a 3d 5f c6 ae 3d
       -0.11359917 0.1257809 0.06773975 0.0853393
000290 b1 97 1d be 6f 3a 5b 3c b7 cb 10 be f8 f5 98 bc
       -0.15389897 0.013380631 -0.14140211 -0.018671975
0002a0 ed a2 d1 3b 3a 21 d0 bd 0a c2 15 be 78 3a 0a 3c
       0.006397596 -0.101625875 -0.14624801 0.008436792
0002b0 67 cb 12 3e 4f 59 12 3e aa 9e b9 bd df 3b c8 bc
       0.14335404 0.14291881 -0.09063466 -0.024442611
0002c0 67 7d ea bd 3d a7 e1 bd be 01 ec bc ec 4f 29 3e
       -0.114497 -0.11018226 -0.028809424 0.16534394
0002d0 41 72 11 bd 00 ad 69 3c a9 54 23 3e bf ef 1b 3d
       -0.03550935 0.014262438 0.15950264 0.038070437
0002e0 a2 6b 11 3e 65 ce ec 3d fa 81 24 3e ad 11 19 3d
       0.14201215 0.11562804 0.16065207 0.037370373
0002f0 aa 17 fc bd 21 4b 06 be b9 db 8f bd e3 ae 11 3e
       -0.12309201 -0.13114597 -0.07024331 0.1422687
000300 07 08 cc 3d fb 97 6c 3d 34 e5 dc bd 32 4b cf bd
       0.099624686 0.057762127 -0.107859045 -0.10121764
000310 ec 90 08 3e 36 36 bf bc 10 4d 2f be 2a de 3c bd
       0.13336533 -0.02334128 -0.17119241 -0.04611031

conv1d.3.bias f4 [5]
000000 f3 5d 61 3d e0 a5 20 ba 5e 79 15 3d 4a 86 0b 3d
       0.055021238 -0.0006128233 0.036492698 0.034063615
000010 cc 42 fd bd
       -0.12366256

fc.weight f4 [1, 5]
000000 f4 e4 5f be db 9a f2 bd f6 5e c5 3e 98 f7 5f 3e
       -0.21864682 -0.118459426 0.38549012 0.21871793
000010 14 15 a9 3d
       0.082559735

stock_mixing.M1 f4 [40, 1026]
000000 d3 fd d5 3f 2b a8 43 3c 57 f2 99 bf 05 cc df 3e
       1.6718086 0.01194195 -1.2027081 0.43710342
000010 05 7e 8f 3f 6b a0 68 3f 6f 10 e0 bf ff cf b0 be
       1.1210333 0.9086978 -1.7505015 -0.34533688
000020 36 a8 1e 3e af 85 21 3b f5 8b 24 bf 69 df cc be
       0.15493855 0.0024646332 -0.6427606 -0.40014198
000030 df 09 31 bf 67 67 3c bf fa 52 2d c0 1d ca 00 3f
       -0.6915569 -0.7359528 -2.7081895 0.503084
000040 68 16 67 3f ae 65 ad 3e 45 1b a2 bf 66 19 10 3f
       0.90268564 0.33866638 -1.2664572 0.56288755
000050 26 30 67 3e 8e 8f 75 bf 40 d6 2d 3f 66 ba 38 3e
       0.22576961 -0.9592217 0.67905045 0.18039855
000060 7a e7 02 bf 95 b5 38 3f 9a 53 c1 3e 44 25 c6 bd
       -0.51134455 0.7215207 0.37759095 -0.096750766
000070 98 e4 bb bf d4 0d c8 3f 5f fa 08 c0 a1 3c 7f 3d
       -1.4679136 1.562922 -2.1402814 0.06231368
000080 d2 04 e7 3f b6 48 1c 40 b7 0c 80 bf 3e c0 23 3f
       1.8048346 2.441938 -1.000388 0.63965213
000090 81 69 3a 3e 7e 70 17 bf 89 97 a7 3d 2b 1d 90 3f
       0.18204309 -0.59156024 0.081832 1.1258901
0000a0 6b 7b 8e 3f ca fc d3 3f d4 41 b7 be 6e 24 98 3f
       1.1131414 1.656152 -0.3579241 1.1886117
0000b0 0d 9c 82 3f c7 16 50 3d 20 65 49 3f 6c 35 80 be
       1.0203873 0.050802972 0.7866993 -0.25040758
0000c0 f2 2f 56 3f 6a 5f 00 3f da ca 22 bf ca f2 cb 3e
       0.8366691 0.5014559 -0.63590777 0.3983367
0000d0 d4 78 cd 3f c5 77 04 c0 9d 9f 3b 3e 10 93 2d 3e
       1.6052499 -2.0698102 0.18322606 0.16950631
0000e0 dc 20 18 be 5a f9 0b 3f 2a 40 33 bf 7e dd 90 3e
       -0.14856285 0.54677355 -0.7001978 0.28293985
0000f0 6b 05 17 3f d8 2c dd 3c 99 c6 35 3f 37 d0 52 bf
       0.5899264 0.026998922 0.7100616 -0.8234896
000100 54 2c 6d 3f 85 c7 87 be 26 2f 3e be a4 89 a2 bf
       0.92645764 -0.2651941 -0.18572673 -1.2698255
000110 6d e4 99 3d d9 7c d9 be 0d 60 bd 3c d1 0b 06 3e
       0.07514272 -0.42478064 0.02311709 0.13090445
000120 4c af 9e bd ed 66 8b bf 8f 8b 2d bf 4c f0 40 bf
       -0.07748279 -1.0890785 -0.67791075 -0.75366664
000130 73 81 21 c0 cc 5c 63 bf cc d9 19 bf 42 7b f1 bd
       -2.523526 -0.8881347 -0.60097957 -0.11791088
000140 3d 9e ae be 0f bc e4 bf 4b ca 0a bf 8d ab c5 be
       -0.341051 -1.7869891 -0.54214925 -0.38607445
000150 b0 a8 54 3f 13 3c 21 bd 57 8f 81 bf ff bd a9 bf
       0.83069897 -0.039363932 -1.0121869 -1.3261107
000160 c5 0c 9e 3f 6a 4c b7 3f 7c eb d4 bf f7 62 84 bf
       1.2347647 1.4320195 -1.6634364 -1.0342702
000170 8e 23 b6 bd 4e 5f 9a bf f6 df dc bf 27 db 95 bf
       -0.088935 -1.2060335 -1.7255847 -1.1707505
000180 ce ab 3c be 91 8e 90 3e 3d 8e aa 3e 96 44 14 3f
       -0.18424913 0.2823377 0.33311644 0.57917154
000190 a0 2d 9e bd a4 f5 95 be 01 be a5 3f 2c 49 cf be
       -0.07723546 -0.2928897 1.294861 -0.40485513
0001a0 79 56 71 bc 85 fa 4b bf 5f d5 96 bf cc c9 e7 bd
       -0.014730089 -0.7967914 -1.1783866 -0.113177866
0001b0 d1 25 ca 3e 26 da ed bf ee 21 62 3f ef 1d 47 3e
       0.39481977 -1.8582199 0.8833302 0.19445013
0001c0 14 d0 0a 3e 83 6f 2c 3f 71 22 82 3f a8 28 bd 3f
       0.13555938 0.67357653 1.0166761 1.4778032
0001d0 1d f6 01 3e 48 2d 31 3f 4c 00 04 bf 2f 28 16 bf
       0.12691541 0.6920972 -0.51562953 -0.58655065
0001e0 f8 d9 2a 3f 21 90 30 bf 3b 5b b2 bf b2 b4 49 bf
       0.66738844 -0.68969923 -1.3934091 -0.78791344
0001f0 54 1b 41 3f 67 e8 2d bf cc df 53 3f 3e 4e 16 3f
       0.75432324 -0.6793274 0.8276336 0.5871314
000200 ba b5 1a 3f 87 79 1f 3f 67 c2 f6 3e 7b 60 84 3f
       0.6043354 0.6229481 0.48195192 1.0341944
000210 9b e7 ed 3d 65 14 c4 3f bf eb 58 be bb 1c 0b 3f
       0.11616441 1.5318724 -0.2118368 0.54340714
000220 8a 91 4c 3f fd 7c 72 bf f5 7a 1f bf df 88 4f 3f
       0.79909575 -0.94721967 -0.6229699 0.81068224
000230 02 4f 23 3f 26 69 ef be 38 ef 86 be 3e 2e 31 bf
       0.6379243 -0.4675991 -0.26354384 -0.69211185
000240 00 dd e0 be 4a 29 c6 be de b8 2c 3f 93 63 81 3f
       -0.4391861 -0.38703376 0.67469585 1.0108513
000250 93 6c 88 bf 61 de f2 3f 75 06 9b 3f 49 fb eb 3d
       -1.0658134 1.8974115 1.2111346 0.11522538
000260 61 04 cf 3c ea 26 cb 3f 92 78 e0 3f d8 bc ac 3c
       0.025270643 1.5871251 1.7536795 0.021086141
000270 52 6f 9e 3e ff 8c 25 bf c1 f1 40 bf 56 1a b9 3f
       0.30944306 -0.6466827 -0.7536889 1.4461162
000280 d3 04 8a 3f e1 83 cd 3e 18 f9 ed 3e 09 3a ec bf
       1.0782722 0.40139678 0.46479106 -1.8455211
000290 ec 2c d3 bf 7e de 09 bf 98 4d 3e bf 03 58 9a 3d
       -1.6498084 -0.5385512 -0.7433715 0.07536318
0002a0 be c1 18 3f 25 51 59 bf 32 ec 8f 3f 6a 05 2e bd
       0.5967063 -0.8488944 1.1243956 -0.042485632
0002b0 7b 97 69 3d 27 f6 a5 be e0 59 3c 3e bf 5d ff be
       0.05702923 -0.32414362 0.1839366 -0.4987621
0002c0 c5 1e 96 bf bb 3f f6 bf ab ca 9d 3f df 08 97 3f
       -1.172814 -1.9238199 1.2327474 1.1799582
0002d0 49 44 98 bf ea 37 f0 3f 48 5e ad 3b aa eb c9 bf
       -1.1895839 1.8767064 0.00529078 -1.5775044
0002e0 9e 4f dc 3e 62 76 3b bc ce 1c 1f bf d2 5b 6c 3e
       0.43029493 -0.011441799 -0.6215333 0.23081902
0002f0 96 57 ae be 4b c7 f5 be 6b dc aa 3f b7 b8 8c 3f
       -0.34051198 -0.4800361 1.3348516 1.099387
000300 62 77 f9 3e 45 d5 57 bf 46 ee b0 3f 51 13 ab bf
       0.48723894 -0.843098 1.3822715 -1.336527
000310 ac e3 00 3e e6 40 4c bf 0b 91 c2 bf f7 82 60 bf
       0.1258685 -0.7978653 -1.5200514 -0.87699836
000320 8d 15 7c bf f3 bb 97 3f 13 92 39 3f fa fb 85 be
       -0.98470384 1.1854233 0.72488517 -0.26168805
000330 7b 81 bd bf 76 8b 09 3e 23 be f0 bc fb a4 32 3d
       -1.4805139 0.13432106 -0.02938754 0.04361437
000340 1c 9c a7 3f 56 9f 8d 3f 87 89 c5 3e 00 d0 f3 be
       1.3094516 1.106425 0.38581488 -0.4761963
000350 a6 d7 fc 3e d4 9f 20 bf 22 17 22 c0 ae 8f 71 3f
       0.49383277 -0.6274388 -2.532662 0.9435986
000360 05 20 8f bf 05 2e 1d 3f 8e 8f ab 3d d2 b5 49 3e
       -1.1181647 0.61398345 0.0837699 0.19698265
000370 41 48 97 3f 1d f1 6c 3f d0 85 62 bf 58 19 df 3e
       1.1818925 0.9255541 -0.8848543 0.43574023
000380 b2 a9 e3 3f ca 01 1b 3f 17 45 b1 bf 0e cc 8d 3e
       1.7786162 0.60549605 -1.384921 0.27694744
000390 66 e5 f7 3e 26 1a 55 3d dd 8f 9b bf fe 41 2a bf
       0.48417205 0.05202689 -1.2153279 -0.66506946
0003a0 3f 62 4b bf fb 02 b4 3e 9a bb c5 3f 58 39 b3 3f
       -0.79446787 0.35158524 1.5447876 1.4001875
0003b0 dc 43 6f 3f 4c da d5 3e 3c 86 e6 3e 35 ec b5 bd
       0.9346292 0.4176811 0.45024288 -0.088829435
0003c0 36 68 88 3f 58 a0 91 bf f5 b0 2b bf 80 59 00 bf
       1.0656803 -1.1377058 -0.6706689 -0.50136566
0003d0 93 86 22 3f b3 2c 9f be e3 61 40 3f af 22 f0 3e
       0.63486594 -0.3108879 0.75149363 0.4690146
0003e0 ae 4b 46 bf 02 4a 90 bf 88 c9 ba be 2f 88 90 be
       -0.7745923 -1.1272585 -0.3648188 -0.282289
0003f0 39 13 46 bf 88 e6 2a 40 19 8e 46 bf f8 05 9d 3b
       -0.7737308 2.6703205 -0.77560574 0.0047919713

stock_mixing.M2 f4 [1026, 40]
000000 7e cd 23 bf 83 0c 55 bf 81 e5 d6 be d5 5a fa 3e
       -0.6398543 -0.83222216 -0.41971973 0.48897424
000010 03 41 d9 bd c5 2b d5 3f a8 b6 a5 3f a5 78 d9 3f
       -0.10608103 1.6653982 1.2946367 1.6989943
000020 1b 1f 8f 3e ef 49 c4 3e 32 fe 1e 3e 4d 55 c3 be
       0.2795342 0.38337657 0.15526655 -0.38151017
000030 f4 08 15 3f 0b 6c d5 bf 64 d1 15 3f 5d 9c 29 bd
       0.58216786 -1.6673597 0.5852263 -0.041408885
000040 1e d1 22 bf 51 51 ab bc 8c 97 50 3f c0 b2 45 40
       -0.6360034 -0.020912798 0.8148124 3.089035
000050 f7 96 04 bf d0 d8 44 bf 62 59 13 be 69 79 86 3e
       -0.51792854 -0.7689333 -0.14389566 0.26264504
000060 7b 19 31 3e 9f 30 ed be 14 d1 80 be f7 21 34 bf
       0.17294876 -0.46326157 -0.25159514 -0.70364326
000070 7c 6f b0 3f 04 11 af 3e fc 5d 51 3f 88 c5 53 3f
       1.3784022 0.3419267 0.81784034 0.82723284
000080 d9 7f 30 bf a6 7a 27 3f c8 e8 dd be 05 e9 ef bd
       -0.6894508 0.6542152 -0.4334166 -0.11714367
000090 54 1d 5f bf 81 96 9d 3e c5 bf 69 3f 30 dd b5 3d
       -0.87154126 0.30778888 0.9130824 0.08880079
0000a0 44 e9 72 bf a6 60 99 bd b7 63 80 3d f0 6d fe 3f
       -0.94887185 -0.07489137 0.06269019 1.98773
0000b0 46 60 05 be 4f 17 9d be 79 3f b4 3e 47 3b f7 3e
       -0.13025007 -0.30681846 0.35204676 0.48287413
0000c0 2d 95 4d 3f 50 bf bb 3f 79 60 14 bf 6c f0 a0 be
       0.8030575 1.4667759 -0.57959706 -0.31433427
0000d0 d0 cc 70 3e bb 82 10 3f 4f 21 20 bf f0 28 8f 3f
       0.2351563 0.5644948 -0.62550825 1.1184368
0000e0 e5 4d ae bd 55 0c 8c bf 03 1d f5 3f bd c2 43 3f
       -0.08510951 -1.0941263 1.9149479 0.7646902
0000f0 78 4a 94 be 73 50 08 3e 19 ab 98 3f 5c 8c 9d bf
       -0.28963065 0.13311939 1.1927215 -1.2308459
000100 12 bb 3d 3d f3 ed 3d 3e 4a 20 35 3f 2f 2d 85 3f
       0.046320982 0.18547802 0.70752394 1.0404414
000110 06 86 c8 be c0 be 34 bf f4 b0 18 3f 22 03 fd be
       -0.39164752 -0.7060356 0.5964501 -0.49416453
000120 5d 7f 2c 3f de 1c 5d 3f dd f1 a1 bf 6c 37 9b bf
       0.6738184 0.8637217 -1.2651936 -1.2126288
000130 b3 76 bf bc 97 1e 12 bf 5a 3e 96 3f 2d da 7f 3e
       -0.02337203 -0.57077926 1.1737778 0.24985571
000140 bf 02 e6 3d 8c 35 4f bf 6f d5 8f bc 91 e9 fe bf
       0.112309925 -0.8094108 -0.017557828 -1.9915029
000150 24 a5 2f 3f b4 b1 70 3f f6 fd 36 be 37 4d 5b bf
       0.6861136 0.94021153 -0.17870316 -0.85664696
000160 0b 0d 88 3f c4 fb 82 bf ca da 46 bf 41 be 83 3c
       1.062898 -1.0233083 -0.77677596 0.016081931
000170 ee ee 31 bf fc c0 81 3e 74 a7 91 be 71 72 39 be
       -0.695052 0.25342548 -0.2844807 -0.18110062
000180 95 81 71 be d8 9a 26 3f bb c3 ae 3f 12 89 0f 3e
       -0.23584588 0.6508002 1.3653482 0.14017132
000190 5f 21 ec bd c3 1d 8c 3f b9 af 38 3f 16 61 6e bc
       -0.115298025 1.0946583 0.7214313 -0.014549514
0001a0 73 9e 1f 3e d7 90 f3 be e3 8a 76 3f 12 c0 ce bd
       0.15587787 -0.47571442 0.96305674 -0.10095228
0001b0 28 c3 d8 3d 0b 5b 72 bf 61 ed 22 bf 42 2f 08 3f
       0.10584098 -0.9467017 -0.6364346 0.5319711
0001c0 f6 2d 78 3e 14 22 0c 3f 3a 28 25 3e eb a8 96 bd
       0.24236283 0.547395 0.16128626 -0.07356437
0001d0 4a 91 c8 3c e4 81 4c bf 4a d6 d3 3e 3f aa 31 be
       0.024483342 -0.798857 0.41374427 -0.173501
0001e0 21 b2 21 bf f5 88 2b 3f c6 75 20 be 7b ae 0e be
       -0.6316243 0.67005855 -0.15669927 -0.13933747
0001f0 0c 72 31 3f 81 76 ab 3f fc c8 a1 3f 8a 37 30 3d
       0.69314647 1.339554 1.263946 0.043021716
000200 7e eb 9a bf 30 c5 0a 3f e4 6e 66 3f ee 46 04 bf
       -1.2103117 0.54207134 0.90012956 -0.5167073
000210 32 0a 5b bf 2d 43 30 bd 18 22 ec bf 33 cc 5c 3e
       -0.8556243 -0.043032814 -1.8447905 0.21562271
000220 9a 81 a0 3f 61 09 63 bf 07 d6 2f bf d3 73 a9 bf
       1.2539551 -0.88686186 -0.68685955 -1.3238472
000230 d6 d0 05 40 aa 8d c4 3e 10 14 73 bf 43 14 53 3f
       2.0908713 0.3838933 -0.9495249 0.8245279
000240 31 2f 5c bf 16 1b 9f be 30 7c 63 bf 07 dd cc 3f
       -0.8600951 -0.31075352 -0.8886137 1.6004952
000250 2f c0 be 3f 31 f8 85 3e 48 eb 48 be 4e 85 17 bf
       1.49024 0.26165918 -0.19621003 -0.5918778
000260 59 fd ac bf 2f bf a0 3f 2f f3 a6 bf 1a 09 fa 3e
       -1.3514816 1.2558345 -1.3042964 0.4883507
000270 69 fe 65 3f 79 5a 91 bf 80 75 f8 3e 3e 28 48 bd
       0.89841324 -1.1355735 0.48527145 -0.048866503
000280 67 53 22 bd 2d 2b b3 bf 3f d9 8d 3f 17 25 a8 3d
       -0.03963032 -1.3997551 1.1081923 0.08210199
000290 f7 a7 d0 3e 5b c1 aa 3f ca 51 98 3f df b5 e0 bf
       0.40753147 1.3340257 1.189996 -1.7555503
0002a0 a6 10 24 bf f0 0a c8 3e bd 47 ad 3f dd 35 74 3e
       -0.64087903 0.39070845 1.3537518 0.23848672
0002b0 78 ec 13 3f 7c 1d 27 bf a4 56 84 be 5c ac aa 3f
       0.577827 -0.65279365 -0.25847352 1.333385
0002c0 04 7d df 3e 33 37 52 3f c6 96 13 3e 89 3e 15 bf
       0.43650067 0.8211548 0.14412984 -0.58298546
0002d0 60 b6 66 bf 28 78 7a bf 7f 95 89 bf fa 1f 36 bf
       -0.9012203 -0.97839594 -1.0748748 -0.7114254
0002e0 60 2b 25 bf 81 e0 dd bf 84 c9 27 3e 56 f7 a1 be
       -0.6451931 -1.7334138 0.16385466 -0.31634015
0002f0 31 f8 a5 be 20 77 d5 be 6e e9 c8 be 57 ff a8 3f
       -0.32415918 -0.41692448 -0.39240593 1.3202924
000300 28 de 08 bf 85 23 51 bf 00 fb 58 bf 86 e3 d1 3e
       -0.53463984 -0.81694824 -0.84757996 0.409939
000310 77 25 db be 75 b2 4d 3f c0 a8 f8 be 04 89 bb 3f
       -0.4280202 0.8035043 -0.48566246 1.4651189
000320 97 ff 29 bf 1f 91 b7 3f 50 9f ec 3f 0d 09 8f 3f
       -0.66405624 1.4341162 1.8486118 1.1174637
000330 7d 94 c6 be 92 5c 58 bf c5 eb 95 3f bb d8 04 bf
       -0.38785163 -0.8451625 1.1712576 -0.51893204
000340 b5 e3 b9 3e 6f fb 09 3f b2 2e f4 be d5 5d b4 bf
       0.3630654 0.5389928 -0.47691876 -1.4091135
000350 3b 9b 87 be 51 06 43 3f 7b 5b 77 be 19 09 ab be
       -0.2648562 0.76181513 -0.24155991 -0.33405378
000360 d2 37 81 bd a4 60 cd 3e 54 eb ca 3e c8 cc 0f 3f
       -0.06309475 0.40112793 0.39632666 0.56171846
000370 d6 68 fc bf 10 81 9c bf 28 0d ce 3f 79 28 ad bf
       -1.9719493 -1.2226887 1.6097765 -1.3527976
000380 e4 97 1c c0 0d b8 8f bf e6 67 be bb 28 7f 6d 3f
       -2.4467707 -1.1228043 -0.0058107255 0.9277215
000390 96 96 8e bf 96 08 d0 bd 10 36 7d bf 2f 28 f0 3d
       -1.1139705 -0.10157888 -0.9891062 0.117264144
0003a0 43 91 7f 3e a1 9a da be 92 6e a4 bd fa a5 59 be
       0.24957757 -0.42696097 -0.08028902 -0.21254721
0003b0 46 80 2e bf dd 9b c9 be bb a7 b4 3e 3b 57 f1 be
       -0.6816448 -0.39376727 0.35284218 -0.47136864
0003c0 6d 0b e6 3e d0 bf 87 3f 5a 8c 5b bf 63 da 16 bf
       0.44930592 1.0605412 -0.85761034 -0.5892698
0003d0 e0 f1 8b bd cc ec ab bd b2 cd 9a 3e 24 f8 33 bf
       -0.06833243 -0.08394775 0.30235058 -0.7030051
0003e0 54 1b 77 3e ff 5b bd bd 7a 06 1d 3f 4c 83 86 3f
       0.24131519 -0.092460625 0.6133801 1.0508819
0003f0 09 25 97 3f 52 e5 3c bf 5d ac ed 3e 47 ab 06 3f
       1.1808177 -0.73787415 0.46420565 0.526051

stock_mixing.ln.weight f4 [1026, 30]
000000 86 61 80 3f bf de 7e 3f e6 c7 7e 3f 84 ef 7f 3f
       1.0029762 0.99558634 0.9952377 0.99974847
000010 6f 78 7f 3f f7 1b 7f 3f 36 c5 7e 3f fe ee 7f 3f
       0.9979314 0.99652046 0.9951967 0.9997405
000020 b5 4b 7f 3f 4c 6d 7e 3f 8f d5 7f 3f 1a 23 80 3f
       0.99724895 0.99385524 0.9993524 1.0010712
000030 91 d5 6f 3f 60 56 7f 3f 44 1a 83 3f ec c6 7d 3f
       0.9368525 0.9974117 1.0242391 0.99131656
000040 94 4c 81 3f 48 5d 81 3f 06 8a 80 3f a5 fe 80 3f
       1.0101495 1.0106592 1.0042121 1.0077711
000050 7a 17 81 3f 18 8c 80 3f cb 03 81 3f d3 c9 80 3f
       1.008529 1.0042753 1.0079283 1.0061592
000060 36 3b 87 3f ac b2 81 3f 70 bb 82 3f cf 8b 82 3f
       1.0564945 1.0132651 1.0213451 1.0198916
000070 b4 6b 84 3f 7c dc 83 3f 9a 66 7f 3f c1 e5 80 3f
       1.0345368 1.0301661 0.9976593 1.0070115
000080 ce c1 80 3f f6 0d 80 3f f0 ec 80 3f eb 5a 80 3f
       1.0059144 1.000426 1.0072308 1.0027746
000090 26 f8 80 3f d4 4d 80 3f 44 d5 80 3f 3f 82 80 3f
       1.0075729 1.0023751 1.0065084 1.0039748
0000a0 dc 65 80 3f 33 4e 80 3f 15 b4 80 3f 30 d6 80 3f
       1.0031085 1.0023865 1.0054957 1.0065365
0000b0 26 3d 81 3f d4 67 80 3f 32 6d 7f 3f f7 6f 80 3f
       1.0096786 1.0031686 0.99775994 1.0034169
0000c0 8d 86 7e 3f ce db 80 3f e0 77 80 3f 4c 07 7d 3f
       0.9942406 1.0067079 1.0036583 0.9883926
0000d0 34 80 7f 3f 67 83 7b 3f 47 30 85 3f 62 07 7c 3f
       0.99805 0.9824738 1.0405358 0.98448765
0000e0 9d 22 7f 3f df 7c 84 3f 30 f8 84 3f e7 f4 83 3f
       0.9966219 1.0350608 1.0388241 1.0309113
0000f0 b4 88 7f 3f 67 a2 7e 3f 94 3d 7e 3f 17 31 7f 3f
       0.9981797 0.99466556 0.9931271 0.9968428
000100 70 a5 7e 3f 02 7d 7e 3f 63 4d 7e 3f 0d 46 80 3f
       0.9947119 0.99409497 0.9933683 1.0021378
000110 c0 9b 7e 3f fb 01 7f 3f 57 0b 80 3f ce 7d 80 3f
       0.99456406 0.99612397 1.0003461 1.0038393
000120 41 9e 76 3f b2 68 7e 3f 5b 71 80 3f 19 e8 7e 3f
       0.96335226 0.993785 1.0034593 0.995729
000130 dd c8 7f 3f 2c 70 80 3f dc bf 80 3f 96 de 7f 3f
       0.9991587 1.0034232 1.0058551 0.99949014
000140 9d 84 7f 3f 2f 85 80 3f a4 1d 81 3f c5 1c 81 3f
       0.99811727 1.0040644 1.0087171 1.0086905
000150 53 83 81 3f c8 e5 81 3f 3a b1 81 3f 1d 71 81 3f
       1.0118202 1.0148249 1.013221 1.0112644
000160 f1 e6 81 3f 51 8d 81 3f 0c 34 81 3f 0f b0 80 3f
       1.0148603 1.0121251 1.0094008 1.0053729
000170 81 a9 80 3f 0c db 7f 3f 01 0a 81 3f d0 11 7f 3f
       1.0051728 0.99943614 1.0081178 0.99636555
000180 3f bb 80 3f 9e 13 7f 3f 27 b2 7f 3f e7 8f 80 3f
       1.0057143 0.9963931 0.99881214 1.0043916
000190 35 1b 80 3f 01 83 7f 3f bc e1 90 3f c4 17 81 3f
       1.0008303 0.9980927 1.1318889 1.0085378
0001a0 93 4f 81 3f 14 43 81 3f 0f a2 81 3f 86 c8 81 3f
       1.0102409 1.0098596 1.0127581 1.013932
0001b0 2c e7 7e 3f a8 b8 80 3f 27 8f 81 3f 9f 4b 80 3f
       0.9957149 1.0056353 1.0121812 1.0023078
0001c0 28 ae 7d 3f c3 4a 7f 3f 0c 4a 78 3f a7 e1 79 3f
       0.99093866 0.9972345 0.96987987 0.97609943
0001d0 23 ea 75 3f 9c e5 7e 3f ca ed 7f 3f c7 c9 7c 3f
       0.9606039 0.99569106 0.9997221 0.9874539
0001e0 84 e8 7c 3f 42 0d 80 3f 6c 53 80 3f 83 09 80 3f
       0.9879229 1.0004046 1.0025458 1.0002903
0001f0 7f 65 7f 3f 8d e5 7e 3f b6 25 80 3f 83 b7 7e 3f
       0.99764246 0.99569017 1.0011508 0.99498767
000200 a7 85 7f 3f 17 ef 7f 3f 4c 52 7f 3f 71 39 7f 3f
       0.9981331 0.999742 0.9973495 0.99697024
000210 28 e1 60 3f d8 a8 7d 3f 37 00 78 3f 34 dd 7f 3f
       0.8784356 0.9908576 0.9687533 0.99946904
000220 74 6c 80 3f 95 ca 80 3f cf bc 7f 3f 59 b9 80 3f
       1.0033097 1.0061823 0.99897474 1.0056564
000230 de a6 80 3f 4c 2e 80 3f ab 09 7f 3f 5b 33 80 3f
       1.0050924 1.0014129 0.9962413 1.0015672
000240 eb 1f 80 3f ab f5 7e 3f c1 ba 7e 3f 14 71 80 3f
       1.000974 0.9959361 0.99503714 1.0034509
000250 48 86 7f 3f c5 5e 7d 3f 62 e5 7d 3f cf 28 80 3f
       0.9981427 0.9897273 0.99178135 1.0012454
000260 c2 32 80 3f 80 fb 80 3f 0a 83 7f 3f 28 8f 80 3f
       1.001549 1.0076752 0.99809325 1.0043688
000270 78 1c 80 3f f0 4c 80 3f 81 c2 80 3f e5 a6 80 3f
       1.0008688 1.002348 1.0059358 1.0050932
000280 5f 32 80 3f 97 b0 80 3f fb d4 5e 3f 0a fe 7f 3f
       1.0015372 1.0053891 0.8704373 0.9999701
000290 88 37 7d 3f 2f a1 80 3f 03 2d 7f 3f 76 6f 80 3f
       0.9891286 1.0049189 0.9967806 1.0034015
0002a0 c8 b3 7b 3f 75 71 81 3f 5a 70 80 3f 2e 95 79 3f
       0.983212 1.0112749 1.0034287 0.97493255
0002b0 c6 e5 7c 3f 64 a6 78 3f 87 d6 87 3f 78 98 7d 3f
       0.98788106 0.9712889 1.0612344 0.99060774
0002c0 77 18 81 3f 40 1e 86 3f bb c3 85 3f b3 5f 85 3f
       1.0085591 1.0477982 1.0450357 1.041983
0002d0 c2 ea 7e 3f d8 ac 7f 3f 84 ab 80 3f 3e 35 7f 3f
       0.9957696 0.99873114 1.0052342 0.99690616
0002e0 09 c3 80 3f 6d 24 80 3f ad c6 80 3f 33 dd 7c 3f
       1.005952 1.0011116 1.0060631 0.98775023
0002f0 d7 b9 7e 3f d5 32 80 3f 15 77 7f 3f ca 46 7e 3f
       0.9950232 1.0015513 0.9979108 0.99326766
000300 a3 56 50 3f 00 8f 7e 3f 80 9c 7f 3f 95 33 80 3f
       0.813822 0.9943695 0.99848175 1.0015742
000310 21 c9 80 3f 15 6b 80 3f 1a cc 7e 3f 74 ba 7f 3f
       1.006138 1.0032679 0.99530184 0.9989388
000320 47 e7 80 3f f7 17 80 3f 5f 81 7e 3f 97 c4 80 3f
       1.007058 1.0007313 0.99416155 1.0059994
000330 01 ab 7c 3f d1 11 7e 3f f4 9f 7a 3f 3f 9b 80 3f
       0.9869843 0.99245936 0.9790032 1.0047377
000340 d5 4a 7e 3f 50 6e 7b 3f ec 78 7e 3f ef 1a 80 3f
       0.99332935 0.982152 0.9940326 1.000822
000350 ce e5 7f 3f a9 2e 7f 3f f9 8d 7f 3f 7e 1c 80 3f
       0.9996003 0.9968057 0.9982601 1.0008695
000360 c8 9e 7e 3f 0b 2f 7f 3f e2 a4 7f 3f 58 94 7f 3f
       0.9946103 0.99681157 0.99860966 0.9983573
000370 d2 20 7f 3f 79 42 7f 3f 5a 78 69 3f 92 a1 7e 3f
       0.99659455 0.99710804 0.91199267 0.99465287
000380 46 5e 7a 3f 2d 4b 80 3f 30 17 81 3f 14 0f 80 3f
       0.978001 1.0022942 1.0085201 1.0004601
000390 60 12 7f 3f 98 8d 80 3f b9 69 80 3f 66 7a 80 3f
       0.99637413 1.0043211 1.0032264 1.0037353
0003a0 bd 1a 80 3f 53 bd 7f 3f 21 4f 81 3f 66 b2 7e 3f
       1.000816 0.9989826 1.0102273 0.99490964
0003b0 6e 15 81 3f 53 7f 80 3f 86 35 82 3f da 53 82 3f
       1.0084665 1.0038856 1.0172584 1.018184
0003c0 81 8d 7d 3f d5 7e 80 3f 6f f8 80 3f 38 bf 7f 3f
       0.9904404 1.0038706 1.0075816 0.9990115
0003d0 68 1a 80 3f f4 fd 7f 3f 2d 6f 80 3f c9 29 7f 3f
       1.0008059 0.99996877 1.0033928 0.99673134
0003e0 1b 1c 7f 3f 88 86 80 3f 44 ef 7e 3f f5 1d 7f 3f
       0.9965226 1.0041056 0.9958384 0.99655086
0003f0 a5 49 6f 3f 23 b3 7e 3f 94 c5 7a 3f c5 e6 7f 3f
       0.9347175 0.9949209 0.9795773 0.999615
