weights/stockmixer_L16_H64_M40_K4_E100_s4.pt (torch, 630154 bytes, 93 tensors)

indicator_time_mixing.0.indicator_mixing.W1 f4 [5, 64]
0	0xbf656e1b	-0.8962113
1	0x3fa1fe68	1.2655764
2	0xbe44e518	-0.19228017
3	0x3e1bf43e	0.1522989
4	0x3da72db7	0.08163016
5	0xbe8e2de4	-0.27769387
6	0xc02443bc	-2.5666342
7	0x3f225cdf	0.6342296
8	0xbf5f6f53	-0.8727924
9	0xbe4fb191	-0.2028258
10	0x3ecefcb2	0.40427166
11	0x3f196f62	0.5993558
12	0xbd7a955b	-0.061177593
13	0x3d4856fd	0.048911083
14	0xbfdb0963	-1.711224
15	0xc006bf5b	-2.1054294
16	0x3fc1a13e	1.5127332
17	0xbf2d76c8	-0.6775937
18	0xbb84bd43	-0.004050882
19	0xbe1b3cd1	-0.15159918
20	0x3f90b48c	1.1305099
21	0xbe94ec08	-0.29086328
22	0x3f97618c	1.1826644
23	0x3f434153	0.7627155
24	0xbf3b0c8c	-0.7306602
25	0xbe5ba01b	-0.21447794
26	0xbf31e6fa	-0.6949307
27	0xbe890b81	-0.2676659
28	0xbeb8f2ab	-0.3612264
29	0x3f5b5062	0.8566953
30	0xbf4b4db7	-0.7941546
31	0xbf625d80	-0.8842392
32	0xbef66452	-0.48123413
33	0x3fb40135	1.4062868
34	0x4017c007	2.3710954
35	0x3e91d350	0.2848153
36	0xbe8dc72e	-0.27691025
37	0x3fdcf2a1	1.7261544
38	0x3e975a22	0.29560953
39	0xbe3e5cc8	-0.1859008
40	0xbf367156	-0.71266687
41	0xbfa7c04a	-1.3105557
42	0xbf76be59	-0.963842
43	0x3f217e8d	0.63083726
44	0x3f51d939	0.8197208
45	0xbf6aee50	-0.91769886
46	0xc009f33b	-2.1554706
47	0x3fb32b2b	1.3997549
48	0xbd03dcca	-0.032192983
49	0x402e4011	2.7226603
50	0xbf0a52e7	-0.5403275
51	0x3f6ed713	0.9329693
52	0x3f8d8230	1.1055355
53	0x3db719d9	0.08940477
54	0x3c70d1c1	0.014698447
55	0x3f2d4ccf	0.67695326
56	0xbf46a878	-0.7760081
57	0xbf80b6bb	-1.0055765
58	0xbe762d05	-0.24040611
59	0xbfbb73e3	-1.4644741
60	0x3fad5f8c	1.3544784
61	0xbe4c1bb6	-0.19932446
62	0xbc8c1ae4	-0.017102666
63	0xbfa23b1c	-1.2674289
64	0x3d873a34	0.06602898
65	0xbe30158e	-0.17195722
66	0x3e4e16b4	0.20125848
67	0x3f021724	0.5081656
68	0x3e62c5f3	0.22145824
69	0xbeb57daf	-0.3544745
70	0xbf532db6	-0.82491624
71	0x3e963298	0.29335475
72	0x3fa1b724	1.2634015
73	0x3fe86ed8	1.8158827
74	0x3fc3bf0b	1.5292677
75	0xbeaf0557	-0.3418376
76	0xbf9b8a5d	-1.21516
77	0xbfa0bc62	-1.255749
78	0x3f891d24	1.0712018
79	0x3e228bfc	0.15873712
80	0x3f52a7e5	0.82287437
81	0x4021ad5d	2.5262063
82	0xbf791e31	-0.97311693
83	0xbcdb5c8f	-0.026777534
84	0x3e85eed5	0.26158777
85	0x3f1d8ace	0.61539924
86	0x3fda9c5e	1.707897
87	0xbecc1c5c	-0.39865386
88	0x3f93bdeb	1.1542333
89	0x3ee2280b	0.44171175
90	0xbf9e8367	-1.2383851
91	0xbef0a4b7	-0.47000667
92	0xbf8697e6	-1.0515106
93	0xbf7c09d7	-0.98452514
94	0xbf56ded5	-0.83933765
95	0x3fc869e4	1.5657315
96	0x3d1fff03	0.039061558
97	0xbfb1f48f	-1.3902758
98	0x4034f46d	2.8274186
99	0xbe1a24e7	-0.1505314
100	0xbf3b639b	-0.7319886
101	0xbfcc3fbc	-1.595695
102	0xbf0c93cf	-0.5491304
103	0xbf921ee5	-1.1415678
104	0x3e35c8ce	0.17752382
105	0xbf5eb670	-0.8699713
106	0x3e43f2d6	0.19135603
107	0x3f017340	0.5056648
108	0x3e94d130	0.29065847
109	0x3fc778d7	1.5583752
110	0xc0012807	-2.018068
111	0xbd8ffd38	-0.070307195
112	0xbec4dd5c	-0.38450134
113	0x3e0a8d5b	0.13530485
114	0xbf37fb53	-0.71867865
115	0xbfdc22f4	-1.7198167
116	0x3e82d5bf	0.255537
117	0xbf0f6114	-0.56007504
118	0xbfbf85a6	-1.4962661
119	0x3e00c285	0.12574203
120	0xbdd916f4	-0.10600081
121	0x3f8c3953	1.0954994
122	0xbf6fd098	-0.93677664
123	0xbf366228	-0.71243525
124	0xbf9d9d79	-1.2313682
125	0x3f2d6245	0.6772807
126	0x3e9b884a	0.30377418
127	0xbfc33754	-1.525126
128	0x3f55623a	0.83353007
129	0xbfc30e33	-1.5238708
130	0x3f077cfa	0.52925074
131	0xbfcf91a8	-1.6216326
132	0xbf8f6dc2	-1.120537
133	0xbf02a335	-0.51030284
134	0x3fbf8c9a	1.4964783
135	0xbf704779	-0.9385906
136	0xbf1e81c6	-0.6191677
137	0x3f3cbc8c	0.737252
138	0xbf653ff9	-0.8955074
139	0x3fe03a33	1.7517761
140	0xbe959443	-0.29214677
141	0xbf58ca7e	-0.8468398
142	0x3e7b09d6	0.24515471
143	0xbf15814c	-0.58400416
144	0x3fc2b665	1.5211912
145	0xbfc41812	-1.5319846
146	0xbf088603	-0.53329486
147	0xbe8522b0	-0.26003027
148	0x3f972f9a	1.1811402
149	0x3f9e583f	1.237068
150	0xbf3b08b2	-0.73060143
151	0xbfc21927	-1.5163926
152	0x3f339709	0.70152336
153	0xbe3d5acb	-0.18491666
154	0x3f53459b	0.82528085
155	0x3f868dbd	1.0512005
156	0x3f4e0b31	0.80485827
157	0xbf68f4e9	-0.90998703
158	0xbe6200ee	-0.22070667
159	0xbeb7cf55	-0.3590037
160	0xbf10158c	-0.5628288
161	0x3f577a87	0.84171337
162	0x3efd638c	0.4949001
163	0x3e201b43	0.156354
164	0x3eb87974	0.3603016
165	0xbf360777	-0.7110514
166	0xbfae7f21	-1.3632547
167	0xc006b376	-2.1047034
168	0x3f67a880	0.90491486
169	0x3caac166	0.020844173
170	0xbcff2e2e	-0.03114995
171	0xbfa9cc13	-1.3265404
172	0xbeb92927	-0.3616421
173	0x3eec07f3	0.46099815
174	0x3f989863	1.1921505
175	0xbf2e0225	-0.6797202
176	0xbf2560c9	-0.6460081
177	0xbf8677ae	-1.0505273
178	0xbeee859a	-0.46586305
179	0xc0007d0e	-2.0076327
180	0xbf473e76	-0.7782968
181	0x3ee3c37d	0.44485083
182	0xbe897c06	-0.26852435
183	0xbe0ee0a6	-0.13952884
184	0x3f8bd7fa	1.0925286
185	0x3f1b7d90	0.6073847
186	0xbf0f5903	-0.55995196
187	0x3f8d9fd2	1.1064398
188	0xbfb3a9ae	-1.4036157
189	0x3f7012c4	0.93778634
190	0x3e6cd818	0.23129308
191	0xbf49ada5	-0.78780586
192	0x3f86da00	1.0535278
193	0x3e58624b	0.21131246
194	0xbf664d75	-0.8996194
195	0x3edae15b	0.42750058
196	0xbed98c90	-0.42490053
197	0xbf9330db	-1.1499285
198	0x4012d929	2.2945044
199	0xbe6d6132	-0.23181608
200	0xc02db258	-2.7140102
201	0x3ba91eb4	0.005161131
202	0xbf5a11a3	-0.8518316
203	0xbfe3cb8a	-1.779649
204	0x3fb6bc3a	1.4276192
205	0xbe52cecb	-0.20586698
206	0x3f0e6924	0.5562918
207	0x3bdd9b8a	0.0067629265
208	0x3d0c79fe	0.03429603
209	0xbf551c14	-0.8324597
210	0xbf9c87b0	-1.2228909
211	0x3f7657d2	0.96227753
212	0x3f5ea6cb	0.86973256
213	0x4021a1ce	2.5255008
214	0x3f8da67c	1.1066432
215	0xbf52fb1f	-0.8241443
216	0xbfdfce15	-1.7484766
217	0x3fb44b3d	1.4085461
218	0x3ec51b5f	0.38497445
219	0xbef717c9	-0.48260334
220	0xbe3746a6	-0.17898044
221	0x3e5ff3c8	0.21870339
222	0x3ed99515	0.42496553
223	0x3fb80813	1.4377464
224	0xbf5c65ce	-0.8609284
225	0x3f7475a1	0.9549199
226	0xbfb5934e	-1.4185579
227	0xbdeb5e6f	-0.11492621
228	0xbf9e952d	-1.2389275
229	0x3fd334c9	1.6500484
230	0xbdffe269	-0.12494356
231	0x3f461457	0.77374786
232	0xbf218902	-0.6309968
233	0xbe959e8b	-0.2922252
234	0xbfa73f0c	-1.3066115
235	0xbe499c4d	-0.1968853
236	0xbdc3f042	-0.0956731
237	0x3f3a066c	0.7266605
238	0x3f85e64c	1.0460906
239	0x3e0a629f	0.13514183
240	0x3ef12180	0.4709587
241	0xbf922115	-1.1416346
242	0x3e89a169	0.2688096
243	0xbfc056ac	-1.502645
244	0x3fbe1f25	1.4853255
245	0xbfd1b847	-1.6384362
246	0x3ea0db13	0.3141714
247	0x3f5c3953	0.8602497
248	0x3f0ca210	0.5493479
249	0xbf92eaca	-1.1477902
250	0x3f909fd3	1.1298774
251	0xbed710f4	-0.42005122
252	0x3f210157	0.6289267
253	0x3faa6869	1.3313113
254	0x3ecdd55f	0.40201852
255	0x3eabacd4	0.33530295

indicator_time_mixing.0.indicator_mixing.W2 f4 [64, 5]
0	0xbfd638f3	-1.673613
1	0xbf830ef3	-1.0238937
2	0xbf17ac86	-0.59247625
3	0x3bab20ab	0.0052224
4	0x3e9150bd	0.2838191
5	0x3f0e629f	0.55619234
6	0xbe0bb456	-0.13643011
7	0x3e2de2fe	0.16981122
8	0x3f31eaa5	0.69498664
9	0xbe5eed1e	-0.2177014
10	0xbdc82585	-0.09772781
11	0xbe9c3f43	-0.30517015
12	0xbb29fc5e	-0.0025937776
13	0xbfa82252	-1.3135474
14	0xbfa3422f	-1.2754573
15	0xbef1f15e	-0.4725446
16	0xbee83a19	-0.45356825
17	0xbdbcae3e	-0.092129216
18	0x3f45ede0	0.77316093
19	0xbec59974	-0.38593638
20	0xbf049c89	-0.51801354
21	0x3e8767b0	0.26446295
22	0x3eee4219	0.46534804
23	0x3bf7b094	0.0075588915
24	0x3f170ca5	0.5900367
25	0xbf65852d	-0.89656335
26	0x3de16458	0.11005467
27	0xbf9bae95	-1.2162653
28	0xbf9bb732	-1.2165282
29	0x3fb41168	1.4067812
30	0xbe268b87	-0.16264163
31	0x3ed988d3	0.424872
32	0xbf82208c	-1.0166183
33	0x3f26930d	0.6506813
34	0x3dd99171	0.10623444
35	0x3f582e91	0.84446055
36	0xbf96a844	-1.17701
37	0x3ec4b060	0.38415813
38	0xbf88daca	-1.0691769
39	0x3f3224ff	0.695877
40	0x3fb5dbb5	1.4207674
41	0x3f0be6ea	0.5464922
42	0x3e928d69	0.28623512
43	0x3e86c40c	0.26321447
44	0xbf8f453b	-1.1193002
45	0xbe8a4b8a	-0.27010757
46	0xc000e3c9	-2.013903
47	0xbf02267c	-0.5083997
48	0x3f02726c	0.50955844
49	0xbebf1462	-0.37320238
50	0x401a2600	2.4085693
51	0xbef3d2c3	-0.47621736
52	0x3f7bec93	0.9840786
53	0xbf9fa6d4	-1.2472787
54	0x3fb08018	1.3789091
55	0xbe810eb9	-0.25206545
56	0xbe4f5e36	-0.20250782
57	0x3e8fdaed	0.28096715
58	0x3f156445	0.58356124
59	0xbf945ee4	-1.1591458
60	0x3fa2d204	1.2720342
61	0xbf96806f	-1.1757945
62	0xbd158e83	-0.036512863
63	0x3f6a1d9b	0.91451424
64	0xbed12a58	-0.40852618
65	0xbf8ebbe3	-1.1151088
66	0x3f182f99	0.5944763
67	0xbd1eef11	-0.03880221
68	0xbef50224	-0.47853196
69	0x3ffdafc8	1.9819269
70	0xbe824117	-0.25440285
71	0x3cdfcfea	0.02732082
72	0x3f2afbfc	0.6679075
73	0xbe99096b	-0.29889998
74	0xbf51957e	-0.8186873
75	0x3f960dab	1.1722921
76	0x3f6ac420	0.91705513
77	0xbff783b3	-1.9337066
78	0x3fe5ff33	1.7968506
79	0xbf8ecb42	-1.1155779
80	0xbe5d5b43	-0.21616845
81	0xbd2c6bba	-0.042094924
82	0x3e890d3b	0.26767907
83	0xbe1a65a8	-0.15077841
84	0xbfe23ab4	-1.7674165
85	0xbf087b6e	-0.5331334
86	0x3ff46d79	1.9095908
87	0x3f9214df	1.1412619
88	0xbeb487e7	-0.35259935
89	0xbf43e86d	-0.7652653
90	0x3f7c6618	0.9859328
91	0x3d3b5c4b	0.045742314
92	0xbf0440dd	-0.51661474
93	0x3f068f56	0.52562463
94	0xbe7d960c	-0.2476427
95	0x3e0f9d58	0.14024866
96	0x3da9aade	0.082845435
97	0x3f40dcb1	0.7533675
98	0x3e55f2b1	0.2089336
99	0x3f4847c9	0.78234535
100	0xbeef4f42	-0.46740156
101	0x3e297102	0.16547015
102	0xbfa90c1d	-1.3206822
103	0xbfa0458a	-1.2521222
104	0xbeb83f0a	-0.35985595
105	0xbf4ca54c	-0.79939723
106	0x3f030718	0.511827
107	0x3e5c841a	0.21534768
108	0x400ca78c	2.1977262
109	0x3f9b4965	1.2131773
110	0xbfdcad83	-1.7240452
111	0xbfda72a1	-1.7066232
112	0x3e907492	0.28213936
113	0x3eb3c0f7	0.35108158
114	0xbf94cfce	-1.1625917
115	0x3dc58c7c	0.09645936
116	0x3eadc895	0.33942094
117	0x3f579a5d	0.84219915
118	0xbfee70d5	-1.8628184
119	0xbe1fa403	-0.1558991
120	0xbf955bd1	-1.1668645
121	0xbf0ffb2f	-0.5624265
122	0x3f151396	0.5823301
123	0x3ea03bd5	0.31295648
124	0xbf113f1c	-0.5673692
125	0xbd99a4f2	-0.07502164
126	0xbf02cd08	-0.510941
127	0xc02c56fd	-2.6928093
128	0x3f285504	0.65754724
129	0xbf738fe0	-0.9514141
130	0x3fd534aa	1.6656697
131	0x400198d9	2.024954
132	0xbf8e528b	-1.111894
133	0xbf7ed3fa	-0.995422
134	0xbf2df2ae	-0.67948425
135	0xbfb28486	-1.3946693
136	0x3e1e229f	0.15442894
137	0xbf8d0474	-1.1016984
138	0xbf21f44a	-0.6326338
139	0xbf8da4de	-1.1065938
140	0xbf6ba2ea	-0.9204546
141	0xc05423a6	-3.3146758
142	0xc0122e4d	-2.284076
143	0x3d99181d	0.07475302
144	0x3f3ceddf	0.7380046
145	0x3f9943a6	1.197377
146	0x3eafcaff	0.3433456
147	0x3eef5a4c	0.4674858
148	0x3f71211e	0.9419116
149	0xbfcc88ff	-1.5979308
150	0xbf6a9ee3	-0.9164869
151	0x3e24d3cf	0.16096424
152	0xbf7dea2b	-0.99185437
153	0x40290875	2.6411412
154	0x3f84492b	1.0334829
155	0x3f8399ab	1.0281271
156	0xbd990522	-0.07471682
157	0xbeb39a95	-0.35078874
158	0xc05de9a6	-3.4673858
159	0xbd715ed5	-0.05892833
160	0x3ede72e4	0.4344703
161	0x3f959e4b	1.1688932
162	0x3f317ae3	0.69328135
163	0xbeefefc6	-0.4686262
164	0xbff3fcca	-1.906152
165	0xbede364e	-0.43400806
166	0xbd4c9b51	-0.04995281
167	0x3f9419c8	1.1570368
168	0x3f6c05c4	0.921963
169	0xbef73373	-0.4828144
170	0x3eac6cc3	0.3367673
171	0xbeff70db	-0.4989079
172	0x3ea3fef8	0.32030463
173	0xbf37e50d	-0.7183388
174	0xbdfd0fd7	-0.12356537
175	0x3db26271	0.087101825
176	0xbf2806a1	-0.65635115
177	0xbf0d3318	-0.5515609
178	0xbdd6b19d	-0.10483096
179	0x3d5471d7	0.05186638
180	0x3f96f094	1.1792169
181	0x3f811143	1.0083393
182	0xbeedeb44	-0.46468556
183	0xbf78bfae	-0.9716748
184	0xbc876418	-0.01652722
185	0x3f0451fa	0.51687586
186	0x3de18352	0.110113755
187	0xbf25f12e	-0.64821136
188	0xbee292b3	-0.44252548
189	0xbfd69a67	-1.676587
190	0x3f873b6c	1.0565009
191	0x4019675b	2.3969333
192	0xbed689ba	-0.41901952
193	0x3e4d1a7f	0.20029639
194	0x3faf635a	1.3702195
195	0xbfc176fb	-1.5114435
196	0xbfbf13ca	-1.4927914
197	0x3f3f0d77	0.7462992
198	0xbf1bb306	-0.60820043
199	0xbeb0ef98	-0.34557796
200	0xbe7608d0	-0.24026799
201	0x3e3e5a98	0.18589246
202	0x3f121f1e	0.5707873
203	0x3ebbf2d8	0.36708713
204	0xbeb44e31	-0.35215905
205	0xbea2b024	-0.3177501
206	0x3e28d741	0.16488363
207	0xbfa489bd	-1.2854534
208	0x3e9ca4d5	0.30594507
209	0xbf55b70c	-0.8348243
210	0x3cb7dc24	0.022443838
211	0x3e50d333	0.20393066
212	0xbf9e8d63	-1.2386898
213	0x3f9048cd	1.1272217
214	0x40211f38	2.5175304
215	0x40017a72	2.0230985
216	0xbf8ce569	-1.100751
217	0xbfa22edf	-1.2670554
218	0xbdff97a8	-0.12480098
219	0x3f4d0e7a	0.80100214
220	0x3d6289d4	0.055307224
221	0xbfa5c9af	-1.2952174
222	0xbf08a4e7	-0.5337662
223	0xbdd46e8a	-0.10372646
224	0x3f0f99e7	0.5609421
225	0x3f933fd1	1.150385
226	0xbfc85a10	-1.5652485
227	0xbf049360	-0.51787376
228	0x3ed8789f	0.42279527
229	0xbf4bdd07	-0.79634136
230	0xbfdb8e45	-1.7152792
231	0xbf856a18	-1.0423002
232	0xbfb087dd	-1.3791462
233	0x4027112b	2.6104228
234	0x3eb21153	0.34778842
235	0xbfd67a4d	-1.6756073
236	0x3ee8d15e	0.45472234
237	0xbfd59566	-1.6686218
238	0x3cd7eb84	0.02635742
239	0xbf5dff12	-0.8671733
240	0xbf01e5fa	-0.5074154
241	0xbf0f2dd2	-0.5592929
242	0xbf3d3f1e	-0.73924434
243	0xbf6d8d36	-0.92793596
244	0xbf66eadb	-0.9020211
245	0x3fd7b76d	1.6852852
246	0x3f95018f	1.1641101
247	0x3f01a183	0.5063707
248	0x3d43b8ce	0.047783665
249	0xbf1354b5	-0.5755113
250	0xbfabd034	-1.3422914
251	0xbf2730f7	-0.6530909
252	0xbf5d36c0	-0.86411667
253	0xc0114c19	-2.2702696
254	0xbf30870f	-0.68956083
255	0x3f30177d	0.6878584

indicator_time_mixing.0.indicator_mixing.ln.weight f4 [16, 5]
0	0x3f800825	1.0002486
1	0x3f8053fc	1.002563
2	0x3f7c1c9c	0.98481154
3	0x3f719dd9	0.9438148
4	0x3f7a6c61	0.97821623
5	0x3f8118a3	1.0085644
6	0x3f8163b5	1.0108553
7	0x3f81082a	1.0080616
8	0x3f7aab18	0.9791732
9	0x3f762b4a	0.96159804
10	0x3f7cddc3	0.9877588
11	0x3f7b6501	0.98200995
12	0x3f79a71d	0.9752062
13	0x3f72d4ec	0.94856143
14	0x3f787713	0.9705669
15	0x3f7a8eb2	0.97873986
16	0x3f7ec2f5	0.9951623
17	0x3f7d0fd9	0.98852307
18	0x3f7b2428	0.98102045
19	0x3f84b3f1	1.0367414
20	0x3f788613	0.9707958
21	0x3f7ed389	0.9954153
22	0x3f789b47	0.97111934
23	0x3f808a27	1.0042161
24	0x3f87a731	1.0597898
25	0x3f7bf18a	0.98415434
26	0x3f791041	0.97290426
27	0x3f7f0cf0	0.99629116
28	0x3f844ae1	1.0335351
29	0x3f7829c6	0.9693874
30	0x3f7be450	0.9839525
31	0x3f79e282	0.9761125
32	0x3f80570b	1.0026563
33	0x3f821685	1.0163122
34	0x3f780f99	0.968988
35	0x3f7d1ce4	0.9887221
36	0x3f80111d	1.0005223
37	0x3f842eb1	1.0326749
38	0x3f73d2a1	0.9524327
39	0x3f878e37	1.0590276
40	0x3f78299f	0.9693851
41	0x3f769294	0.9631741
42	0x3f7c0228	0.9844079
43	0x3f876957	1.0579022
44	0x3f89de68	1.0770998
45	0x3f8451fd	1.0337521
46	0x3f81994d	1.0124909
47	0x3f805a0c	1.002748
48	0x3f78afe5	0.97143394
49	0x3f723492	0.94611466
50	0x3f806b00	1.0032654
51	0x3f7bff16	0.98436105
52	0x3f782556	0.9693197
53	0x3f7c02db	0.9844186
54	0x3f7bb631	0.9832488
55	0x3f7cbf39	0.9872928
56	0x3f777e73	0.9667732
57	0x3f7cf8ea	0.9881731
58	0x3f808cc9	1.0042964
59	0x3f7d8162	0.9902555
60	0x3f6fd193	0.9367916
61	0x3f875f8e	1.0576036
62	0x3f7a8c5d	0.9787043
63	0x3f7d6416	0.98980844
64	0x3f826fc5	1.0190359
65	0x3f81dfd5	1.0146433
66	0x3f7c670d	0.98594743
67	0x3f77c694	0.9678738
68	0x3f65d9b7	0.8978533
69	0x3f7f5b8b	0.9974906
70	0x3f7daf94	0.99096036
71	0x3f80c6fd	1.0060726
72	0x3f7ce13b	0.98781174
73	0x3f5bf540	0.85921097
74	0x3f7f10e0	0.99635124
75	0x3f826124	1.0185895
76	0x3f8cdc81	1.1004792
77	0x3f7d371c	0.98912215
78	0x3f956230	1.167059
79	0x3f8a7274	1.0816178

indicator_time_mixing.0.indicator_mixing.ln.bias f4 [16, 5]
0	0xbc049c8c	-0.008093964
1	0x3b3df8ce	0.002898741
2	0x3cdeefdc	0.027213983
3	0x3ca5282b	0.020160755
4	0x3ae80975	0.0017703014
5	0xbbe11e79	-0.0068700877
6	0x3c521469	0.012822249
7	0x3bd3d33a	0.006464389
8	0x3cb70f5e	0.022346195
9	0x3c027bbc	0.007964071
10	0x3b301fa1	0.002687432
11	0xbc921f6f	-0.017837254
12	0x3d4153cf	0.047199067
13	0xbc20e076	-0.009819141
14	0x3c87d61a	0.016581584
15	0x3c0078ea	0.007841328
16	0xbbe951e3	-0.0071203574
17	0xbb6761bb	-0.0035306055
18	0xbc49923d	-0.012302932
19	0xbc4da7f5	-0.012552251
20	0xbab33808	-0.0013673315
21	0x3b8085a3	0.0039221807
22	0xbcb61485	-0.022226581
23	0xbc19a245	-0.009377067
24	0xbca150a3	-0.01969177
25	0xbd033065	-0.032028574
26	0xbcd0f645	-0.025508055
27	0x3d4c0a6f	0.049814638
28	0x3c4fb9bc	0.01267856
29	0xbc03e795	-0.008050819
30	0xbd10f421	-0.03538907
31	0xbcb232f7	-0.021752818
32	0x3d023076	0.031784497
33	0x3c49e46b	0.0123225255
34	0x3c75d487	0.015004284
35	0x3c24f63e	0.010068474
36	0x3bd91329	0.0066245985
37	0xbd923e24	-0.07140759
38	0xbc29eae5	-0.010370945
39	0xbd57707e	-0.052597515
40	0x3c2447eb	0.010026912
41	0xbcea0268	-0.0285656
42	0xbd48b744	-0.0490029
43	0xbc702a0c	-0.014658462
44	0xbdb60861	-0.08888317
45	0x3d27859f	0.040898915
46	0x3c617c00	0.013762474
47	0xbb657cb7	-0.0035016963
48	0x3bb5fa50	0.005553521
49	0x3c3a08bf	0.011354624
50	0x3c014315	0.007889529
51	0xbc415aa4	-0.011801396
52	0x3d0c0bf6	0.034191094
53	0xbaa9f46d	-0.0012966521
54	0xbcca0d6b	-0.024664601
55	0xbc40831f	-0.011750012
56	0xbcf676ef	-0.030086009
57	0xbc815906	-0.01578952
58	0x3bd4337f	0.0064758654
59	0xbc97e2ca	-0.018540759
60	0xbd634125	-0.05548205
61	0x3d3c6e4d	0.04600363
62	0xbd095d95	-0.033536512
63	0xbd131cb0	-0.03591603
64	0x3d8d5c20	0.06902337
65	0x3ce16863	0.027515596
66	0xbb528a84	-0.0032126019
67	0x3cc00947	0.023441924
68	0xbc200805	-0.009767537
69	0xbd131485	-0.03590824
70	0x3a93c7e7	0.0011274786
71	0x3c877848	0.016536847
72	0xbae23f36	-0.001726127
73	0xbce7b78a	-0.02828576
74	0xbc9b7f01	-0.018981459
75	0x3c8b206c	0.016983233
76	0x3d8cfd4d	0.06884251
77	0xbde172fb	-0.11008259
78	0x3c7776ff	0.0151040545
79	0x3ce599b9	0.028027402

indicator_time_mixing.0.time_mixing.ln.weight f4 [16, 5]
0	0x3f8654ec	1.0494666
1	0x3f86e37e	1.0538175
2	0x3f7d58ba	0.9896351
3	0x3f86df31	1.0536863
4	0x3f6ab1c0	0.91677475
5	0x3f7f8f20	0.99827766
6	0x3f8bd08a	1.0923016
7	0x3f816d75	1.0111529
8	0x3f81b8ff	1.0134581
9	0x3f628cde	0.88496196
10	0x3f7864a6	0.9702858
11	0x3f407721	0.75181776
12	0x3f7fd092	0.9992763
13	0x3f63aa46	0.8893169
14	0x3fa82edf	1.3139304
15	0x3f6e7a17	0.93155044
16	0x3de93753	0.113875054
17	0x3f8cfb4f	1.1014193
18	0x3f70abbf	0.94012064
19	0x3fedd3bf	1.8580245
20	0x3f76c91f	0.96400636
21	0x3f68b5fc	0.90902686
22	0x3f81e66d	1.0148445
23	0x3f60a831	0.8775664
24	0x3fa2ebf2	1.2728255
25	0x3f7c8969	0.9864717
26	0x3f8cea86	1.1009071
27	0x3f76aad8	0.96354437
28	0x3f628cda	0.8849617
29	0x3f888cce	1.066797
30	0x3f79c527	0.97566456
31	0x3f5afe91	0.8554469
32	0x3f8821bf	1.0635298
33	0x3f5a3008	0.8522954
34	0x3f9464ef	1.1593302
35	0x3f77be7f	0.9677505
36	0x3f851a7e	1.039871
37	0x3f89cd38	1.0765753
38	0x3f521ccb	0.82075185
39	0x3f8d8636	1.1056583
40	0x3f775272	0.96610177
41	0x3fbfbd8a	1.4979718
42	0x3f87c68f	1.060747
43	0x3f6064aa	0.876536
44	0x3f34bed2	0.7060367
45	0x3f7dd57d	0.9915388
46	0x3fa7940a	1.3092053
47	0x3f8c9feb	1.0986303
48	0x3f60893c	0.87709403
49	0x3f8db6c3	1.10714
50	0x3f735718	0.9505477
51	0x3fb526c9	1.4152461
52	0x3f95e6ce	1.1711061
53	0x3f75d0a4	0.96021485
54	0x3f89b1a7	1.075734
55	0x3f6c53c0	0.9231529
56	0x40077bde	2.1169353
57	0x3f9449ae	1.1584985
58	0x3f5888a1	0.8458348
59	0x3e23845e	0.15968463
60	0x3f7bcaa8	0.98356104
61	0x3fd7c398	1.6856565
62	0x3f922c35	1.1419741
63	0x3f73a649	0.95175606
64	0x3f0f1d46	0.5590404
65	0x3f7d3a16	0.9891676
66	0x3feaab7b	1.8333582
67	0x3f947a42	1.159981
68	0x3f6e6bef	0.93133444
69	0x3f4ecffe	0.8078612
70	0x3f8afed3	1.0859016
71	0x3fcb60d2	1.5888922
72	0x3fa5daa7	1.2957352
73	0x3f6bd7ee	0.9212636
74	0x3e4316ae	0.1905162
75	0x3f6ff1e4	0.9372847
76	0x401f9423	2.4934165
77	0x3fa4036c	1.2813544
78	0x3f70b2a9	0.94022614
79	0xbecbad30	-0.3978057

indicator_time_mixing.0.time_mixing.ln.bias f4 [16, 5]
0	0x3c69becf	0.014266684
1	0x3cb9b578	0.022669539
2	0xbc8fb51c	-0.017542414
3	0xbc292fd2	-0.010326343
4	0xbbe2d9fa	-0.0069229575
5	0x3a720f66	0.0009233862
6	0x3c3b8123	0.011444363
7	0xbb81e60f	-0.0039641927
8	0x3b26acfe	0.0025432701
9	0x3be694ca	0.00703678
10	0xbc819867	-0.015819741
11	0xbd6f7cc9	-0.058468614
12	0x3d518878	0.051155537
13	0x3de852a6	0.11343889
14	0x3da2161a	0.07914372
15	0xbd72b687	-0.059256103
16	0xbd703ffd	-0.058654774
17	0x3d8cc919	0.06874294
18	0x3d94ad3e	0.07259606
19	0x3d7ce2da	0.06173978
20	0x3a6d5350	0.0009053247
21	0xbd48fdbd	-0.04907011
22	0x3cfc8584	0.030825384
23	0x3de76a66	0.11299591
24	0x3d386b3e	0.04502415
25	0xba7b3c52	-0.00095838786
26	0xbd90738b	-0.07053288
27	0x3cdfea9c	0.02733355
28	0x3dfda214	0.123844296
29	0x3d0c1dd2	0.034208126
30	0xbcb90721	-0.022586407
31	0xbd82ef2c	-0.06393275
32	0x3d5edf56	0.05441221
33	0x3e187aee	0.14890644
34	0x3d80be4f	0.062862985
35	0xbcb20096	-0.021728795
36	0xbd8fba15	-0.07017914
37	0x3d5beed7	0.053694572
38	0x3e473856	0.19455084
39	0x3d2572ba	0.040392615
40	0xbcfdb69c	-0.030970864
41	0xbd754743	-0.059882414
42	0x3d78b090	0.060715258
43	0x3de2dbce	0.11077081
44	0x3d763b04	0.060114875
45	0xbc92d3fc	-0.017923348
46	0xbdad0030	-0.084473014
47	0x3d86bd9a	0.065791324
48	0x3e065a90	0.13120484
49	0xbb688445	-0.003547923
50	0xbd24abb8	-0.040202826
51	0xbdb8f792	-0.09031595
52	0x3da29cad	0.0794004
53	0x3d3cb71c	0.046073064
54	0xbb95a740	-0.004567057
55	0xbd59d39e	-0.05318033
56	0xbd8ea6f4	-0.069654375
57	0x3d999688	0.07499415
58	0x3dccd801	0.10002137
59	0x3da04ac3	0.0782676
60	0xbd577f3d	-0.05261158
61	0xbd60e740	-0.054908037
62	0x3d9ea972	0.07747163
63	0x3d617fe2	0.0550536
64	0x3d889163	0.06668355
65	0xbc372980	-0.011179328
66	0xbd9cecae	-0.076623306
67	0x3d6f36ff	0.058402058
68	0x3dbe1da3	0.092829965
69	0x3d122816	0.03568276
70	0x3e1307be	0.14358422
71	0xbdf8b919	-0.121446796
72	0xbd73054d	-0.059331227
73	0x3d7dcc4c	0.06196241
74	0x3d9940d2	0.074830666
75	0xbd864124	-0.06555393
76	0xbdde7990	-0.1086303
77	0xbdba6c16	-0.09102647
78	0x3cbf4513	0.023348367
79	0x3d3b0c3d	0.04566597

indicator_time_mixing.0.time_mixing.U1.1 f4 [1, 2]
0	0xb9c0b16d	-0.00036753286
1	0xba8d5806	-0.0010783679

indicator_time_mixing.0.time_mixing.U1.2 f4 [1, 3]
0	0xbc63e9aa	-0.01391069
1	0x3b7e97bc	0.0038847765
2	0x3ce59f26	0.02802999

indicator_time_mixing.0.time_mixing.U1.3 f4 [1, 4]
0	0x3d74f1e6	0.059801005
1	0x3d28b88c	0.041191623
2	0xbe4a5570	-0.19759154
3	0xbe7b6659	-0.24550761

indicator_time_mixing.0.time_mixing.U1.4 f4 [1, 5]
0	0x3da8a469	0.08234484
1	0x3d128e58	0.03578028
2	0xbe581295	-0.21100838
3	0xbf013f0a	-0.50486815
4	0xbe4aaf07	-0.1979333

indicator_time_mixing.0.time_mixing.U1.5 f4 [1, 6]
0	0xbde46fb2	-0.11154117
1	0xbd8858a6	-0.06657533
2	0x3d29da88	0.041468173
3	0x3dd440b3	0.10363903
4	0xbcaabf07	-0.020843042
5	0xbb2a770a	-0.0026010894

indicator_time_mixing.0.time_mixing.U1.6 f4 [1, 7]
0	0xbdfd2d1d	-0.1236212
1	0xbde1f2fa	-0.11032672
2	0x3cf7d86e	0.030254569
3	0x3e000197	0.12500606
4	0xbd41c3b9	-0.047305796
5	0xbc9222ee	-0.017838921
6	0x3d402955	0.046914417

indicator_time_mixing.0.time_mixing.U1.7 f4 [1, 8]
0	0xbe074336	-0.13209233
1	0xbdc83c29	-0.097771
2	0x3cb66cf8	0.022268757
3	0x3df07eef	0.11742961
4	0xbcabb8be	-0.020962115
5	0x3d0b8bd1	0.034068886
6	0x3d67a3e8	0.056552798
7	0x3d9db56e	0.077006206

indicator_time_mixing.0.time_mixing.U1.8 f4 [1, 9]
0	0xbdb9432a	-0.09046014
1	0xbd755151	-0.059892002
2	0x3b60c105	0.0034294736
3	0x3da969df	0.082721464
4	0xbc80a275	-0.015702466
5	0x3cbf2fe4	0.023338266
6	0x3d6216f4	0.05519767
7	0x3d64150b	0.05568413
8	0x3e0c2368	0.13685381

indicator_time_mixing.0.time_mixing.U1.9 f4 [1, 10]
0	0x3dd180d6	0.10229652
1	0x3d5e919e	0.05433809
2	0xbdb95aab	-0.09050497
3	0xbeb1bc58	-0.34714007
4	0xbd34e673	-0.044165086
5	0xbc20219f	-0.009773641
6	0xbbfba096	-0.0076790554
7	0xbb5a68fb	-0.0033326733
8	0xbda9fd19	-0.08300228
9	0x3c9d8045	0.019226203

indicator_time_mixing.0.time_mixing.U1.10 f4 [1, 11]
0	0x3dc30b22	0.09523608
1	0x3d7e9365	0.062152285
2	0xbd9ff1ad	-0.07809768
3	0xbe9327b7	-0.28741238
4	0xbcb91120	-0.022591174
5	0xbbc1f2a3	-0.005918817
6	0xbd00d7fe	-0.031455986
7	0xbc2b0600	-0.010438442
8	0xbd9277b2	-0.07151736
9	0x3c2308d1	0.009950832
10	0xbcd31fbe	-0.025771972

indicator_time_mixing.0.time_mixing.U1.11 f4 [1, 12]
0	0x3de43d72	0.11144532
1	0x3d8fa6b6	0.070142195
2	0xbd5000a0	-0.050781846
3	0xbe9197c5	-0.28436103
4	0xbd377263	-0.044786822
5	0xbbb1d097	-0.005426477
6	0xbc9eec68	-0.019399837
7	0x3d2e76df	0.042593833
8	0x3cd29c94	0.025709428
9	0x3d79639c	0.06088601
10	0x3dcf13f7	0.1011123
11	0xbf3da85c	-0.7408502

indicator_time_mixing.0.time_mixing.U1.12 f4 [1, 13]
0	0xbdf761c6	-0.12079196
1	0xbd96db57	-0.073660545
2	0x3cb9b062	0.022667114
3	0x3e63dcb4	0.2225216
4	0x3da9e417	0.08295458
5	0x3d8c60dd	0.06854413
6	0x3dd2d59c	0.10294649
7	0x3e120c93	0.14262609
8	0x3e42b23f	0.19013308
9	0x3e68abb9	0.22721757
10	0x3e8439aa	0.25825244
11	0x3efbd234	0.4918381
12	0x3ebf69d4	0.37385428

indicator_time_mixing.0.time_mixing.U1.13 f4 [1, 14]
0	0xbdcff73f	-0.1015458
1	0xbdbfc89e	-0.093644366
2	0x3d48fc52	0.049068756
3	0x3e6148db	0.22000448
4	0x3d9c2fe8	0.07626325
5	0x3db4fe61	0.088375814
6	0x3de6af9b	0.11263963
7	0x3e2d0e65	0.16900022
8	0x3e4e17a6	0.20126209
9	0x3e890a41	0.26765636
10	0x3e80632e	0.25075668
11	0x3ef3118e	0.4747433
12	0x3ed1b8c8	0.4096129
13	0x3ed40876	0.41412705

indicator_time_mixing.0.time_mixing.U1.14 f4 [1, 15]
0	0x3e0ee1a6	0.13953266
1	0x3dd35586	0.10319047
2	0x3d0f42af	0.034975704
3	0xbe7e5f36	-0.24841008
4	0x3d7fe4a9	0.062473927
5	0x3d916d26	0.071008965
6	0x3d7e45b6	0.0620782
7	0x3dc901c1	0.09814788
8	0x3d0cbf5d	0.034362186
9	0x3e12f021	0.14349414
10	0x3e20e01f	0.15710495
11	0xbf150234	-0.58206487
12	0xbd4fc864	-0.050728217
13	0x3ded9856	0.116013214
14	0xbebd45a4	-0.36967194

indicator_time_mixing.0.time_mixing.U1.15 f4 [1, 16]
0	0x3e4fec72	0.2030504
1	0x3e4177b6	0.18893322
2	0x3d3830be	0.04496836
3	0xbdf60cae	-0.12014137
4	0x3dd3998a	0.103320196
5	0x3e3e112f	0.18561243
6	0x3e0f1fb0	0.13976932
7	0x3e3b637b	0.18299668
8	0x3e6557df	0.22396801
9	0x3e9d879a	0.30767518
10	0x3e9418a9	0.28925064
11	0xbe3433d9	-0.17597903
12	0x3e2c037c	0.16798204
13	0x3e944c26	0.28964347
14	0xbc2147c2	-0.009843769
15	0xbf8ff842	-1.1247637

indicator_time_mixing.0.time_mixing.U2.1 f4 [1, 2]
0	0xbca41567	-0.020029737
1	0x396650eb	0.00021964654

indicator_time_mixing.0.time_mixing.U2.2 f4 [1, 3]
0	0x3ce96e9c	0.028495125
1	0xbb148601	-0.002266288
2	0xbd4064c7	-0.04697111

indicator_time_mixing.0.time_mixing.U2.3 f4 [1, 4]
0	0xbc8b6611	-0.017016442
1	0xbc02b9d3	-0.007978874
2	0xbc714551	-0.014725999
3	0x3e851366	0.25991362

indicator_time_mixing.0.time_mixing.U2.4 f4 [1, 5]
0	0xbd39b7ef	-0.04534143
1	0xbb982565	-0.0046431297
2	0x3cdb76c1	0.026790025
3	0x3e87b6fb	0.2650679
4	0x3eec2cd4	0.4612795

indicator_time_mixing.0.time_mixing.U2.5 f4 [1, 6]
0	0xbcef71ae	-0.029229011
1	0xbca3393e	-0.019924756
2	0x3d1c0bdc	0.038097247
3	0xbe7be035	-0.24597247
4	0xbeff5c81	-0.49875262
5	0x3deaae4e	0.11459027

indicator_time_mixing.0.time_mixing.U2.6 f4 [1, 7]
0	0xbca6cdff	-0.020361898
1	0x3ad48802	0.001621485
2	0x3cdd2643	0.026995784
3	0xbe77c3d0	-0.2419579
4	0xbef2fcf5	-0.47458616
5	0x3dc1972c	0.09452662
6	0x3e0e6a72	0.13907793

indicator_time_mixing.0.time_mixing.U2.7 f4 [1, 8]
0	0xbcb1ecb9	-0.021719323
1	0xbb83c2ef	-0.0040210406
2	0xbbb00cd3	-0.0053726225
3	0x3e91c38e	0.2846951
4	0x3f05abd5	0.5221532
5	0xbd5b0a6a	-0.05347673
6	0xbd945377	-0.07242482
7	0xbda3daa6	-0.08000688

indicator_time_mixing.0.time_mixing.U2.8 f4 [1, 9]
0	0xbdde8d4c	-0.10866794
1	0xbbb7cf29	-0.005609412
2	0x3d7eb836	0.062187396
3	0xbe000acb	-0.12504117
4	0x3d93dd66	0.07219963
5	0x3e8402df	0.2578344
6	0x3e98b09a	0.29822236
7	0x3e0d05b8	0.13771713
8	0x3c1e5cc3	0.009665671

indicator_time_mixing.0.time_mixing.U2.9 f4 [1, 10]
0	0xbb0b3840	-0.0021243244
1	0xbbd52614	-0.0065047834
2	0xbcb8fba6	-0.022580933
3	0x3e7b60c9	0.2454864
4	0x3ec7e3ce	0.3904099
5	0xbd90b46d	-0.070656635
6	0xbdd55399	-0.104163356
7	0xbdd2c6ad	-0.10291801
8	0xbd8e09fb	-0.069354974
9	0x3e071ac5	0.13193806

indicator_time_mixing.0.time_mixing.U2.10 f4 [1, 11]
0	0xbc454e57	-0.012042603
1	0xbc12c951	-0.00895913
2	0xbc424b3a	-0.011858756
3	0x3e805b0f	0.25069472
4	0x3ed66a1f	0.4187784
5	0xbd5a9c60	-0.053371787
6	0xbdb33037	-0.087494306
7	0xbd943c94	-0.07238117
8	0xbd85754d	-0.06516514
9	0x3e299201	0.16559602
10	0x3e122d0a	0.14274994

indicator_time_mixing.0.time_mixing.U2.11 f4 [1, 12]
0	0xbd7f6421	-0.06235135
1	0xbd0e414b	-0.034730237
2	0x3da2cd65	0.07949332
3	0xbc601239	-0.01367622
4	0x3e5d13d1	0.2158959
5	0x3dfadef1	0.12249554
6	0x3e0d6330	0.13807368
7	0x3d369143	0.044572126
8	0xbb586d3f	-0.00330241
9	0x3da6a442	0.081367984
10	0x3d49bcc3	0.049252283
11	0x3ef2767d	0.47356024

indicator_time_mixing.0.time_mixing.U2.12 f4 [1, 13]
0	0xbc40e9de	-0.011774508
1	0xbc5a907e	-0.013340114
2	0x3c91ca93	0.01779679
3	0xbe2024db	-0.15639059
4	0xbe828182	-0.25489432
5	0x3da046bd	0.07825992
6	0x3e043636	0.12911305
7	0x3d946cf0	0.07247341
8	0x3cd871c9	0.026421444
9	0xbd4fa0cd	-0.05069046
10	0xbc2cc2fe	-0.010544537
11	0xbec48db3	-0.38389358
12	0x3ea673a8	0.32510114

indicator_time_mixing.0.time_mixing.U2.13 f4 [1, 14]
0	0x3bfd4a7c	0.0077298265
1	0xbb869474	-0.0041070525
2	0x3bc263e5	0.0059323185
3	0x3e52c10c	0.20581454
4	0x3ee839f8	0.45356727
5	0xbd8624de	-0.065500006
6	0xbdec6071	-0.11541832
7	0xbd6a8bfe	-0.057262413
8	0xbd865867	-0.0655983
9	0x3e00c07a	0.12573424
10	0x3ddcb00d	0.107757665
11	0x3f0981fe	0.5371398
12	0xbe875916	-0.26435155
13	0xbe6cfd8a	-0.23143592

indicator_time_mixing.0.time_mixing.U2.14 f4 [1, 15]
0	0x3cac9ed8	0.021071836
1	0xbc195735	-0.009359171
2	0xbb8c00ad	-0.0042725415
3	0x3e506a80	0.20353127
4	0x3eeb16e8	0.45915914
5	0xbdc9cd47	-0.09853607
6	0xbe0ec843	-0.13943581
7	0xbd71bbe2	-0.05901707
8	0xbcec337f	-0.028833149
9	0x3e25ca14	0.16190368
10	0x3df6e291	0.12054933
11	0x3ee213d1	0.44155744
12	0xbe7bf9c8	-0.24607003
13	0xbe6b540d	-0.22981282
14	0x3ef9459c	0.4868592

indicator_time_mixing.0.time_mixing.U2.15 f4 [1, 16]
0	0xbcb2c59d	-0.021822745
1	0xbc9011d3	-0.017586624
2	0x3d47a761	0.04874361
3	0xbeabc98e	-0.33552212
4	0xbe859ad9	-0.26094702
5	0x3e543bea	0.2072598
6	0x3e7fa324	0.24964577
7	0x3e1ba2ae	0.15198776
8	0x3d9e7df0	0.077388644
9	0xbd6866d6	-0.056738697
10	0xbd9bdcbe	-0.076104626
11	0xbeb51a61	-0.35371688
12	0x3f012460	0.5044613
13	0x3ee3c1f6	0.44483918
14	0xbe914924	-0.28376114
15	0xbf6249e2	-0.88393986

indicator_time_mixing.0.fc.weight f4 [1, 5]
0	0xbd1426d1	-0.03616983
1	0xbea50c3f	-0.32235906
2	0x3e7e7ed5	0.2485307
3	0x3d601422	0.0547067
4	0x3e72572f	0.2366607

indicator_time_mixing.1.indicator_mixing.W1 f4 [5, 64]
0	0xbec2a9e9	-0.38020256
1	0xbf101e58	-0.562963
2	0xbf2882b2	-0.65824425
3	0xbfce3840	-1.6110916
4	0x3f5d1ebc	0.8637502
5	0xbdc62613	-0.09675231
6	0xbf28ce93	-0.6594021
7	0x3fbfdaba	1.4988625
8	0xbe0f044a	-0.1396648
9	0xbf3718fe	-0.7152251
10	0x3fd2c201	1.6465455
11	0xbf7ff439	-0.9998203
12	0xbf4906e4	-0.7852614
13	0x3f52c618	0.8233352
14	0x3f3032a9	0.688273
15	0x3f863726	1.048558
16	0xbfccab9a	-1.5989869
17	0x3e8c5cb8	0.2741449
18	0x3e4a7577	0.19771372
19	0x3fe5e027	1.7959031
20	0x3dd74ccc	0.10512695
21	0xbfa7fb17	-1.3123502
22	0xbdef6272	-0.11688699
23	0xbe8cda2d	-0.27510205
24	0xbe8f894b	-0.28034434
25	0x3f97bfca	1.1855404
26	0xbf14d0b9	-0.58130985
27	0x3e36387f	0.17794989
28	0xc029875c	-2.6488867
29	0x3f1c73f3	0.61114424
30	0x3e16dc50	0.1473248
31	0xbf0d415e	-0.5517787
32	0xbd94c0fa	-0.0726337
33	0xbfe7cca7	-1.810933
34	0x3f486c31	0.78290087
35	0xbf83cbed	-1.0296608
36	0x3f16ab8f	0.5885553
37	0x3e583540	0.21114063
38	0xbf3d8243	-0.7402689
39	0xbe7e8505	-0.2485543
40	0x3e29213e	0.16516587
41	0xbdd2763d	-0.102764584
42	0x3f6d124e	0.92606056
43	0x3f6ca27c	0.9243543
44	0xbf341447	-0.7034344
45	0xbe3b6c94	-0.18303138
46	0xbef48804	-0.47760022
47	0x3f58631b	0.8452622
48	0xbfca505c	-1.5805774
49	0xbe195d4d	-0.14976998
50	0x3eca3b27	0.39498255
51	0xbf4aee9c	-0.7927034
52	0xbdd34591	-0.10316003
53	0xbf5d1a97	-0.863687
54	0x4030b1b2	2.7608457
55	0xbe0c8030	-0.13720775
56	0xbfb8fe4e	-1.4452608
57	0x3fc2109d	1.516132
58	0xbf286145	-0.6577342
59	0x3f75fc10	0.9608774
60	0xbfea9553	-1.832682
61	0xbd6a60b7	-0.05722114
62	0x4004e489	2.0764487
63	0x3f0e37f8	0.5555415
64	0x3f0585ea	0.5215746
65	0x3f8b440f	1.0880145
66	0xbed1611b	-0.40894398
67	0xbf93ccee	-1.1546915
68	0xbf5a3ca8	-0.85248804
69	0xbf753534	-0.95784307
70	0x3e3a88d4	0.18216258
71	0x3ec487f0	0.38384962
72	0x3e2554d0	0.16145635
73	0x3d86cf37	0.06582492
74	0xbf177293	-0.591592
75	0x3f7ff0e3	0.9997694
76	0x3f7cba5a	0.9872185
77	0x3f040fb1	0.51586443
78	0xbeedd0da	-0.46448404
79	0xbf22ca11	-0.6358958
80	0x3f49c905	0.78822356
81	0x3e31d998	0.17368162
82	0x3f86aafc	1.052093
83	0xbea3b1d6	-0.31971616
84	0xbf6bdb57	-0.9213156
85	0xbfbcc8b8	-1.4748755
86	0x3f8810a7	1.0630082
87	0x3f02cbb0	0.5109205
88	0xbebb5e3b	-0.3659533
89	0x3f7321fb	0.94973725
90	0x3fbdee6a	1.4838383
91	0xbfb3965c	-1.4030261
92	0x3f76a589	0.96346337
93	0x3ed8a3cb	0.42312464
94	0xbdf46647	-0.1193357
95	0xbea49057	-0.32141373
96	0x3d6f5500	0.05843067
97	0x3f3d4b88	0.73943377
98	0xbf73f6ef	-0.95298666
99	0xbf6fb418	-0.93634176
100	0xbe03758b	-0.12837808
101	0xbf7c0882	-0.9845048
102	0xbfa53e76	-1.2909687
103	0x3fca3144	1.5796285
104	0xbda2b764	-0.07945135
105	0x3d699350	0.057025254
106	0x3ff1d067	1.8891724
107	0x3f2ae4e3	0.66755503
108	0xbfa66776	-1.3000324
109	0x3e874c99	0.26425627
110	0xbf23990c	-0.63905406
111	0x400e442c	2.222911
112	0x3f3d07b2	0.7383987
113	0x3facb130	1.3491573
114	0xbf0bf5d6	-0.5467199
115	0xbe68ad54	-0.2272237
116	0x3c99682a	0.018726427
117	0x3fa42fa1	1.2827035
118	0x3f4b362c	0.79379535
119	0x3f406a51	0.75162226
120	0xbf0d14d6	-0.5510992
121	0x3f2c3e96	0.67283
122	0xbfc5fcba	-1.5467751
123	0xbf61eb0a	-0.88249266
124	0x3edabc9f	0.4272203
125	0x3fe01f86	1.750962
126	0x3d42f400	0.047595978
127	0xbf0a4c5d	-0.5402277
128	0xbf21db18	-0.63224936
129	0xbe2b8913	-0.16751508
130	0x3faa2c5f	1.3294791
131	0x3f950a43	1.1643757
132	0xbf3c645e	-0.7359065
133	0x3e055996	0.13022456
134	0xbe4f95b7	-0.20271955
135	0xbf3d6fc3	-0.7399866
136	0xbf766d5f	-0.9626064
137	0x3f610691	0.87900645
138	0xc03bd5a4	-2.9349146
139	0x3fb2c925	1.3967634
140	0xbe8ab95b	-0.2709454
141	0xbfee6db8	-1.8627234
142	0xc042f6ad	-3.046306
143	0xbe6f883c	-0.23391813
144	0x3ebbab7a	0.36654264
145	0x3f0316b4	0.5120652
146	0x3ebab789	0.3646815
147	0xbf2bab58	-0.67058325
148	0xbfc0da93	-1.5066704
149	0x3f29bb24	0.6630118
150	0xbe9750e1	-0.29553893
151	0x3f88ca82	1.06868
152	0xbf857990	-1.0427723
153	0x3e3a7476	0.18208489
154	0x3ff4109b	1.9067568
155	0xc017c976	-2.3716712
156	0x3f53016d	0.8242405
157	0x3f5b7138	0.85719633
158	0x3f391af8	0.72306776
159	0x3e829774	0.25506175
160	0x3f1e6fde	0.61889446
161	0x3ee79652	0.45231873
162	0xbf33fd10	-0.7030802
163	0xbdde5512	-0.108560696
164	0x3edd50aa	0.43225604
165	0xc049f14b	-3.1553524
166	0xbf9f3dea	-1.244077
167	0x3f881490	1.0631275
168	0x3f98bcd9	1.1932632
169	0xbf15f468	-0.5857606
170	0xbd89e796	-0.06733625
171	0xbe8bee9e	-0.27330488
172	0xbe0f91ef	-0.14020513
173	0x3f32c1ce	0.6982697
174	0x400df621	2.2181475
175	0xbfbf8e33	-1.4965271
176	0x3fbd5db6	1.4794223
177	0x3fa59c30	1.293829
178	0x3f5f02ba	0.87113535
179	0xbecadf58	-0.39623523
180	0x3f1f2ce2	0.6217786
181	0xbf643922	-0.8914968
182	0xbd6c221a	-0.05764971
183	0xbf623b66	-0.88371885
184	0xc0106be1	-2.2565844
185	0xbf0284cc	-0.5098388
186	0x3f64ac2b	0.8932521
187	0x3e4313a7	0.19050466
188	0xbeb2554a	-0.34830695
189	0x3f1c3e3a	0.6103245
190	0xbfa80841	-1.3127519
191	0x3fcbdf6d	1.5927559
192	0xbfa971dd	-1.3237873
193	0xbf58b7da	-0.84655535
194	0xbf83c330	-1.0293941
195	0xbf09ffc5	-0.539059
196	0xbfe20d9e	-1.7660406
197	0xbf04a17c	-0.51808906
198	0xbf24917f	-0.6428451
199	0x3f306baf	0.6891431
200	0xbf17d6ef	-0.5931234
201	0x3f0405d6	0.51571405
202	0xbf277593	-0.6541378
203	0xbe4eb125	-0.20184763
204	0xbdb7753c	-0.089579076
205	0x3f6185dd	0.88094884
206	0x3fc637c0	1.5485764
207	0x3e17a47b	0.14808838
208	0xbf686023	-0.90771693
209	0x3f4c952b	0.7991511
210	0xbe104ab9	-0.14091004
211	0x3fca3a51	1.5799047
212	0xbf8f0fc0	-1.1176682
213	0x3ee82203	0.4533845
214	0xbfc2b8ff	-1.5212706
215	0xbf065649	-0.5247541
216	0xbe6abdce	-0.22923967
217	0x3e659188	0.22418797
218	0xbe665664	-0.22493893
219	0x3f9ab3fd	1.2086178
220	0x3e344336	0.17603764
221	0xbf850a11	-1.0393697
222	0x3ebf646f	0.37381312
223	0x3f2c237c	0.67241645
224	0xc02c9b0c	-2.6969633
225	0x3f9de369	1.2335025
226	0xbfb77473	-1.4332412
227	0x3f0b20c5	0.5434688
228	0x3fb7085c	1.4299426
229	0x401d1826	2.454599
230	0xbfd422c1	-1.6573106
231	0xbfa22b51	-1.2669469
232	0xbf10595f	-0.5638637
233	0xbf9e9ff3	-1.2392563
234	0x3f4b370b	0.79380864
235	0x3da018ae	0.07817207
236	0x3f357a78	0.7089
237	0x3ff21af3	1.8914474
238	0xbea89fc2	-0.32934386
239	0xbf130de8	-0.57443094
240	0xbf9796ed	-1.1842934
241	0xbdb98f8e	-0.09060584
242	0x3e548214	0.20752746
243	0xbe2ff765	-0.17184217
244	0xbf6103fb	-0.878967
245	0xbdea4d18	-0.11440486
246	0xbf4920eb	-0.78565854
247	0x3ec3ab2a	0.38216525
248	0x3d3e805f	0.046509143
249	0xbf76dbfe	-0.9642943
250	0xbeb158d9	-0.34638098
251	0x400c2868	2.1899662
252	0xbfd5ef80	-1.6713715
253	0x3ee1275c	0.4397534
254	0xbe7babdd	-0.2457728
255	0xbe801c1d	-0.2502145

indicator_time_mixing.1.indicator_mixing.W2 f4 [64, 5]
0	0x3f47fe89	0.78122765
1	0x3f61d6df	0.8821849
2	0xbfd472c3	-1.6597522
3	0xbf13841a	-0.57623446
4	0x3fb7ac52	1.4349463
5	0x3eceaeff	0.40367886
6	0xbf621d19	-0.8832565
7	0x3dc3cc47	0.09560447
8	0xbf80ec25	-1.0072066
9	0xbece9003	-0.40344247
10	0x3fd381ee	1.6524026
11	0x3f97fc6b	1.1873907
12	0xbe262301	-0.1622429
13	0xbf7a1855	-0.9769338
14	0xbe1268d1	-0.14297797
15	0x3fbf98ff	1.4968566
16	0xbf1e6a72	-0.6188117
17	0x3e29f034	0.16595536
18	0x40070b47	2.1100633
19	0x3f694607	0.9112248
20	0x3e2d1fa5	0.16906603
21	0xc0002a13	-2.002568
22	0x3f57419a	0.84084475
23	0xbffbb888	-1.966569
24	0x3e6f07f0	0.23342872
25	0x3f0c62ea	0.5483843
26	0x3f881529	1.0631458
27	0xc0514eff	-3.2704465
28	0xbfbbbe0c	-1.4667373
29	0xbf43cb43	-0.7648203
30	0xbf577ad8	-0.8417182
31	0x3eb59376	0.35464066
32	0xbfd300ef	-1.648466
33	0x3fa0cd3d	1.2562634
34	0xbf4b946b	-0.7952334
35	0xbf3df404	-0.74200463
36	0xbe5b897f	-0.2143917
37	0xbf665c6c	-0.89984775
38	0xbf015602	-0.5052186
39	0x3faf5fd2	1.3701117
40	0x3e337cb1	0.17528035
41	0xbfc540e2	-1.5410426
42	0x401e30f4	2.4717379
43	0xbd022b49	-0.03177956
44	0x3e530229	0.20606293
45	0xbe7d61f6	-0.247444
46	0x3f78bd1d	0.97163564
47	0x3f193b4d	0.5985611
48	0x3edffc12	0.43747002
49	0xbece286c	-0.40265214
50	0x405a18e5	3.4077694
51	0xbf0be8a6	-0.5465187
52	0xbef8b5f1	-0.4857631
53	0x3f86ff5a	1.0546677
54	0x3fafdd5e	1.3739431
55	0x3febb557	1.8414716
56	0xbf621d2e	-0.88325775
57	0x3f1caf37	0.61204857
58	0x3fa3f011	1.2807637
59	0xbeb20dac	-0.34776056
60	0xbf87bb1a	-1.0603974
61	0x3f1a8646	0.60361135
62	0x3f6bbe98	0.920877
63	0xbfbb0c66	-1.4613159
64	0x3f4eb6e2	0.8074781
65	0xbfe7ffb3	-1.8124908
66	0x3e2ea237	0.17054068
67	0xbf1814c9	-0.59406716
68	0xbfa2410c	-1.2676101
69	0x3ebe03bf	0.37112233
70	0x3fe3ee69	1.7807132
71	0xbfbb853b	-1.4650034
72	0xbb2caed2	-0.0026349318
73	0x3f2dc6ec	0.67881656
74	0x3f9d3d37	1.2284306
75	0x3edfe0a8	0.43726087
76	0x3f266879	0.6500316
77	0xbf8efcb2	-1.1170866
78	0xbeafc772	-0.34331852
79	0x3e39eee6	0.18157539
80	0x3fb3f098	1.4057798
81	0xbeb7e79a	-0.35918885
82	0xbfe2e9fb	-1.7727655
83	0xbeafb29d	-0.3431596
84	0x3f54a11d	0.8305834
85	0x3eba9ba7	0.36446878
86	0xbec80457	-0.3906581
87	0x3e357bfb	0.17723076
88	0xbede77e3	-0.4345084
89	0x3ec7e3b2	0.39040905
90	0xbf7c667a	-0.98593867
91	0xbf1ceb58	-0.61296606
92	0xbfdb6d19	-1.7142669
93	0x3fb9521f	1.4478186
94	0xbe24ad9a	-0.16081849
95	0x3f985ad2	1.1902716
96	0x3eadda0a	0.33955413
97	0xbf270113	-0.65236014
98	0xc03ed4f5	-2.9817479
99	0x3f58039b	0.843805
100	0xbe2d5919	-0.1692852
101	0xbef28fb1	-0.47375253
102	0xbf38a5d5	-0.7212804
103	0x3e920b07	0.28524038
104	0xbf34758c	-0.7049186
105	0xbfca0cc2	-1.5785143
106	0x3f88eb40	1.0696793
107	0x3fd319fc	1.6492305
108	0x3fa7b5cc	1.3102355
109	0x3f8fd79c	1.1237674
110	0xbf8a044c	-1.0782561
111	0xbef58642	-0.47953993
112	0xbdda56e4	-0.10661104
113	0x3ecd42d2	0.40090042
114	0x400b7499	2.1789916
115	0x3f8e3f90	1.1113148
116	0x3f068d6a	0.5255953
117	0x3e805cba	0.25070745
118	0x3f518011	0.8183604
119	0x3f1864fb	0.59529084
120	0x3f18c9ce	0.5968293
121	0x3f62b0ff	0.88551325
122	0x3f34c188	0.70607805
123	0x3bd3a6f2	0.0064591104
124	0xbec7e1e9	-0.39039543
125	0xbe62b046	-0.22137555
126	0x3ef78aa2	0.48347956
127	0xbfac1f43	-1.344704
128	0xbf849421	-1.0357705
129	0x3f07673d	0.52891904
130	0x3f1526ed	0.5826252
131	0x3fbb0c25	1.4613081
132	0xbfa49ea6	-1.2860916
133	0xbdc59da0	-0.09649205
134	0x3e9a2e19	0.30113295
135	0x3f8d13b2	1.1021636
136	0xbf851131	-1.0395871
137	0xbf00b185	-0.50270873
138	0x3fed382d	1.8532768
139	0xbef390c6	-0.4757139
140	0x3e456f32	0.19280699
141	0x3edc902d	0.43078747
142	0x3f00a7d4	0.50256085
143	0x3f8e1188	1.10991
144	0x3fbb8762	1.465069
145	0xbff3a3d3	-1.903437
146	0xbeb9561b	-0.36198506
147	0xbf645766	-0.8919586
148	0x3e7db3b7	0.24775587
149	0xbf971dd1	-1.1805974
150	0xbf2454cd	-0.64191896
151	0xbf88178a	-1.0632184
152	0x3e99e4b8	0.3005731
153	0x3fcbbae1	1.5916406
154	0x3fa56414	1.2921166
155	0x3f873bd7	1.0565137
156	0x3f16c725	0.5889762
157	0xc0135b46	-2.302446
158	0x3f27aa8e	0.6549462
159	0x3e45210f	0.19250892
160	0x3fbd0ad1	1.4768926
161	0x3f1ac393	0.6045467
162	0xbf420e72	-0.7580329
163	0xbfb0b172	-1.3804152
164	0xbe567087	-0.20941363
165	0x3d8a7147	0.06759887
166	0xbf3c1e22	-0.7348348
167	0xbfa6349b	-1.2984804
168	0xbf4f53e1	-0.80987364
169	0xbcdd8e26	-0.02704532
170	0xbeb1caf1	-0.34725145
171	0xbfcdd8f5	-1.6081835
172	0x3f240efa	0.6408535
173	0xbdee7141	-0.11642695
174	0x3f364140	0.71193314
175	0xbf985503	-1.1900944
176	0x402f3c06	2.7380385
177	0x3e05ccbc	0.13066381
178	0xbf906a58	-1.1282454
179	0x3e8ed249	0.2789481
180	0xbc19ec13	-0.009394663
181	0xbf2e576b	-0.6810214
182	0xbf0ed920	-0.55800056
183	0x3e53167b	0.20614044
184	0x3ec613c3	0.38686952
185	0x3e901cb3	0.28146896
186	0x3fff4902	1.9944155
187	0xbe7844a4	-0.24244934
188	0xbf8ad1f1	-1.0845319
189	0x3ed3c28f	0.41359374
190	0xbf50ae5b	-0.81516045
191	0xc0049bdd	-2.0720131
192	0xbeb84b48	-0.35994935
193	0x3eb51369	0.3536637
194	0xbf28a3b8	-0.65874815
195	0xbf900f39	-1.1254646
196	0xbfae407b	-1.3613428
197	0x3f8a96f1	1.0827314
198	0xbfce18b2	-1.6101286
199	0xbd73f8b5	-0.059563357
200	0x3f7a9fd4	0.9790013
201	0x3f5d9143	0.86549777
202	0xbe29019f	-0.16504525
203	0x3eb84206	0.35987872
204	0x3dc159ba	0.09440942
205	0xbf62338f	-0.8835992
206	0xc00896fa	-2.1342149
207	0x3f82c767	1.0217103
208	0x3fd47ce6	1.6600616
209	0xbef3d2ec	-0.47621858
210	0xbff9e3cd	-1.9522644
211	0x3f635ee5	0.8881667
212	0x3ecd5e18	0.4011085
213	0x3f2f86aa	0.68564856
214	0x401d6bdf	2.459709
215	0x3fe42056	1.7822368
216	0xbf4da120	-0.8032398
217	0xc0053407	-2.0813005
218	0xbec64c07	-0.3872988
219	0x3f4f69a0	0.81020546
220	0x3ea168ce	0.31525272
221	0xbf59fea1	-0.8515416
222	0x3e812b3c	0.25228298
223	0xbffeeb67	-1.9915589
224	0xbe46377b	-0.19357102
225	0x3fbe5d0a	1.4872143
226	0xbf988c50	-1.191782
227	0x3ff88b84	1.9417577
228	0x3eb40a80	0.3516426
229	0x3ec2dc22	0.38058573
230	0x3fdcbfc6	1.7246025
231	0xbf33af5a	-0.7018944
232	0x3f56511c	0.83717513
233	0xc0316223	-2.7716148
234	0xbfa16e67	-1.2611817
235	0xbe4db38b	-0.20088021
236	0xbfac630c	-1.3467727
237	0xbef06930	-0.46955252
238	0x3fcd1f43	1.6025165
239	0x4050eed8	3.2645779
240	0x3dd9c6d8	0.106336296
241	0x3f43396d	0.762595
242	0xbe0d1d55	-0.1378072
243	0xbe878964	-0.26472008
244	0xbf28733d	-0.6580084
245	0x3f2b3ad0	0.66886616
246	0xbf89a60e	-1.0753801
247	0x4019e79e	2.4047618
248	0x3efc1333	0.49233398
249	0xbfa4d3e4	-1.2877164
250	0x3f8f3d4b	1.119058
251	0xbf2ece1c	-0.6828325
252	0x3fabdafe	1.3426206
253	0xbfefb398	-1.8726683
254	0xbe959902	-0.29218298
255	0xbf2c9e26	-0.67428815

indicator_time_mixing.1.indicator_mixing.ln.weight f4 [8, 5]
0	0x3f76f947	0.9647412
1	0x3f7da895	0.9908536
2	0x3f6efd5a	0.93355334
3	0x3f7efb28	0.99601984
4	0x3f756609	0.9585882
5	0x3f82aef5	1.0209643
6	0x3f771962	0.96523106
7	0x3f774611	0.9659129
8	0x3f808e18	1.0043364
9	0x3f797ef9	0.9745937
10	0x3f769476	0.96320283
11	0x3f79a096	0.9751066
12	0x3f6f69e7	0.9352097
13	0x3f7dcf2c	0.99144244
14	0x3f740a5f	0.95328325
15	0x3f7854c3	0.97004336
16	0x3f826fe9	1.0190402
17	0x3f8cd65d	1.1002918
18	0x3f8a0684	1.0783238
19	0x3f27629b	0.65384835
20	0x3f753e7e	0.9579848
21	0x3f6e06bd	0.9297903
22	0x3f74dc42	0.95648587
23	0x3f7bda31	0.9837981
24	0x3f7e161f	0.99252504
25	0x3f8486e6	1.0353668
26	0x3f841d44	1.0321431
27	0x3f7dc2de	0.9912547
28	0x3f817239	1.0112983
29	0x3f6c7a87	0.9237446
30	0x3f65593d	0.8958929
31	0x3ef70ad6	0.48250455
32	0x3f6cef88	0.92552996
33	0x3f8481ea	1.0352147
34	0x3f5491d9	0.83035046
35	0x3f82bcbe	1.021385
36	0x3f999034	1.1997132
37	0x3f867f29	1.0507556
38	0x3f6bbb1d	0.9208239
39	0x3f888810	1.0666523

indicator_time_mixing.1.indicator_mixing.ln.bias f4 [8, 5]
0	0x3ce51387	0.027963413
1	0x3cf919bc	0.030407779
2	0x3c858ef6	0.01630352
3	0x3a8633a6	0.0010238781
4	0xbcc3753c	-0.023859613
5	0xbc9bad81	-0.019003632
6	0xbc4e0665	-0.012574767
7	0xbc965ed2	-0.01835576
8	0x3cca4d32	0.024695013
9	0x3b8c25f9	0.0042769876
10	0x3d20c0a6	0.039246224
11	0x3cc9c627	0.02463062
12	0x3cd3cc52	0.025854263
13	0xbc8141a2	-0.015778366
14	0xbd1014c9	-0.035176072
15	0x3ce00163	0.027344411
16	0x3bb1229a	0.005405736
17	0xbd711966	-0.058862112
18	0x3d937147	0.0719934
19	0xbe8799c4	-0.264845
20	0x3d248272	0.040163465
21	0x3d0e7517	0.034779634
22	0x3cf2c3f7	0.029634459
23	0xbc05d624	-0.008168731
24	0xbcdad056	-0.02671067
25	0xbd17e8f3	-0.037087392
26	0xbc6d56bd	-0.014486012
27	0xbbfea86b	-0.007771542
28	0x3c649c45	0.013953273
29	0xbcecbbfe	-0.028898235
30	0x3dd70621	0.10499216
31	0x3e8bffcf	0.27343604
32	0x3d7e7256	0.062120758
33	0x3d193790	0.037406504
34	0xbde566ba	-0.11201234
35	0xbcc2b525	-0.023768017
36	0xbe65c909	-0.2243997
37	0xbc0718f9	-0.0082457
38	0xbda55a3f	-0.08073854
39	0xbb8f7c2c	-0.004378816

indicator_time_mixing.1.time_mixing.ln.weight f4 [8, 5]
0	0x3f220b0d	0.6329811
1	0x3faafff0	1.3359356
2	0x3fae4f36	1.3617923
3	0x3fa2084c	1.2658782
4	0x3f2bd82a	0.67126715
5	0x3ea88589	0.3291438
6	0x3fcb13d6	1.5865428
7	0x3fbca7c4	1.4738698
8	0x3fc1c819	1.513919
9	0x3eed6016	0.4636237
10	0x3ef936c6	0.486746
11	0x3fb5b66f	1.4196299
12	0x3fa54957	1.2913007
13	0x3fb40f21	1.4067117
14	0x3f1e67a1	0.61876875
15	0x3e86b3f3	0.26309165
16	0x3fd12adf	1.6341208
17	0x3fc3a3b4	1.5284333
18	0x3f856c81	1.0423738
19	0x3ed34ec8	0.41271043
20	0x3f165ccf	0.58735365
21	0x3face832	1.350836
22	0x3fa7001b	1.3046907
23	0x3fa49bb0	1.2860012
24	0x3f336837	0.70080894
25	0x3ef12af2	0.47103077
26	0x3fc134e0	1.5094261
27	0x3fb64d9a	1.4242432
28	0x3fb1c132	1.3887084
29	0x3f19e677	0.60117286
30	0x3f2f5149	0.68483406
31	0x3f5d761d	0.8650835
32	0x3f98d004	1.1938481
33	0x3f9f5902	1.2449038
34	0x3f48d25c	0.7844598
35	0x3f4e06b0	0.80478954
36	0x3f9d399b	1.2283205
37	0x3fa999cc	1.325006
38	0x3f9871ba	1.1909707
39	0x3f631a85	0.8871234

indicator_time_mixing.1.time_mixing.ln.bias f4 [8, 5]
0	0x3e88f946	0.2675268
1	0x3e802d75	0.2503468
2	0x3e83ced6	0.2574374
3	0xbe80712b	-0.2508634
4	0xbe82a410	-0.25515795
5	0x3f0197ae	0.5062207
6	0x3efaa269	0.48952034
7	0x3efb65e4	0.49101174
8	0xbef305da	-0.47465402
9	0xbefde638	-0.49589705
10	0x3ed2a816	0.41143864
11	0x3ec8b296	0.3919875
12	0x3eca0b35	0.39461675
13	0xbec61e50	-0.38695002
14	0xbecb3023	-0.39685163
15	0x3f0446aa	0.51670325
16	0x3f0b33be	0.5437583
17	0x3f04807d	0.5175856
18	0xbce22824	-0.027607031
19	0xbf08f26c	-0.53494906
20	0x3e916555	0.28397623
21	0x3e8f86d9	0.28032568
22	0x3e8c7a51	0.2743707
23	0xbe8d4d70	-0.27598143
24	0xbe8faf98	-0.28063655
25	0x3ed34c57	0.4126918
26	0x3ed37c0d	0.4130558
27	0x3ecd8485	0.40140167
28	0xbecfd53d	-0.40592375
29	0xbed1248a	-0.4084819
30	0x3e9da440	0.30789375
31	0xbdb7e491	-0.089791425
32	0x3e102a9c	0.14078754
33	0xbe957918	-0.2919395
34	0xbe61319f	-0.21991585
35	0x3db6b9a8	0.0892213
36	0x3dca96fb	0.098920785
37	0x3db3d731	0.08781279
38	0xbdf931e0	-0.12167716
39	0xbddef88b	-0.108872496

indicator_time_mixing.1.time_mixing.U1.1 f4 [1, 2]
0	0xbe3cfa0e	-0.18454763
1	0xbe7ae079	-0.24499692

indicator_time_mixing.1.time_mixing.U1.2 f4 [1, 3]
0	0xbeb6fe5e	-0.35740942
1	0xbedf45e9	-0.43608025
2	0xbec3b1af	-0.382215

indicator_time_mixing.1.time_mixing.U1.3 f4 [1, 4]
0	0x3db76a8b	0.08955868
1	0x3eac3eac	0.33641565
2	0x3e5dedf4	0.21672803
3	0x3eca3c82	0.3949929

indicator_time_mixing.1.time_mixing.U1.4 f4 [1, 5]
0	0xbd28621c	-0.04110919
1	0xbd0fa91d	-0.03507339
2	0xbd0c1679	-0.03420112
3	0x3c9705fc	0.01843547
4	0xbc9cf1b0	-0.019158214

indicator_time_mixing.1.time_mixing.U1.5 f4 [1, 6]
0	0x3e92836b	0.2861589
1	0x3e9f8da1	0.31162742
2	0x3e8f4582	0.27982718
3	0x3eb52448	0.35379243
4	0x3e888900	0.26667023
5	0x3eb20e6e	0.34776634

indicator_time_mixing.1.time_mixing.U1.6 f4 [1, 7]
0	0xbe898ec7	-0.26866743
1	0xbea8b590	-0.3295102
2	0xbe9aed85	-0.30259338
3	0xbe957f7e	-0.2919883
4	0xbe8b82c3	-0.272482
5	0xbe955099	-0.29163054
6	0xbe60f41a	-0.21968117

indicator_time_mixing.1.time_mixing.U1.7 f4 [1, 8]
0	0x3d53add2	0.05167944
1	0x3db59cb4	0.088677794
2	0x3dd23c1e	0.10265373
3	0x3d98ad71	0.07454956
4	0x3d8cd174	0.068758875
5	0x3e022295	0.12708504
6	0x3e38857b	0.18019669
7	0x3eed00c5	0.4628965

indicator_time_mixing.1.time_mixing.U2.1 f4 [1, 2]
0	0xba9f4f15	-0.0012154306
1	0x3d7afcea	0.061276354

indicator_time_mixing.1.time_mixing.U2.2 f4 [1, 3]
0	0x3d11192a	0.03542439
1	0xbd0be7e7	-0.034156706
2	0xbd839808	-0.06425482

indicator_time_mixing.1.time_mixing.U2.3 f4 [1, 4]
0	0x3e361b77	0.17783915
1	0xbe978bca	-0.29598838
2	0xbee3b605	-0.44474807
3	0x3eb949f9	0.3618925

indicator_time_mixing.1.time_mixing.U2.4 f4 [1, 5]
0	0xbd70dc2f	-0.058803733
1	0xbc839bcd	-0.016065503
2	0xbcffa335	-0.031205753
3	0x3cad4567	0.021151258
4	0xbcf37a6f	-0.029721467

indicator_time_mixing.1.time_mixing.U2.5 f4 [1, 6]
0	0x3dc54c54	0.09633699
1	0xbdb2ed9c	-0.08736727
2	0xbdd2bf6f	-0.10290419
3	0x3de6793e	0.11253594
4	0x3dd8d873	0.105881594
5	0x3e2a975a	0.16659299

indicator_time_mixing.1.time_mixing.U2.6 f4 [1, 7]
0	0xbd100024	-0.035156384
1	0xbda3b2b7	-0.079930715
2	0xbdf1af64	-0.11801031
3	0x3e10bd5d	0.14134736
4	0x3e84999c	0.25898445
5	0x3e2cd86d	0.16879435
6	0xbca85f49	-0.020553248

indicator_time_mixing.1.time_mixing.U2.7 f4 [1, 8]
0	0x3d8fc99e	0.07020877
1	0xbdf66d82	-0.12032606
2	0xbde5b5f2	-0.11216344
3	0x3df0c709	0.11756713
4	0x3d81ba63	0.063343786
5	0x3de2451c	0.11048338
6	0xbde5bdd4	-0.112178475
7	0x3dd9e839	0.10639996

indicator_time_mixing.1.fc.weight f4 [1, 5]
0	0x3e50bfac	0.20385617
1	0x3ed1890e	0.40924877
2	0x3ec3be22	0.38230997
3	0xbea015c4	-0.31266606
4	0xbe10705a	-0.14105359
