weights/stockmixer_L16_H64_M20_K1_E100_s1.pt (torch, 318478 bytes, 44 tensors)

indicator_time_mixing.0.indicator_mixing.W1 f4 [5, 64]
0	0xbfc0f053	-1.5073341
1	0xbf4315ea	-0.76205313
2	0xbf2a7ec5	-0.66599685
3	0xbfd23cb0	-1.642477
4	0xbdcb2757	-0.09919613
5	0xbf1ca8ce	-0.61195076
6	0xbf6f0c2e	-0.9337796
7	0xbfcde07c	-1.6084132
8	0xbf2e0a1a	-0.67984164
9	0x3e91b94a	0.28461677
10	0xbf39a316	-0.72514474
11	0xbe825bbd	-0.25460616
12	0xbe7522ea	-0.239391
13	0x3fd8395d	1.6892506
14	0x3e5c96f4	0.21541959
15	0x3efdb515	0.49552217
16	0xbf33815e	-0.70119274
17	0xbf98e524	-1.1944928
18	0x3f2c528e	0.6731347
19	0x3e2308a9	0.15921272
20	0x3f5fc0e1	0.87403685
21	0x3e68c7fd	0.2273254
22	0xbf2523cb	-0.6450774
23	0x3f4adadf	0.7924022
24	0x3f8d918b	1.1060041
25	0xbe41da9a	-0.18931046
26	0xc0108823	-2.2583091
27	0xbfb29ad3	-1.3953499
28	0x3d55d57f	0.05220556
29	0xbf1c1f62	-0.60985386
30	0xbf53c482	-0.8272172
31	0xbdf7b948	-0.120958865
32	0x3fed71d9	1.8550369
33	0xbd81d9b2	-0.0634035
34	0x3e630374	0.22169286
35	0xbf3e39fb	-0.7430722
36	0x3e3aa870	0.18228316
37	0x3d6aa670	0.057287633
38	0x3e197611	0.14986445
39	0xbee97b63	-0.4560195
40	0xbd3d61db	-0.0462359
41	0x3e90963b	0.28239617
42	0xbe0e19e9	-0.13877071
43	0xbc8e5f9d	-0.017379576
44	0x4015b05e	2.3388896
45	0xbf8b6cb2	-1.0892546
46	0x3fc4c4d1	1.5372564
47	0xbf22bfff	-0.6357421
48	0xbf7c4fd6	-0.9855932
49	0x3f10bb6d	0.5653599
50	0x3d077f8a	0.033080615
51	0xbee07809	-0.4384158
52	0x3f4862bb	0.7827565
53	0x3efafb5e	0.49019903
54	0x3f8fb10a	1.1225903
55	0x3fff5492	1.9947684
56	0x3dceb485	0.10093025
57	0x3f6ccf5f	0.92503923
58	0xbe26cfd9	-0.16290225
59	0xbf2a4639	-0.665134
60	0x3fc6b415	1.5523707
61	0xbf5aa867	-0.8541321
62	0xc053a1b0	-3.3067436
63	0xbf377760	-0.71666527
64	0xbd09feca	-0.03369025
65	0xbf802916	-1.0012538
66	0xbf142d26	-0.5788139
67	0xbf89e787	-1.0773782
68	0xbe54e586	-0.20790681
69	0xbc631d3b	-0.01386195
70	0x3fe4c279	1.7871848
71	0xbce09241	-0.02741349
72	0xbf32b25e	-0.69803417
73	0xbe19a8d6	-0.15005812
74	0xbf6e46ce	-0.9307679
75	0xbf6252f4	-0.88407826
76	0xbef0d792	-0.47039467
77	0xbf188924	-0.5958426
78	0x3ea8c1ab	0.32960257
79	0xbf786cf3	-0.97041243
80	0xbf01cc7e	-0.50702655
81	0x3dbc5ea7	0.09197741
82	0xbf38fc98	-0.7226043
83	0x3f37163d	0.7151831
84	0xbfb25d27	-1.3934678
85	0xbef13757	-0.47112533
86	0x3e0a0303	0.13477711
87	0xbe01657b	-0.12636368
88	0x3e509a82	0.2037144
89	0xbf365f3d	-0.7123907
90	0xbf836a6a	-1.026685
91	0x3f3da08b	0.74073094
92	0xbf80a7a0	-1.0051155
93	0xbf0328a8	-0.5123391
94	0x3e9221f9	0.28541544
95	0x3ff9ed7e	1.9525602
96	0x3f291e7c	0.6606214
97	0x3f95a99d	1.1692387
98	0x3f5f573c	0.87242484
99	0xbf5b3546	-0.85628164
100	0x3fadf0c6	1.3589103
101	0xbf5347f2	-0.82531655
102	0xbf7b7547	-0.98225826
103	0x3f90c7f9	1.1311027
104	0x3fb48dd4	1.4105783
105	0x3f0d26e7	0.55137485
106	0xbe1ccc67	-0.15312348
107	0xbe1eff42	-0.1552706
108	0xc00540c2	-2.0820775
109	0xbf31938b	-0.6936576
110	0xbfc3d700	-1.5299988
111	0xbf8c807e	-1.0976713
112	0x3f6d3e92	0.926736
113	0xbf422d1e	-0.75850093
114	0x3fa23426	1.2672164
115	0x3f5c0b46	0.859547
116	0x3e7489e3	0.23880725
117	0x3e9248cc	0.28571165
118	0x3f058463	0.5215513
119	0xbed748c0	-0.4204769
120	0x402638ff	2.5972288
121	0xbe559d30	-0.20860744
122	0x3ccc1042	0.024910096
123	0x3fedb68c	1.8571334
124	0xbffcd0c1	-1.9751207
125	0x3fe1e8be	1.7649152
126	0x3deb8c03	0.115013145
127	0x3ea7ce5d	0.3277463
128	0x3f348991	0.7052241
129	0xbfe6b853	-1.8025001
130	0x3e9f1c77	0.31076404
131	0x3f9a38fc	1.204864
132	0xbeb2e390	-0.3493924
133	0xbfdf85ae	-1.7462671
134	0x3f07c031	0.53027636
135	0xbf4d8f73	-0.8029701
136	0xbfcc0f1a	-1.5942109
137	0xbff30924	-1.8987164
138	0x3f0a939c	0.54131484
139	0x3f2d07fa	0.67590296
140	0x40145cea	2.318171
141	0x3f31d1d7	0.69460815
142	0x3fd77083	1.6831211
143	0xbfe45492	-1.7838309
144	0xbfb2f9bd	-1.3982464
145	0xbf7e5eb1	-0.9936324
146	0x3fc23b3e	1.5174329
147	0x3f215c9e	0.6303195
148	0x3ee74b7f	0.45174786
149	0xbee7b2f7	-0.45253727
150	0x3f164184	0.5869372
151	0xbfc92c5a	-1.571666
152	0x3f059fee	0.5219716
153	0x3d639f67	0.05557194
154	0x3e68bf7c	0.22729295
155	0x3fb5eb28	1.4212389
156	0x3fdd9c7f	1.7313384
157	0x3febcd89	1.8422099
158	0xbf3ac031	-0.7294951
159	0x40238ce5	2.5554745
160	0x3ed0bc39	0.40768602
161	0xbe6b4fcf	-0.22979663
162	0xbf540b1a	-0.8282944
163	0xbee1da25	-0.44111744
164	0xbf1f8170	-0.6230688
165	0xbf71e4b7	-0.94489616
166	0x3f65bf20	0.8974476
167	0x3f789f9e	0.97118556
168	0x3ea47f8a	0.32128555
169	0x3fbf0c77	1.4925679
170	0x3f9f6375	1.2452227
171	0xbfe64a93	-1.7991508
172	0xbeda7e66	-0.4267456
173	0xbf6e3006	-0.9304203
174	0x3a387465	0.0007036387
175	0xbe0a864a	-0.1352779
176	0x3f42eef5	0.7614587
177	0x3f9b33b3	1.2125152
178	0x3f059110	0.5217447
179	0x3fd195e6	1.637387
180	0xbf762a0b	-0.961579
181	0x3e5ab5aa	0.21358362
182	0xbe38d9bc	-0.18051809
183	0xbec54b78	-0.3853414
184	0x3fdd2a6a	1.7278569
185	0xbeb79aeb	-0.3586038
186	0x3e54c169	0.20776905
187	0x3fae354d	1.3610016
188	0x3e1b307a	0.15155211
189	0x3f93f2b4	1.1558442
190	0xbea76f88	-0.3270228
191	0x3f72e874	0.94885945
192	0xbf0d65a4	-0.55233216
193	0x3f537fe3	0.82617015
194	0x3fe62316	1.7979457
195	0xbe38260d	-0.17983265
196	0x3f08c210	0.53421116
197	0xbff02c0b	-1.8763441
198	0xc03be991	-2.9361308
199	0xbf0e1cf4	-0.5551293
200	0xbf0f707e	-0.56031024
201	0x3f5b4b77	0.85662025
202	0xbf6423fb	-0.891174
203	0x3f11b050	0.56909657
204	0xbfc369f9	-1.5266715
205	0xbe1e7f1b	-0.15478174
206	0x3f43d813	0.7650158
207	0x3d328a76	0.043589078
208	0x3f6c0d28	0.92207575
209	0x3f86fa8e	1.0545213
210	0xbf011ee5	-0.50437766
211	0x3fad173f	1.3522719
212	0x3e5ce3f3	0.2157133
213	0x3fed7795	1.8552119
214	0x3fef3d21	1.869053
215	0x3fa43c10	1.283083
216	0xbf716373	-0.9429237
217	0x3fbda4bf	1.4815902
218	0x3f9de5e1	1.2335778
219	0xbf136489	-0.5757528
220	0x3e5627d3	0.20913629
221	0xbf0db1e1	-0.55349547
222	0x3fbdbfba	1.4824135
223	0x3fe3ccd0	1.7796879
224	0x3fcfe108	1.6240549
225	0xbed41fda	-0.4143055
226	0xbe991387	-0.2989771
227	0xbfb8b780	-1.4431
228	0x3f9fc688	1.2482462
229	0x3fa2c3c9	1.2715999
230	0x3ed78694	0.42094862
231	0x3ecc34d2	0.3988405
232	0xbda1ffcd	-0.07910118
233	0x3ec09542	0.37613875
234	0x3f7b1160	0.9807339
235	0xbfb39296	-1.402911
236	0x3fd9953b	1.6998667
237	0xc0182023	-2.3769615
238	0xbf688b2c	-0.9083736
239	0x3e90d32a	0.28286105
240	0x3e3a9a9e	0.18223044
241	0x3f8c92a1	1.0982248
242	0x3fbb11c3	1.4614795
243	0xbf152191	-0.58254343
244	0xbf419a1d	-0.75625783
245	0xbe354e05	-0.17705543
246	0xbe79c320	-0.2439084
247	0xbceb2534	-0.028704263
248	0x3eb5b3d7	0.3548877
249	0xbf18d98e	-0.5970696
250	0xbf09efdf	-0.5388164
251	0x3f7e9081	0.99439245
252	0xbe069b00	-0.13145065
253	0xbf93baac	-1.1541343
254	0xbde3d5b5	-0.11124746
255	0x3f14edaf	0.58175176

indicator_time_mixing.0.indicator_mixing.W2 f4 [64, 5]
0	0x3f29012e	0.66017425
1	0xbf5c7b9a	-0.861261
2	0xbe327cd6	-0.17430434
3	0xbea70c24	-0.3262645
4	0x3fb272d4	1.3941293
5	0x3efbd873	0.49188575
6	0xbf2fcc97	-0.68671554
7	0xbf7b3a66	-0.98135984
8	0x3f49ff59	0.78905255
9	0x3f2f3d9c	0.68453383
10	0xbf7d0ebd	-0.98850614
11	0xbf4466f2	-0.7671958
12	0xbf822f29	-1.0170642
13	0x3f49457b	0.78621644
14	0xbd4b2eac	-0.049605057
15	0x3f96d15c	1.1782641
16	0xbf059556	-0.52180994
17	0xbf6348b3	-0.88782805
18	0xbef80cd4	-0.48447287
19	0xbd995248	-0.07486397
20	0x3f3de368	0.7417512
21	0x3e336419	0.17518653
22	0xbd79b4e0	-0.06096351
23	0xc014a47d	-2.3225396
24	0x3eae59be	0.34052843
25	0x3ee81622	0.45329386
26	0x3fa2731c	1.2691379
27	0x3fab872b	1.3400625
28	0x3e3d723a	0.18500605
29	0x3f0ec59c	0.5577028
30	0xbea0b279	-0.31386164
31	0xbfe9dc87	-1.8270425
32	0xbe116b7f	-0.14201163
33	0x3f75f45a	0.96075976
34	0x3f09d1e1	0.53835875
35	0xbfe17d07	-1.761628
36	0xbf42586c	-0.7591617
37	0xbfc41c2d	-1.5321099
38	0x3fd0b935	1.6306521
39	0xbd574491	-0.052555624
40	0x3f587850	0.8455858
41	0x3d45e47a	0.048313595
42	0xbfdc6745	-1.7219015
43	0x3f5e2801	0.8677979
44	0xc02d8278	-2.7110882
45	0xbe7360b6	-0.23767361
46	0x3ea8eb90	0.3299222
47	0x3f8863fb	1.0655512
48	0xbf1620e6	-0.5864395
49	0x3f793ec2	0.97361386
50	0x3d7855fc	0.060628876
51	0xbfa8792c	-1.3161979
52	0xbfa9655a	-1.3234055
53	0x3f5fa2d5	0.87357837
54	0x3f8e9288	1.1138468
55	0xbf65097e	-0.8946761
56	0x3fae5abb	1.3621439
57	0xbf19c212	-0.6006175
58	0xbe0c2be4	-0.13688618
59	0xbf1f3e9f	-0.6220493
60	0x3f296d17	0.6618208
61	0x3eca0f75	0.39464918
62	0xbf86a3b4	-1.0518708
63	0x3f763a19	0.961824
64	0xbf099165	-0.5373748
65	0xbdf85927	-0.121263795
66	0x3fc5a183	1.5439914
67	0xbfc8c19b	-1.5684084
68	0x3f56ceee	0.839095
69	0xbf32f7e4	-0.699095
70	0x3fa561e8	1.2920504
71	0x3f096164	0.5366423
72	0xbecd9e81	-0.4015999
73	0x3ff0ab16	1.8802211
74	0xbd8c73cf	-0.06858026
75	0xbdc5e334	-0.09662476
76	0xbf1ec998	-0.6202636
77	0xbf26d266	-0.6516479
78	0xbeda1c42	-0.42599684
79	0xc0019021	-2.024422
80	0x3ecc659f	0.3992128
81	0xbfc6835d	-1.5508839
82	0xbf822627	-1.0167893
83	0xbd1f58a2	-0.038902886
84	0xbe8e889b	-0.27838597
85	0x3e16def1	0.14733483
86	0xbe9aba6f	-0.30220363
87	0xbdf4a584	-0.11945632
88	0xbf21eea9	-0.6325479
89	0x3f99d45f	1.2017936
90	0x3f2a3199	0.6648193
91	0xbecaf945	-0.39643303
92	0xbf9a78f1	-1.2068158
93	0x3eaa81b1	0.33302072
94	0xbf3c12df	-0.73466295
95	0xbf061432	-0.52374566
96	0xbedd78b7	-0.4325616
97	0x3e657817	0.22409092
98	0xbeaae898	-0.3338058
99	0x3f29bc64	0.66303086
100	0xbeaee7ee	-0.34161323
101	0xc017c872	-2.3716092
102	0xbfc25366	-1.5181701
103	0xbccdf55f	-0.025141416
104	0xbe049800	-0.12948608
105	0xc012906b	-2.2900646
106	0x3f171d01	0.5902863
107	0x3e62ad5d	0.22136445
108	0xbe362149	-0.17786135
109	0x3f2b1a42	0.6683694
110	0x3ef63663	0.4808837
111	0x4014a86b	2.3227794
112	0x3f1e5c43	0.6185953
113	0x3fbef689	1.4918987
114	0x3fb90bb2	1.4456694
115	0x3db9b3e2	0.09067513
116	0xbfcee455	-1.6163431
117	0xbe279663	-0.16365962
118	0x3e6f1925	0.23349436
119	0x3f2080da	0.6269661
120	0x3f488d78	0.78340864
121	0xbe06f94e	-0.1318104
122	0xbe10a864	-0.14126736
123	0xbecac319	-0.39601973
124	0xbecfa987	-0.40559027
125	0xbf9f3056	-1.2436626
126	0x3ff83d0b	1.9393629
127	0xc000ea7d	-2.014312
128	0x3c532347	0.012886829
129	0x3e77eb37	0.24210821
130	0x3ea77474	0.32706034
131	0x3ea16b44	0.3152715
132	0xbf2f5c5e	-0.68500316
133	0x3f84859f	1.0353278
134	0x3fe83298	1.814044
135	0xbf8cb612	-1.0993063
136	0x3f411162	0.7541715
137	0x3e981b6c	0.2970842
138	0xbfbba13f	-1.4658583
139	0x3fdb1ada	1.711757
140	0xc04d3ec9	-3.206957
141	0x3f0ae329	0.5425287
142	0xc017cd81	-2.371918
143	0xbfb7b94f	-1.4353427
144	0x3f80dfee	1.0068338
145	0x3fbe84c2	1.4884264
146	0x3f0fbf91	0.5615168
147	0x3ef962f6	0.48708314
148	0x3f9d3561	1.2281915
149	0xbec889ae	-0.3916754
150	0xbecb009c	-0.39648902
151	0x3f0a021e	0.5390948
152	0xbe169552	-0.14705399
153	0xbf3ebb4e	-0.74504554
154	0xbe659a32	-0.22422102
155	0xbf076c14	-0.5289929
156	0x3e2bd2ca	0.16779628
157	0xbf2c2bef	-0.6725454
158	0xbf5ff58f	-0.8748407
159	0x3f186d13	0.59541434
160	0xbeb5a347	-0.35476133
161	0x3b86e162	0.004116223
162	0xbf33a0c4	-0.70167184
163	0xbf1f3a8c	-0.6219871
164	0x3f30f347	0.6912121
165	0x3f377a20	0.7167072
166	0xbec60d31	-0.3868194
167	0xbf2e6e63	-0.68137187
168	0xbfbba975	-1.4661089
169	0xbf4201ad	-0.7578381
170	0xbf98fd6e	-1.1952341
171	0x3fa9327e	1.3218534
172	0xc007051c	-2.1096869
173	0x3e8fed08	0.28110528
174	0xbe49735c	-0.19672912
175	0xc01dd2ae	-2.4659839
176	0xbfc0725c	-1.50349
177	0xbdf10298	-0.11768073
178	0xbd84c140	-0.06482172
179	0x3fadda2e	1.3582208
180	0x3e327e7a	0.1743106
181	0xbe9c7072	-0.3055454
182	0x3dee70d3	0.11642613
183	0xbf0470f1	-0.51734835
184	0x3f89632e	1.0733392
185	0x3f378cbf	0.71699136
186	0x3f128c1c	0.5724504
187	0x3ee87504	0.45401776
188	0xbee2897c	-0.44245517
189	0x3e9322bb	0.28737435
190	0x3eb0cac2	0.34529692
191	0xbf017d65	-0.5058196
192	0x3e803003	0.2503663
193	0x3fb27b35	1.394385
194	0xbe947c2f	-0.29000995
195	0xbd41c85d	-0.047310222
196	0xbe001e07	-0.12511455
197	0x3e84f962	0.25971514
198	0xbe3feaa4	-0.18741852
199	0xbfa32fed	-1.2749001
200	0x3d450cef	0.048108038
201	0x3fb93100	1.4468079
202	0xbff23eea	-1.892545
203	0x3e12f879	0.14352597
204	0x3ed81249	0.4220145
205	0x3eb04d36	0.34433907
206	0xbf290f05	-0.66038543
207	0xbecfebbf	-0.40609547
208	0x3ec3dfb7	0.38256618
209	0xbf2fbf4b	-0.68651265
210	0x3f3971a2	0.72439015
211	0x3fac3045	1.3452231
212	0x3d9feb29	0.07808525
213	0x3f976947	1.1829003
214	0xbd55e952	-0.052224465
215	0xbe7f7676	-0.24947533
216	0xbf4ad1c2	-0.79226315
217	0x3d88f224	0.0668681
218	0x3f96270c	1.1730666
219	0xbf14d8a5	-0.58143073
220	0xbfc63d0b	-1.5487379
221	0x3f6e4115	0.9306806
222	0x3f467b23	0.7753164
223	0x3eea45ab	0.45756277
224	0x3ea479aa	0.32124072
225	0x3fa3ba3d	1.279121
226	0x3e178307	0.14796077
227	0xc0308715	-2.7582448
228	0x3f41cde5	0.75704795
229	0xbef5ea7f	-0.4803047
230	0x3edd48d9	0.4321964
231	0x3ebe95e3	0.3722373
232	0xbf484f66	-0.7824615
233	0x3f90e348	1.1319361
234	0x3f06c822	0.5264913
235	0xbf6a769e	-0.91587245
236	0xbeec6989	-0.46174267
237	0x3fb4573b	1.4089121
238	0x3f96af62	1.1772273
239	0x3f3345fa	0.7002865
240	0xbf180d31	-0.5939513
241	0xbf57f28b	-0.84354466
242	0x3ee806fb	0.45317826
243	0xbf1372e4	-0.57597184
244	0x3f95119a	1.1645997
245	0x3f5b0f2c	0.85570025
246	0xbea4ef92	-0.32214028
247	0xbf3ec15e	-0.74513805
248	0xbee76669	-0.4519532
249	0xbbe5e54f	-0.007015861
250	0xbf43cc65	-0.76483756
251	0x3eac16b1	0.33611062
252	0x3f43a821	0.7642842
253	0x3f613d33	0.8798401
254	0x3ef2e230	0.47438192
255	0x3ef45885	0.47723785

indicator_time_mixing.0.indicator_mixing.ln.weight f4 [16, 5]
0	0x3f80b342	1.0054705
1	0x3f79952d	0.9749325
2	0x3f84ef9e	1.0385625
3	0x3f8087d2	1.0041449
4	0x3f818f7b	1.0121912
5	0x3f7db586	0.9910511
6	0x3f80fe6a	1.0077641
7	0x3f792d69	0.97334915
8	0x3f7e90de	0.994398
9	0x3f8167db	1.0109819
10	0x3f7e06ad	0.99228936
11	0x3f6d0e8c	0.9260032
12	0x3f86a904	1.052033
13	0x3f7d63e9	0.98980576
14	0x3f8924cc	1.0714355
15	0x3f7f8e99	0.9982696
16	0x3f7aba83	0.97940844
17	0x3f8c0bf4	1.0941148
18	0x3f7fd030	0.99927044
19	0x3f818d6b	1.0121282
20	0x3f7d2c18	0.98895407
21	0x3f822e4a	1.0170376
22	0x3f82088a	1.0158856
23	0x3f7921d3	0.97317237
24	0x3f83f72f	1.030981
25	0x3f7ee921	0.99574476
26	0x3f814780	1.0099945
27	0x3f78dfd7	0.9721655
28	0x3f7f7e75	0.99802333
29	0x3f7b8f84	0.9826586
30	0x3f7fa34e	0.9985856
31	0x3f7b168e	0.9808129
32	0x3f82559f	1.018238
33	0x3f8016ad	1.000692
34	0x3f8099c2	1.0046923
35	0x3f807aac	1.0037436
36	0x3f80345e	1.0015981
37	0x3f784175	0.9697488
38	0x3f806761	1.0031549
39	0x3f800208	1.000062
40	0x3f7e7962	0.99403965
41	0x3f7ea8bb	0.9947621
42	0x3f83d2fa	1.029876
43	0x3f8066cb	1.003137
44	0x3f8154be	1.0103986
45	0x3f7fbe89	0.9990011
46	0x3f79f24b	0.97635335
47	0x3f8263b5	1.0186678
48	0x3f807a38	1.0037298
49	0x3f8160bf	1.010765
50	0x3f7e31e9	0.99294907
51	0x3f829d98	1.0204344
52	0x3f79c419	0.97564846
53	0x3f7fe904	0.9996493
54	0x3f80de80	1.0067902
55	0x3f7e1d5d	0.99263555
56	0x3f7e3217	0.9929518
57	0x3f747bc7	0.9550137
58	0x3f8039e8	1.0017672
59	0x3f8071a8	1.0034685
60	0x3f7e53c2	0.99346554
61	0x3f77fa5c	0.96866393
62	0x3f79ab09	0.97526604
63	0x3f7e5daa	0.9936167
64	0x3f80c417	1.0059842
65	0x3f7ec566	0.99519956
66	0x3f7d731c	0.9900377
67	0x3f83f491	1.0309011
68	0x3f8092c3	1.0044788
69	0x3f8244b5	1.0177218
70	0x3f7e14a7	0.9925026
71	0x3f7e1d73	0.99263686
72	0x3f81c7ce	1.01391
73	0x3f802b8c	1.001329
74	0x3f8147a0	1.0099983
75	0x3f7cb1b2	0.9870864
76	0x3f6fc7d1	0.9366427
77	0x3f8476d6	1.0348766
78	0x3f801f8a	1.0009625
79	0x3f87668e	1.0578172

indicator_time_mixing.0.indicator_mixing.ln.bias f4 [16, 5]
0	0x3be9e810	0.0071382597
1	0x3c8fbefd	0.017547125
2	0x3cb79121	0.02240807
3	0xbb064c32	-0.0020492193
4	0x3c0c91f4	0.00857972
5	0xbbe05671	-0.006846242
6	0xbc285d24	-0.010276113
7	0x3c47336f	0.012158259
8	0xb85fe2f2	-5.3378702e-05
9	0xbb001c25	-0.0019548025
10	0xbbe31a82	-0.00693065
11	0x3d2a4894	0.041573122
12	0x3e2e2b5b	0.17008726
13	0xbc92fcc2	-0.01794279
14	0x3c7a2029	0.015266457
15	0x3bc92490	0.006138392
16	0x3c2714e5	0.010197853
17	0x3d665189	0.0562301
18	0xbc00eedd	-0.007869449
19	0x3bd60b04	0.006532075
20	0xbc2c52c7	-0.0105177825
21	0xbca78884	-0.020450838
22	0x3ddf4335	0.109014906
23	0xbcf23eb4	-0.029570915
24	0xba862a26	-0.001023595
25	0xbc17d072	-0.009266006
26	0xbc2870aa	-0.010280767
27	0xbd04e859	-0.032448146
28	0x3b3f3204	0.0029174099
29	0xbc21c6cb	-0.009874056
30	0x3ba6da19	0.0050919172
31	0x3c584476	0.013199916
32	0x3c94d187	0.018166317
33	0xbaec7d67	-0.0018042744
34	0x3b654f2c	0.0034989817
35	0xbba607a6	-0.0050668297
36	0xbb700cb2	-0.003662866
37	0xbc44e0a5	-0.01201645
38	0x3bab3c47	0.0052256915
39	0xbaa1a60d	-0.0012332812
40	0x3c2eee75	0.01067697
41	0x3b9735d1	0.0046145697
42	0x3ccc87f6	0.024967175
43	0x3aa23708	0.001237602
44	0x3c0d8ad5	0.008639057
45	0x3ba02172	0.0048867995
46	0x3c7f0a89	0.015566477
47	0x3cb96d9f	0.02263528
48	0x39f6a2b5	0.00047042003
49	0x3be5d49f	0.007013872
50	0xba89e774	-0.0010521249
51	0xbc70b7df	-0.014692276
52	0x3b92e9b2	0.004483425
53	0x3b51b933	0.0032001256
54	0x3a13b05b	0.0005633884
55	0xbc1112ac	-0.008854549
56	0xbb23cb33	-0.0024992942
57	0xbc802654	-0.015643276
58	0x3bbefa62	0.005828188
59	0xbb13ecd8	-0.002257159
60	0xbc84088a	-0.016117353
61	0x3b764917	0.0037580186
62	0x3c96a813	0.01839069
63	0xbbf9cbc7	-0.007623169
64	0xbbd08780	-0.006363809
65	0x3c6a7a1c	0.01431134
66	0x3c0fdfb4	0.008781362
67	0x3d122409	0.035678897
68	0x3b94ea0d	0.0045445026
69	0x3c4fc09b	0.012680198
70	0x3c1e59e4	0.009664986
71	0x3bae1ebe	0.0053137233
72	0x3ce0a720	0.027423441
73	0x3b124284	0.0022317478
74	0x3c2643c9	0.010147997
75	0xbb1b3464	-0.002368235
76	0x3cedc859	0.029026197
77	0x3dbc5feb	0.091979824
78	0xbbc0373f	-0.005865961
79	0x3c29374e	0.010328127

indicator_time_mixing.0.time_mixing.ln.weight f4 [16, 5]
0	0x3f7cf378	0.98809004
1	0x3f81306a	1.00929
2	0x3f828f24	1.0199933
3	0x3f7f59d6	0.99746454
4	0x3f7e1b85	0.9926074
5	0x3f7b6491	0.9820033
6	0x3f7b2f9d	0.9811953
7	0x3f7d0183	0.9883043
8	0x3f7a281c	0.9771745
9	0x3f7b6c66	0.9821228
10	0x3f7cba64	0.9872191
11	0x3f7d66b2	0.98984826
12	0x3f802f9d	1.001453
13	0x3f80a09d	1.0049015
14	0x3f7d052c	0.98836017
15	0x3f7ca033	0.98681945
16	0x3f810c4c	1.0081878
17	0x3f829701	1.0202333
18	0x3f7f3964	0.99696946
19	0x3f7d952f	0.9905576
20	0x3f7e8999	0.9942871
21	0x3f80ec3f	1.0072097
22	0x3f8520de	1.0400655
23	0x3f822aed	1.016935
24	0x3f7e4f48	0.99339724
25	0x3f7e31e1	0.9929486
26	0x3f80c075	1.0058733
27	0x3f8088b2	1.0041716
28	0x3f7a1a5b	0.97696465
29	0x3f7ca16b	0.98683804
30	0x3f7bf65b	0.98422784
31	0x3f817920	1.011509
32	0x3f767127	0.96266407
33	0x3f7e794f	0.9940385
34	0x3f7d2640	0.9888649
35	0x3f7e31ed	0.9929493
36	0x3f7e3608	0.99301195
37	0x3f81394f	1.0095614
38	0x3f7a55b6	0.97787035
39	0x3f7b9c00	0.9828491
40	0x3f7cd869	0.98767716
41	0x3f80f4a0	1.0074654
42	0x3f78e386	0.97222173
43	0x3f7e2534	0.9927552
44	0x3f7e4b55	0.993337
45	0x3f7aa6ca	0.9791075
46	0x3f83523c	1.0259471
47	0x3f8d154b	1.1022123
48	0x3f808f83	1.0043796
49	0x3f7af12d	0.98024255
50	0x3f7e3e81	0.99314123
51	0x3f7d3094	0.9890225
52	0x3f80c068	1.0058718
53	0x3f7b325f	0.98123735
54	0x3f7c4332	0.9854003
55	0x3f7b2d7f	0.98116297
56	0x3f7aec8d	0.980172
57	0x3f698aab	0.91227216
58	0x3f758053	0.9589893
59	0x3f79fa25	0.97647315
60	0x3f7bb5f9	0.98324543
61	0x3f819a9e	1.012531
62	0x3f8001e9	1.0000583
63	0x3f7cca35	0.98746043
64	0x3f7c0fbc	0.9846151
65	0x3f7dd03a	0.99145854
66	0x3f82d227	1.0220383
67	0x3f8326df	1.0246238
68	0x3f813c2c	1.0096488
69	0x3f7ec131	0.99513537
70	0x3f7df9d3	0.99209327
71	0x3f84ff84	1.0390477
72	0x3f8a3739	1.0798103
73	0x3f7f9ec6	0.99851644
74	0x3f7e3924	0.9930594
75	0x3f807dbd	1.0038372
76	0x3f84b03e	1.0366285
77	0x3f82e930	1.0227413
78	0x3f7c239b	0.9849183
79	0x3f80ed67	1.007245

indicator_time_mixing.0.time_mixing.ln.bias f4 [16, 5]
0	0x3c5bf540	0.013425171
1	0x3c655ec9	0.013999649
2	0xbcfc733b	-0.030816665
3	0x3c64e1d0	0.0139698535
4	0xbc53c81b	-0.012926127
5	0x3cc1a2cb	0.023637196
6	0x3cd14c35	0.025549034
7	0xbcfc1eb4	-0.03077636
8	0x3ccf6975	0.02531884
9	0xbcc792d1	-0.024362
10	0x3cb4bae9	0.022061782
11	0x3cbfbbe3	0.023405021
12	0xbd2116e7	-0.039328482
13	0x3cbec4c1	0.023287179
14	0xbcadea52	-0.021229897
15	0x3c8af574	0.016962744
16	0x3c95353b	0.018213859
17	0xbd6183ea	-0.055057444
18	0x3c932afa	0.017964829
19	0xbc888418	-0.01666455
20	0x3cc15797	0.023601336
21	0x3ccf23fe	0.025285717
22	0xbd1a79c4	-0.03771378
23	0x3cd3374f	0.02578321
24	0xbcc7106d	-0.024299825
25	0x3c7f8b5e	0.015597193
26	0x3ca40d94	0.020026006
27	0xbd1f0c7b	-0.03883026
28	0x3c9d8d85	0.01923252
29	0xbc96fce0	-0.018431127
30	0x3c75c551	0.015000657
31	0x3c80de62	0.01573104
32	0xbd3290dc	-0.04359518
33	0x3c7e3f6b	0.01551805
34	0xbc77f25f	-0.015133469
35	0x3c0b260b	0.008492957
36	0x3c35f9d3	0.011106926
37	0xbcf70301	-0.0301528
38	0x3c2a19c3	0.010382119
39	0xbc2dd8d7	-0.010610781
40	0x3c4e63cc	0.012597036
41	0x3c5a2631	0.01331477
42	0xbcf0bfbc	-0.029388301
43	0x3c598bfc	0.013278004
44	0xbc4cf8b3	-0.012510466
45	0x3cd40a6e	0.02588388
46	0x3cdfca51	0.027318152
47	0xbd88ffd9	-0.06689424
48	0x3cdebded	0.027190173
49	0xbcc7d749	-0.024394648
50	0x3c04698e	0.008081807
51	0x3c15fa15	0.0091538625
52	0xbcd4811d	-0.025940472
53	0x3c0f7ddb	0.008758034
54	0xbc0b2ff7	-0.008495322
55	0x3c85d632	0.016337488
56	0x3c8aa702	0.016925339
57	0xbc17a3e6	-0.009255385
58	0x3c88ec05	0.016714105
59	0xbc8cf1d2	-0.017205153
60	0x3c7e878f	0.015535249
61	0x3c87a4e4	0.016558118
62	0xbca5556b	-0.020182332
63	0x3c87422e	0.01651105
64	0xbc7ca823	-0.015420946
65	0x3bf8959e	0.007586195
66	0x3bfc759f	0.007704451
67	0xbc743a6f	-0.01490651
68	0x3bff86e9	0.007798065
69	0xbbfa4527	-0.007637638
70	0x3c01be1d	0.007918862
71	0x3c1ee7a3	0.009698781
72	0xbd095568	-0.033528715
73	0x3c15d0be	0.009144006
74	0xbc07fbc5	-0.008299773
75	0x3b30fc6b	0.0027005922
76	0x3b9a6dea	0.00471281
77	0xbbaa1a76	-0.0051911427
78	0x3b8295e6	0.0039851544
79	0xbb781db7	-0.0037859508

indicator_time_mixing.0.time_mixing.U1.1 f4 [1, 2]
0	0xbc3fd290	-0.011707917
1	0xbbbfca1c	-0.0058529507

indicator_time_mixing.0.time_mixing.U1.2 f4 [1, 3]
0	0x3bb1e6d3	0.0054291277
1	0x3c0175c6	0.0079016145
2	0x3c734aa4	0.014849339

indicator_time_mixing.0.time_mixing.U1.3 f4 [1, 4]
0	0xbc5ad1da	-0.013355697
1	0xbcb269c3	-0.021778947
2	0xba4be569	-0.000777802
3	0x38a4c6fa	7.857192e-05

indicator_time_mixing.0.time_mixing.U1.4 f4 [1, 5]
0	0x3c16e382	0.0092095155
1	0x3bd8b57a	0.0066134306
2	0x3bc11948	0.0058929063
3	0xbc102322	-0.008797439
4	0x3b3a0fb4	0.0028390707

indicator_time_mixing.0.time_mixing.U1.5 f4 [1, 6]
0	0x3c3622b6	0.011116674
1	0xbc098d85	-0.008395557
2	0x3c3b718c	0.011440646
3	0x3c3bec39	0.011469894
4	0xbbf01f72	-0.0073279673
5	0xba270dcb	-0.00063726

indicator_time_mixing.0.time_mixing.U1.6 f4 [1, 7]
0	0x389ae202	7.3853895e-05
1	0x3b2afe43	0.0026091493
2	0x3c1d0546	0.009583777
3	0x3c4b3428	0.012402572
4	0x3d0033b6	0.031299315
5	0x3c8b77fa	0.017024983
6	0xbc1feeee	-0.009761555

indicator_time_mixing.0.time_mixing.U1.7 f4 [1, 8]
0	0xbc09b426	-0.008404767
1	0xbbdb7d8c	-0.006698316
2	0xbbf626d5	-0.0075119534
3	0x3c16c683	0.009202602
4	0x3c4e23f7	0.012581817
5	0xbb79dc88	-0.0038125832
6	0x3c406e4b	0.011745046
7	0x3b80e958	0.0039340667

indicator_time_mixing.0.time_mixing.U1.8 f4 [1, 9]
0	0xbc7fa0a4	-0.015602265
1	0x3bd90d59	0.0066239056
2	0x3c155291	0.009113924
3	0x3b66992c	0.0035186512
4	0x3c804a96	0.015660565
5	0xbc4ce3aa	-0.012505451
6	0x3a5a4346	0.00083260646
7	0xbbbf2bd4	-0.005834082
8	0xbbafdd26	-0.005366939

indicator_time_mixing.0.time_mixing.U1.9 f4 [1, 10]
0	0x3c7637b8	0.015027933
1	0xbc3b84c8	-0.011445232
2	0xbb8ba63c	-0.00426176
3	0x3b900332	0.004394912
4	0x3b6a7b7d	0.003577917
5	0xbc93a0d5	-0.018021027
6	0xb9d900cf	-0.00041390068
7	0xbbbeb0ae	-0.0058194017
8	0xbab80eb2	-0.0014042465
9	0xbb15526b	-0.002278472

indicator_time_mixing.0.time_mixing.U1.10 f4 [1, 11]
0	0x3c07aa6c	0.008280378
1	0x3b9ee3fe	0.004848956
2	0xb913ce73	-0.00014095921
3	0x3aa1cb3b	0.0012343893
4	0xbb91c5d6	-0.0044486327
5	0xbb334ca5	-0.0027358916
6	0xbbe2c86c	-0.006920865
7	0x3bc84cab	0.006112655
8	0xbbce3d23	-0.006293909
9	0xbcb2156f	-0.021738736
10	0x3c32824c	0.010895323

indicator_time_mixing.0.time_mixing.U1.11 f4 [1, 12]
0	0xbca714b7	-0.02039562
1	0x3bdf8b64	0.0068220366
2	0xbc97fe5d	-0.018553907
3	0xbc807a30	-0.015683264
4	0xb9539dc1	-0.00020181296
5	0xbb550f4c	-0.0032510338
6	0x3b4baf33	0.0031079769
7	0xbc690ebe	-0.014224706
8	0xbc3761e1	-0.01119277
9	0xbb1ebea5	-0.002422252
10	0xbc8e8816	-0.017398875
11	0x3b91a5b2	0.0044448012

indicator_time_mixing.0.time_mixing.U1.12 f4 [1, 13]
0	0x3bd2417d	0.006416498
1	0xbcb03f98	-0.021514699
2	0x3c0c5a42	0.008566441
3	0xbc0128e0	-0.0078832805
4	0x3b5d5424	0.0033772076
5	0x3c6a2af3	0.014292466
6	0xbbf1b339	-0.0073761013
7	0x3c17dfee	0.009269698
8	0xbcdb8385	-0.026796112
9	0xb91aac1d	-0.00014750702
10	0x3c066d12	0.008204715
11	0xbc89fd35	-0.016844371
12	0xbbb8fc8e	-0.0056453412

indicator_time_mixing.0.time_mixing.U1.13 f4 [1, 14]
0	0x3d18bea4	0.037291184
1	0x3b5c4ce5	0.0033615169
2	0x3bc82ed7	0.0061090994
3	0x3c0db52d	0.008649153
4	0x3c74df3c	0.014945801
5	0x3ba39b40	0.0049928725
6	0x3c196b31	0.009363935
7	0x3b11e227	0.0022260041
8	0x3b11c4f8	0.0022242647
9	0x3b3c684c	0.002874869
10	0xbbb0d9ea	-0.005397071
11	0xbbefa9c7	-0.00731394
12	0x3a4230eb	0.0007407802
13	0x3b8e269b	0.004338098

indicator_time_mixing.0.time_mixing.U1.14 f4 [1, 15]
0	0x3b526ac3	0.0032107092
1	0x3c888a5f	0.016667543
2	0xbc929399	-0.017892646
3	0xbc4e6237	-0.012596658
4	0xbc917069	-0.017753797
5	0xbcb15faa	-0.021652061
6	0xbb863e2a	-0.004096766
7	0x3c42ca33	0.011889028
8	0x3c18993d	0.009313879
9	0x3b2ea7bf	0.0026650277
10	0xbbdbc393	-0.006706664
11	0x3b41dc84	0.00295809
12	0xbca72516	-0.020403426
13	0x3c425283	0.011860493
14	0x3b03a005	0.0020084393

indicator_time_mixing.0.time_mixing.U1.15 f4 [1, 16]
0	0xbb810fa8	-0.003938634
1	0x3b52d246	0.003216879
2	0x3bff546c	0.0077920463
3	0x3c9b7d22	0.018980566
4	0x3bd32432	0.006443524
5	0x3b2eda06	0.0026680245
6	0xbaadd846	-0.0013263307
7	0x3c05f2d7	0.008175573
8	0x3ba83a71	0.00513392
9	0xb966ce7c	-0.0002201143
10	0xbc2a0266	-0.010376548
11	0xbc1baebf	-0.009502112
12	0xbc80cc1f	-0.015722333
13	0xb802215d	-3.1025487e-05
14	0x3cbd4b34	0.023107149
15	0x3cdd2fc4	0.027000315

indicator_time_mixing.0.time_mixing.U2.1 f4 [1, 2]
0	0x3b9b329b	0.0047362573
1	0x3ac88c7a	0.0015300654

indicator_time_mixing.0.time_mixing.U2.2 f4 [1, 3]
0	0x3cdfd327	0.027322365
1	0x3c8361f5	0.01603792
2	0x3d0cffa2	0.034423478

indicator_time_mixing.0.time_mixing.U2.3 f4 [1, 4]
0	0xbc17cf83	-0.009265783
1	0x3c586c76	0.013209453
2	0x3c484bfb	0.012225146
3	0x3c870dee	0.016486134

indicator_time_mixing.0.time_mixing.U2.4 f4 [1, 5]
0	0x3c79da21	0.01524976
1	0x3c43be63	0.011947247
2	0xbcb364ed	-0.021898711
3	0x3c963c07	0.01833917
4	0xbca13cbd	-0.019682283

indicator_time_mixing.0.time_mixing.U2.5 f4 [1, 6]
0	0xbba1f779	-0.004942831
1	0xbb2cf15f	-0.0026388986
2	0xbb307567	-0.0026925446
3	0x3c3f277a	0.011667127
4	0xbb1b560d	-0.0023702413
5	0x3b5993f7	0.0033199766

indicator_time_mixing.0.time_mixing.U2.6 f4 [1, 7]
0	0xba00971b	-0.0004905329
1	0xba676440	-0.0008826889
2	0x3cd82a2f	0.026387302
3	0xbc19e341	-0.00939256
4	0x3bb01567	0.005373645
5	0x3b092098	0.0020923968
6	0x3c545e2a	0.012961904

indicator_time_mixing.0.time_mixing.U2.7 f4 [1, 8]
0	0x3bc215a9	0.0059229922
1	0x3c550a0c	0.013002884
2	0xb93daeec	-0.00018089608
3	0x3b96d3c5	0.0046028816
4	0xbbd687d6	-0.0065469546
5	0xb915efd4	-0.0001429909
6	0xbbc519d1	-0.0060150404
7	0xbbe036d6	-0.0068424745

indicator_time_mixing.0.time_mixing.U2.8 f4 [1, 9]
0	0xbc93f983	-0.018063312
1	0x3b6e8867	0.003639722
2	0x3c372e94	0.011180539
3	0xbc070165	-0.008240079
4	0x3c3db146	0.01157791
5	0x3c8ef9cb	0.017453095
6	0x3bc4dfc1	0.006008119
7	0x3c5b67c9	0.0133914435
8	0xbc3a3b4d	-0.0113666775

indicator_time_mixing.0.time_mixing.U2.9 f4 [1, 10]
0	0x3bb49bb5	0.005511726
1	0xbc378bfa	-0.011202807
2	0x3c9a09ce	0.018803503
3	0xbc94e153	-0.01817385
4	0x3b736373	0.0037138134
5	0xbc754571	-0.014970169
6	0x3c780e58	0.015140139
7	0x3beca17d	0.0072213993
8	0x3c48c355	0.012253602
9	0xba4049ea	-0.0007335233

indicator_time_mixing.0.time_mixing.U2.10 f4 [1, 11]
0	0xbca49e9c	-0.020095162
1	0xbb0e310e	-0.002169672
2	0xbb944874	-0.0045252386
3	0x3c6154a7	0.013753093
4	0xbbcd9946	-0.006274375
5	0xbb697e1f	-0.0035628153
6	0xbc4db607	-0.012555606
7	0x3c99cc6c	0.018774234
8	0xbbd5fae7	-0.006530154
9	0x3bbc717c	0.005750833
10	0xbc0ac603	-0.008470061

indicator_time_mixing.0.time_mixing.U2.11 f4 [1, 12]
0	0x3bacb637	0.005270745
1	0x3b0fcc36	0.0021941788
2	0x3ca7f90b	0.020504495
3	0xbc0076ad	-0.0078407945
4	0x3c12e9ef	0.008966907
5	0xbb796023	-0.0038051687
6	0x3b92736c	0.0044693258
7	0x3b35c0ba	0.0027733282
8	0xbb76c585	-0.0037654352
9	0x3ac35c60	0.0014904849
10	0x3bb9e748	0.005673323
11	0xbbe26967	-0.0069095376

indicator_time_mixing.0.time_mixing.U2.12 f4 [1, 13]
0	0xbc08fbeb	-0.008360843
1	0xbc363f23	-0.011123451
2	0x3ca7ce98	0.020484254
3	0x3c632ff5	0.013866414
4	0xba4a549e	-0.00077182974
5	0xbb34f5d1	-0.0027612338
6	0xbb7a6236	-0.003820551
7	0x3c9e305b	0.019310167
8	0x3c625c70	0.013815984
9	0x3c3c6ab2	0.0115000475
10	0xbc8fde64	-0.017562099
11	0xbbede12e	-0.0072595095
12	0x3c83b0f2	0.016075585

indicator_time_mixing.0.time_mixing.U2.13 f4 [1, 14]
0	0xbc9b8bfa	-0.018987644
1	0xbb97d25d	-0.0046332316
2	0x3bc68700	0.0060585737
3	0xbc68ce9c	-0.014209416
4	0xbc1596be	-0.009130178
5	0x3c22f139	0.009945207
6	0x3c821872	0.015880797
7	0x3bd07338	0.0063613914
8	0xbb07658e	-0.0020659897
9	0xbc0fc8eb	-0.00877593
10	0x3a85ccd6	0.0010208141
11	0xbcbc7f9b	-0.023010066
12	0xbcab54c0	-0.020914435
13	0x3cebbf5c	0.02877777

indicator_time_mixing.0.time_mixing.U2.14 f4 [1, 15]
0	0xb81aeb37	-3.6935522e-05
1	0xbb8b3abf	-0.0042489464
2	0x3b9cd9b6	0.0047866954
3	0xbc02e61f	-0.007989435
4	0x3ba3baba	0.004996625
5	0xbac73025	-0.0015196843
6	0x3d157f55	0.036498386
7	0x3a573f00	0.0008210987
8	0x3b0080bc	0.0019607982
9	0xb93fe57d	-0.0001830067
10	0xbc58389a	-0.013197089
11	0xbbc7b83f	-0.006094962
12	0x3c8635bc	0.016383044
13	0x3bfcb35b	0.0077118105
14	0xbbe1c8d9	-0.006890398

indicator_time_mixing.0.time_mixing.U2.15 f4 [1, 16]
0	0xbcad07e1	-0.021121921
1	0xbc3c0577	-0.011475912
2	0x3cfe4ae5	0.031041572
3	0xbcf3e931	-0.02977428
4	0x3c63949f	0.0138904145
5	0x3c85541c	0.016275458
6	0x3d5bf2bf	0.053698298
7	0xbc86f646	-0.016474854
8	0xba15d3d5	-0.00057154644
9	0x3ae89ae4	0.0017746356
10	0x3b0e0c05	0.0021674645
11	0xb937a067	-0.00017511995
12	0xbb3b60d8	-0.002859166
13	0x3c80d5d1	0.015726956
14	0xbc067a7c	-0.0082079135
15	0x3bbb33d7	0.005712967

indicator_time_mixing.0.fc.weight f4 [1, 5]
0	0xbe8213e2	-0.25405794
1	0xbe89e6a1	-0.26933768
2	0x3d843542	0.064554706
3	0xbe884424	-0.26614487
4	0x3eb4c703	0.35308084

conv1d.0.weight f4 [5, 5, 1]
0	0xbe8c5beb	-0.27413878
1	0xbe1463a1	-0.1449113
2	0xbec7c17b	-0.390148
3	0x3e51c03b	0.20483486
4	0x3eb1bd70	0.34714842
5	0xbe90bc09	-0.2826846
6	0xbe44d2a7	-0.19220982
7	0x3ec81c11	0.39083913
8	0xbeb3496e	-0.3501696
9	0x3db455fc	0.08805463
10	0xbea20064	-0.31640923
11	0xbeb5172c	-0.3536924
12	0x3d1b81a1	0.03796542
13	0xbe602018	-0.21887243
14	0x3e9538fe	0.29145044
15	0xbe1d1ab4	-0.15342218
16	0xbc3251df	-0.010883777
17	0xbe7680e0	-0.240726
18	0x3e36cd7b	0.17851822
19	0x3ec1274f	0.37725303
20	0xbd6fdaea	-0.058558382
21	0xbe89a130	-0.2688079
22	0xbedd374e	-0.43206257
23	0x3edd092e	0.43171066
24	0x3e401cc7	0.18760978

conv1d.0.bias f4 [5]
0	0x3e235bc7	0.15952979
1	0x3d23f17d	0.040025223
2	0x3e8867b5	0.26641622
3	0x3e08cd93	0.1335967
4	0x3e788ee8	0.24273264

stock_mixing.M1 f4 [20, 1026]
0	0x3f56fe38	0.8398166
1	0xbea955ec	-0.33073366
2	0xbfe9cf3e	-1.826637
3	0xbf16c69f	-0.5889682
4	0xbf03405c	-0.5127008
5	0x3f54c30c	0.8311012
6	0xbd9e2b31	-0.07723082
7	0xbf88d45d	-1.0689808
8	0xbfddf097	-1.7339047
9	0x3fa30685	1.2736365
10	0x3fb17e9d	1.3866764
11	0xbfe4ea29	-1.788396
12	0xbf8a76f0	-1.0817547
13	0xbe48dbce	-0.19615099
14	0xbfa2c7ac	-1.2717185
15	0xbfe6cfad	-1.8032128
16	0x3f83fbdb	1.0311235
17	0xbeb2ea7e	-0.34944528
18	0x3e721bec	0.23643464
19	0x3eb795d0	0.35856485
20	0x3f048dde	0.5177897
21	0xbe34b9c5	-0.1764899
22	0xbedf5def	-0.43626353
23	0x3f943d56	1.1581218
24	0x3f5f824f	0.8730821
25	0xbda670c2	-0.081269756
26	0xbf540274	-0.82816243
27	0xbfa282f2	-1.2696211
28	0xbda5233e	-0.080633625
29	0x3ebae4c1	0.3650265
30	0xbff755b0	-1.9323025
31	0x3f41278d	0.75450975
32	0xbeefdcdc	-0.4684819
33	0x3d5685ba	0.052373625
34	0x3f26eb59	0.6520286
35	0x3f6c7f41	0.92381674
36	0x3fba6ef5	1.4565111
37	0x3d694b56	0.05695661
38	0x3f308037	0.6894564
39	0xbf29aa26	-0.6627525
40	0x3f86e2ba	1.0537941
41	0x3f1e7587	0.6189808
42	0xbf3f3d83	-0.74703234
43	0xbfb40a87	-1.4065713
44	0xbf675a91	-0.9037257
45	0x3f3166d8	0.6929755
46	0xbf2e8d09	-0.6818395
47	0x3f6c3fd0	0.9228487
48	0xbec2c63e	-0.38041872
49	0x3ef0e2a1	0.47047904
50	0x3f21f13e	0.6325873
51	0x3ec3c610	0.38237047
52	0x3f83d496	1.0299251
53	0x3ddc661d	0.10761664
54	0x3fb7496b	1.431928
55	0xbea1ff8f	-0.31640288
56	0x3f65b688	0.89731646
57	0x3f528d7b	0.8224713
58	0xbf6502be	-0.8945731
59	0xbf43fc50	-0.76556873
60	0x3f3e5952	0.7435504
61	0x3f205b79	0.62639576
62	0xbf11e476	-0.5698923
63	0xbe93c491	-0.28860906
64	0xbf99c2ff	-1.2012633
65	0xbee8b902	-0.4545365
66	0xbea328f6	-0.31867188
67	0x3f1d3e2e	0.61423004
68	0x3f6cd45f	0.9251155
69	0xbf92bab0	-1.1463223
70	0x3ff44816	1.9084499
71	0x3f8a4375	1.0801836
72	0xbfbd5704	-1.479218
73	0xbcab0c25	-0.020879814
74	0x3fcb7340	1.5894547
75	0x3fd5fc4b	1.6717619
76	0xbcff7050	-0.031181484
77	0x3ea0ef01	0.31432346
78	0xbf474c43	-0.7785074
79	0xbf3446af	-0.70420355
80	0x3f05a23a	0.52200663
81	0x3f90f126	1.1323593
82	0x3ec3dc4b	0.38254008
83	0x3eb7aee5	0.3587562
84	0xbff9738e	-1.948839
85	0xbfd9c0ec	-1.7012
86	0xbf1583c3	-0.5840418
87	0xbf3a1adb	-0.7269723
88	0x3f226be3	0.6344587
89	0x3f233570	0.63753414
90	0xbf6cee16	-0.9255079
91	0x3f9073c1	1.1285325
92	0xbda21900	-0.079149246
93	0x3d003d64	0.031308547
94	0xbe99cb45	-0.30037895
95	0x3dae97b1	0.085250266
96	0x3f69af0e	0.9128274
97	0xbfa19793	-1.2624382
98	0xc002c39c	-2.043189
99	0x3f987ec8	1.191369
100	0x3f912c5c	1.1341662
101	0xbfa61a05	-1.297669
102	0x3fe80497	1.8126401
103	0x3d33a9c4	0.043863073
104	0xbfaa2a91	-1.329424
105	0x3ecbba9e	0.39790815
106	0x3bc07245	0.005872997
107	0xbf36dbba	-0.71429026
108	0x3db92386	0.09039979
109	0xbeafcc54	-0.34335577
110	0xbf149b38	-0.58049345
111	0x3fa3146f	1.2740611
112	0xbf1b7dfb	-0.60739106
113	0x3ee3c283	0.44484338
114	0xbf7171bd	-0.94314176
115	0x3fab35cc	1.3375793
116	0xbfa5ead6	-1.2962291
117	0x3ce1935e	0.02753609
118	0xbf4b6cf7	-0.7946314
119	0xbfcfa505	-1.6222235
120	0x3f4c87cc	0.7989471
121	0xbf8d5085	-1.1040198
122	0x3f8e7926	1.1130722
123	0x3f42aa05	0.7604068
124	0xbeb054e7	-0.34439775
125	0xbfc29f2d	-1.5204827
126	0x3e500a67	0.20316468
127	0xbd3a1377	-0.04542872
128	0xbf777030	-0.9665556
129	0x3fa1920f	1.2622699
130	0x3f8bb6a9	1.0915118
131	0x3eb7deff	0.3591232
132	0xbf07f406	-0.53106725
133	0x3ed41d79	0.41428736
134	0xbf376d18	-0.7165084
135	0xc02b4ae7	-2.6764467
136	0x3f4919e0	0.7855511
137	0xbf8f4c48	-1.1195154
138	0x3f036cc2	0.51337826
139	0x3d8467c6	0.06465106
140	0x3e0de66e	0.13857433
141	0x3f956580	1.16716
142	0x3f63b418	0.88946676
143	0xbf6d650d	-0.92732316
144	0xbc1c3e3a	-0.00953632
145	0x3fe95e2b	1.8231863
146	0x3f08e61b	0.53476113
147	0xbfb81d41	-1.4383928
148	0x3e549263	0.20758967
149	0x3edc44e2	0.43021303
150	0x3b28db08	0.0025765318
151	0xbf982707	-1.188691
152	0x3e9c0f60	0.3048048
153	0xbf5e4dfc	-0.86837745
154	0x3ea017dc	0.31268203
155	0x3fce2d84	1.610764
156	0x3fb4c6f6	1.4123218
157	0x3f6aba2b	0.9169032
158	0x3ed829d4	0.42219412
159	0x3ec1d1cf	0.37855384
160	0x3f927e0b	1.1444715
161	0x3f8b621c	1.0889316
162	0xbfa50114	-1.2890954
163	0xbf25385a	-0.6453911
164	0xbf0e4026	-0.5556663
165	0x3f0d8137	0.5527529
166	0xbe9f240a	-0.31082183
167	0x3f1aae29	0.60422
168	0x3f0a5360	0.5403347
169	0xbf481b55	-0.78166705
170	0xbf95a4cf	-1.169092
171	0xbedc500f	-0.4302983
172	0xbed7a02b	-0.42114386
173	0xbf57a735	-0.8423951
174	0x40235bf0	2.5524864
175	0xbf6bd002	-0.9211427
176	0x3fbcaf5e	1.4741018
177	0xbf86665e	-1.049999
178	0x3fdbd34b	1.7173856
179	0x3fd8a44d	1.6925141
180	0x3fe87411	1.8160421
181	0xbf892e9a	-1.0717347
182	0xbf215438	-0.6301913
183	0x3ed5d857	0.41766617
184	0x40187087	2.3818681
185	0xbe24f748	-0.16109955
186	0xbe4fbe52	-0.20287445
187	0xbdd2d03e	-0.10293625
188	0xbff0ad1d	-1.880283
189	0xbe607018	-0.2191776
190	0xbdd6fd48	-0.10497528
191	0xbf4c6070	-0.7983465
192	0x3fbdb942	1.4822161
193	0xbed206c4	-0.41020787
194	0xbf3c79bf	-0.7362327
195	0x3d805fc5	0.062682666
196	0xbf045d17	-0.51704544
197	0x3f147003	0.57983416
198	0x3f3451dc	0.7043741
199	0xbe52008c	-0.20508021
200	0xbf53f090	-0.82788944
201	0x3f895e59	1.0731918
202	0x3efc8529	0.49320343
203	0x3fc9ac65	1.5755736
204	0x3f7064f9	0.9390407
205	0xbded672d	-0.11591945
206	0x3e9dd952	0.30829865
207	0xc012cc17	-2.2937067
208	0x3e696e6f	0.22796033
209	0x3eb6815b	0.35645565
210	0x3f6e93bb	0.9319417
211	0xbe2665f1	-0.16249825
212	0x3f71eb15	0.9449933
213	0x3ee60e2f	0.44932696
214	0xbe604ddb	-0.219047
215	0x3e9dd904	0.30829632
216	0x3eaa5585	0.3326837
217	0x3f3f5122	0.74733174
218	0xbe03b571	-0.12862183
219	0x3f9f0e99	1.242633
220	0x3ec6e335	0.3884522
221	0xbf2f2303	-0.684128
222	0xbf41ed80	-0.7575302
223	0xbf2596f7	-0.6468348
224	0x3c87e49d	0.016588503
225	0x3dd8c6aa	0.10584767
226	0xbebbde0c	-0.36692846
227	0xbeeabda7	-0.45847818
228	0xbf853f71	-1.0409986
229	0xbf446324	-0.76713777
230	0xbfe2636b	-1.768659
231	0x3e7c265c	0.24624008
232	0xbb82189c	-0.003970219
233	0x3e35a256	0.17737707
234	0xbe9d34cf	-0.30704352
235	0xbf12ca39	-0.5733982
236	0xbf07889e	-0.52942836
237	0xbfb5953e	-1.418617
238	0x3e7069b4	0.23477823
239	0xbeb902ed	-0.36135045
240	0x3fab0262	1.3360102
241	0x3f1cfeda	0.6132637
242	0xbd915fb9	-0.07098336
243	0x3ef3e310	0.47634172
244	0x3f754468	0.95807505
245	0xbf8547ec	-1.0412574
246	0x3f0d439e	0.551813
247	0x3f719ba8	0.9437814
248	0xbdbe10ad	-0.092805244
249	0x40115973	2.2710845
250	0xbfb29c4b	-1.3953947
251	0x3ef440a4	0.47705567
252	0xbfcd65f9	-1.6046745
253	0xbf315f1f	-0.6928577
254	0xc03366b5	-2.8031437
255	0x3eebf9eb	0.4608911

stock_mixing.M2 f4 [1026, 20]
0	0x3f99f9f0	1.20294
1	0x3f6d4ce5	0.92695457
2	0xbf24e7b7	-0.6441607
3	0xbfbac71b	-1.4592012
4	0xbf435fb5	-0.7631791
5	0xbf049ab8	-0.5179858
6	0xbf41a622	-0.75644124
7	0x3f26c57c	0.6514509
8	0x3f40027b	0.75003785
9	0x3fb30bb0	1.3987942
10	0x3f659571	0.89681154
11	0x3f393349	0.7234388
12	0x3fdfbd89	1.7479717
13	0xbe8d7a40	-0.27632332
14	0xbf4c6986	-0.79848516
15	0x3e3fd178	0.1873225
16	0x3eae99f3	0.3410183
17	0x3e88a729	0.26690033
18	0x3f16016f	0.5859594
19	0x3f12dbc4	0.57366586
20	0xbeeb48c6	-0.4595396
21	0x3f0b5190	0.5442133
22	0x3f0d43cf	0.5518159
23	0xbef2212d	-0.47290936
24	0xbf4305be	-0.76180637
25	0xbe229572	-0.15877321
26	0xbf8ac832	-1.0842345
27	0x3ebdb8f5	0.37055174
28	0x40237d1f	2.5545118
29	0xbea818e5	-0.32831493
30	0xbf8d7b59	-1.1053268
31	0x3f3b3075	0.73120815
32	0xbf4922a0	-0.7856846
33	0x3efd0a0a	0.49421722
34	0x3ec6e98f	0.38850066
35	0x3f94d9b4	1.1628938
36	0x3febe04d	1.8427826
37	0x3e477e5b	0.19481795
38	0xbea21ded	-0.31663457
39	0xbf10857f	-0.564537
40	0x3f86c9b2	1.0530303
41	0xbf20c26c	-0.62796664
42	0x3e8b6289	0.27223614
43	0x3e9a2579	0.30106714
44	0x3f688222	0.90823567
45	0xbf4d377a	-0.80162776
46	0xbf0a1453	-0.5393726
47	0xbef1861e	-0.47172636
48	0x3ea0627a	0.31325132
49	0x3f49a8a2	0.7877294
50	0xbcb26663	-0.021777337
51	0xbfda2bde	-1.7044637
52	0xbeae3c81	-0.34030536
53	0x3d898862	0.06715466
54	0x3ef98d8d	0.48740807
55	0xbf28824a	-0.65823805
56	0xbf4d4726	-0.8018669
57	0x3efc7e24	0.49314988
58	0x3e749eac	0.23888654
59	0xbf9c2536	-1.2198856
60	0xbe979df6	-0.29612702
61	0x3f130c6b	0.57440823
62	0xbfd10e77	-1.6332539
63	0xbf0726a6	-0.5279335
64	0xbed23141	-0.41053203
65	0xbf1d0ed7	-0.6135077
66	0xbee0fac0	-0.43941307
67	0x3ef8eda5	0.48618808
68	0xbf66e468	-0.9019227
69	0xbf1a76a4	-0.6033728
70	0xbf8f73fb	-1.120727
71	0xbf95cd44	-1.1703267
72	0xbe65d4f8	-0.22444522
73	0x3f615e43	0.88034457
74	0xbff44f6e	-1.908674
75	0x3fc75534	1.5572877
76	0x3f0e8a46	0.5567974
77	0x3f43d50b	0.7649695
78	0x3deefdf9	0.11669535
79	0x3e5d2294	0.21595222
80	0xbf2a57e0	-0.66540337
81	0xbed87b34	-0.42281497
82	0x3eebb284	0.46034634
83	0xbf07880a	-0.52941954
84	0xbf8d2eb1	-1.1029874
85	0xbf27d259	-0.6555534
86	0x3e933b19	0.28756025
87	0xbf8a09a6	-1.0784194
88	0x3f2f3472	0.684394
89	0xbfa9471e	-1.3224828
90	0x3f8f1b80	1.1180267
91	0x3f89e63f	1.077339
92	0x3f680355	0.90630084
93	0xbf930f5e	-1.1489065
94	0xbfbfe766	-1.4992492
95	0xbfa10791	-1.2580434
96	0x3f4c43e1	0.79791075
97	0x3f92236a	1.1417058
98	0xbe9cffcd	-0.3066391
99	0x3fbd1c87	1.4774331
100	0x3e409038	0.18805015
101	0x3e2d7159	0.1693777
102	0x3ef5f5e4	0.48039162
103	0xbfd921e4	-1.6963468
104	0xbd3d9695	-0.046286184
105	0x3fbdccb6	1.4828098
106	0x3eae4ace	0.34041446
107	0xbffd97da	-1.9811966
108	0x3f08bfad	0.53417474
109	0x3d701201	0.05861092
110	0xbf7756cf	-0.96616834
111	0x3fa8f38b	1.3199323
112	0xbf2cbd63	-0.6747648
113	0x3f5e132b	0.86748
114	0x3ec00d86	0.37510318
115	0xbead0559	-0.33793142
116	0x3f402cbc	0.7506826
117	0xbf322516	-0.6958784
118	0x3fa13db6	1.2596958
119	0xbfc7c8d7	-1.5608166
120	0xbf6911a0	-0.9104252
121	0xbec2ca6b	-0.38045058
122	0x3eb41c44	0.35177815
123	0xbf45dd90	-0.772912
124	0xbfbb954f	-1.465494
125	0xbee9381b	-0.45550618
126	0x3f8e2397	1.1104611
127	0x3f98badc	1.1932025
128	0xbe3b5c2f	-0.18296884
129	0x3d324e74	0.04353185
130	0xbf547d21	-0.8300343
131	0xbec382ca	-0.38185722
132	0xbdec3518	-0.11533564
133	0xbfeffad7	-1.8748425
134	0xbe76ee58	-0.24114358
135	0xbea760a5	-0.3269092
136	0x3f8a268a	1.0793011
137	0x3f02c17a	0.5107647
138	0xbf1c7899	-0.6112152
139	0x3e00fe5c	0.1259703
140	0x3f1626ae	0.5865277
141	0xbf8506da	-1.0392716
142	0x3f67e9ad	0.90590936
143	0xbef277b6	-0.47356957
144	0xbcde59d7	-0.027142448
145	0xbec61659	-0.38688925
146	0xbe718681	-0.23586465
147	0xc017572c	-2.3646955
148	0xbd3273e6	-0.04356756
149	0x3f099a42	0.53751004
150	0x3f63f89d	0.8905123
151	0xbf2cf7f6	-0.6756586
152	0x3fa278c8	1.269311
153	0x3f573063	0.8405821
154	0xbe21173e	-0.15731522
155	0x3df5ed34	0.120081335
156	0x3f0cc2bf	0.5498466
157	0x3fdc2e9f	1.7201728
158	0x3ed0f215	0.40809694
159	0x3f8faae3	1.1224025
160	0xbf7cb9ab	-0.98720807
161	0x3ecdc875	0.40192
162	0x3b6f2248	0.003648894
163	0xbfae3829	-1.3610889
164	0xbfb8a7af	-1.4426173
165	0xbe9992e0	-0.2999487
166	0xbe58a054	-0.2115491
167	0xbfca1d99	-1.5790282
168	0x3f18a614	0.59628415
169	0x3f125b94	0.5717099
170	0x3f35966e	0.7093266
171	0x4052ad18	3.2918148
172	0x3da8cf77	0.08242696
173	0x3f80c9f9	1.0061637
174	0x400063fb	2.0061023
175	0xbf625cce	-0.8842286
176	0x3f73788a	0.95105803
177	0xbeb78d35	-0.3584992
178	0xbf0d39f2	-0.5516654
179	0xbedf0765	-0.4356033
180	0x3f7d73d3	0.9900486
181	0x3e11c2a3	0.14234404
182	0x3f51ab0e	0.81901634
183	0x3ff564f0	1.9171429
184	0x3fc2adea	1.5209324
185	0xbf2e5d19	-0.68110806
186	0xbf7b4d98	-0.98165274
187	0xbea5a8a8	-0.32355237
188	0xbf8ee528	-1.1163683
189	0x3eda6e33	0.426622
190	0x3dad48cd	0.08461151
191	0xbfc43ac0	-1.5330429
192	0xbe8f2674	-0.27959025
193	0xbfa7b751	-1.3102819
194	0xbe31209a	-0.17297593
195	0xbea08fc7	-0.31359693
196	0x3f250c13	0.6447155
197	0x3ea2ba65	0.31782833
198	0xbf5ada84	-0.8548968
199	0x3f071fe7	0.52783054
200	0xbf86d1be	-1.0532758
201	0x3eaa72c2	0.33290678
202	0xbd90bbaf	-0.07067048
203	0x4017a585	2.3694775
204	0xbf5c35ab	-0.8601939
205	0x3eecd9da	0.46259958
206	0x3eeed5f3	0.46647605
207	0x3ee4d49b	0.44693455
208	0xc01116a1	-2.2670062
209	0x3e72c14f	0.23706554
210	0x3f7dbb9c	0.99114394
211	0x3e6f875a	0.23391476
212	0x3fa12c7a	1.2591698
213	0xbea5db15	-0.3239371
214	0xbf7173e1	-0.9431744
215	0x3fb555da	1.4166825
216	0x3f5d2b29	0.8639398
217	0x3febd568	1.8424501
218	0x3f8381a0	1.0273933
219	0xbf97208c	-1.1806808
220	0x3e7bf5f7	0.24605547
221	0x4010649b	2.2561405
222	0x3e9b674b	0.30352244
223	0xbfe74a45	-1.806954
224	0xbfa1bad7	-1.2635144
225	0xbef47569	-0.47745827
226	0xbe35568a	-0.17708793
227	0x3eaa25ab	0.33231863
228	0x3f21d60f	0.6321725
229	0x3fec7949	1.8474513
230	0xbf139c5c	-0.5766046
231	0xbebc6aed	-0.36800328
232	0x3f1b7673	0.60727614
233	0xbf975258	-1.1822004
234	0x3f80416a	1.0019963
235	0xbe512849	-0.20425524
236	0xbeb9d53f	-0.36295506
237	0xbf87fd23	-1.0624126
238	0xbfd95158	-1.6977949
239	0xbf6d6e3e	-0.9274634
240	0x3f4d0354	0.80083203
241	0xbe8ff624	-0.28117478
242	0xbfdbbffc	-1.7167964
243	0x3ea8a72c	0.32940042
244	0xbf063cb1	-0.5243636
245	0xbf0308d0	-0.5118532
246	0xbfd1d8ef	-1.6394328
247	0xbf897dff	-1.0741576
248	0x3d11679d	0.035499204
249	0x3f10a618	0.5650344
250	0x3f9c1689	1.2194377
251	0x3dfefba8	0.12450343
252	0xbf103d27	-0.5634331
253	0x3f640f56	0.890859
254	0xbe1da539	-0.15395059
255	0xbfb3e0b4	-1.4052949

stock_mixing.ln.weight f4 [1026, 16]
0	0x3f7e0695	0.99228793
1	0x3f7d925c	0.9905145
2	0x3f769759	0.9632469
3	0x3f7bf2a3	0.9841711
4	0x3f8026a7	1.0011796
5	0x3f7d4858	0.9893851
6	0x3f7c8070	0.9863348
7	0x3f811af1	1.0086347
8	0x3f7c113f	0.98463815
9	0x3f7dbde5	0.9911788
10	0x3f804755	1.0021769
11	0x3f7f6715	0.99766666
12	0x3f80ee26	1.0072677
13	0x3f7e67fe	0.9937743
14	0x3f7e6e8b	0.99387425
15	0x3f804e3d	1.0023876
16	0x3f7af5ac	0.98031116
17	0x3f82cc50	1.0218601
18	0x3f7f22c7	0.9966244
19	0x3f7a9de3	0.97897166
20	0x3f81ea04	1.0149541
21	0x3f80543d	1.0025707
22	0x3f7bd471	0.98371035
23	0x3f837aa3	1.0271801
24	0x3f7de995	0.9918454
25	0x3f76b2ed	0.9636677
26	0x3f82c411	1.0216085
27	0x3f833059	1.024913
28	0x3f8304b0	1.0235806
29	0x3f7c3c0b	0.9852912
30	0x3f796a1e	0.97427547
31	0x3f819154	1.0122476
32	0x3f7f752f	0.9978818
33	0x3f7ba5e1	0.98299986
34	0x3f7f6973	0.9977028
35	0x3f81f9f3	1.0154403
36	0x3f7bcf39	0.9836307
37	0x3f7f90f2	0.99830544
38	0x3f80e2be	1.0069196
39	0x3f7bdc9c	0.983835
40	0x3f801492	1.0006278
41	0x3f80733b	1.0035166
42	0x3f7e9475	0.9944528
43	0x3f7ce8d1	0.9879275
44	0x3f7dd8ec	0.9915912
45	0x3f806a43	1.0032429
46	0x3f7e71d8	0.9939246
47	0x3f81552e	1.010412
48	0x3f81efe7	1.0151337
49	0x3f82c76e	1.0217111
50	0x3f81644d	1.0108734
51	0x3f800bd8	1.0003614
52	0x3f80846e	1.0040414
53	0x3f825744	1.0182881
54	0x3f7fe102	0.9995271
55	0x3f838cda	1.027736
56	0x3f812f35	1.0092531
57	0x3f8146f3	1.0099777
58	0x3f80f910	1.0076008
59	0x3f8056e2	1.0026515
60	0x3f7d9303	0.9905245
61	0x3f81cd61	1.0140802
62	0x3f847528	1.0348253
63	0x3f7edca0	0.995554
64	0x3f81e1da	1.014705
65	0x3f8075de	1.003597
66	0x3f81d1c3	1.0142139
67	0x3f80c6c9	1.0060664
68	0x3f7eb6c3	0.9949762
69	0x3f7ee124	0.9956229
70	0x3f801a9b	1.0008119
71	0x3f8156fb	1.0104669
72	0x3f811026	1.0083053
73	0x3f80f4f0	1.0074749
74	0x3f806f33	1.0033935
75	0x3f81cdc1	1.0140916
76	0x3f821f1e	1.0165746
77	0x3f7fd726	0.99937665
78	0x3f7d41ed	0.9892872
79	0x3f83748d	1.0269943
80	0x3f7de278	0.9917369
81	0x3f7d7c07	0.99017376
82	0x3f7a51d2	0.977811
83	0x3f796148	0.97414064
84	0x3f7cccfd	0.9875029
85	0x3f7bc977	0.98354286
86	0x3f7a8bec	0.97869754
87	0x3f7e391f	0.9930591
88	0x3f7b2d13	0.9811565
89	0x3f7d73e9	0.9900499
90	0x3f7f7533	0.99788207
91	0x3f80f9da	1.0076249
92	0x3f7db577	0.9910502
93	0x3f806f75	1.0034014
94	0x3f8061a6	1.00298
95	0x3f7e4aed	0.9933308
96	0x3f7b1da7	0.9809212
97	0x3f7beb16	0.9840559
98	0x3f7952e1	0.9739209
99	0x3f7db945	0.99110824
100	0x3f7a812a	0.9785334
101	0x3f775eca	0.9662901
102	0x3f7d8396	0.9902891
103	0x3f7c1d31	0.9848204
104	0x3f7acc3f	0.97967905
105	0x3f7c8200	0.98635864
106	0x3f803ce0	1.0018578
107	0x3f8000e1	1.0000268
108	0x3f7eefa0	0.9958439
109	0x3f7c34fc	0.9851835
110	0x3f7cac1a	0.98700106
111	0x3f7eb9ac	0.9950206
112	0x3f807ff2	1.0039046
113	0x3f7be1f0	0.9839163
114	0x3f7c3e28	0.9853234
115	0x3f8021e2	1.001034
116	0x3f77c148	0.967793
117	0x3f74f827	0.9569115
118	0x3f817925	1.0115095
119	0x3f79a0b0	0.97510815
120	0x3f82744e	1.0191743
121	0x3f80b944	1.0056539
122	0x3f7d3d92	0.98922074
123	0x3f7d622e	0.98977935
124	0x3f7e0f62	0.9924222
125	0x3f800c77	1.0003804
126	0x3f7e7a71	0.9940558
127	0x3f819593	1.0123771
128	0x3f813bcd	1.0096375
129	0x3f7f5f9a	0.9975525
130	0x3f826372	1.0186598
131	0x3f85f14b	1.0464262
132	0x3f7ef0d2	0.9958621
133	0x3f80e7f1	1.0070783
134	0x3f836210	1.0264301
135	0x3f7e3a70	0.9930792
136	0x3f838f8c	1.0278182
137	0x3f83528d	1.0259567
138	0x3f7c9770	0.98668575
139	0x3f7cc2d7	0.987348
140	0x3f7b576e	0.9818028
141	0x3f83b20f	1.0288714
142	0x3f830fb7	1.0239171
143	0x3f80a18e	1.0049303
144	0x3f840c5b	1.031627
145	0x3f826108	1.0185862
146	0x3f82d666	1.0221679
147	0x3f857edb	1.0429338
148	0x3f827e23	1.0194744
149	0x3f826331	1.0186521
150	0x3f82fe59	1.0233871
151	0x3f81f009	1.0151378
152	0x3f83a0f8	1.0283499
153	0x3f82671f	1.018772
154	0x3f82a489	1.0206462
155	0x3f8238af	1.0173548
156	0x3f81f382	1.0152438
157	0x3f8294a8	1.0201616
158	0x3f8248cd	1.0178467
159	0x3f817e30	1.0116634
160	0x3f77a2e9	0.96732956
161	0x3f808605	1.00409
162	0x3f755b76	0.95842683
163	0x3f6d7ca7	0.9276833
164	0x3f7ef519	0.9959274
165	0x3f7bdd89	0.9838491
166	0x3f7a28b7	0.97718376
167	0x3f80eee0	1.0072899
168	0x3f7e16fa	0.9925381
169	0x3f7f9623	0.99838465
170	0x3f7a098c	0.9767082
171	0x3f7afcb2	0.9804183
172	0x3f7dd5de	0.9915446
173	0x3f80ea6c	1.007154
174	0x3f825271	1.0181409
175	0x3f77b893	0.9676601
176	0x3f807cc0	1.0038071
177	0x3f817e1c	1.011661
178	0x3f81f8af	1.0154017
179	0x3f7fffdc	0.99999785
180	0x3f81ca3d	1.0139843
181	0x3f82e762	1.0226862
182	0x3f7d7873	0.99011916
183	0x3f811cf9	1.0086967
184	0x3f7f29a7	0.9967293
185	0x3f7e47a0	0.9932804
186	0x3f8018c1	1.0007554
187	0x3f8034db	1.001613
188	0x3f80160a	1.0006726
189	0x3f7fd08e	0.99927604
190	0x3f7d269d	0.98887044
191	0x3f80762b	1.0036062
192	0x3f7e411a	0.9931809
193	0x3f800a4d	1.0003144
194	0x3f7ad4d4	0.97981
195	0x3f7609e8	0.96108866
196	0x3f7edae1	0.9955273
197	0x3f7ed3d8	0.99542
198	0x3f7e298e	0.9928216
199	0x3f7d3f96	0.9892515
200	0x3f7d16a0	0.9886265
201	0x3f80c3a9	1.0059711
202	0x3f7d4bef	0.9894399
203	0x3f7e875d	0.994253
204	0x3f7e0eb4	0.99241185
205	0x3f7e06ca	0.9922911
206	0x3f7d69e6	0.98989713
207	0x3f80d97f	1.0066375
208	0x3f7eabef	0.994811
209	0x3f7b25d3	0.9810459
210	0x3f791c69	0.97308975
211	0x3f7c5bae	0.9857739
212	0x3f7f0434	0.9961579
213	0x3f7f288d	0.9967125
214	0x3f7a2853	0.9771778
215	0x3f7da603	0.9908144
216	0x3f792f0f	0.9733743
217	0x3f7e88e4	0.9942763
218	0x3f79ad91	0.97530466
219	0x3f7a96e6	0.978865
220	0x3f7b18da	0.98084795
221	0x3f7ba525	0.98298866
222	0x3f7dc57e	0.99129474
223	0x3f7b7606	0.98226964
224	0x3f7e4fc9	0.9934049
225	0x3f80f3c2	1.0074389
226	0x3f796fb8	0.97436094
227	0x3f765264	0.9621947
228	0x3f7f6b65	0.99773246
229	0x3f78b67c	0.9715345
230	0x3f7e3283	0.99295825
231	0x3f7dccb7	0.99140495
232	0x3f7dd336	0.9915041
233	0x3f7fcefb	0.999252
234	0x3f80c53e	1.0060194
235	0x3f7fd3de	0.9993266
236	0x3f81f68a	1.0153363
237	0x3f79f0eb	0.97633237
238	0x3f7b4ac6	0.9816097
239	0x3f815e64	1.0106931
240	0x3f7cdb81	0.98772436
241	0x3f7dbf9d	0.99120504
242	0x3f7ea0ee	0.9946431
243	0x3f80f63c	1.0075145
244	0x3f7b2136	0.9809755
245	0x3f7aada2	0.9792119
246	0x3f7d6ca1	0.9899388
247	0x3f7fb09d	0.99878865
248	0x3f7cb0d5	0.98707324
249	0x3f7f2ac1	0.9967461
250	0x3f7f3de8	0.99703836
251	0x3f7ff090	0.99976444
252	0x3f819f4a	1.0126736
253	0x3f79bd61	0.97554594
254	0x3f7cd253	0.9875843
255	0x3f80c918	1.0061369
