weights/stockmixer_wo_time_L16_H64_M40_K4_E50_s2.pt (torch, 600218 bytes, 30 tensors)

indicator_mixing.0.W1 f4 [5, 64]
0.65438277 -0.60631925 -1.0087286 -1.0078412 0.6702645 0.37796968 0.5916858 -0.5746599
0.38076344 0.2930352 0.42079324 0.18461907 -0.6553254 1.8170277 -0.4115374 -0.10816892
-0.16235498 -2.0355935 -0.8291061 -0.82153404 -0.016343057 1.1656533 0.42606932 0.1941743
-2.1177368 -3.1774764 -1.3606583 0.54000264 -1.060504 -0.30526817 0.46746528 -0.30455875
1.5476907 -0.66116977 -0.58545524 -0.11356903 -0.7073946 -0.2782838 -0.3423288 -0.6226871
-0.33558935 -1.0297928 -1.4558872 0.25417882 0.3193436 0.46386573 1.3795862 0.8583441
-0.116487876 0.18328519 0.857111 -0.40407255 -0.80816054 1.4107561 -1.0685104 -1.9235618
0.38106117 0.19455476 -0.6916045 -0.11917377 -0.7580224 -0.04561098 1.2202361 0.18725121
0.17089772 -0.7023462 -1.8350086 -0.8095293 -0.37682775 0.61539406 -1.1850055 -1.5750651
0.26578784 -1.2342728 -2.0142953 0.091977224 -0.9656143 0.1835553 -0.4160793 -0.13890684
-1.8976055 0.41588458 -0.9756907 0.22012398 0.800635 -0.22682382 -0.08394391 1.5752598
-0.12764186 -0.9490648 -0.14783949 -0.9674791 -0.0058390074 -1.0711654 0.14047268 -0.4891861
2.0629666 -0.092121385 -1.0804305 0.115839176 -0.7256287 -0.637282 -1.407137 1.6413635
0.01126058 0.3789341 -0.046877604 0.4789277 1.4609569 -1.9800148 0.61004645 0.9753212
1.1829245 -0.875654 0.5349785 0.028223371 -0.87365824 -0.5388808 -0.07931854 0.5739852
0.056887336 -0.53753936 0.83633524 0.24802564 0.39810926 -0.33022827 -0.8096946 0.4106821
-1.8675507 0.27112797 -0.62503797 -0.25480548 0.5451849 0.65917 -0.698694 0.16907161
0.38164085 -2.4182236 0.5338764 -1.4469317 0.53848255 -0.45260826 -0.01563861 1.2281715
1.7692842 1.497217 0.18749472 1.855141 2.2036285 -0.6094695 -0.92080265 -1.7823404
1.8819057 -0.27606112 -1.3737398 -1.8617164 -0.71864444 0.7742553 2.0643601 0.8850862
-0.11495518 -1.3452847 1.0751842 0.37659937 -0.700059 0.7388737 0.58139133 -2.1629808
0.42519194 0.48285398 -0.14890969 2.5399218 0.17174469 -1.0195756 0.16831501 0.40367174
1.3826786 1.188809 0.9906959 -0.3561177 -1.569228 -0.88817924 0.6358816 1.0725651
-0.47162846 0.73194575 2.249152 0.26257065 -1.4483817 1.8609678 0.0058117514 0.5267313
-0.89617777 -1.2270619 0.6616783 0.5931011 -1.7360953 0.39159316 0.3508307 -0.16384977
0.34637442 1.5411466 1.6747675 1.1050831 0.29228187 -1.8994678 0.2554145 -0.10967715
1.19432 -1.1126324 -1.6808391 0.7703657 -1.066785 -0.6899671 0.39561513 0.7613413
-0.9605655 0.14018716 -1.4829001 0.6711043 -0.31232625 -0.05379143 0.32564443 -0.903121
-1.1863482 0.4724327 0.6039393 -0.58994955 1.6354378 -2.163099 2.2870283 1.0927058
0.56637025 0.253611 0.99428797 1.0552948 -0.674091 -0.2344866 0.69421875 -0.14053
2.4801998 -0.945503 2.394249 0.7801383 -0.8638282 -0.39227742 0.29228428 0.71718496
0.14998485 0.9067016 0.1831088 0.52057636 0.8263667 -0.728421 -0.23241667 0.30277342
00000000: a185 273f bd37 1bbf 051e 81bf f100 81bf
00000010: 7496 2b3f 3e85 c13e b878 173f e91c 13bf
00000020: 6df3 c23e b608 963e 3672 d73e c80c 3d3e
00000030: 68c3 27bf 5d94 e83f 08b5 d2be ab87 ddbd
00000040: 6240 26be 2a47 02c0 4c40 54bf 0e50 52bf
00000050: e0e1 85bc 2134 953f c225 da3e a1d5 463e
00000060: 0089 07c0 c65b 4bc0 0d2a aebf 9d3d 0a3f
00000070: 98be 87bf 1c4c 9cbe 9c57 ef3e 20ef 9bbe
00000080: bb1a c63f 6c42 29bf 65e0 15bf e196 e8bd
00000090: d017 35bf 377b 8ebe b845 afbe 6c68 1fbf
000000a0: 5ed2 abbe 40d0 83bf 835a babf ba23 823e
000000b0: 0181 a33e cf7f ed3e 4896 b03f 70bc 5b3f
000000c0: 3291 eebd 1daf 3b3e a06b 5b3f 99e2 cebe
000000d0: 9ce3 4ebf a893 b43f f3c4 88bf 4637 f6bf
000000e0: 731a c33e 5d39 473e fe0c 31bf 6111 f4bd
000000f0: c20d 42bf 94d2 3abd b230 9c3f c8be 3f3e
00000100: d0ff 2e3e f6cc 33bf 90e1 eabf 503d 4fbf
00000110: 91ef c0be 778a 1d3f 43ae 97bf bc9b c9bf
00000120: 5815 883e a7fc 9dbf 37ea 00c0 8e5e bc3d
00000130: 8032 77bf ecf5 3b3e 5908 d5be 983d 0ebe
00000140: bde4 f2bf d3ee d43e dec6 79bf 2e68 613e
00000150: 6af6 4c3f 8144 68be c9ea abbd 1da2 c93f
00000160: 8cb4 02be e9f5 72bf 3c63 17be b6ac 77bf
00000170: 2555 bfbb f31b 89bf 12d8 0f3e 9a76 fabe
00000180: a507 0440 23aa bcbd 8c4b 8abf 173d ed3d
00000190: cdc2 39bf ea24 23bf 111d b4bf 3318 d23f
000001a0: 4c7e 383c a603 c23e bb02 40bd 0336 f53e
000001b0: a300 bb3f 2071 fdbf 012c 1c3f a6ae 793f
000001c0: 126a 973f dc2a 60bf 5af4 083f b334 e73c
000001d0: 11a8 5fbf 18f4 09bf c271 a2bd b2f0 123f
000001e0: b202 693d 2e9c 09bf 111a 563f 6ffa 7d3e
000001f0: fad4 cb3e ae13 a9be 2548 4fbf ed44 d23e
00000200: e70b efbf 49d1 8a3e 7d02 20bf dd75 82be
00000210: 3d91 0b3f 5dbf 283f 9cdd 32bf 1c21 2d3e
00000220: 6e66 c33e 2dc4 1ac0 20ac 083f 0f35 b9bf
00000230: fed9 093f 45bc e7be 8b1c 80bc b934 9d3f
00000240: e877 e23f cfa4 bf3f 9efe 3f3e 4375 ed3f
00000250: 4008 0d40 3106 1cbf b9b9 6bbf bb23 e4bf
00000260: 49e2 f03f e257 8dbe b5d6 afbf b94c eebf
00000270: 15f9 37bf 9835 463f 7a1e 0440 0295 623f
00000280: 9f6d ebbd 4a32 acbf a39f 893f a2d1 c03e
00000290: 1137 33bf d426 3d3f 10d6 143f 476e 0ac0
000002a0: c2b2 d93e a338 f73e c87b 18be 148e 2240
000002b0: d7dd 2f3e 7481 82bf c55a 2c3e 10ae ce3e
000002c0: 9dfb b03f e52a 983f 3f9e 7d3f 0f55 b6be
000002d0: 77dc c8bf b75f 63bf 23c9 223f d049 893f
000002e0: 4979 f1be cc60 3b3f 1bf2 0f40 a96f 863e
000002f0: 9264 b9bf 3134 ee3f 8170 be3b ddd7 063f
00000300: e86b 65bf 5d10 9dbf c063 293f 79d5 173f
00000310: 5f38 debf e67e c83e 15a0 b33e 3cc8 27be
00000320: fd57 b13e 4b44 c53f c85e d63f 5d73 8d3f
00000330: f8a5 953e c321 f3bf b0c5 823e 6a9e e0bd
00000340: 7adf 983f bd6a 8ebf bc25 d7bf b036 453f
00000350: 698c 88bf afa1 30bf 118e ca3e 43e7 423f
00000360: 9fe7 75bf 398d 0f3e accf bdbf 7ecd 2b3f
00000370: 3ae9 9fbe 6754 5cbd deba a63e f032 67bf
00000380: 42da 97bf b3e2 f13e c49b 1a3f ef06 17bf
00000390: 0756 d13f 3770 0ac0 ac5e 1240 c9dd 8b3f
000003a0: a4fd 103f 4dd9 813e a889 7e3f e613 873f
000003b0: 3a91 2cbf 411d 70be 52b8 313f 19e7 0fbe
000003c0: 98bb 1e40 7c0c 72bf 603b 1940 25b7 473f
000003d0: d823 5dbf 96d8 c8be 49a6 953e 6f99 373f
000003e0: a195 193e 991d 683f e080 3b3e 7e44 053f
000003f0: c58c 533f cc79 3abf a3fe 6dbe 1e05 9b3e

indicator_mixing.0.W2 f4 [64, 5]
0.40457654 0.44826004 -0.9721688 0.7579505 0.0705663 1.6674142 0.022354402 -0.14722507
0.19906566 2.173211 1.2621807 2.372444 -0.2743399 0.40909174 0.12243335 -0.15639429
-0.53703946 -1.0974463 -0.0884391 -0.95563895 -0.15617988 0.29189917 -0.58079 -1.0502753
0.6583598 -1.5686511 0.41486147 -0.95354235 -0.7015216 0.21836999 2.0319536 -0.06359558
2.214226 -0.4932552 0.035730105 1.8625946 0.32956252 2.0828044 -1.3455573 0.83994347
-1.4390606 0.763156 -1.0302476 -0.38681716 1.0449889 -1.0506845 -0.7690163 0.6353187
0.61551285 1.443037 0.79916507 -0.31437546 -0.7223824 -0.44460478 -0.28857598 0.33429798
-2.0915241 -1.1676303 -0.77913505 -1.1219548 1.3705449 -0.062066767 0.7622335 -1.9980787
-0.9427444 1.416571 1.5769622 0.14943807 -0.09503657 0.09812677 -0.098016955 0.29123718
-0.20277527 -0.44382888 -0.057933804 -0.41518718 0.12012209 -0.5226985 -0.8188141 -1.3863636
0.9550903 1.3079194 1.2607925 -1.1475587 -1.1480836 -0.4803765 0.8538352 -0.3311026
-0.43900043 -0.95943743 1.684977 1.3514357 -0.8483433 0.19104613 -1.9806106 -0.8303119
-1.061319 -0.8241248 -1.1322913 1.1204263 -2.253306 0.29820332 0.14107278 0.29077178
0.43955985 0.24029632 0.35812864 1.0827879 -2.210955 0.82903963 0.81026083 -1.3928066
-1.2838132 -0.5377222 0.10875871 -1.9663856 1.4383318 0.6602519 -1.890721 1.2391188
0.10737452 -0.46836796 0.7547009 -0.9221166 0.9042121 -0.2769206 0.31592444 -0.085006125
-0.41766006 0.06244982 -1.320673 0.5162459 0.3375254 -0.8610682 0.8159272 0.56718814
-0.3429519 -0.31389785 -1.2659078 -0.100856036 -0.93359154 0.37292627 0.30469385 -0.97303015
-0.09699193 -0.8123334 0.7833758 0.1650856 0.20882258 0.115460366 0.95302194 1.1260649
-0.078871004 1.3299875 0.4376229 -1.4601786 -0.92056483 -0.40698656 -0.0049388562 -1.2393831
-0.3105159 0.8256235 0.2371765 2.661021 0.8964157 0.5992062 0.0355326 -0.3439882
-0.8738254 -0.10542277 1.4193096 -1.0989794 -0.6286083 -0.8140058 0.98024935 1.8774242
1.5290364 -0.54802376 -0.05520555 1.6708274 -1.1849706 1.5390519 -0.55470854 0.47013992
-0.046739526 -1.7285959 0.40867546 -1.215587 1.0327524 -1.547596 0.28549865 -0.44355682
-2.287863 -1.4690802 0.5193644 0.9195569 1.7657499 -0.3697278 -0.113936536 1.1332144
1.256584 -0.7522398 -1.3217499 0.046343442 0.8594556 1.1432792 -1.7002614 0.5444201
0.8303017 -0.49852252 -1.7783253 -0.9413901 -0.5152275 0.67463505 -1.843834 0.18619344
0.69241244 0.18365744 -0.22829103 0.17579447 0.8467024 0.60333186 0.87654465 -1.1349365
-0.99859834 -0.9451361 1.150827 -0.32111967 0.29173633 -0.14707902 -0.86149555 -0.7083114
0.69481355 -1.1991233 0.21622472 1.4002213 1.4490162 0.6370349 -0.25237265 2.5963786
-1.3476784 1.6913949 0.44042745 0.038897872 0.18252763 1.1712627 -1.8363259 0.7821319
0.2088995 1.6581211 0.32324046 0.9126655 0.4274194 -0.5201183 0.3531221 -1.4788054
00000000: a824 cf3e 5782 e53e 0ee0 78bf 0b09 423f
00000010: 1085 903d d46d d53f 9420 b73c 2bc2 16be
00000020: ded7 4b3e e415 0b40 238f a13f 1fd6 1740
00000030: 4876 8cbe 7974 d13e 56be fa3d d325 20be
00000040: 6b7b 09bf 1f79 8cbf 8f1f b5bd c1a4 74bf
00000050: 9eed 1fbe cf73 953e a7ae 14bf 6c6f 86bf
00000060: 458a 283f 8fc9 c8bf b968 d43e 5a1b 74bf
00000070: eb96 33bf 629c 5f3e 870b 0240 663e 82bd
00000080: e1b5 0d40 f28b fcbe bb59 123d 8069 ee3f
00000090: 6bbc a83e ab4c 0540 393b acbf 8906 573f
000000a0: 2333 b8bf 315e 433f 27df 83bf e60c c6be
000000b0: 32c2 853f d47c 86bf 41de 44bf 3fa4 223f
000000c0: 4092 1d3f 70b5 b83f 1596 4c3f d2f5 a0be
000000d0: 0eee 38bf 3da3 e3be 3bc0 93be 1b29 ab3e
000000e0: 88db 05c0 e974 95bf 6575 47bf 379c 8fbf
000000f0: 046e af3f b939 7ebd bc21 433f 0bc1 ffbf
00000100: b257 71bf 3352 b53f e6d9 c93f 4b06 193e
00000110: 89a2 c2bd b0f6 c83d 1dbd c8bd 0a1d 953e
00000120: 52a4 4fbe 8a3d e3be ff4b 6dbd 6a93 d4be
00000130: 9202 f63d 92cf 05bf cd9d 51bf 5d74 b1bf
00000140: cc80 743f e769 a73f a661 a13f 34e3 92bf
00000150: 67f4 92bf e9f3 f5be f294 5a3f 4886 a9be
00000160: aac4 e0be b19d 75bf 54ad d73f d8fb ac3f
00000170: 072d 59bf 99a1 433e a684 fdbf 528f 54bf
00000180: 4dd9 87bf d8f9 52bf ecee 90bf 216a 8f3f
00000190: 2a36 10c0 1bae 983e 6275 103e 0ae0 943e
000001a0: fd0d e13e 3d10 763e a35c b73e cb98 8a3f
000001b0: 4980 0dc0 f13b 543f 416d 4f3f 7d47 b2bf
000001c0: fe53 a4bf 29a8 09bf e3bc de3d 86b2 fbbf
000001d0: 421b b83f 4506 293f 2503 f2bf 729b 9e3f
000001e0: 2ce7 db3d edcd efbe 1434 413f d50f 6cbf
000001f0: 727a 673f 89c8 8dbe d9c0 a13e b117 aebd
00000200: 8ad7 d5be 62cb 7f3d d00b a9bf b128 043f
00000210: 21d0 ac3e f76e 5cbf 9be0 503f 3e33 113f
00000220: 6497 afbe 38b7 a0be 4409 a2bf 9c8d cebd
00000230: dbff 6ebf 31f0 be3e d500 9c3e 8118 79bf
00000240: b4a3 c6bd 15f5 4fbf 518b 483f 330c 293e
00000250: 96d5 553e 7c76 ec3d 3ff9 733f e522 903f
00000260: 1f87 a1bd 083d aa3f 1c10 e03e 22e7 babf
00000270: 23aa 6bbf 8b60 d0be 21d6 a1bb 1ba4 9ebf
00000280: f1fb 9ebe 105c 533f 65de 723e 2b4e 2a40
00000290: 807b 653f 9465 193f a28a 113d 391f b0be
000002a0: 05b3 5fbf e5e7 d7bd f0ab b53f 5bab 8cbf
000002b0: 79ec 20bf af62 50bf 9ff1 7a3f 704f f03f
000002c0: 77b7 c33f 494b 0cbf 371f 62bd acdd d53f
000002d0: 1ead 97bf a7ff c43f 6101 0ebf 2eb6 f03e
000002e0: f271 3fbd a142 ddbf e93d d13e 5b98 9bbf
000002f0: 3b31 843f a017 c6bf e12c 923e e119 e3be
00000300: 596c 12c0 d20a bcbf 11f5 043f 1568 6b3f
00000310: 1804 e23f f64c bdbe 8f57 e9bd 2b0d 913f
00000320: bfd7 a03f ca92 40bf 1a2f a9bf 9fd2 3d3d
00000330: 4805 5c3f f956 923f 2aa2 d9bf 1e5f 0b3f
00000340: a78e 543f 583e ffbe 2aa0 e3bf f1fe 70bf
00000350: f3e5 03bf e2b4 2c3f c102 ecbf 7ea9 3e3e
00000360: f141 313f b210 3c3e 20c5 69be 7703 343e
00000370: 7dc1 583f f573 1a3f 3b65 603f 9945 91bf
00000380: 24a4 7fbf 70f4 71bf 4d4e 933f cc69 a4be
00000390: 775e 953e e29b 16be f98a 5cbf e553 35bf
000003a0: 4ddf 313f df7c 99bf 036a 5d3e 743a b33f
000003b0: 5d79 b93f b814 233f fd36 81be 112b 2640
000003c0: ba80 acbf a17f d83f b57f e13e 6053 1f3d
000003d0: 86e8 3a3e f0eb 953f ba0c ebbf cc39 483f
000003e0: c0e9 553e 503d d43f c67f a53e 72a4 693f
000003f0: b7d6 da3e 7926 05bf 6bcc b43e 7f49 bdbf

indicator_mixing.0.ln.weight f4 [16, 5]
1.0047271 0.9905123 0.98627347 0.9944608 0.983365 0.9974962 1.0017111 0.97803086
1.0103005 0.9684009 1.0385085 1.0162357 1.0182551 0.9876176 1.0410926 0.97949064
0.9878902 0.98146194 1.0092248 0.9549243 1.0333264 1.0128334 1.035712 0.9864805
1.0701983 0.96709347 1.003229 0.98355865 1.0108538 0.95662695 1.0002558 1.0481236
1.0651568 0.9933355 1.0895422 1.0089746 1.0312041 1.0216919 0.99939144 1.0392541
0.9986888 0.9253258 0.99566215 1.0189661 0.9343124 0.88187814 1.0085007 1.0473363
1.2324464 1.0133703 0.9908078 1.0063885 0.99955153 1.0104342 0.983827 0.99181193
0.982998 0.994193 1.0031415 0.9715337 1.0146697 1.0264877 1.0053533 0.9880738
1.0182576 0.97415835 0.9958415 1.0002488 0.9979298 0.9884258 0.96941596 0.9795974
0.9944753 0.99965703 0.99306107 0.983708 1.0024557 1.0001944 0.9954869 0.99557143
00000000: e69a 803f 3792 7d3f 6b7c 7c3f fc94 7e3f
00000010: cfbd 7b3f e95b 7f3f 1238 803f 3b60 7a3f
00000020: 8751 813f 1fe9 773f d9ed 843f 0314 823f
00000030: 2f56 823f 82d4 7c3f 8642 853f e6bf 7a3f
00000040: 5fe6 7c3f 1741 7b3f 472e 813f eb75 743f
00000050: 0a44 843f 86a4 813f 3692 843f fc89 7c3f
00000060: 42fc 883f 7093 773f cf69 803f 80ca 7b3f
00000070: a863 813f 81e5 743f 6208 803f ea28 863f
00000080: 0f57 883f 3c4b 7e3f 1e76 8b3f 1426 813f
00000090: 7ffe 833f cdc6 823f 1ed8 7f3f 4706 853f
000000a0: 12aa 7f3f 27e2 6c3f b7e3 7e3f 7b6d 823f
000000b0: 192f 6f3f c4c2 613f 8d16 813f 1e0f 863f
000000c0: cec0 9d3f 1eb6 813f 94a5 7d3f 57d1 803f
000000d0: 9ce2 7f3f e855 813f 16dc 7b3f 63e7 7d3f
000000e0: c2a5 7b3f 6f83 7e3f f166 803f 6fb6 783f
000000f0: b2e0 813f f363 833f 6baf 803f 68f2 7c3f
00000100: 4456 823f 7162 793f 78ef 7e3f 2708 803f
00000110: 5478 7f3f 7909 7d3f a52b 783f e5c6 7a3f
00000120: ef95 7e3f 86e9 7f3f 4039 7e3f 4ad4 7b3f
00000130: 7850 803f 5f06 803f 3bd8 7e3f c5dd 7e3f

indicator_mixing.0.ln.bias f4 [16, 5]
0.004562489 -0.00065118365 -0.0054616956 -0.003313809 0.0107825715 -0.006930809 -0.011136763 -0.012983956
0.009632139 -0.004086857 0.018866155 -0.018958973 0.042972088 -0.016181605 0.039005913 -0.013652552
0.010789576 -0.02305872 0.011424431 -0.03292304 0.020777535 -0.016302688 0.046202917 -0.016062811
0.04459915 -0.021128094 -0.010357004 -0.018887434 0.0144522535 -0.0212943 0.0027364765 -0.056843888
0.052492607 0.0038581402 0.052426342 0.0071366695 -0.03039681 0.031600043 -0.0016159787 0.018022584
0.020358082 0.07983263 -0.0005458813 0.016748954 -0.06683484 -0.12692639 -0.00977307 0.047394887
0.18352108 -0.103256814 -0.008629145 -0.004677124 0.004357418 0.009511056 -0.0051018256 -0.011402368
0.01350809 -0.013058929 0.0039517647 -0.031181892 0.012369831 -0.0221541 0.019725325 -0.011193899
0.030984173 -0.0076242015 -0.012805626 -0.010410874 0.00304338 -0.0067759575 -0.0100627085 -0.01661732
-0.01312669 0.0024963946 -0.017954698 -0.0020494359 -0.024418192 -0.003076565 0.00080772745 -0.0021713357
00000000: ef80 953b 32b4 2aba 06f8 b2bb 7d2c 59bb
00000010: 62a9 303c d71b e3bb f876 36bc a9ba 54bc
00000020: 1ed0 1d3c 0beb 85bb 328d 9a3c d94f 9bbc
00000030: 8003 303d 498f 84bc aac4 1f3d f4ae 5fbc
00000040: c3c6 303c a4e5 bcbc 892d 3b3c 4fda 06bd
00000050: a635 aa3c 378d 85bc 453f 3d3d 2896 83bc
00000060: 99ad 363d d314 adbc 6cb0 29bc d2b9 9abc
00000070: 25c9 6c3c 6271 aebc 7556 333b 23d5 68bd
00000080: 7d02 573d dad8 7c3b 01bd 563d b9da e93b
00000090: bb02 f9bc 0c6f 013d 3fcf d3ba 19a4 933c
000000a0: fec5 a63c 4a7f a33d 7919 0fba 1a35 893c
000000b0: b4e0 88bd fef8 01be 3a1f 20bc 2421 423d
000000c0: f3ec 3b3e 4f78 d3bd 4261 0dbc 8f42 99bb
000000d0: acc8 8e3b 43d4 1b3c 372d a7bb ffd0 3abc
000000e0: 0951 5d3c 1ef5 55bc ce7d 813b 2b71 ffbc
000000f0: d5aa 4a3c 847c b5bc 0197 a13c 9e66 37bc
00000100: 85d2 fd3c 70d4 f9bb b0ce 51bc 5f92 2abc
00000110: 7273 473b da08 debb 0fde 24bc 0c21 88bc
00000120: 5411 57bc 8d9a 233b bb15 93bc d44f 06bb
00000130: a908 c8bc 32a0 49bb acbd 533a f84c 0ebb

indicator_mixing.1.W1 f4 [5, 64]
-0.15269907 0.41087735 0.37441272 -1.0383544 1.4166301 -0.10160291 1.4860215 1.2734947
-0.73528785 -0.54491055 -0.21686193 -0.5707745 -1.6453998 1.5215484 -0.009438979 -0.5090669
-0.6440813 -0.7767613 -0.34827995 -2.3499646 0.4584694 0.13570864 -0.23912875 -1.3882761
-1.4437441 -0.378347 -1.4268082 0.48810846 1.191944 -0.14869611 -0.9437101 0.6833413
0.46001032 -0.25617042 -0.7064003 -1.0888228 -0.9191923 0.018218217 0.5364059 0.73630905
1.5181843 -1.0354034 1.1553655 -0.32239693 0.7964165 1.117806 1.8383938 -0.7920837
-1.4695004 1.6223946 -0.13243532 1.2179705 0.77801627 -0.42974982 0.30098984 0.34965256
-0.46215805 -0.08171372 -1.0416162 1.3624568 -1.8803893 0.715642 1.0546887 0.26021388
-0.0008001633 -0.5814941 1.134674 0.25156236 0.579578 -2.4109328 1.1161317 0.70828545
1.4746231 -1.5066308 1.8812728 1.2665167 -2.0542767 -0.4860324 -0.6390611 1.3541495
-0.10163067 -1.3438282 -0.6097378 -0.6527372 1.9685076 0.18348147 -0.37841725 -0.18691088
-0.7446309 0.36979902 0.8620983 -0.68303865 0.018108265 -0.9384247 -0.5352843 -0.095126264
0.24839588 0.12143555 0.7524197 -0.23362875 -0.33000255 1.1147752 -0.26785925 -1.1172472
-1.7857299 -0.16740568 -0.10373479 0.7944135 0.0012441926 -0.44549808 -1.3527936 0.49942607
0.67905515 0.47542998 -0.20619532 -1.3066406 -0.53962076 -0.33048835 -1.6445457 -0.9159596
1.6430151 -1.5980462 0.5923268 -0.6682864 -0.63011855 1.0731659 1.4676527 1.6813513
-0.82672757 -0.3266093 1.1944076 -0.8551652 0.3551727 -1.4000797 -0.85439104 -0.33196953
-1.6479714 0.85966057 3.635718 1.0721225 0.99966264 -0.52034193 1.9134222 1.4083983
-0.38430613 -0.72806895 -0.45603928 -0.6745078 0.069397405 0.096063055 -0.9231708 0.7338509
-0.17953828 -0.14135382 0.003563636 0.061925855 -1.4719867 -0.20340373 1.0180821 0.28338006
0.5604823 0.4001264 -0.36702314 0.6129082 -0.842692 -0.7036096 0.813542 -0.034748357
-1.0281627 1.7111195 -0.40622705 -1.0396394 -0.5437879 1.40011 -0.37863427 -0.98240966
-1.4730213 0.98780316 -0.20580441 0.33476192 2.4275012 0.079588786 -0.0714152 -0.8857073
0.78825974 -0.60978335 -1.1059675 -2.6656885 -1.1579393 0.29203662 -0.34908655 0.3638258
-1.0477535 -1.1291106 -0.28248483 -0.27817112 -1.1347636 0.86654526 -1.2903203 -1.878219
-0.28474933 0.89171034 1.4700389 0.7821482 0.328879 -0.09855901 0.27602375 0.13723168
0.99033386 0.8220963 0.5555925 -1.0008191 -0.16105479 1.4698142 2.1257513 0.757566
-0.2401824 0.14728074 -0.27597052 1.4509633 0.012097669 0.92980236 -0.035525817 -0.7253656
-0.37106827 -0.052240867 0.053334642 -0.87496203 -0.18618324 1.2354252 -0.79206777 -0.6383605
-0.9891841 -0.21520826 -0.050713625 0.17930338 -0.54146665 -0.082179636 -0.08837913 -2.0872786
-1.3511426 0.871167 -1.4925387 -0.05843349 0.77897376 0.19284922 -1.1702428 0.39910758
-0.7337742 -1.1330976 0.58654386 0.43379185 0.6747433 0.5676274 -1.0382154 -2.1695888
00000000: 255d 1cbe 845e d23e 06b3 bf3e cce8 84bf
00000010: 2354 b53f 3015 d0bd f435 be3f e001 a33f
00000020: d33b 3cbf 427f 0bbf 0e11 5ebe 471e 12bf
00000030: 769c d2bf 19c2 c23f f3a5 1abc 3552 02bf
00000040: 83e2 24bf d4d9 46bf c051 b2be d265 16c0
00000050: 80bc ea3e 35f7 0a3e 2bde 74be 08b3 b1bf
00000060: 9bcc b8bf b3b6 c1be a7a1 b6bf 5ae9 f93e
00000070: 9f91 983f cb43 18be fc96 71bf 75ef 2e3f
00000080: 7986 eb3e c528 83be a6d6 34bf 8c5e 8bbf
00000090: 3050 6bbf 5f3e 953c e651 093f c07e 3c3f
000000a0: dd53 c23f 1988 84bf 04e3 933f 3611 a5be
000000b0: f4e1 4b3f 4414 8f3f 7d50 eb3f ffc5 4abf
000000c0: 9718 bcbf a0aa cf3f 209d 07be 75e6 9b3f
000000d0: 132c 473f 2b08 dcbe 571b 9a3e a905 b33e
000000e0: fb9f ecbe 8659 a7bd ae53 85bf fc64 ae3f
000000f0: 99b0 f0bf 5034 373f 0a00 873f c13a 853e
00000100: 0dc2 51ba ccdc 14bf ff3c 913f c8cc 803e
00000110: 395f 143f b94c 1ac0 67dd 8e3f 3252 353f
00000120: 73c0 bc3f 47d9 c0bf 8ccd f03f 381d a23f
00000130: 4579 03c0 3dd9 f8be 8299 23bf c554 ad3f
00000140: be23 d0bd 9002 acbf c717 1cbf c919 27bf
00000150: 0ff8 fb3f 91e2 3b3e e8bf c1be 9165 3fbe
00000160: 21a0 3ebf 4c56 bd3e 79b2 5c3f 9fdb 2ebf
00000170: c957 943c 9a3c 70bf 6408 09bf 8fd1 c2bd
00000180: 7d5b 7e3e 34b3 f83d 949e 403f 603c 6fbe
00000190: 18f6 a8be f4b0 8e3f d924 89be f501 8fbf
000001a0: cc92 e4bf 656c 2bbe e872 d4bd af5e 4b3f
000001b0: 2d14 a33a 5318 e4be 5728 adbf c6b4 ff3e
000001c0: 8fd6 2d3f 8f6b f33e de24 53be 0040 a7bf
000001d0: 9624 0abf c535 a9be 7980 d2bf 547c 6abf
000001e0: 524e d23f c78c ccbf bba2 173f d114 2bbf
000001f0: 734f 21bf 805d 893f 0bdc bb3f 8536 d73f
00000200: 6ba4 53bf 5639 a7be 59e2 983f 1bec 5abf
00000210: 32d9 b53e d035 b3bf 5fb9 5abf e9f7 a9be
00000220: baf0 d2bf b712 5c3f 9baf 6840 4f3b 893f
00000230: e4e9 7f3f 2135 05bf 05eb f43f 6546 b43f
00000240: c6c3 c4be ba62 3abf fb7d e9be 8bac 2cbf
00000250: 3a20 8e3d b5bc c43d ec54 6cbf a7dd 3b3f
00000260: e2d8 37be 0ebf 10be e48b 693b f7a5 7d3d
00000270: 0f6a bcbf 1149 50be 8450 823f 3117 913e
00000280: c57b 0f3f 5edd cc3e 75ea bbbe 8de7 1c3f
00000290: aaba 57bf c21f 34bf 4a44 503f 4b54 0ebd
000002a0: d69a 83bf f705 db3f fefc cfbe e712 85bf
000002b0: af35 0bbf ce36 b33f 5adc c1be 337f 7bbf
000002c0: f68b bcbf abe0 7c3f 64be 52be ea65 ab3e
000002d0: 2e5c 1b40 72ff a23d 2242 92bd b7bd 62bf
000002e0: 64cb 493f c31a 1cbf 5890 8dbf a49a 2ac0
000002f0: 5b37 94bf d385 953e 79bb b2be 6047 ba3e
00000300: c91c 86bf b286 90bf daa1 90be 726c 8ebe
00000310: ef3f 91bf e9d5 5d3f 3729 a5bf 7b69 f0bf
00000320: aaca 91be 2147 643f 3c2a bc3f dd3a 483f
00000330: d462 a83e 4ed9 c9bd fc52 8d3e 7686 0c3e
00000340: 8586 7d3f e774 523f 4f3b 0e3f d71a 80bf
00000350: 8ceb 24be df22 bc3f 4f0c 0840 d8ef 413f
00000360: 60f2 75be c3d0 163e 024c 8dbe 2ab9 b93f
00000370: 4d35 463c 8707 6e3f 8583 11bd 8fb1 39bf
00000380: a9fc bdbe 85fa 55bd 6d75 5a3d 83fd 5fbf
00000390: d2a6 3ebe 6a22 9e3f f4c4 4abf 986b 23bf
000003a0: 2b3b 7dbf 8e5f 5cbe 17b9 4fbd 4e9b 373e
000003b0: 8f9d 0abf cc4d a8bd 1e00 b5bd f995 05c0
000003c0: 3ef2 acbf cd04 5f3f 820b bfbf f557 6fbd
000003d0: d36a 473f 447a 453e 84ca 95bf d457 cc3e
000003e0: a0d8 3bbf 5809 91bf bd27 163f f719 de3e
000003f0: fabb 2c3f 0750 113f 3ee4 84bf 8bda 0ac0

indicator_mixing.1.W2 f4 [64, 5]
1.2585068 0.6790513 -0.2385726 1.3032402 -0.9873526 -0.8917486 -1.078957 0.15503657
0.80228835 -1.1628761 0.13894424 -1.4986001 0.064909905 -1.4666227 -0.96894145 -0.4318491
-0.33345407 0.6169838 0.6038597 0.4579855 0.23284417 -2.1115565 -1.9489025 -0.41776273
-0.1276693 -1.1434007 -0.9809758 -1.9331878 -0.46339893 -1.2002546 -1.1942465 -1.1060323
-0.1317074 0.7105066 1.5608582 1.7059574 1.3614796 -0.678658 0.2902431 0.061220676
1.472452 -1.3400403 -1.3725033 -0.63244575 0.37855703 0.89399636 0.9047874 -0.7275376
-1.2034645 1.4762018 1.0079662 0.113257006 -1.4122499 -0.19361511 -0.10723051 -1.4420303
-1.9648149 -1.6597944 -0.20974612 -0.79364276 -0.5492182 0.3391861 0.43469006 1.5174408
-0.6466209 0.33294222 1.0602245 0.88555974 -1.0469576 -0.060339395 2.9658394 0.7912455
-0.17264986 0.5216079 -0.027009683 0.46625066 0.18127346 -0.16153422 0.43668383 0.037637696
0.48602325 0.7608727 -0.28794605 1.5783385 -0.15599298 2.1643648 -0.56048167 0.7757007
0.6703618 1.1682045 0.054840673 -0.13910924 -1.1476624 -0.93985623 1.5413704 0.18390429
-0.4202759 -1.6987807 -1.4196707 -0.04839524 0.71049315 1.3571252 -1.0153546 -1.128471
-0.14393342 -0.12218231 0.89501965 -0.51377714 -0.65219194 -0.04698377 -0.11958648 0.83457243
-2.4227898 2.8721228 0.2808583 -0.32085985 -1.2512556 -0.6310227 0.32906795 1.6441163
-0.28365645 0.39437047 -0.20906353 -2.504532 -0.03443845 0.76796544 -1.110792 0.21806139
1.5999265 -1.3702894 -0.9785773 1.1117897 1.9003764 1.4672594 -1.043392 -1.3592757
-0.83669144 -0.18573745 -0.64655805 -0.29023638 -1.9626102 0.11494818 0.7945189 -1.8176271
1.0407536 0.6325357 -0.5541272 -0.43826357 1.737175 0.12752436 -0.05024961 -1.1014297
-0.11255109 0.95841086 -1.007523 1.3109483 1.4257716 0.9118733 -0.92552185 0.34934005
0.39103103 0.42588136 0.89616567 0.6673377 0.0016256028 -1.0682591 -0.1568886 1.0484042
-0.290551 0.8137839 -0.04926557 0.39488164 -1.8788532 1.0287174 0.52608633 1.3796849
0.31607613 -0.39470613 -0.73084074 0.65124166 2.030109 -1.190457 0.04586859 0.74940103
-0.107066475 0.3972853 1.1544324 -1.8693731 -0.117524385 -2.6580303 -0.83417654 -0.83062154
-0.7599057 -1.1607312 -0.1811565 -0.26819143 0.7131759 1.528368 0.55482894 -1.7557209
0.81100327 -0.025534907 0.6832842 1.4223737 0.13313684 0.8096079 0.3318662 -0.25164318
0.5318466 0.8372543 0.99238235 -0.20558499 0.311363 1.4119029 -0.35488105 -0.67403656
1.2424963 1.620994 -2.168385 -0.68796194 0.99643546 -0.76758873 1.6943865 0.73793936
0.36209238 0.027762646 0.25614977 -1.331475 0.70224476 -1.8788178 0.71444273 0.529389
0.87287766 1.334595 -0.6287424 -0.84707636 -0.033950433 -1.6674224 0.8062753 -2.1443317
-0.90915644 0.532881 -0.42726314 -0.009763471 0.95106775 -0.8111254 0.8934019 -1.4204612
-0.59009296 -0.61904174 0.93708813 1.5848885 0.11301357 -0.022377964 0.31822196 0.37274534
00000000: c016 a13f 4ed6 2d3f 604c 74be 93d0 a63f
00000010: 24c3 7cbf a349 64bf 431b 8abf e8c1 1e3e
00000020: c562 4d3f 20d9 94bf 6647 0e3e 21d2 bfbf
00000030: 7cef 843d 4bba bbbf 8c0c 78bf 531b ddbe
00000040: 7eba aabe a6f2 1d3f 8d96 1a3f 137d ea3e
00000050: b46e 6e3e be23 07c0 a375 f9bf ffe4 d5be
00000060: bebb 02be f45a 92bf 3b21 7bbf b372 f7bf
00000070: a042 edbe f1a1 99bf 12dd 98bf 7792 8dbf
00000080: 4ede 06be c3e3 353f 34ca c73f d05c da3f
00000090: f744 ae3f 88bc 2dbf be9a 943e 88c2 7a3d
000000a0: 4f79 bc3f 7186 abbf 30ae afbf f7e7 21bf
000000b0: 3ad2 c13e f2dc 643f 26a0 673f e73f 3abf
000000c0: 200b 9abf 2ef4 bc3f 0905 813f 4af3 e73d
000000d0: 9bc4 b4bf 0a43 46be ab9b dbbd 7394 b8bf
000000e0: 0e7f fbbf 2574 d4bf b0c7 56be 2c2c 4bbf
000000f0: 9099 0cbf cda9 ad3e b28f de3e 803b c23f
00000100: f388 25bf 6777 aa3e 70b5 873f 0bb4 623f
00000110: b502 86bf 7126 77bd 50d0 3d40 118f 4a3f
00000120: 20cb 30be 1888 053f 6943 ddbc 68b8 ee3e
00000130: c09f 393e 3a69 25be 0695 df3e fc29 1a3d
00000140: 0ad8 f83e 8ec8 423f aa6d 93be ff06 ca3f
00000150: a0bc 1fbe f484 0a40 ba7b 0fbf 5294 463f
00000160: d59c 2b3f ba87 953f 9da0 603d a772 0ebe
00000170: 9ae6 92bf 6b9a 70bf a04b c53f 6851 3c3e
00000180: 672e d7be a571 d9bf c5b7 b5bf 163a 46bd
00000190: e1e2 353f 47b6 ad3f 24f7 81bf bd71 90bf
000001a0: 4863 13be b83a fabd 0220 653f e686 03bf
000001b0: 0df6 26bf 0e72 40bd c2e9 f4bd 8aa6 553f
000001c0: fd0e 1bc0 dcd0 3740 a9cc 8f3e be47 a4be
000001d0: 2529 a0bf b48a 21bf 987b a83e 6772 d23f
000001e0: 6b3b 91be edea c93e c014 56be 414a 20c0
000001f0: 550f 0dbd 6299 443f 6f2e 8ebf 7c4b 5f3e
00000200: 64ca cc3f a565 afbf 0b84 7abf 204f 8e3f
00000210: 893f f33f 28cf bb3f de8d 85bf bffc adbf
00000220: 6931 56bf f531 3ebe d484 25bf dd99 94be
00000230: d036 fbbf f469 eb3d 9765 4b3f 01a8 e8bf
00000240: 6a37 853f dced 213f 48db 0dbf 1564 e0be
00000250: c05b de3f bf95 023e 89d2 4dbd a6fb 8cbf
00000260: 3081 e6bd 6a5a 753f 83f6 80bf 27cd a73f
00000270: af7f b63f 8770 693f 00ef 6cbf b3dc b23e
00000280: 3835 c83e 1f0d da3e 1d6b 653f a5d6 2a3f
00000290: 2e12 d53a b7bc 88bf 68a7 20be 1c32 863f
000002a0: 1ac3 94be 2454 503f b2ca 49bd ed2d ca3e
000002b0: 437e f0bf 03ad 833f 98ad 063f 8499 b03f
000002c0: bbd4 a13e ec16 cabe 6118 3bbf c6b7 263f
000002d0: 4eed 0140 e560 98bf b4e0 3b3d bfd8 3f3f
000002e0: ab45 dbbd fb68 cb3e 71c4 933f 9e47 efbf
000002f0: a0b0 f0bd 2b1d 2ac0 988c 55bf 9da3 54bf
00000300: 2e89 42bf d792 94bf 1781 39be 6350 89be
00000310: b292 363f 90a1 c33f 4509 0e3f 76bb e0bf
00000320: e99d 4f3f 952e d1bc b7eb 2e3f 5710 b63f
00000330: 0655 083e 7742 4f3f 5eea a93e 60d7 80be
00000340: 1927 083f 4c56 563f c50c 7e3f df84 52be
00000350: f96a 9f3e 3cb9 b43f f8b2 b5be a98d 2cbf
00000360: 1e0a 9f3f bb7c cf3f d2c6 0ac0 461e 30bf
00000370: 6516 7f3f b280 44bf a8e1 d83f 98e9 3c3f
00000380: 2c64 b93e 7d6e e33c 1026 833e c66d aabf
00000390: 50c6 333f 1a7d f0bf b8e5 363f 0a86 073f
000003a0: e974 5f3f 02d4 aa3f 43f5 20bf ffd9 58bf
000003b0: 9c0f 0bbd 196e d5bf 0f68 4e3f bb3c 09c0
000003c0: 7abe 68bf e46a 083f 3cc2 dabe f7f6 1fbc
000003d0: 2d79 733f eaa5 4fbf fdb5 643f acd1 b5bf
000003e0: 5510 17bf 8579 1ebf 02e5 6f3f a0dd ca3f
000003f0: a973 e73d fe51 b7bc fded a23e 7ad8 be3e

indicator_mixing.1.ln.weight f4 [8, 5]
0.97462094 0.9925912 0.9481984 0.9954588 1.006384 1.0136735 1.0132589 0.9518894
1.0273973 1.0096323 0.8972399 1.0093008 1.1759021 1.0108088 0.9577198 0.95989317
0.9866187 1.0445421 0.9795755 0.9951328 1.0043268 0.9923045 0.9651418 1.0039937
1.0027084 0.87028855 1.0201178 1.2435902 1.2854768 0.95092446 1.0020113 0.9792713
1.0277615 1.0069934 1.0082738 1.0161018 0.9978628 0.85552794 1.0460212 1.0118613
00000000: c280 793f 751a 7e3f 21bd 723f 63d6 7e3f
00000010: 31d1 803f 0ec0 813f 78b2 813f 06af 733f
00000020: c181 833f a23b 813f 84b1 653f c530 813f
00000030: f683 963f 2f62 813f 202d 753f 8fbb 753f
00000040: 0b93 7c3f 8eb3 853f 76c5 7a3f 06c1 7e3f
00000050: c88d 803f ab07 7e3f 8813 773f de82 803f
00000060: c058 803f 3bcb 5e3f 3893 823f f72d 9f3f
00000070: 818a a43f c96f 733f e841 803f 86b1 7a3f
00000080: b08d 833f 29e5 803f 1e0f 813f a00f 823f
00000090: f073 7f3f e103 5b3f 06e4 853f ac84 813f

indicator_mixing.1.ln.bias f4 [8, 5]
-0.008242568 -0.0015907354 -0.002424531 -0.019585362 -0.008098706 -0.0066401185 0.021191142 0.027812073
-0.064325035 -0.002270169 0.013546231 0.0021069418 -0.032030236 0.21855429 0.037902813 -0.0005049835
-0.013090679 -0.01831468 0.018966863 0.0063858866 -0.0040094573 -0.005812779 -0.0044712806 -0.039954495
-0.01703339 0.046829294 0.016759025 0.005575727 0.09589614 0.049279302 -0.0087299915 -0.013812662
-0.023814894 0.047136545 -0.012253543 -0.011719168 -0.004897657 0.015185141 -0.14100498 -0.020351868
00000000: d60b 07bc 3980 d0ba e1e4 1ebb 7b71 a0bc
00000010: 6fb0 04bc 5a95 d9bb 0c99 ad3c 25d6 e33c
00000020: d8bc 83bd 1ec7 14bb 03f1 5d3c 9e14 0a3b
00000030: 2332 03bd b2cc 5f3e fb3f 1b3d de60 04ba
00000040: 4a7a 56bc ab08 96bc 6560 9b3c b340 d13b
00000050: c461 83bb 2079 bebb d283 92bb 53a7 23bd
00000060: 9c89 8bbc 13d0 3f3d 394a 893c 97b4 b63b
00000070: 3265 c43d 18d9 493d 3d08 0fbc 814e 62bc
00000080: 7417 c3bc 4012 413d 16c3 48bc c101 40bc
00000090: 867c a0bb 19cb 783c 9c63 10be f6b8 a6bc

indicator_mixing.2.W1 f4 [5, 64]
1.1021847 -0.2073857 1.1897527 -2.1537466 -1.2542839 -1.8994726 1.0524049 -0.10645561
-1.4471729 -0.07956125 0.5484834 -0.18767215 0.68584067 -1.5008872 0.55129504 0.19427446
0.16473271 0.21296808 -1.0384572 -0.032167803 -1.3944702 0.17349406 2.410453 1.153315
1.4404428 0.81597656 -1.9454249 0.4661178 0.29783902 0.43339354 1.7436284 0.6162507
-0.51935303 -0.5172181 -0.06556425 -0.54028386 0.59011585 0.23571268 1.0718166 2.2173462
0.71709216 -1.1652341 0.9006801 1.3164883 1.3737339 0.087970674 -0.6235221 -0.045323707
0.081812605 1.523413 0.47819468 0.50331503 0.7347223 0.46091533 0.1355118 -0.3699852
2.7157967 2.3041635 0.16683646 -0.47856668 1.5000616 -2.000741 -1.3069704 0.24991892
0.628307 1.5771545 -0.78273416 -0.6444765 0.81248635 1.6153735 0.7054257 -0.4744461
0.9240845 -0.103652805 1.4140792 -0.550073 -0.45573816 0.88309366 1.3311135 -1.4102575
1.8763078 -0.13250968 -1.276291 -1.2272426 -0.63634855 -0.29507992 1.1935585 -0.53843004
-0.7067955 -0.78253496 0.7591971 0.75219357 0.33233023 1.9644074 0.65724844 -0.9927098
-0.52772504 1.5512278 2.474208 0.5669622 -0.54865783 -0.7592626 -0.27344537 0.52659327
-1.8590215 0.62114 0.90055555 -0.7495975 0.5625951 1.6197968 0.038797285 0.938457
0.087944865 -1.9452595 -1.4881968 0.71752685 -0.15554352 0.03420608 0.7172336 1.1312853
-0.77228284 -0.81127334 0.49681327 1.5011431 1.4925964 -0.18137787 0.5275692 1.4314867
1.8793185 -0.98459506 -0.3656592 0.44151676 1.2347813 1.5498915 -0.90239793 0.31107664
0.7314284 0.97626376 1.9430449 0.47771832 -0.8172386 1.2086785 0.519032 0.17553927
1.3801998 -0.52731264 -0.02868461 -0.9801808 -1.6173985 -0.4100819 0.94816554 1.0496062
0.7167075 -0.4709457 2.0859792 -0.19008476 -0.06745892 0.40650973 -0.26110995 0.6841811
1.532887 -1.126572 -0.26208335 1.7091159 -1.6785517 0.47721726 1.0193337 -0.067295484
-1.3487805 -0.6061643 0.27019984 0.2750799 -2.7705114 -0.11185027 0.0851972 1.1220368
-0.9377764 -0.059372514 -0.8960534 -0.49336106 -0.044449326 2.5073931 -0.08121948 -0.7654761
-2.8223295 0.6115693 -2.1616914 -0.71043974 0.6817802 0.026045049 2.712861 0.47372144
0.48041746 0.21570444 -1.3645151 0.21724185 -0.7031751 -0.96833706 -0.1789713 1.3178678
-0.93876755 0.21247649 0.11448551 -0.6756954 0.5411933 0.021508684 -1.4039197 -0.9267273
-1.3895764 -2.1241484 -0.63929087 0.10564615 0.6338272 0.6339218 1.1300883 0.10810373
-0.1594971 -1.7977315 -0.052089106 -0.51100045 2.9339113 0.07157594 -1.0007156 0.29832906
-0.6113304 -0.6629736 0.04393249 0.92259616 -1.0571629 -1.1585528 -0.697658 1.084218
-0.6910429 0.32902902 0.29199982 0.15586835 -0.22829674 -1.0712651 -0.62076956 0.677922
0.47532025 -0.7982458 -1.0621003 0.49615845 0.8625536 -1.3917091 1.1999907 -0.4536508
-0.5639715 -1.4301201 -0.66785824 0.6400405 1.9398353 -0.057730958 -0.087379865 -1.2498987
00000000: 6314 8d3f eb5c 54be d149 983f fcd6 09c0
00000010: 608c a0bf eb21 f3bf 34b5 863f 6605 dabd
00000020: f63c b9bf 02f1 a2bd 6869 0c3f 212d 40be
00000030: 4193 2f3f 121d c0bf ac21 0d3f e2ef 463e
00000040: b1af 283e 4e14 5a3e 2aec 84bf 63c2 03bd
00000050: 007e b2bf 6da8 313e dd44 1a40 d39f 933f
00000060: 6e60 b83f d7e3 503f af03 f9bf fea6 ee3e
00000070: 5b7e 983e c2e5 dd3e 372f df3f 9bc2 1d3f
00000080: 52f4 04bf 6868 04bf 8d46 86bd 0b50 0abf
00000090: d511 173f aa5e 713e 4931 893f 00e9 0d40
000000a0: 5a93 373f 6426 95bf f992 663f b082 a83f
000000b0: 83d6 af3f f829 b43d 259f 1fbf 5aa5 39bd
000000c0: 5e8d a73d 32ff c23f efd5 f43e 41d9 003f
000000d0: c316 3c3f 18fd eb3e 9bc3 0a3e b36e bdbe
000000e0: 9dcf 2d40 6a77 1340 2dd7 2a3e b106 f5be
000000f0: 0502 c03f 240c 00c0 ce4a a7bf bfea 7f3e
00000100: bad8 203f 33e0 c93f 4461 48bf 69fc 24bf
00000110: 1bff 4f3f 8fc4 ce3f c796 343f 99ea f2be
00000120: cd90 6c3f ec47 d4bd 8c00 b53f 96d1 0cbf
00000130: 8356 e9be 6d12 623f ed61 aa3f 5183 b4bf
00000140: db2a f03f 9eb0 07be 815d a3bf 4916 9dbf
00000150: bde7 22bf b714 97be 86c6 983f 8dd6 09bf
00000160: 8df0 34bf 3654 48bf be5a 423f c28f 403f
00000170: 3027 aa3e b471 fb3f 6f41 283f 3b22 7ebf
00000180: fd18 07bf a28e c63f 6d59 1e40 6f24 113f
00000190: d774 0cbf 095f 42bf 0801 8cbe d1ce 063f
000001a0: 6bf4 edbf 0803 1f3f cf8a 663f 9fe5 3fbf
000001b0: 3c06 103f 8055 cf3f e7e9 1e3d b83e 703f
000001c0: 701c b43d 43fe f8bf 3c7d bebf d7af 373f
000001d0: cd46 1fbe ad1b 0c3d 9f9c 373f f5cd 903f
000001e0: 54b4 45bf 9caf 4fbf 4f5e fe3e 7525 c03f
000001f0: 660d bf3f 1fbb 39be c60e 073f f53a b73f
00000200: 828d f03f 6c0e 7cbf af37 bbbe 7c0e e23e
00000210: 500d 9e3f d862 c63f 8d03 67bf 7045 9f3e
00000220: e43e 3b3f 6cec 793f b2b5 f83f 7f97 f43e
00000230: 8d36 51bf fab5 9a3f 48df 043f 91c0 333e
00000240: 63aa b03f f6fd 06bf fdfb eabc 21ed 7abf
00000250: ea06 cfbf 41f6 d1be faba 723f 7f59 863f
00000260: 257a 373f cb1f f1be af80 0540 94a5 42be
00000270: e727 8abd 0b22 d03e 34b0 85be 7e26 2f3f
00000280: a435 c43f 8333 90bf ca2f 86be 4fc4 da3f
00000290: c8da d6bf d255 f43e 8779 823f 37d2 89bd
000002a0: d7a4 acbf 952d 1bbf a257 8a3e 46d7 8c3e
000002b0: 0f50 31c0 c111 e5bd df7b ae3d e79e 8f3f
000002c0: 1d12 70bf 9830 73bd c163 65bf d299 fcbe
000002d0: 7f10 36bd 2179 2040 6656 a6bd 3ef6 43bf
000002e0: 0ca1 34c0 ce8f 1c3f 2759 0ac0 61df 35bf
000002f0: 2689 2e3f 6d5c d53c 849f 2d40 9e8b f23e
00000300: 47f9 f53e a0e1 5c3e 6ea8 aebf a674 5e3e
00000310: 4903 34bf f0e4 77bf 4144 37be e4af a83f
00000320: 1253 70bf 7093 593e 6177 ea3d 60fa 2cbf
00000330: a58b 0a3f fb32 b03c a4b3 b3bf 003e 6dbf
00000340: a4dd b1bf 0cf2 07c0 91a8 23bf 025d d83d
00000350: 8042 223f b348 223f bca6 903f 7d65 dd3d
00000360: 3553 23be 111c e6bf 635b 55bd edd0 02bf
00000370: 34c5 3b40 6896 923d 7317 80bf 96be 983e
00000380: 2680 1cbf a3b8 29bf 8ef2 333d 432f 6c3f
00000390: 1d51 87bf 754b 94bf b799 32bf a8c7 8a3f
000003a0: 30e8 30bf 7e76 a83e 0081 953e f49b 1f3e
000003b0: 9fc6 69be 371f 89bf c1ea 1ebf 4c8c 2d3f
000003c0: 2d5d f33e d659 4cbf e7f2 87bf 7b08 fe3e
000003d0: 50d0 5c3f 8623 b2bf 4c99 993f eb44 e8be
000003e0: 7060 10bf 2d0e b7bf c2f8 2abf b2d9 233f
000003f0: 864c f83f 4c77 6cbd 37f4 b2bd aefc 9fbf

indicator_mixing.2.W2 f4 [64, 5]
-0.10514563 -1.6394825 1.1436912 -0.36880255 -0.6426553 1.0626988 -1.1058383 1.2156997
0.14192376 -1.6879244 0.35835248 -0.3630224 0.919472 -0.5721886 -1.6432079 -0.70349425
-0.6691407 0.21140252 0.16248447 -0.505969 -1.9576594 0.08064577 -0.08540798 1.3217373
1.0450283 -0.91684693 0.5740124 0.9034983 -0.40791148 0.6752284 1.2701546 -0.4009102
-0.016760891 -0.013804678 0.332437 0.13376474 1.3989804 -0.2931819 1.701823 -1.0017756
-0.5834119 0.27289292 -0.8740835 -1.0374634 0.74257547 -1.8739699 -1.0044098 1.6747084
0.48780444 -0.412505 0.44348997 -1.460249 -0.35898867 0.6512418 0.89019835 -0.5395403
0.8110269 -0.74736184 -0.2534235 -0.08065797 -0.6291581 -0.87245834 -0.4131341 1.099078
1.986955 0.19395079 -0.9523964 0.27133334 0.29763415 -0.8268129 -1.8625169 2.1055589
0.4576652 1.0843154 0.794158 0.29601493 1.9127191 0.012461152 -0.6298572 0.77799815
-0.45651627 1.3048042 2.0884614 0.97214985 1.1241888 -1.5895388 -0.3902909 -1.211063
-1.9284589 -0.55418843 0.08033991 0.7346728 -1.5182167 1.2452699 0.437246 -0.7251797
0.058464035 -0.4718644 -0.6294937 -1.4083343 0.47756156 0.1513954 1.5837065 -1.8562707
1.4650459 0.7036784 -1.0762709 0.89594996 0.03562755 0.66298544 -0.65931576 -0.008681034
2.4320407 0.3568159 -0.14242367 -0.12002466 2.19191 0.013773258 -0.46740344 1.1436028
-0.8395101 1.4450805 1.3077282 -1.5940737 0.9238063 -1.0102572 -0.8957604 1.2137996
0.9461061 -0.10563604 -0.13894767 -0.73731786 -0.2747575 -0.861276 -0.14358138 -0.814365
0.41431063 -0.32927063 0.3171689 0.30181974 0.08094511 1.8448349 1.0834051 -0.045150187
0.4108597 0.21026406 -0.1480537 0.12236386 0.9711795 -0.44780076 -0.013662514 0.47282287
0.10496781 -0.26763856 -0.64257956 -0.789536 -1.1023377 -0.68540585 1.2670614 -0.0048147636
0.21424274 1.6320839 0.21452357 0.7873722 -1.2236304 -1.2421719 0.19367746 0.425594
-0.82869834 0.021261785 0.61613154 0.1228453 -1.5016721 -0.7789913 0.26003712 -1.4503349
-0.87901807 -0.65799296 -0.05711472 -0.29532224 0.58423555 1.4359651 -1.6516147 -0.84984815
-0.6223487 -0.61136454 1.7443012 0.6678442 -0.016098108 -0.30002338 0.1568033 -1.4365833
0.00689173 2.2444522 0.7220111 -0.089862406 0.6818384 1.8519809 -0.32303962 -0.32786167
0.015116115 -0.6753185 0.214543 -0.42175138 -0.920503 -0.84225893 0.16349262 -0.63183755
-0.9732843 -0.13690627 0.5985211 1.5129277 -1.370176 1.1763592 -0.25209972 0.6661707
1.4337553 0.28921804 -0.4944309 -0.29028007 -1.2577868 0.887168 -0.100163735 0.30740762
-1.4424773 0.7358203 0.011690621 0.86539334 -1.0675308 -0.87945884 -0.65948814 -0.91268396
0.20128952 0.32227156 0.31655663 -0.0022016813 0.38227886 0.55086887 0.86580604 -1.1826366
0.39641142 0.5526233 -2.836371 -2.982097 -0.2732286 0.015849046 1.9036993 -0.9890815
-1.7882979 0.28843468 2.1021383 -0.5275452 -0.54947674 1.0725607 -0.54939204 1.3695555
00000000: 9856 d7bd 90da d1bf 7964 923f b0d3 bcbe
00000010: 0f85 24bf 8406 883f 1c8c 8dbf 0c9c 9b3f
00000020: 7654 113e e80d d8bf fa79 b73e 12de b9be
00000030: 8462 6b3f f47a 12bf a354 d2bf 3318 34bf
00000040: ce4c 2bbf e779 583e 5462 263e 2f87 01bf
00000050: 9594 fabf 9c29 a53d 61ea aebd b02e a93f
00000060: 7dc3 853f 7bb6 6abf 7af2 123f aa4b 673f
00000070: c6d9 d0be c5db 2c3f 6d94 a23f 1a44 cdbe
00000080: 234e 89bc 042d 62bc 2f35 aa3e a0f9 083e
00000090: ca11 b33f f01b 96be 56d5 d93f 2f3a 80bf
000000a0: 7b5a 15bf 9fb8 8b3e f0c3 5fbf 9acb 84bf
000000b0: 6d19 3e3f 3fde efbf 8090 80bf d85c d63f
000000c0: 81c1 f93e db33 d3be 1e11 e33e 70e9 babf
000000d0: 5dcd b7be c8b7 263f 0ae4 633f 501f 0abf
000000e0: 759f 4f3f 1b53 3fbf bac0 81be 0130 a5bd
000000f0: 8110 21bf 6e59 5fbf 5086 d3be 97ae 8c3f
00000100: 8b54 fe3f 099b 463e 40d0 73bf 34ec 8a3e
00000110: 8163 983e 03aa 53bf f466 eebf 7ac1 0640
00000120: 1853 ea3e d9ca 8a3f f04d 4b3f 458f 973e
00000130: fbd3 f43f dc29 4c3c 523e 21bf e32a 473f
00000140: 80bc e9be d303 a73f 5aa9 0540 d0de 783f
00000150: 6be5 8f3f 0276 cbbf 35d4 c7be 1d04 9bbf
00000160: bed7 f6bf 4bdf 0dbf 4089 a43d 8413 3c3f
00000170: ed54 c2bf 0165 9f3f b5de df3e 60a5 39bf
00000180: fc77 6f3d 3698 f1be 8026 21bf 4c44 b4bf
00000190: f382 f43e 6507 1b3e e5b6 ca3f 479a edbf
000001a0: a086 bb3f 4524 343f 3fc3 89bf fa5c 653f
000001b0: 32ee 113d 6ab9 293f ebc8 28bf e53a 0ebc
000001c0: 8ea6 1b40 93b0 b63e 83d7 11be 7dcf f5bd
000001d0: 4148 0c40 3ba9 613c 814f efbe 9461 923f
000001e0: 22ea 56bf 66f8 b83f a363 a73f 9b0a ccbf
000001f0: 927e 6c3f 1c50 81bf 8e50 65bf c95d 9b3f
00000200: 0234 723f b557 d8bd 4c48 0ebe ddc0 3cbf
00000210: 04ad 8cbe 957c 5cbf ff06 13be 3a7a 50bf
00000220: 8620 d43e 2996 a8be f663 a23e 1e88 9a3e
00000230: 8dc6 a53d 8d23 ec3f 05ad 8a3f 67ef 38bd
00000240: 345c d23e 764f 573e 649b 17be e799 fa3d
00000250: 389f 783f 2446 e5be bdd8 5fbc d715 f23e
00000260: 5df9 d63d ec07 89be 1880 24bf 081f 4abf
00000270: 6719 8dbf c276 2fbf 112f a23f 2ac5 9dbb
00000280: 7362 5b3e 20e8 d03f 11ac 5b3e 3991 493f
00000290: ec9f 9cbf 7dff 9ebf 6253 463e 75e7 d93e
000002a0: 9325 54bf 322d ae3c ccba 1d3f 5196 fb3d
000002b0: cb36 c0bf f96b 47bf 9623 853e 93a4 b9bf
000002c0: 5407 61bf 3a72 28bf 20f1 69bd 7a34 97be
000002d0: 7690 153f b4cd b73f 1c68 d3bf a68f 59bf
000002e0: 3f52 1fbf 6382 1cbf 4345 df3f d6f7 2a3f
000002f0: 2ee0 83bc aa9c 99be 0b91 203e f6e1 b7bf
00000300: 05d4 e13b 1ba5 0f40 b8d5 383f c809 b8bd
00000310: f68c 2e3f b60d ed3f 7365 a5be 7cdd a7be
00000320: 95a9 773c ace1 2cbf 29b1 5b3e ccef d7be
00000330: 16a6 6bbf 489e 57bf 9c6a 273e 1bc0 21bf
00000340: 2929 79bf 2831 0cbe ae38 193f 9da7 c13f
00000350: ed61 afbf f092 963f 3713 81be 2a8a 2a3f
00000360: 4b85 b73f 6314 943e 0c26 fdbe 979f 94be
00000370: 28ff a0bf 711d 633f a522 cdbd 8864 9d3e
00000380: 19a3 b8bf b85e 3c3f 058a 3f3c 6b8a 5d3f
00000390: d9a4 88bf 3724 61bf 37d4 28bf a8a5 69bf
000003a0: d71e 4e3e c700 a53e b613 a23e 154a 10bb
000003b0: 0eba c33e be05 0d3f 77a5 5d3f a360 97bf
000003c0: 70f6 ca3e b878 0d3f 1a87 35c0 adda 3ec0
000003d0: 9ee4 8bbe dcd5 813c 6bac f33f 7234 7dbf
000003e0: f2e6 e4bf b6ad 933e 6f89 0640 340d 07bf
000003f0: 82aa 0cbf ab49 893f f5a4 0cbf 984d af3f

indicator_mixing.2.ln.weight f4 [4, 5]
0.99007607 0.98634845 1.0155368 1.0306004 0.98178536 1.0111496 0.99319535 1.0053039
0.98354197 0.9656634 1.1088642 1.0062104 1.0671524 1.2425419 1.0139785 0.9459073
1.0049288 0.9852087 0.9540783 0.98387045
00000000: a075 7d3f 5581 7c3f 1cfd 813f b7ea 833f
00000010: 4956 7b3f 5a6d 813f 0d42 7e3f ccad 803f
00000020: 68c9 7b3f b735 773f 43ef 8d3f 81cb 803f
00000030: 7398 883f 9d0b 9f3f 0cca 813f fb26 723f
00000040: 82a1 803f a336 7c3f 7a3e 743f efde 7b3f

indicator_mixing.2.ln.bias f4 [4, 5]
0.0110983355 0.016228827 0.022836562 -0.024509877 0.016068622 0.0055385046 0.023128554 -0.003996917
-0.024467252 0.023330554 0.09967462 -0.01805255 0.08763728 -0.19391854 -0.044218846 -0.018899964
0.025521476 0.010873648 0.010514746 0.0069816625
00000000: cbd5 353c 51f2 843c be13 bb3c f0c8 c8bc
00000010: 58a2 833c 587c b53b 1878 bd3c 92f8 82bb
00000020: 8c6f c8bc b81f bf3c 3522 cc3d f1e2 93bc
00000030: 2d7b b33d 9592 46be d21e 35bd 19d4 9abc
00000040: 6a12 d13c 6327 323c 0b46 2c3c 6ec6 e43b

indicator_mixing.3.W1 f4 [5, 64]
2.100321 -0.465083 -0.35672745 -0.20975314 0.27041024 -0.13661937 -1.2211486 0.62008977
-0.6764846 -0.049902402 -0.798281 -0.45450112 0.3225059 -0.4147742 -0.7273485 -0.35790282
-2.1699862 -0.14250459 2.2365382 1.1043512 -1.4901745 0.958035 0.53166085 1.0871968
0.58805656 1.3365829 0.19074382 -1.0601176 1.0231154 -0.5560936 -0.48032027 0.43862018
0.11928143 -1.7078031 -2.1351976 -3.035563 2.2612894 1.0430572 0.49032623 -0.5237035
0.4669172 1.6332462 -0.5208589 1.4582814 -1.7884207 0.28430122 -1.6059569 0.52700937
1.5466025 -0.14110683 -0.22760424 1.1749461 0.38979244 2.3326888 -0.8573317 0.9395411
-1.1172441 -1.5699631 -0.32985437 -0.75956225 0.32676396 -1.6340883 0.5603074 0.0060029877
0.9770315 -0.4805355 0.60675377 1.3925586 -0.58782744 1.5475338 0.09761276 0.5778013
-0.8120903 -0.5374544 1.1659812 -1.2476794 0.6152868 -0.056838915 -1.8752973 0.77302533
0.4402313 -0.6187867 1.254072 2.3976905 -0.9340454 0.07268764 2.2783828 -0.4041992
-1.3507563 0.20181477 0.8888212 -0.83008415 0.7264241 -0.9726886 0.40641385 0.3095818
-0.58559173 1.9432216 -0.87210304 -0.53115696 0.46312055 0.5178644 -1.3989031 -0.47019196
0.1563393 1.2888536 0.5324878 0.9127833 0.42358968 1.784678 -0.38221994 0.051213115
0.7862463 1.1221 -0.44972482 -1.4041133 1.7359228 0.9648431 -0.15854152 0.47603568
1.177112 -0.3057719 0.24015024 -0.4626029 0.5504197 0.32085624 -1.5794549 0.5007423
-0.28794643 0.54762816 2.2564273 1.9416419 -1.9785967 -1.1500992 1.7687664 0.0016082623
0.21390457 0.980411 -0.5197545 -0.83651847 -1.3201537 -0.5039479 0.21690798 -0.00942872
0.45835233 2.2918868 -0.9108531 0.24019295 0.014055101 -0.8501465 0.96442235 -0.5754069
0.02501261 -0.46114165 -2.0188751 0.92617273 0.44558433 -0.34807685 -1.5501053 -0.46723846
-0.9265062 -0.4364024 0.67047155 1.5352721 0.7080691 -0.24020626 0.7520881 -1.3097417
2.7083592 1.9278758 -0.015897065 0.9292356 1.5103642 -1.3804945 -0.37030703 0.45659736
-0.99064445 0.48987225 -2.13665 1.3355181 -1.0372987 0.7680741 1.1950108 0.17855477
-1.6581172 -0.823524 -0.48277813 0.5698958 -1.2239269 0.20949695 -0.20081285 0.49904066
0.43483597 -0.8079341 -0.2734093 -0.45100385 -0.45631474 -0.82024163 -0.15632993 0.4633363
-0.3330087 0.90110147 -0.14203414 0.035252135 -0.5339777 1.0635636 -2.0173287 -2.1291082
-0.60086787 -0.52107745 -0.6907289 -0.75044996 -0.47627264 -0.5979553 -0.86179006 2.1098855
-0.40758464 0.7759667 0.2672376 -1.8211825 -0.21208863 -1.2332726 -0.96045655 1.1451199
-0.23726946 -0.7250522 -0.118436925 0.85762906 1.201037 2.2207627 -1.1872162 0.22374737
0.17997216 -0.02724886 2.0340905 1.8681449 1.2451586 -0.60558814 -0.7273401 0.45969847
1.0446786 -3.1806498 -0.10889514 1.2761784 -0.6853309 0.4240982 -0.4671887 0.14446671
-1.0406768 -0.5186966 2.0712383 1.1214905 -0.73017263 -0.6025736 -0.5250295 1.4874862
00000000: a96b 0640 5c1f eebe fba4 b6be 87c9 56be
00000010: 3673 8a3e f3e5 0bbe 994e 9cbf 34be 1e3f
00000020: 182e 2dbf 7666 4cbd 255c 4cbf 5fb4 e8be
00000030: 7e1f a53e 495d d4be 8333 3abf 0a3f b7be
00000040: 0ee1 0ac0 b9ec 11be 7123 0f40 615b 8d3f
00000050: 0abe bebf c841 753f ed1a 083f 4429 8b3f
00000060: e08a 163f 2615 ab3f 5952 433e efb1 87bf
00000070: 72f5 823f 265c 0ebf 8aec f5be d392 e03e
00000080: d349 f43d 4b99 dabf 14a7 08c0 aa46 42c0
00000090: f7b8 1040 e682 853f 0a0c fb3e 6f11 06bf
000000a0: c50f ef3e 360e d13f 0257 05bf f7a8 ba3f
000000b0: f8ea e4bf ee8f 913e ff8f cdbf 16ea 063f
000000c0: 12f7 c53f 4f7e 10be 1611 69be a264 963f
000000d0: e092 c73e c64a 1540 177a 5bbf c485 703f
000000e0: db01 8fbf 8df4 c8bf ace2 a8be ac72 42bf
000000f0: 9b4d a73e ce29 d1bf 4e70 0f3f b6b4 c43b
00000100: bd1e 7a3f c008 f6be 3754 1b3f 5c3f b23f
00000110: dc7b 16bf 9615 c63f 33e9 c73d c9ea 133f
00000120: 26e5 4fbf 9d96 09bf df3e 953f f5b3 9fbf
00000130: 7083 1d3f eccf 68bd be09 f0bf fde4 453f
00000140: ff65 e13e ce68 1ebf 6e85 a03f c373 1940
00000150: 991d 6fbf 42dd 943d 06d1 1140 33f3 cebe
00000160: 95e5 acbf 88a8 4e3e c989 633f 6580 54bf
00000170: eef6 393f 1f02 79bf 7a15 d03e 8181 9e3e
00000180: 57e9 15bf 7cbb f83f 2542 5fbf e7f9 07bf
00000190: 231e ed3e c392 043f 420f b3bf 00bd f0be
000001a0: 6917 203e 28f9 a43f 1f51 083f 2bac 693f
000001b0: bfe0 d83e 5470 e43f 55b2 c3be d8c4 513d
000001c0: 7047 493f f9a0 8f3f 5542 e6be fcb9 b3bf
000001d0: b832 de3f f5ff 763f b558 22be f3ba f33e
000001e0: 9bab 963f 228e 9cbe f2e9 753e 4ada ecbe
000001f0: 4ee8 0c3f 4547 a43e 942b cabf a630 003f
00000200: b76d 93be 5c31 0c3f 4e69 1040 b987 f83f
00000210: a842 fdbf 7336 93bf f066 e23f 54cc d23a
00000220: cd09 5b3e 37fc 7a3f a20e 05bf 1326 56bf
00000230: ccfa a8bf bb02 01bf 201d 5e3e eb7a 1abc
00000240: 28ad ea3e 46ae 1240 ab2d 69bf 24f5 753e
00000250: 5e47 663c 33a3 59bf 62e4 763f de4d 13bf
00000260: 3fe7 cc3c c21a ecbe 4035 01c0 a819 6d3f
00000270: a123 e43e 2137 b2be da69 c6bf e139 efbe
00000280: 832f 6dbf 2370 dfbe 06a4 2b3f cc83 c43f
00000290: 0444 353f a1f8 75be d988 403f 9ea5 a7bf
000002a0: c255 2d40 a2c4 f63f 903a 82bc 62e2 6d3f
000002b0: 9d53 c13f 0bb4 b0bf e298 bdbe 21c7 e93e
000002c0: e09a 7dbf 89d0 fa3e e0be 08c0 42f2 aa3f
000002d0: 34c6 84bf 81a0 443f 1df6 983f 10d7 363e
000002e0: 2f3d d4bf 78d2 52bf b22e f7be b1e4 113f
000002f0: a3a9 9cbf 5e86 563e e2a1 4dbe 4282 ff3e
00000300: d2a2 de3e c5d4 4ebf 4efc 8bbe fae9 e6be
00000310: 16a2 e9be 5bfb 51bf f414 20be 6a3a ed3e
00000320: 1e80 aabe 96ae 663f 6671 11be 8b64 103d
00000330: c3b2 08bf da22 883f ea1b 01c0 4f43 08c0
00000340: 7ad2 19bf 5565 05bf 9cd3 30bf 7d1d 40bf
00000350: 02da f3be 9913 19bf 469e 5cbf 5d08 0740
00000360: efae d0be c1a5 463f 5ed3 883e 821c e9bf
00000370: c32d 59be e0db 9dbf 7be0 75bf 4a93 923f
00000380: c4f6 72be 059d 39bf 0f8f f2bd 948d 5b3f
00000390: 95bb 993f fa20 0e40 b3f6 97bf 081e 653e
000003a0: 9f4a 383e 0039 dfbc 8a2e 0240 5f1f ef3f
000003b0: 5b61 9f3f d307 1bbf f632 3abf 995d eb3e
000003c0: 07b8 853f c48f 4bc0 6a04 dfbd d059 a33f
000003d0: d971 2fbf 6623 d93e 5b33 efbe 15ef 133e
000003e0: e634 85bf 4dc9 04bf 2b8f 0440 008d 8f3f
000003f0: 98ec 3abf 4342 1abf 5568 06bf f365 be3f
